models/Kozina/cars/Kozina_cars_model.onnx (onnx, 60555 bytes, 13 tensors)

functional_5_1/dense_9_1/Cast/ReadVariableOp:0 f4 [128, 64]
00000000: fe0b 2ebe d10a 34bd 26c2 bd3b 731f efbd
00000010: 110b 863c 4a57 4ebd 1af2 6dbe 2ee0 c93d
00000020: 7419 0ebe 4dc3 88be a8f4 99bd b8e4 7b3d
00000030: 24bc 003e 9a36 7b3d 1154 0f3e 6c3f cabd
00000040: d2c8 0d3d 9b80 873d d241 fc3b 03c6 533e
00000050: d386 72be 456c 24be c942 cf3d 5c88 27be
00000060: 3ee2 1a3e e57e 843d 48b9 023e d424 92bc
00000070: e2eb 2ebe ac73 8dbb 5560 b43d 3a57 0bbd
00000080: 47f3 343e b160 17be 7e33 49be 1335 67bd
00000090: 5c47 f23d b48a 01be a989 17bd e2aa 42bd
000000a0: 0493 e5bd 2955 11bd 4d06 9dbc acf6 35be
000000b0: 4e1f 973c debf bbbd 9036 863d 920b 053e
000000c0: 7fda 2b3e e387 1a3d 9e0c 27be b444 0d3e
000000d0: 81a9 ff3c 390d 02be 9561 9bbd 256a 293e
000000e0: 5f38 15bd ab29 eebc 6cd5 18bd a882 cf3d
000000f0: d90d 683e b467 003e 7a09 9abc 8ad9 073e
00000100: f4f7 8cbd 334e 803d 667d 293b 4c24 233e
00000110: b0c1 5e3e 005b 1fbe 1d0e a73d 7b95 9bbd
00000120: 07e6 7b3d e66d 0c3e 4876 1cbc c0ad 5bbe
00000130: ea8a 713d d180 24be b163 4b3e 23d5 b83c
00000140: 27c0 f2bd cf81 96bd c1ed 3bbe e5d3 413d
00000150: ac2e 85bd 2caf 13be 16df 9f3d 408e 45be
00000160: 0f66 ad3d 5ca5 223e 1010 22bc 4811 aebc
00000170: 5f2b 0abe 4f01 09be 32e9 93be 95b5 b2bd
00000180: 9aa8 033e de4d 83be 2df5 6cbe 73ce c8bc
00000190: 8df8 32be 06df 2dbe 5f35 07be 80a9 743e
000001a0: a557 2bbe 1567 573e ef31 f43d 8cdd 4cbe
000001b0: ae6a 963c b9a7 133d 8e93 753c 8921 d4bd
000001c0: 80e1 633d ad65 f5bd 8b30 33bd 756a 1abd
000001d0: dd0a e63c 1958 64bd 50a9 1abe 5170 12bd
000001e0: bef7 d9bd 7873 c9bd b34a 823d daae e23d
000001f0: 014c be3d e7da 80bd 2217 523e 0923 afbd
00000200: 9fea c23d b0f0 16be fd05 123e 145c 1dbd
00000210: 76ce fabb 9026 36bc 6a9d 4dbe 196c 703e
00000220: 0da5 adbc b674 99bd b5a0 0d3d a0ad 0dbe
00000230: f3b0 f33c eaed 033e 1b1b 353e 336b 2dbe
00000240: d112 f2bd f11f 1abd 41d2 ec3d 6a44 e43d
00000250: 65b8 c23b 70bc 14be 5e16 153d ed73 3b3e
00000260: 21aa 93bd 1127 86bd 5830 65bd ff08 b8bd
00000270: 2724 f0bd 0899 e8bd b352 fcbd 54ad 9a3d
00000280: 1f65 cebd 5c93 0d3d b67a 54bd 4d48 c63d
00000290: 0192 87bd 1c25 3d3d 1acd 05bd a7be 94bd
000002a0: 349a 273e 77d5 d0bd 1ed3 b7bd b17e 5fbd
000002b0: 7486 553d 6aa4 c6bd b507 19be 8287 eebb
000002c0: 7320 443d 9978 a23d 32a4 9fbd 0f9b f1ba
000002d0: 0501 0bbe 43cc 0f3e 4936 25be f427 3e3e
000002e0: 0d5e d53c 39d1 103e 23d4 6abe 8360 97bd
000002f0: d0f8 f63d 3109 123e ec4f f53d 47b8 3b3e
00000300: 63e2 71be 6d04 4cbd ac16 96bd ff38 953d
00000310: dc51 0f3e 0eee f9bd 6f00 ddbd 37d6 6f3d
00000320: 738e 18be 8ca4 b8bc 13bc 503d 1f55 ff3c
00000330: 882b 903d 257d 06be 87bc 8ebd dc84 c7bd
00000340: 2514 0cbe aced 793d 7401 41be c5b9 9a3e
00000350: c117 233e 2c26 69be 9bd4 2a3e 2de3 623e
00000360: abc3 3dbe 0326 fb3d fd54 87bd 8bc5 80bd
00000370: 32fb bf3d 68b7 b73d ac68 063e c193 793e
00000380: b868 f73c 13e6 d2ba 25ac b03c cbef 5ebe
00000390: 8405 28bd 5345 a2bd 6f1a a7bd 863b 393e
000003a0: 3352 803d 749a 0fbd c00e f23c e589 063e
000003b0: e2d6 343d 47cc 15be daa2 453b ac8f 0b3e
000003c0: 9ba8 693e 798c bc3d d067 5abd 1c8f 33be
000003d0: 516b c7bd 8aea 1ebe 7f29 4c3d 757f 253e
000003e0: cb48 21be b5ea 403e dd60 f33d 0ce0 423e
000003f0: 651e 11be 6b5c 24be 1bbe b93d 2791 113e
-0.16996762 -0.043955628 0.0057909666 -0.1167592 0.016362699 -0.050376214 -0.23236886 0.09857212
-0.13876897 -0.26711503 -0.075173676 0.06149742 0.1257177 0.06133137 0.13996913 -0.09875378
0.034615345 0.066163264 0.007698276 0.20681004 -0.23684244 -0.16056927 0.1012016 -0.1636061
0.15125367 0.06469516 0.12765992 -0.017839827 -0.1708217 -0.0043167677 0.088074364 -0.034018733
0.17670928 -0.14782979 -0.19648549 -0.0564471 0.11830017 -0.12650567 -0.036996517 -0.047526248
-0.11209682 -0.035481606 -0.019168044 -0.17769879 0.018447544 -0.09167455 0.06553376 0.12992695
0.16782568 0.037727248 -0.16313407 0.1379574 0.031208755 -0.12700357 -0.07586972 0.16544397
-0.036430713 -0.029072603 -0.03731291 0.101323426 0.22661532 0.1253956 -0.018803347 0.13266578
-0.06883231 0.06264915 0.0025862097 0.15931815 0.21753573 -0.15562057 0.08156989 -0.075968705
0.061498668 0.13713798 -0.009549685 -0.21452999 0.05897037 -0.16064765 0.19862248 0.022562569
-0.118530564 -0.07348978 -0.18352415 0.04732122 -0.065030426 -0.14422292 0.07806222 -0.19292545
0.08466732 0.15883392 -0.009891525 -0.021248475 -0.13493107 -0.13379405 -0.2888885 -0.0872604
0.12857285 -0.25645345 -0.23140402 -0.024512505 -0.17477627 -0.16979608 -0.13203953 0.23892784
-0.16732652 0.21035416 0.119235866 -0.20006388 0.018361416 0.036048625 0.014988793 -0.10357959
0.055634975 -0.11982284 -0.043747466 -0.03769918 0.028081352 -0.05574808 -0.1510365 -0.035751645
-0.10642956 -0.09836477 0.06361904 0.110685065 0.0929184 -0.06291752 0.20516637 -0.08551604
0.09517407 -0.14740252 0.14260097 -0.03841789 -0.0076540066 -0.011117592 -0.2007958 0.23478736
-0.021196866 -0.07492964 0.03457709 -0.13835764 0.029747462 0.12883726 0.17686121 -0.16935425
-0.11819995 -0.037628118 0.1156354 0.111458614 0.0059423917 -0.14525008 0.036398284 0.18305941
-0.07210184 -0.0655042 -0.055954307 -0.08986091 -0.117256455 -0.113573134 -0.12320461 0.07552591
-0.10077881 0.03456436 -0.05187484 0.09681759 -0.06619645 0.04617797 -0.032666303 -0.072629265
0.16367418 -0.10196965 -0.08975814 -0.05456418 0.052130178 -0.09699328 -0.14944346 -0.0072793374
0.04788251 0.079331584 -0.0779499 -0.0018433052 -0.13574608 0.14042763 -0.1613399 0.18569928
0.026045823 0.14142312 -0.22932486 -0.07391455 0.12059176 0.14261319 0.119781345 0.18332015
-0.23621516 -0.04980891 -0.07328543 0.07286262 0.1399607 -0.122036085 -0.10791098 0.0585539
-0.1489809 -0.0225394 0.05096061 0.031168519 0.07039553 -0.13133676 -0.069695525 -0.09742138
-0.1367956 0.061017677 -0.1884821 0.30219856 0.1592703 -0.22768468 0.16682665 0.22156973
-0.18531673 0.122631095 -0.06608007 -0.06287678 0.093740836 0.08970529 0.13125867 0.2437277
0.030201301 -0.0016090296 0.02156646 -0.21771161 -0.041020885 -0.07923379 -0.08159339 0.18089113
0.06265678 -0.035059407 0.029548049 0.1313854 0.04415024 -0.14628707 0.0030156882 0.13629025
0.22818224 0.092064805 -0.05332166 -0.1753506 -0.09737266 -0.15519157 0.04984426 0.16161902
-0.15750425 0.18839534 0.118837096 0.1903078 -0.14171751 -0.1605088 0.09069463 0.14215527

functional_5_1/dense_9_1/Add/ReadVariableOp:0 f4 [64]
00000000: fcb0 403d 413a 0bbd 48cb 203d 28c3 f2bd
00000010: b7bc 433b 7b74 a83d 6cdf 34bd a14e 813d
00000020: 317a a33c be54 f9bd 5e89 f33c 3ee1 e6bc
00000030: a43b ed3c 89db c3bd 168b 3a3d 251e 6ebd
00000040: 2eff 0fbd 24f5 80bc 23e8 0e3d bf41 5dbc
00000050: 8adf 9bbd 7eac 61bd ec85 b53d 3428 ecbd
00000060: 2123 7fbd 904b 8fbd 84ef 803d 48dd b83d
00000070: 0339 5f3d d95b 8fbd 6e27 873d 0d8d eebd
00000080: 8d34 093d 7438 84bd cdd1 b8bd fda5 6abd
00000090: 2c70 31bd 2ff5 00be 1ea3 d8bd 1a4d 083c
000000a0: 5bdb 563d e873 203d ab3f bbbd ebc5 363d
000000b0: 6ef1 623d 9486 483d e964 b53b d007 6b3c
000000c0: 4779 693d a6f0 1abd a7a3 92bc d6f9 0fbe
000000d0: 22bb 8f3c 2daa 7fbc 39bc 88bc a1ea 103d
000000e0: 7f22 f4bd 2ec4 b6bd fdb5 febc a674 21bc
000000f0: 57c9 153c 17ba cebd 4228 203c c27d 90bd
0.047043785 -0.033991102 0.039256364 -0.11853629 0.0029867121 0.08225342 -0.044158384 0.063138254
0.019955726 -0.121743664 0.029728588 -0.028183576 0.028959103 -0.095633574 0.0455428 -0.058134217
-0.035155468 -0.015741892 0.03488935 -0.013504445 -0.07610996 -0.055096142 0.08863434 -0.11531106
-0.06228936 -0.06996834 0.06295684 0.09026581 0.05449773 -0.069999404 0.065993175 -0.11647997
0.033497382 -0.0645608 -0.09024391 -0.057287205 -0.043319866 -0.1259353 -0.10577987 0.008319164
0.052455287 0.039173037 -0.09143003 0.044622343 0.055406027 0.04895647 0.005535711 0.014345124
0.057000425 -0.037827156 -0.017900301 -0.14060149 0.017545287 -0.015604538 -0.016691314 0.03538001
-0.11920642 -0.08924137 -0.031092638 -0.009854471 0.009142241 -0.100940876 0.009775223 -0.070552364

functional_5_1/dense_8_1/Cast/ReadVariableOp:0 f4 [25, 128]
00000000: 0ebf e23d 9e82 f13d e79c 343e a047 883b
00000010: 483f cfbc 1f69 afbd 31de 133e abba 003e
00000020: c8a1 103d f63b 9b3d 9ecb fabd 9267 9fbd
00000030: 6316 3f3e ef13 053e e9ca f5bd 90cb 683c
00000040: 6079 843b 231d 213e 980b cfbc 046f 0abd
00000050: b7b4 d3bd 6043 ab3b 0ab3 a73d 765f 16be
00000060: b475 7ebd 74ee 7ebd 49f4 043e 2418 5c3d
00000070: bdd4 ffbd e047 0ebe 9ae1 9e3d 80ca 38be
00000080: 42d4 d73d 9b37 3e3e d774 2a3e 6111 263e
00000090: c255 ee3d 567e e83d 9c53 e7bd 9016 92bd
000000a0: b79a 0e3e 0e48 c53d 6efd fd3d 80d1 aaba
000000b0: ff18 023e ec08 6a3d ff24 473e 02d7 f3bd
000000c0: 9aaa b43d c4f1 2cbe 0d27 2e3e 50e5 5dbd
000000d0: c0d0 773c 1ba8 043e 8119 2bbe f224 33be
000000e0: f68c b73d d750 133e 90bb 3ebc 0aa2 df3d
000000f0: 0047 2d3a 21cd 053e cc93 0cbd e82d 78bd
00000100: 20ea 653c 9071 e8bd 405b 23be 6abc 80bd
00000110: 3a1f 37be c011 9ebb b9bf 093e e73f 1a3e
00000120: b0a0 89bd b097 503d 5424 0dbe 93f4 3a3e
00000130: 8f42 48be 4c0a 633d ca40 43be b4b4 643d
00000140: 20d8 dabc b6e9 31be 120f ea3d 8015 983c
00000150: 60f8 553c 2bed 12be 0063 b9ba 1216 29be
00000160: e4ee 65bd 757d 98bd ea92 a0bd c9cb 293e
00000170: b4f6 1a3d d271 a23d 7ed7 e43d bb93 243e
00000180: 461a d33d 583a 68bd f23c 0dbe 886f 26be
00000190: a31e f0bd 20e9 56bc 8e9b c33d 45c3 3f3e
000001a0: af43 483e 01d4 243e 994e a1bd 688d f9bd
000001b0: a7f6 103e 8b94 f2bd 7282 9b3d 126f ce3d
000001c0: 71f8 45be f76d 223e 2fac 293e bdb1 99bd
000001d0: ae3c 0fbe 2349 9bbd 9970 003e cbcc 313e
000001e0: 8786 383e 39c0 1fbe 5ac1 0cbe 3f7a 113e
000001f0: 4c1f 41bd 294b 343e 236f 39be 7a26 8f3d
00000200: 97c9 d4bd 54d6 403e 5408 79be 44e3 c2bd
00000210: f824 baba b590 f0bd 3fb2 1f3d a225 73bb
00000220: b571 10bd abaf cebd 5600 583e 7ec7 9b3d
00000230: 4fc4 07be 2917 1fbe d19d 20be 98d2 f53c
00000240: 6be2 42bc 4979 2dbd 3591 17be 83e6 233d
00000250: fb48 c53d 66ec 8e3d da32 bebd cdac 0c3d
00000260: 7d3a 5ebb 7476 763e 70b2 1fbe c047 6f3e
00000270: b10e febd b3c8 66bb 5a6d e1bb 568d 7f3d
00000280: 24ab 0d3e f8cf 013e 8c18 12be 5d67 603e
00000290: 906a 7ebd 5e79 dcbb 04c8 1abd 1e9f 073e
000002a0: cc40 88be d49c 123d bb82 90b9 ed8d f23d
000002b0: 30c2 67bd c2eb 963d bda0 443d bf80 e63d
000002c0: af7b 83be 7989 aa3d 5e36 9bbd a388 5d3c
000002d0: 97bb 35be bd6e 413a 7c9c 09be d9b5 27be
000002e0: 4fd3 dcbd 56c2 6c3d 0ee8 0bbd 0c6d 5c3c
000002f0: b83f d03d 3f9b 0d3d 4309 3b3e 3065 c1bd
00000300: 1bdf fd3d 73a2 1c3e c42f 043d 3702 b6bc
00000310: 19c7 aebd c236 c1bd 5390 1cbe f5e7 063d
00000320: 378b 2ebe f64e 15be 110c 31be 3811 89be
00000330: 141c 183e c37c fe3d 533d 5cbc 02b4 fe3d
00000340: e30a 593e 3f40 27bd 3d04 113c b9aa 493c
00000350: 5917 0abd 748d 7a3d 2dd2 d83d 7d57 f9bd
00000360: 0122 78be 5383 43be 2f58 13be be52 f5bd
00000370: d933 e03c e2a2 5d3d 5dd3 02be fc92 84bc
00000380: 1556 32be a047 84bd 4b22 61be 93c3 31be
00000390: e19a 3ebd 77c7 1e3d 05cc 8ebc b259 143e
000003a0: 6287 60bd d6be a53c 41f7 733e 842d 85bd
000003b0: 9574 05bd b179 03be 60a0 aebc dc4c 173c
000003c0: 71bb a9bd d3df 043e 9b8b 923d 67c9 923c
000003d0: c5e9 b4bd 207f a13d fe1d acbd 04ee 73bd
000003e0: 1ab5 dcbd b8de 53be 9e77 c6bd 5899 5e3d
000003f0: 69ea 5fbd 2142 83bd 2dd0 663d 90ba 013e
0.11071597 0.117924914 0.17637978 0.004158929 -0.02529873 -0.08564972 0.14440228 0.12571208
0.035310537 0.07579796 -0.12245868 -0.07783426 0.18660884 0.12995885 -0.12001593 0.014208689
0.0040427893 0.15733771 -0.025274083 -0.03379728 -0.10337203 0.0052265376 0.08188446 -0.14684853
-0.06212397 -0.062239125 0.12983812 0.05373396 -0.124917485 -0.13894606 0.07757874 -0.18045998
0.10538532 0.185759 0.16646133 0.16217567 0.11637451 0.11352222 -0.11295244 -0.0713321
0.13926207 0.09632884 0.124018535 -0.0013032407 0.12704848 0.057137415 0.19447707 -0.11906244
0.08821602 -0.16889101 0.17007084 -0.054173768 0.0151254535 0.12954752 -0.16708948 -0.17494562
0.08962433 0.14386307 -0.011641398 0.109195784 0.0006610006 0.13066532 -0.034320638 -0.060590655
0.0140328705 -0.11349785 -0.15952778 -0.06285937 -0.17883006 -0.0048238933 0.13452043 0.1506344
-0.06720102 0.05092591 -0.1378339 0.1825736 -0.1955664 0.05542974 -0.19067684 0.055836394
-0.026714385 -0.1737431 0.11428656 0.01856494 0.0130597055 -0.14348285 -0.0014143884 -0.16512325
-0.056136027 -0.07445804 -0.07840522 0.16581644 0.03783293 0.07931866 0.111739144 0.1607198
0.10307746 -0.056696266 -0.1379278 -0.16253483 -0.117245935 -0.013117105 0.09551154 0.18726833
0.19557069 0.16096498 -0.078763194 -0.12185174 0.1415659 -0.118447386 0.0759324 0.10079779
-0.19333054 0.15862261 0.16569589 -0.07504604 -0.13987991 -0.07582309 0.12542953 0.17363279
0.18020068 -0.15600671 -0.13745633 0.1420679 -0.047148988 0.17606796 -0.18108802 0.06989761
-0.10390013 0.1883176 -0.24319583 -0.09516004 -0.0014201691 -0.11746351 0.038988348 -0.0037101288
-0.03526469 -0.100921 0.21093878 0.076064095 -0.1325848 -0.15536179 -0.15685202 0.030007645
-0.011894803 -0.042351995 -0.14801486 0.040014755 0.096330605 0.06978683 -0.09287043 0.034344483
-0.0033909373 0.24068624 -0.15595412 0.23367214 -0.12405146 -0.003521484 -0.006879491 0.062390648
0.13834816 0.1267699 -0.14267176 0.2191443 -0.062113345 -0.0067283353 -0.037788406 0.13244292
-0.26611936 0.035794094 -0.00027563222 0.118434764 -0.056581676 0.07369186 0.048004854 0.11255025
-0.256803 0.08327002 -0.07578729 0.013521346 -0.17747341 0.0007378867 -0.134386 -0.16377963
-0.107824914 0.05780252 -0.03415685 0.013453733 0.101684034 0.034571882 0.18265252 -0.09443128
0.123960696 0.15296344 0.032272115 -0.022217853 -0.085340686 -0.09434272 -0.1528943 0.032936055
-0.17045294 -0.14580902 -0.17289759 -0.2677095 0.14854461 0.1242614 -0.013442355 0.124366775
0.21195559 -0.040832754 0.008851108 0.01230877 -0.033713672 0.061170056 0.10586963 -0.1217489
-0.24231721 -0.19093065 -0.14389108 -0.119786724 0.027368473 0.054110415 -0.12775941 -0.016183369
-0.1741565 -0.06458974 -0.21985738 -0.17359762 -0.046534423 0.038764443 -0.017431268 0.14487341
-0.05481661 0.0202326 0.23824789 -0.06502822 -0.032581884 -0.1283939 -0.021316707 0.009234633
-0.08287705 0.12976007 0.07155534 0.017918302 -0.088336505 0.07885575 -0.08404158 -0.05955316
-0.1077673 -0.20690429 -0.09690784 0.05434546 -0.05466691 -0.064090975 0.056350876 0.12668824

functional_5_1/dense_8_1/Add/ReadVariableOp:0 f4 [128]
00000000: 3015 cfbb b269 af3d c21f b8bd f9b9 843d
00000010: b086 f53c 6628 b9bc 89e5 75bd d2f7 aebc
00000020: 2f8d 903d c75b 72bc d607 f1bc e665 d03c
00000030: 07e5 75bd bbe3 75bd 8ee3 ae3d 0000 0000
00000040: 1e42 7dbd b5b5 823c 0000 0000 3a72 cfbc
00000050: 2c3a 543d 0000 0000 ff97 63bd bf68 73bc
00000060: f339 1dbd c697 023c 0000 0000 d217 b63c
00000070: b45d 2a3b bd09 1bbd 75e8 c0bb 6e2b 123d
00000080: d898 be3c 4116 033e 054d e3bd 547f 14bc
00000090: bb07 5ebd 401c b73c 0000 0000 c7b0 823d
000000a0: 06a3 adbd 0000 0000 f481 a3bc e91a 7e3d
000000b0: c87b 06bd 0000 0000 021e 4bbc 350b 143d
000000c0: 64ac ad3d 5919 2fbd 328c a23d 9c10 333d
000000d0: 0000 0000 58ae 463c 98e5 75bd 8651 c93c
000000e0: 9ec1 e9bc 1c9b 693d 31a2 623d 5ee5 753d
000000f0: 53e5 753d 6695 d53d 0bb0 a33d f8bd 213d
00000100: cec6 eabc e125 003e afad 0b3d 85f7 ad3d
00000110: 5186 873c 29d6 a43d e0ff 1a3b a3fc edba
00000120: e4bb 31bd 0000 0000 1819 babd 4e51 b03d
00000130: 9b75 fd3b 8061 97bc d8a5 c4bd 9326 5b3b
00000140: 6849 61bd 890a cc3d 3692 44bb 8007 80bd
00000150: a022 5bbd 0000 0000 eaf4 2f3c b10b 853d
00000160: bf69 bebd 22c2 7dbc 48a1 ae3a 68b2 923d
00000170: d113 38bd 79bd 36bc 4807 67bd c64e 07bd
00000180: 0000 0000 f947 173c bde4 753d 4194 c2bc
00000190: f175 a33d f6d3 81bd c12f 9ebc d604 cb3d
000001a0: 4b93 c6bc 66d4 65bd 448a afbd 82b1 4a3d
000001b0: 395f 3a3c b057 703d 8de4 75bd 8def 213e
000001c0: 2d5e 713c bbe3 103d 8442 493c b978 a53d
000001d0: 6001 a5bd 1a0b 5e3d c5b7 753d 24a6 9c3d
000001e0: 872d d9bb e4d2 3ebd 9ae1 b73d f882 de3d
000001f0: acef f83c 27dc fabc b21c 0fbd b6a2 d53d
-0.0063196644 0.08565082 -0.08990432 0.06480784 0.02997145 -0.022602271 -0.060033355 -0.021358404
0.07058179 -0.014792389 -0.029422682 0.025439214 -0.06003287 -0.060031634 0.08539496 0.0
-0.061830632 0.015955785 0.0 -0.025323022 0.05181329 0.0 -0.055564877 -0.014856516
-0.038385343 0.007970756 0.0 0.022228155 0.0025995793 -0.037851084 -0.005887086 0.03568595
0.023266241 0.12801458 -0.11098675 -0.0090635605 -0.05420659 0.022352338 0.0 0.06381374
-0.0847836 0.0 -0.019959427 0.062037382 -0.03283289 0.0 -0.012397291 0.0361435
0.084801465 -0.042748783 0.079368964 0.04371701 0.0 0.012126528 -0.06003341 0.024575006
-0.028534707 0.05703269 0.05533046 0.060033195 0.060033154 0.10428886 0.07992562 0.03948781
-0.02865925 0.1251445 0.034101184 0.08494476 0.01654354 0.0804866 0.0023651049 -0.0018156957
-0.043392077 0.0 -0.090868175 0.08609258 0.007734967 -0.018479109 -0.09601945 0.003343974
-0.055001646 0.09962947 -0.0029994375 -0.062514305 -0.053499818 0.0 0.010739544 0.064963706
-0.09297513 -0.015488179 0.0013323212 0.071629345 -0.044940773 -0.011153572 -0.05640343 -0.03303411
0.0 0.009233468 0.060032595 -0.023752334 0.0798148 -0.063392565 -0.01930988 0.09913032
-0.024240157 -0.056110762 -0.08571294 0.04948569 0.011375242 0.058677375 -0.060032416 0.15814038
0.014731926 0.03537343 0.012283925 0.08079667 -0.08056903 0.054209806 0.05998971 0.07648876
-0.0066277417 -0.04658784 0.08978577 0.10864824 0.030387722 -0.030622555 -0.034939475 0.10431425

functional_5_1/dense_11_1/Cast/ReadVariableOp:0 f4 [32, 1]
00000000: 228b c3bc d5a6 083e cfef 653c 06bd ccbd
00000010: 645e 60bc 6ffe 833d 43e7 143e 02d1 2bbc
00000020: a6aa 493d be49 4ebc ed91 dc3b 808a 0b38
00000030: f315 1ebd 97f2 063e 10d0 95bc 5c3b f4bc
00000040: af62 963d a524 c33c e118 f73d e75b e03d
00000050: 57bd 59bd 33cd 873d 44e3 75bb 1f1f 0abe
00000060: d82e 2dbe 8878 163e 9a7a dc3a 83cf 503c
00000070: b5a7 293d 1758 903d 1e6d 733c bbba 2cbe
-0.023870055 0.13344891 0.014034226 -0.09996991 -0.0136943795 0.06445014 0.14541344 -0.010486843
0.04923501 -0.012590824 0.006731263 3.326917e-05 -0.03859515 0.13178478 -0.018287688 -0.029813461
0.07343041 0.023821184 0.12065292 0.10955029 -0.053159084 0.066309355 -0.0037519494 -0.13488434
-0.169124 0.14694417 0.0016821206 0.012744787 0.041419704 0.07048052 0.0148575585 -0.16868107

functional_5_1/dense_10_1/Cast/ReadVariableOp:0 f4 [64, 32]
00000000: b107 0dbb 3004 0b3e f0a0 84bd ec61 a1bd
00000010: d0f3 033e 8070 ce3b 05de 1cbe f6c8 8a3c
00000020: aad3 b6bc a773 353e d242 a7be f899 1f3e
00000030: 8e32 31be dd78 573e ab13 733d f7f7 b43c
00000040: e9f4 353e c567 363b 5003 bc3b af1a 17be
00000050: 7c10 733e e765 4dbc ed67 c8bd 39d9 5bbe
00000060: 3756 953e 0ed0 e9bc 715a 21be e299 60be
00000070: a973 66be 6b91 2dbe a5e4 1c3d 505a f73d
00000080: 91e9 133e ecb0 c9bd 270f 84bd c7c8 adbd
00000090: cf63 0bbe ef13 79bc 1f1f 583c 38cd 78bd
000000a0: 3b12 5e3e b934 6bbe 8f18 813c 4f1f cdbd
000000b0: 72cc b3bd 8eed a8bd bcfb 8a3d 508a 6ebd
000000c0: 7192 873d 7d8b 713d 2b91 a83e 9424 6ebe
000000d0: 0e4d 12be 3bdb 043e f3af d03d 34e3 5f3e
000000e0: ccc5 debc 7954 19be 6c86 4f3c 6ef6 683e
000000f0: 5fa9 8c3d 0c49 28be 4d66 263d 3bc3 d7bd
00000100: 4907 bdbd 9457 97bc 315e 46be 2126 93be
00000110: b6b6 7dbe a2cf babd 5c4a 25be 3c54 193e
00000120: 0b96 1ebe 5747 21be 6ecc fd3c 1ebf b53e
00000130: 2b70 8c3e a2c0 9d3e 826c 443e d951 683d
00000140: b424 6abe 9b40 e8bd 247c a13e ad93 9ebd
00000150: 7038 8a3e 220f 6ebe 4377 1b3d 1a19 d8bd
00000160: e103 27be ab8e 183e 8dd0 6d3e db74 5c3e
00000170: 9c34 e73d 8305 41be ee1d 4e3d 3120 b23d
00000180: ba47 70be b131 a0bd ae84 ba3d 4142 71be
00000190: 3dca 46be 7744 ea3d d34b fcbc a538 ff3d
000001a0: 794b 2f3e 7b42 5c3e e024 7d3e 8df5 12bc
000001b0: 54b4 01be a3bc 31be 51ed 5abe bcc9 d5bd
000001c0: 3542 16be cd94 153e b67b f13d 0dc5 e8bc
000001d0: 1ee7 22bd 6fac c73d e8c2 5dbe f608 843b
000001e0: 74a8 873e bab9 2f3e 267c 6d3d e25e 37be
000001f0: 3a71 27be 777b a0be 9fd0 633e 6413 6c3d
00000200: dd73 cc3c 1b3e 36be b035 e83d e9fb 81bb
00000210: 8e01 76bc cb37 793d 0c89 8d3e ed1b 81bd
00000220: 2a27 1bbe 4c73 d6bd 5ec8 e7bd 8ef4 4f3e
00000230: c23a 1b3c 7526 983c ad67 1e3e 82cd e53d
00000240: 87ea 93be e2d6 b0bd b328 863e 3f68 073d
00000250: 981f dcbd b7bc 003e 3a6f 383e 8ad0 243d
00000260: b47a 29be 7c3a cdbd f1f4 063e 2d06 6bbe
00000270: 90e2 ec3d 404c 89be 7376 053e cf85 31bc
00000280: 58b5 fcbd c44d 3fbe acb7 84be 7e8e 9eba
00000290: eb35 9d3c 9bfb efbd 4182 5bbe 4ed8 8e3d
000002a0: b42f 2f3e 2b9b 923e 1794 cc3d f8d6 df3d
000002b0: 07a1 bbbd c0de 49be 1270 86bd ed8a c83d
000002c0: 282f b6ba 96f3 4fbd 3e0e 853e b505 433d
000002d0: 88df 37be be80 c93d 9cf2 a8bd c65d 00be
000002e0: e54f 733e 6ae7 343e 6fe0 4ebd df07 ebbd
000002f0: 247a cbbd 3731 28be be11 c1bd a8d8 2ebe
00000300: 53b7 3bbe a3e6 6ebd 0c9b 5e3e 8719 80bd
00000310: a139 16be f063 3ebe 197f 66be 10a1 6a3d
00000320: 8c26 58be 1106 e0bb f7d6 823e 8e78 1bbe
00000330: bc21 94bd b551 1ebe dce1 343e 7e05 4ebd
00000340: a520 413c 33ca bf3d f296 4f3e aec5 853e
00000350: 30f9 9abd e3ad 6ebe a514 38be b854 303e
00000360: 82a3 d2bd 8492 63be 85cd 4fbe eff2 153e
00000370: 13c5 873c 0868 8abe ea51 3cbc a0e4 123e
00000380: 41d4 73be 9931 4bbe 98c5 2e3e 5e1c 5d3e
00000390: d831 86be f819 84be 0ed1 9a3e 880c a6bd
000003a0: 5083 6cbe 639d 653e 176f ebbc c2f1 0f3d
000003b0: 809c 5cb7 dc8e 33be ef83 42be 46a2 ab3d
000003c0: e6b7 123e 088a 583e 2c0a 7d3d db29 ee3c
000003d0: 9319 4f3e 86ee 58be fda0 d73a 889c 9a3e
000003e0: fc79 25be 0036 323e b01b 803e 988e 063e
000003f0: e636 a23d 4cdd 4a3e 0794 f5bd 8e56 9e3e
-0.0021519477 0.13575816 -0.06476009 -0.07880005 0.12885976 0.006300032 -0.15319069 0.016941529
-0.022317726 0.17719899 -0.32668167 0.15586078 -0.17304441 0.210422 0.05934493 0.022090895
0.17769207 0.0027832848 0.0057376996 -0.14756273 0.23736757 -0.012536502 -0.09785447 -0.21469583
0.2916734 -0.028541591 -0.15757157 -0.21933702 -0.22505058 -0.16950004 0.03830399 0.120777726
0.14444567 -0.09848198 -0.064482026 -0.08485561 -0.13612293 -0.015202506 0.013191014 -0.060742587
0.21686642 -0.22969331 0.01575878 -0.10015737 -0.08779229 -0.08248435 0.06786296 -0.058237374
0.06619728 0.058970917 0.32923254 -0.23256141 -0.14287207 0.12974255 0.1018981 0.21864015
-0.027193926 -0.1497363 0.012666326 0.22750255 0.068682425 -0.16434115 0.040624905 -0.10535284
-0.09229905 -0.018474378 -0.19371869 -0.28740028 -0.2477673 -0.09121634 -0.16141647 0.14973539
-0.15486924 -0.1574987 0.030981269 0.35497373 0.27429327 0.3081103 0.19182017 0.05671868
-0.22865564 -0.113404475 0.31540024 -0.07743011 0.26996183 -0.2324796 0.037955534 -0.10551663
-0.16310073 0.14898174 0.23224087 0.21528952 0.11289331 -0.18849759 0.050321512 0.08697546
-0.23464862 -0.07821978 0.09107338 -0.2356043 -0.19413085 0.1143884 -0.030797875 0.12461976
0.17118634 0.21509735 0.24721098 -0.008969677 -0.12666446 -0.17357115 -0.21379592 -0.104388684
-0.14673693 0.14607544 0.11791174 -0.028414274 -0.03977119 0.09749686 -0.21656382 0.0040293885
0.26495707 0.17160693 0.057979725 -0.17907289 -0.16351786 -0.31344196 0.22247551 0.05763568
0.024957592 -0.17797129 0.11338365 -0.0039667976 -0.015015019 0.060844224 0.2764362 -0.063041545
-0.15151659 -0.1047121 -0.11317514 0.20308134 0.009474458 0.018573025 0.15469237 0.11220838
-0.28889868 -0.08634736 0.26202926 0.0330584 -0.107482135 0.12571989 0.1801118 0.04023794
-0.16550714 -0.10020921 0.13179375 -0.22951575 0.11566651 -0.26815987 0.13033466 -0.010835125
-0.12339276 -0.18682009 -0.2592138 -0.0012096909 0.01919075 -0.11717912 -0.21436407 0.069748506
0.17108041 0.2863401 0.099891834 0.10929674 -0.09161573 -0.19713879 -0.065643445 0.09792123
-0.0013899552 -0.05076941 0.25987428 0.047612865 -0.17956364 0.09839009 -0.08249399 -0.12535772
0.23760946 0.17666402 -0.050507005 -0.11476111 -0.09935406 -0.16425024 -0.09427212 -0.17074835
-0.18331651 -0.05832542 0.21738833 -0.06254869 -0.14670421 -0.1859281 -0.22509421 0.057282507
-0.21108454 -0.0068366607 0.2555463 -0.15182707 -0.07232997 -0.15460856 0.17664284 -0.050298207
0.011787568 0.09364738 0.20272425 0.2612738 -0.0756706 -0.2330852 -0.17976625 0.17219818
-0.10285093 -0.2222386 -0.20293243 0.14643453 0.016573464 -0.27032495 -0.011494139 0.14345026
-0.23811437 -0.19843139 0.17067564 0.21592852 -0.26209903 -0.25801063 0.3023762 -0.08107859
-0.23096967 0.2242332 -0.028739495 0.035142668 -1.314946e-05 -0.17534965 -0.18995641 0.083805606
0.14327964 0.21146405 0.06177728 0.029072693 0.202246 -0.2118474 0.0016451176 0.3019755
-0.16159815 0.17403412 0.25021124 0.13140333 0.07920627 0.1981098 -0.119911246 0.3092541

functional_5_1/dense_10_1/Add/ReadVariableOp:0 f4 [32]
00000000: 932c 25bd 8f6a 313e e6e8 18bc c53f 1fbd
00000010: f777 0b3d 6cf1 c43d 6f37 fc3c db1c e0bd
00000020: 46e9 8a3d fbb9 1cbd 555e 653b b0a1 38bd
00000030: 26cc 983d 233b c13d b6e3 d0bc 30cf b63d
00000040: 6ce7 1e3b 691a b3bd c36b a9bc a565 3ebd
00000050: 7e7c 9dbb 79da 43bd 76cb 6ebd 8cbd bdbd
00000060: 6df5 f73c 782d 48bd 85ee 413d 5411 7d3d
00000070: 90c7 993d 49e9 92bd 3188 27bd 20e3 913d
-0.040325712 0.17325805 -0.009332871 -0.038879175 0.034049954 0.0961636 0.030788152 -0.10943004
0.067827746 -0.038263302 0.0034998853 -0.045076072 0.07460813 0.094351076 -0.025499206 0.08926237
0.0024246825 -0.08745272 -0.020681268 -0.046483655 -0.0048061004 -0.047815774 -0.058299504 -0.09264669
0.030268395 -0.048871487 0.04734661 0.061784104 0.07508767 -0.07173402 -0.040901367 0.07123399

functional_5_1/batch_normalization_8_1/batchnorm/sub:0 f4 [32]
00000000: acd7 b4be b0fa 90be 9a26 b6be fc6a 9dbe
00000010: 2d00 9bbe 87d6 9dbe 01af 1cbe 32c0 86be
00000020: a029 c2be 54dd 96be 387a 82be f539 eabe
00000030: 9a11 d7be dd52 9ebe b63e 6bbe 650f 83be
00000040: 4508 73be 998e 54be 83ac 7fbe 5228 59be
00000050: 275f e3be 1cfb 95be e23e dabe aeb2 91be
00000060: a879 d4be 5f46 83be 51ea c6be 14de a3be
00000070: 3c58 90be c681 96be 6eb9 bfbe 2dde bfbe
-0.35320795 -0.2831626 -0.35576326 -0.30745685 -0.30273572 -0.30827734 -0.15301134 -0.26318508
-0.37922382 -0.29465735 -0.2548387 -0.45747343 -0.42005616 -0.30922595 -0.22973141 -0.25597683
-0.23733623 -0.20757522 -0.24968152 -0.21206787 -0.44408533 -0.29293144 -0.426261 -0.28456634
-0.41499066 -0.25639626 -0.38850644 -0.3200537 -0.28192317 -0.29395884 -0.3744616 -0.37474194

functional_5_1/batch_normalization_8_1/batchnorm/mul:0 f4 [32]
00000000: d352 6a3f 5a61 323f 504a 753f 9df5 173f
00000010: e788 703f ba4b 4e3f e90f f53e 5b1a 583f
00000020: 29ea 4d3f 70a3 4f3f 2c70 763f e902 683f
00000030: 04e4 573f 0104 1e3f aa90 4a3f 4490 5e3f
00000040: 0576 3d3f a087 5f3f d785 0b3f d2a0 1d3f
00000050: 2e9e 643f 6a52 293f 80e6 813f 2b78 1d3f
00000060: f304 1a3f 94bd 193f bc06 4f3f d3e0 473f
00000070: 77ec 5b3f 489a 163f 0b79 6e3f 78c3 113f
0.9153263 0.69679797 0.95816517 0.5935915 0.93958896 0.805843 0.478637 0.84415215
0.80435425 0.8110876 0.9626491 0.9062944 0.843323 0.6172486 0.7912699 0.8693888
0.7400821 0.8731632 0.545011 0.6157352 0.89303863 0.6614138 1.0148468 0.61511487
0.601638 0.600549 0.8086965 0.7807743 0.8590769 0.58829165 0.93153447 0.56938887

functional_5_1/batch_normalization_7_1/batchnorm/sub:0 f4 [64]
00000000: 5e5e a6be c9b9 b6be 56e6 a0be d3f2 f5be
00000010: 4d00 f3be 9a48 0ebf 954b 03bf f2d5 b6be
00000020: b487 07bf 1a75 a0be 1ad9 fabe 8dbf afbe
00000030: 5b1e debe 1b2d c5be 214e f7be 4d93 02bf
00000040: cfdf d6be 3cac 8ebe 58c2 09bf b877 efbe
00000050: 5bb5 67be fc57 c9be cddc a9be 6538 d1be
00000060: 18ad 02bf 9caf 91be bf73 06bf b307 dfbe
00000070: e0a9 bcbe 4093 a6be 3eb4 cdbe 673d 66be
00000080: fdb9 97be e8c4 bbbe 658e adbe 1ebb 8ebe
00000090: dc39 b4be 29e7 a3be 93a1 d1be 8a12 16bf
000000a0: b337 d7be 9ec2 21bf 005a 04bf e6ca 00bf
000000b0: a387 f7be 1d83 f3be ebe8 c2be d80e 44be
000000c0: 2352 47be 4f08 b8be 78d8 a7be 8270 bbbe
000000d0: 515a a7be 5457 cbbe c9c0 cbbe 53c7 ecbe
000000e0: 3934 a6be fc78 d5be 3774 a1be 3639 e8be
000000f0: ea02 e1be 21bc cfbe 2ea4 8fbe 75dd a9be
-0.3249387 -0.35688618 -0.31425732 -0.48036823 -0.47461167 -0.5557953 -0.51287204 -0.35710102
-0.5294144 -0.3133934 -0.4899376 -0.3432583 -0.43382534 -0.38510975 -0.48301795 -0.51006013
-0.41967627 -0.2786578 -0.5381217 -0.46771026 -0.22627775 -0.3932494 -0.3317627 -0.40863338
-0.5104537 -0.28454292 -0.52520365 -0.43560562 -0.36848354 -0.32534218 -0.40176576 -0.2248436
-0.29634085 -0.36673665 -0.338977 -0.27877134 -0.35200393 -0.320123 -0.40943584 -0.5862204
-0.42034683 -0.6318759 -0.5169983 -0.503096 -0.4834567 -0.4756097 -0.38068327 -0.19146287
-0.19464926 -0.3594384 -0.3278234 -0.36609274 -0.32686093 -0.39715064 -0.3979552 -0.46245822
-0.32461718 -0.41693866 -0.31533977 -0.45356148 -0.43947536 -0.40573218 -0.28054947 -0.3317677

functional_5_1/batch_normalization_7_1/batchnorm/mul:0 f4 [64]
00000000: a96f 543f 04b6 463f 0ca0 9f3f b5f0 5b3f
00000010: 9b82 603f aa61 383f b000 563f a993 343f
00000020: 078c 5f3f 18a6 393f 25d9 7d3f f1b8 3f3f
00000030: 5076 413f 27b3 643f 23aa 863f 5cf0 6b3f
00000040: 1c36 6d3f bab8 6d3f 492b 753f 8cd7 2d3f
00000050: 0b6c 7f3f f7e5 753f 4352 113f 9bb7 503f
00000060: e820 373f 75bb 3d3f bf50 803f 677f 523f
00000070: 2916 673f 861c 823f 981c 363f d60c 423f
00000080: 8494 763f d845 393f d57a 1f3f 7439 723f
00000090: d2d8 403f 4eae 5e3f 845c 773f cdd3 613f
000000a0: b64f 573f 7621 523f dfc7 903f 54ed 5f3f
000000b0: 8260 5f3f dfa5 5c3f b561 4c3f 8595 6d3f
000000c0: 06a3 623f ee24 6c3f a58f 3c3f b462 6f3f
000000d0: e045 2e3f b9e7 5e3f a403 153f 3e0a 003f
000000e0: 413a 643f deeb 233f 3e8a 5d3f 528b 4e3f
000000f0: beb6 8b3f 4831 563f 1048 723f 5fa2 6d3f
0.8298288 0.77621484 1.2470717 0.85914165 0.8769929 0.72024024 0.835948 0.7053781
0.8732304 0.72519064 0.9915946 0.74891573 0.75571156 0.89335865 1.0520672 0.92163634
0.9266069 0.92859995 0.9576917 0.67907023 0.99774235 0.96054024 0.56766146 0.8153016
0.71534586 0.7411416 1.0024642 0.8222565 0.9026819 1.0164955 0.7113738 0.75800836
0.96320367 0.723722 0.622968 0.94618917 0.7533084 0.8698472 0.9662554 0.8821381
0.84106004 0.8208231 1.1310996 0.8747151 0.87256634 0.861906 0.7983659 0.92806274
0.88530004 0.9224385 0.73656684 0.93509984 0.6807537 0.8707233 0.5820868 0.5001563
0.8915139 0.6403178 0.86539066 0.80681336 1.0915143 0.8366895 0.9464121 0.92825884

functional_5_1/batch_normalization_6_1/batchnorm/sub:0 f4 [128]
00000000: 1c06 0abe 0e80 81be d8ba 18bd becf 25be
00000010: cabe 86be a02f 36be c34c 97bd 6edd 04be
00000020: cba8 c0be 12e0 3abd 8544 6bbe a32a 93be
00000030: 6015 3f3d d13b bb3d 9bc2 cabe 160a 643d
00000040: f7f2 5ebd a663 efbd 88c2 e03c 2182 89be
00000050: 9ed9 e4bd db6a 843d de10 bc3d 7cad 763d
00000060: 56da a4bd 3ac7 f3be 98e3 93bc 4e6e 7dbe
00000070: 1aa1 94be 6177 e6bc 938a 3dbe 2452 96bd
00000080: 980d af3b e537 38bf 74c7 7fbd 3056 3ebe
00000090: a928 b8bc 333b a7bd da89 76bd 8d1d 2ebe
000000a0: 5059 04bb 0372 5c3c c112 1ebe d35a ecbe
000000b0: 2034 723d 82bf 05bd 7ea6 adbe 6f29 98bd
000000c0: a336 a4be 31ea f2bd 5970 c4be 30c5 d23c
000000d0: 488f 97bd 1d58 edbe 6639 a1bd f215 b13c
000000e0: f159 d3bd 6fbf 50be 26e4 6bbe 43fe febe
000000f0: 3802 0fbf 478c 21bf ab85 73be 7c0c c8bd
00000100: ee2e 2cbe 6f81 12bf 4dd1 e1be fb6a c6be
00000110: 26d0 b7bd ba29 fabd b4d1 a6be d650 01bd
00000120: d848 04bc 822d abbc 4ab2 2e3d 7044 e0bd
00000130: 8a31 03be 35b9 40be 0db7 c7bd 7c82 c2be
00000140: bcf6 84be 90c4 92be 8cf0 b0be 87e9 b2bd
00000150: 5af3 4dbe b428 80bc 2d9e 893d f91f 2dbe
00000160: 6ed0 e63c c83d 6bbe d93d aebd 4052 f9be
00000170: 5534 55bd d6bb b9be 854e bb3d 5d06 da3d
00000180: 0b13 093e 7888 dfbd 7d80 cfbe a6db fc3d
00000190: 7273 c6be 00c3 29bb 837c c5bd fff5 dfbe
000001a0: 76ce cb3d 0ceb ec3d eb02 09be 3c42 a7bd
000001b0: d385 383c a35a 8fbe f61a bd3d c8f3 b0be
000001c0: fe4a 4abe 51a3 86be 474d 683d a9fd fdbe
000001d0: 7057 393c e3ce fbbd 454a 233d 6179 e5be
000001e0: b8c9 ca3c 2458 12be 0d0f dabe 6d75 e4be
000001f0: dcad e8bd 4e4b 883d dd66 e7bd e6df 10bf
-0.13478893 -0.2529301 -0.037287563 -0.16192529 -0.26317436 -0.17791605 -0.07387688 -0.12975094
-0.3762878 -0.045623846 -0.22975357 -0.28743467 0.046651244 0.091422684 -0.39601597 0.05567368
-0.054430928 -0.11688928 0.02743651 -0.26857093 -0.1117432 0.064656936 0.09182905 0.06022404
-0.08049457 -0.47612935 -0.018052861 -0.24749109 -0.2902916 -0.028133096 -0.18509893 -0.07339886
0.0053421967 -0.7196029 -0.062446073 -0.18587565 -0.022480326 -0.08165588 -0.06019006 -0.1700346
-0.0020194836 0.013454917 -0.15436842 -0.46163043 0.05913174 -0.03265334 -0.33916086 -0.07429778
-0.32072935 -0.11861075 -0.38366964 0.025728792 -0.074003756 -0.46356288 -0.07872276 0.02161691
-0.10319889 -0.20385526 -0.2303625 -0.4980336 -0.5586276 -0.6310467 -0.23781459 -0.09768006
-0.16814777 -0.5722875 -0.44104996 -0.38753495 -0.08975248 -0.1221499 -0.32581866 -0.03157123
-0.008074008 -0.020895723 0.0426505 -0.109505534 -0.12811866 -0.18820651 -0.09751711 -0.37990177
-0.25969493 -0.2866559 -0.34558523 -0.08735948 -0.20112363 -0.015644409 0.06719623 -0.16906728
0.028175559 -0.22972786 -0.0850789 -0.48695564 -0.05205186 -0.3627612 0.09145836 0.10645745
0.1338617 -0.10914701 -0.40527716 0.12346582 -0.38759953 -0.0025903583 -0.09642889 -0.43742368
0.09951489 0.11568269 -0.1338002 -0.0816693 0.011262375 -0.27998838 0.09233658 -0.3456099
-0.1975517 -0.26296476 0.056714322 -0.4960759 0.011312351 -0.1229532 0.03986575 -0.44819167
0.02475439 -0.14291435 -0.42589608 -0.4462084 -0.11361286 0.06654988 -0.112989165 -0.5659164

functional_5_1/batch_normalization_6_1/batchnorm/mul:0 f4 [128]
00000000: 950f c33f 1312 c63f eca2 c93f 048f ca3f
00000010: 11e9 b33f 2fa4 c73f 54a7 b33f bace be3f
00000020: e9a5 b63f c10a b43f 0ffc ba3f 4276 af3f
00000030: d498 ca3f 85b3 b33f be07 af3f fb1f bf3f
00000040: 6212 c13f 306b b93f fb1f bf3f d866 b63f
00000050: c319 c43f fb1f bf3f e382 b43f 7c19 bb3f
00000060: d63e ac3f b170 be3f fb1f bf3f a3c1 d03f
00000070: 60f6 b03f 726f c33f c32b c03f b197 d73f
00000080: c76b c53f d53e c53f 92ec b43f 18c9 a83f
00000090: b6a8 b23f eeb7 b83f fb1f bf3f 8108 c93f
000000a0: d3f5 b63f fb1f bf3f 45a6 ad3f 82d3 c33f
000000b0: c2ed b53f fb1f bf3f fa12 c03f fab9 c03f
000000c0: 3d12 c13f e1d0 c23f 9881 b63f 5c27 bc3f
000000d0: fb1f bf3f 96a0 b63f a7a6 b33f 9f00 c63f
000000e0: 51fc b93f 1969 b73f acc4 c23f fb92 c13f
000000f0: bfce c03f 6b91 cc3f affe c13f 9da9 be3f
00000100: d666 b63f 7654 d33f bc71 ba3f ea44 b53f
00000110: 36b3 c93f 16b3 cb3f cd6c c13f fe4a c43f
00000120: c87c d53f fb1f bf3f 76ea b33f e3cf a23f
00000130: 77e5 bf3f 9022 c43f 96c5 c93f 6a5e b73f
00000140: 659c cb3f 9803 c63f e853 bd3f 0296 b33f
00000150: c1ce b93f fb1f bf3f dbd5 bf3f 3e43 bf3f
00000160: 2c48 c03f 896e c03f 913a b53f 7375 b43f
00000170: 1d6e ba3f b36e c53f 119c aa3f e183 c63f
00000180: fb1f bf3f 32f6 ad3f 704d b93f 3b1c cc3f
00000190: 907f a93f 78f9 c63f c86c c73f fdd9 b53f
000001a0: 7ceb b43f f582 c03f 6ad1 c53f 2c1f b83f
000001b0: d12d cb3f 9dd5 bb3f 13b7 b33f 1b5c c93f
000001c0: 3841 ab3f 540f be3f 8a34 d23f f1a4 cd3f
000001d0: 1ea4 b13f ca66 b23f fecb c33f 4171 b93f
000001e0: 2745 c53f cb91 c13f b4ce bb3f 3426 ba3f
000001f0: 6936 b23f ec3a b73f bb20 ab3f a975 c53f
1.523913 1.5474266 1.5752845 1.5824895 1.4055501 1.559698 1.403544 1.4906838
1.4269382 1.4065782 1.4608172 1.3707964 1.582789 1.403916 1.3674238 1.4931635
1.5083735 1.4485836 1.4931635 1.4250135 1.5320362 1.4931635 1.4102443 1.4617152
1.3456676 1.4878141 1.4931635 1.6309093 1.3825188 1.5268385 1.5013355 1.6843168
1.5423516 1.54098 1.4134696 1.3186369 1.3957736 1.4431131 1.4931635 1.570572
1.429377 1.4931635 1.3566366 1.5298922 1.4213183 1.4931635 1.5005791 1.5056756
1.5083691 1.5219995 1.4258299 1.4699512 1.4931635 1.4267757 1.4035233 1.546894
1.4530126 1.4328948 1.521627 1.512298 1.5063094 1.5981878 1.5155848 1.4895512
1.4250133 1.651015 1.4565959 1.4161656 1.5757816 1.5914028 1.5111328 1.5335386
1.6678705 1.4931635 1.4055927 1.2719692 1.4991902 1.5323048 1.5763423 1.4325688
1.5907103 1.5469847 1.4791231 1.4030154 1.4516221 1.4931635 1.4987139 1.4942396
1.5022025 1.5033733 1.4158498 1.4098343 1.4564854 1.5424408 1.3328878 1.5508996
1.4931635 1.3590758 1.4476757 1.5946115 1.3242054 1.5544882 1.5580072 1.420715
1.4134364 1.5039965 1.5454533 1.4384513 1.5873357 1.4674565 1.4040245 1.5731233
1.3379278 1.4848428 1.6422284 1.6065961 1.387821 1.3937619 1.5296628 1.4487687
1.5411729 1.5122617 1.4672456 1.4542909 1.3922855 1.4314857 1.3369364 1.5426532
