models/Kozina/cars/Kozina_cars_model.onnx (onnx, 60555 bytes, 13 tensors)

functional_5_1/dense_9_1/Cast/ReadVariableOp:0 f4 [128, 64]
0	0xbdbff602	-0.09373094
1	0xbd921a0b	-0.071338736
2	0x3e1b1759	0.15145625
3	0x3e32ea7b	0.1747226
4	0xbda30cb0	-0.07961404
5	0xbd49ebd3	-0.049297165
6	0x3db814d5	0.089883484
7	0xbde73d1e	-0.11290954
8	0x3dc48dfa	0.095973924
9	0x3d56a378	0.05240199
10	0xbe6f72ca	-0.23383632
11	0x3d97ae6a	0.07406314
12	0x3d44ce10	0.04804808
13	0x3e52129d	0.20514913
14	0xbdcf971a	-0.10136242
15	0xbe44366a	-0.19161382
16	0xbdd117e0	-0.10209632
17	0xbe4cf510	-0.20015359
18	0x3d32714a	0.043565072
19	0xbe0ba38b	-0.13636605
20	0xbc0c8271	-0.0085760215
21	0x3d33264e	0.043737702
22	0xbc845faa	-0.016158897
23	0xbc80461f	-0.015658436
24	0x3df489b9	0.11940331
25	0x3e404b3d	0.18778701
26	0x3d515b64	0.051112548
27	0x3de78e8f	0.11306488
28	0xbe034b46	-0.12821683
29	0x3def9363	0.11698034
30	0x3d42dc15	0.047573168
31	0x3dad74e9	0.084695645
32	0x3c7622a0	0.015022904
33	0xbdf5326c	-0.11972508
34	0xbdc52335	-0.09625856
35	0xbdd8ddf5	-0.1058921
36	0x3d9e376e	0.07725416
37	0xbdfdc66e	-0.12391363
38	0x3d1f3caa	0.038876213
39	0xbe459221	-0.19294025
40	0xbd870c3b	-0.0659413
41	0xbc9f5a78	-0.019452319
42	0x3db6d59c	0.089274615
43	0xbd9811fa	-0.07425304
44	0xbe2515ac	-0.16121548
45	0xbd2a782c	-0.04161851
46	0x3c64c3a5	0.013962661
47	0xbc20e6fb	-0.009820695
48	0xbda73083	-0.0816355
49	0x3e17d951	0.14828993
50	0x3d2f91b1	0.04286355
51	0xbd3e41ec	-0.046449587
52	0x3e646a3e	0.22306153
53	0x3cfc760f	0.030818013
54	0x3e417388	0.18891728
55	0x3db14a71	0.08656777
56	0xbce94e3c	-0.028479688
57	0x3e696c77	0.22795282
58	0xbd4913a0	-0.04909098
59	0xbe64f0f1	-0.22357537
60	0xbdde0f03	-0.10842707
61	0xbe04eeca	-0.12981716
62	0xbe708cc3	-0.23491196
63	0xbd2af617	-0.041738596
64	0xbe1a063c	-0.1504144
65	0xbd4129cc	-0.047159
66	0xbd90810d	-0.070558645
67	0xbe34bdf6	-0.1765059
68	0xbde5b553	-0.112162255
69	0x3e0cdbb1	0.1375568
70	0x3e2b7930	0.16745448
71	0x3e1c2d4b	0.15251653
72	0xbe72ab2e	-0.23698112
73	0xbe01d736	-0.12679753
74	0x3d8764d1	0.06611026
75	0xbdfdb219	-0.12387485
76	0xbe479c21	-0.19493152
77	0x3de349e1	0.11098076
78	0x3cb76101	0.022385122
79	0xba4624cd	-0.00075585843
80	0x3e826356	0.25466412
81	0xbc35c7ee	-0.01109503
82	0x3d9b0863	0.07569959
83	0xbd306977	-0.04306933
84	0x3c3f3c31	0.011672066
85	0xbe582f1f	-0.21111725
86	0x3e28855a	0.1645712
87	0xbde5723f	-0.11203431
88	0xbde5165f	-0.111859076
89	0xbdf7da85	-0.12102226
90	0x3d25ef0c	0.040511176
91	0xbe5ddebe	-0.21667
92	0x3d102611	0.035192553
93	0x3c35eeec	0.011104327
94	0x3d344787	0.044013526
95	0xbe23ec41	-0.16008092
96	0xbdee05a9	-0.11622173
97	0xbdd2b5b6	-0.10288565
98	0x3d8bfe26	0.06835584
99	0x3d967d4e	0.07348119
100	0xbdef4ac4	-0.11684182
101	0x3d9c6386	0.0763617
102	0x3b7e363c	0.003878965
103	0xbdd82d4e	-0.10555516
104	0xbc858a39	-0.016301261
105	0x3e4723fe	0.19447324
106	0x3da216bb	0.07914492
107	0x3e88d3e4	0.2672416
108	0x3c209ac9	0.009802529
109	0xbd03a70d	-0.032141734
110	0xbe017d05	-0.12645347
111	0xbdd19fca	-0.102355555
112	0x3e176c55	0.14787419
113	0x3c4e3fdf	0.01258847
114	0xbd433def	-0.047666486
115	0x3d2e8197	0.042604055
116	0xbd4fe7b8	-0.050758094
117	0x3e0222f3	0.12708645
118	0xbc4d5517	-0.012532494
119	0xbd818c70	-0.063256145
120	0xbce36c12	-0.027761493
121	0x3d2a71fa	0.041612603
122	0xbe3e5dfb	-0.18590538
123	0x3d5cb6ac	0.053885147
124	0xbd201ae2	-0.039088137
125	0xbd8fe2e4	-0.07025698
126	0x3d82a518	0.063791454
127	0xbdeddde8	-0.11614591
128	0x3d70fd13	0.0588351
129	0xbd73d7b0	-0.059531868
130	0xbc22dee2	-0.009940835
131	0xbdcae722	-0.09907366
132	0xbdac611f	-0.08416962
133	0xbddacb23	-0.106832765
134	0x3dc8f618	0.09812564
135	0x3c2f29fd	0.010691163
136	0xbda02802	-0.07820131
137	0xbe58ecb3	-0.21184044
138	0xbdb21b77	-0.08696645
139	0x3d37b5ba	0.044851042
140	0x3d973f4f	0.07385122
141	0x3e1e9de1	0.15489914
142	0xbe0441e4	-0.1291576
143	0xbe39543c	-0.18098539
144	0xbd5d94f1	-0.05409712
145	0xbe512c25	-0.20426996
146	0xbe585704	-0.21126944
147	0x3d14866f	0.03626102
148	0x3e90ea67	0.28303835
149	0x3d902811	0.07038892
150	0x3dceb270	0.10092628
151	0xbda523bf	-0.08063459
152	0xbd002ed2	-0.03129465
153	0x3d1d5ee4	0.038420573
154	0xbe2e5128	-0.17023146
155	0xbe5a83c4	-0.21339327
156	0xbc648b02	-0.013949158
157	0x3d3990a5	0.04530396
158	0xbd9c7fd5	-0.076415695
159	0xbe877a6b	-0.26460585
160	0xbd817451	-0.06321014
161	0x3d2bdbbc	0.041957602
162	0x3e2b4f47	0.1672946
163	0xbd9a65b6	-0.07538931
164	0xbda48a1e	-0.08034156
165	0x3d748072	0.059692807
166	0xbbf2485f	-0.007393881
167	0x3d1143f4	0.035465196
168	0x3d96fc18	0.07372302
169	0x3d89b0de	0.06723188
170	0x3a8b4b52	0.0010627306
171	0x3b3e4138	0.0029030573
172	0x3da0954b	0.078409754
173	0x3db59e3c	0.088680714
174	0xbe6239e4	-0.22092396
175	0xbdfaa2f2	-0.122381106
176	0x3e4cc243	0.1999598
177	0x3db5794f	0.088610284
178	0xbddca031	-0.107727416
179	0x3de51901	0.1118641
180	0xbe051e68	-0.1299988
181	0x3cdc4230	0.02688703
182	0x3d8d30cb	0.06894072
183	0x3d354db0	0.04426354
184	0xbe0e9350	-0.13923383
185	0xbca6461f	-0.020297108
186	0xbe6ab98d	-0.22922345
187	0xbe14dbc0	-0.14536953
188	0xbd854da3	-0.06508949
189	0xbda4c8f3	-0.080461405
190	0xbdd2afbc	-0.10287425
191	0x3df20e0c	0.118190855
192	0xbd3c02f1	-0.045901243
193	0xbd5af4c9	-0.0534561
194	0x3e2d6e44	0.16936594
195	0xbd65e50f	-0.05612665
196	0xbd373f40	-0.044738054
197	0xbe0a2edb	-0.13494436
198	0x3e3cea1b	0.18448679
199	0x3dc18197	0.094485454
200	0xbd83c07a	-0.06433196
201	0xbc8010c0	-0.015632987
202	0x3d6a4cf2	0.057202287
203	0x3dd26e26	0.102749154
204	0xbe51e926	-0.20499095
205	0x3d7c175a	0.061545707
206	0xbd8e3340	-0.06943369
207	0x3cb0af1f	0.02156788
208	0x3dc67f46	0.09692244
209	0x3e120b0c	0.14262027
210	0x3d983ee9	0.07433874
211	0x3d63ce79	0.05561683
212	0x3db6ce90	0.089261174
213	0x3dc66583	0.096873306
214	0x3cad5196	0.021157067
215	0xbd96a647	-0.07355934
216	0xbe59720b	-0.2123491
217	0xbe10f263	-0.14154963
218	0xbda76761	-0.08174015
219	0xbd75fa25	-0.06005301
220	0xbc411005	-0.0117836045
221	0xbde72df9	-0.112880655
222	0xbd779b69	-0.060450945
223	0x3d3797be	0.044822447
224	0xbe81446c	-0.25247514
225	0xbd341fcb	-0.043975633
226	0xbdecc7a4	-0.11561516
227	0xbda1cb88	-0.07900149
228	0xbe09e4ed	-0.13466235
229	0x3d4d489f	0.050118085
230	0x3df574cd	0.119851686
231	0x3bfb2f70	0.007665567
232	0xbd866376	-0.065619394
233	0x3d8492ae	0.064732894
234	0x3e27ef87	0.16399966
235	0x3dfa1f2b	0.12212976
236	0xbdc97ac0	-0.09837866
237	0x3c194bd1	0.009356455
238	0xbd8a1044	-0.06741384
239	0x3e047889	0.12936606
240	0x3c8a4d11	0.016882451
241	0x3e3c8e41	0.1841364
242	0x3d29966f	0.04140323
243	0xbe5b4d82	-0.21416286
244	0x3e35d479	0.17756833
245	0xbd798a28	-0.06092277
246	0xbe78b921	-0.24289371
247	0xbdd41204	-0.10354999
248	0x3ded4c33	0.115867995
249	0xbde69d94	-0.112605244
250	0x3dc79e1d	0.097469546
251	0x3d7cd91d	0.061730493
252	0x3e27c612	0.16384152
253	0x3de663e0	0.112495184
254	0xbd59ada6	-0.05314412
255	0xbe295057	-0.16534553

functional_5_1/dense_9_1/Add/ReadVariableOp:0 f4 [64]
0	0x3d1e94c3	0.03871609
1	0xbd7c4551	-0.061589543
2	0x3d81f366	0.06345253
3	0xbdba9fdc	-0.09112522
4	0x3dad8dc0	0.08474302
5	0x3d9c6bf2	0.076377764
6	0xbde7d658	-0.1132018
7	0x3d957339	0.072973676
8	0xbd9cc417	-0.07654589
9	0x3d22f754	0.03978665
10	0x3d55a869	0.05216256
11	0xbd1624ae	-0.036656074
12	0xbde0cab2	-0.10976161
13	0xbd6e1a23	-0.058130395
14	0x3cdffd60	0.027342498
15	0xbb8b742e	-0.004255793
16	0x3d119a4d	0.035547543
17	0x3d2d0905	0.04224493
18	0x3d4c0895	0.049812872
19	0x3e132cdd	0.14372583
20	0xbd88ce31	-0.06679953
21	0xbd6316ef	-0.055441793
22	0xbcd07993	-0.025448596
23	0xbdb8bf43	-0.09020855
24	0xbda608cf	-0.08107149
25	0x3b833471	0.0040040542
26	0xbcb83f93	-0.022491252
27	0xbdad9cf6	-0.084772035
28	0x3b2e22ea	0.0026571103
29	0xbcd64f11	-0.026160749
30	0xbcab110b	-0.02088215
31	0x3d75046e	0.059818678
32	0x3dcda62e	0.10041462
33	0x3d35230c	0.044222876
34	0xbc8539d7	-0.016262932
35	0xbd0ce3b1	-0.03439683
36	0x3ca2372f	0.019801704
37	0xbc66d4ed	-0.014088851
38	0x3d865fc9	0.06561238
39	0x3cb950da	0.02262156
40	0x3d971a5d	0.07378075
41	0x3ca2163e	0.019785997
42	0x3dede531	0.116159804
43	0xbdc54d7c	-0.096339196
44	0x3dafee01	0.085903175
45	0xbd1a252f	-0.037633117
46	0xbc0c1682	-0.008550288
47	0x3d3cca71	0.0460915
48	0x3d62c0dc	0.055359706
49	0x3dcf59a4	0.101245195
50	0x3ad44c50	0.0016197059
51	0x3c99133f	0.018685935
52	0xbd9447c9	-0.072402544
53	0x3d0dd017	0.034622278
54	0x3bb44e99	0.0055025336
55	0x3d033574	0.0320334
56	0x3d567214	0.052354887
57	0x3c50ee1d	0.012752083
58	0xbd4b949e	-0.04970228
59	0xbd118848	-0.03553036
60	0x3d7638b7	0.06011268
61	0xbd644e05	-0.055738468
62	0xbdb5c6c7	-0.088758044
63	0x3d16e5eb	0.03684036

functional_5_1/dense_8_1/Cast/ReadVariableOp:0 f4 [25, 128]
0	0x3cd73380	0.026269674
1	0x3da8d192	0.08243097
2	0x3e38b25d	0.1803679
3	0xbc2c0600	-0.010499477
4	0x3e0ae74b	0.13564794
5	0x3dff4ba6	0.12465601
6	0xbd97fb6d	-0.074210025
7	0xbe4551fc	-0.19269556
8	0x3d56e5ec	0.052465364
9	0xbe3354e2	-0.17512849
10	0x3cf2bd40	0.029631257
11	0x3cfea868	0.031086162
12	0xbd7e75f4	-0.062124208
13	0xbdaa7413	-0.08322921
14	0xbda4fad1	-0.08055652
15	0xbe1a69a2	-0.15079358
16	0x3dc7204e	0.097229585
17	0xbe325862	-0.17416528
18	0xbdc50a39	-0.096210904
19	0xbd993a6d	-0.07481847
20	0x3e2d8d41	0.16948415
21	0x3df950ce	0.121736154
22	0x3dff9416	0.12479417
23	0x3d2d2b7c	0.042277798
24	0xbd009d78	-0.031400174
25	0xbdb5f752	-0.08885063
26	0xbdfa6d74	-0.12227908
27	0xbd2d9b04	-0.042384163
28	0x3afe7800	0.0019414425
29	0x3d1bfd58	0.038083404
30	0xbdba93a1	-0.09110189
31	0xbdc6b352	-0.097021714
32	0xbd9b55bc	-0.07584712
33	0xbddd5544	-0.10807279
34	0xbe0acdfe	-0.13555142
35	0xbe23ad98	-0.1598419
36	0x3e13fe23	0.14452414
37	0x3e09da8d	0.13462277
38	0x3d51f590	0.051259577
39	0x3e03dba1	0.1287675
40	0xbc134800	-0.008989334
41	0x3c6d1810	0.014471069
42	0x3e32a917	0.17447315
43	0xbe068a58	-0.13138711
44	0x3e042493	0.12904577
45	0x3e1a994f	0.15097545
46	0xbd5f7780	-0.054557323
47	0x3e2bed23	0.16789679
48	0xbe0f4386	-0.13990602
49	0xbc089c70	-0.008338079
50	0xbd80ae3c	-0.062832326
51	0xbda43c11	-0.08019269
52	0xbdd97ad5	-0.106191315
53	0xbd54bc0c	-0.051937148
54	0x3b825260	0.003977105
55	0xbe2ceb77	-0.16886698
56	0x3da15e62	0.0787933
57	0xbe2525ca	-0.16127697
58	0xbdb00c9e	-0.085961565
59	0x3dcba3fe	0.099433884
60	0x3dfac4f6	0.122445986
61	0x3cc4fdb0	0.024046749
62	0x3d4bd0d0	0.049759686
63	0x3e4085b1	0.18800999
64	0xbe03d02e	-0.12872383
65	0x3c730f10	0.014835134
66	0x3ce1fa40	0.027585149
67	0xbdd9d4d0	-0.10636294
68	0x3d17067c	0.03687142
69	0xbe20082c	-0.15628117
70	0xbdc132af	-0.09433495
71	0xbe06728b	-0.13129632
72	0xbe0515aa	-0.12996545
73	0xbe13d3d9	-0.14436282
74	0x3d358f80	0.044326305
75	0x3c56c940	0.013109505
76	0x3d0a552c	0.033772632
77	0x3e0d0263	0.13770442
78	0xbe271a6f	-0.16318677
79	0xbd0b4008	-0.03399661
80	0x3e0402ad	0.12891646
81	0xbdf5d632	-0.12003745
82	0x3dfe7516	0.12424676
83	0x3ce9ec38	0.02855502
84	0x3d98ccc6	0.074609324
85	0x3d9fa93e	0.07795952
86	0x3d184960	0.03717935
87	0xbe2dafbd	-0.1696157
88	0xbd03b598	-0.032155603
89	0x3df893b2	0.12137546
90	0x3d11c71c	0.035590276
91	0xbe4166de	-0.18886897
92	0x3d682bec	0.056682512
93	0xbdb63fcd	-0.08898888
94	0xbdbccf4a	-0.09219225
95	0x3da59ac2	0.08086158
96	0x3e139353	0.14411668
97	0xbcb0ea08	-0.02159597
98	0x3e0e4daf	0.13896821
99	0xbd845658	-0.06461781
100	0x3cb8d908	0.022564426
101	0xbdd2fafd	-0.103017785
102	0x3d8b17f6	0.067916796
103	0xbc2eec30	-0.010676429
104	0xbd1f5c9c	-0.03890668
105	0xbe30a825	-0.17251642
106	0x3d9d1f4a	0.076719835
107	0x3e3333a9	0.17500176
108	0xbd2a5d14	-0.041592672
109	0xbd34665c	-0.04404293
110	0x3e14910d	0.14508457
111	0x3da1cc8a	0.07900341
112	0xbe0a201c	-0.13488811
113	0x3e43b5b7	0.19112287
114	0xbbf09920	-0.0073424727
115	0xbc155df0	-0.009116635
116	0xbd211590	-0.039327204
117	0x3e1e9481	0.15486337
118	0xba83a700	-0.0010044277
119	0x3dae4c2e	0.08510624
120	0x3e091b31	0.13389279
121	0x3dcbab4e	0.09944783
122	0xbdc74486	-0.09729867
123	0x3dbc0c02	0.09181978
124	0xbe073d46	-0.13206968
125	0xbd66c7ac	-0.056342766
126	0x3da980d6	0.08276527
127	0xbdb60639	-0.08887906
128	0xbe53be93	-0.20678167
129	0xbdc427fd	-0.0957794
130	0xbde5c3d6	-0.11218993
131	0x3d5d5889	0.05403951
132	0xbcf26dc8	-0.029593363
133	0xbda1b275	-0.07895366
134	0x3e12ba59	0.14328898
135	0xbd309c4a	-0.0431178
136	0xbdc8e215	-0.09808747
137	0xbe23e47d	-0.1600513
138	0xbe0b3528	-0.13594496
139	0x3dac2613	0.084056996
140	0xbe3bd24c	-0.1834194
141	0xbe14e31f	-0.14539765
142	0xbd2343c4	-0.03985955
143	0x3c98c076	0.01864646
144	0xbd5ea5b6	-0.054357253
145	0xbdcf67ed	-0.10127244
146	0xbdd025b1	-0.10163439
147	0x3da74d94	0.08169094
148	0xbe2928ae	-0.16519424
149	0x3deae7bd	0.11469982
150	0xbe81ea02	-0.25373846
151	0x3b3b4940	0.0028577596
152	0xbe2c96de	-0.16854426
153	0x3e89a7f8	0.26885962
154	0xbe457b98	-0.19285429
155	0xbd95776d	-0.07298169
156	0x3e03b510	0.12862039
157	0xbd212e6f	-0.039350923
158	0xbdaa31b4	-0.08310261
159	0xbd0e15b8	-0.03468868
160	0x3c37736d	0.011196953
161	0x3c52a6f4	0.012857188
162	0x3bb47bfe	0.005507945
163	0xbd0b8b08	-0.034068137
164	0xbc6be3d2	-0.014397578
165	0xbdc9173e	-0.09818886
166	0xbcd1ed8d	-0.025625968
167	0x3e985e60	0.29759502
168	0xbd4dc1ec	-0.050233766
169	0x3d9cb023	0.07650783
170	0xbe4089a9	-0.18802513
171	0x3da6530a	0.08121307
172	0x3e3bdc23	0.18345694
173	0x3e0934f1	0.13399102
174	0xbdc1716a	-0.0944546
175	0x3d12f626	0.035879277
176	0x3d9c4f1e	0.07632278
177	0x3e1e235b	0.15443175
178	0x3d024c95	0.031811316
179	0x3d06fd6b	0.032956522
180	0xbe07d2ca	-0.13264003
181	0x3c5925f4	0.013253678
182	0xbd4e2728	-0.05033031
183	0x3e7ac887	0.24490558
184	0x3e08e1a4	0.13367325
185	0x3daf4d70	0.08559692
186	0xbcc5ec50	-0.024160534
187	0x3e12c5f8	0.14333332
188	0x3e5df01c	0.21673626
189	0xbe520d07	-0.20512782
190	0xbd828bda	-0.06374331
191	0x3e2de9bb	0.16983692
192	0x3dd9137f	0.10599422
193	0x3e27f586	0.16402254
194	0xbcf56a03	-0.029957777
195	0x3e501589	0.20320715
196	0x3e8c8a36	0.27449197
197	0x3dde6bd5	0.10860411
198	0x3e00e4f5	0.1258734
199	0xbdcccfdb	-0.10000583
200	0x3e1e26f2	0.15444544
201	0xbe81df6b	-0.25365767
202	0x3e86ed00	0.26352692
203	0x3b1c4191	0.0023842792
204	0xbc226ee5	-0.009914135
205	0xbd52955a	-0.051411964
206	0xbb7baa40	-0.0038401037
207	0xbde8a42b	-0.113594376
208	0xbe05c3a2	-0.13062909
209	0x3e70e8f4	0.23526365
210	0xbcf3aed3	-0.029746449
211	0xbd96caf2	-0.073629275
212	0x3df4ba7d	0.11949632
213	0x3d4286e0	0.047491908
214	0xbd9b6209	-0.07587058
215	0x3e43f5e2	0.19136766
216	0xbd18bf19	-0.03729162
217	0x3dab87ec	0.083755344
218	0x3dff6b7c	0.12471673
219	0x3debc1f9	0.11511607
220	0x3d1f5f31	0.03890914
221	0x3e324932	0.17410734
222	0x3e5e49e1	0.2170787
223	0xbd65c5f8	-0.056097
224	0x3bc8dc86	0.006129804
225	0xbdecaf88	-0.115569174
226	0xbe5ac544	-0.21364313
227	0xbd08dbf7	-0.0334129
228	0xbd95dee0	-0.07317901
229	0x3e656449	0.22401537
230	0x3d4422b0	0.047884643
231	0xbdf57cfc	-0.119867295
232	0x3c80ee6b	0.015738687
233	0x3c8c0915	0.017094174
234	0xbe63b413	-0.22236662
235	0x3ce9a148	0.028519288
236	0xbdd2465d	-0.10267327
237	0x3e35ff6f	0.17773221
238	0xbe3c610a	-0.18396392
239	0xbe7c2c22	-0.2462621
240	0x3d090db0	0.03346032
241	0xbe26ee56	-0.16301855
242	0x3e4e1229	0.20124115
243	0xbdd81909	-0.1055165
244	0xbe0bf790	-0.13668656
245	0xbdebcf4a	-0.115141466
246	0xbe12e74b	-0.14346044
247	0xbd59b5f9	-0.05315206
248	0x3dc65117	0.096834354
249	0xbe42c983	-0.19022183
250	0x3e2ca6d9	0.16860522
251	0xbdc24b77	-0.0948705
252	0x3e1f6b4a	0.15568271
253	0xbddde1c5	-0.10834078
254	0x3e3d0b4c	0.1846134
255	0xbe0412a5	-0.12897737

functional_5_1/dense_8_1/Add/ReadVariableOp:0 f4 [128]
0	0xbd32e36c	-0.043673918
1	0xbd368a28	-0.04456535
2	0xbd334bab	-0.043773334
3	0xbd9b18ab	-0.075730644
4	0x3db39979	0.08769507
5	0x3dd4b7b1	0.10386599
6	0xbd2d3bb9	-0.042293284
7	0xbc7f62bd	-0.015587506
8	0xbd75e57a	-0.0600333
9	0xbd0cce0d	-0.034376193
10	0x3d75de0c	0.060026214
11	0x3b7a458a	0.0038188421
12	0xbd75e558	-0.060033172
13	0xbc00d424	-0.007863078
14	0xbd39b2d3	-0.045336556
15	0x3d9249fb	0.07143017
16	0xbcd99bc5	-0.026563535
17	0xbd2247b5	-0.039619166
18	0xbdd1d398	-0.102454364
19	0x3c4f7649	0.012662479
20	0x3dbbb366	0.09165077
21	0x3d94af67	0.07260018
22	0xbdd25981	-0.10270978
23	0x00000000	0.0
24	0xbc680972	-0.014162408
25	0x3dd7557e	0.10514353
26	0xbd39b2c4	-0.0453365
27	0x3d404676	0.046942197
28	0x3a5aa6f6	0.0008340919
29	0x3dda4933	0.10658493
30	0x3cdfdcc7	0.027326955
31	0xbd28bdca	-0.041196622
32	0xbd75e572	-0.06003327
33	0x3cc9c19e	0.024628457
34	0x3d8e0e8c	0.06936368
35	0xbc0cdfec	-0.008598309
36	0xbd84496b	-0.06459316
37	0xbd50a329	-0.05093685
38	0x3d28cb6d	0.041209627
39	0x3d97808f	0.073975675
40	0x00000000	0.0
41	0xbcb11438	-0.021616086
42	0xbd464122	-0.04840196
43	0x00000000	0.0
44	0x00000000	0.0
45	0x00000000	0.0
46	0xbc8bc929	-0.017063694
47	0x3cfc36cb	0.030787846
48	0x3c8d3c99	0.01724081
49	0x00000000	0.0
50	0x3a9caa4d	0.0011952609
51	0x3d1be224	0.03805746
52	0xbde65b69	-0.11247904
53	0x3ccf5951	0.025311144
54	0x00000000	0.0
55	0x3d8b228a	0.06793697
56	0x3dc9caa5	0.098531045
57	0x3da7336e	0.08164106
58	0x00000000	0.0
59	0x3d1a2857	0.037636127
60	0x3d39b867	0.045341875
61	0x3c831d20	0.016005099
62	0x00000000	0.0
63	0x3ccda615	0.025103608
64	0x3ba375c5	0.0049884045
65	0x3c224eb3	0.009906459
66	0xbcbad429	-0.022806244
67	0x3d2af52f	0.04173773
68	0x3bcb4291	0.0062030037
69	0xbcf25b7a	-0.029584635
70	0x3d3e42f5	0.046450574
71	0x3d509964	0.050927535
72	0xbccf41d1	-0.025299938
73	0xbd8ddf35	-0.06927339
74	0x3d2427b7	0.040076938
75	0x3d8b3768	0.06797677
76	0xbc360abe	-0.01111096
77	0x3d6e1003	0.05812074
78	0x00000000	0.0
79	0x3d3e9d13	0.046536516
80	0x3d3d9c06	0.046291374
81	0x3d519bf9	0.051174138
82	0x3d92d238	0.07169002
83	0xbe0c2114	-0.13684493
84	0x3d86fc44	0.065910846
85	0x00000000	0.0
86	0x3d538d79	0.05164859
87	0x3c22428d	0.009903562
88	0xbc5b3bab	-0.013380925
89	0xbdce2f7d	-0.100676514
90	0xbd2a7168	-0.04161206
91	0xbda90091	-0.08252061
92	0xbd75e590	-0.06003338
93	0x3d81d126	0.0633872
94	0x3c6ec07a	0.014572257
95	0x3db3115b	0.08743545
96	0xbd75e440	-0.06003213
97	0x3b03fe6a	0.0020140656
98	0x3da483c9	0.080329485
99	0x3d5be376	0.05368372
100	0x3cb4277c	0.021991484
101	0x3d04673a	0.032325007
102	0x3cf19ec8	0.029494658
103	0x00000000	0.0
104	0x3d97ce25	0.07412366
105	0x3cb11706	0.021617424
106	0xbd639775	-0.055564363
107	0x00000000	0.0
108	0xbe04e8ca	-0.12979427
109	0x3d36144b	0.044452947
110	0xbd9cb8ec	-0.076524585
111	0xbd5ff30e	-0.054675154
112	0x3ca40455	0.020021597
113	0x00000000	0.0
114	0x3d9cce68	0.07656556
115	0xba32e2d0	-0.0006823959
116	0x3ccacebc	0.024756782
117	0x00000000	0.0
118	0xbd841d8a	-0.06450947
119	0x3d84a412	0.064766064
120	0xbd75e578	-0.06003329
121	0x00000000	0.0
122	0xbdf2250b	-0.11823472
123	0x00000000	0.0
124	0xbd963e0c	-0.07336053
125	0x3db10c77	0.086449556
126	0x3d9bdae0	0.076101065
127	0x3d7f387c	0.062309727

functional_5_1/dense_11_1/Cast/ReadVariableOp:0 f4 [32, 1]
0	0xbc52dc07	-0.012869841
1	0xbda5850d	-0.08082018
2	0xbaa9f8e2	-0.001296785
3	0xbcee3094	-0.029075898
4	0x3cb9d0b3	0.022682523
5	0x3b24014c	0.0025025187
6	0x3df771d9	0.120822616
7	0x39d5402b	0.00040674335
8	0x3dc69989	0.09697253
9	0x3c9eacfe	0.019369598
10	0xbc7c427c	-0.0153967105
11	0x3c561a1d	0.013067749
12	0xbd8854e2	-0.06656815
13	0xbba21fe1	-0.004947648
14	0xbaf3bb6c	-0.0018595285
15	0xbda5747c	-0.08078858
16	0x3db8408f	0.089966886
17	0xbda68e3f	-0.081326
18	0x3b2ebf38	0.0026664268
19	0xbb879ea6	-0.0041387854
20	0xbcb803d7	-0.022462768
21	0xbc70b53c	-0.014691647
22	0xbce89918	-0.028393313
23	0x3dc069c4	0.09395173
24	0xbc474410	-0.012162223
25	0xb93dab68	-0.00018088298
26	0xbde80ef7	-0.11330979
27	0xbd8ad2a3	-0.06778457
28	0xbd1c12db	-0.03810392
29	0x3d093d62	0.033505805
30	0x3c86af9c	0.016441159
31	0x3bf38a8c	0.0074322876

functional_5_1/dense_10_1/Cast/ReadVariableOp:0 f4 [64, 32]
0	0xbe412e93	-0.18865423
1	0x3e0ce11f	0.13757752
2	0xbe3283cf	-0.17433093
3	0xbe5ac1fc	-0.21363062
4	0x3d8cdda8	0.06878215
5	0xbdd6c5c4	-0.104869395
6	0x3e12fb85	0.1435376
7	0xbe9ec3c3	-0.3100873
8	0x3d8af6cd	0.06785355
9	0x3d1d615d	0.03842293
10	0x3d53a4e3	0.05167092
11	0x3dcadc76	0.09905331
12	0x3ea4190e	0.32050365
13	0x3dff5434	0.12467232
14	0xbe074c4c	-0.13212699
15	0xbdbbbcb8	-0.091668546
16	0x3ce89a89	0.028394
17	0x3e6b3687	0.2297002
18	0x3bde6ed6	0.006788115
19	0x3e4146e6	0.18874702
20	0xbc533960	-0.012892097
21	0xbd869cfa	-0.0657291
22	0xbd301465	-0.0429882
23	0x3e91c179	0.2846792
24	0x3e71290a	0.23550811
25	0xbe657b9c	-0.22410434
26	0x3e1a36c2	0.15059951
27	0xbdeb9e5a	-0.115048125
28	0x3d8af08d	0.06784163
29	0xbd5831bf	-0.052781817
30	0x3da956c0	0.082684994
31	0x3e0e1ec2	0.1387892
32	0xbe4288ba	-0.1899747
33	0x3e972e44	0.29527485
34	0x3ab1f895	0.0013578112
35	0xbe1b43a2	-0.15162519
36	0xbcbe45f8	-0.023226723
37	0x3e8c9582	0.27457815
38	0x3e640838	0.2226876
39	0x3e928661	0.28618148
40	0x3e93d3a2	0.288724
41	0x3d0f8afc	0.035044655
42	0xbdfc6a3a	-0.123249486
43	0xbdc6363d	-0.09678314
44	0xbe83493b	-0.25641808
45	0xbe363e0f	-0.17797111
46	0x3dc182d6	0.09448783
47	0x3e200c84	0.15629774
48	0x3da702e0	0.08154845
49	0xbdc428d7	-0.09578102
50	0x3cb013f5	0.021493891
51	0xbd24bb35	-0.040217597
52	0x3dea3c98	0.114373386
53	0x3e6d2062	0.23156884
54	0xbe4f8f2e	-0.20269462
55	0x3d46a2bb	0.048495036
56	0x3eb89399	0.36050108
57	0x3e8b9e70	0.27269316
58	0xbca6161c	-0.020274214
59	0x3e93547b	0.2877539
60	0x3b8062fc	0.00391805
61	0xbd8d3611	-0.06895078
62	0xbd6b67d5	-0.05747207
63	0xbce9b17b	-0.028527012
64	0x3e6e164a	0.2325069
65	0xbe4fb31a	-0.20283166
66	0x3e1a28d2	0.15054634
67	0xbd0b76b8	-0.034048766
68	0xbd98e833	-0.074661635
69	0xbdd879ab	-0.10570081
70	0xbdf9cca8	-0.12197238
71	0xbe486a52	-0.19571808
72	0xbe5363c5	-0.20643528
73	0x3e0d4fd7	0.13799988
74	0x3d70a523	0.058751237
75	0xbdf81588	-0.12113482
76	0xbda5d7ca	-0.08097799
77	0xbdf1b141	-0.118013866
78	0xbd1091ea	-0.035295404
79	0xbd1a5378	-0.03767726
80	0x3e24a94a	0.16080204
81	0xbe897e65	-0.26854244
82	0x3d01e1ab	0.031709354
83	0xbda484e7	-0.080331616
84	0xbd2cf0c5	-0.042221803
85	0xbd7297fc	-0.059226975
86	0xbe275ddd	-0.163444
87	0xbdad9392	-0.084754124
88	0xbc948445	-0.018129477
89	0xbe9e5ea0	-0.30931568
90	0xbdf2e06c	-0.11859211
91	0x3ce95b70	0.028485984
92	0x3e0c2482	0.13685802
93	0xbe5c5347	-0.21516143
94	0x3d4b8e97	0.04969653
95	0x3d767a5e	0.060175292
96	0x3eaa2e31	0.33238366
97	0x3e600227	0.21875821
98	0xbd5f7f91	-0.054565016
99	0x3e65dd1a	0.22447625
100	0xbd4bed6b	-0.049786966
101	0x3dd95911	0.10612691
102	0xbda61a29	-0.081104584
103	0x3e73f33c	0.23823255
104	0xbe6e8362	-0.23292306
105	0x3e5601e7	0.20899163
106	0xbe167964	-0.14694744
107	0x3d96a871	0.073563464
108	0x3d8e0ff8	0.069366395
109	0xbd002bc4	-0.03129174
110	0x3dfd6914	0.12373558
111	0xbe55b46f	-0.20869611
112	0xbd89f03c	-0.06735274
113	0x3e4c633f	0.19959734
114	0xbdf05999	-0.117358394
115	0xbe49ff22	-0.19726232
116	0x3e450fdc	0.19244331
117	0x3e8f4158	0.2797954
118	0x3e8e76c4	0.27824986
119	0x3dd2d79f	0.10295033
120	0x3e86bb19	0.2631462
121	0x3ba16e01	0.0049264436
122	0x3c8372a6	0.01604588
123	0x3d9aff40	0.07568216
124	0xbe16a27e	-0.14710423
125	0xbd5f2eb2	-0.05448789
126	0x3c2f188c	0.010687005
127	0xbe0142cf	-0.12623142
128	0x3d138125	0.036011834
129	0xbcf5b3dd	-0.029992992
130	0xbb0ef70a	-0.0021814727
131	0xbe50cbe4	-0.20390278
132	0x3e01c007	0.12670909
133	0xbce4ca64	-0.027928539
134	0xbddf52c0	-0.10904455
135	0x3db01051	0.08596862
136	0xbe905a2e	-0.28193802
137	0x373a4900	1.1103461e-05
138	0x3dde1e0f	0.10845577
139	0x3ea1d44a	0.31607276
140	0x3d69a018	0.057037443
141	0x3e2fe335	0.17176516
142	0x3e7389f5	0.23783095
143	0x3e47947a	0.19490233
144	0x3df73d17	0.12072199
145	0x3c94ce1d	0.018164689
146	0x3e6285d8	0.2212137
147	0x3e88edb9	0.26743868
148	0xbda1e3d0	-0.0790478
149	0x3e82c674	0.25542033
150	0xbde7704d	-0.113007165
151	0x3e750717	0.23928486
152	0xbe5138ce	-0.20431826
153	0xbe700ae3	-0.23441653
154	0x3e7c6fde	0.24652049
155	0xbe1d5cb4	-0.15367395
156	0x3e8194d1	0.2530885
157	0xbd9ce99d	-0.07661746
158	0x3c36ca16	0.0111565795
159	0xbe0c46e0	-0.13698912
160	0xbe0c5dd1	-0.13707663
161	0xbcbb2f11	-0.022849591
162	0x3dcb7817	0.09935015
163	0xbcea4b05	-0.028600225
164	0xbe432de3	-0.19060473
165	0xbe422710	-0.18960214
166	0xbe9373c8	-0.28799272
167	0xbe08ca4f	-0.13358425
168	0xbd92cef4	-0.071683794
169	0xbd2cd71f	-0.042197343
170	0x3e0db798	0.13839567
171	0x3dde4416	0.1085283
172	0x3e2a2011	0.16613795
173	0x3a9cd55b	0.001196544
174	0x3e403231	0.18769147
175	0x3df5bc07	0.11998754
176	0x3e1c7ec1	0.15282728
177	0xbce2c02d	-0.027679527
178	0x3d2a5170	0.04158157
179	0xbddf9cb7	-0.10918563
180	0x3e4b4e52	0.19854096
181	0x3cf0b58e	0.029383447
182	0xbe421b3d	-0.18955703
183	0xbe55b6a9	-0.2087046
184	0xbe065b31	-0.13120724
185	0xbdae7060	-0.085175276
186	0xbe586da6	-0.21135578
187	0xbe4f98c7	-0.20273124
188	0xbe7a5421	-0.24446155
189	0x3e0f35f3	0.13985424
190	0xbe254cb0	-0.16142535
191	0xbe08f0cc	-0.13373107
192	0xbdcf144f	-0.101112954
193	0xbe90679b	-0.28204045
194	0x3e54ae74	0.20769674
195	0xbdc616a7	-0.09672289
196	0xbd51899a	-0.051156618
197	0xbe4d3fb1	-0.20043828
198	0xbe029c95	-0.12755044
199	0xbdd157e2	-0.102218404
200	0xbdbe1cdc	-0.09282848
201	0x3e81a6ac	0.25322473
202	0xbd97ca9b	-0.07411691
203	0xbe72ce90	-0.2371161
204	0x3e5f7256	0.2182096
205	0x3e4f9eba	0.20275393
206	0x3c3fda2f	0.011709734
207	0x3e41376e	0.18868801
208	0xbe29825e	-0.16553637
209	0xbd7f9432	-0.06239719
210	0xbdb6c6a8	-0.089246094
211	0x3c87e5dd	0.0165891
212	0xbd5035e1	-0.050832633
213	0xbe81716e	-0.25281852
214	0xbe05fd13	-0.13084821
215	0x3e8d5455	0.27603403
216	0xbe4bd750	-0.19906354
217	0xbe679a6b	-0.226175
218	0xbde11118	-0.109895885
219	0xbcf30cf9	-0.029669272
220	0xbc8f29e6	-0.017476033
221	0x3da7a710	0.081861615
222	0x3d0d2110	0.03445536
223	0x3dd72d72	0.10506715
224	0x3d7d3ddb	0.061826568
225	0xbe5e436d	-0.21705408
226	0xbb4e2a6e	-0.0031458396
227	0x3e10f34b	0.14155309
228	0xbe5ddd8d	-0.21666546
229	0xbd52ef48	-0.051497728
230	0xbe690291	-0.22754885
231	0x3d921a88	0.07133967
232	0xbd8110ea	-0.06302054
233	0x3d2122bc	0.039339766
234	0x3d9a0c7c	0.075219125
235	0x3df41931	0.119188674
236	0x3e405465	0.18782194
237	0x3dfe77ec	0.12425217
238	0xbdddf9dc	-0.108386725
239	0xbe37b7d8	-0.17941225
240	0xbdf50706	-0.1196423
241	0xbd3e4881	-0.046455864
242	0x3d1e7713	0.038687777
243	0x3df8eb1c	0.121542186
244	0x3e840653	0.25786075
245	0x3d424934	0.047433093
246	0xbe3229a1	-0.17398693
247	0x3ca7bd49	0.020476
248	0x3e360843	0.17776589
249	0xbe3be13e	-0.18347642
250	0xbd1a3b30	-0.0376541
251	0x3c7215f9	0.0147757465
252	0xbd8d4cf0	-0.0689944
253	0x3cc04998	0.023472592
254	0x3d336b4a	0.04380349
255	0xbe634117	-0.22192799

functional_5_1/dense_10_1/Add/ReadVariableOp:0 f4 [32]
0	0xbd9102c0	-0.07080603
1	0x3c0a10e2	0.008426877
2	0x3c5b35ff	0.013379573
3	0x3c9a4e73	0.018836236
4	0xbd3c7289	-0.046007667
5	0x3dc270f4	0.094942
6	0xbca93f70	-0.020660132
7	0xbdd67df8	-0.104732454
8	0xbd0f133b	-0.03493045
9	0x3da722ea	0.08160956
10	0xbd49e35b	-0.04928909
11	0xbe06dcd5	-0.13170178
12	0x3da55601	0.080730446
13	0xbc425fb4	-0.011863638
14	0xbd2e810f	-0.04260355
15	0xbdfee26f	-0.124455325
16	0xba2a63f4	-0.00064998795
17	0x3db5b7ae	0.08872925
18	0xbddaa2c1	-0.10675574
19	0x3d25ad34	0.040448382
20	0x3d8f5cc6	0.07000117
21	0xbe02b0c2	-0.1276274
22	0xbdf22dce	-0.11825143
23	0x3d3634ed	0.044484068
24	0xbbb51177	-0.0055257636
25	0xbde56251	-0.11200393
26	0x3da67d24	0.081293374
27	0x3c808feb	0.015693625
28	0x3c839604	0.016062744
29	0x3d1a15bd	0.037618387
30	0xbd34bf5e	-0.044127814
31	0xbdb322e8	-0.08746892

functional_5_1/batch_normalization_8_1/batchnorm/sub:0 f4 [32]
0	0xbeccf752	-0.4003244
1	0xbeaf4147	-0.3422949
2	0xbecd78a9	-0.4013112
3	0xbeb42e96	-0.35191792
4	0xbe5bfc9e	-0.21483085
5	0xbe94323d	-0.2894458
6	0xbe83fc0d	-0.25778237
7	0xbe4d60fe	-0.20056531
8	0xbe88604d	-0.26635972
9	0xbe8aaa25	-0.27082935
10	0xbe9af441	-0.30264476
11	0xbe9f39aa	-0.31098682
12	0xbeaa88c6	-0.33307475
13	0xbee2d18a	-0.4430049
14	0xbeb50146	-0.35352534
15	0xbeb980c0	-0.3623104
16	0xbe5e155c	-0.21687835
17	0xbebbb74d	-0.36663285
18	0xbe50fda5	-0.20409258
19	0xbed72750	-0.4202218
20	0xbedab59e	-0.42716688
21	0xbea182b9	-0.31545046
22	0xbed9d87d	-0.4254798
23	0xbe423877	-0.18966852
24	0xbead3fa5	-0.3383762
25	0xbea6388f	-0.32465026
26	0xbecd5889	-0.4010661
27	0xbeb4d2cf	-0.35317084
28	0xbeced636	-0.40397805
29	0xbea403f5	-0.3203427
30	0xbe476f06	-0.19475946
31	0xbec6a504	-0.38797772

functional_5_1/batch_normalization_8_1/batchnorm/mul:0 f4 [32]
0	0x3f5fcdbc	0.874233
1	0x3f23977e	0.63903034
2	0x3f6630ed	0.89918405
3	0x3f4c5ba2	0.7982732
4	0x3f39d506	0.7259067
5	0x3f5d3f68	0.86424875
6	0x3f133ddf	0.5751628
7	0x3f3fc059	0.74902874
8	0x3f122ff0	0.57104397
9	0x3f730b1e	0.9493884
10	0x3f407f42	0.7519418
11	0x3f3e56fe	0.7435149
12	0x3f2b784b	0.6698043
13	0x3f44abb3	0.7682449
14	0x3f4a63c3	0.79058474
15	0x3f25d654	0.64780164
16	0x3f05fe29	0.5234094
17	0x3f110c7b	0.5665967
18	0x3f435fc2	0.7631799
19	0x3f592dc3	0.8483545
20	0x3f76f782	0.96471417
21	0x3f1e3688	0.6180196
22	0x3f460d13	0.773637
23	0x3efe3761	0.49651626
24	0x3f4c6c70	0.7985296
25	0x3f6d10d6	0.92603815
26	0x3ee65be3	0.4499198
27	0x3efd87a4	0.49517548
28	0x3f43fce0	0.7655773
29	0x3f543d71	0.8290625
30	0x3f79dab7	0.9759936
31	0x3f439a15	0.76406986

functional_5_1/batch_normalization_7_1/batchnorm/sub:0 f4 [64]
0	0xbec3e8dd	-0.38263598
1	0xbef07deb	-0.46971068
2	0xbeb52395	-0.3537871
3	0xbe8a4d11	-0.27011922
4	0xbeb14803	-0.34625253
5	0xbeeaf444	-0.45889485
6	0xbe7f4a94	-0.24930793
7	0xbead9b63	-0.33907613
8	0xbe9dc5b4	-0.30814898
9	0xbee624eb	-0.4495004
10	0xbedd7446	-0.43252772
11	0xbebcf563	-0.36905965
12	0xbea18daa	-0.31553394
13	0xbed95fe2	-0.42455965
14	0xbec5e485	-0.3865091
15	0xbe8f4fdc	-0.27990615
16	0xbed2dd78	-0.41184592
17	0xbec6a28a	-0.38795882
18	0xbec337de	-0.3812856
19	0xbf0f4995	-0.5597165
20	0xbea64912	-0.32477623
21	0xbead9111	-0.3389974
22	0xbef00fb5	-0.46886984
23	0xbeb02d18	-0.34409404
24	0xbe9d7fde	-0.30761617
25	0xbed5fcbe	-0.4179439
26	0xbf08773d	-0.53306943
27	0xbe31679d	-0.17324682
28	0xbe5c2b52	-0.215009
29	0xbf0c48cf	-0.547986
30	0xbebdeeb4	-0.3709618
31	0xbefc7d0e	-0.4931416
32	0xbeee6ac6	-0.46565837
33	0xbed274df	-0.4110479
34	0xbef99aa4	-0.48750794
35	0xbeaded31	-0.33970025
36	0xbeaf211e	-0.34204954
37	0xbed12fe1	-0.4085684
38	0xbeb75f59	-0.35814932
39	0xbe7cc12b	-0.24683063
40	0xbf00a640	-0.5025368
41	0xbedaf3c8	-0.42764115
42	0xbe96ebf6	-0.294769
43	0xbe7d63a5	-0.24745043
44	0xbed800de	-0.42188162
45	0xbee66389	-0.44997814
46	0xbeec2263	-0.46119985
47	0xbee2bd95	-0.44285265
48	0xbe91054e	-0.2832436
49	0xbf00e236	-0.5034517
50	0xbed162fa	-0.40895826
51	0xbed04c27	-0.406831
52	0xbe9e92b7	-0.3097131
53	0xbede07f4	-0.43365443
54	0xbede46b8	-0.4341333
55	0xbf0140b4	-0.50489354
56	0xbec5ab72	-0.38607365
57	0xbe8714cc	-0.26383054
58	0xbe72ae8d	-0.23699398
59	0xbe8d4910	-0.27594805
60	0xbec61231	-0.38685754
61	0xbea7a72a	-0.32744724
62	0xbe947410	-0.289948
63	0xbebb168c	-0.3654064

functional_5_1/batch_normalization_7_1/batchnorm/mul:0 f4 [64]
0	0x3f775639	0.9661594
1	0x3f8d339d	1.1031376
2	0x3f6f7195	0.9353269
3	0x3f4f87fb	0.81066865
4	0x3f673bf5	0.9032586
5	0x3f74fa20	0.9569416
6	0x3f4ee42d	0.8081692
7	0x3f62f022	0.88647664
8	0x3f0f299d	0.5592287
9	0x3f8bf82e	1.0935113
10	0x3f660cbd	0.8986319
11	0x3f90db9f	1.1317023
12	0x3f74243d	0.95367795
13	0x3f7534b5	0.9578355
14	0x3f72155c	0.9456384
15	0x3f4b02c4	0.79301095
16	0x3f6705fd	0.9024351
17	0x3f4eb7d9	0.8074928
18	0x3f611103	0.8791658
19	0x3f4bf77b	0.796745
20	0x3f9c05b6	1.2189243
21	0x3f762321	0.9614735
22	0x3f8014c2	1.0006335
23	0x3f88ad8e	1.0677965
24	0x3f32c02a	0.6982447
25	0x3f6ae835	0.9176057
26	0x3f54989c	0.83045363
27	0x3f8ca90e	1.0989091
28	0x3f546c4b	0.8297774
29	0x3f4df3c9	0.8045011
30	0x3f6c880b	0.92395085
31	0x3f5a8067	0.85352176
32	0x3f887085	1.0659338
33	0x3f6003a5	0.8750556
34	0x3f65e6a3	0.8980505
35	0x3f807ea8	1.0038652
36	0x3f843967	1.0330018
37	0x3f84a2c0	1.0362167
38	0x3f84f8a8	1.0388384
39	0x3f683c5a	0.9071709
40	0x3f5dc617	0.86630386
41	0x3f831077	1.02394
42	0x3f12e094	0.5737393
43	0x3f56ac32	0.838565
44	0x3f2dbc6b	0.6786563
45	0x3f6baf4f	0.92064375
46	0x3f816a92	1.0110648
47	0x3f58c816	0.84680307
48	0x3f76a9e8	0.96353006
49	0x3f59f037	0.85132164
50	0x3f6ab3eb	0.91680783
51	0x3f60f02f	0.8786649
52	0x3f532e64	0.8249266
53	0x3f450b4c	0.7697036
54	0x3f504deb	0.81368893
55	0x3f6591b4	0.8967545
56	0x3f32c68c	0.6983421
57	0x3f44f507	0.7693638
58	0x3f8c5922	1.0964701
59	0x3f3536e6	0.70786893
60	0x3f4cb8b3	0.7996933
61	0x3f37d328	0.71806574
62	0x3f41297e	0.7545394
63	0x3f652b14	0.89518857

functional_5_1/batch_normalization_6_1/batchnorm/sub:0 f4 [128]
0	0xbcbb2958	-0.022846863
1	0xbceccae2	-0.028905336
2	0x3d927bee	0.07152544
3	0xbc441fcc	-0.011970472
4	0xbed3f0ff	-0.41394803
5	0xbee98551	-0.45609525
6	0xbe1b6eae	-0.1517894
7	0xbdad28f4	-0.08455077
8	0xbce7ad8b	-0.028280994
9	0xbcd51e2b	-0.026015362
10	0xbe6e6408	-0.23280346
11	0xbc749be5	-0.014929746
12	0xbe19d485	-0.15022476
13	0xbddaef8d	-0.10690222
14	0x3ca93e99	0.020659732
15	0xbeb08254	-0.34474432
16	0xbde5230c	-0.11188325
17	0xbd9a5c13	-0.07537093
18	0xbe037eea	-0.12841383
19	0xbd89bc72	-0.06725396
20	0xbea33ae8	-0.3188088
21	0xbe92a14c	-0.28638685
22	0x3d129180	0.03578329
23	0xbc28444b	-0.010270189
24	0xbc684546	-0.014176672
25	0xbe8d165f	-0.2755613
26	0x3d3f3501	0.046681408
27	0x3b8ab550	0.00423304
28	0xbe4103f4	-0.18849164
29	0xbebfbc0b	-0.37448153
30	0x3c5f4558	0.013627373
31	0x3d8becd4	0.06832281
32	0x3ce10e0e	0.027472522
33	0xbec3b07c	-0.38220584
34	0xbe6a3677	-0.22872339
35	0xbdf823bc	-0.12116191
36	0xbdb351b4	-0.08755818
37	0xbdd1411c	-0.10217497
38	0xbe097103	-0.13422017
39	0xbed13868	-0.40863347
40	0xbdcd9f2e	-0.10040127
41	0xbea81af7	-0.32833073
42	0xbe216f47	-0.15765105
43	0xbd1cda8e	-0.038294367
44	0x3d9a26bf	0.075269215
45	0x3c5c6d17	0.013453743
46	0x3d4ffc5a	0.05077777
47	0xbd15a3b6	-0.03653308
48	0xbe1825c1	-0.14858152
49	0xbc665e92	-0.014060633
50	0xbead5508	-0.33853936
51	0xbde483e4	-0.11157969
52	0xbc5de899	-0.013544225
53	0xbe26ef34	-0.16302186
54	0xbd063a69	-0.032770548
55	0xbdec28ea	-0.11531241
56	0xbec7f0e2	-0.39050967
57	0xbe866f51	-0.26256803
58	0x3d8abbea	0.06774123
59	0xbe6ab344	-0.22919947
60	0xbe5920c6	-0.21203908
61	0xbdb7f07c	-0.08981416
62	0x3d964959	0.07338209
63	0xbe372eea	-0.1788899
64	0xbf03b002	-0.5144044
65	0xbe23be7b	-0.15990631
66	0x3c843ae7	0.016141368
67	0xbe568684	-0.20949751
68	0xbed27b40	-0.41109657
69	0xbd44d7a2	-0.048057206
70	0xbd72127b	-0.059099656
71	0xbe81ea4a	-0.2537406
72	0xbe14a198	-0.14514768
73	0xbc2cb3d8	-0.010540925
74	0xbdd7e534	-0.10541764
75	0xbe7e0c98	-0.24809492
76	0xbd10bc00	-0.03533554
77	0xbe72c68a	-0.23708549
78	0x3d78e712	0.06076724
79	0xbe2a1208	-0.16608441
80	0xbe99635a	-0.29958612
81	0xbec492d7	-0.3839328
82	0xbea7e264	-0.3278991
83	0x3d9794f7	0.0740146
84	0xbe7c42ea	-0.246349
85	0xbd7a5dc5	-0.06112458
86	0xbe49bf50	-0.19701886
87	0xbd9d5981	-0.07683087
88	0xbd0d716c	-0.034531996
89	0x3c982cf5	0.018576125
90	0xbdb1bde9	-0.086788006
91	0xbe501177	-0.20319162
92	0x3bf0e258	0.007351201
93	0xbdcc207e	-0.09967135
94	0xbe7c1b82	-0.24619868
95	0xbe5a66e1	-0.21328308
96	0x3dbef5f4	0.093242556
97	0xbdbf7386	-0.09348206
98	0xbe8854da	-0.26627237
99	0xbe3c3cef	-0.1838262
100	0xbe3c0f60	-0.1836524
101	0xbdb1ef1c	-0.086881846
102	0xbe320c74	-0.17387563
103	0xbdb6694b	-0.08906802
104	0xbe713de5	-0.23558767
105	0xbe544955	-0.20731099
106	0x3d97d673	0.0741395
107	0x3da913d4	0.08255735
108	0xbcdbe27d	-0.026841396
109	0x3d95b623	0.073101304
110	0x3db5b52a	0.08872445
111	0xbcb8d6ba	-0.022563327
112	0xbd9eb457	-0.07749241
113	0xbdc59e59	-0.09649343
114	0xbeaca0fe	-0.33716577
115	0xbdcbaa67	-0.09944611
116	0xbe2a9e76	-0.1666201
117	0xbcbcbc50	-0.023039013
118	0xbcb6eb06	-0.022328865
119	0xbe88c382	-0.2671166
120	0x3dd960a2	0.10614134
121	0x3daa2ccf	0.08309328
122	0x3dbf7f48	0.09350449
123	0x3d65ebc4	0.056133047
124	0xbdec49c4	-0.11537507
125	0xbe9adc1b	-0.30246052
126	0xbebdc3ee	-0.37063545
127	0xbe87452f	-0.2641997

functional_5_1/batch_normalization_6_1/batchnorm/mul:0 f4 [128]
0	0x3fb8fdfe	1.4452512
1	0x3faeb846	1.3649986
2	0x3fb677ed	1.4255348
3	0x3faf89d8	1.3713942
4	0x3fca4ba4	1.5804334
5	0x3fd26e6e	1.643995
6	0x3fc8e718	1.5695524
7	0x3fc62fc7	1.548333
8	0x3fb3a74a	1.4035428
9	0x3fb1346a	1.384412
10	0x3fa9b4cb	1.3258299
11	0x3fc37ac0	1.5271835
12	0x3fb3a6f4	1.4035325
13	0x3faf8812	1.37134
14	0x3fc6b1c0	1.5522995
15	0x3fd13cea	1.6346714
16	0x3fcd4876	1.6037738
17	0x3fd8371f	1.6891822
18	0x3fb4089b	1.4065126
19	0x3fb3f712	1.4059775
20	0x3fbe1399	1.4849731
21	0x3fbe3e0a	1.4862683
22	0x3fade535	1.3585573
23	0x3fbf1ffb	1.4931635
24	0x3fc57c33	1.5428528
25	0x3fb709e3	1.4299892
26	0x3fb645c4	1.4240041
27	0x3fd45918	1.6589689
28	0x3fc48754	1.5353799
29	0x3fba38b5	1.4548556
30	0x3fbfc10d	1.498079
31	0x3fb9b957	1.4509686
32	0x3fb3a69e	1.4035223
33	0x3fc65c5b	1.5496935
34	0x3fc0e503	1.5069889
35	0x3faa030f	1.3282183
36	0x3fb0b4b4	1.3805146
37	0x3fbd3e4c	1.4784636
38	0x3fb6d8fc	1.4284968
39	0x3fc7ec7c	1.5619044
40	0x3fbf1ffb	1.4931635
41	0x3faf2d3c	1.368568
42	0x3fc428a4	1.5324903
43	0x3fbf1ffb	1.4931635
44	0x3fbf1ffb	1.4931635
45	0x3fbf1ffb	1.4931635
46	0x3fa63f7e	1.2988126
47	0x3fc272d4	1.5191293
48	0x3fcb526e	1.588453
49	0x3fbf1ffb	1.4931635
50	0x3fba6339	1.456153
51	0x3fc4ac70	1.5365124
52	0x3fc9314e	1.5718172
53	0x3fba74d4	1.4566903
54	0x3fbf1ffb	1.4931635
55	0x3fc520a0	1.5400581
56	0x3fb9869b	1.4494203
57	0x3fb6cea1	1.4281808
58	0x3fbf1ffb	1.4931635
59	0x3fc74a19	1.5569488
60	0x3fc53097	1.5405453
61	0x3fa8eebe	1.3197858
62	0x3fbf1ffb	1.4931635
63	0x3face55c	1.3507495
64	0x3fb526ce	1.4152467
65	0x3fc5cf24	1.5453839
66	0x3fb36c5a	1.4017441
67	0x3fb1c30e	1.3887651
68	0x3fbb665d	1.4640614
69	0x3fc472d3	1.5347542
70	0x3fc676e2	1.550503
71	0x3fb94471	1.4474012
72	0x3fbf3c54	1.4940286
73	0x3fb725fe	1.4308469
74	0x3fc869bb	1.5657266
75	0x3fb6bf3d	1.4277111
76	0x3fc7f700	1.5622253
77	0x3fbb337c	1.4625087
78	0x3fbf1ffb	1.4931635
79	0x3fd1467b	1.6349634
80	0x3facc364	1.3497128
81	0x3fc5f952	1.5466712
82	0x3faf53d1	1.3697454
83	0x3faf20f0	1.3681927
84	0x3fb9c4cd	1.4513184
85	0x3fbf1ffb	1.4931635
86	0x3fbf3b08	1.493989
87	0x3fbf5221	1.4946939
88	0x3fd85d27	1.6903428
89	0x3fb520be	1.4150617
90	0x3fb5b969	1.4197208
91	0x3fb646a5	1.4240309
92	0x3fb3a705	1.4035345
93	0x3fb5d7c9	1.4206477
94	0x3fa7f348	1.3121119
95	0x3fadd7bc	1.3581462
96	0x3fb3ae2d	1.4037529
97	0x3fbe3f84	1.4863133
98	0x3fbf72e2	1.4956934
99	0x3fd4257f	1.6573943
100	0x3fc6bfa7	1.5527238
101	0x3fa8a5e6	1.3175628
102	0x3fb70049	1.4296962
103	0x3fbf1ffb	1.4931635
104	0x3fc3c0c9	1.5293208
105	0x3faeb206	1.3648078
106	0x3fb485b7	1.4103307
107	0x3fbf1ffb	1.4931635
108	0x3fc25c01	1.5184327
109	0x3fbd5b7c	1.4793544
110	0x3fac770a	1.3473828
111	0x3fa57e2c	1.292913
112	0x3fb341b6	1.4004428
113	0x3fbf1ffb	1.4931635
114	0x3fb2f212	1.3980124
115	0x3fcee8d9	1.616481
116	0x3fb7db1d	1.4363743
117	0x3fbf1ffb	1.4931635
118	0x3fc76d36	1.5580204
119	0x3fb52db9	1.4154578
120	0x3fb3a7f0	1.4035625
121	0x3fbf1ffb	1.4931635
122	0x3fc92f70	1.5717602
123	0x3fbf1ffb	1.4931635
124	0x3fd050b5	1.627463
125	0x3faff0ec	1.3745399
126	0x3fad48f7	1.3537892
127	0x3fccc251	1.5996801
