models/Maribor/cars/Maribor_cars_model.onnx (onnx, 60561 bytes, 13 tensors)

functional_5_1/dense_9_1/Cast/ReadVariableOp:0 f4 [128, 64]
0	0xbdc30639	-0.09522671
1	0xbe2f598c	-0.17124003
2	0x3e43790c	0.19089144
3	0xb8c29150	-9.2777074e-05
4	0x3d25c4e3	0.04047097
5	0xbe82ff63	-0.2558547
6	0xbe43d8ca	-0.19125667
7	0xbe712464	-0.23549038
8	0xbde4bf59	-0.11169309
9	0xbc559316	-0.013035556
10	0xbbf007b4	-0.007325137
11	0xbe393393	-0.1808608
12	0xbd99c20f	-0.07507717
13	0x3e02b19f	0.1276307
14	0x3e28c2e0	0.16480589
15	0xbeb59c3e	-0.35470766
16	0xbdbb54b9	-0.09147019
17	0xbca947ea	-0.020664174
18	0xbe57eb70	-0.21085906
19	0xbcddb573	-0.02706406
20	0xbc61d4ef	-0.0137836775
21	0x3e48a2e9	0.19593395
22	0xbe0b309f	-0.13592766
23	0x3e17acc5	0.14812
24	0x3d982ef1	0.07430828
25	0x3d0aacd9	0.033856247
26	0xbd90c286	-0.070683524
27	0xbca0e0ab	-0.01963838
28	0xbe324023	-0.17407279
29	0xbe0ef4cf	-0.13960575
30	0x3d7e2d30	0.062054813
31	0x3e917a13	0.28413448
32	0xbe09f9bf	-0.13474177
33	0xbe2ac0b4	-0.16675073
34	0xbda8ef3c	-0.08248755
35	0xbe10827f	-0.1411228
36	0xbdded264	-0.108799726
37	0x3c2d554a	0.0105794165
38	0xbddcbb0a	-0.10777862
39	0x3e435513	0.19075422
40	0x3e24f7aa	0.16110101
41	0xbdaae2fe	-0.083440766
42	0xbd303de8	-0.04302779
43	0xbe22cc15	-0.15898164
44	0x3dd4d4e4	0.10392168
45	0x3e1b0b82	0.15141109
46	0xbe99fb43	-0.3007451
47	0xbcaa050f	-0.020754365
48	0xbcdbac8d	-0.026815677
49	0x3e46a490	0.19398713
50	0x3e1be03c	0.15222257
51	0xbe3efe83	-0.18651776
52	0x3e06bb84	0.13157469
53	0xbdaaa662	-0.08332516
54	0x3de918db	0.11381694
55	0x3c464287	0.012100822
56	0x3dc2622b	0.0949138
57	0xbe6a2c14	-0.22868377
58	0x3e177107	0.1478921
59	0x3dbed1cc	0.09317359
60	0xbe188a06	-0.14896402
61	0x3d9481bf	0.072513096
62	0xbd203bb0	-0.039119422
63	0xbd9c16ad	-0.076215126
64	0x3e768dd3	0.24077539
65	0x3de8e908	0.11372572
66	0x3e03610f	0.12829994
67	0xb98a91bc	-0.00026429992
68	0xbe3ba7e2	-0.18325761
69	0x3db294d0	0.0871979
70	0x3d0e1426	0.034687184
71	0xbcd9b3d4	-0.026575007
72	0xbcbbf49b	-0.022943785
73	0x3e3a2d30	0.181813
74	0x3caa10a2	0.020759884
75	0x3dbfd5fd	0.09366987
76	0x3de54604	0.11194995
77	0xbdae38d1	-0.085069306
78	0xbe1f82e9	-0.15577282
79	0xbe736a1a	-0.23770943
80	0x3da95a65	0.082691945
81	0x3e3c9428	0.18415892
82	0x3b142da0	0.0022610202
83	0x3bc06b17	0.005872141
84	0xbe387919	-0.18014945
85	0x3e0d1ac0	0.13779736
86	0x3dbe8a34	0.09303704
87	0xbdb2292a	-0.08699258
88	0x3d6c9638	0.057760447
89	0x3c49cbdf	0.012316673
90	0x3e2f38ea	0.17111555
91	0xbdc9a3b0	-0.09845674
92	0xbe1f83be	-0.155776
93	0xbe0e46b0	-0.13894153
94	0x3e3f53c9	0.18684305
95	0xbdc0317b	-0.09384438
96	0xbde0f77e	-0.109847054
97	0xbd5a5888	-0.053307086
98	0x3e4737e0	0.19454908
99	0x3dccd593	0.100016735
100	0xbda64860	-0.08119273
101	0xbdb6e5e1	-0.08930565
102	0x3d5dd5d9	0.05415902
103	0xbc9c292e	-0.019062605
104	0x3d8a3d36	0.06749956
105	0x3e4b89bf	0.19876765
106	0x3e296afb	0.16544716
107	0xbd9f50ca	-0.07779081
108	0xbe7e22e8	-0.24818003
109	0xbd6369eb	-0.055520933
110	0x3db3a5f4	0.087718874
111	0x3da09351	0.078405984
112	0xbcfdcf28	-0.030982569
113	0x3e6edc25	0.23326166
114	0x3dce8b17	0.10085123
115	0x3d690dd0	0.05689794
116	0x3bd6f0af	0.0065594534
117	0xbe29dda9	-0.16588463
118	0xbd48fec0	-0.049071074
119	0xbdc1cb71	-0.094626315
120	0xbe0e7627	-0.13912259
121	0xbd21cdd1	-0.039502922
122	0xbe81c498	-0.25345302
123	0x3e0da679	0.13833036
124	0x3d88f2ae	0.066869125
125	0x3e6c0110	0.2304728
126	0xbd9d760e	-0.07688533
127	0xbe65a7c4	-0.22427279
128	0xbd6b14a1	-0.05739272
129	0xbdaed862	-0.085373655
130	0x3c23e91e	0.01000431
131	0x3dc1dbd0	0.09465754
132	0x3d63e90e	0.05564218
133	0x3dacbab5	0.08434049
134	0xbcf93fb7	-0.03042589
135	0x3c55dfe6	0.01305387
136	0xbda37c56	-0.079826996
137	0x3e183081	0.14862253
138	0xbdacb78c	-0.08433446
139	0x3e070275	0.13184531
140	0x3cb196f4	0.021678425
141	0xbd8726cc	-0.06599197
142	0x3d138592	0.036016054
143	0x3d724198	0.059144586
144	0xbe2d9a55	-0.16953404
145	0xbd91231e	-0.07086776
146	0xbdc4974d	-0.09599171
147	0x3df200ac	0.118165344
148	0x3df0f19d	0.11764834
149	0x3dd3ba8d	0.10338316
150	0x3e4ba7a2	0.19888166
151	0xbcdd51cb	-0.027016541
152	0xbd52fac8	-0.051508695
153	0xbc6a8131	-0.014313028
154	0x3e17de14	0.1483081
155	0xbd491a51	-0.049097363
156	0xbe246c6b	-0.16056983
157	0x3e277f61	0.16357185
158	0x3d3f3358	0.046679825
159	0x3d27793d	0.040887106
160	0x3daa34d2	0.08310856
161	0x3e75b43e	0.23994538
162	0x3e270244	0.16309458
163	0xbe5c0d80	-0.21489525
164	0xbd6933b2	-0.056934066
165	0x3dae3b04	0.0850735
166	0xbd37cfec	-0.044876024
167	0xbe1c9e73	-0.15294819
168	0xbe45d233	-0.19318466
169	0xbdd5dcf4	-0.10442534
170	0x3e0f8d92	0.14018849
171	0x3e03d85d	0.12875505
172	0x3e89d82c	0.2692274
173	0x3e0744f2	0.13209894
174	0x3e7157c4	0.23568636
175	0xbdd8d70d	-0.10587893
176	0x3bd29096	0.0064259274
177	0x3c94b461	0.018152418
178	0x3bff7d14	0.007796893
179	0xbe680088	-0.22656453
180	0xbd8fe100	-0.07025337
181	0x3d34ee89	0.044172797
182	0x3d84fa2d	0.0649303
183	0xbe51e303	-0.20496754
184	0x3dc074ed	0.09397302
185	0xbd29039d	-0.04126321
186	0xbe842b09	-0.25814083
187	0x3dc810db	0.0976884
188	0x3d90d61c	0.07072088
189	0x3d4708a4	0.048592225
190	0xbe3f527e	-0.18683812
191	0x3e724140	0.23657703
192	0xbe1ce34d	-0.15321083
193	0x3d82b26f	0.0638169
194	0x3de92d98	0.113856494
195	0xbe44943d	-0.19197173
196	0x3e262631	0.16225506
197	0x3cd41d80	0.025892973
198	0xbdb8290d	-0.08992205
199	0xbdc6b6b5	-0.09702817
200	0x3e0cdc09	0.13755812
201	0xbd1e75f4	-0.038686708
202	0xbe2cd2fa	-0.16877356
203	0x3dd83bd5	0.10558287
204	0x3ea19aea	0.31563503
205	0x3d7e5d87	0.062100913
206	0x3e4f2687	0.20229541
207	0xbd85f008	-0.06539923
208	0x3da10fdc	0.07864353
209	0xbd20babd	-0.039240588
210	0x3c7d86bb	0.015474017
211	0xbe742b1d	-0.23844571
212	0xbcc84f78	-0.024451956
213	0xbdcddfe2	-0.10052468
214	0x3df1e302	0.118108764
215	0xbcda8456	-0.02667443
216	0x3c7449d7	0.014910183
217	0x3e143dac	0.14476651
218	0x3e0547dd	0.13015695
219	0x3daea7c5	0.08528093
220	0xbb37092e	-0.0027929056
221	0xbdb35ed3	-0.08758321
222	0x3e324379	0.17408551
223	0x3e9784bb	0.29593453
224	0xbd581045	-0.05274989
225	0xbd43f216	-0.047838293
226	0x3e3554ba	0.17708102
227	0xbe832136	-0.25611275
228	0x3d4a94a6	0.04945817
229	0xbe0a00a6	-0.1347681
230	0x3e202e44	0.15642649
231	0xbe7e4e78	-0.24834621
232	0x3e3c2ff5	0.18377669
233	0xbe2f17e3	-0.17098956
234	0x3db07a46	0.08617072
235	0x3d8f516c	0.06997952
236	0xbdc28b3d	-0.09499214
237	0x3e6b891b	0.2300152
238	0xbbb6a098	-0.0055733435
239	0x3db75743	0.08952191
240	0x3cb34152	0.021881733
241	0xbe082b0a	-0.13297668
242	0x3e10a9fb	0.14127342
243	0x3e77c09d	0.2419457
244	0x3d8949b0	0.06703508
245	0x3d459e1a	0.04824648
246	0xbc8e3345	-0.017358432
247	0x3d470f65	0.048598666
248	0xbd89e2b5	-0.06732694
249	0x3e42b5e9	0.19014706
250	0x3d1efa13	0.038812708
251	0xbe33d3ea	-0.17561308
252	0xbc0a6150	-0.008446053
253	0xbd683702	-0.056693085
254	0x3d8519b8	0.06499046
255	0xbdaff50d	-0.085916616

functional_5_1/dense_9_1/Add/ReadVariableOp:0 f4 [64]
0	0x3cc20e33	0.023688411
1	0xbda38634	-0.079845816
2	0x3d6411a4	0.055680886
3	0x3dab6d01	0.083704
4	0x3e26a303	0.16273122
5	0xbd2c51a1	-0.042070035
6	0x3d9791a4	0.074008256
7	0x3e2a51d8	0.16632783
8	0x3d7f6eb0	0.06236142
9	0x3c69b3fc	0.014264103
10	0x3d80311c	0.06259367
11	0xbccd822a	-0.025086481
12	0x3d4544f8	0.048161477
13	0x3d4a297e	0.049355976
14	0x3d72e374	0.059298947
15	0x3dc0951b	0.094034396
16	0xbcd0179a	-0.02540188
17	0xbcbd48e9	-0.023106055
18	0xbd53b388	-0.051684886
19	0xbba4efda	-0.0050334753
20	0x3d585062	0.052811034
21	0xbcf38483	-0.029726272
22	0x3c8d0036	0.017212015
23	0xbe21af5d	-0.15789552
24	0xbc821051	-0.01587692
25	0x3d1dea9d	0.038553823
26	0xbdec43e9	-0.1153639
27	0x3daeee2e	0.08541523
28	0xbaecf851	-0.0018079375
29	0xbd1defc4	-0.038558736
30	0xbd7dde7a	-0.06197975
31	0x3d79e36f	0.061007913
32	0x3c303424	0.010754619
33	0xbdc65b02	-0.09685327
34	0x3cabb739	0.02096139
35	0x3d84c9f5	0.06483833
36	0x3d942688	0.07233912
37	0xbd98678e	-0.074416265
38	0x3de58318	0.11206645
39	0x3c06cf16	0.008228084
40	0xbdc64b77	-0.096823625
41	0xbcaca85b	-0.021076372
42	0x3e2af49c	0.16694874
43	0xbd136cc8	-0.035992414
44	0x3e1f01de	0.15528056
45	0xbc1c0a93	-0.009524005
46	0x3bb5a987	0.005543891
47	0x3c37d9f1	0.011221395
48	0x3befb2e0	0.0073150247
49	0xbde99440	-0.114052296
50	0xbd9cc6c8	-0.07655102
51	0x3d682def	0.05668443
52	0xbdb14997	-0.08656614
53	0x3dc5c4a6	0.09656648
54	0xbdc15fee	-0.09442125
55	0x3d0963a8	0.033542305
56	0x3dc6ce1b	0.0970728
57	0x3cdcec5b	0.026968172
58	0x3de7aadb	0.11311885
59	0xbe133a40	-0.1437769
60	0x3b99190a	0.0046721743
61	0x3d6c9a67	0.057764437
62	0x3d05c1c9	0.03265551
63	0x3b6b8d85	0.0035942507

functional_5_1/dense_8_1/Cast/ReadVariableOp:0 f4 [25, 128]
0	0x3cdd9200	0.027047157
1	0xb875f000	-5.863607e-05
2	0x3d0556cc	0.03255348
3	0xbe237792	-0.15963581
4	0xbdfd8e42	-0.12380649
5	0xbe2a4f2a	-0.16631761
6	0x3df24a42	0.1183057
7	0x3e093ecd	0.13402863
8	0xbe4a1427	-0.1973425
9	0x3d476d70	0.048688352
10	0xbd3ceb1c	-0.046122655
11	0xbda93643	-0.08262303
12	0x3cddc0b8	0.027069435
13	0xbd9c77f3	-0.07640066
14	0x3dbe1872	0.09282006
15	0x3e446705	0.19179924
16	0xbe230b10	-0.15922189
17	0xbe17075b	-0.147489
18	0x3d0e75a8	0.034780174
19	0xbd8d5e9c	-0.06902811
20	0x3e444f15	0.19170792
21	0xbe0089bc	-0.12552541
22	0x3e3aee75	0.18255027
23	0xbe0da441	-0.13832189
24	0x3e1b3ddd	0.15160318
25	0xbe1a242a	-0.15052858
26	0xbdc7da9b	-0.097584926
27	0x3e3a62b9	0.18201722
28	0x3c8399f8	0.016064629
29	0x3d871392	0.065955296
30	0x3dae4fb2	0.085112944
31	0x3c7c8030	0.015411422
32	0xbd0bc49c	-0.03412305
33	0xbd17ab34	-0.037028506
34	0x3bb13e20	0.005409017
35	0x3dbeb5e6	0.09312038
36	0x3de70946	0.11281066
37	0xbe4282f4	-0.18995267
38	0x3df0363a	0.11729093
39	0x3df00486	0.11719613
40	0xbd52822c	-0.051393673
41	0xbe2bfeb9	-0.16796388
42	0x3de82c06	0.11336522
43	0xbe407666	-0.18795165
44	0xbdb6f32a	-0.089330986
45	0x3ddfe302	0.1093197
46	0xbdce831f	-0.10083603
47	0xbb522000	-0.003206253
48	0xbe30890b	-0.17239778
49	0xbd0fa328	-0.035067707
50	0x3c673080	0.014110684
51	0xbdb33506	-0.08750348
52	0x3ce86270	0.028367251
53	0x3e0b0dd3	0.13579492
54	0x3c65ce70	0.014026269
55	0xbe14a9e1	-0.14517929
56	0xbe287cd8	-0.16453874
57	0x3d494248	0.049135476
58	0xbd0470b0	-0.03233403
59	0xbc1f5390	-0.009724513
60	0x3d6bcf04	0.057570472
61	0xbe4869cb	-0.19571607
62	0x3dcc838a	0.099860266
63	0x3e08f17d	0.1337337
64	0x3e2025ad	0.15639372
65	0xbd8a24a8	-0.06745273
66	0x3db0963e	0.086224064
67	0xbe14921e	-0.14508864
68	0xbcebae28	-0.028769568
69	0x3e46399b	0.19357912
70	0xbd890362	-0.06690098
71	0x3e3bdded	0.18346377
72	0x3d6a39e4	0.057184115
73	0x3d0836a0	0.03325522
74	0xbe12e5c1	-0.14345457
75	0x3e1dc7cf	0.15408252
76	0xbe03ac0a	-0.12858596
77	0x3dfe2c8e	0.12410842
78	0x3e238bb5	0.15971263
79	0xbe12640e	-0.1429598
80	0x3e248b27	0.16068707
81	0xbe3b282c	-0.18277043
82	0xbd8e199a	-0.06938477
83	0x3e14365d	0.14473863
84	0x3c96e2c0	0.01841867
85	0x3e01917f	0.12653159
86	0xbc0f6190	-0.008751288
87	0x3e3847c1	0.17996122
88	0x3e2eb423	0.17060904
89	0x3d92fae6	0.07176761
90	0xbe212f55	-0.15740712
91	0xbdb2e480	-0.08734989
92	0xba56d300	-0.00081948936
93	0xbcf4b980	-0.02987361
94	0x3e078159	0.13232936
95	0x3e33927b	0.17536347
96	0xbe07e14b	-0.13269536
97	0x3ce25870	0.02763006
98	0xbe0c7162	-0.13715127
99	0x3e3f9db7	0.18712507
100	0x3d14e230	0.03634852
101	0xbdf8d2b7	-0.12149566
102	0xbe3c5486	-0.18391618
103	0x3e3afdf1	0.18260933
104	0xbc82de88	-0.015975252
105	0xbdb3bccc	-0.087762445
106	0xbdeb1641	-0.11478854
107	0xbe090acf	-0.1338303
108	0x3e09d991	0.13461901
109	0x3cad5cc8	0.021162406
110	0x3dcd258e	0.100169286
111	0x3cf7c6b8	0.030246124
112	0xbd77791c	-0.060418233
113	0x3cd879e0	0.026425302
114	0xbe053d88	-0.13011754
115	0xbdc55255	-0.09634844
116	0x3e0aa2bd	0.13538642
117	0xbdcd78f8	-0.100328386
118	0xbe161433	-0.14656143
119	0xbd271c68	-0.040798575
120	0x3cbd0798	0.02307491
121	0x3ddbe046	0.10736136
122	0x3d4a5f4c	0.04940729
123	0xbe2f506e	-0.17120525
124	0x3d4e24a4	0.050327912
125	0x3e32ee15	0.17473634
126	0xbdb899b0	-0.090136886
127	0x3e2f030f	0.1709101
128	0x3e4c5810	0.19955468
129	0x3c7bf81b	0.015378977
130	0xbe3d09b5	-0.18460734
131	0xbe018b36	-0.12650761
132	0xbe3d52c6	-0.18488607
133	0xbe4b9a45	-0.19883068
134	0x3d9ab492	0.07553972
135	0xbad4e980	-0.0016243905
136	0x3dd57229	0.10422165
137	0xbe27d80f	-0.16391014
138	0xbd8c45c8	-0.06849247
139	0x3d20a129	0.039216194
140	0xbd8257c1	-0.06364394
141	0xbe036a51	-0.12833525
142	0xba80f280	-0.0009837896
143	0x3de709aa	0.1128114
144	0x3e0893ad	0.13337584
145	0x3e5ffd8e	0.21874067
146	0xbd650015	-0.05590828
147	0xbe1bd462	-0.15217736
148	0xbde68bd9	-0.112571426
149	0xbe83e994	-0.25764143
150	0xbe01b4b2	-0.12666586
151	0x3d510fa3	0.051040303
152	0xbe3ef65e	-0.18648669
153	0x3dc9edd2	0.09859814
154	0x3d642770	0.055701673
155	0x3df13c9f	0.11779141
156	0xbd93e498	-0.07221335
157	0x3e032751	0.12807967
158	0x3c7c515a	0.015400255
159	0x3ddad5a1	0.10685278
160	0xbe04f1f5	-0.12982924
161	0xbd5f2896	-0.054482065
162	0xbe4570bb	-0.19281285
163	0x3d4c2e59	0.049848888
164	0x3da82244	0.08209661
165	0x3e2e997c	0.17050737
166	0xbcef2cb7	-0.029196126
167	0x3d8aa4a9	0.06769688
168	0x3dbe90d5	0.09304968
169	0x3c9289a5	0.0178879
170	0xbdcce5cf	-0.1000477
171	0x3e90638e	0.28200954
172	0xbd344874	-0.04401441
173	0x3d2e3d98	0.04253921
174	0xbcfd0d4e	-0.030890133
175	0x3d5b044c	0.053470895
176	0x3e54a732	0.20766905
177	0x3e14e7d2	0.14541557
178	0xbdc23563	-0.09482839
179	0xbe42f5bf	-0.19039057
180	0xbe5bda05	-0.21469887
181	0x3d0ecc8f	0.03486305
182	0xbd91b6f0	-0.07114971
183	0x3e08fecf	0.13378452
184	0xbca74ea8	-0.020423248
185	0xbe8e0ae2	-0.27742678
186	0xbe54afbb	-0.20770161
187	0x3e37355d	0.1789145
188	0xbc0de880	-0.008661389
189	0x3d317f1c	0.04333411
190	0x3dda84b7	0.106698446
191	0x3dc3b46d	0.09555898
192	0xbe5ad45e	-0.21370074
193	0x3d317b72	0.043330617
194	0x3d7f4c38	0.062328547
195	0x3e52d557	0.20589195
196	0xbd034f90	-0.0320583
197	0x3ce83be3	0.028348869
198	0xbd81e8e7	-0.06343251
199	0xbe78da35	-0.2430199
200	0x3e07e941	0.13272573
201	0x3dc2acd6	0.09505622
202	0x3ddfd350	0.109289765
203	0xbd63fd08	-0.05566123
204	0xbd239dda	-0.03994546
205	0x3e4b8ebf	0.19878672
206	0xbe316e7d	-0.17327304
207	0x3da4d77d	0.08048914
208	0x3e58d0d1	0.21173407
209	0xbe4608aa	-0.19339243
210	0xbd0c3340	-0.034228563
211	0x3e0db663	0.13839106
212	0x3e48b0c2	0.19598678
213	0x3dc6d18e	0.09707938
214	0xbe08756b	-0.13326041
215	0x3dd745b2	0.1051134
216	0x3e5b11c5	0.21393497
217	0xbe261521	-0.16218998
218	0xbdbe6f3d	-0.09298561
219	0x3e28b74b	0.1647617
220	0xbe682dd2	-0.22673729
221	0xbe6a1b6d	-0.22862025
222	0x3db081ac	0.08618483
223	0x3dd2cd9d	0.10293124
224	0xbe4163bd	-0.18885703
225	0xbda8a522	-0.082346216
226	0xbd523f42	-0.05132986
227	0x3e1aac40	0.1510477
228	0x3de368cb	0.11103972
229	0xbe155cc7	-0.14586173
230	0x3e05c118	0.1306194
231	0x3dc84221	0.09778238
232	0xbca3e20f	-0.020005254
233	0xbdea28f7	-0.11433595
234	0xba234a96	-0.0006229071
235	0x3bcdf4f4	0.006285304
236	0x3e134fef	0.14385961
237	0x3d531a9c	0.05153905
238	0xbe86a3ff	-0.26296994
239	0x3d467e93	0.048460554
240	0x3e013195	0.1261657
241	0xbe18c7df	-0.14919995
242	0xb8946b1c	-7.0771406e-05
243	0x3c62e0fa	0.013847584
244	0x3e1a1714	0.15047866
245	0xbdd3adab	-0.10335859
246	0xbd9061db	-0.070499144
247	0xbddf2923	-0.10896518
248	0xbdc508b4	-0.096208006
249	0x3d7ceb8b	0.06174807
250	0x3e859718	0.26091838
251	0xbe0f21da	-0.13977757
252	0x3e5905c0	0.211936
253	0xbd8a8e1e	-0.06765388
254	0x3e0ccdc0	0.13750362
255	0xbe40a9bc	-0.18814749

functional_5_1/dense_8_1/Add/ReadVariableOp:0 f4 [128]
0	0x3dbc14ff	0.09183692
1	0xbd75e531	-0.060033027
2	0xbdb0a219	-0.08624668
3	0x00000000	0.0
4	0xbd75e594	-0.060033396
5	0xbd44f881	-0.048088554
6	0xbd75e591	-0.060033385
7	0x00000000	0.0
8	0x3d92d987	0.07170396
9	0x00000000	0.0
10	0xbcb0bf95	-0.021575728
11	0x3d86434f	0.06555807
12	0xbde4ed23	-0.11178043
13	0x3c59dbff	0.01329708
14	0x00000000	0.0
15	0x3cc5a75b	0.024127653
16	0x3b3129a2	0.0027032872
17	0xbd1acc96	-0.037792765
18	0x3dbbb8d0	0.091661096
19	0x3e14bb3f	0.14524554
20	0x00000000	0.0
21	0x3d8e6253	0.069523476
22	0x00000000	0.0
23	0x3d91b1b5	0.07113973
24	0x00000000	0.0
25	0x3d78ac45	0.060711164
26	0x3d824197	0.063601665
27	0xbd1e911a	-0.0387126
28	0x3d150270	0.036379278
29	0x3d56ecf6	0.052472077
30	0x3cb59628	0.022166327
31	0x3c3b4474	0.011429895
32	0x3d3b254f	0.045689877
33	0x3cfc119f	0.030770121
34	0x00000000	0.0
35	0xbd61b922	-0.055108197
36	0xbd160f7c	-0.03663586
37	0xbd1deeee	-0.03855794
38	0xbe14fedc	-0.14550346
39	0xbdb3955f	-0.08768725
40	0x3db003e6	0.085944936
41	0x3d44db1b	0.048060518
42	0xbd75e551	-0.060033146
43	0x3d2d4716	0.04230412
44	0x3d9691fe	0.073520645
45	0x00000000	0.0
46	0x3e27c549	0.16383852
47	0xbdc9c592	-0.09852137
48	0xbc9a5c6e	-0.018842902
49	0xbce062e7	-0.02739091
50	0x3dc6388e	0.09678756
51	0xbd82a06f	-0.063782565
52	0x3d664f3d	0.05622791
53	0xbd75e52f	-0.06003302
54	0x3d42bcd6	0.04754337
55	0x3d5762f3	0.0525846
56	0xbd8174fc	-0.06321141
57	0xbba7f186	-0.0051252274
58	0x3c37411e	0.011184959
59	0xbdceed9e	-0.10103916
60	0x00000000	0.0
61	0xbd75e4b1	-0.06003255
62	0x3b15b8b7	0.0022845694
63	0xbd3c2c26	-0.04594054
64	0x3d7f7299	0.06236515
65	0x3cc65506	0.024210464
66	0x3d811782	0.06303312
67	0x3cc0bd64	0.023527808
68	0x00000000	0.0
69	0xbda4a157	-0.08038586
70	0x3d54ed6f	0.051984247
71	0x3d02946f	0.03187984
72	0x3dbd79bb	0.09251734
73	0xbd8c6799	-0.06855697
74	0x3daec48c	0.08533582
75	0x00000000	0.0
76	0xbc4f020b	-0.012634764
77	0xbc6c1c3a	-0.014411027
78	0xbcf33f31	-0.029693218
79	0x3da8db11	0.082449086
80	0x3d1943ae	0.03741806
81	0xbd3d223d	-0.04617523
82	0xbdd8dce7	-0.10589009
83	0x00000000	0.0
84	0x3dc64b57	0.09682339
85	0xbd60251b	-0.054722887
86	0x3dd7af41	0.10531474
87	0xbd7a6cfd	-0.061139096
88	0xbd74fc82	-0.059811123
89	0xbda0dc4e	-0.0785452
90	0x3d5615af	0.052266773
91	0x3cc5212f	0.024063675
92	0xbdb651ae	-0.08902298
93	0x3d4c119c	0.04982148
94	0x3e41b63c	0.18917173
95	0xbd60fc6b	-0.054928225
96	0xbdb05b0f	-0.08611118
97	0x3bbb7299	0.005720448
98	0xbda6fcad	-0.08153663
99	0xbd9c49b8	-0.07631248
100	0x3db7df65	0.08978156
101	0xbda7f523	-0.08201053
102	0xbd750fe2	-0.0598296
103	0xbd594382	-0.053042896
104	0x3d310390	0.043216288
105	0xbd475801	-0.04866791
106	0x3d13e00a	0.036102332
107	0x3db27c42	0.087151065
108	0xbc4b92d3	-0.012425142
109	0x3dbedcd1	0.09319461
110	0xbd172188	-0.036897212
111	0xbdc6845a	-0.09693213
112	0xbcc29fcd	-0.02375784
113	0xbd9b7ecc	-0.07592544
114	0xbda2096a	-0.07911952
115	0x3dbd49a1	0.09242559
116	0x3bc3c7d9	0.0059747514
117	0xbbdb4ee9	-0.0066927564
118	0x3c679e8e	0.0141369235
119	0x00000000	0.0
120	0xbd75e54f	-0.06003314
121	0x3daa510c	0.0831624
122	0x3d97d5f7	0.074138574
123	0x3d9079b8	0.07054466
124	0x3dd7237a	0.105048135
125	0x3d993f23	0.074827455
126	0x3c7fe164	0.015617702
127	0xbbde7eb8	-0.0067900084

functional_5_1/dense_11_1/Cast/ReadVariableOp:0 f4 [32, 1]
0	0xbe0ca469	-0.13734592
1	0xbe0ba708	-0.13637936
2	0xbe382308	-0.17982113
3	0x3cdda34b	0.027055403
4	0x3d93afd1	0.07211269
5	0x3de39c3d	0.111137845
6	0x3b72ef46	0.0037068888
7	0xbe1186bd	-0.14211555
8	0x3d3d3c88	0.046200305
9	0x3c898edd	0.016791755
10	0xbccba5f8	-0.024859414
11	0x3d76ebf3	0.060283612
12	0x3d41a449	0.047275815
13	0x3d1a4cb4	0.037670806
14	0x3d54ed0f	0.05198389
15	0x3e4557fc	0.19271845
16	0x3ccae5d9	0.024767803
17	0xbe388394	-0.18018943
18	0xbd6368ab	-0.05551974
19	0xbe0923a4	-0.13392502
20	0x3dec00d7	0.11523598
21	0x3d047bd2	0.032344647
22	0x3dcbd19c	0.09952089
23	0xbe0b64cf	-0.13612674
24	0x3cb46334	0.02201996
25	0xbd9b7c58	-0.07592076
26	0xbd2d4053	-0.042297672
27	0x3e27171d	0.16317411
28	0xbcf2272b	-0.029559692
29	0xbd7a6260	-0.061128974
30	0xbaf1b0d3	-0.0018439539
31	0x3c989f9a	0.018630791

functional_5_1/dense_10_1/Cast/ReadVariableOp:0 f4 [64, 32]
0	0xbccaee14	-0.024771728
1	0xbdd36e9a	-0.1032383
2	0x3e70df49	0.23522677
3	0xbe763173	-0.24042301
4	0xbe00c028	-0.12573302
5	0xbdd5438b	-0.104132734
6	0xbeb59ba0	-0.35470295
7	0x3e40d376	0.18830666
8	0x3d7c484a	0.061592378
9	0xbc51f60a	-0.012815008
10	0x3db57d14	0.088617474
11	0xbe2e6222	-0.17029622
12	0x3cb3bafa	0.021939743
13	0x3dc0e8e8	0.09419423
14	0xbe8bc31e	-0.272973
15	0xbc20216c	-0.009773593
16	0xbe2a4e4f	-0.16631435
17	0xbe246a49	-0.1605617
18	0xbea4ae44	-0.32164204
19	0xbc99e98d	-0.018788124
20	0xbe1a2d85	-0.15056427
21	0xbbd55e76	-0.0065115048
22	0x3d942a59	0.0723464
23	0xbd015930	-0.031579196
24	0xbe91d05b	-0.28479275
25	0x3dea89f7	0.11452096
26	0xbe871406	-0.26382464
27	0x3db86ffb	0.090057336
28	0x3d64126a	0.055681624
29	0x3de505a4	0.111827165
30	0xbcf6c2a4	-0.030122109
31	0x3c0cd738	0.008596234
32	0xbea833e2	-0.32852083
33	0xbe202457	-0.15638863
34	0xbe0157d4	-0.1263116
35	0xbd853dff	-0.065059654
36	0xbe1bbb27	-0.15208112
37	0xbea5df91	-0.3239713
38	0xbe63a6b9	-0.22231568
39	0xbdb2aa98	-0.087239444
40	0xbe9819ec	-0.29707277
41	0xbe9609b5	-0.2930428
42	0x3d237793	0.039908957
43	0xbe178c47	-0.14799605
44	0xbde34d27	-0.110987
45	0x3e9bff40	0.30468178
46	0xbc9cbe3c	-0.01913368
47	0x3c2ccdae	0.010547085
48	0xbd08b94b	-0.033379834
49	0xbe6e678e	-0.2328169
50	0x3d3ac664	0.045599356
51	0xbcad2d10	-0.021139652
52	0x3e397bd1	0.18113638
53	0x3e926aa8	0.28596997
54	0x3d074466	0.033024214
55	0xbd1363b8	-0.03598377
56	0x3da92596	0.08259122
57	0xbd832fc2	-0.064055935
58	0x3e479ac8	0.19492638
59	0xbe4d81cd	-0.20069046
60	0x3e4ce5f8	0.20009601
61	0x3e0898b4	0.13339502
62	0x3d19b7ef	0.03752893
63	0xbeb5262a	-0.3538068
64	0x3e8053cb	0.2506393
65	0x3c90ad73	0.017660832
66	0xbde15f29	-0.110044785
67	0x3d451530	0.04811591
68	0xbe23708c	-0.15960902
69	0xbcb7cf07	-0.022437586
70	0x3de6a8bd	0.11262653
71	0xbc0555ea	-0.008138159
72	0x3c508a65	0.012728308
73	0x3e19c5a7	0.15016805
74	0x3e38aa24	0.18033653
75	0xbe2c3f02	-0.1682091
76	0x3eae1b4a	0.34005195
77	0x3d2209f7	0.039560284
78	0xbbee809e	-0.007278516
79	0x3da1b1a5	0.07895211
80	0xbdaa4cf9	-0.083154626
81	0x3db89c01	0.090141304
82	0xbe3bfe70	-0.18358779
83	0x3e3f1fa0	0.18664408
84	0xbcd57010	-0.026054412
85	0x3d36e66f	0.044653352
86	0xbe6c4de1	-0.23076583
87	0xbdcbe4e2	-0.09955765
88	0x3d0da8b3	0.034584712
89	0x3c464c16	0.012103101
90	0xbe910646	-0.283251
91	0x3e5c252b	0.21498553
92	0xbde56dd1	-0.112025864
93	0xbeadb395	-0.33926073
94	0xbd7ecd52	-0.062207527
95	0x3e43e228	0.1912924
96	0x3c39a1a5	0.011330043
97	0xbd9c02e1	-0.076177366
98	0xbe02e9eb	-0.12784545
99	0x3e29cebc	0.16582769
100	0xbe9f405e	-0.31103796
101	0x3e221b16	0.15830645
102	0xbeaad400	-0.33364868
103	0xbcd56b18	-0.026052043
104	0xbe6730d0	-0.22577214
105	0xbe048d8c	-0.12944621
106	0xbd893be6	-0.06700878
107	0x3c38ad4f	0.011271789
108	0xbdc938db	-0.098252974
109	0x3ddb0644	0.106945544
110	0x3e13e63e	0.14443299
111	0xbca6b6de	-0.02035087
112	0xbd7fe634	-0.0624754
113	0xbe0911b4	-0.1338566
114	0x3eacbf1e	0.3373956
115	0x3e3a7ac9	0.18210901
116	0x3deb3099	0.11483879
117	0x3e5dd0c7	0.21661673
118	0x3e49e808	0.19717419
119	0x3e3e47f9	0.18582143
120	0xbdadff24	-0.0849593
121	0x3e2e7de6	0.17040214
122	0x3ca4fcba	0.02014004
123	0x3e113557	0.14180504
124	0x3dcd2bb5	0.10018102
125	0x3d043de5	0.03228559
126	0x3dbb28c4	0.09138635
127	0x3e3f6d10	0.18693948
128	0xbd5f3418	-0.05449304
129	0xbd869424	-0.06571224
130	0x3e8faeeb	0.2806314
131	0xbd6116f2	-0.054953523
132	0xbe20797d	-0.15671344
133	0xbcb3517f	-0.021889446
134	0xbdfd7705	-0.12376217
135	0xbe08393b	-0.13303082
136	0xbe277f26	-0.16357097
137	0x3d3f79c7	0.046746995
138	0x3c1717ea	0.00922201
139	0xbe1d899e	-0.15384528
140	0x3e1e6ae2	0.1547046
141	0xbe083a90	-0.1330359
142	0xbda3d865	-0.08000258
143	0x3e06aa74	0.1315096
144	0x3e555a37	0.20835195
145	0x3e8de4bc	0.27713573
146	0x3e84d92c	0.2594694
147	0x3ddb1c54	0.106987625
148	0x3e506100	0.20349503
149	0x3da75310	0.0817014
150	0xbb9ffbf9	-0.0048823324
151	0x3db183be	0.08667706
152	0x3c91fbd3	0.017820274
153	0xbe173f0a	-0.14770141
154	0xbd70ebbd	-0.058818568
155	0x3e81e7d0	0.2537217
156	0x3e84934e	0.25893635
157	0x3df8d05f	0.12149119
158	0xbeb658c9	-0.35614613
159	0x3e221b7e	0.158308
160	0xbe85b62f	-0.26115558
161	0x3e318201	0.17334749
162	0x3df0c250	0.11755812
163	0x3e6ee030	0.23327708
164	0x3e4a05a1	0.1972871
165	0xbdd3a8d2	-0.10334934
166	0xbdba6b53	-0.09102502
167	0x3e6c4f3c	0.230771
168	0xbdf9987c	-0.12187287
169	0x3ab6a0ca	0.0013933417
170	0xbdd849a6	-0.10560922
171	0xbcf99ccd	-0.030470276
172	0x3eb97628	0.3622296
173	0xbdb3ad48	-0.08773285
174	0xbcf31461	-0.029672803
175	0xbdec0b39	-0.11525578
176	0xbe363412	-0.17793301
177	0xbe528f75	-0.20562537
178	0x3e16ee09	0.1473924
179	0x3e2ec7a3	0.17068343
180	0x3ea682e1	0.32521728
181	0xbe10f1e7	-0.14154778
182	0x3d98999e	0.07451175
183	0x3ca304db	0.019899776
184	0xbda09cd5	-0.07842413
185	0xbcd690ef	-0.026192157
186	0xbe126f62	-0.14300302
187	0xbd1902ee	-0.03735631
188	0x3e207dac	0.1567294
189	0xbe2367c5	-0.15957554
190	0x3b2669da	0.0025392682
191	0x3dc99278	0.0984239
192	0xbe399969	-0.18124928
193	0x3dc8b4c6	0.09800105
194	0x3e26f05a	0.16302624
195	0x3e2e7335	0.17036135
196	0xbdb1a419	-0.08673877
197	0xbe0bcca6	-0.13652286
198	0x3e324435	0.17408831
199	0x3e161fb2	0.14660528
200	0xbc753614	-0.0149665065
201	0x3d89fc71	0.067376025
202	0xbd404209	-0.046937976
203	0x3dd9ca50	0.10634291
204	0x3e70a66f	0.2350099
205	0xbe60259f	-0.21889351
206	0xbdde2ec8	-0.108487666
207	0xbe62f639	-0.22164239
208	0xbdc1b004	-0.094574004
209	0x3988eb28	0.00026115146
210	0x3cdd7941	0.027035357
211	0x3d682d0e	0.056683592
212	0x3e0a4d22	0.13505986
213	0xbc2e3b35	-0.010634233
214	0x3dc0b4bb	0.094094716
215	0xbbe86e57	-0.0070932317
216	0xbd83cf70	-0.0643605
217	0x3dd52c3f	0.1040883
218	0xbc5f5434	-0.013630915
219	0x3eab3727	0.33440515
220	0x3e35f69c	0.17769855
221	0xbe76d887	-0.24106036
222	0x3e240723	0.16018347
223	0x3d197c44	0.037472025
224	0xbe61fae5	-0.22068365
225	0xbe1f8e25	-0.15581568
226	0xbd87b38a	-0.06626041
227	0xbe4292a5	-0.19001253
228	0x3db9675b	0.090529166
229	0xbcb58526	-0.022158217
230	0x3d353532	0.044240184
231	0x3e309b5a	0.17246762
232	0x3e3173d8	0.17329347
233	0xbe1a0336	-0.15040287
234	0xbd95d6c2	-0.073163524
235	0xbd8104ec	-0.06299767
236	0xbd7e153c	-0.06203197
237	0xbe1ab9f2	-0.15109995
238	0xbda15df4	-0.07879248
239	0x3de5b070	0.112152934
240	0xbe51f664	-0.20504147
241	0x3d5450ff	0.051835056
242	0xbe7d2053	-0.24719362
243	0xbcb4e142	-0.022080068
244	0x3e66960a	0.22518173
245	0xbdd7b176	-0.10531895
246	0xbe8501a0	-0.25977802
247	0xbbe24651	-0.006905355
248	0xbe827261	-0.2547789
249	0xbe34d224	-0.17658287
250	0xbd877654	-0.06614366
251	0xbeaf7040	-0.34265327
252	0x3decd2f9	0.11563677
253	0x3e23a59c	0.15981144
254	0x3e8c3206	0.27381915
255	0x3db49eba	0.08819337

functional_5_1/dense_10_1/Add/ReadVariableOp:0 f4 [32]
0	0xbcd8b1c4	-0.026451953
1	0xbdc2423d	-0.0948529
2	0x3c92803b	0.01788341
3	0xba6a01aa	-0.00089266396
4	0x3dbee542	0.09321071
5	0x3c97fe2c	0.018553816
6	0x3d55d449	0.052204404
7	0xbe0f3019	-0.13983192
8	0x3dc97e44	0.098385364
9	0x3dd8bc26	0.105827615
10	0xbdaeb42a	-0.08530457
11	0x3dc43989	0.095812865
12	0xbd2e58dd	-0.042565215
13	0xbd9c928a	-0.076451376
14	0x3c297027	0.010341681
15	0xbe0c8b30	-0.13724971
16	0x3d8b1cee	0.06792627
17	0x3ddec0b1	0.10876597
18	0xbc049310	-0.008091703
19	0xbcc8d71a	-0.02451663
20	0xbd94511b	-0.07242032
21	0xbdb73a07	-0.08946615
22	0xbd7c694c	-0.061623856
23	0x3e0c517c	0.13702959
24	0xbd79ca3c	-0.06098388
25	0xbd865c55	-0.0656058
26	0xbdc96e4b	-0.0983549
27	0xba2a9e20	-0.0006508548
28	0xbd8c278f	-0.06843483
29	0xbd581de9	-0.0527629
30	0x3c8393e5	0.016061733
31	0xbe064f8e	-0.13116285

functional_5_1/batch_normalization_8_1/batchnorm/sub:0 f4 [32]
0	0xbeadac0b	-0.3392032
1	0xbeea7549	-0.45792606
2	0xbedf693c	-0.43634975
3	0xbe1aba25	-0.15110071
4	0xbe609576	-0.21932015
5	0xbe6e4423	-0.2326818
6	0xbe496ec2	-0.19671157
7	0xbeccca0d	-0.39997903
8	0xbe810058	-0.25195575
9	0xbe7680dc	-0.24072593
10	0xbebe56ea	-0.37175685
11	0xbee997fe	-0.45623773
12	0xbe3689dc	-0.17826027
13	0xbe54923a	-0.20758906
14	0xbe458c21	-0.19291736
15	0xbdd5694a	-0.10420473
16	0xbed4cc65	-0.4156219
17	0xbf010556	-0.50398767
18	0xbeb77d57	-0.35837814
19	0xbed348d8	-0.41266513
20	0xbe2771fa	-0.16352072
21	0xbde2bc2e	-0.11071049
22	0xbe7a88df	-0.24466275
23	0xbf08fb3b	-0.5350835
24	0xbe3dafc7	-0.18524085
25	0xbe408c44	-0.18803507
26	0xbebaf7af	-0.36517093
27	0xbe78a67c	-0.24282259
28	0xbecf33bc	-0.40469158
29	0xbecded5f	-0.40220162
30	0xbeab78f0	-0.33490705
31	0xbe832147	-0.25611326

functional_5_1/batch_normalization_8_1/batchnorm/mul:0 f4 [32]
0	0x3f485520	0.7825489
1	0x3f4927ec	0.7857654
2	0x3f1d28f7	0.6139063
3	0x3f67cda7	0.90548176
4	0x3f82a78f	1.0207385
5	0x3f550ce9	0.83222824
6	0x3f6f4e5d	0.9347895
7	0x3f1bdf24	0.6088736
8	0x3f3fdf75	0.74950343
9	0x3f6082c9	0.8769956
10	0x3f67b115	0.9050458
11	0x3f50ca6b	0.81558865
12	0x3f46a9ca	0.7760283
13	0x3f6af2b5	0.9177659
14	0x3f562396	0.8364805
15	0x3f663366	0.8992218
16	0x3f7a5326	0.97783124
17	0x3f3717ad	0.715205
18	0x3f57f0ac	0.8435161
19	0x3f5634f0	0.83674526
20	0x3f502bc8	0.81316805
21	0x3f864c64	1.0492063
22	0x3f3e03bd	0.74224454
23	0x3f37e3a5	0.71831733
24	0x3f6c92ec	0.92411685
25	0x3f7ec119	0.99513394
26	0x3f7c1fac	0.9848583
27	0x3f39a696	0.72519815
28	0x3f7d142a	0.9885889
29	0x3f7674ec	0.9627216
30	0x3f426bb4	0.7594559
31	0x3f7957b2	0.9739944

functional_5_1/batch_normalization_7_1/batchnorm/sub:0 f4 [64]
0	0xbed11418	-0.40835643
1	0xbf0bc596	-0.5459837
2	0xbeb13166	-0.34608
3	0xbedda0c2	-0.4328671
4	0xbef78396	-0.4834258
5	0xbed0d9e3	-0.40791234
6	0xbeec8c12	-0.46200615
7	0xbedc3cae	-0.43015045
8	0xbf045255	-0.5168813
9	0xbe912b24	-0.28353226
10	0xbe9f72e2	-0.31142336
11	0xbe505466	-0.20344695
12	0xbefeac04	-0.49740613
13	0xbf0d9fa5	-0.55321723
14	0xbf031c5d	-0.51215154
15	0xbf0bf418	-0.5466933
16	0xbede16d2	-0.43376786
17	0xbebef460	-0.37295818
18	0xbecc9838	-0.39959884
19	0xbe6ec6e1	-0.23318054
20	0xbee23dec	-0.44187868
21	0xbeb75826	-0.3580944
22	0xbed3775d	-0.41302004
23	0xbe02a89a	-0.12759629
24	0xbefabf42	-0.48974043
25	0xbf141535	-0.5784486
26	0xbebaaf54	-0.3646189
27	0xbeb0d43f	-0.3453693
28	0xbef90e7c	-0.48643863
29	0xbeab1cd6	-0.33420438
30	0xbe4d45c4	-0.20046145
31	0xbeecdd7d	-0.46262732
32	0xbef17264	-0.47157586
33	0xbe67ee84	-0.2264958
34	0xbe955b98	-0.29171443
35	0xbe6bf6d7	-0.2304338
36	0xbf018985	-0.50600463
37	0xbeeffba3	-0.4687167
38	0xbe978431	-0.29593042
39	0xbe70e328	-0.23524153
40	0xbee23eb6	-0.4418847
41	0xbebcb5c4	-0.36857426
42	0xbee77b1a	-0.45211107
43	0xbe8cd8fe	-0.27509302
44	0xbf08503a	-0.53247416
45	0xbe6ea3bd	-0.23304649
46	0xbea85a8a	-0.32881576
47	0xbe8f3b9a	-0.2797516
48	0xbea217f8	-0.31658912
49	0xbe2ebc74	-0.17064077
50	0xbe9bb1d2	-0.30409104
51	0xbeb105bc	-0.34574687
52	0xbe0fc172	-0.14038637
53	0xbebbba6a	-0.3666566
54	0xbea27421	-0.31729224
55	0xbece5340	-0.4029789
56	0xbf0209a1	-0.5079594
57	0xbee55f85	-0.44799438
58	0xbeba002c	-0.36328256
59	0xbe8779da	-0.26460153
60	0xbf14c058	-0.58105993
61	0xbeb7cbd2	-0.3589769
62	0xbf15f83d	-0.58581907
63	0xbecb285d	-0.39679232

functional_5_1/batch_normalization_7_1/batchnorm/mul:0 f4 [64]
0	0x3f4d067f	0.8008804
1	0x3f91e1a8	1.139699
2	0x3f88de62	1.0692866
3	0x3f7a05dd	0.97665197
4	0x3f4954a3	0.7864477
5	0x3f810c18	1.0081816
6	0x3f86374f	1.0485629
7	0x3f434d57	0.76289886
8	0x3f76c6af	0.9639692
9	0x3f940e30	1.156683
10	0x3f69f5ff	0.91390985
11	0x3f8500ef	1.039091
12	0x3f67c1b9	0.9052997
13	0x3f845dd5	1.0341135
14	0x3f7ab83f	0.9793739
15	0x3f52ccbe	0.8234366
16	0x3f7531a5	0.95778877
17	0x3f6ec69b	0.932718
18	0x3f651f7a	0.89501154
19	0x3f826162	1.0185969
20	0x3f65242b	0.8950831
21	0x3fa6205d	1.2978626
22	0x3f8914f9	1.0709525
23	0x3f9a6ecc	1.2065063
24	0x3f6d0450	0.92584705
25	0x3f664368	0.89946604
26	0x3f843086	1.0327308
27	0x3f8b5832	1.088629
28	0x3f9b1e56	1.2118633
29	0x3f86d22a	1.0532887
30	0x3f96fdee	1.1796243
31	0x3f5af021	0.8552266
32	0x3f811a2e	1.0086114
33	0x3f94483e	1.1584547
34	0x3f829212	1.0200827
35	0x3f786fbd	0.970455
36	0x3f5244d4	0.82136273
37	0x3f81bda4	1.0135999
38	0x3f5a339f	0.8523502
39	0x3f6e2fe2	0.93041813
40	0x3f88ff69	1.0702945
41	0x3f4ee9ce	0.8082551
42	0x3f669ac5	0.9007991
43	0x3f6f0326	0.9336418
44	0x3f869242	1.0513384
45	0x3f75017c	0.9570539
46	0x3f6aaffa	0.9167477
47	0x3f881a05	1.063294
48	0x3f8fefa4	1.1245008
49	0x3f7254b7	0.94660515
50	0x3f673624	0.9031699
51	0x3f702f0e	0.938218
52	0x3f966e99	1.1752502
53	0x3f4dd580	0.804039
54	0x3fa41820	1.2819862
55	0x3f478187	0.7793202
56	0x3f68542a	0.90753424
57	0x3f8dab67	1.1067933
58	0x3f6daf8c	0.9284599
59	0x3f943517	1.1578702
60	0x3f815da4	1.0106702
61	0x3f712354	0.9419453
62	0x3f72f467	0.9490418
63	0x3f6b2df7	0.9186701

functional_5_1/batch_normalization_6_1/batchnorm/sub:0 f4 [128]
0	0xbf072b2b	-0.52800244
1	0xbdb12cac	-0.086510986
2	0xbe1802df	-0.14844845
3	0x3d451cb8	0.04812309
4	0x3d294c39	0.041332457
5	0x3b8cd0e9	0.004297365
6	0x3cdc6418	0.026903197
7	0xbd3dd642	-0.04634691
8	0xbe285e48	-0.16442215
9	0x3dc8db2d	0.098074295
10	0x3c831b49	0.016004222
11	0xbe80b4e0	-0.25137997
12	0x3b035c95	0.0020044197
13	0xbdc8960e	-0.09794246
14	0xbc67421c	-0.014114883
15	0xbe806502	-0.25077063
16	0xbe134528	-0.1438185
17	0xbde0272e	-0.10944973
18	0xbea85eca	-0.32884818
19	0xbe9296a3	-0.28630552
20	0xbc31c4c3	-0.010850134
21	0xbe430f48	-0.19048798
22	0xbd06b9d2	-0.032892056
23	0xbeb30c43	-0.34970292
24	0xbd18f2e1	-0.037341002
25	0xbe4d7bc4	-0.20066744
26	0xbe287f61	-0.16454841
27	0x3dd94652	0.10609116
28	0xbc33ddfc	-0.010978218
29	0xbe39679b	-0.18105929
30	0xbdb97d88	-0.09057146
31	0xbe3096a0	-0.17244959
32	0xbe136c4b	-0.14396779
33	0xbe900d18	-0.2813499
34	0xbdf96d3f	-0.1217904
35	0xbecf1c14	-0.4045111
36	0x3d2cde57	0.042204227
37	0xbec62046	-0.38696498
38	0xbd299c86	-0.041409038
39	0x3db9dfe1	0.09075905
40	0xbeaea580	-0.3411064
41	0xbcb45e42	-0.022017602
42	0xbd6588c4	-0.056038633
43	0xbee2ec9e	-0.4432115
44	0xbdffd8fa	-0.12492557
45	0x3d108ab4	0.035288528
46	0xbea6a3a0	-0.3254671
47	0x3d116794	0.03549917
48	0xbe0e60a1	-0.13904049
49	0xbd0ff771	-0.035148088
50	0xbdec4d68	-0.115382016
51	0xbd9879e1	-0.074451216
52	0xbe4d8a51	-0.20072295
53	0x3dae5c7b	0.08513733
54	0xbe430a38	-0.19046867
55	0xbe80e3ce	-0.251738
56	0xbcbd650d	-0.023119474
57	0xbef0b011	-0.47009328
58	0xbe119776	-0.14217934
59	0xbc904f9c	-0.017616086
60	0x3d966445	0.07343344
61	0xbd32970e	-0.04360109
62	0xbd628bb2	-0.055309005
63	0xbd63fc50	-0.055660546
64	0xbe0984f8	-0.1342963
65	0xbd5e0e14	-0.054212645
66	0xbe006bf0	-0.12541175
67	0xbe442890	-0.19156098
68	0x3da7c189	0.08191211
69	0xbd9fbe0e	-0.07799922
70	0xbeb4c7fc	-0.35308826
71	0xbdeb493f	-0.1148858
72	0xbec17d9f	-0.37791154
73	0x3dbdb0ce	0.092622384
74	0xbf0382e4	-0.513716
75	0xbbf871b4	-0.007581914
76	0xbe0c5b93	-0.13706808
77	0x3c83a829	0.016071396
78	0xbdad1155	-0.084505714
79	0xbe988bca	-0.2979415
80	0xbe7d256d	-0.24721308
81	0xbd0254f2	-0.03181929
82	0xbdb8f23c	-0.090305775
83	0xbd21067a	-0.039312817
84	0xbe2f5978	-0.17123973
85	0xbd76a82c	-0.060218975
86	0xbea43f0c	-0.3207935
87	0xbce9c4de	-0.028536256
88	0xbeb1cc97	-0.34726402
89	0xbd2068ba	-0.039162375
90	0xbe81d54e	-0.2535805
91	0xbec7d34a	-0.39028388
92	0x3ce4dbf9	0.027936922
93	0xbdbd7f7a	-0.0925283
94	0xbe703bac	-0.23460263
95	0xbb2fc6e4	-0.002682143
96	0x3e42d456	0.19026312
97	0xbdeb7c7a	-0.114983514
98	0xbcc706dc	-0.024295263
99	0xbe333cd4	-0.17503673
100	0xbda32e2a	-0.079677895
101	0xbd7247a4	-0.059150353
102	0xbe131e20	-0.1436696
103	0xbe4ac39c	-0.19801182
104	0xbe7699fe	-0.24082181
105	0x3dbc8fae	0.09207092
106	0xbea61ce0	-0.32443905
107	0xbe8b8559	-0.27250174
108	0xbe37f49a	-0.17964402
109	0xbec08a52	-0.3760553
110	0xbe2cc75a	-0.16872922
111	0xbdacee9e	-0.0844395
112	0xbda7d3bd	-0.08194683
113	0x3de9063d	0.11378143
114	0xbdd3c587	-0.1034041
115	0xbea1d855	-0.3161036
116	0xbe99fe02	-0.30076605
117	0xbcb37504	-0.021906383
118	0xbe989f2a	-0.29808933
119	0x3ceab7fa	0.02865218
120	0xbd5f14be	-0.05446314
121	0xbe7cb61a	-0.24678841
122	0xbe5eacb9	-0.21745576
123	0xbe8b4fef	-0.27209422
124	0xbec2b866	-0.3803131
125	0xbebe3727	-0.37151453
126	0xbe85122b	-0.25990424
127	0x3c97cfec	0.018531762

functional_5_1/batch_normalization_6_1/batchnorm/mul:0 f4 [128]
0	0x3fc87bef	1.5662822
1	0x3fb3ab1a	1.4036591
2	0x3fb6c801	1.4279786
3	0x3fbf1ffb	1.4931635
4	0x3fb3a6ae	1.4035242
5	0x3fb368f7	1.4016408
6	0x3fb3a6d3	1.4035286
7	0x3fbf1ffb	1.4931635
8	0x3fc19df5	1.512633
9	0x3fbf1ffb	1.4931635
10	0x3fad86a5	1.3556715
11	0x3fc7ffa2	1.5624888
12	0x3fafde6c	1.3739753
13	0x3fabe0a3	1.3427929
14	0x3fbf1ffb	1.4931635
15	0x3fc97466	1.5738647
16	0x3fc7a696	1.5597713
17	0x3fb61c19	1.4227325
18	0x3fd23d83	1.6425022
19	0x3fbc2d04	1.4701238
20	0x3fbf1ffb	1.4931635
21	0x3fdada9b	1.7097963
22	0x3fbf1ffb	1.4931635
23	0x3fba9563	1.4576839
24	0x3fbf1ffb	1.4931635
25	0x3fb57c60	1.4178581
26	0x3fb15c42	1.385628
27	0x3fa9b84e	1.325937
28	0x3fbe21c8	1.4854059
29	0x3fb469b6	1.409476
30	0x3f9f6e18	1.2455473
31	0x3fb3e10e	1.4053056
32	0x3fbc75e8	1.4723482
33	0x3fcb179c	1.586658
34	0x3fbf1ffb	1.4931635
35	0x3fc707c8	1.554925
36	0x3fcc83d3	1.597773
37	0x3fb0f823	1.3825725
38	0x3fc03ba5	1.5018202
39	0x3facc263	1.3496822
40	0x3fcf205c	1.618175
41	0x3fbd2ce3	1.4779323
42	0x3fb3a938	1.4036016
43	0x3fcfdb3d	1.6238781
44	0x3fb4c02b	1.4121145
45	0x3fbf1ffb	1.4931635
46	0x3fb7450e	1.4317949
47	0x3fb4aa2a	1.411443
48	0x3fbca9cd	1.4739319
49	0x3fbc0af1	1.4690839
50	0x3fd387d0	1.6525822
51	0x3fb14554	1.3849282
52	0x3fbc1d7a	1.4696496
53	0x3fb3a78a	1.4035504
54	0x3fca907b	1.5825342
55	0x3fd74202	1.6817019
56	0x3fa8ba9a	1.3181946
57	0x3fe3955c	1.7779956
58	0x3fc47c15	1.5350367
59	0x3fc0e559	1.5069991
60	0x3fbf1ffb	1.4931635
61	0x3fb3aad9	1.4036514
62	0x3fb389ba	1.4026406
63	0x3fafdff5	1.3740221
64	0x3fc549a2	1.5413096
65	0x3fb4bd59	1.4120284
66	0x3fda17fd	1.7038571
67	0x3fca2327	1.5791978
68	0x3fbf1ffb	1.4931635
69	0x3fb7d26a	1.4361088
70	0x3fba830f	1.4571246
71	0x3fba389f	1.4548529
72	0x3fc5f291	1.546465
73	0x3fbbffb0	1.4687405
74	0x3fb737a0	1.431385
75	0x3fbf1ffb	1.4931635
76	0x3fccb4ec	1.5992713
77	0x3fc3eb98	1.5306273
78	0x3fc3be46	1.5292442
79	0x3fb1dfc3	1.3896412
80	0x3faff52b	1.3746694
81	0x3fb009f1	1.3753034
82	0x3fc2b186	1.5210426
83	0x3fbf1ffb	1.4931635
84	0x3fb2b214	1.3960595
85	0x3fc2d86e	1.5222299
86	0x3fbc66fc	1.4718928
87	0x3fbd208a	1.4775555
88	0x3fc4bd85	1.5370337
89	0x3fb5fea3	1.4218334
90	0x3fa4ffbe	1.2890546
91	0x3fcabe55	1.5839335
92	0x3fb5452a	1.4161732
93	0x3fc14f3a	1.5102303
94	0x3fdca1d5	1.7236887
95	0x3fb36044	1.4013753
96	0x3faf5788	1.3698587
97	0x3fbf729c	1.4956851
98	0x3fb3357d	1.4000698
99	0x3fc5944c	1.5435882
100	0x3fb38388	1.4024515
101	0x3fb233d9	1.3922073
102	0x3faf2895	1.368426
103	0x3fb24b25	1.3929182
104	0x3fcd5f02	1.6044619
105	0x3fad6307	1.3545846
106	0x3fcd0e7a	1.6020043
107	0x3fb5e9e5	1.4212004
108	0x3fbef8f2	1.4919722
109	0x3fc5c73b	1.5451425
110	0x3fcab498	1.5836363
111	0x3fc0ab56	1.5052288
112	0x3fb96678	1.4484396
113	0x3fb2fabc	1.3982768
114	0x3fb4908e	1.4106615
115	0x3fc1c0fb	1.5137018
116	0x3fcc3a03	1.5955204
117	0x3fc29b09	1.5203563
118	0x3fb35c14	1.4012475
119	0x3fbf1ffb	1.4931635
120	0x3fb3a81b	1.4035677
121	0x3fac80e1	1.3476831
122	0x3fcb2304	1.5870061
123	0x3fd3ff18	1.6562223
124	0x3fc2683e	1.5188062
125	0x3fbfc3c0	1.4981613
126	0x3fb5d9e1	1.4207116
127	0x3fb7bddd	1.4354817
