models/Maribor/cars/Maribor_cars_model.onnx (onnx, 60482 bytes, 13 tensors)

functional_1_1/dense_3_1/Cast/ReadVariableOp:0 f4 [32, 1]
00000000: c435 0b3b 7fa6 61bd fedb 213b 3931 8b3b
00000010: 9b7e bdba cb9f a0bc 59f1 eebc 37b5 f93c
00000020: bc27 28bc df65 9b3c d220 273d ed13 7a3b
00000030: 6a1b 53bb bee6 17be 525b 7c3b 8f17 0bbe
00000040: 268d b73b 4013 ee3c 929f 76bd d13e babd
00000050: 5e68 d13d 35d9 1fbd 78e5 ae3c fbf8 8f3d
00000060: 1abd 6d3c e825 bb3a 958f 18bd 6ef1 b83b
00000070: 6bc3 01be 47fa 383e 46c0 563d cc32 7bbd
0.0021241764 -0.055090424 0.0024697776 0.004247811 -0.0014457287 -0.019607445 -0.029167818 0.030481918
-0.01026338 0.018969474 0.040802784 0.003815885 -0.0032212385 -0.14834115 0.003850658 -0.13583206
0.005601543 0.029061913 -0.06021077 -0.090940125 0.102249846 -0.039025504 0.021349654 0.07029911
0.014510417 0.0014278265 -0.037246305 0.005644015 -0.12672202 0.18064223 0.05242946 -0.06132774

functional_1_1/dense_2_1/Cast/ReadVariableOp:0 f4 [64, 32]
00000000: cd04 4fbe d21f 4b3e e038 de3d 23b6 4b3e
00000010: 8302 0abd e969 e7bd b14f d5bd 766c 06be
00000020: 8a7d 84bd 7190 d5bd 238e 033e f667 933d
00000030: e11a 24be 60c9 083e 52e5 59be 8d3f f33d
00000040: 347c 6f3e 72aa 283e 6c75 a03b c5c5 2f3e
00000050: fe49 9bbc a60a 533e d431 8abd 414d 9ab9
00000060: 1cb0 69be cc2c 933e 0818 64be 9705 073e
00000070: de74 503d d23e 7d3e 4563 803e e45a 263d
00000080: 77da 9bbd 99f5 d5bd a109 b83e efe6 b1bd
00000090: 58c5 7c3e 92c1 ac3e 1d17 89be c5c5 2f3e
000000a0: 6e36 0ebe 82cd 65be b182 11bd 8262 813d
000000b0: 68d9 65be 5dbb 05be cd28 4e3c c6d1 d9bd
000000c0: b620 3fbd a2b3 63be fe11 13be ff5c 7a3e
000000d0: db89 38be d845 7c3e f809 a73d 8e03 2bbe
000000e0: 4afa 49bd 6fba a8be 4eea 6cbe 7c19 de3a
000000f0: cc34 d83c 1206 0b3e 7db2 ac3d d899 7bbd
00000100: f113 393e d43e 3cbe 6025 27be bc02 4bbe
00000110: 8450 a3bd a39e 42be b442 5abd e787 393e
00000120: 9694 81bd 9ed8 593e be06 97bb 7f74 253c
00000130: 5826 013e c918 513d a91f 893e eae0 763e
00000140: 1cd8 b83d 3412 3abe 086e 0bbd c132 67bd
00000150: a7ef 44bd fa2d 77be 89b4 1fbe 2416 7cbd
00000160: f0db 9c3b 59f3 b7bd 4ee7 79be 01b3 663e
00000170: 31b1 73be c5ec 263e 1ce9 a33c 92e4 82bd
00000180: 5250 9e3e 4282 2fbd 4dab a6bd 270d fdbc
00000190: 0397 203e fd15 13be a031 abba eda1 713d
000001a0: 5616 5fbe b3d0 f0bd 41f8 f1bc 3005 45bd
000001b0: e816 413e 5b43 673e 7f06 0f3e 52bf 46be
000001c0: a856 3d3e e0be 193e bfdf 533c 799b 84be
000001d0: 2102 d03d bce6 36be 13e4 08be 96bf 18be
000001e0: ba2f d53d e44b 133e ad90 b63d d09d cabd
000001f0: 9a34 e8bb 2a20 c83d f8c4 803b 3286 843d
00000200: 1557 213e 1441 143e 5174 883e d661 8abe
00000210: 8132 e3bd ce70 82bd 7582 6ebe 67c5 dfbd
00000220: bacb 2ebe ec2f 3a3e d8dc c3bd 031e c4bc
00000230: 934b 5e3e 6f15 083e e763 e53d 4e5d 673e
00000240: c442 26be cf19 593e e127 903e d718 b6bd
00000250: 757f 84bd 2478 e5bd 2f20 513e 23da 08be
00000260: 9f8e 83be 687d 273e b403 1b3e d8ec ba3c
00000270: 5a8d 52be 587d 483e 6196 d93d 2f28 14be
00000280: 9935 2d3e f08d 4f3e 3e61 45be 2837 92bd
00000290: 6a9c a63e 2618 daba 27ac 0fbb 2b36 4abe
000002a0: 2c7e a6bb 384d 673e 246f 05be f821 87bd
000002b0: efb6 7f3c cc8b 4abe 909f 0c3e 489f eebc
000002c0: f081 5ebe 2a95 013d 9aed b83d 8e05 a5be
000002d0: 56b2 ca3d 30fa 26be e8be 13bd 5412 dfbc
000002e0: 1271 59bd 7237 4dbe a495 38bc 81bb 2cbe
000002f0: 0f03 143e b9dd 763d 0a99 77be 2f1a 893e
00000300: c3de ba3d ae29 39be eb32 d4bd b2d8 e43d
00000310: 89ff 1e3e 6f90 91be b469 74be e8b6 943c
00000320: f2e5 8ebe 9a33 9a3e 459c c33d f9dc 0c3d
00000330: 2509 753d 5d6f 4d3e 2b2a b9bd d41e 8e3d
00000340: b35e abbe 3ad0 5a3e 07e0 abbd 5c85 6bbe
00000350: eb60 013e 6c45 acba 46da 24be b5a5 953e
00000360: faf7 303e c7f0 fe3d 28eb a3be 0862 69be
00000370: 1a81 083e 81e9 a9bd 3126 47bb 1e46 a23d
00000380: 0bc9 943e a636 17bd 1df3 9f3d 5c1a 76bd
00000390: 8971 1ebe 8a61 173e e546 183e 0d1b 82be
000003a0: 7247 853c 9db5 c23d 25ea 49be f9f0 11be
000003b0: f8d7 9cbd 0253 163d 0c57 6a3e 7fc2 b93d
000003c0: 7109 163e 74db 02bd efeb 993c 8363 553e
000003d0: 5869 343e cec7 923b 0570 693e 7c6e 033e
000003e0: ef01 6bbe 6986 803e 59ed 08be a85a ca3c
000003f0: 5060 3a3e d563 9dbc 0c4d 5e3e 15d2 cebc
-0.20216675 0.19836357 0.10850692 0.19893698 -0.0336938 -0.11299498 -0.104155906 -0.13127312
-0.06469257 -0.10427941 0.1284719 0.07197563 -0.16025878 0.13358068 -0.21278885 0.11877356
0.23387223 0.1647127 0.0048968103 0.17165287 -0.01895618 0.20609531 -0.06747785 -0.00029430728
-0.22821087 0.28745115 -0.22274792 0.13185726 0.050892703 0.24730995 0.25075737 0.040614024
-0.07610028 -0.10447235 0.35944846 -0.08686625 0.24684656 0.33741432 -0.26775447 0.17165287
-0.13887951 -0.22441676 -0.035525028 0.06317617 -0.22446215 -0.13059755 0.01258297 -0.10635714
-0.046662055 -0.22236493 -0.14362332 0.24449538 -0.18021338 0.24636018 0.08156198 -0.16700575
-0.04931096 -0.32954738 -0.23136255 0.0016944851 0.026392363 0.13576534 0.084324814 -0.061426014
0.18074013 -0.18383342 -0.16322851 -0.19825262 -0.079743415 -0.19005828 -0.05328627 0.18118249
-0.06327169 0.21274039 -0.004608958 0.010098576 0.12612283 0.051049028 0.26781967 0.24109235
0.090255946 -0.18171006 -0.03404048 -0.056444887 -0.048080113 -0.24138632 -0.15596212 -0.061544552
0.004786961 -0.08981962 -0.24404642 0.22529222 -0.23798062 0.16301258 0.020008616 -0.063912526
0.30920655 -0.042848833 -0.08138142 -0.03089006 0.15682606 -0.14363857 -0.0013061054 0.058992315
-0.21785864 -0.11758556 -0.029537322 -0.04810065 0.18856394 0.22584288 0.13967322 -0.1940892
0.18490088 0.1501422 0.012931763 -0.25899866 0.10156656 -0.17861456 -0.13368253 -0.14916834
0.10409494 0.14384419 0.089143135 -0.098933816 -0.0070863487 0.0977176 0.0039297305 0.06470908
0.15755875 0.1447795 0.26651242 -0.27027768 -0.11093617 -0.06369172 -0.23291953 -0.109263234
-0.17069903 0.18182343 -0.09563607 -0.023940092 0.21708517 0.13289426 0.112006955 0.22594187
-0.16236407 0.21201251 0.28155425 -0.088914566 -0.06469623 -0.11204556 0.20422433 -0.13364463
-0.2569475 0.16356432 0.15138131 0.022818014 -0.20561734 0.19579065 0.106243856 -0.14468454
0.16914977 0.20268989 -0.19275376 -0.071394265 0.3254121 -0.0016639277 -0.002192268 -0.19747226
-0.005080959 0.2258805 -0.13030678 -0.06598276 0.01560758 -0.19779891 0.13732743 -0.029128686
-0.21729255 0.031636395 0.09029694 -0.322308 0.09897296 -0.16306376 -0.036070734 -0.02723042
-0.053086348 -0.20040682 -0.011266146 -0.16868402 0.14454292 0.060270045 -0.24179474 0.2677779
0.0912452 -0.18082306 -0.10361274 0.11174144 0.15527166 -0.28430507 -0.23868448 0.018153623
-0.2790981 0.30117494 0.095512904 0.034390423 0.059823174 0.20062013 -0.09041246 0.06939474
-0.33470687 0.21368495 -0.08392339 -0.23000091 0.12634628 -0.0013143248 -0.1609889 0.29227987
0.17282096 0.124482684 -0.32015347 -0.22791302 0.13330498 -0.082964905 -0.0030387754 0.0792353
0.29059634 -0.03691735 0.07810042 -0.060083732 -0.15472998 0.14783302 0.14870794 -0.25411263
0.01626942 0.09507296 -0.19718225 -0.1425208 -0.0765838 0.036700256 0.22884768 0.090703
0.14652039 -0.031947568 0.01878926 0.20838742 0.1761831 0.004479385 0.22796638 0.12835115
-0.22949956 0.25102547 -0.13371791 0.024701431 0.18200803 -0.019212643 0.21709079 -0.02524666

functional_1_1/dense_2_1/Add/ReadVariableOp:0 f4 [32]
00000000: ff71 d2bc 3e18 a8bb e905 57bd 9af8 d63d
00000010: d84e 603d 8256 c63d 27ff 0abd e339 d5bc
00000020: 0629 7cbc 630d bfbd 83c0 80bd 1e34 8f3c
00000030: 1503 c73d b5b1 22bd 30f7 243d 8797 643c
00000040: 617c 673d c922 9b38 1ef4 ca3d cac7 4d3d
00000050: e968 8f3d c1af 7cbd f3ca 0aba 0d94 383d
00000060: 8872 8c3d 0b30 a6bd fa18 063d 612d f93c
00000070: cdd2 d43b f8d8 cd3c cace 2b3c 69e5 a23c
-0.025689123 -0.005129843 -0.05249587 0.10496636 0.05476269 0.09684469 -0.03393474 -0.02602858
-0.01539064 -0.09328725 -0.06286719 0.017480906 0.09717385 -0.039720256 0.0402748 0.013952143
0.0565151 7.397455e-05 0.09909843 0.05023936 0.07002432 -0.06169105 -0.0005294524 0.045063067
0.068577826 -0.08114632 0.032738663 0.030417146 0.006494856 0.025127873 0.010486314 0.019884782

functional_1_1/dense_1_2/Cast/ReadVariableOp:0 f4 [128, 64]
00000000: cc90 44be c4eb 25bd 9f70 aa3d 988a 643d
00000010: 1510 75bd 0464 943d e8ec a43c c5ee 813d
00000020: 0331 253e 5b65 973d 5a2f 41bd 6e76 0f3d
00000030: 7b9c 233e e2a9 5f3e 33b6 413e 61c8 a0be
00000040: 7847 60be 8784 683e a5c6 0c3d fbb9 97bd
00000050: 7f1a 543e fcb5 41bd 8753 f43d ce93 0abd
00000060: 4d1a 5a3e 298c e93c 1fb6 4e3d d6ff 91bd
00000070: 7c9a 36be 7dc4 773d f0f7 0a3d 0554 c0bd
00000080: 96ad 033e d287 67be 71e6 9c3c 9dd9 4fbc
00000090: ea60 733d 42d2 26be c359 48bd 0b1a 1e3e
000000a0: 25a4 76bc c201 24be 0818 483e 75d6 0bbe
000000b0: 019f 58be 193b 9a3d 27fe 433e cc77 36bc
000000c0: f88c bab8 95bf b33d fb29 353c 32f0 f93d
000000d0: dcbf 873d ee8a cd3d a9b0 06be 2cf0 14bd
000000e0: 9b98 4a3e 5fcf 75be e4b1 fb3c 6af7 f73c
000000f0: d8a6 2fbe e248 14bc 97e4 3f3c c4f6 adbd
00000100: 7dee 61be f979 003d b528 e4bd 19e2 f3bd
00000110: 50a5 c23d 57c8 aa3d 1868 a13d 2f3b 313e
00000120: 4311 f83c 672a 49be a47c 55bc 30bb 33bd
00000130: fa04 213d e192 93bc 1dfa 22be b7b5 c93d
00000140: 9933 4d3c 4e3c 753e 0a47 8abe b6fb 5abb
00000150: 20c1 253e deb9 903d 80f8 173e 5604 b5bc
00000160: 893f adbc 316b 83be 1426 c63d a193 74bd
00000170: eaea 83be c79c f83d 03df 29be d105 02be
00000180: 5190 1b3d ad27 d33d 5cae 623e c2f5 663e
00000190: 43bf 4a3d 8614 2fbe a997 44bd 9942 4d3e
000001a0: a119 c13b 4a5e e93d 0969 ccbd fce9 db3d
000001b0: d2a4 abbc 0cf7 c83d f7a8 a5bc 467b e3bd
000001c0: 18ef 263c 85c4 e63c 1859 85bd f14e 473e
000001d0: d63a fe3d dd62 acbd 3baa a23c 2506 fcbd
000001e0: 13be 0fbe d391 0fbe 3e99 9c3d 76a3 6abe
000001f0: 740d bdbb a4bd 7e3d e532 b23d 1ea9 5f3d
00000200: 9d5c a53d b63e 033d e28f 9f3c 2890 08be
00000210: 3738 bebd 0324 543d 94de 823d 0c42 c63d
00000220: 801c 24bc b0e5 2fbe e5e9 3b3e 1b64 b13d
00000230: e301 e5bb 69f4 7f3d a818 39bd 8726 23be
00000240: c4f7 e23d 957d 6c3e 66b5 13bc e0dc 8d3d
00000250: 891d e73d e11c 5d3e c6e3 9dbd 25c4 5a3e
00000260: 3d56 9a3d 0c81 523d 43ab e13d 4cb9 aabd
00000270: 9873 cebd 98f4 06bd 4deb dc3d 700e ba3d
00000280: e086 9b3c 10b5 5a3e b5d9 6abd a02d 8ebd
00000290: 57ce 8a3b edc2 18bd ada0 013e a34b 083d
000002a0: 7c5a 503e 4ee3 bf3d f13f 99bd 5bca 2b3d
000002b0: 5be6 9cbd c8b1 8f3d 0f2f 083e 9cda 113c
000002c0: f501 003d 63e8 31bd 8b7d 44bd 4e70 32be
000002d0: 4168 0c3e ff7b 8cbd 2540 033d df2d 40bc
000002e0: 79b7 79be f4a9 03be 8e7b c5bd ffcf babd
000002f0: 275f 48be 27a1 233e c8a3 23bd 6c03 903d
00000300: ce6f 2ebd d230 7c3c 50a3 023e 14ce 2ebd
00000310: c2ee 3ebd edd5 893d 3e14 993d c692 20be
00000320: 8d5f a13d ddb4 ac3d f1b7 5abe 8091 dcbd
00000330: c6e6 293e 8975 8b3d a370 f4bd ae6a 873e
00000340: e403 6b3d 5367 37be 07bb 9ebd be56 6f3e
00000350: 9765 ad3d 8af0 69bd 73a7 273e c2f7 50bd
00000360: 8e2e 3ebe a010 e33d 814e 72be 8d2a 733d
00000370: db80 3a3e 217e febc b7d4 173e cc3f 1cbd
00000380: 2448 d5bd 844e 0c3e c712 a73d 0975 983d
00000390: b384 023d 7ed0 3cbe f3b9 343c 686c 833d
000003a0: 5456 4f3d f336 9f3d fa16 dc3c f4c0 c6bd
000003b0: e2e8 0fbe 299f 17bc 245a 06be a262 33be
000003c0: be52 cfbd 55a7 c3ba d867 93bd a5b8 963d
000003d0: 8ae9 ac3d c458 753d 89d5 cc3d b127 d5bd
000003e0: 557a c9bc 3cd3 0b3e b454 a6bd dd4b a8bd
000003f0: b9c4 8abd 463e 8fbc b662 b73c dc14 67bd
-0.1919586 -0.040508047 0.08322262 0.055796236 -0.05982979 0.07245639 0.020132497 0.0634437
0.16131978 0.07392379 -0.0471643 0.035025053 0.15977661 0.21842149 0.1891716 -0.31402877
-0.21902263 0.22706805 0.03436913 -0.0740852 0.20713232 -0.047292694 0.11929994 -0.033832364
0.21299095 0.028509216 0.050466653 -0.07128875 -0.17832369 0.06049012 0.033927858 -0.093910255
0.12859187 -0.22610405 0.019152852 -0.01268616 0.059418596 -0.16291144 -0.04891373 0.15439622
-0.015053784 -0.16016296 0.19540417 -0.13656028 -0.21154405 0.07530803 0.1913992 -0.01113696
-8.8954286e-05 0.08776776 0.011057372 0.12204017 0.06628391 0.10036264 -0.13153328 -0.03636186
0.19784777 -0.24004887 0.030724473 0.030269343 -0.1715349 -0.00905058 0.011712215 -0.084943324
-0.22063632 0.031366322 -0.11140577 -0.11908359 0.09504187 0.08338993 0.078811824 0.17307733
0.030281669 -0.19645081 -0.013030205 -0.043879688 0.039311387 -0.018014373 -0.15915723 0.098491125
0.012524509 0.23948786 -0.27007324 -0.0033414192 0.16186953 0.07066701 0.14840889 -0.022096794
-0.02114846 -0.25667718 0.096752316 -0.059711102 -0.25765163 0.12139278 -0.16588978 -0.12697531
0.037979428 0.10310302 0.22136825 0.22554687 0.049498808 -0.17097673 -0.047996197 0.20044936
0.005892948 0.11394937 -0.09980971 0.10737988 -0.020952616 0.098127455 -0.02022217 -0.11107497
0.01018884 0.02816988 -0.06511134 0.19463708 0.12413566 -0.08417294 0.019856563 -0.123058595
-0.14037351 -0.14020471 0.07646416 -0.22913918 -0.005769426 0.062192574 0.087011136 0.054604642
0.08074305 0.032042228 0.019477788 -0.13336241 -0.09288066 0.051792156 0.0639011 0.09680566
-0.010016561 -0.17177463 0.18350942 0.08661672 -0.0069887503 0.062488947 -0.04518953 -0.15932666
0.11082414 0.2309478 -0.009015417 0.06926894 0.1128493 0.21593048 -0.0770946 0.21363886
0.0753598 0.0513926 0.11018994 -0.08336124 -0.100806415 -0.032948107 0.107870676 0.09084785
0.018985212 0.21358132 -0.057336528 -0.06942296 0.0042360234 -0.03729527 0.12658949 0.033275258
0.20347017 0.09369527 -0.07482899 0.041941028 -0.07661124 0.07016331 0.13299201 0.008902218
0.031251866 -0.043434512 -0.04797129 -0.17425653 0.13711645 -0.06859588 0.032043595 -0.0117296865
-0.24386396 -0.128578 -0.09642707 -0.09121703 -0.19567548 0.15979443 -0.039951116 0.07031903
-0.042587094 0.015392499 0.12757611 -0.042677 -0.046614416 0.06730256 0.07474564 -0.1568099
0.07879553 0.084329344 -0.2135923 -0.107699394 0.1659194 0.068095274 -0.11935546 0.26448578
0.057376757 -0.17910509 -0.077505164 0.23372933 0.08466642 -0.05711416 0.1637247 -0.05101753
-0.18572447 0.11087155 -0.2366276 0.05936675 0.18213217 -0.031066002 0.14827238 -0.03814678
-0.1041415 0.13701826 0.08157878 0.07444198 0.031864833 -0.18438908 0.011030662 0.06417161
0.05061944 0.077741526 0.026866425 -0.09704772 -0.14053681 -0.009254255 -0.13120323 -0.17518094
-0.10123204 -0.0014927188 -0.07197541 0.07359437 0.084429815 0.059899107 0.10001666 -0.10407961
-0.024594465 0.13654798 -0.081216246 -0.08217595 -0.06775803 -0.017485749 0.022385936 -0.056416377

functional_1_1/dense_1_2/Add/ReadVariableOp:0 f4 [64]
00000000: e58a 1fbd becb 883d d922 20bd d653 87bb
00000010: c08f a43d 45ce 0d3d 81ce a2bd d81b b3bd
00000020: 7283 27bd 8d62 523d c5fe 083d c422 73bd
00000030: ae49 04be 5fde 43bd d89c 1d3d efb2 54bd
00000040: 5b08 bbbc 9262 19bd b381 bd3c a158 b1bc
00000050: 9786 fcbc 3566 a3bc ab66 f73c 5274 c3bc
00000060: 46c9 bbbb da32 943d 1e19 48bd 824f c3bd
00000070: 1f5c f0bd 71f6 ab3d 34ef 5e3c 755c 443d
00000080: 27ab 503c 1fb6 d13d 856c ff3c 8cd0 93bd
00000090: 08ed 9b3d 2768 a03d 842f ff3d 3f2c 863d
000000a0: 58ea cdbd 2f7d 5e3c 5b27 31bd 830a ca3b
000000b0: 911d b4bd 37ca eabd 1f52 f5ba ccf9 afbd
000000c0: 5618 833d fd7c bcbc f6db b03d fcbf 2c3d
000000d0: 43a9 afbb f574 dd3d 20d7 b4bc b694 0f3d
000000e0: 5b6c 723d 12e6 bbbc 052d a4bc 6656 05bd
000000f0: 479d 49bc 6984 b6ba f76a 90bc eeca 84bd
-0.03895082 0.06679486 -0.039095733 -0.004129867 0.08035231 0.034620542 -0.07949544 -0.08745545
-0.04089684 0.051363517 0.033446092 -0.059359327 -0.12918732 -0.04781949 0.038479656 -0.051928457
-0.022831133 -0.03744752 0.023133134 -0.021648707 -0.030825896 -0.019946197 0.030200323 -0.023859177
-0.005730781 0.07236262 -0.04885208 -0.09536649 -0.11736321 0.08396614 0.013606835 0.047939736
0.012736118 0.10239815 0.031179676 -0.072175115 0.076135695 0.078323655 0.12460235 0.06551408
-0.10054463 0.013579651 -0.043250423 0.006165804 -0.08794702 -0.11464351 -0.0018716491 -0.08592567
0.06401126 -0.023008818 0.08635704 0.042175278 -0.0053607537 0.108133234 -0.022075236 0.03505393
0.059185367 -0.022936855 -0.020040998 -0.0325531 -0.012305564 -0.0013924959 -0.01762913 -0.06484018

functional_1_1/dense_1/Cast/ReadVariableOp:0 f4 [25, 128]
00000000: 0d51 1a3e b29f 02be a510 2dbe e0f5 ad3c
00000010: 8e83 08be f878 1c3d 8d55 0a3e a65c 07be
00000020: 63a4 063e f477 16bd 1df0 213e 42bd 41be
00000030: 50b4 1abd 2eea 11be 3177 17be a047 313c
00000040: e00c e8bc b09f a53c f521 d5bd d672 bb3d
00000050: 9246 f53d b652 9c3d b0d9 d03c 78e8 cd3c
00000060: 7d4d 2cbe 7a7b a93d 72e4 8c3d 25f0 153e
00000070: 4ff4 3cbe de4e df3d 234c 47be 60a8 d9bb
00000080: 36be 8ebd 8645 f0bd 00ad f93c 28d3 23be
00000090: 9878 90bc 4325 3d3e ca43 873d 03e0 fabd
000000a0: be45 49be f886 30bd c024 12bc 9ce5 60bd
000000b0: b0b1 d6bc 7290 bfbd a2fe cbbd 4c36 713d
000000c0: a071 06be 029a 943d 5893 833c b84a ac3c
000000d0: 25c5 bebd 8130 333e ac42 2dbe 36d5 05be
000000e0: cce6 293d f32c 27be aebe 20be 82b2 863d
000000f0: bf34 c3bd 7026 53bd 6421 33bd 1dcd d9bd
00000100: 46fb 9e3d e0b5 f93b 7654 973d c07d abbc
00000110: ee57 09be 2ecd b93d 42dd ab3d 60b2 dfbc
00000120: a547 343e 24e3 eabd c55e adbd 28a5 03bd
00000130: 921b e83d da4e ac3d 3259 f53d 58de 513d
00000140: d40d 0a3d 027e a23d 8ebc c7bd b4c4 c9bd
00000150: 10cf ea3c 9871 ecbc fe35 c93d 7730 02be
00000160: 2156 0cbe cc10 45be 77e9 2dbe ef47 083e
00000170: 6235 ca3d 315b 363e 6869 09be b9c7 31be
00000180: c0b3 293b 87e3 38be f872 423d 3475 7dbd
00000190: e53e 3ebe 74c1 5e3d 0085 eb3a 684f bc3c
000001a0: 2d2a 3b3e ac7c 2dbd 407a 6dbb df1f 163e
000001b0: 59a6 12be 7675 a23d 3db4 edbd 2624 e23d
000001c0: b66b 2cbe 6a94 b83d 504d 8fbd e07a 833c
000001d0: bb77 033e 7675 d13d 3ff2 34be 18d6 0a3d
000001e0: f549 e8bd 55f4 32be 107c 3cbc 6caf 80bd
000001f0: c249 debd 73ad 383e eebb 0cbe 1c5a 2dbd
00000200: 7252 c13d 9ad9 20be aeb8 e9ba d5f7 57be
00000210: fca3 063e 33d1 d9bd 6dac 47bc 0cef 023e
00000220: cd9b 17be 201c 0cbc 36c2 43be 6fb5 463e
00000230: 18d7 483e 7190 a13e c7e8 5dbe 0b45 f6bc
00000240: 80a5 493d 6489 2ebd 180e 30bd 9358 4ebe
00000250: 2b07 623e 1894 e43b 2b17 443e fec2 ab3d
00000260: d86b 443e 0842 413d aed6 e53d 06ae f93d
00000270: d942 a53d ca0f 4b3d 4b82 b13d d1af 173e
00000280: 19e4 1bbe 3aba 31be 1a8c b93d 73a9 253d
00000290: 0ee5 883d f2ae 05be 501f 233e b66f e4bd
000002a0: 0612 20be 7277 b4bd 7e26 8f3d 2195 323e
000002b0: 0870 07be d6da d3bc 2800 c3bd 0542 503e
000002c0: ff41 2dbe b728 943e ace2 0dbe 5d87 1abd
000002d0: e73a 56bc 59a1 5d3e 8809 4bbe 5e65 67bd
000002e0: 3111 4ebe ef12 0fbe f42b 2abe 5383 cbbc
000002f0: d5e2 e33d ef15 55be ccca 79bd 310a 6a3e
00000300: d788 0abe 239a 003e 992a 47be a233 443d
00000310: 50dc 833d 2db8 ed3d edfd f4bc c903 1fbe
00000320: 7af5 7b3d 1757 903d 6641 59bd 08f7 95bd
00000330: 88ea ec3b 2e2b b93d cc9f 88be 7785 373d
00000340: a1d0 703e 388c 51be 3236 71bd bab8 4bbe
00000350: fab6 bb3d 1538 183e cef0 d73b 61c8 df3c
00000360: e7ad 8d3d 03fc 4cbc 1deb 5c3e 7e1b 39be
00000370: b769 113e 211d edbd 1bd2 c03d bfe4 df3c
00000380: 1423 893d 6409 94bd 7f3d 853d 0623 523d
00000390: 3977 233e 200c e8ba 8c36 f13c 3cf0 bcbd
000003a0: 1fe4 8dbd 5e6a 9fbd 6a67 9fbd d86d a23c
000003b0: 0b75 0e3d 8329 dd3d 986d 4ebe 5d1b 9c3e
000003c0: cdde ba3b 58ad 873e d414 3bbe f0ee f2bd
000003d0: d489 b33d 2c22 82be 5853 0abe b75a d73d
000003e0: d7ee 293e 18cd 92bd e69b 00bd aa9f 213d
000003f0: 792e 953e 9ca1 fbbd 16d5 393e a51e d1bb
0.15069981 -0.12756231 -0.1690088 0.021235406 -0.13331434 0.038201302 0.13509198 -0.13218936
0.13148646 -0.03673549 0.15814252 -0.18919852 -0.037769616 -0.14249489 -0.14791562 0.010820299
-0.028326452 0.020217746 -0.104068674 0.091527626 0.11976351 0.07632963 0.025494426 0.025135264
-0.16826434 0.082755044 0.0687951 0.14642389 -0.18452571 0.109037146 -0.19462638 -0.0066423863
-0.069698736 -0.117320105 0.030478 -0.15998518 -0.017635629 0.18471245 0.066047266 -0.12249758
-0.19655511 -0.043097466 -0.008919895 -0.054906473 -0.026207775 -0.09353723 -0.09960677 0.058889672
-0.13129282 0.07255937 0.01606147 0.021031722 -0.09314946 0.17498972 -0.16919965 -0.13069615
0.04147987 -0.1632574 -0.15697739 0.065770164 -0.09531545 -0.05155033 -0.043733016 -0.106348254
0.0776277 0.007620558 0.073891565 -0.020933986 -0.13412449 0.09072338 0.08391811 -0.027306736
0.17605455 -0.11469105 -0.084653415 -0.032139927 0.113333836 0.08413477 0.11979903 0.051237434
0.033704594 0.0793419 -0.09752761 -0.09851971 0.028663188 -0.02886276 0.09824751 -0.127138
-0.1370473 -0.19244689 -0.16983591 0.1330869 0.09873463 0.17808224 -0.13419116 -0.17361344
0.0025894493 -0.18055545 0.047472924 -0.06187935 -0.1857868 0.05438371 0.0017968714 0.022987083
0.18277808 -0.042355224 -0.0036236197 0.14660595 -0.14321269 0.0793256 -0.11606643 0.11042051
-0.16837963 0.09012683 -0.06997168 0.016049802 0.12838642 0.10227482 -0.17670535 0.033895582
-0.11342231 -0.17476018 -0.011504188 -0.06283459 -0.10853912 0.18034916 -0.13743564 -0.042322263
0.09439553 -0.15708008 -0.0017831528 -0.21090634 0.13148493 -0.10635605 -0.012187106 0.12786502
-0.14805527 -0.008551627 -0.19117054 0.19405149 0.19613302 0.31555513 -0.21670829 -0.03006222
0.0492301 -0.042611495 -0.04298219 -0.20150976 0.22073047 0.006975662 0.19149463 0.08386801
0.19181764 0.047182113 0.112225875 0.121913955 0.08069391 0.049575604 0.086674295 0.14813162
-0.15223731 -0.17356196 0.090599254 0.040444802 0.06684314 -0.13055018 0.15929914 -0.1115412
-0.15631875 -0.08811845 0.06989764 0.174397 -0.1322633 -0.025861185 -0.09521514 0.20337684
-0.16919707 0.28937313 -0.13856 -0.03772675 -0.013075567 0.2164358 -0.19827855 -0.056493156
-0.20123746 -0.13972066 -0.1661833 -0.024842894 0.11127249 -0.20809148 -0.060984418 0.2285545
-0.13528763 0.12558798 -0.19449843 0.047900803 0.06438506 0.11607394 -0.029906237 -0.15528788
0.0615134 0.07047861 -0.053040884 -0.07322508 0.0072301067 0.09041439 -0.26684415 0.044805016
0.23517086 -0.20463645 -0.058889575 -0.19894686 0.091657594 0.14865144 0.0065899855 0.027317228
0.06917935 -0.012511256 0.21574064 -0.18076894 0.14200483 -0.115778215 0.094150744 0.027330754
0.06696144 -0.072283536 0.0650587 0.051302932 0.15963449 -0.0017703809 0.029444955 -0.092255086
-0.06928276 -0.0778396 -0.077833965 0.019827768 0.03477959 0.10798933 -0.20158994 0.30489627
0.0057028295 0.26499438 -0.18269664 -0.1186198 0.08766523 -0.25416696 -0.13508356 0.10515349
0.16595016 -0.07168025 -0.031398676 0.03945891 0.29137018 -0.12286684 0.18147692 -0.006381827

functional_1_1/dense_1/Add/ReadVariableOp:0 f4 [128]
00000000: dbd8 eb3d 638e 803d b33d d1bd e6f6 9dbd
00000010: fcf0 033d 242f 66bd 4c5a 9ebd 1315 0bbe
00000020: f822 813d 0000 0000 7fe5 75bd 1acb 18bc
00000030: 2dcc 813a d86d b93d 7fe5 75bd a615 b4bd
00000040: 4cd2 ae3c 0000 0000 3b45 2ebd 36f2 4abd
00000050: 0d6a 833d 3885 7cbd 45c8 e23c 7970 1a3c
00000060: 4530 3f3c 9d97 afbd 0000 0000 30fc 6b3b
00000070: 36d2 9f3d 8561 babd 3c67 723b 769e 563c
00000080: 32ac 173d 36f2 6cbd 0e90 8e3d 0db9 8b3c
00000090: 0000 0000 20e9 a83d a0a1 7ebd 843b 323d
000000a0: 0000 0000 4fa8 abbd 0000 0000 274d 943d
000000b0: e414 febd 9ae5 75bd 416c 99bd 5080 b2bd
000000c0: 9409 afbd b310 683d 0000 0000 ec1c 81bc
000000d0: 60a9 73bd 33a2 8abc e0d8 34bd 566c ee3d
000000e0: f1c4 183d 6de5 75bd 4759 983d f592 10be
000000f0: 8d82 95bd 6de5 75bd 0000 0000 5ee4 883d
00000100: fc3f 823d 6a54 ad3d f9ce 6cbd 157b 90bd
00000110: 1668 06bd da61 bc3d 7ca0 533b 0000 0000
00000120: 64d8 b63c fc9e eb3c 5189 bb3c 083f 183d
00000130: 57e5 75bd 7939 37bb 7037 78bd b7be a23c
00000140: 2014 b63c 3e06 833b 3a91 953d 85b8 8bbd
00000150: 0000 0000 3235 4f3d 7ae5 75bd ccbc a8bd
00000160: b182 b13a 56e7 6d3c 21e3 723d 8c3f 9e3d
00000170: f418 62bd e3a8 813d cbba b63d 6b95 42bd
00000180: 9a2c bd3c a182 673c 7faf 643d debe 2a3d
00000190: fb2c 8a3d 9ff2 933c e543 53bd f11c 763d
000001a0: 9f00 813d 0000 0000 bb7d 01be 0000 0000
000001b0: ce8b 05bd 2b34 993d e05b 9abd eede 0ebc
000001c0: 152b 60bd ff12 803d 0000 0000 0335 163d
000001d0: 3ed6 96ba eec4 bebd 62ce e7bd 57f0 293c
000001e0: 7ac7 cf3d 4dfa 383b 77c4 703d d6b9 a1bc
000001f0: 43d7 943c 0000 0000 f26c a33d 1c44 51bd
0.11515971 0.06277158 -0.10216846 -0.07713108 0.032212242 -0.0561973 -0.077320665 -0.13582258
0.06305498 0.0 -0.060033318 -0.009325767 0.0009902768 0.09054154 -0.060033318 -0.087931916
0.021340512 0.0 -0.042546492 -0.049547397 0.06416712 -0.061650485 0.027683387 0.00942623
0.011669223 -0.0857384 0.0 0.003600847 0.078037664 -0.091006316 0.0036987802 0.0130993035
0.037029453 -0.057848178 0.0696107 0.017056013 0.0 0.0824759 -0.062165856 0.04351379
0.0 -0.08381712 0.0 0.07241278 -0.12406328 -0.06003342 -0.07491351 -0.0871588
-0.08546749 0.05665655 0.0 -0.015760861 -0.0594877 -0.016923046 -0.04415214 0.11641757
0.037297193 -0.06003325 0.07438903 -0.1411856 -0.07300291 -0.06003325 0.0 0.066841826
0.0635986 0.08463366 -0.057814572 -0.07054726 -0.032814108 0.09198351 0.00322917 0.0
0.02231998 0.028762333 0.022892626 0.037169486 -0.06003317 -0.002795784 -0.060599744 0.01986633
0.022226393 0.003998547 0.073030904 -0.06822304 0.0 0.05058784 -0.0600333 -0.08239135
0.0013542977 0.014520487 0.05929864 0.07726964 -0.05519958 0.06331041 0.08922347 -0.047505777
0.023092557 0.014130265 0.05583143 0.04168593 0.067468606 0.018060027 -0.05157842 0.060086194
0.062989466 0.0 -0.12645619 0.0 -0.03260403 0.074806534 -0.07537055 -0.008720143
-0.054728586 0.06253623 0.0 0.03667165 -0.0011507941 -0.09314905 -0.11318661 0.010372243
0.10145469 0.0028225363 0.058781113 -0.019741934 0.018169051 0.0 0.07979764 -0.051090345

functional_1_1/batch_normalization_2_1/batchnorm/sub:0 f4 [32]
00000000: 645b 4ebe ecc9 0cbf 6441 2abe 8bc2 f4be
00000010: 40a2 f3be 6be7 edbe b88b 2fbe 27c1 8bbe
00000020: c333 05bf 3b63 80be 4ce6 3dbe 949d 81be
00000030: 2e1f 0fbf 94cc dbbe 73be e4be 0e24 e6be
00000040: 5409 fdbe dbac 26be 1585 05bf eed4 d5be
00000050: cf66 0fbe 41df 0fbf fdbe 78be ba7c 58be
00000060: ad91 abbe 76f5 12be 6e58 0ebf 56bb f3be
00000070: bae3 f4be 8a68 2fbe a12f 6bbe 16f8 e8be
-0.2015205 -0.5499561 -0.16626507 -0.47804675 -0.47584724 -0.4646562 -0.17143142 -0.272958
-0.5203211 -0.25075707 -0.18544883 -0.25315535 -0.5590695 -0.42929518 -0.4467655 -0.44949383
-0.4942118 -0.16276877 -0.5215619 -0.41764015 -0.14004062 -0.56200033 -0.24291606 -0.2114133
-0.3350958 -0.14351448 -0.55603683 -0.47603863 -0.47829992 -0.17129722 -0.22967388 -0.45501775

functional_1_1/batch_normalization_2_1/batchnorm/mul:0 f4 [32]
00000000: 6c58 633f 24d9 3c3f e78e 673f 3a18 413f
00000010: 0ed6 323f e296 5d3f 21af 843f 4b67 423f
00000020: 8a41 5a3f 3c69 553f 6ef3 5e3f 8588 563f
00000030: cbe0 5b3f f2dd ec3e 24c7 543f bb0f 2e3f
00000040: b7a4 503f 8748 3c3f 30c4 433f 02b7 383f
00000050: 9cdb 1e3f e519 393f 01d1 5b3f 3a36 393f
00000060: d73e 543f 5422 2c3f e7de 783f f5c0 463f
00000070: 4e57 0d3f c514 113f 608d 723f 5b20 213f
0.88806796 0.7376883 0.90452427 0.7542759 0.6985787 0.86558354 1.0365945 0.7593886
0.85256255 0.833637 0.87090194 0.8380206 0.8588988 0.4626308 0.83116364 0.6799275
0.81501335 0.7354817 0.76471233 0.7215425 0.6205385 0.72305137 0.8586579 0.7234837
0.82908386 0.6723988 0.9721512 0.7763818 0.5521134 0.56672317 0.9474697 0.62939996

functional_1_1/batch_normalization_1_2/batchnorm/sub:0 f4 [64]
00000000: 7333 dfbe 99b1 ebbe 0fef b4be 8409 d3be
00000010: d99b c4be 3d3b 98be b8f1 02bf 9b48 4bbe
00000020: c16b aebe 4941 ffbe 89f6 5ebe 90b0 cabe
00000030: ac81 69be 0197 a6be 7c47 febe 720b b7be
00000040: 83a9 a3be bc87 51be d2f8 00bf 98d4 d0be
00000050: 1238 e1be 8787 a7be 4b16 bebe b9bb 94be
00000060: 88e1 bdbe 390b 01bf c046 95be a493 a3be
00000070: d3ef b4be d3d6 f6be b51a c8be c76d ffbe
00000080: 63a7 bfbe b200 e8be 2a9b a6be 29a7 9fbe
00000090: 8c45 0fbf 16f7 19bf 39a0 19bf 0464 cebe
000000a0: 6459 92be b21a 9bbe 0e86 eabe dd26 02bf
000000b0: c03a bebe 1099 c3be 88f6 8abe 1e7b 90be
000000c0: 848f f9be 336d b9be da7b e8be d5d1 a9be
000000d0: e746 d4be 2ebd 17bf 1813 bebe 30ff aabe
000000e0: 5355 e3be 87f6 b3be 4b70 92be 08a0 07bf
000000f0: 467c e5be 2ace f7be 2215 e8be 20d5 75be
-0.4359394 -0.46033934 -0.35338637 -0.41218197 -0.38400152 -0.29732695 -0.51150084 -0.19851916
-0.34066585 -0.49854496 -0.21773733 -0.39587831 -0.22803372 -0.32537082 -0.49663913 -0.3575092
-0.31965265 -0.20461935 -0.5037967 -0.40787196 -0.4398809 -0.32720587 -0.37126383 -0.2904947
-0.3708613 -0.5040775 -0.2915554 -0.31948578 -0.3533922 -0.48210773 -0.39082876 -0.4988844
-0.37432393 -0.4531303 -0.32540256 -0.3118222 -0.55965495 -0.6014265 -0.60010105 -0.4031068
-0.28583825 -0.30293804 -0.458054 -0.5084055 -0.37154198 -0.38202715 -0.27141213 -0.2821893
-0.48742306 -0.36216125 -0.4540699 -0.33167902 -0.41460344 -0.5927304 -0.37123942 -0.33397818
-0.44401035 -0.35149023 -0.28601298 -0.52978563 -0.44821376 -0.48399478 -0.45328623 -0.24007082

functional_1_1/batch_normalization_1_2/batchnorm/mul:0 f4 [64]
00000000: 7e05 6c3f 7a9c 823f 98fc 4c3f 7388 843f
00000010: 2977 663f b2df 573f dc5f 593f dae5 833f
00000020: 8dc2 2d3f 3934 833f a38f 7a3f f7f4 5e3f
00000030: 1c9f 793f bed6 8d3f e0e0 4c3f 162d 923f
00000040: 1866 4e3f 87e2 753f 746a 6a3f 82ba 663f
00000050: 626a 713f 74aa 7c3f 8156 4f3f 2d8b 563f
00000060: 90de 8b3f 02a6 733f 4795 5e3f 18f5 843f
00000070: 25f6 4a3f cfb6 813f bed5 5e3f 5061 613f
00000080: 580d 783f fcc6 7d3f 7739 663f da9b 7a3f
00000090: 52a4 813f 0386 7c3f f2b5 8d3f a9a5 5e3f
000000a0: d08c 4a3f 9ca9 843f cb42 763f cd2a 8c3f
000000b0: d610 563f 760a 653f dba4 783f c7b7 4d3f
000000c0: 791e 6f3f cb35 673f 7aa0 733f 6267 543f
000000d0: fe78 643f 29f9 833f d1d9 7b3f 257f 7e3f
000000e0: 4917 7e3f 4b3d 4d3f 394a 753f da21 893f
000000f0: 6423 7c3f c036 563f 4d74 983f f210 993f
0.9219588 1.0204003 0.8007293 1.0354141 0.90025574 0.84325707 0.84911895 1.030452
0.67874986 1.0250312 0.9787542 0.87092537 0.97508407 1.1081159 0.8003063 1.1420009
0.8062453 0.9604878 0.91568685 0.9012834 0.9430295 0.9869759 0.8099137 0.83806115
1.0927296 0.9517518 0.8694653 1.0387297 0.79281837 1.0133914 0.87044895 0.8803911
0.9689536 0.9913175 0.89931434 0.9789406 1.0128272 0.98641986 1.107115 0.8697153
0.7912111 1.0364261 0.9619567 1.0950562 0.8361944 0.8946909 0.9712655 0.80358547
0.9340587 0.90316457 0.9516674 0.8297025 0.8924712 1.0310413 0.98379236 0.9941276
0.9925428 0.8017165 0.9581638 1.0713456 0.984915 0.8367729 1.1910492 1.1958296

functional_1_1/batch_normalization_1/batchnorm/sub:0 f4 [128]
00000000: a201 eabe 4242 c0be 14c8 113d a919 423d
00000010: 4b52 84be 7d2a 82bd 618a d93b a7da 23be
00000020: c37c 7abe 3cb5 e93d ad3a a6bd 2703 8cbe
00000030: 7cc3 99be c750 94be 3dbe 18be 669a 803d
00000040: ceb2 f5be f0ee 533d 80b6 6b3d e164 bf3c
00000050: f212 b1be 7a5f 59bd 1bc2 d4bd d37c 09be
00000060: 2a4d ddbd c0e5 553d 3d61 b5bd 80c3 50bc
00000070: c803 b1be 7c69 17bc f89b 13bd 95f9 77be
00000080: d65f e4bd 9d51 5abd 7593 0bbf d34f 93be
00000090: eb5c 34bc 4844 d6be efb0 76be 3db2 4ebe
000000a0: a75e 3b3c b3a4 8e3d cf99 da3d bc19 cdbd
000000b0: d745 113c 5119 a3bd 7d21 b8bd 09a3 043d
000000c0: 2835 acbd 4171 08bf 1e95 4cbd a226 30bd
000000d0: 0cf3 53be 786c 4bbe c747 3bbe 366a d7be
000000e0: f0aa 45be 43a0 973d 54d4 63bd 0fbc 063e
000000f0: 77b6 063c 7c36 c53b 37c4 06be 9a72 43be
00000100: 96dc 10be 87b7 aebe 6ecd a5bd 1c90 2abd
00000110: 5e27 38bd 8ed0 c6be c05d 60bd 9f04 6dbd
00000120: 627f d0be 28ec e3bc 3534 e2bc 3ae0 99bd
00000130: 2b78 a7bb d65f 01be a14c 313b bbdf 9dbe
00000140: 1ce4 86be 79bd 83be 2d79 c0be 4370 8abd
00000150: 16a6 e6bc 08a3 6ebe acba c0bd eaa7 68bc
00000160: f41d b1bd 3001 27be 883a d7bc a305 9dbe
00000170: 54b0 e2bc aed6 6fbe 1219 bebe a07b 22bd
00000180: a8d3 b5be aba3 c2bd 609e 64be 007f a0be
00000190: 5e8a a8be ed60 a3be 9997 61bd 18ff cbbe
000001a0: 66a3 06be 1e86 bfbd 1117 d9bd 5f2b 983d
000001b0: 693f 86be 7e35 d5be ebc1 18bd b115 c0be
000001c0: a4b5 9dbc 9eac 8dbe 4fb2 2a3d 7079 c9bd
000001d0: a172 2cbe aa5f 493d 889e 83bd 549c 10be
000001e0: 24b2 edbe cda6 32be 0a4e acbe a32b bebe
000001f0: fed8 f7be 2757 7c3d fdbb a1be 598e 70bd
-0.4570437 -0.3755055 0.0355912 0.047387753 -0.25844035 -0.0635576 0.0066388105 -0.16001378
-0.24461655 0.11411521 -0.0811666 -0.27346155 -0.30031955 -0.28967878 -0.1491632 0.06279449
-0.4798798 0.05174154 0.057547092 0.023363532 -0.34584767 -0.05306957 -0.10388585 -0.13426523
-0.108057335 0.05222106 -0.08856437 -0.012741923 -0.34573197 -0.009241458 -0.036037415 -0.24216302
-0.11151092 -0.05330049 -0.54521877 -0.2877184 -0.0110084815 -0.4184897 -0.24090932 -0.2018518
0.011436141 0.06965008 0.10673868 -0.10014674 0.008866749 -0.07963813 -0.089907624 0.032382045
-0.08408576 -0.5329781 -0.049946897 -0.043005593 -0.20698184 -0.19865596 -0.182891 -0.4207322
-0.19303489 0.07403614 -0.055622414 0.13157676 0.008222214 0.006018458 -0.13160788 -0.19086686
-0.14146647 -0.34124395 -0.08095823 -0.04164134 -0.04495942 -0.3883099 -0.054776907 -0.057865735
-0.40722185 -0.027822569 -0.027612785 -0.07513471 -0.0051107607 -0.12634215 0.002705373 -0.30834755
-0.2634591 -0.25730494 -0.3759245 -0.067596935 -0.028155368 -0.23304379 -0.09410605 -0.01420019
-0.08648291 -0.16309047 -0.026273027 -0.30668363 -0.02767197 -0.23421738 -0.37128502 -0.03966868
-0.35513043 -0.095038734 -0.2232604 -0.31346893 -0.32918066 -0.31909886 -0.055076215 -0.3984306
-0.13148269 -0.09351753 -0.10600103 0.074301474 -0.26220253 -0.41642374 -0.03729431 -0.3751655
-0.019251652 -0.2767076 0.041673955 -0.098376155 -0.16840602 0.049163498 -0.06426722 -0.14122134
-0.46424973 -0.17446442 -0.3365329 -0.37142667 -0.4840774 0.061606552 -0.31588736 -0.058729503

functional_1_1/batch_normalization_1/batchnorm/mul:0 f4 [128]
00000000: 45b5 be3f 58ee b33f 8ee7 b23f 6cc1 af3f
00000010: c804 c93f c8b5 ba3f 752f c23f 883e b03f
00000020: ea38 ab3f fb1f bf3f aba6 b33f 2d7f c83f
00000030: 87d4 b23f c1ac ac3f cba6 b33f 7a04 b33f
00000040: 0c7e c03f fb1f bf3f bd4a b43f 5ab7 ba3f
00000050: edb8 c33f 36bb bd3f f9a4 c43f 813d d03f
00000060: 3aa0 d23f 2d2e c93f fb1f bf3f ba51 c43f
00000070: 8782 b33f 56fd c13f ced9 ba3f f5c7 d23f
00000080: 6039 ca3f 8fcc b63f 8c8d c53f 18db ba3f
00000090: fb1f bf3f def9 be3f 3452 c73f 37c5 cc3f
000000a0: fb1f bf3f 8802 b03f fb1f bf3f 2987 af3f
000000b0: ef68 a33f c2a6 b33f 467e cc3f 5ea5 b03f
000000c0: d81d b33f 60e6 b83f fb1f bf3f ed76 c33f
000000d0: 0725 bd3f dfd6 c43f ea14 c33f 3f5d bc3f
000000e0: f051 ce3f e2a6 b33f 0b11 c13f d112 af3f
000000f0: 9fb5 b13f b6a8 b33f fb1f bf3f ce96 c73f
00000100: af89 cf3f 97b4 c33f 03dc c83f f38e b63f
00000110: dc8d bc3f 0237 c83f b904 c53f fb1f bf3f
00000120: 5675 ac3f a4fa d53f eb52 c03f 4dea c43f
00000130: 56a7 b33f 55ba c03f e79d ba3f d6d5 c93f
00000140: fc5a c13f ef8a c83f 6887 c63f b73f ba3f
00000150: fb1f bf3f 46cf bf3f b1a6 b33f 4684 c13f
00000160: 7eef c93f 8e18 a63f 2be2 cc3f 7c86 d43f
00000170: d507 c33f 86d7 bc3f ee94 ac3f 4329 b73f
00000180: 3339 b13f d2ff a23f 40de bc3f 419a ae3f
00000190: b786 bd3f 80a2 b83f e3be b03f bdaa c43f
000001a0: 91ef c63f fb1f bf3f c49f b53f fb1f bf3f
000001b0: 0fea cc3f 965b b73f 9c95 b13f 668d b33f
000001c0: 1023 ca3f 6fd5 cc3f fb1f bf3f 4ed2 be3f
000001d0: e695 bd3f 6a5b c93f 24bf ba3f 18a8 d33f
000001e0: d286 bf3f e70f b93f c671 b63f e430 ac3f
000001f0: c2a6 b93f fb1f bf3f 7ef5 9e3f 20c7 c03f
1.4899069 1.4057112 1.3976915 1.3730903 1.5704584 1.4586725 1.5170733 1.3769083
1.3376744 1.4931635 1.4035238 1.5663811 1.3971108 1.349022 1.4035276 1.3985741
1.5038466 1.4931635 1.4085308 1.4587204 1.529081 1.4822757 1.5362846 1.626877
1.6455147 1.5717217 1.4931635 1.5337441 1.4024209 1.5155437 1.4597719 1.6467272
1.579876 1.4281176 1.5433822 1.4598112 1.4931635 1.4920003 1.5571961 1.5997685
1.4931635 1.3750772 1.4931635 1.3713123 1.2766398 1.4035265 1.5976036 1.3800466
1.3993483 1.4445305 1.4931635 1.5270668 1.4776925 1.5378073 1.5240757 1.4715956
1.6118755 1.4035304 1.5083326 1.3677617 1.3883551 1.4035861 1.4931635 1.5592897
1.6213893 1.5289487 1.5692142 1.4262375 1.4730792 1.5641787 1.5392066 1.4931635
1.3473308 1.6717114 1.5025305 1.5384003 1.4035442 1.5056864 1.4579438 1.5768383
1.5105891 1.5667399 1.5510073 1.4550694 1.4931635 1.498513 1.4035245 1.5118492
1.5776212 1.2976243 1.6006521 1.6603541 1.5236765 1.4753273 1.348295 1.4309467
1.3845581 1.273432 1.4755325 1.3640825 1.4806737 1.4424591 1.3808254 1.5364605
1.554186 1.4931635 1.4189382 1.4931635 1.6008929 1.4324825 1.3873782 1.4027526
1.579195 1.6002635 1.4931635 1.490793 1.481137 1.5731022 1.4589581 1.6535673
1.4963019 1.4457978 1.4253471 1.345242 1.4504015 1.4931635 1.2418668 1.5060768
