models/Maribor/cars/Maribor_cars_model.onnx (onnx, 60482 bytes, 13 tensors)

functional_1_1/dense_3_1/Cast/ReadVariableOp:0 f4 [32, 1]
0.012311931 -0.021461925 0.019375136 -0.11403485 0.015418591 -0.05782964 -0.07496801 0.027727643
-0.012567748 0.017463993 -0.0065690074 -0.0913233 0.018873462 -0.06846126 0.00040865666 0.016464444
-0.002669657 0.039779827 0.030935442 -0.016189106 0.0074700387 -0.01460264 0.043629713 -0.0010529
-0.008438417 -0.013689373 -0.05195117 0.0069704647 -0.010748763 0.015030731 -0.014907163 0.016763454
00000000: fbb7 493c ebd0 afbc 9bb8 9e3c 1a8b e9bd
00000010: 429e 7c3c c6de 6cbd d488 99bd 1525 e33c
00000020: f5e8 4dbc a610 8f3c d440 d7bb b607 bbbd
00000030: 859c 9a3c 6b35 8cbd f840 d639 71e0 863c
00000040: 6af5 2ebb 2cf0 223d 536c fd3c 049f 84bc
00000050: 3ac7 f43b e93f 6fbc 12b5 323d 7601 8aba
00000060: 4941 0abc 6449 60bc c0ca 54bd 7f68 e43b
00000070: 941b 30bc 7543 763c 2c3d 74bc 8353 893c

functional_1_1/dense_2_1/Cast/ReadVariableOp:0 f4 [64, 32]
0.31083992 0.18489471 0.25641662 -0.08931152 -0.11959048 -0.24962099 0.12430487 -0.28512648
-0.15158696 -0.052308615 -0.15017486 -0.11264442 -0.10191081 -0.14752647 -0.111987315 -0.0067129787
0.09614014 0.20093437 0.13337147 0.102707945 -0.07477811 -0.25043574 -0.16823083 0.28400078
-0.07340505 0.16241652 -0.07259659 -0.14372584 -0.09736321 -0.0067298994 -0.21958128 0.03322212
-0.12878872 0.18150866 -0.24150667 -0.09431292 0.020863894 -0.1331989 -0.07595453 0.24770384
-0.0897685 -0.3491262 0.067038774 0.109520175 0.11767167 0.13777053 -0.06337139 0.11898878
0.29195032 0.06412303 0.028006917 0.065110974 -0.12152628 0.16616522 0.003173376 0.024072211
-0.112738214 0.11357261 -0.03376474 0.0861908 -0.17483513 -0.19794475 0.09267875 -0.18384516
0.10110807 -0.044653066 0.2649871 -0.15550008 0.0040592104 0.11214775 0.08073112 0.018924855
0.042446714 0.10235967 0.04373843 0.21605091 -0.14521016 -0.16152357 -0.05941877 0.17582604
-0.28100148 0.020445682 0.010212062 0.14724877 0.1728692 -0.1577355 -0.23018098 -0.12781544
-0.18224522 -0.16355917 0.07569523 0.11799864 -0.21249573 -0.023441548 0.11939829 -0.11964366
0.31270695 -0.022512065 -0.06560372 -0.0029296235 0.2143416 0.002264248 -0.13968994 -0.15771599
0.0051497505 0.038877804 -0.031341035 0.11039741 -0.02937126 0.19178215 0.19243398 0.121664576
0.10284856 -0.14228417 -0.23693505 -0.1235393 0.0482531 -0.22330846 -0.089709744 0.27710786
0.25517422 0.100331865 0.009565791 -0.055623006 0.038426977 -0.30710325 0.14152904 0.17118151
-0.038346127 0.229181 0.15802112 -0.2719837 0.09094585 -0.112933345 -0.05683764 -0.012228433
0.12623756 0.22408684 0.029366141 0.30977926 0.22425734 -0.20942971 -0.08073661 0.004576494
0.11759279 -0.24122512 -0.12127019 -0.04436057 -0.12991086 -0.093291655 0.031725235 -0.25577027
-0.13398513 -0.038580786 0.2613743 -0.19490543 -0.10978577 0.014354124 -0.03884478 -0.12120255
-0.091108724 -0.13893892 -0.12240068 0.22434236 0.3425525 0.062068827 -0.18338506 -0.26169562
-0.2951906 -0.18419622 0.04998571 -0.027207691 0.13893014 -0.10900579 0.25212055 -0.121255405
-0.091851205 0.050649468 -0.018951634 -0.17060946 -0.19986947 0.16405076 0.11991384 -0.22024521
0.14664923 -0.042055722 0.0761028 0.24104294 -0.0083404835 0.21158351 0.09109846 0.25300142
-0.24586962 0.14922015 0.0054452666 -0.3318744 -0.09143984 -0.19628504 -0.027117945 -0.15242468
0.17258176 0.072935775 -0.14923681 0.13252027 -0.07932794 0.12414102 -0.0789112 -0.11581133
-0.05435291 -0.034628432 0.3138784 0.0065202364 -0.26096013 -0.14156431 -0.16056281 -0.20771606
-0.24057317 0.1905713 -0.2310312 -0.08446872 -0.18175136 0.26105735 -0.17248307 -0.10906772
-0.15785007 -0.3558969 -0.29554775 -0.05213076 -0.13953044 0.008022476 0.23745205 -0.008758567
0.13033082 -0.27238953 -0.1594355 0.087886006 -0.17333244 0.044450115 0.15344118 0.19812419
0.016040001 -0.20375025 -0.03155467 0.082547754 0.012598948 0.13641912 0.13975517 -0.31463328
0.03164151 -0.20136681 0.20801939 0.08036896 0.0819402 0.0018432111 -0.15980959 0.1450476
00000000: 6926 9f3e 0a55 3d3e 0a49 833e f5e8 b6bd
00000010: dbeb f4bd a59c 7fbe 8d93 fe3d 19fc 91be
00000020: 9d39 1bbe 8f41 56bd 70c7 19be 1eb2 e6bd
00000030: 9db6 d0bd 2e11 17be 9b59 e5bd 8cf8 dbbb
00000040: 1fe5 c43d bdc1 4d3e 8892 083e 8b58 d23d
00000050: 4425 99bd 1d39 80be b444 2cbe 8d68 913e
00000060: 6355 96bd 8450 263e 85ad 94bd de2c 13be
00000070: 5d66 c7bd 7d86 dcbb ead9 60be eb13 083d
00000080: 31e1 03be 68dd 393e 864d 77be 2227 c1bd
00000090: c2ea aa3c 4b65 08be 0c8e 9bbd 13a6 7d3e
000000a0: 8cd8 b7bd abc0 b2be a04b 893d 1d4c e03d
000000b0: d8fd f03d b813 0d3e dcc8 81bd 64b0 f33d
000000c0: 837a 953e ef52 833d c36e e53c e758 853d
000000d0: c5e2 f8bd 3727 2a3e 6af8 4f3b 1633 c53c
000000e0: 4be3 e6bd c298 e83d e54c 0abd cd84 b03d
000000f0: fb07 33be 07b2 4abe 5bce bd3d e841 3cbe
00000100: bf11 cf3d 22e6 36bd 64ac 873e 6a3b 1fbe
00000110: 2003 853b b8ad e53d 5c56 a53d 4c08 9b3c
00000120: 9bdc 2d3d f2a1 d13d 1127 333d 733c 5d3e
00000130: f9b1 14be 6f66 25be 1961 73bd be0b 343e
00000140: 6ddf 8fbe b47d a73c 7e50 273c 62c8 163e
00000150: a004 313e 6a85 21be 90b4 6bbe 0de2 02be
00000160: 7e9e 3abe 0e7c 27be 1a06 9b3d 45a9 f13d
00000170: 7b98 59be 7d08 c0bc 1787 f43d bc07 f5bd
00000180: 201b a03e 396b b8bc 3e5b 86bd edfe 3fbb
00000190: 5d7c 5b3e c763 143b e10a 0fbe 4d80 21be
000001a0: 3dbf a83b 553e 1f3d 755f 00bd 0a18 e23d
000001b0: ff9b f0bc 8a62 443e 6a0d 453e 472b f93d
000001c0: 44a2 d23d f1b2 11be 1a9f 72be 2c02 fdbd
000001d0: 0ba5 453d f9aa 64be beb9 b7bd 15e1 8d3e
000001e0: 32a6 823e cb7a cd3d d6b9 1c3c f3d4 63bd
000001f0: 9b65 1d3d a33c 9dbe fdec 103e 354a 2f3e
00000200: d410 1dbd 6dae 6a3e 4ad0 213e 7341 8bbe
00000210: d141 ba3d 9949 e7bd 96ce 68bd c459 48bc
00000220: 6b44 013e 0577 653e 4391 f03c 639b 9e3e
00000230: b7a3 653e be74 56be 3c59 a5bd 6af6 953b
00000240: 7dd4 f03d b803 77be 815c f8bd 6eb3 35bd
00000250: 5a07 05be b20f bfbd 52f2 013d 52f4 82be
00000260: 6633 09be e306 1ebd dad2 853e 4a95 47be
00000270: 5dd7 e0bd 8f2d 6b3c b41b 1fbd 0b39 f8bd
00000280: 3697 babd 0146 0ebe 35ad fabd 01ba 653e
00000290: 0b63 af3e e23b 7e3d 4bc9 3bbe f8fc 85be
000002a0: 3923 97be ef9d 3cbe d1bd 4c3d aae2 debc
000002b0: b443 0e3e 6d3e dfbd f215 813e c154 f8bd
000002c0: 7c1c bcbd d175 4f3d 7540 9bbc 3fb4 2ebe
000002d0: 95aa 4cbe ecfc 273e 6395 f53d f687 61be
000002e0: 372b 163e 9f42 2cbd c9db 9b3d f6d3 763e
000002f0: 86a6 08bc 59a9 583e d491 ba3d 6789 813e
00000300: 3fc5 7bbe 2bcd 183e 356e b23b 71eb a9be
00000310: d044 bbbd f2fe 48be 7426 debc 3715 1cbe
00000320: 46b9 303e 5a5f 953d 89d1 18be 65b3 073e
00000330: b076 a2bd a63d fe3d 329c a1bd 7e2e edbd
00000340: 28a1 5ebd 8bd6 0dbd abb4 a03e b5a7 d53b
00000350: 919c 85be 3cf6 10be 946a 24be 85b3 54be
00000360: d058 76be 1f25 433e 7193 6cbe f0fd acbd
00000370: 071d 3abe 4fa9 853e 679f 30be e65e dfbd
00000380: 73a3 21be 1e38 b6be 0952 97be 1087 55bd
00000390: 11e1 0ebe b470 033c a126 733e 1880 0fbc
000003a0: 7175 053e a476 8bbe 0f43 23be 94fd b33d
000003b0: 0f7e 31be 5311 363d af1f 1d3e 11e1 4a3e
000003c0: 5266 833c e8a3 50be 783f 01bd cc0e a93d
000003d0: d16b 4e3c 74b1 0b3e fb1b 0f3e 9d17 a1be
000003e0: 879a 013d 1a33 4ebe 0903 553e 7b98 a43d
000003f0: 43d0 a73d e797 f13a 20a5 23be 5c87 143e

functional_1_1/dense_2_1/Add/ReadVariableOp:0 f4 [32]
0.056871112 0.019013362 0.032746937 0.14266798 0.0071552647 0.15970634 0.011296168 0.12010034
0.02340268 0.017841253 0.021746559 0.13754466 -0.02720782 0.1390912 -0.046814356 -0.018060492
-0.05195751 0.027791295 0.02846466 0.09714432 0.03694993 0.0032093038 -0.019625755 -0.023910439
0.098382235 0.060590062 0.060805432 -0.07769202 0.08951859 0.040818095 0.011151379 -0.023375226
00000000: aff1 683d e9c1 9b3c a721 063d 8e17 123e
00000010: b676 ea3b 0f8a 233e 9013 393c 2bf7 f53d
00000020: fab6 bf3c d227 923c d725 b23c 82d8 0c3e
00000030: efe2 debc ec6d 0e3e 69c0 3fbd 99f3 93bc
00000040: 66d1 54bd 92aa e33c b82e e93c 9af3 c63d
00000050: cf58 173d 2f53 523b 31c6 a0bc d3df c3bc
00000060: a07c c93d 492d 783d 1e0f 793d fe1c 9fbd
00000070: 8655 b73d e030 273d 46b4 363c 677d bfbc

functional_1_1/dense_1_2/Cast/ReadVariableOp:0 f4 [128, 64]
-0.026317995 -0.12572956 0.21490398 0.013538925 0.21598563 0.06288142 -0.09664908 0.15704463
-0.0311117 -0.1345443 -0.04931813 -0.10212697 0.09045862 -0.04910295 -0.08481394 -0.12688623
-0.16803229 -0.10660582 0.068000086 0.22231725 0.0030821457 0.031154744 0.0141468765 -0.032626033
-0.09745029 0.12601243 0.20198439 0.14291139 -0.1426784 0.14955102 0.031123381 0.13393287
-0.1548787 -0.095340624 0.13258697 -0.021210527 -0.068041235 -0.030995082 0.12554075 0.14998545
-0.28717315 -0.17380765 -0.15115283 0.11673167 -0.15150535 -0.034554116 -0.14088403 -0.042040266
-0.18260193 0.05269597 0.11404535 0.042355135 -0.034253135 -0.029704664 0.1344891 0.1929489
0.17872034 0.08860018 -0.11374485 0.07120414 0.074290425 -0.11391181 -0.07858723 -0.047869753
-0.013141023 -0.12447379 -0.018286634 -0.094521396 0.06680923 0.12549263 0.0116842715 0.020669961
-0.17835574 -0.089620166 0.029624414 -0.046485074 -0.024575172 0.09422661 -0.13660942 0.013564363
-0.19912851 -0.19598508 0.20202646 -0.05360274 -0.1008799 0.08672212 -0.053707954 0.27150092
-0.23400444 -0.07364841 0.1068851 -0.05664427 -0.16994135 0.15336412 0.10132667 -0.0009100622
0.013654781 -0.00085349916 -0.06902411 0.10334893 0.08268014 -0.051970765 0.14438379 -0.08326373
0.14765336 -0.021810068 -0.07554896 -0.15576431 0.006391858 0.18893038 -0.13074888 0.06580866
-0.18383043 -0.22657667 -0.08455056 -0.012010857 0.13842475 0.07476613 0.10055609 -0.02359509
-0.041669503 0.12427689 0.034002237 0.2524587 -0.05773245 -0.07680646 0.07425037 0.14168039
-0.0037174446 -0.052743223 -0.012645161 -0.029433088 0.08356261 -0.09652822 -0.011517161 -0.079342164
0.045521926 -0.20172174 0.005064197 -0.20011932 -0.048704542 0.008380041 -0.080905735 -0.069273785
0.06617215 -0.19778852 -0.0385531 -0.08368298 -0.13421363 0.07155149 0.15429325 -0.01910279
0.14981271 0.016504776 -0.017637543 0.1868793 0.045803476 -0.12569708 0.04838752 0.15033977
-0.04389104 -0.07463469 0.15122719 -0.10305665 -0.20279709 -0.01973024 0.04316438 -0.06019188
-0.13428994 -0.07964937 -0.1307966 0.08352445 0.20518976 0.07119531 -0.040038392 -0.12841359
-0.087777495 -0.07649705 -0.021143187 0.06454613 -0.011400283 0.15762715 -0.06298733 0.07948937
0.023203647 -0.2060837 -0.13351968 0.09932663 0.013578087 0.0235973 0.14532557 -0.15295647
0.0823665 0.034790386 0.16255793 0.10033698 -0.048612263 0.1649849 -0.14846504 0.26746112
-0.10010756 -0.057756677 -0.23380499 0.18209876 -0.19438681 -0.1333077 -0.13547677 0.17312688
0.071926266 -0.085394986 -0.17356366 0.023828767 -0.10621284 0.08218728 0.028626323 0.121506736
0.1026094 -0.17653388 -0.022680616 -0.08419804 0.21448596 0.0574107 0.21779452 -0.01411115
-0.045131616 0.12515421 0.15401275 -0.09538469 -0.23843566 -0.07525328 -0.040485494 0.042549603
-0.013742828 -0.15643114 0.13948666 0.004417081 0.16310911 0.09666785 0.024640972 -0.08201863
0.045578644 0.061376102 0.13125527 0.12218745 0.07716031 -0.0014709757 0.22356826 0.06243661
-0.052305877 0.09321358 0.023245879 -0.10605371 -0.0024299442 -0.011756095 -0.105398245 -0.081311464
00000000: d698 d7bc 40bf 00be ca0f 5c3e 5ed2 5d3c
00000010: 562b 5d3e f9c7 803d f4ef c5bd 4fd0 203e
00000020: f7dd febc fbc5 09be cf01 4abd f227 d1bd
00000030: 5e42 b93d 2d20 49bd eeb2 adbd 77ee 01be
00000040: a810 2cbe 2754 dabd a143 8b3d 22a7 633e
00000050: d3fd 493b 3c38 ff3c 4dc8 673c e0a2 05bd
00000060: 0594 c7bd 6709 013e ffd4 4e3e 5d57 123e
00000070: 491a 12be e723 193e 76f6 fe3c b325 093e
00000080: 8698 1ebe f241 c3bd e1c4 073e b3c1 adbc
00000090: 3459 8bbd 66e9 fdbc c18d 003e c995 193e
000000a0: 5c08 93be a2fa 31be cfc7 1abe 0411 ef3d
000000b0: 3824 1bbe 9e88 0dbd e743 10be 6a32 2cbd
000000c0: 00fc 3abe bbd7 573d 9c90 e93d 947c 2d3d
000000d0: 044d 0cbd 3257 f3bc 83b7 093e 6594 453e
000000e0: 7702 373e 0374 b53d 0ff3 e8bd 7ad3 913d
000000f0: 9425 983d 984a e9bd 57f2 a0bd 1313 44bd
00000100: 724d 57bc 1dec febd dacd 95bc 6f94 c1bd
00000110: 47d3 883d 2481 003e 636f 3f3c 0d54 a93c
00000120: e3a2 36be c78a b7bd e6ae f23c 2267 3ebd
00000130: df51 c9bc e2f9 c03d 57e3 0bbe 103d 5e3c
00000140: 58e8 4bbe 50b0 48be 06e0 4e3e 8c8e 5bbd
00000150: 1f9a cebd 5e9b b13d dffc 5bbd 2b02 8b3e
00000160: dc9e 6fbe fad4 96bd 93e6 da3d d203 68bd
00000170: 1b05 2ebe 7c0b 1d3e 5b84 cf3d 3e91 6eba
00000180: 4db8 5f3c 5cbd 5fba 835c 8dbd 9ba8 d33d
00000190: 3554 a93d 4cdf 54bd 58d9 133e 2d86 aabd
000001a0: 7132 173e 07ab b2bc 6ab9 9abd ae80 1fbe
000001b0: cb72 d13b f776 413e 09e3 05be b1c6 863d
000001c0: 0b3e 3cbe b703 68be d828 adbd 30c9 44bc
000001d0: 38bf 0d3e fc1e 993d 5af0 cd3d 7d4a c1bc
000001e0: a4ad 2abd e284 fe3d ee45 0b3d 4442 813e
000001f0: dd78 6cbd b54c 9dbd 9410 983d aa14 113e
00000200: 5fa0 73bb 4709 58bd a62d 4fbc a91d f1bc
00000210: e022 ab3d 96b0 c5bd 79b2 3cbc 257e a2bd
00000220: 3375 3a3d 2590 4ebe 90f1 a53b 14ec 4cbe
00000230: 6a7e 47bd 714c 093c e8b1 a5bd 6adf 8dbd
00000240: 4485 873d 1389 4abe dbe9 1dbd fb61 abbd
00000250: 4c6f 09be 9689 923d 0dff 1d3e 747d 9cbc
00000260: 8168 193e 0635 873c 9c7c 90bc 4a5d 3f3e
00000270: 6d9c 3b3d bcb6 00be fe31 463d abf2 193e
00000280: 17c7 33bd 13da 98bd 4ddb 1a3e 5d0f d3bd
00000290: 0aaa 4fbe 50a1 a1bc 22cd 303d c38b 76bd
000002a0: 4d83 09be 351f a3bd 8bef 05be de0e ab3d
000002b0: 441d 523e d9ce 913d 4cff 23bd da7e 03be
000002c0: b0c4 b3bd 7caa 9cbd 7a34 adbc c330 843d
000002d0: 41c8 3abc 0369 213e 80ff 80bd 53cb a23d
000002e0: 9315 be3c 9b07 53be 62b9 08be c36b cb3d
000002f0: a076 5e3c 204f c13c 3ad0 143e 9fa0 1cbe
00000300: c4af a83d 5d80 0e3d 9675 263e 797d cd3d
00000310: a71d 47bd cdf1 283e 3807 18be aaf0 883e
00000320: 3105 cdbd 4492 6cbd 936a 6fbe 1978 3a3e
00000330: 560d 47be d081 08be 6cba 0abe 2c48 313e
00000340: 144e 933d 91e3 aebd acba 31be 8c34 c33c
00000350: 1e86 d9bd ce51 a83d c081 ea3c 86d8 f83d
00000360: e124 d23d 4cc5 34be b3cc b9bc 0670 acbd
00000370: 35a2 5b3e 7b27 6b3d 8705 5f3e 7432 67bc
00000380: eedb 38bd 6d28 003e 85b5 1d3e 0c59 c3bd
00000390: 7a28 74be 641e 9abd 1ed4 25bd 7e48 2e3d
000003a0: 9929 61bc 7c2f 20be 97d5 0e3e 29bd 903b
000003b0: 1306 273e cbf9 c53d dddb c93c 62f9 a7bd
000003c0: acb0 3a3d 8265 7b3d c867 063e 6a3d fa3d
000003d0: 3906 9e3d c1cd c0ba 14ef 643e 88bd 7f3d
000003e0: b03e 56bd c3e6 be3d 246e be3c b032 d9bd
000003f0: b33f 1fbb a39c 40bc 09db d7bd a086 a6bd

functional_1_1/dense_1_2/Add/ReadVariableOp:0 f4 [64]
0.027358996 0.13682409 -0.033378474 -0.12771857 -0.049168564 0.012078859 0.097818546 0.03231678
-0.08411271 0.073605485 0.06599742 -0.027062032 -0.027331281 0.06194344 -0.0839969 -0.13494827
0.021124167 0.0053385473 -0.051957287 -0.024869414 0.06729146 -0.016513485 0.08193785 0.118848406
-0.12875812 0.069057696 0.0075346553 0.009706153 0.0367859 -0.018804865 -0.03360226 -0.0032473172
-0.021048559 -0.015391913 -0.03751558 -0.051597655 0.0480423 -0.01286991 -0.07893286 0.077051625
-0.0428916 0.09027521 0.03784439 0.00085131126 0.02641624 0.046420336 -0.07260329 0.048495676
0.0024354497 -0.047498867 0.0015030401 -0.032279294 -0.0180498 -0.10587167 0.06482725 0.04759068
0.07711724 0.029360397 -0.04642421 -0.008491839 0.019147348 0.04057802 -0.01055664 0.018101426
00000000: f91f e03c 9d1b 0c3e deb7 08bd a8c8 02be
00000010: fa64 49bd 68e6 453c 1755 c83d 9a5e 043d
00000020: 4943 acbd 79be 963d a829 873d 32b1 ddbc
00000030: dae5 dfbc 68b8 7d3d 9106 acbd e12f 0abe
00000040: 970c ad3c fbee ae3b 2ad1 54bd f1ba cbbc
00000050: 1bd0 893d 4a47 87bc 08cf a73d cb66 f33d
00000060: 2bd9 03be 1f6e 8d3d 45e5 f63b 8e06 1f3c
00000070: d0ac 163d a90c 9abc 86a2 09bd f1d0 54bb
00000080: 076e acbc 5d2e 7cbc f0a9 19bd 1058 53bd
00000090: 01c8 443d 51dc 52bc 8da7 a1bd 3ecd 9d3d
000000a0: 1aaf 2fbd 36e2 b83d b802 1b3d 882a 5f3a
000000b0: df66 d83c 4023 3e3d 09b1 94bd 67a3 463d
000000c0: 119c 1f3b 2c8e 42bd a801 c53a 4b37 04bd
000000d0: 2ddd 93bc 3fd3 d8bd 26c4 843d 72ee 423d
000000e0: a5ef 9d3d 3785 f03c 5027 3ebd 5b21 0bbc
000000f0: e6da 9c3c 2335 263d c2f5 2cbc 7149 943c

functional_1_1/dense_1/Cast/ReadVariableOp:0 f4 [25, 128]
0.07381259 0.17819087 -0.1661112 0.07403587 -0.051349565 -0.19417492 -0.19154279 0.098176554
0.047057584 0.19736351 -0.11794455 0.06544088 0.08409391 -0.13137951 0.17015173 0.036928743
0.13527389 0.10961281 0.031739026 0.052134797 -0.12072951 0.1770161 -0.04018475 0.12298833
-0.06871767 -0.056789458 0.18281557 -0.0804289 0.19736676 -0.07291509 -0.17307341 0.1579016
-0.18922646 0.09198351 -0.058894157 -0.07688021 0.04548523 0.16721441 0.091530785 0.19261001
0.13741054 0.1008503 -0.15102167 0.1513514 -0.09249564 0.13796721 0.036227375 -0.0774497
-0.0037974566 0.16983803 -0.042900965 -0.005900651 0.15013222 0.03510335 0.18059804 0.09634505
0.10149537 -0.14167644 -0.053119853 0.005573556 0.08355002 0.059553936 0.11157189 -0.04063715
0.05022247 0.06831877 -0.13312496 -0.10045567 -0.08778804 0.1431153 -0.12739465 0.016257882
0.13704778 -0.10637795 -0.024327397 0.13052951 -0.16621166 -0.090483196 0.12653877 -0.14166804
0.043120325 0.110094264 0.04151684 0.15256827 0.0914997 -0.0498112 0.072495595 0.0936936
-0.0798552 0.0357922 0.1821595 -0.08029146 -0.002875939 -0.14770103 0.04963608 -0.025144339
-0.14419606 -0.08947919 0.14260949 0.07562284 0.065643355 -0.08429326 -0.073820464 0.0999213
0.08094363 -0.081792206 -0.14120401 -0.05000402 -0.10683215 0.053456917 -0.12887137 -0.13845664
0.013677821 -0.10688758 -0.00765498 0.057053998 0.1582736 -0.124936745 -0.008045629 0.084972486
0.104762 -0.121003784 0.11399312 -0.05236788 -0.072593614 -0.12907566 -0.1545751 -0.11959799
0.115882784 0.03699392 -0.062412288 0.1761704 -0.16584504 0.27078307 0.08993084 -0.11655688
0.13066663 -0.052560244 -0.25743747 0.15895039 -0.015264638 -0.00880398 -0.09706256 -0.03644383
0.03050451 0.115891464 0.06594608 -0.04847106 0.12604438 0.054877516 -0.08267859 0.2195658
-0.22759394 0.22655386 -0.09666068 0.00874272 -0.093332484 0.16094455 0.21710834 0.062716074
0.12602167 0.16474855 0.012907758 0.03595163 -0.13066483 -0.19560613 -0.086034305 0.1430939
0.22124796 0.17279582 0.16061674 -0.043428335 -0.1007324 0.23878163 0.15110871 0.09358297
-0.06874107 -0.13513741 -0.033349223 0.08336021 0.01043994 -0.05211127 -0.1567669 0.11437581
-0.06545142 0.05597443 -0.104343 0.18777196 0.2396842 0.16522858 0.22953455 -0.063807756
-0.13934372 -0.05107666 -0.04427694 -0.005478043 -0.079159945 -0.04308315 0.12502411 0.035878677
-0.124975614 0.0007380055 -0.11179405 -0.09990595 -0.14407194 0.15727222 0.16301724 -0.14496747
-0.11237747 -0.03652269 -0.07912255 0.16552828 0.024480386 -0.075716056 -0.22226235 0.07414167
0.1668715 0.18685848 -0.086522065 0.06334049 -0.060940504 -0.13794307 0.19671692 0.1847604
0.12706526 0.107124105 -0.022257097 0.086241074 0.1450614 -0.07670954 0.2692416 -0.013682247
-0.086365625 0.058337092 0.16376019 0.12938818 0.033727836 0.29531708 -0.0056098113 -0.004705313
-0.0831399 0.026490469 0.025012374 0.085445926 -0.08764385 -0.07072789 -0.19227518 0.13139674
0.2248378 -0.043751627 0.07866048 0.15230373 0.12256698 0.17798346 0.022794852 -0.18676512
00000000: 0e2b 973d ab77 363e 0e19 2abe 1ea0 973d
00000010: ec53 52bd cad5 46be cb23 44be ca10 c93d
00000020: 74bf 403d a919 4a3e ea8c f1bd de05 863d
00000030: 6e39 ac3d 5a88 06be 413c 2e3e 9842 173d
00000040: 3d85 0a3e ae7c e03d c800 023d 4c8b 553d
00000050: 0941 f7bd b543 353e c498 24bd 4ee1 fb3d
00000060: dabb 8cbd 109c 68bd 0134 3b3e e8b7 a4bd
00000070: 831a 4a3e 8254 95bd 283a 31be f5b0 213e
00000080: 95c4 41be da61 bc3d 003b 71bd 5f73 9dbd
00000090: b84e 3a3d 413a 2b3e 7e74 bb3d 8f3b 453e
000000a0: 59b5 0c3e 9a8a ce3d 6da5 1abe ddfb 1a3e
000000b0: 5b6e bdbd 4747 0d3e 2863 143d f39d 9ebd
000000c0: c0de 78bb 05ea 2d3e ecb8 2fbd 405a c1bb
000000d0: 43bc 193e 88c8 0f3d b1ee 383e 8e50 c53d
000000e0: cedc cf3d a113 11be 3494 59bd 60a2 b63b
000000f0: 461c ab3d d4ee 733d ce7f e43d 2473 26bd
00000100: 14b6 4d3d b6ea 8b3d e951 08be b4bb cdbd
00000110: 37ca b3bd d18c 123e be73 02be 402f 853c
00000120: 4156 0c3e afdc d9bd 404a c7bc 87a9 053e
00000130: 6433 2abe 414f b9bd 6193 013e 6d11 11be
00000140: f09e 303d 1a79 e13d 900d 2a3d db3a 1c3e
00000150: 3264 bb3d d406 4cbd 9278 943d 6ee2 bf3d
00000160: 208b a3bd d89a 123d 0588 3a3e d96f a4bd
00000170: 407a 3cbb f03e 17be 344f 4b3d 80fb cdbc
00000180: 22a8 13be de40 b7bd 3908 123e 26e0 9a3d
00000190: 0670 863d f2a1 acbd 2f2f 97bd 8aa3 cc3d
000001a0: c6c5 a53d ac82 a7bd c997 10be 04d1 4cbd
000001b0: d0ca dabd a4f5 5a3d dbf6 03be 94c7 0dbe
000001c0: f018 603c e0e7 dabd a0d6 fabb 74b1 693d
000001d0: 7912 223e d6de ffbd d0d1 03bc 0e06 ae3d
000001e0: 768d d63d d5d0 f7bd 3a75 e93d b47f 56bd
000001f0: f6ab 94bd 692c 04be ef48 1ebe caef f4bd
00000200: f453 ed3d f086 173d 07a4 7fbd 0366 343e
00000210: 48d3 29be 14a4 8a3e a92d b83d 60b5 eebd
00000220: 79cd 053e 6949 57bd d8ce 83be e4c3 223e
00000230: 8818 7abc 923e 10bc bcc8 c6bd 2046 15bd
00000240: 98e4 f93c 8158 ed3d bd0e 873d 9789 46bd
00000250: c711 013e 3fc7 603d 6553 a9bd dbd5 603e
00000260: 630e 69be bcfd 673e 09f6 c5bd a03d 0f3c
00000270: 1a25 bfbd a6ce 243e a651 5e3e 4971 803d
00000280: d30b 013e d8b3 283e 107b 533c 0442 133d
00000290: 00cd 05be f94c 48be c132 b0bd 3587 123e
000002a0: d38e 623e 63f1 303e b778 243e e9e1 31bd
000002b0: ca4c cebd 2c83 743e 3ebc 1a3e 6ea8 bf3d
000002c0: 1ec8 8cbd 7661 0abe 3299 08bd c2b8 aa3d
000002d0: 480c 2b3c a172 55bd 8187 20be dd3d ea3d
000002e0: 650b 86bd 7245 653d c8b1 d5bd 4b47 403e
000002f0: c66f 753e ae31 293e 1b0b 6b3e a4ad 82bd
00000300: 1fb0 0ebe c335 51bd bd5b 35bd 2881 b3bb
00000310: 9c1e a2bd f577 30bd 5206 003e 85f5 123d
00000320: 37f3 ffbd b676 413a 47f4 e4bd 7e9b ccbd
00000330: 9887 13be f80b 213e feed 263e 5a72 14be
00000340: 2926 e6bd d198 15bd 010b a2bd 3f80 293e
00000350: 178b c83c 0511 9bbd be98 63be 96d7 973d
00000360: 5de0 2a3e d457 3f3e 7b32 b1bd a9b8 813d
00000370: c09c 79bd f340 0dbe 2970 493e d531 3d3e
00000380: 651d 023e e263 db3d 8454 b6bc 299f b03d
00000390: fa8a 143e e419 9dbd 09da 893e 812b 60bc
000003a0: 76e0 b0bd e0f2 6e3d c0b0 273e 567e 043e
000003b0: 3326 0a3d cd33 973e 82d2 b7bb 072f 9abb
000003c0: 4045 aabd 8a02 d93c c0e6 cc3c 46fe ae3d
000003d0: 9e7e b3bd c9d9 90bd c9e3 44be de8c 063e
000003e0: e13b 663e e834 33bd bf18 a13d 82f5 1b3e
000003f0: 6604 fb3d 4c41 363e 45bc ba3c 5b3f 3fbe

functional_1_1/dense_1/Add/ReadVariableOp:0 f4 [128]
-0.088777326 0.060031746 0.03241823 0.08055948 0.024140682 0.060030416 -0.06003274 -0.054216284
0.038986467 0.0092424 0.07407865 -0.023717824 -0.060033355 0.052520547 0.034058966 0.010118841
0.027444601 0.08257302 -0.07142591 0.0039446875 0.0 -0.08090858 0.0 0.030268656
-0.055564657 0.10156455 0.042817596 0.063226365 -0.03289011 0.017098062 0.055201367 0.10413716
-0.0600329 -0.12554683 0.0147724645 0.100212574 0.0 -0.08971473 0.06317267 0.087274045
-0.0003328363 -0.043048088 -0.021489913 -0.050172966 -0.1020178 0.11690483 0.04336142 0.07455188
-0.011409261 0.054277852 -0.010665907 -0.05927731 -0.022452457 0.0723992 0.09165956 -0.033477835
0.0798234 0.04185539 -0.01138871 0.040556274 0.03282168 -0.055671383 -0.020213261 0.0
0.08496911 0.040489845 0.021101955 -0.023256889 0.034801986 -0.0015872256 0.02249922 0.0033657774
-0.066775724 0.020023644 0.0 -0.014326257 0.02392649 -0.06531985 0.084342055 0.019250054
-0.06199835 -0.034474123 0.085579485 0.045024104 0.05520097 -0.0056665665 0.031029293 0.0
0.040442314 -0.056521337 -0.107045695 0.029916368 0.0 -0.012978728 -0.015727319 0.043391205
-0.04083448 0.12006729 -0.10502208 -0.06326938 0.040887926 -0.06003315 -0.0074816085 -0.07204961
0.05038388 -0.0028833053 -0.00671232 -0.027203571 0.04614222 0.07600215 -0.05395215 -0.1118297
-0.117170185 -0.00033031954 0.011941693 0.014148285 0.0 0.051230785 0.03066515 0.11144573
0.0027176114 0.06099358 -0.026329262 0.030517792 0.0 0.035911668 -0.002831268 0.0
00000000: e3d0 b5bd d9e3 753d fac8 043d 5efc a43d
00000010: aec2 c53c 74e2 753d e4e4 75bd e511 5ebd
00000020: 46b0 1f3d 6f6d 173c 8cb6 973d e24b c2bc
00000030: 89e5 75bd c91f 573d 6a81 0b3d 7fc9 253c
00000040: 80d3 e03c 0b1c a93d bf47 92bd 7042 813b
00000050: 0000 0000 66b3 a5bd 0000 0000 f9f5 f73c
00000060: c497 63bd 1301 d03d 8161 2f3d d37c 813d
00000070: c8b7 06bd 3c11 8c3c d41a 623d dd45 d53d
00000080: 0fe5 75bd 598f 00be 3508 723c 403c cd3d
00000090: 0000 0000 5bbc b7bd ac60 813d bcbc b23d
000000a0: 8880 aeb9 3153 30bd 9d0b b0bc 2b82 4dbd
000000b0: b5ee d0bd cd6b ef3d bf9b 313d a8ae 983d
000000c0: e9ed 3abc 7452 5e3d 0ec0 2ebc c4cc 72bd
000000d0: 37ee b7bc 0846 943d 02b8 bb3d 0e20 09bd
000000e0: 737a a33d 8f70 2b3d b697 3abc 561e 263d
000000f0: 0770 063d ad07 64bd 4896 a5bc 0000 0000
00000100: 4904 ae3d aed8 253d 02de ac3c 3b85 bebc
00000110: 878c 0e3d 740a d0ba 4950 b83c 6094 5c3b
00000120: b6c1 88bd a008 a43c 0000 0000 adb8 6abc
00000130: 7d01 c43c 6ac6 85bd 87bb ac3d 4ab2 9d3c
00000140: fbf1 7dbd bd34 0dbd 4c44 af3d 326b 383d
00000150: 6a1a 623d 9bae b9bb 2531 fe3c 0000 0000
00000160: d7a6 253d eb82 67bd c63a dbbd 2c13 f53c
00000170: 0000 0000 bba4 54bc 94d6 80bc faba 313d
00000180: 0e42 27bd d7e5 f53d d115 d7bd 6093 81bd
00000190: 197a 273d 52e5 75bd 4828 f5bb bf8e 93bd
000001a0: 545f 4e3d d6f5 3cbb 05f3 dbbb 06da debc
000001b0: a0ff 3c3d 04a7 9b3d eefc 5cbd f806 e5bd
000001c0: ecf6 efbd bd2e adb9 17a7 433c 35ce 673c
000001d0: 0000 0000 5fd7 513d 7b35 fb3c a93d e43d
000001e0: f419 323b 67d4 793d 77b0 d7bc 7300 fa3c
000001f0: 0000 0000 1d18 133d cb8c 39bb 0000 0000

functional_1_1/batch_normalization_2_1/batchnorm/sub:0 f4 [32]
-0.3786651 -0.51888204 -0.28409973 -0.5412297 -0.31648952 -0.4481417 -0.37688074 -0.29319438
-0.22184701 -0.18897912 -0.5481891 -0.39717668 -0.23129417 -0.35393244 -0.3744306 -0.29823095
-0.14179252 -0.20848785 -0.23228869 -0.44302124 -0.20132954 -0.48853725 -0.23070727 -0.40039378
-0.4329738 -0.40113512 -0.5427096 -0.18893859 -0.42045993 -0.24271362 -0.5128441 -0.18763967
00000000: 64e0 c1be 74d5 04bf 8575 91be 088e 0abf
00000010: ea0a a2be d472 e5be 83f6 c0be 931d 96be
00000020: dd2b 63be be83 41be 1f56 0cbf be5a cbbe
00000030: 61d8 6cbe a236 b5be 5eb5 bfbe bab1 98be
00000040: 0f32 11be d77d 55be 16dd 6dbe aed3 e2be
00000050: 5529 4ebe 8e21 fabe 873e 6cbe 6a00 cdbe
00000060: beae ddbe 9561 cdbe 04ef 0abf 1e79 41be
00000070: 8646 d7be eb89 78be c049 03bf 9d24 40be

functional_1_1/batch_normalization_2_1/batchnorm/mul:0 f4 [32]
0.9031465 0.92039895 0.8579169 0.484533 0.67569375 0.6639624 0.62044746 0.8237551
0.79762036 0.7107477 0.8113231 0.551804 0.7505292 0.54995793 0.83363163 0.6405172
0.7792829 0.68369496 0.84269994 0.9380541 0.8104169 0.76684064 0.6802789 0.84794724
0.9791185 0.7221786 0.64001805 0.8482454 0.991808 0.8223211 0.8442872 0.75617754
00000000: 9c34 673f 449f 6b3f 71a0 5b3f b614 f83e
00000010: 44fa 2c3f 71f9 293f a5d5 1e3f 9de1 523f
00000020: d930 4c3f 90f3 353f dfb2 4f3f 0743 0d3f
00000030: af22 403f 0bca 0c3f e268 553f eff8 233f
00000040: 167f 473f a206 2f3f 2fbb 573f 5024 703f
00000050: 7b77 4f3f ab4f 443f c226 2e3f 1213 593f
00000060: 83a7 7a3f b2e0 383f 39d8 233f 9c26 593f
00000070: 21e7 7d3f a383 523f 3523 583f da94 413f

functional_1_1/batch_normalization_1_2/batchnorm/sub:0 f4 [64]
-0.47439423 -0.48111346 -0.44494802 -0.34718025 -0.36402535 -0.494777 -0.45815906 -0.5094167
-0.38765922 -0.4561446 -0.38233334 -0.41105902 -0.52086854 -0.43686703 -0.28852987 -0.35988453
-0.22748224 -0.5455751 -0.5230985 -0.27180478 -0.5039458 -0.47060898 -0.46032095 -0.31432897
-0.35112196 -0.47371727 -0.3308423 -0.62180114 -0.31472236 -0.40645665 -0.29820916 -0.35494703
-0.39408118 -0.4002667 -0.40484777 -0.49871847 -0.47865662 -0.17603295 -0.32437676 -0.3294867
-0.45350036 -0.5037556 -0.47893074 -0.3412979 -0.39580658 -0.5948088 -0.34782022 -0.5429332
-0.5937861 -0.47045445 -0.21964017 -0.4498288 -0.35213682 -0.29338124 -0.38378733 -0.50638837
-0.52464855 -0.39503953 -0.46159694 -0.47358906 -0.47876522 -0.468409 -0.39067793 -0.42306754
00000000: cde3 f2be 8154 f6be 3ad0 e3be 9cc1 b1be
00000010: 8861 babe 6953 fdbe d393 eabe 2269 02bf
00000020: 457b c6be c98b e9be 32c1 c3be 5476 d2be
00000030: a457 05bf 09ad dfbe 30ba 93be c942 b8be
00000040: 1bf1 68be cfaa 0bbf c9e9 05bf ff29 8bbe
00000050: 9802 01bf a9f3 f0be 30af ebbe baef a0be
00000060: 42c6 b3be 128b f2be 2964 a9be 5c2e 1fbf
00000070: 4a23 a1be 161b d0be dfae 98be 9ebb b5be
00000080: 02c5 c9be c2ef ccbe 3548 cfbe 0758 ffbe
00000090: 7b12 f5be fb41 34be b614 a6be 7bb2 a8be
000000a0: 3331 e8be 21f6 00bf 6936 f5be 99be aebe
000000b0: 29a7 cabe 6445 18bf 7e15 b2be acfd 0abf
000000c0: 5e02 18bf 68df f0be 5ae9 60be f64f e6be
000000d0: 474b b4be 1136 96be c67f c4be aba2 01bf
000000e0: 5e4f 06bf 9f42 cabe 6f56 ecbe 447a f2be
000000f0: b720 f5be 4ed3 efbe f006 c8be 4f9c d8be

functional_1_1/batch_normalization_1_2/batchnorm/mul:0 f4 [64]
0.7523438 0.83314633 0.95131487 0.91747504 0.77978826 0.81438565 0.6779092 0.9056169
0.73548263 0.55293846 0.86494446 0.9942039 0.7831401 0.87592894 0.8890526 1.1005398
0.8076561 0.8190684 1.0480555 0.8135072 0.8363478 0.8476914 0.9178461 0.9636082
0.9464707 0.53022814 0.8693667 0.6202588 0.8535877 0.81946707 0.9924842 0.9775389
0.64784867 0.6360341 1.148988 0.9805111 0.60908514 0.76666915 0.67109776 0.6857978
0.8170069 0.87816995 0.7155686 0.9096693 0.81752044 0.91157 0.89904416 0.9367798
0.78848505 0.9940082 1.1207271 0.82860816 0.82403034 0.95014966 0.9522305 0.6780569
1.1509727 0.8146506 0.79965967 0.94294757 1.0444366 0.8619253 0.62356234 0.6001363
00000000: 9a99 403f 1449 553f 5f89 733f a5df 6a3f
00000010: 34a0 473f 947b 503f 758b 2d3f 82d6 673f
00000020: 9748 3c3f 608d 0d3f 006d 5d3f 2684 7e3f
00000030: df7b 483f e13c 603f f498 633f 7dde 8c3f
00000040: 8dc2 4e3f 77ae 513f af26 863f 0242 503f
00000050: e41a 563f 4e02 593f f6f7 6a3f 07af 763f
00000060: e74b 723f 08bd 073f d18e 5e3f 48c9 1e3f
00000070: b984 5a3f 98c8 513f 7213 7e3f fd3f 7a3f
00000080: 69d9 253f 21d3 223f 0a12 933f c702 7b3f
00000090: 01ed 1b3f 6e44 443f 10cd 2b3f 7290 2f3f
000000a0: 5d27 513f bfcf 603f 812f 373f 16e0 683f
000000b0: 0549 513f a75c 693f c227 663f cdd0 6f3f
000000c0: 28da 493f 5277 7e3f fc73 8f3f aa1f 543f
000000d0: a7f3 523f 023d 733f 61c5 733f 2395 2d3f
000000e0: 1353 933f f18c 503f 7fb6 4c3f 0365 713f
000000f0: 19b0 853f 23a7 5c3f c8a1 1f3f 88a2 193f

functional_1_1/batch_normalization_1/batchnorm/sub:0 f4 [128]
-0.015136548 -0.5002959 -0.15226348 -0.3602399 -0.087061286 -0.3941235 0.07176631 0.015111551
-0.3505031 -0.4605874 -0.11816912 0.049004667 -0.08028787 -0.14737761 -0.07543329 -0.25302845
-0.11896348 -0.033977628 0.0471972 -0.13719004 0.09352906 -0.06679338 -0.03360853 -0.40581262
-0.07726451 -0.35620126 -0.23065239 -0.34617066 -0.13328324 -0.1463289 -0.19736029 -0.5333012
-0.029674983 -0.045521915 -0.30456746 -0.28702918 0.021760568 -0.07515529 -0.13461387 -0.32321134
-0.33006895 -0.07969841 -0.058189802 -0.22906175 0.037803844 -0.32300973 -0.11676132 -0.3680438
0.00924859 -0.20450601 -0.06820776 0.041645724 -0.07904245 -0.1534978 -0.21770066 -0.033081952
-0.29463384 -0.1409017 -0.49045023 -0.07727323 -0.13593152 -0.17323335 -0.123425 -0.09512778
-0.16558641 -0.056912728 0.009898819 -0.1453112 -0.1280947 -0.29443854 -0.054852784 0.034915473
-0.116097055 -0.18159509 -0.08205476 -0.11973002 -0.061706908 0.049397666 -0.4457329 -0.052494287
-0.093595 0.024738414 -0.06758691 -0.096394904 -0.1715884 -0.18058726 -0.09430525 -0.031140074
-0.14555383 0.014159694 -0.07721965 -0.0614567 -0.13384226 -0.016473422 0.054902177 -0.14138027
-0.2863738 -0.37132642 0.07416757 -0.020693209 -0.20711009 -0.051889364 -0.4220764 -0.09533421
-0.15894763 -0.36296502 -0.142066 -0.12541819 -0.08167903 -0.32364362 0.013642944 0.0037497208
-0.04966584 -0.46357918 -0.102395825 -0.12322092 0.076877296 -0.094790794 -0.10009042 -0.49209145
-0.12577237 -0.25480914 -0.08801047 -0.086244054 0.102923125 -0.19101997 -0.16370493 -0.142413
00000000: 49ff 77bc 6413 00bf f5ea 1bbe 5d71 b8be
00000010: 304d b2bd 8eca c9be 37fa 923d 7096 773c
00000020: 2475 b3be 1dd2 ebbe a702 f2bd 1eb9 483d
00000030: f76d a4bd 28ea 16be c57c 9abd f28c 81be
00000040: 20a3 f3bd 202c 0bbd da51 413d 8c7b 0cbe
00000050: 2a8c bf3d f8ca 88bd 19a9 09bd acc6 cfbe
00000060: db3c 9ebd 0360 b6be 2430 6cbe 483d b1be
00000070: 677b 08be 3ed7 15be d118 4abe 6d86 08bf
00000080: f318 f3bc 3075 3abd 44f0 9bbe 7df5 92be
00000090: 3843 b23c 04eb 99bd 38d8 09be f57b a5be
000000a0: ccfe a8be ec38 a3bd 6e58 6ebd 2a8f 6abe
000000b0: 34d8 1a3d 8861 a5be 8f20 efbd 3d70 bcbe
000000c0: 6687 173c 066a 51be 83b0 8bbd b594 2a3d
000000d0: 02e1 a1bd 872e 1dbe ecec 5ebe f180 07bd
000000e0: 3fda 96be 8948 10be 4b1c fbbe 6d41 9ebd
000000f0: a231 0bbe 1564 31be 3fc6 fcbd 5bd2 c2bd
00000100: 7c8f 29be 521d 69bd a82e 223c 76cc 14be
00000110: 422b 03be a6c0 96be 50ad 60bd 8703 0f3d
00000120: 4bc4 edbd 10f4 39be 530c a8bd 0335 f5bd
00000130: 62c0 7cbd 3555 4a3d 1a37 e4be 4004 57bd
00000140: bcae bfbd 37a8 ca3c 026b 8abd b16a c5bd
00000150: dfb4 2fbe deeb 38be 1c23 c1bd 7819 ffbc
00000160: 100c 15be 10fe 673c 5625 9ebd 05ba 7bbd
00000170: f20d 09be 45f3 86bc 1be1 603d fdc5 10be
00000180: 969f 92be 7f1e bebe 2be5 973d ce84 a9bc
00000190: ab14 54be f189 54bd 661a d8be 953e c3bd
000001a0: 2bc3 22be 8dd6 b9be c079 11be a06d 00be
000001b0: 5647 a7bd 9eb4 a5be a886 5f3c e0bd 753b
000001c0: 686e 4bbd 405a edbe e7b4 d1bd 405b fcbd
000001d0: d871 9d3d ad21 c2bd 35fc ccbd 69f3 fbbe
000001e0: 79ca 00be 5876 82be d53e b4bd b9a0 b0bd
000001f0: 5cc9 d23d bd9a 43be 44a2 27be b7d4 11be

functional_1_1/batch_normalization_1/batchnorm/mul:0 f4 [128]
1.6071544 1.5007011 1.3483859 1.5148538 1.5269595 1.2399275 1.4035375 1.4027297
1.4167852 1.5006065 1.368585 1.6063939 1.4035311 1.5662199 1.6459299 1.4191955
1.3575357 1.6203547 1.4600602 1.6522859 1.4931635 1.4464972 1.4931635 1.4683694
1.4101982 1.5297596 1.5261397 1.5294076 1.4011515 1.2999169 1.4005055 1.6463659
1.403837 1.431482 1.6407942 1.4040982 1.4931635 1.3640016 1.4709408 1.526981
1.4513865 1.3695674 1.4246933 1.4465454 1.4944854 1.4282203 1.4672366 1.3602285
1.3856126 1.5069113 1.3928962 1.5873752 1.5052062 1.5529511 1.5200396 1.4224637
1.5817133 1.4020913 1.4105564 1.6702617 1.3606755 1.6292653 1.4281563 1.4931635
1.463813 1.5756843 1.5455217 1.4765644 1.4093068 1.6012009 1.3596874 1.583266
1.5283607 1.5343928 1.4931635 1.4476266 1.4413599 1.5201641 1.4324503 1.3954571
1.532105 1.4168909 1.4487982 1.3269165 1.4833626 1.4788636 1.4424015 1.4931635
1.5518391 1.5249511 1.3882926 1.6688297 1.4931635 1.5548913 1.6026022 1.4497261
1.5369633 1.4740566 1.4022683 1.4194411 1.5723463 1.4035627 1.2934326 1.6231569
1.4951192 1.6719555 1.4185333 1.4505156 1.5251261 1.3799132 1.4851816 1.4168351
1.5052329 1.2311206 1.6412065 1.4819233 1.4931635 1.441074 1.6243025 1.5175681
1.4601899 1.3905967 1.3523287 1.5866543 1.4931635 1.5111971 1.465386 1.4931635
00000000: 3cb7 cd3f f916 c03f e997 ac3f bbe6 c13f
00000010: 6973 c33f f2b5 9e3f 1ea7 b33f a68c b33f
00000020: 3859 b53f e013 c03f cb2d af3f 519e cd3f
00000030: e8a6 b33f e579 c83f d5ad d23f 33a8 b53f
00000040: bbc3 ad3f c867 cf3f 41e3 ba3f 1b7e d33f
00000050: fb1f bf3f d226 b93f fb1f bf3f 87f3 bb3f
00000060: 6081 b43f 2acf c33f 8c58 c33f a1c3 c33f
00000070: ef58 b33f ad63 a63f c443 b33f 1ebc d23f
00000080: eeb0 b33f cd3a b73f 8b05 d23f 7db9 b33f
00000090: fb1f bf3f 9b97 ae3f ca47 bc3f 1d74 c33f
000000a0: 08c7 b93f fc4d af3f 5a5c b63f 6628 b93f
000000b0: 4c4b bf3f eccf b63f 69ce bb3f f81b ae3f
000000c0: c15b b13f 78e2 c03f 6c4a b23f 1c2f cb3f
000000d0: 99aa c03f 1ac7 c63f a890 c23f 4a13 b63f
000000e0: 9575 ca3f ba77 b33f 1d8d b43f 23cb d53f
000000f0: 9d2a ae3f c48b d03f d3cd b63f fb1f bf3f
00000100: 395e bb3f 06b0 c93f a8d3 c53f 1000 bd3f
00000110: 2a64 b43f 27f4 cc3f 3d0a ae3f 76a8 ca3f
00000120: 53a1 c33f fc66 c43f fb1f bf3f d44b b93f
00000130: 7b7e b83f bd94 c23f 885a b73f 579e b23f
00000140: 041c c43f ae5c b53f 3872 b93f 66d8 a93f
00000150: d3de bd3f 674b bd3f 9da0 b83f fb1f bf3f
00000160: aaa2 c63f 9931 c33f 92b3 b13f 369c d53f
00000170: fb1f bf3f ae06 c73f 1222 cd3f a090 b93f
00000180: 37bb c43f e3ad bc3f 877d b33f 3fb0 b53f
00000190: a542 c93f f1a7 b33f 338f a53f 9bc3 cf3f
000001a0: 1160 bf3f a302 d63f 8092 b53f 7faa b93f
000001b0: 5537 c33f ffa0 b03f 6e1a be3f da5a b53f
000001c0: 79ab c03f 5c95 9d3f 0e13 d23f aaaf bd3f
000001d0: fb1f bf3f 1d75 b83f 25e9 cf3f ac3f c23f
000001e0: 81e7 ba3f 13ff b13f 1b19 ad3f 7d17 cb3f
000001f0: fb1f bf3f e86e c13f c591 bb3f fb1f bf3f
