models/Maribor/cars/Maribor_cars_model.onnx (onnx, 60482 bytes, 13 tensors)

functional_1_1/dense_3_1/Cast/ReadVariableOp:0 f4 [32, 1]
000000 9b ad cb bb fc a5 b5 bd 88 03 ea 3c db 9a 9e 3b
       -0.0062157637 -0.0886955 0.028566137 0.0048402376
000010 72 f7 8c bc 6b b7 36 bd 15 31 03 be 78 74 86 3c
       -0.017207835 -0.044608515 -0.12811692 0.016412959
000020 4e 24 07 be 72 4f c8 3c 33 67 91 3c c8 18 4e bd
       -0.13197443 0.024451945 0.017749405 -0.050316602
000030 a0 08 02 bc ab 3c ca bc 5d 9c c5 3b cf 11 b8 3c
       -0.007936627 -0.024687132 0.006030603 0.02246943
000040 7a dd 8a 3d 59 00 f2 3c 78 90 2c 3d 67 80 4d 3d
       0.067805246 0.029541181 0.042129964 0.050171282
000050 45 fe 04 bd a6 36 e1 bb 55 02 55 3d 63 00 89 3d
       -0.032469053 -0.0068729697 0.052004177 0.06689527
000060 ea 2d 02 3e 01 a8 8f bc d3 c7 9b bd 76 e6 9c bc
       0.12712827 -0.017536165 -0.07606473 -0.019152861
000070 f5 5b 15 bd 31 7e 00 3d 16 37 dd bb 94 39 e2 bc
       -0.03646465 0.031370346 -0.0067509515 -0.027615346

functional_1_1/dense_2_1/Cast/ReadVariableOp:0 f4 [64, 32]
000000 84 b4 3f 3e 46 62 81 3e f6 fa 8a ba c8 a0 d7 3c
       0.18721205 0.2527029 -0.0010603357 0.026321784
000010 f6 90 15 3e a1 64 b0 3d 7f bb f4 3d 27 9e 21 3d
       0.1460608 0.086129434 0.119498245 0.039457466
000020 7b 23 7c 3c b9 43 d2 3d 84 56 d2 bd 22 4d fc 3d
       0.015389319 0.10266823 -0.10270408 0.123193994
000030 1e a9 8b bd 97 eb de bd 6a 72 b8 3d 2f 60 33 3d
       -0.06819366 -0.10884779 0.09006198 0.0437929
000040 24 71 e4 3d 30 ed 0c 3e f1 2d f1 bb 16 3d 26 be
       0.11154392 0.13762355 -0.007360213 -0.1623424
000050 1f cb 65 be f2 e4 31 3d 0e 27 f9 3d 61 19 7a be
       -0.22440766 0.04343123 0.12165652 -0.24423744
000060 4d cd 26 bd 72 79 1f 3d 5b aa a0 be 96 95 06 3e
       -0.040723134 0.03893418 -0.3137997 0.13143
000070 fc 04 4f be cc 77 53 3e e8 f2 26 bd d4 72 b9 3d
       -0.20216745 0.20651168 -0.040758997 0.09055105
000080 b9 a4 0e 3e 3c 85 65 3e d3 43 a1 3d 23 d6 8c bd
       0.13930024 0.22414106 0.078742646 -0.06876781
000090 84 e3 20 be 1c e4 59 3e f3 a9 e9 3c 4a dd a5 3d
       -0.1571179 0.21278423 0.02852342 0.08098848
0000a0 44 38 2f 3e 16 1c 90 ba 07 8f 0d be 64 4a f4 3d
       0.17111307 -0.0010994698 -0.13824092 0.119282514
0000b0 95 77 8f 3d 2e 34 34 3e 12 c6 7c 3e dd eb bb 3d
       0.0700523 0.1759803 0.24684933 0.09175847
0000c0 f6 16 28 3e a3 84 e4 3d 18 36 a9 3d 12 10 80 3e
       0.16415009 0.11158111 0.08262271 0.2501226
0000d0 19 24 a2 3e 44 b6 42 be fc 05 d5 3d ae c3 ed 3d
       0.31668165 -0.19014841 0.10401532 0.116095886
0000e0 77 74 ba 3d ed 0e ee bc f7 b9 f9 bd 9f bb 1a bc
       0.09104245 -0.029059852 -0.12193673 -0.009444146
0000f0 f7 4a dd 3c 5a 86 c0 bc f6 5a 0d bc 22 96 8c be
       0.027013285 -0.023501564 -0.008627644 -0.27458292
000100 aa f5 ab 3c cd b6 4b be 5d 89 f8 bd 56 04 67 3b
       0.020991165 -0.19893952 -0.12135575 0.0035250387
000110 72 61 15 be 44 a6 90 be db cc b5 bd b5 7f 1d 3d
       -0.14587954 -0.2825185 -0.08876964 0.03845187
000120 b6 9b 79 3c 7d 27 fd 3d 96 97 f6 bd 18 34 6b be
       0.015234878 0.123610474 -0.120406315 -0.22969091
000130 ba 79 54 bd 90 ca 4a be 81 15 fd 3d 23 24 1a be
       -0.0518739 -0.19803834 0.12357617 -0.15052848
000140 fb 68 5d 3e 91 3a 9c 3d bf 8e 88 be 65 00 cc bd
       0.21622078 0.07628358 -0.26671407 -0.09961013
000150 21 e8 9b be 35 8a b2 3d 36 8f 02 3e 01 5a ad bd
       -0.30450538 0.08717767 0.12749943 -0.084644325
000160 cb 51 71 be 5e 10 6c 3d 66 33 40 3e 55 3b d8 bb
       -0.23566358 0.057632796 0.18769607 -0.00659887
000170 34 11 19 3e ed 41 d5 3d 99 99 c8 3d ca 51 28 be
       0.14947969 0.10412965 0.097949214 -0.1643745
000180 5b cc 05 3e 0e 0f d1 3c 95 c2 7a 3e 6c bc e3 bd
       0.13066237 0.025519874 0.2448829 -0.11119923
000190 72 e2 d0 3d 6c b9 60 be 0f c7 e9 bd ea bd 04 3d
       0.10199441 -0.21945733 -0.114149205 0.03240768
0001a0 41 5f 75 3d fd 72 7a 3d ce 97 56 3d 32 7d 4c be
       0.059905294 0.061144818 0.052390866 -0.19969633
0001b0 ff a5 5f be cb b9 f7 3d 4f 06 62 be 01 d7 f9 3d
       -0.21840666 0.12095984 -0.22072719 0.12199212
0001c0 f6 1d 73 bd 34 39 1a be 45 1e 0d be e2 86 5d 3e
       -0.059354745 -0.15060884 -0.13781078 0.21633485
0001d0 07 a2 04 3e a8 fe 53 3e 2e 78 84 3d 11 b7 43 3d
       0.12952434 0.20702612 0.06468235 0.047782008
0001e0 42 7f 53 3e fd f1 46 3e 3c 0d 3f be 80 b9 92 3d
       0.20654014 0.19428249 -0.18657392 0.071642876
0001f0 ea 70 d6 3c 22 51 aa bd 43 5a 34 3d 38 64 ce bc
       0.026176888 -0.08316256 0.044031393 -0.025194272
000200 bb 95 3c bd c9 96 81 bd 09 46 45 be 6e e6 a6 bd
       -0.04604123 -0.06327588 -0.19264998 -0.0814942
000210 8c 6a 55 3e 85 9f 32 be 2c 16 3a bd 9a 40 46 3d
       0.20841426 -0.17443664 -0.0454313 0.048401453
000220 f8 05 9c 3e 5f 12 2a be 1e 94 0c be 2e 09 e4 3d
       0.30473304 -0.1660857 -0.13728377 0.111345634
000230 f7 42 50 3e 02 b4 50 bd 0e 84 48 be 4a c5 3b 3e
       0.20338045 -0.05095292 -0.19581625 0.18336979
000240 1e 98 fe 3d 92 21 29 3e 9d 55 c2 3d f3 46 0f 3e
       0.12431358 0.16516712 0.09488986 0.13991909
000250 06 41 78 bd ff a5 60 3d 6b cc 73 bd 29 5e 81 3e
       -0.060608886 0.054845806 -0.05952112 0.2526715
000260 0e 1b 99 3d 13 40 30 be fd 87 12 be 2a 91 43 3e
       0.074758634 -0.17211942 -0.14309688 0.19098344
000270 fc da 7c bc 29 46 28 3d b1 f8 61 be 9b c2 dc bc
       -0.015433069 0.041082535 -0.22067524 -0.026948264
000280 d3 bf 5a 3e f8 05 1d be 1d e3 9e bc 20 d4 77 be
       0.21362238 -0.15334308 -0.019395405 -0.24202013
000290 1b 58 2d 3e b1 75 b1 3e 49 0b 05 3e 20 5f 0f be
       0.16928141 0.34660104 0.12992586 -0.14001131
0002a0 e3 28 28 be 44 4c 30 3d e4 7c 3d 3e d9 c9 0d bd
       -0.16421847 0.043041483 0.18504673 -0.034616325
0002b0 34 f5 49 be d7 52 ab bc 62 b1 ef bd d1 ca 7a 3e
       -0.19722444 -0.020913525 -0.11703755 0.24491431
0002c0 ac a0 8c 3e 2d c8 15 be f3 72 96 be c8 bc 04 bd
       0.27466333 -0.14627142 -0.29384574 -0.0324066
0002d0 e8 f7 3a 3e 1a 3b ed 3d d0 23 d2 3d 48 6c 27 be
       0.18258631 0.11583538 0.10260737 -0.163499
0002e0 0c 3a 1b 3e af db 62 3e d8 18 a2 bd 62 43 9c 3d
       0.15158862 0.22154115 -0.07914895 0.0763004
0002f0 a3 91 19 3d d4 31 96 3e 3e 05 6b bd 8f bf d4 3d
       0.037492406 0.2933489 -0.057378046 0.103880994
000300 86 35 08 3e 4c db 45 bd 7f 3d e4 bd 12 e1 0f bd
       0.13301668 -0.04830484 -0.11144542 -0.035126753
000310 19 31 27 be aa 72 38 be 55 fb a0 3e 92 2a 04 3e
       -0.16327323 -0.18012491 0.3144175 0.12906864
000320 15 8c 80 be 50 b6 40 3e 81 fe 69 be 52 0c ed bb
       -0.25106874 0.18819547 -0.22850992 -0.0072341347
000330 90 dc ea bd 1c 42 ae bd a5 f2 be 3d 98 29 06 be
       -0.1146785 -0.08508703 0.093236245 -0.13101804
000340 e2 ad c0 3d cd 07 ca bd c9 b4 10 be b5 92 97 3d
       0.094081655 -0.09864769 -0.14131464 0.07401029
000350 b5 fa 59 be 73 32 ea bc 18 48 5a 3e 1b 49 5c bd
       -0.21287043 -0.02858851 0.21316564 -0.053780656
000360 4b a5 47 3b ae f4 eb bd 2b a1 35 3e d7 7b 7c 3c
       0.0030463513 -0.11521278 0.17737262 0.015410385
000370 94 90 70 bd 6d be a4 3c 71 75 9c 3e 50 30 99 3e
       -0.05873163 0.020110333 0.3055835 0.29919672
000380 a5 8f 75 3d f9 87 b7 bd 96 33 af 3e 15 2c 94 bc
       0.059951443 -0.089614816 0.34219044 -0.018087426
000390 35 39 b1 bd ab 17 6a be f4 8f 7f 3b 01 65 60 bc
       -0.086534895 -0.22860591 0.0038995715 -0.013695956
0003a0 93 57 e8 bd 38 5d 44 be 30 95 8b 3d 11 e9 b5 bd
       -0.113448285 -0.19176185 0.06815565 -0.088823445
0003b0 ce ac 0d 3d fe 67 31 3e 7a 95 51 3c e2 f0 ef bb
       0.034588628 0.17324826 0.012791986 -0.0073224166
0003c0 f8 75 38 3e 05 38 7d be cf c3 f2 3a ea 5e 7e 3e
       0.18013752 -0.24728401 0.001852149 0.24840894
0003d0 69 ac 4d 3e 34 d5 37 3e 60 25 a4 be b8 65 1c 3b
       0.200853 0.17952424 -0.32059765 0.002386434
0003e0 f8 58 69 bd 48 d1 8a 3c e1 2c 66 be 8a 04 7c 3e
       -0.056969613 0.016945496 -0.22478057 0.24611107
0003f0 eb 82 9e 3e fa 26 19 be 1b c6 26 bc 1c f0 7f 3d
       0.30959257 -0.14956275 -0.010179068 0.062484846

functional_1_1/dense_2_1/Add/ReadVariableOp:0 f4 [32]
000000 b2 8f 48 bd d5 20 53 3e 04 15 30 bd be e4 8a bc
       -0.048965164 0.20617993 -0.042988792 -0.016954776
000010 66 1c 67 3c ab 68 79 3d 17 ee 93 3d 20 ed 03 bc
       0.014105892 0.060890835 0.072231464 -0.0080521405
000020 f1 f0 0d 3e 5b 1b 84 3d a0 ad e0 3c 18 a5 00 3d
       0.13861443 0.0645053 0.02742654 0.031407446
000030 c1 bf 04 3e f3 24 2c 3e 71 e2 89 bd 30 c6 05 bd
       0.12963773 0.1681097 -0.067326434 -0.03265971
000040 ae 08 0e be 63 c0 69 3d c4 fa 89 bd f3 a7 ba 3c
       -0.13870499 0.05706824 -0.06737283 0.022785163
000050 04 56 2d bc e3 a4 b0 3d cf 71 a7 3c b3 b7 92 3d
       -0.01057959 0.086252 0.02044001 0.07163944
000060 21 28 66 3c 5e 48 21 3d f9 99 bf 3d 64 8e 8b 3a
       0.014047653 0.039375655 0.0935554 0.0010647294
000070 56 7a 1d bd 30 31 6d bd 45 da c1 3d c8 6a a6 bd
       -0.038446747 -0.057908237 0.0946546 -0.08125836

functional_1_1/dense_1_2/Cast/ReadVariableOp:0 f4 [128, 64]
000000 84 ff ec bb d3 18 0b 3d c1 8f bb bd 20 05 de 3d
       -0.0072326083 0.03395922 -0.09158278 0.10840821
000010 c0 a5 5a bc 44 79 0f 3d 32 f8 ae bd 50 d9 77 3e
       -0.013345182 0.035027757 -0.08543433 0.24203992
000020 c1 85 07 3d e6 5e 34 3c 83 d1 28 3d bc f0 98 bd
       0.033086542 0.011008954 0.04121543 -0.074677914
000030 43 a9 0c 3d 09 37 84 be 8a 00 59 3d 43 49 7d 3d
       0.034341108 -0.25823238 0.05297903 0.061837446
000040 39 e2 f9 3d 01 50 a5 3c 83 91 1d 3e 0c 8c 63 bb
       0.12201352 0.02017975 0.1538754 -0.0034720926
000050 20 24 03 be 3a f3 5b be 8e 71 9b 3d 22 e3 5c be
       -0.1280675 -0.21479502 0.07590018 -0.2157102
000060 ad b9 2c 3e cd 7f 78 3d 69 53 84 3e 3b d5 97 3d
       0.16867705 0.060668755 0.25844887 0.07413717
000070 a8 0c 7b 3c c2 5e 8b bd 8a 70 82 bd dc 0e 24 be
       0.015322842 -0.06805183 -0.063691214 -0.16021293
000080 40 22 8f bd 86 63 40 be 69 94 65 be dc 71 8a 3e
       -0.069889545 -0.18787965 -0.22419895 0.27039993
000090 50 12 16 be 3f 74 7c 3d 4a 60 1d be 70 20 26 be
       -0.14655423 0.0616343 -0.15368763 -0.16223311
0000a0 b5 be 9c 3d 03 1a cd 3b a5 a1 9e 3d de 71 19 3e
       0.07653562 0.0062592044 0.07745675 0.14984843
0000b0 51 8f 6d be 3a 21 50 3e c3 72 23 bd 92 0c 05 3e
       -0.23199202 0.20325175 -0.039904367 0.12993076
0000c0 c5 e3 bb 3d 10 b1 4e 3d 75 f9 4c be de 5e 2c be
       0.09174303 0.05046183 -0.20017035 -0.16833064
0000d0 5a 45 23 3e bf 8f 27 be cf 72 b3 bd 05 92 4d bd
       0.15944424 -0.16363429 -0.087621324 -0.050188083
0000e0 6b 24 02 3e 68 25 3f 3e c5 47 8f 3d 07 09 97 be
       0.12709205 0.18666613 0.06996111 -0.29499075
0000f0 a1 0f ab bc 64 7c 30 bd 26 6f f0 3d 5f ef 47 bd
       -0.020881476 -0.04308738 0.1173995 -0.048812266
000100 36 9c 26 bd 1b 03 b5 3c bf e2 fc bd c3 15 9b 3c
       -0.040676318 0.022096207 -0.12347936 0.018931275
000110 95 94 b1 bd 49 56 5f be 79 d4 89 3d ee 56 25 be
       -0.08670918 -0.21810259 0.06729979 -0.16146442
000120 e1 e7 dc bd fd 80 8d be 6b 3a 2c 3e 9a 68 05 3d
       -0.10786415 -0.27637473 0.1681916 0.03257046
000130 0f 55 f1 3d aa ab 50 bc 15 46 bf bd 16 08 ae bd
       0.11783802 -0.01273624 -0.09339539 -0.08497636
000140 1f 2b 7f 3e 95 5c 77 bd 4c 52 5e 3d 76 a7 d4 bd
       0.24918793 -0.060391027 0.054277703 -0.10383503
000150 79 3b d5 bd ce e6 6f 3e 41 60 9a 3c 76 52 67 bd
       -0.10411734 0.23427889 0.018844726 -0.056475125
000160 59 11 34 bd e7 bc 4d 3e 7a 46 2c be 4b fa 58 be
       -0.043961857 0.20091592 -0.1682376 -0.21189229
000170 bf c1 03 3e 97 53 e7 bd f9 a3 1b 3e 33 a0 c7 3d
       0.12866877 -0.1129524 0.1519927 0.097473525
000180 0b 0c 07 bc 8b 1a 70 be f6 d6 13 be ce 19 6c be
       -0.008242617 -0.23447625 -0.1443747 -0.23056719
000190 0e d3 ff bd cc de 55 be 5f a1 85 bd 85 eb d9 3d
       -0.12491427 -0.20885772 -0.0652492 0.10640625
0001a0 81 02 af bd 5a 28 1c 3e 70 6c 17 3d 4f 27 9b 3c
       -0.085453995 0.15249768 0.03696865 0.018939642
0001b0 8f da cf bd e1 8b e1 bd 51 66 4e bd be db 98 39
       -0.101491086 -0.11013008 -0.050390545 0.0002915542
0001c0 a1 95 a3 3c 1c d5 66 be a5 96 f8 3b 8b d6 4b 3e
       0.01996881 -0.22542232 0.0075863176 0.1990606
0001d0 62 3b 14 be 9a 67 1e 3e 86 b0 5d be d1 a2 82 be
       -0.14475778 0.15469208 -0.2164937 -0.25514844
0001e0 bc 85 a8 3d f9 61 09 3d 06 5b aa 3d 78 de 92 bd
       0.08228633 0.0335407 0.083181426 -0.07171339
0001f0 15 98 cf bd 31 6c 29 bd ae 80 0f 3e ba 25 51 bd
       -0.10136429 -0.041362945 0.14013931 -0.05106137
000200 77 92 2e be 2f a0 cf 3d cd 36 fa bd 7c 42 3e be
       -0.1704806 0.101379745 -0.12217484 -0.1858005
000210 cc 26 fd bd 86 f3 fc bc eb f5 06 3e cb b4 8d bd
       -0.123609155 -0.03087784 0.13179748 -0.06919249
000220 ca 12 88 be 4a 88 86 bd 91 01 8c 3b d5 5e de bd
       -0.26576835 -0.06568964 0.0042726477 -0.108579315
000230 c2 c4 22 be 3e 12 40 3e ff 99 7f bc 72 82 5e 3e
       -0.1589537 0.18756959 -0.01560068 0.21729448
000240 cc ee 29 bd 48 30 19 be 53 d1 48 be 6d aa c9 bd
       -0.0414875 -0.14959824 -0.19611101 -0.09846959
000250 cc 74 03 be eb 90 c5 bc 0c 97 8b 3c 9b fc 01 3e
       -0.12837523 -0.024116954 0.017039798 0.12694018
000260 20 c4 b8 3c ab 3c 81 be ce 2d c6 bc 48 f0 6d be
       0.022554457 -0.25241598 -0.024191763 -0.23236191
000270 80 05 ba bc 41 71 c7 bd 85 1d bd bd cc a2 96 3d
       -0.0227077 -0.09738398 -0.09234146 0.0735527
000280 bc 2b b7 bd d7 e8 b5 bd 4d 9b 0e 3d e6 6f 06 3e
       -0.089438885 -0.08882301 0.034816075 0.13128623
000290 e5 93 4b be b6 1f c6 bd 50 de 06 3c 9b 9a 11 be
       -0.19880636 -0.09674017 0.008231714 -0.14219134
0002a0 fe d7 9b bd 5a 45 03 be 88 79 48 bd ea 06 8e 3c
       -0.076095566 -0.12819424 -0.048944026 0.017337281
0002b0 da 35 7e bd 90 e5 05 3e 07 29 c2 bd 87 28 18 3d
       -0.062063076 0.13075852 -0.094804816 0.037148025
0002c0 4a 16 16 bb a0 c4 86 bd 9e 9c d7 bc 7f 0f 5e be
       -0.002290147 -0.06580472 -0.026319798 -0.21685599
0002d0 1d 09 1e 3e ca db 3b 3d f9 ed 1f 3e 95 d8 22 3e
       0.15433164 0.045863904 0.15618123 0.15902932
0002e0 f8 c2 96 bd dc aa e5 bd fa b9 19 bd 7e 98 ef bd
       -0.07361406 -0.112142295 -0.037530877 -0.116990075
0002f0 b0 48 aa bd db ad 62 3b 15 99 e4 bd 44 68 0a 3e
       -0.08314645 0.003458849 -0.111620106 0.13516337
000300 bd 13 20 be f8 64 8d bd d9 1d 16 3c 4b b5 9e 3d
       -0.1563253 -0.06904024 0.00916239 0.07749423
000310 f3 fe 97 3d 0d af ea bc 73 af a6 3c 23 c2 79 3e
       0.074216746 -0.028647924 0.020347333 0.24390464
000320 ad ac fd 3d e2 a1 d3 3d d3 0a 2f bd 6f 2e af bd
       0.12386451 0.10333611 -0.042734932 -0.085537784
000330 f1 b2 38 3d 7b 60 35 3e 63 ee e8 bd 6c 10 39 3d
       0.045092527 0.17712586 -0.11373594 0.045181677
000340 f8 65 ea bd 09 82 b5 bd d9 20 aa be 50 72 b1 3d
       -0.1144523 -0.08862693 -0.33228186 0.086643815
000350 cf 87 a1 bd 56 c5 52 bd 1f e5 93 be cb b3 01 bd
       -0.078872316 -0.051457725 -0.28885743 -0.031665605
000360 dd 9c 11 3e 3e f5 76 3e 74 98 40 3e 6d 25 fa bb
       0.14219995 0.2411699 0.18808156 -0.007633856
000370 1d 57 04 3d af 4f 30 bd dd ea 35 3e c0 ea db bd
       0.03230964 -0.043044742 0.17765374 -0.107381344
000380 11 13 03 3d 70 f0 34 bc ef 50 21 3e 22 49 37 bc
       0.032000605 -0.011043653 0.1575353 -0.01118687
000390 47 35 0f bd 2c 65 dd bd b6 fb 63 bc e9 69 38 3e
       -0.03496292 -0.10810313 -0.013914993 0.18009152
0003a0 14 54 d7 bd 83 20 d7 3d 81 14 ff bc 29 bf 5c be
       -0.105140835 0.10504248 -0.031137707 -0.21557297
0003b0 ca f8 4f 3e 15 bf 89 be 40 00 04 be 32 11 aa 3d
       0.20309749 -0.26903597 -0.1289072 0.08304061
0003c0 bb 3e 06 3e f5 1b 97 3d 8e 28 18 3e 06 8d 10 be
       0.13109867 0.07378379 0.1485922 -0.14116296
0003d0 94 fa 1e be 06 1c a8 3d 12 44 24 be bb 4d 80 bd
       -0.15525275 0.0820847 -0.16041592 -0.06264826
0003e0 1b a7 1f be a9 a2 e2 bd 3b d7 47 be de 99 90 bd
       -0.1559109 -0.11066181 -0.19515698 -0.07060598
0003f0 cd 4e 32 be a9 1d 20 bd e7 57 ca 3d 37 0f 37 bd
       -0.17412873 -0.039090786 0.09880047 -0.044692244

functional_1_1/dense_1_2/Add/ReadVariableOp:0 f4 [64]
000000 d5 12 06 3e bc 3d 85 3d 6f 16 12 bb f6 2e 1c bd
       0.13093121 0.065059155 -0.0022291203 -0.038130723
000010 35 c9 19 bd 05 3b b3 3d 0b b7 ab bd c2 de bb 3a
       -0.0375454 0.087514915 -0.08384522 0.0014333355
000020 aa 2e 78 bc 5e 41 79 bc 4f dd a7 bd 4a ca 6a 3d
       -0.015147844 -0.015213339 -0.08196508 0.057321824
000030 54 dc 01 be 12 d7 4c bd 02 98 38 bc aa df 8f bd
       -0.12681705 -0.050009795 -0.01126671 -0.070250824
000040 c9 07 c4 bd ed a6 30 3d f0 10 06 be a2 66 26 bd
       -0.095717974 0.043127943 -0.13092399 -0.040625222
000050 eb b0 b0 3d cf c8 93 bc 36 f8 b8 bd 2f dc 7e 3d
       0.086274944 -0.018040089 -0.090317175 0.062221702
000060 9d 76 8f bb 62 13 26 be cf 83 42 3c f0 7d eb bc
       -0.0043781535 -0.16218331 0.011872246 -0.028746575
000070 ba a0 71 bd ad 5c 87 bd 3d fd e0 3d 21 52 c9 bd
       -0.05899117 -0.066094734 0.10985801 -0.09830118
000080 7f 06 cf 3d 58 57 d3 bd 5d 50 01 3d 7e 50 d6 bd
       0.10108661 -0.10319394 0.03157078 -0.104645714
000090 19 96 36 bd 3f 79 be 3d 07 71 2c bc dd bb d8 bc
       -0.044576738 0.093004696 -0.010524995 -0.026456768
0000a0 94 17 fd bd 2a 8f 7e 3d db d6 d4 bc 2a 8b 3f 3d
       -0.12358013 0.06214825 -0.025981357 0.046763577
0000b0 b9 cb 0a 3e a7 a4 8d 3d 57 b5 69 3d 95 59 0d bd
       0.13554277 0.069161706 0.057057705 -0.03450926
0000c0 23 2c ec 3d ba 03 56 bd c0 0f 75 3d 2b 2b ed 3d
       0.11531856 -0.052249648 0.059829473 0.11580499
0000d0 1f f4 82 bd bb b8 02 3e 12 c7 04 3e 4e a2 15 3d
       -0.06394219 0.12765782 0.12966564 0.03653174
0000e0 79 ce 7c bc 7e af ab bc cf a7 3f bd 82 fc 9e bd
       -0.015430086 -0.020957705 -0.046790894 -0.07763006
0000f0 ed a7 f4 3d e7 34 87 bc 6d 6e 5a 3c 9a 2e 00 3e
       0.11946092 -0.016504718 0.013331992 0.12517777

functional_1_1/dense_1/Cast/ReadVariableOp:0 f4 [25, 128]
000000 a8 10 44 be df c6 3b be 38 e9 ff 3c 70 09 7f bd
       -0.19146979 -0.18337582 0.031239137 -0.06226486
000010 94 4e 55 3d f3 f3 37 be c3 9a d8 bd 7c 15 76 bd
       0.05207689 -0.17964153 -0.105763935 -0.060079083
000020 d8 ed bf bd 30 ec a4 3c a0 bb cb bc e4 91 11 bd
       -0.09371537 0.020132154 -0.02486974 -0.035539523
000030 fc b1 ed bd 6f e5 33 3e be 80 de 3d fb 9c 42 be
       -0.116062135 0.1756799 0.108643994 -0.19005196
000040 e8 87 85 bd 98 79 4e bd cc 09 29 bd 10 3c 2b bd
       -0.06520063 -0.05040893 -0.04126911 -0.041805327
000050 80 d1 07 be 39 3b 49 be 3e 37 ae 3d 96 63 e1 bd
       -0.13263512 -0.19651498 0.0850663 -0.11005323
000060 44 46 93 bd 56 1f b1 3d b6 99 92 3d 52 23 b1 bd
       -0.071911365 0.08648555 0.07158224 -0.08649315
000070 70 00 d9 bc 69 6b 98 bd a7 8a ab bd 8a 5e f5 3d
       -0.026489466 -0.07442362 -0.08376055 0.119809225
000080 97 26 fd bd c5 b2 4a 3e b1 09 36 3e 00 64 27 3d
       -0.12360876 0.19794758 0.17777134 0.04086685
000090 f6 60 96 bd ea c3 93 3d a6 1f 89 3d 1a d8 c4 3d
       -0.073427126 0.07215102 0.066954896 0.096115306
0000a0 4b f9 23 be 2e 5e e0 3d f5 c3 35 be 72 e3 3f be
       -0.16013066 0.10955463 -0.17750533 -0.18739107
0000b0 1e 0f f1 bd 01 b5 b4 bd c7 04 a9 bd ca 3d ee 3d
       -0.117704615 -0.08823586 -0.08252864 0.11632879
0000c0 f7 97 2a be a0 a7 ce bb a1 72 42 3e 40 dc 4a 3c
       -0.16659532 -0.0063066036 0.1898904 0.012381613
0000d0 8f b1 00 3e 2a 3b 84 3d 05 52 35 3e 45 2d b0 bd
       0.12567733 0.06456597 0.17707069 -0.086023845
0000e0 a0 5e 10 3c 48 96 12 be b8 43 16 bd be 70 b7 bd
       0.008811623 -0.1431514 -0.036685675 -0.08957051
0000f0 4a 40 41 be 40 34 0d bd c8 22 ee bc 20 ab 20 be
       -0.1887218 -0.034473658 -0.02906932 -0.15690279
000100 0e 48 8c bd e7 f5 40 be db c5 49 be 26 44 03 be
       -0.06849681 -0.18843804 -0.19704382 -0.12818965
000110 7d d6 28 be f0 a1 01 3d c8 6f f2 bd b8 5e 9b 3c
       -0.16488071 0.031648576 -0.11837727 0.018966064
000120 77 5d 01 3e 4b 31 30 3e be 3d 91 3d ec fb 49 bd
       0.1263331 0.17206304 0.070918545 -0.049312517
000130 94 07 18 3d d7 0f e0 bd 4c 25 e8 bd f0 ee 30 bd
       0.037116602 -0.10940521 -0.11335239 -0.04319662
000140 cc 41 04 be e9 03 20 3e 90 3f c9 bc e5 ef 19 3e
       -0.12915725 0.15626492 -0.024566442 0.15032919
000150 76 ec 80 3d c7 b6 43 be 00 30 4f bc 06 dc 09 be
       0.06295101 -0.19112693 -0.012645721 -0.13462839
000160 55 b0 07 3e 7c 90 79 3d 8a c8 8f bd 0d ca 44 3e
       0.13250859 0.060928807 -0.07020672 0.19217701
000170 3b 63 30 be c5 0b 48 3e 38 89 27 be a0 70 b2 bb
       -0.17225353 0.1953574 -0.16360939 -0.005445555
000180 68 c9 28 be f6 df cb bd 56 74 8b 3d 4c aa 6e 3d
       -0.1648308 -0.099548265 0.06809299 0.058267877
000190 94 7c fa bd 45 5b 25 be d8 ae 91 bd b4 7c b9 bd
       -0.12230793 -0.16148098 -0.07113427 -0.09056988
0001a0 05 06 27 3e 85 32 28 be 38 48 ae bd 0c 45 22 3d
       0.1631089 -0.16425522 -0.085098684 0.03961663
0001b0 23 fa ea bd af 6a 22 be 00 8e e8 3c 90 74 0a bd
       -0.11473491 -0.15861009 0.028388023 -0.03380257
0001c0 60 63 df bb 09 37 06 3e 80 46 20 3c 28 14 17 3d
       -0.0068172663 0.13106932 0.0097824335 0.036884457
0001d0 56 18 a3 3d 7b b5 07 3e c0 f7 85 bc 54 15 28 3d
       0.07963626 0.13252823 -0.016353488 0.041035965
0001e0 a2 a7 8d bd e7 25 34 3e 7f 27 24 3e 45 96 34 3e
       -0.06916739 0.17592584 0.16030692 0.17635448
0001f0 d6 1f d9 3d db b8 1d be e9 aa 1a 3e 20 a9 ae 3b
       0.10601775 -0.15402548 0.1510426 0.00533022
000200 fd cf 87 3c 02 0f 29 3e b5 bd 0e be 2d 9f 1d 3d
       0.016578669 0.16509631 -0.13939555 0.03848188
000210 11 52 63 3d 67 6e ad bc c8 75 1f 3e ef e7 05 bd
       0.055498186 -0.021170808 0.15572274 -0.032691892
000220 65 d9 7a be 2b d7 b2 bd 24 c7 96 bc a4 06 1f be
       -0.24496992 -0.08732446 -0.018405505 -0.15529877
000230 4a 41 2a bd d8 9e 52 3e 61 0f 54 3d 7a b1 5a be
       -0.04156617 0.20568407 0.05177248 -0.21356764
000240 95 c3 0b bd 74 5f 55 3d db f3 4b 3e 1b b7 0d be
       -0.03412207 0.052092984 0.19917242 -0.1383938
000250 ca 0c 46 3b d9 a9 31 3e cd 7e 68 3e c4 9c df bd
       0.0030220025 0.17349948 0.2270462 -0.109185725
000260 da f5 5d 3c dd 27 aa 3d fe 78 c9 3d 99 52 59 bc
       0.013547385 0.083083846 0.098375306 -0.013264322
000270 60 4e 1a be d6 da 62 be f5 48 a0 3d b1 76 f9 bd
       -0.1506896 -0.22153792 0.078264154 -0.12180842
000280 b1 a5 83 3d fe 31 b2 3c 31 88 91 be a8 8c d3 3d
       0.064280875 0.021752354 -0.28424218 0.103295624
000290 79 ec 7b 3d a0 55 89 bd 32 af 8d bc 44 3f e7 bd
       0.061504815 -0.06705785 -0.017295454 -0.11291364
0002a0 e1 fc bd bd 38 a5 17 be 7f 4e c7 bd 3b dc 58 bd
       -0.092767484 -0.1480912 -0.09731769 -0.052944403
0002b0 e8 46 9c 3e f9 55 6b be 3a 49 90 3e 5a 86 40 be
       0.30522847 -0.22982015 0.28180867 -0.18801251
0002c0 ce 14 31 3d 36 36 99 3d d6 6b 94 be 78 71 15 3c
       0.04323273 0.07481043 -0.28988522 0.009121291
0002d0 83 74 e1 3d 4d e0 1e be 25 3c 43 3e 71 14 f5 3d
       0.11008551 -0.15515251 0.19065912 0.119667895
0002e0 33 2c 78 3d 7d 91 e8 bd dd 5e 30 3e 52 e3 28 3d
       0.060589027 -0.11355875 0.17223687 0.041232415
0002f0 c8 f0 6b 3e 28 f8 f5 3d 27 03 0b bd 5e d2 53 3e
       0.2304107 0.12010223 -0.033938553 0.20685717
000300 68 08 6f 3d 10 2d 7e be 16 8d 1c bd 83 fa 15 3e
       0.058357626 -0.24821877 -0.038220488 0.14646344
000310 60 b3 67 3c 3b 74 40 be 4b f6 38 bd 41 0a c2 bd
       0.014141887 -0.18794338 -0.04515676 -0.09474612
000320 07 85 f6 bd 62 cb 86 3d d3 4a 3d 3e 5c b9 79 3d
       -0.12037092 0.06581761 0.18485574 0.060967788
000330 56 7f 33 be 49 29 9c 3d bd 14 2d 3e 21 5a 53 be
       -0.17529044 0.07625062 0.16902442 -0.2063985
000340 fc 4c 14 3e 17 a8 cd 3d eb 44 30 3e 55 95 c0 3c
       0.14482492 0.10041826 0.1721379 0.023508707
000350 e9 6b 39 bd 7b 76 02 3e c9 39 14 bd 9e 01 e3 3d
       -0.045268927 0.12740509 -0.03618792 0.11084293
000360 20 08 00 be 07 ff 49 be 5f f4 1c be fc e5 a4 bd
       -0.125031 -0.19726191 -0.15327595 -0.080516785
000370 1e f8 e6 3d 45 e0 de bc 22 58 24 3e 03 44 1f 3e
       0.11277793 -0.02720655 0.16049245 0.15553288
000380 14 67 73 be 58 b2 d6 3d aa d4 94 bd 57 45 8e be
       -0.2376979 0.10483235 -0.07267125 -0.27787277
000390 e8 62 a6 3d 49 6b 05 3e ca f6 0f be 5a 25 86 be
       0.081243336 0.13029207 -0.14058986 -0.26200372
0003a0 77 7b 59 bb 20 f9 77 3c 7f 20 94 3c 3f 5a ed bd
       -0.0033185163 0.01513508 0.018081902 -0.11589479
0003b0 f6 e2 88 bc 9b a2 2b bd a5 1d 4f be 3d eb 32 be
       -0.016709786 -0.04190312 -0.20226152 -0.17472549
0003c0 ef 36 eb 3d 3e e5 d6 3d 70 7e 2f 3e 5f cf 8e 3e
       0.11485087 0.10492943 0.17138076 0.27892587
0003d0 3e 18 00 bd bd d3 28 3c 93 60 6e 3c 9f 44 ba bd
       -0.03127312 0.010304389 0.014549392 -0.0909512
0003e0 7b 64 1e 3c 47 c4 00 be 66 99 35 3c 83 35 7a 3e
       0.009667511 -0.12574874 0.011083936 0.24434476
0003f0 98 8d 85 3c f0 ca 1f be d2 e1 95 3d df 94 87 bd
       0.016302869 -0.15604758 0.073184624 -0.06620192

functional_1_1/dense_1/Add/ReadVariableOp:0 f4 [128]
000000 56 7f 15 3d 8d 6a 74 bc aa 6d 22 be 58 b9 42 bd
       0.03649839 -0.014917982 -0.15862146 -0.04754004
000010 2a d3 eb bd c8 f8 af bd 5b 9c 8a 3d 0b 88 2b 3d
       -0.11514886 -0.08592373 0.06768104 0.041877788
000020 36 7c 4f bd 11 98 79 3d a1 26 47 bb d0 a5 be 3c
       -0.050655566 0.060936037 -0.0030388015 0.023272425
000030 1f 2f 9b bc 4e f6 c2 ba 1b e5 75 3d 23 19 56 bd
       -0.018943368 -0.001487443 0.060032945 -0.052270066
000040 c1 5b 35 bc 00 00 00 00 b7 8d 4c 3d 00 00 00 00
       -0.011069239 0.0 0.049939837 0.0
000050 cc 8b 90 bc db 70 6d bb 57 a9 28 3d d7 a0 88 bc
       -0.017644785 -0.0036230597 0.04117712 -0.016678257
000060 64 db ea 3d 22 fe 9e 3d 03 da 77 3d f4 b9 68 3d
       0.11467627 0.07763316 0.060510647 0.056817964
000070 b0 76 b0 3c dd e6 8c 3d 75 cd 2e bd ee 8c ae 3a
       0.02154097 0.06879971 -0.042676408 0.0013317147
000080 03 32 04 bd 74 e5 75 bd b1 10 c9 bd 0b 48 52 3d
       -0.032274257 -0.060033277 -0.09817637 0.051338237
000090 8f 06 44 bd 2c 4d c4 3d 10 ee 3d bd d9 69 9f bd
       -0.047857817 0.09585032 -0.046369612 -0.07783861
0000a0 5c e5 75 bd e3 d1 33 3b 9b d9 1c 3c 66 4f 55 bd
       -0.060033187 0.0027438335 0.009573366 -0.052077673
0000b0 40 97 b4 3c b5 01 82 bd ee 06 b5 3d 39 e2 9d bd
       0.022044778 -0.06347982 0.08839212 -0.07709164
0000c0 bf d1 97 3d bc 58 d3 3c 8f a7 59 3c 97 b5 9d 3c
       0.07413053 0.025799148 0.013284578 0.019251628
0000d0 55 0e b2 bc 00 00 00 00 32 e5 75 3d 02 b1 fc bb
       -0.02173535 0.0 0.06003303 -0.0077115307
0000e0 85 72 00 3c e0 33 96 3c 00 00 00 00 1e c6 78 3c
       0.007839804 0.018335283 0.0 0.015183954
0000f0 5c 05 7d 3d de 4f b4 3d b2 bf e5 bc 08 4d a5 bb
       0.06177269 0.08804296 -0.028045509 -0.005044583
000100 c1 b7 07 3b 69 e4 75 bd f4 6f c8 bd 40 a8 02 3d
       0.002070889 -0.060032282 -0.09786978 0.031898737
000110 00 00 00 00 00 00 00 00 40 94 2b 3c 0e f7 ce bd
       0.0 0.0 0.010472357 -0.10105716
000120 30 10 54 3d 7b fc af 3d 00 00 00 00 00 00 00 00
       0.05177325 0.08593079 0.0 0.0
000130 fd 24 63 3d c0 ce 26 3d fa 13 1c bc 45 ce 34 be
       0.055455197 0.040724516 -0.009526247 -0.1765681
000140 45 01 1c bd 9e 98 a6 bc b1 11 5e bc bd b0 2b ba
       -0.03808715 -0.020336445 -0.013554023 -0.00065494684
000150 bb 71 75 3d a1 37 9d bd d0 aa 87 3d de 09 3e 3d
       0.059922915 -0.07676626 0.06624377 0.04639613
000160 b8 bc f9 bc 37 19 a2 bd 8d cf a3 bd c0 2b a5 bd
       -0.030485496 -0.079149656 -0.079985715 -0.08064985
000170 9d c1 1e 3d aa 97 63 bd ce 2d c3 3d 55 e5 75 3d
       0.038758863 -0.05556456 0.09530221 0.06003316
000180 89 54 93 bb 49 54 29 3d 7f bf 80 3d 63 a8 c7 bd
       -0.0044961614 0.041340146 0.06286525 -0.09748914
000190 0f 7e cc 3d a0 e2 75 bd cc 04 1f 3d 48 09 27 3c
       0.09984981 -0.06003058 0.038822934 0.010195084
0001a0 44 2c ab 3d 00 00 00 00 68 80 56 bd d1 fb 55 bd
       0.083580524 0.0 -0.05236855 -0.052242104
0001b0 18 ad b6 bd fd 3f 0f be ac 69 db 3d cc e8 d5 bd
       -0.08919734 -0.13989253 0.10713515 -0.10444793
0001c0 40 0a 82 3b 8b 39 77 bd 97 ec e7 3d 22 9e e2 3d
       0.003968507 -0.06035761 0.11324423 0.11065318
0001d0 f8 6e 54 3c 38 09 85 3d 69 cc 06 3d 92 05 85 3d
       0.01296591 0.06495899 0.032909784 0.06495203
0001e0 d2 41 b6 3d af 82 2e 3d 0d 37 6f 3d 3b fd 2b 3d
       0.08899273 0.0426051 0.05840211 0.041989546
0001f0 00 00 00 00 73 49 dd 3c 14 9a 7e bd 18 9a 37 bd
       0.0 0.027012562 -0.06215866 -0.04482469

functional_1_1/batch_normalization_2_1/batchnorm/sub:0 f4 [32]
000000 62 70 ea be d8 ac 14 bf 2b e1 9e be cc 6b a1 be
       -0.45788866 -0.5807624 -0.31031165 -0.31527555
000010 09 c5 e0 be c4 1f fe be a8 a6 dc be 97 f2 93 be
       -0.43900326 -0.4963361 -0.430959 -0.2889602
000020 14 d1 07 bf b3 57 ab be 08 36 bc be 21 c3 e4 be
       -0.530534 -0.33465347 -0.36759973 -0.44680122
000030 4d 56 01 bf 2e df e5 be 44 ad e5 be 35 8d d5 be
       -0.5052231 -0.44896835 -0.44858754 -0.41709295
000040 bc 80 b0 bd 4c 8f 1a be fe c5 38 be 3a c9 43 be
       -0.08618304 -0.15093726 -0.18044278 -0.1911973
000050 5c e0 fa be c2 ca f1 be e1 a1 1a be f2 6c 68 be
       -0.48999298 -0.47225004 -0.15100814 -0.2269781
000060 b2 e5 1b be 46 9f cb be 3a 2f de be 5c 3a 02 bf
       -0.1522434 -0.39769953 -0.43395406 -0.508703
000070 4e 78 9a be 7e d2 05 be 00 cc d9 be 48 b4 f1 be
       -0.3016991 -0.13068578 -0.42538452 -0.47207856

functional_1_1/batch_normalization_2_1/batchnorm/mul:0 f4 [32]
000000 bb e0 67 3f 4b 89 42 3f c8 f2 6d 3f 81 bd 85 3f
       0.90577286 0.7599074 0.9294858 1.0448457
000010 e9 4b 5b 3f e7 89 4e 3f c1 17 f9 3e 0f 35 6d 3f
       0.85662705 0.8067917 0.48650935 0.92659086
000020 ee 2c 27 3f 4a 94 69 3f 12 90 31 3f c9 d8 48 3f
       0.6530293 0.91241896 0.6936046 0.7845579
000030 97 db 51 3f 54 78 4a 3f ce 94 64 3f b9 c2 5e 3f
       0.8197569 0.79089856 0.8928956 0.87015873
000040 bb a3 42 3f c1 00 54 3f 93 9a 54 3f 92 a5 36 3f
       0.7603108 0.8281365 0.8304836 0.7134639
000050 6f 36 50 3f 57 b6 31 3f dd 38 39 3f a7 5f 53 3f
       0.8133306 0.69418854 0.7235239 0.8256783
000060 02 2b 1a 3f 8b e0 68 3f e5 a1 f8 3e 19 f2 6f 3f
       0.60221875 0.90967625 0.48561016 0.93728787
000070 91 11 8b 3f 55 e7 49 3f 34 f7 30 3f e6 1a 6b 3f
       1.0864736 0.7886861 0.691272 0.9183792

functional_1_1/batch_normalization_1_2/batchnorm/sub:0 f4 [64]
000000 dc 5c 9e be b4 b8 8f be 2c 84 d9 be b1 31 b1 be
       -0.3093022 -0.28070605 -0.42483652 -0.34608224
000010 1e f1 87 be de 50 eb be 5c 10 ba be 56 61 e3 be
       -0.26551145 -0.45960134 -0.36340606 -0.444102
000020 34 b0 ff be f7 40 e0 be a3 34 8d be 34 b0 ea be
       -0.4993912 -0.43799564 -0.2757922 -0.45837557
000030 9d 0e 9a be 74 37 76 be e9 40 f0 be 60 9c c0 be
       -0.30089274 -0.24044591 -0.46924523 -0.37619305
000040 fa 1f 7e be 84 e3 c0 be 28 92 26 be 53 9b f4 be
       -0.24816886 -0.3767358 -0.16266692 -0.47774753
000050 ec 2b f2 be d1 cd 59 be 50 e6 a7 be 51 77 03 bf
       -0.47299135 -0.21269919 -0.32792902 -0.5135394
000060 57 00 c3 be 48 c8 92 be f2 ed a1 be 1f 23 b0 be
       -0.38086197 -0.28668427 -0.3162685 -0.34401795
000070 e4 6f 89 be 7e 4e da be ab b6 ae be 0a 73 ac be
       -0.26843178 -0.4263801 -0.3412374 -0.33681518
000080 de 27 07 bf 52 fa e9 be 81 c5 05 bf 72 06 9b be
       -0.5279521 -0.45698792 -0.5225449 -0.30278355
000090 6c 4b e4 be 8c f7 ac be 54 4d 0d bf da ce c0 be
       -0.44588792 -0.33782613 -0.5519612 -0.37657815
0000a0 e5 77 c8 be 72 3c 80 be 18 96 83 be 95 15 c4 be
       -0.39153972 -0.25046116 -0.2570045 -0.38297716
0000b0 71 a5 01 bf f2 7e 16 bf 6c ff 89 be af b9 97 be
       -0.5064307 -0.58787453 -0.26952684 -0.29633853
0000c0 e2 6b 03 bf 8c a2 bd be 0d a1 b8 be ac b2 ae be
       -0.5133649 -0.37038076 -0.36060372 -0.3412069
0000d0 49 d4 ef be 3c 4e 00 bf 82 40 f3 be 8f f2 db be
       -0.46841648 -0.50119376 -0.47510153 -0.42958495
0000e0 15 87 9b be 8a 9e a9 be e1 d6 9b be af e7 93 be
       -0.30376497 -0.33128768 -0.30437377 -0.28887698
0000f0 e0 85 ed be 34 60 c5 be 55 31 df be f6 ca dc be
       -0.463912 -0.3854996 -0.43592325 -0.43123597

functional_1_1/batch_normalization_1_2/batchnorm/mul:0 f4 [64]
000000 0b 83 73 3f 41 6b 53 3f 95 cb 84 3f b3 6c 8d 3f
       0.9512183 0.8258553 1.0374628 1.1048797
000010 8d 9c 7b 3f b8 62 6a 3f 5f 83 6d 3f 59 36 58 3f
       0.9828575 0.9155688 0.9277858 0.8445793
000020 74 6a 82 3f 92 f1 6f 3f 9d d8 82 3f f6 80 53 3f
       1.0188737 0.9372798 1.0222355 0.82618654
000030 b7 9c 6c 3f 5d c3 7a 3f c7 34 75 3f 65 e0 90 3f
       0.9242663 0.9795435 0.95783657 1.131848
000040 13 03 80 3f 02 53 83 3f f2 73 48 3f 03 d3 87 3f
       1.0000938 1.0259707 0.7830192 1.0611271
000050 c9 2f 7a 3f ee c8 8a 3f 36 e9 80 3f ed 68 8e 3f
       0.97729164 1.0842569 1.007117 1.1125771
000060 44 71 73 3f 07 2f a2 3f a5 5a 52 3f 98 a3 30 3f
       0.95094705 1.2670602 0.8216956 0.68999624
000070 1e e1 86 3f 46 31 6d 3f 35 d0 54 3f 1f e3 51 3f
       1.053745 0.9265331 0.831302 0.81987184
000080 95 6e 6b 3f 7f 0b 75 3f 12 8a 69 3f 6f 5a 5b 3f
       0.9196561 0.95720667 0.91226304 0.85684866
000090 43 32 88 3f 0b f8 83 3f 75 ad 52 3f a6 81 54 3f
       1.0640339 1.0310072 0.82295924 0.8301033
0000a0 44 a1 5a 3f 87 87 51 3f 6c 79 45 3f c6 ea 14 3f
       0.8540232 0.81847423 0.771384 0.58170736
0000b0 db df 54 3f b2 de 57 3f a0 f9 1e 3f 89 0f 90 3f
       0.83154076 0.8432418 0.6209965 1.1254741
0000c0 46 4e 89 3f 61 61 67 3f e7 e8 9c 3f d7 b5 48 3f
       1.0727012 0.90382963 1.2258576 0.78402466
0000d0 ec 42 85 3f 5e d2 58 3f 6b d8 59 3f 40 09 31 3f
       1.0411048 0.84695995 0.8509585 0.6915474
0000e0 28 0b 5c 3f 97 b0 3e 3f d0 9a 51 3f d6 f1 68 3f
       0.85954523 0.74488205 0.8187685 0.9099401
0000f0 76 10 6c 3f 6c 55 4b 3f 70 5e 8e 3f fe e9 61 3f
       0.9221262 0.7942722 1.112257 0.8824767

functional_1_1/batch_normalization_1/batchnorm/sub:0 f4 [128]
000000 c6 df 36 bd c6 ce 30 bc c8 4b e1 3d fc db 31 be
       -0.044647 -0.010791486 0.11000782 -0.17369074
000010 29 b3 3c bd f5 37 a4 3c 0a 65 c6 be c4 cb af be
       -0.046069298 0.020046214 -0.38748962 -0.34335148
000020 73 47 28 3c 62 9e 78 be 20 86 6b be 05 81 a9 bd
       0.010270941 -0.24279168 -0.23000383 -0.08276562
000030 22 41 6c be 04 91 06 be d3 00 c8 be af 74 63 bc
       -0.23071721 -0.13141257 -0.3906313 -0.0138828
000040 a9 fe fd bc ad 0f 99 3d 5c 39 ac 3d 43 3a db bd
       -0.03100522 0.07473693 0.08409378 -0.10704472
000050 47 1e 16 be 19 4c 9e be 95 36 be be 04 8e 7b 3c
       -0.14659987 -0.30917433 -0.37151018 0.015353683
000060 2d fa cf be 7d a8 90 be a9 ab 7b be cf 5d c4 be
       -0.40620556 -0.28253546 -0.24577202 -0.3835282
000070 25 c9 8a be c9 ad 1a be c8 11 ae bc c0 83 cb be
       -0.27106586 -0.15105356 -0.021248713 -0.39748955
000080 78 3a dd 3c 2c 21 fb 3b 0d 04 1f 3d af 6f 3c be
       0.02700542 0.0076638665 0.038822223 -0.18401979
000090 6c 1c 09 be 9d 17 f4 bd f0 27 87 bd 9a 19 31 bd
       -0.13389748 -0.119185664 -0.06599414 -0.043237306
0000a0 23 e9 72 3d cd dc 69 bd 12 6f 17 be c1 ca 18 bd
       0.059304368 -0.057095338 -0.14788464 -0.037302736
0000b0 b0 af 45 be 34 45 b2 3c be 07 73 be 8e cf f0 bb
       -0.193053 0.021761514 -0.23733422 -0.007348961
0000c0 57 97 12 bf 07 a3 b0 be 0a 01 17 be 62 4c 4d be
       -0.57262176 -0.3449938 -0.1474649 -0.20048669
0000d0 90 a1 1a bd 9b 61 9a bd df b9 6f be 87 b9 b3 be
       -0.037751734 -0.07538148 -0.23410748 -0.35102484
0000e0 a7 28 8c be d0 23 78 bb 30 22 c7 bd 5b 95 a6 bd
       -0.27374765 -0.0037863143 -0.097233176 -0.08133956
0000f0 1c 66 fe bd 3c 47 f5 be 6a 04 31 bc 55 a6 d6 be
       -0.124218196 -0.4790591 -0.010804275 -0.41923776
000100 a6 d4 d6 3c 4b 4f 66 bd ae e7 af bd 7a f4 a7 bd
       0.026224446 -0.056227963 -0.08589111 -0.08200927
000110 ec 3f a4 3c bf 5a 05 be 5d 7a 17 be 87 27 b3 bd
       0.020050012 -0.13022898 -0.14792772 -0.087477736
000120 a4 51 c3 be a8 a3 11 be e1 a6 8a bc 0c f3 1d 3d
       -0.38148224 -0.14222586 -0.016925277 0.038561866
000130 0a 3e 88 be 92 1d 9e bd e9 02 3e be 4c ed 3a be
       -0.26609832 -0.07720484 -0.18555798 -0.18254584
000140 88 00 f0 bc 31 03 8b bc 3b 08 a3 3d 59 72 98 be
       -0.029297128 -0.016969295 0.07960554 -0.2977474
000150 cd 89 d5 be 5b 42 d7 3c 43 0b 6b be cc 8d 5f be
       -0.41706696 0.026276758 -0.22953515 -0.21831435
000160 bf a4 03 be 4e 86 f9 3c 60 25 f2 3d a8 0f da bd
       -0.12855814 0.03045955 0.11823535 -0.106475174
000170 8b ab 93 bd c1 49 00 3d dc 4e 8e be 1c 13 bf be
       -0.072104536 0.031320337 -0.2779454 -0.37319267
000180 a6 cd 2b be d0 b9 df bd 9a 68 c2 bd 27 fe 2e 3d
       -0.16777667 -0.10924113 -0.094926074 0.042722847
000190 b8 d9 c9 be 50 e9 af 3d 50 8c b0 bd b7 80 61 be
       -0.3942392 0.08589423 -0.086205125 -0.22021757
0001a0 b2 5c 89 be 83 d1 f4 3c d7 42 1d 3d 1e 9c e6 bc
       -0.26828533 0.02988506 0.03839382 -0.028150614
0001b0 d8 ea 20 3d 5a df 16 bc 19 6c b2 be 0b 36 9b bc
       0.039286464 -0.009208525 -0.34848097 -0.018946668
0001c0 7c 87 7d 3d bb d0 99 3b eb d0 a1 be 7f 09 eb be
       0.061896786 0.004694072 -0.31604704 -0.45905682
0001d0 9d 16 97 be 79 4c ee be 55 24 6d be 21 9a ca bd
       -0.2950944 -0.4654272 -0.23158391 -0.09892679
0001e0 a3 db 84 be 74 67 ca be b8 94 ce be 80 11 74 be
       -0.2594882 -0.39532053 -0.40347838 -0.238348
0001f0 ce 39 8c 3d 3b 5b 93 bd 52 be bf bc 2e 55 1b 3e
       0.06846963 -0.07195135 -0.023406181 0.15169212

functional_1_1/batch_normalization_1/batchnorm/mul:0 f4 [128]
000000 4c f2 c5 3f 83 d8 d2 3f bf a8 b5 3f 74 5b bb 3f
       1.5464568 1.6472324 1.4192122 1.4637284
000010 82 e7 bb 3f b1 c9 ae 3f e9 93 b8 3f 41 dd b8 3f
       1.4680026 1.3655301 1.4420139 1.4442521
000020 9b b3 d0 3f d9 bf cb 3f fb 2c c6 3f de b5 b4 3f
       1.6304811 1.5917922 1.5482477 1.4118001
000030 b8 26 b7 3f 5a 61 c3 3f d9 78 b3 3f 3e 31 c3 3f
       1.4308691 1.5264084 1.4021255 1.5249403
000040 73 83 c5 3f fb 1f bf 3f 0e cf b9 3f fb 1f bf 3f
       1.543074 1.4931635 1.4516313 1.4931635
000050 93 de d3 3f 6d 8c ca 3f 03 63 b9 3f 14 3a b0 3f
       1.6552299 1.5824105 1.4483341 1.3767724
000060 6b 96 c0 3f b5 0c bd 3f 92 af b6 3f 1c f3 ab 3f
       1.5045904 1.4769503 1.427233 1.3433566
000070 0f 9c d2 3f 57 9e ca 3f 75 88 be 3f 95 72 b8 3f
       1.6453875 1.5829571 1.4885393 1.4409968
000080 dc 62 b8 3f a0 a6 b3 3f d4 03 c8 3f d4 a8 c1 3f
       1.440517 1.4035225 1.5626168 1.5129647
000090 67 42 c1 3f d4 89 ae 3f bc a4 ac 3f b9 b8 aa 3f
       1.5098389 1.3635812 1.3487773 1.3337623
0000a0 b2 a6 b3 3f 50 d3 b9 3f 6c 45 b3 3f 0b 8f ac 3f
       1.4035246 1.4517612 1.4005561 1.3481153
0000b0 10 8c b1 3f 93 3e be 3f 36 12 b8 3f 1b ec b0 3f
       1.3870869 1.4862846 1.4380558 1.3822054
0000c0 c6 6f c0 3f ee 4f cd 3f 84 f6 ca 3f 64 1f b0 3f
       1.503411 1.6040018 1.5856481 1.375958
0000d0 76 bf c2 3f fb 1f bf 3f 21 d9 b2 3f 41 5b be 3f
       1.5214679 1.4931635 1.3972512 1.4871598
0000e0 c7 13 b1 3f d0 01 bf 3f fb 1f bf 3f 5c 36 c8 3f
       1.383416 1.4922428 1.4931635 1.5641589
0000f0 5d 65 b7 3f a9 dc b8 3f 79 94 b9 3f 5b 67 b7 3f
       1.4327809 1.444234 1.4498435 1.4328417
000100 f4 9e b8 3f 91 b6 b3 3f 32 7a c8 3f d6 c8 b4 3f
       1.4423509 1.404009 1.5662291 1.412379
000110 fb 1f bf 3f fb 1f bf 3f e9 61 bf 3f bc 1e b3 3f
       1.4931635 1.4931635 1.4951755 1.3993754
000120 9e fa be 3f 24 85 b2 3f fb 1f bf 3f fb 1f bf 3f
       1.4920232 1.3946881 1.4931635 1.4931635
000130 db d3 b7 3f 20 1f d5 3f be 47 be 3f 63 4f c3 3f
       1.4361528 1.6650124 1.4865644 1.5258602
000140 41 3b c3 3f 84 a4 b7 3f fe 95 ca 3f ba 13 c3 3f
       1.5252458 1.4347081 1.5827024 1.5240395
000150 a1 7e b4 3f bc 06 b4 3f 21 1c c5 3f 36 aa b9 3f
       1.4101144 1.4064555 1.5399209 1.4505069
000160 14 06 b6 3f 88 fa ae 3f 36 ac b1 3f 80 01 b2 3f
       1.4220605 1.3670206 1.388068 1.3906708
000170 03 e8 bc 3f aa 81 b4 3f 1d 35 b4 3f 21 f3 a4 3f
       1.4758304 1.410207 1.4078709 1.2886697
000180 e6 7e b9 3f 0b ea cb 3f f4 a6 b8 3f ea e5 ae 3f
       1.4491851 1.5930799 1.442595 1.3663914
000190 d3 08 b6 3f 94 a7 b3 3f 9a d1 bb 3f 0b 00 b9 3f
       1.4221443 1.4035516 1.467334 1.4453138
0001a0 0c ae b7 3f fb 1f bf 3f fa 90 bc 3f cd 0f ba 3f
       1.434999 1.4931635 1.4731743 1.4536072
0001b0 67 34 b3 3f 0e 41 b1 3f 17 75 c4 3f ad 29 bf 3f
       1.4000367 1.3847978 1.5348233 1.4934593
0001c0 eb 8e bb 3f 78 a9 af 3f 7a 73 b8 3f 86 d6 be 3f
       1.465299 1.3723593 1.4410241 1.4909217
0001d0 54 56 c1 3f 41 7c cd 3f a4 56 ca 3f 3b ec b4 3f
       1.510447 1.6053544 1.5807691 1.4134592
0001e0 d9 1c be 3f c4 4c b3 3f 75 4b c2 3f 60 46 c8 3f
       1.4852554 1.4007802 1.5179278 1.5646477
0001f0 fb 1f bf 3f b4 b3 bc 3f bd 03 c0 3f 5e b2 bd 3f
       1.4931635 1.4742341 1.5001141 1.4820058
