models/Maribor/cars/Maribor_cars_model.onnx (onnx, 60482 bytes, 13 tensors)

functional_1_1/dense_3_1/Cast/ReadVariableOp:0 f4 [32, 1]
000000 a5 19 11 3e b0 55 bb 3d 2a c2 93 3d 96 32 51 3c
       0.14169939 0.09147203 0.07214768 0.012768408
000010 13 90 67 3c ff 6f 6b bc fc ef 63 bc 8f e2 dd 3d
       0.014133471 -0.014369964 -0.013912197 0.10834228
000020 ee c7 56 bd 76 17 37 3c 7c 7d c3 3c c2 e0 bd 3c
       -0.05243676 0.011175027 0.023863547 0.023178462
000030 64 24 d8 bd 28 e9 1f bd fa a4 58 39 65 98 bf 3d
       -0.10553816 -0.039040715 0.00020660824 0.09355239
000040 9c 7b 2a bc 9b a9 03 3d 1f 52 d3 3c da 95 8d 3d
       -0.010405447 0.03214417 0.025795994 0.069133475
000050 40 f9 be bd 08 01 2d bc b9 0e 9f 3d 1c 45 13 bd
       -0.093248844 -0.010559328 0.0776648 -0.03595458
000060 b3 7d ab 3d 21 3c 24 3d c1 bb 87 bd 38 94 73 bd
       0.083735846 0.040096406 -0.06627608 -0.059467524
000070 74 cc fa 3d 03 a2 18 be f2 35 8e 3d f3 4d 8c bd
       0.122460276 -0.14905553 0.06943883 -0.06850805

functional_1_1/dense_2_1/Cast/ReadVariableOp:0 f4 [64, 32]
000000 6b a8 a5 be 53 53 9c 3c e9 5c d4 3d 16 36 d4 bd
       -0.32355055 0.0190827 0.10369284 -0.103618786
000010 67 16 db bd 73 b6 6b 3d df e7 1d 3e a0 09 bf bc
       -0.10697632 0.057547044 0.15420483 -0.02332002
000020 69 1e cf bb 70 21 85 3e a7 d0 66 3d 23 0f 11 be
       -0.006320764 0.26002073 0.05635133 -0.1416593
000030 1f 81 f8 3d 2b f6 34 3c 62 f6 44 3d d7 14 c7 bc
       0.12134003 0.011045019 0.04808653 -0.02430193
000040 29 f7 3c 3d 59 40 5f 3e 8b 83 8d 3d 51 74 4e 3e
       0.046134148 0.2180189 0.069098555 0.20161559
000050 64 03 29 be a2 60 35 be e6 d8 66 3e 2d c1 bb bc
       -0.165052 -0.17712644 0.22543678 -0.022919262
000060 3e 53 02 3e 09 db fd bd b3 53 07 be b2 8d ec bc
       0.12727067 -0.12395293 -0.13215522 -0.02887616
000070 eb 82 35 be 3e a2 29 3e 18 0f be bb 1c 29 45 3e
       -0.17725722 0.16565797 -0.005800139 0.19253963
000080 ac f4 47 3d f5 df e8 3a c4 48 b2 bd e3 85 8b 3d
       0.04881732 0.001776694 -0.08705285 0.06812646
000090 cf 5f 3c 3e 6f f6 d7 3d 4e 4e 6e 3c ed f7 01 3d
       0.18395923 0.1054505 0.0145450365 0.03173058
0000a0 f3 78 ec 3d 1d 76 91 3e 02 c5 21 3b 6f da 80 bd
       0.11546507 0.28410426 0.0024684076 -0.06291663
0000b0 fb a5 2e 3e 10 39 d8 3b f6 a8 93 3e 73 cf 3b be
       0.17055504 0.0065985993 0.28839844 -0.18340854
0000c0 fa 7a d7 bc 2b 48 8d 3d fa 7d 68 bb 31 c8 80 be
       -0.026303757 0.068985306 -0.0035475479 -0.25152734
0000d0 46 26 4c 3e f7 90 14 bc 8b 0b b1 bd b9 25 a0 bc
       0.19936475 -0.009067765 -0.0864478 -0.019549238
0000e0 a1 3a 69 bb cc 72 24 3e 3b 4d 41 be fc 38 fa bd
       -0.0035587924 0.16059417 -0.18877117 -0.122179
0000f0 a5 01 86 3e fe d7 13 3e 1e 93 6f bc 1a fe 64 3e
       0.2617313 0.14437863 -0.014622478 0.22362557
000100 c9 5e da bc 76 8d 0f 3e 8f 32 43 be 4f 3d 52 be
       -0.026656525 0.14018807 -0.19062255 -0.205312
000110 b9 21 d9 3d 01 37 39 be a2 11 6d be 8e 06 cc bd
       0.10602135 -0.18087389 -0.23151258 -0.09962188
000120 2b 56 00 3e af 95 06 3e 83 1c dd 3d 1a 4f 2b 3e
       0.1253287 0.13143037 0.10796454 0.16729394
000130 04 70 20 be 48 d0 93 bd 38 38 22 be fd c2 57 bd
       -0.1566773 -0.07217461 -0.15841758 -0.05267619
000140 4e be 10 be 59 c9 f9 bd de 17 29 3e 94 b6 1d 3d
       -0.14135095 -0.12196607 0.16513011 0.0385042
000150 f2 e4 1b 3d 32 ce 94 3e d4 bf 4a be 94 7c 1c 3e
       0.038060136 0.29063565 -0.19799739 0.15281898
000160 3b ea e1 bd e6 49 de 3d 3f 4e 84 be d7 6e 9e be
       -0.11031004 0.10853939 -0.25840947 -0.3094394
000170 47 6e b8 bd ac 39 8e 3e d7 7f 09 3e 19 86 07 3c
       -0.09005409 0.27778375 0.13427673 0.0082717175
000180 22 16 55 be b1 41 32 bd ae 8c dd bd 3c d2 6b be
       -0.20809224 -0.04351968 -0.10817848 -0.23029417
000190 46 7d 3a bb 3e 87 97 bd 29 82 0b be b7 ad 78 3e
       -0.0028456016 -0.07398842 -0.13623871 0.24285017
0001a0 f5 37 10 3e c6 d9 51 bd b4 11 7a 3d 35 05 91 bd
       0.14083846 -0.051233076 0.06105204 -0.07081071
0001b0 16 e0 ad bd 7c 04 ab bd 5c dc 5d be ea aa a0 bd
       -0.084900066 -0.08350465 -0.21666092 -0.07845099
0001c0 d2 ed 4f be 0a 55 68 3d b2 d3 8e 3e 31 e7 83 bd
       -0.20305565 0.056721725 0.27895886 -0.06440581
0001d0 83 67 a9 bc 8a 9b 41 3e 31 a1 4d be 71 c2 8f bd
       -0.020679241 0.1890699 -0.20081021 -0.07019509
0001e0 d3 59 75 3e 76 be 23 bb e2 a3 33 be 2e 8e 55 3e
       0.23960046 -0.002498535 -0.17542985 0.20855018
0001f0 7f 07 23 be e9 5e ba 3d 84 e4 f6 bc a2 ae 91 3c
       -0.15920828 0.09100134 -0.030138262 0.017783467
000200 42 56 0b be c1 53 0e be 76 21 f9 bd 6c 75 ca bd
       -0.13607123 -0.13899137 -0.12164585 -0.09885678
000210 af 37 03 3e 8d cc 1d 3e ab 31 cf bd 3a ae d5 bb
       0.1281421 0.15410061 -0.10116895 -0.0065210136
000220 85 2c 4b be 02 be a2 3d fa 30 a4 bd f3 31 25 be
       -0.19841202 0.07946397 -0.08017154 -0.16132335
000230 50 6c ed bd b7 b1 9b bc f7 f4 32 3d 71 e2 66 3e
       -0.115929246 -0.01900564 0.043690648 0.22547318
000240 a0 18 71 be 99 83 67 bc 7d 76 bf bd 3e ae 60 bd
       -0.2354455 -0.014130496 -0.09348772 -0.05485367
000250 6b e2 a3 bd 60 55 07 be da 7d 1d bd 4e b2 a6 be
       -0.0800217 -0.13216162 -0.0384501 -0.3255791
000260 32 b8 ae be 94 8f da 3d 95 45 11 be 00 bb 25 be
       -0.34124905 0.106719166 -0.141867 -0.16184616
000270 e6 01 8d bd 0c 44 7b bd 30 25 93 be 0f c1 86 bd
       -0.06885128 -0.06134419 -0.2873931 -0.06579792
000280 7b 79 06 bd 9d c3 af 3d 39 3b 88 3e 7f 9b 6e 3c
       -0.032830697 0.08582232 0.26607683 0.01456344
000290 42 f2 6c 3d 3a bb b8 bd 34 ac f2 bd a0 b6 88 3e
       0.057848223 -0.09020086 -0.118492514 0.26701832
0002a0 2a 99 66 3e aa fb 1e be ba fd b1 ba 78 ff 79 3d
       0.22519365 -0.1552569 -0.0013579645 0.06103465
0002b0 1b ec 62 3e db d3 63 3e c5 16 9f bd 94 73 a2 3e
       0.2216038 0.22248785 -0.07768015 0.31728804
0002c0 d2 28 93 be c5 14 f4 bc 19 2a a0 be 26 5f e9 bd
       -0.2874208 -0.02979506 -0.31282118 -0.11395101
0002d0 85 87 6a bd 83 1c 87 be a9 9d 1f be 4e 40 99 3d
       -0.057258148 -0.2638894 -0.15587486 0.07482968
0002e0 c4 7c 2c be 80 16 1d be 2c 86 51 3c 04 54 29 be
       -0.1684447 -0.15340614 0.012788337 -0.16535956
0002f0 c8 55 c0 3d 19 c2 87 bd 68 8b 71 3d 19 35 2f be
       0.093913615 -0.06628818 0.05897084 -0.17110099
000300 c4 99 56 be f1 4c 44 bd 25 02 ac 3e 00 79 ac 3d
       -0.20957094 -0.04792494 0.33595386 0.084215164
000310 81 50 42 bd 32 b3 9d 3d ca 60 5b 3d cb 3a fd 3d
       -0.047440056 0.077001944 0.053559102 0.123647295
000320 73 40 a6 3d 0a 05 5d 3d 83 26 62 be 36 27 52 3e
       0.081177615 0.053959884 -0.22085004 0.2052277
000330 fc 9f 8d be 15 8a 0c be f6 c7 88 bd 52 cc 26 3e
       -0.2766112 -0.13724549 -0.066787645 0.1628888
000340 c0 28 3f 3e be 5e 26 be 84 48 0a be fd 49 83 be
       0.18667889 -0.16247079 -0.13504225 -0.25642386
000350 5a 42 f2 bd cc 38 4c bd bd f7 1b be 17 0c 1a be
       -0.11829062 -0.049858853 -0.15231223 -0.15043674
000360 fe 5c 2b be 70 14 87 3e 4b 90 a5 3d 05 90 de bd
       -0.16734692 0.2638278 0.08084162 -0.10867313
000370 8a 87 5d 3d e0 c9 98 3d 80 16 11 be 08 97 1f 3e
       0.05408434 0.074603796 -0.1416874 0.15584958
000380 28 64 2f 3e 53 b7 2d be 7f c3 82 bd 5d 1d 39 3e
       0.1712805 -0.16964464 -0.06384944 0.18077607
000390 a1 10 56 3d 99 37 9d 3e d3 57 e6 bd 66 07 87 3e
       0.052261952 0.3070648 -0.1124722 0.26372832
0003a0 35 5f 8d 3d 23 d3 5b be 64 04 89 3d bd 1c 38 be
       0.06902925 -0.21467261 0.066902906 -0.17979713
0003b0 21 1e 85 3e 6e 00 d7 bd 9c 67 3b be 4e 65 30 bd
       0.2599955 -0.10498129 -0.18301243 -0.04306536
0003c0 4e bc 0c be 49 33 09 bd 26 6e 84 bd ea 71 66 3e
       -0.13743708 -0.033496175 -0.06466322 0.22504392
0003d0 f6 87 a4 bc f0 82 1b be 73 56 a3 3e 25 84 4f be
       -0.020084362 -0.15186667 0.31901893 -0.20265253
0003e0 bb e2 9e be 7a 4c 3d 3e 33 c6 70 3c c9 36 16 be
       -0.31032357 0.18486205 0.014695692 -0.14669336
0003f0 68 90 81 be fa 8e d2 bd 09 17 f6 bd 76 7f 20 3e
       -0.25305486 -0.10281177 -0.12016112 0.15673622

functional_1_1/dense_2_1/Add/ReadVariableOp:0 f4 [32]
000000 c9 94 2f 3d d9 d9 90 3d 8d 47 04 3d 5f fd ae 3c
       0.042866502 0.07072801 0.0322948 0.021361051
000010 bb b6 59 3d 29 cc 7b bd 3c f7 89 3d 99 73 74 3c
       0.05315278 -0.061474 0.06736609 0.014920139
000020 6a 8f f0 3b d3 31 04 3d 76 c5 41 3d 9e e0 a5 3d
       0.007341315 0.03227408 0.047307454 0.08099483
000030 47 a5 9e 3c b9 c8 c2 3d ea 14 f2 3d 1a 80 7a 3c
       0.01936592 0.09510941 0.11820395 0.015289331
000040 73 bc b8 bd 56 b7 03 3e e9 7d dd 3d 00 1f 4d bc
       -0.09020319 0.12862906 0.10815031 -0.012519598
000050 bc 42 fe bc 56 2d 33 bd 0a ed 53 3d 0b 92 ed bb
       -0.03103768 -0.043744408 0.05173973 -0.0072500757
000060 83 e2 15 3e 07 ad 0c bd df fe c5 3c a8 70 1b 3d
       0.14637189 -0.0343447 0.024169384 0.037949234
000070 07 72 ba 3d 57 94 58 bd ae cc c1 3d 2b 49 00 bc
       0.0910378 -0.052875843 0.09462868 -0.007829945

functional_1_1/dense_1_2/Cast/ReadVariableOp:0 f4 [128, 64]
000000 f1 07 f0 3d f4 7e 2e be c3 12 8d 3d 6a c9 9f bd
       0.11720265 -0.17040616 0.06888344 -0.078020886
000010 27 3c 90 3d c2 f2 ed bd cd 57 c6 3d 69 fa 3e 3e
       0.07042723 -0.11618568 0.096847154 0.18650211
000020 6e e9 5d be 99 92 35 be 6d d0 82 3d 66 80 d0 bd
       -0.21671078 -0.17731704 0.0638741 -0.1018074
000030 05 20 b9 bc ea fb 1c 3d e3 41 2c 3c 45 2a cc bd
       -0.022598276 0.03832618 0.0105137555 -0.09969
000040 ba c7 09 3e fb 1e 2f 3d 25 0a bd bd 5d bd 50 3e
       0.13455096 0.042754155 -0.092304505 0.20384736
000050 0b d9 a9 bd 93 93 3b 3e 1f de 1b be 9c a0 05 3e
       -0.08293351 0.18318014 -0.15221451 0.13049549
000060 e5 dc 89 3e df bd 0f be a5 77 55 bd c7 72 7a 3d
       0.26926342 -0.14037274 -0.052116055 0.061144616
000070 4e b4 93 bd 60 2c 28 3e 85 45 37 3e 2f c8 f5 bd
       -0.07212125 0.16423178 0.17897613 -0.120010726
000080 6e d6 3d bd 5a c1 ae bd 71 02 41 3e 49 68 1f 3e
       -0.046347074 -0.08532973 0.18848588 0.15567125
000090 a1 95 73 3d df 9f 07 be 29 a4 35 3e 2e ee f4 3b
       0.05946887 -0.1324458 0.17738403 0.0074746823
0000a0 c7 a8 16 3e ff c0 4e be a3 4c 5f 3e a2 9c 8a bd
       0.14712821 -0.2019081 0.21806578 -0.067681566
0000b0 21 b1 8b bd e2 1a 89 bd 80 f5 ec bd 39 cb 29 3e
       -0.06820894 -0.066945806 -0.11570263 0.1658143
0000c0 cb 88 9f bd f3 4c da bd 37 00 58 bd 05 bb 8b 3c
       -0.07789763 -0.10659208 -0.05273458 0.017056951
0000d0 02 69 99 3c 2b f0 64 bd 73 10 c1 bd 4b 62 59 be
       0.01872683 -0.055893105 -0.094269656 -0.21228902
0000e0 d8 d4 b6 3d a9 2d ce 3d 77 d7 cf bb 22 cf 35 be
       0.089273155 0.10067303 -0.006342824 -0.17754796
0000f0 58 1f dc 3d b8 b0 24 be 24 dc f3 bd a9 59 c7 bd
       0.10748166 -0.16083038 -0.11907223 -0.09733898
000100 c4 7a 65 be 1c d9 89 3a eb 35 13 3e e7 d3 45 3c
       -0.22410113 0.0010516974 0.14376037 0.012074447
000110 b0 e0 e6 3c 57 ec 65 bd 02 bd 65 3d ec a3 f5 3d
       0.028183311 -0.056133594 0.056088455 0.11994156
000120 3f 5c a2 3d a5 02 18 bd 08 18 2b 3e 92 71 c2 3c
       0.07927751 -0.037111897 0.16708386 0.023735795
000130 44 05 ea bd a0 d5 e2 bd e5 b4 bd 3c 9d 79 ac 3d
       -0.114267856 -0.11075902 0.023157546 0.084216334
000140 f5 50 7e 3e f1 b5 a9 3d 3e 47 62 3e 05 20 da bc
       0.2483557 0.08286656 0.22097489 -0.026626596
000150 46 7d b0 bd 0f 73 89 3e ca a3 5a be ba c0 90 3d
       -0.08617644 0.26845595 -0.21351543 0.0706801
000160 58 38 04 be bc ca 56 3e 4f 9b d3 3c 43 31 04 3e
       -0.12912118 0.20975775 0.025830893 0.12909417
000170 74 b8 38 3e 69 7a 25 bd f5 08 25 be 1d 07 65 3d
       0.18039113 -0.040399943 -0.16116698 0.055914987
000180 52 ef 8c 3e 78 97 f0 3d 6a 09 7a be 2d 51 71 3d
       0.27526337 0.1174764 -0.24417654 0.058915306
000190 8e 02 0a be e0 7b 9b 3d 62 19 9c 3d b5 42 36 be
       -0.13477537 0.07591987 0.07622029 -0.17798884
0001a0 6a 43 06 be bb a0 c4 3d da 6a 43 be 19 bb bb bd
       -0.13111654 0.096009694 -0.1908373 -0.091665454
0001b0 c8 78 27 bc 66 30 27 3e 71 52 a7 bd e8 d7 42 bd
       -0.010221668 0.16327056 -0.08170021 -0.047569185
0001c0 c7 77 d3 bd 50 b1 12 be fb 87 44 3d 23 c1 ce bd
       -0.1032558 -0.14325452 0.047981244 -0.10095432
0001d0 94 a3 ba 3c d9 9a d3 bd 09 5e 27 bd 3a d4 aa bd
       0.022783078 -0.10332269 -0.040861163 -0.0834126
0001e0 ff 14 2f 3e 27 8e ae 3b d6 24 ca bd 97 d3 6b 3c
       0.17097853 0.0053270045 -0.09870307 0.014393709
0001f0 c2 9c 13 3d 3b 48 ff bc 6b 4a ff bd 42 bd bd 3d
       0.036038168 -0.031162372 -0.12465366 0.09264614
000200 bc 56 16 bd 6d 18 f0 bd b8 21 48 3e b9 de ee bc
       -0.03670381 -0.11723409 0.19544113 -0.029158937
000210 65 c3 03 3d f5 6e 18 bd f6 1e 48 be b3 86 2d bd
       0.032168765 -0.037215192 -0.1954306 -0.042364787
000220 5a 4b 85 bd 8d be 74 3d 76 19 35 3b f6 ee cc bd
       -0.06508513 0.059752036 0.0027633584 -0.10006516
000230 18 c8 9b bd 3c 75 62 3e 70 b2 84 3d 3b 8a ce bd
       -0.07606524 0.22115034 0.06479347 -0.10084959
000240 21 92 a7 bc b2 c3 ee bd 6d 3e ae bd 6b 56 d8 3d
       -0.020455422 -0.1165842 -0.085080005 0.10563358
000250 5b b0 8e bd 79 13 3a 3d 56 d5 b4 3d 3f 3f 18 3e
       -0.06967231 0.045428727 0.08829753 0.14867876
000260 66 dd af 3d e5 93 ac bc 40 59 b5 bd 19 bb 41 3d
       0.0858715 -0.021066615 -0.08854914 0.04729757
000270 c7 36 16 bd 3f ec 1f 3d 49 3a b6 3d 39 22 09 3e
       -0.036673333 0.03904366 0.08897836 0.13391961
000280 fb ab 81 be 0f 9b 5d bd 43 ca 6d be 62 5d 2c be
       -0.25326523 -0.054102954 -0.23221688 -0.16832498
000290 ba 3f 0b 3e 4e e4 8e bd 45 e1 cb 3d 6b 56 c6 bd
       0.13598529 -0.069771394 0.09955076 -0.09684452
0002a0 4c f9 18 bd 62 15 69 3e 0f fb f5 bd 41 99 ae 3c
       -0.037347123 0.22762063 -0.12010776 0.021313312
0002b0 df 6d 0e 3d de 5c 29 be e7 d6 db 3c 7a 5c 87 3d
       0.03477275 -0.16539332 0.026835872 0.066094354
0002c0 49 86 a1 3d 8e 7b ca 3d dc 2d 1a be 64 20 ec 3b
       0.07886941 0.098868474 -0.15056556 0.0072060097
0002d0 46 78 33 be 61 73 88 be 42 f9 8e be 45 7c 4d be
       -0.1752635 -0.26650527 -0.27924544 -0.20066936
0002e0 2e 10 47 bd fd ba c0 3d f3 e0 77 3c a9 48 8f 3d
       -0.048599415 0.09410665 0.015129316 0.06996281
0002f0 1c f1 9a be 55 dd 44 3e 25 ae 23 3e 28 e0 08 be
       -0.30262077 0.19225056 0.159844 -0.13366759
000300 76 e8 8e bd a8 4d 8f 3c da 44 96 bb ee 16 32 be
       -0.06977932 0.017493084 -0.0045858445 -0.1739156
000310 a5 03 e1 3d 2c 0d 76 3e 11 a8 56 3d 37 34 bb bd
       0.10987023 0.24028462 0.052406374 -0.091408186
000320 1b 31 ae 3d d4 90 b8 3b d7 eb 1c 3e 95 cc 46 3e
       0.0850546 0.0056324992 0.15324341 0.1941398
000330 1e 61 01 bd ea b8 99 3c 3a 36 a8 3d 80 e1 b6 bd
       -0.03158676 0.018764932 0.08213468 -0.089297295
000340 b8 13 85 bd dd 45 3f be df 6b 1d bd 13 53 e2 3d
       -0.06497902 -0.18678994 -0.038432952 0.110510014
000350 cc dd 23 3e b5 27 fd bc 4d 18 66 3e 41 61 e8 bc
       0.16002578 -0.030902723 0.22470208 -0.028366687
000360 8d c0 3d 3e a6 d6 44 3e 95 57 58 3d 1d 9a 1d 3d
       0.18530484 0.19222507 0.0528179 0.038477052
000370 c0 1a 54 3d bc 64 58 3e f1 7d b3 bd cb 75 6e bd
       0.051783323 0.21132177 -0.08764256 -0.058217805
000380 e5 83 8f 3d 6a 63 78 be 27 da c4 3c 9f d8 d1 3d
       0.07007579 -0.24256673 0.024029804 0.10246395
000390 45 26 f5 3d 81 b1 49 3d c4 81 2e 3e a9 af 3a bd
       0.1197019 0.049241547 0.17041689 -0.04557768
0003a0 76 3f f0 3d 7c 48 6c be aa aa 01 be 7b 84 16 bd
       0.11730854 -0.23074526 -0.1266276 -0.036747437
0003b0 0c 8b 0a bc 94 06 8d 3d 11 0f eb 3d fa b4 25 bd
       -0.008456003 0.0688602 0.11477483 -0.040455796
0003c0 55 d0 42 3e 5d 1a 3e be 8d 82 9d bd 82 df 7e 3d
       0.19024785 -0.18564744 -0.07690916 0.062224872
0003d0 61 70 ff bd 2a 04 42 3d 72 03 4c 3e 4a da 32 3e
       -0.124726065 0.047367252 0.1992319 0.17466083
0003e0 98 2d 06 3e dd de 5d 3e 2b a6 49 3d 43 31 c0 bd
       0.1310333 0.21667047 0.049230736 -0.09384396
0003f0 fb ea 64 bd e9 f4 21 bd d0 90 0e be 86 8d d9 3d
       -0.055888157 -0.039540205 -0.13922429 0.106226966

functional_1_1/dense_1_2/Add/ReadVariableOp:0 f4 [64]
000000 e7 3d 96 bd 14 43 d8 bb 48 27 b5 bd 5a fe 46 3d
       -0.07336026 -0.006599793 -0.08845383 0.048582412
000010 17 b2 a0 3d 4f 9d 42 bd 14 ba a4 bd 02 45 70 3d
       0.07846468 -0.047513302 -0.08043304 0.05865956
000020 8c ae 20 3d 30 06 c9 3c 19 ae 87 bc 11 d8 98 3b
       0.03922896 0.024539083 -0.016562508 0.004664429
000030 e7 1f b7 3c b5 ae c3 3d 5d 36 9a bd ab 19 3f bc
       0.02235408 0.09554807 -0.075299 -0.011663835
000040 bf 28 ca 3c 1e 65 12 3d 86 d6 2f 3c f4 35 18 3d
       0.024677632 0.035740964 0.010732299 0.03716083
000050 f7 81 6c 3d fa 2b d7 bc aa bb 48 3d fe 4b c1 3d
       0.05774113 -0.026266087 0.049007095 0.094383225
000060 b7 9c 9c 3d d9 78 d0 3c 74 d5 ae bd 3a 6d 8f 3c
       0.076470785 0.02544825 -0.08536807 0.017508138
000070 43 fd a4 3c 59 4e 14 3b 29 c4 a9 ba 7c 8b 16 bd
       0.020140296 0.0022629707 -0.0012952137 -0.036754116
000080 40 97 f9 3c 06 ea 34 3d 2b 74 cb 3d 8b fa 37 bb
       0.03046763 0.044168495 0.09934267 -0.002807292
000090 9b 5e 62 bd 86 a4 88 bd b9 1f 0d 3d 09 66 cb 3c
       -0.055266004 -0.06672005 0.03445408 0.024828928
0000a0 55 36 7e bd a6 39 bb 3d dd 7e 43 bb 9d 96 1d 3d
       -0.062063534 0.09141855 -0.0029830255 0.038473714
0000b0 2a b7 e0 3d 0c 90 50 bd b1 47 75 3d 92 dc e1 bd
       0.10972436 -0.050918624 0.059882823 -0.110283986
0000c0 8f a4 1b 3b 03 94 6d bd dc e4 97 bd 4a fe 75 bd
       0.0023749208 -0.058002483 -0.07416698 -0.060056962
0000d0 e9 77 86 bd 59 44 bc 3c 14 3d b3 3d 46 4f ef 3c
       -0.0656584 0.02298181 0.08751884 0.029212605
0000e0 40 c5 03 3d 1d e9 15 3a d8 92 31 bd 5b 0b c9 3b
       0.032170534 0.00057186355 -0.04335293 0.006135387
0000f0 f5 65 92 bd 65 06 90 3c 8c f2 be 3d f7 76 ad 3c
       -0.07148353 0.017581174 0.09323606 0.02117489

functional_1_1/dense_1/Cast/ReadVariableOp:0 f4 [25, 128]
000000 64 54 45 3d 5c e1 04 bd 74 e1 10 be d0 90 61 bc
       0.048176184 -0.032441482 -0.14148504 -0.013767436
000010 32 38 da bd 00 fc 53 39 98 69 25 3d 0c 43 0e be
       -0.1065525 0.00020216405 0.040383905 -0.13892764
000020 f1 be 43 3e 9a b5 c6 3d 80 d2 b0 3a a0 79 c0 bd
       0.19115807 0.097026065 0.0013490468 -0.09398198
000030 6c e1 05 be a0 7d 82 bb 68 6d 26 3d 90 fd 19 3c
       -0.13074273 -0.003982261 0.04063168 0.009398833
000040 78 84 f1 bc 22 0f 14 be 1c c8 5d 3d 0c 10 68 3d
       -0.029482111 -0.14458898 0.054145917 0.05665593
000050 ec f1 5a 3d e5 7d 03 3e 1a 3e 9d 3d b1 b0 20 3e
       0.05345337 0.12840994 0.076778606 0.15692402
000060 80 0d cc bc 08 89 9d bd 8d 4c 45 be b5 9c 37 3e
       -0.024908781 -0.07692152 -0.19267483 0.17930873
000070 a0 2b 61 3c f8 76 3c 3d db 44 08 3e f6 5f b8 3d
       0.013743311 0.046011895 0.13307516 0.09002678
000080 5d 08 22 3e 00 36 aa 3b a8 ad 03 be 4d 10 f8 bd
       0.15823503 0.0051944256 -0.12859213 -0.12112484
000090 e5 04 df bd d8 c9 52 bd cf 66 0b 3e a5 23 1e 3e
       -0.108896054 -0.051462024 0.13613437 0.15443285
0000a0 56 0d d8 3d a8 27 12 be 1d 20 1e be a6 b5 bb 3d
       0.10549419 -0.1427294 -0.15441938 0.09165506
0000b0 6b 5c 11 3e 9e 76 b1 bd 5e fe 9f 3d f6 52 9d 3d
       0.14195411 -0.086652026 0.078121886 0.07681839
0000c0 11 ac e3 bd 63 07 19 3e b1 11 b9 bd 28 fe 07 be
       -0.111168034 0.14944224 -0.090365775 -0.13280547
0000d0 6c 5b 0f be db 20 19 be ad 7e 1f 3e 08 f4 f6 bc
       -0.13999718 -0.1495394 0.15575667 -0.03014566
0000e0 7c bf 5d 3d d0 e6 41 bd f0 f9 49 be fc 4d 65 bd
       0.05413769 -0.04733926 -0.1972425 -0.055982575
0000f0 6c f4 74 bd d1 58 1f be 92 12 1c be 46 37 2d be
       -0.05980341 -0.15561225 -0.15241459 -0.16915616
000100 88 3c 28 be 32 d6 b0 3d bf e7 12 be 84 39 38 3d
       -0.16429341 0.086346045 -0.14346217 0.044976726
000110 5c fd 67 3d c5 71 c6 bd 3b f4 36 be 10 df 94 3c
       0.056638107 -0.096896686 -0.17866604 0.01817277
000120 8d 4b 29 3e b8 aa f5 3c 62 aa bd 3d 3c 2d c9 bd
       0.16532727 0.029988632 0.092610136 -0.09823081
000130 55 1a 0a 3e 48 39 32 be ad 2b 3f be d6 d5 ee 3d
       0.13486607 -0.17404664 -0.18669005 0.1166188
000140 c1 ae 34 be 06 92 c4 3d 82 02 87 3d 79 1a 27 3e
       -0.17644788 0.09598164 0.06592275 0.16318692
000150 15 94 e3 bd 26 12 ee 3d d0 36 4f bd 60 66 a7 bd
       -0.11112229 0.11624555 -0.050589383 -0.08173823
000160 ad 54 30 3e bc 9d 12 be 24 0d 09 bd 28 d9 ff 3c
       0.17219801 -0.14317983 -0.033459798 0.031231478
000170 61 90 3e 3e 36 fb c7 3d 4a 6e 08 be d6 97 95 3d
       0.18609764 0.097647116 -0.13323322 0.07304351
000180 00 f5 29 3a c7 50 e3 bd 7b ba 11 be 4d bc 3c 3e
       0.0006483346 -0.110993914 -0.14231293 0.18431206
000190 60 2c c3 3b 7d 64 44 3e b0 77 6c bd 78 6e c5 3c
       0.0059562176 0.19178958 -0.05773133 0.024100527
0001a0 dc 9b 67 3d 10 af 92 3c 60 66 4c 3d 56 3d fd 3d
       0.056545123 0.017905742 0.04990232 0.123652145
0001b0 40 0c 76 3c 53 68 28 3e bc 42 5d 3d 94 2e 38 bd
       0.015017569 0.16446047 0.05401872 -0.044966295
0001c0 00 d0 2a 3a 62 b4 b2 3d 28 67 b5 bd 2f 47 1c be
       0.000651598 0.087258115 -0.08857566 -0.1526153
0001d0 00 22 b5 3c c9 c1 2e be bb 5f 18 3e 1b cc 45 be
       0.022110939 -0.1706611 0.14880268 -0.19316141
0001e0 cf a8 08 be c8 57 c3 bc 90 5e d9 bd 16 c7 9e 3d
       -0.13345645 -0.023845568 -0.106137395 0.077528164
0001f0 c8 49 26 be de 8a fd 3d c2 ce 92 bd 10 01 b2 bc
       -0.16239083 0.123800024 -0.07168342 -0.021729022
000200 2d ce 3f 3e e8 1f 25 3e dc 94 40 bb 10 0a 41 bc
       0.18730994 0.16125453 -0.0029385602 -0.011782184
000210 3f cb 6f be 6a db 24 bd d4 cd 22 3e cb dd af 3d
       -0.23417376 -0.040248312 0.1589883 0.085872255
000220 4b 31 89 be a5 29 42 bd b0 e8 7f 3d b0 4d f9 bc
       -0.2679542 -0.047402997 0.062477767 -0.030432552
000230 82 95 c7 bd 5e 04 3d 3e 04 ba 57 3e 18 1d 01 be
       -0.09745313 0.18458697 0.21067053 -0.12608755
000240 3b f4 f2 bc 10 d7 6c be ab ba 6b 3e 72 0c c0 bd
       -0.029657474 -0.23128915 0.23020427 -0.09377374
000250 d8 1f ab 3c ef 75 ec bd 70 cf 20 3e 8d b7 1d bd
       0.020889208 -0.115459315 0.15704131 -0.038505126
000260 35 01 b0 bd b7 b5 0c 3d 7f da 51 be b2 bc 2b bc
       -0.0859398 0.034352984 -0.20493506 -0.010482
000270 a6 e9 24 3e bc 42 09 3e e3 78 f8 3c 44 94 eb 3d
       0.16104755 0.13404363 0.03033108 0.11502889
000280 56 19 d2 bd 84 99 29 be 31 24 49 bd b0 ac b7 3d
       -0.10258739 -0.16562468 -0.04910678 0.089684844
000290 1f 99 ce bd 0d fa 4d 3d 3c fe c3 3d be 3f ec 3d
       -0.10087799 0.050287295 0.09569976 0.11535595
0002a0 35 17 3e be 99 2b 01 bd b1 78 8c 3d 30 a5 1d be
       -0.1856354 -0.03153572 0.068589576 -0.15395045
0002b0 cb dd ce bd cd 98 8b 3d ae 39 ee bd 61 f8 da bd
       -0.101008974 0.06816254 -0.11632095 -0.10691906
0002c0 30 c0 af bd db 32 90 bd e4 e4 2d 3d b9 e8 7d bc
       -0.08581579 -0.0704095 0.042454615 -0.01549738
0002d0 e8 dc f7 3c 1e 54 93 bd 8e b3 24 be 92 16 5d be
       0.030256703 -0.071937785 -0.1608412 -0.21590641
0002e0 3c bc fe 3c e4 bd 8a be 54 41 06 be 0d 51 a3 bd
       0.031095617 -0.27098 -0.13110858 -0.079744436
0002f0 52 e2 7f 3e 63 e0 38 3e 5d af 52 3d 98 e9 ce 3b
       0.24988678 0.18054347 0.05143677 0.0063144676
000300 d1 81 fb bd d2 4b 60 3d d9 3b 85 3e 22 f8 2d be
       -0.1228062 0.054759808 0.26022223 -0.16989186
000310 de 83 e1 3c c4 d0 fe bd 38 48 03 3e e9 de 48 3d
       0.0275287 -0.12442163 0.12820518 0.04904071
000320 db 39 2e 3b f0 09 d3 3b 78 56 3f 3c 1a c0 10 be
       0.0026584778 0.0064403936 0.011678331 -0.14135781
000330 23 cf 81 3e b5 3e 1d be fa 3f 55 be d2 69 c8 bd
       0.25353345 -0.15355952 -0.20825186 -0.097858086
000340 da e8 14 be 2d e8 3a 3e b5 11 8b bd 2b 31 28 3c
       -0.14541951 0.1825263 -0.06790487 0.010265629
000350 b2 ab 53 3e a3 24 cf bd f2 d7 0c bc 41 41 0d be
       0.20670965 -0.1011441 -0.008596407 -0.13794424
000360 5c 23 de bc d2 2d 83 bd 38 70 95 be ef d4 e2 3d
       -0.02711647 -0.06405224 -0.2918718 0.1107577
000370 dd a6 60 3d 4a 90 d6 bd 29 8b a5 3d 13 7a 62 3e
       0.054846633 -0.1047674 0.08083183 0.2211688
000380 73 96 ee bc 38 40 f7 3d f5 a6 37 be a3 7a bd 3d
       -0.029124474 0.12072796 -0.17934783 0.09251907
000390 fa 11 d0 bc 5e 43 42 be 58 73 aa bd 8c 22 5e 3d
       -0.025399197 -0.18971011 -0.08322781 0.054232165
0003a0 ca b3 23 b9 2c c3 00 3e 20 23 ae bd 93 b8 78 3e
       -0.00015611868 0.12574452 -0.08502793 0.2428916
0003b0 8f 04 9e 3d ae 73 86 3e d9 60 5f be 60 9c 0d 3e
       0.07715713 0.26260132 -0.21814288 0.13829184
0003c0 df 31 67 3d 56 d5 7b bd 93 f4 74 bd 55 68 c4 bd
       0.056444045 -0.06148275 -0.059803557 -0.09590212
0003d0 21 00 35 be 9b b5 84 bd bc dd a2 3e 01 3d 14 3d
       -0.1767583 -0.06479951 0.31809795 0.03619099
0003e0 8b cb 50 3d 50 f6 60 3e 07 02 23 be 9e bb 80 3e
       0.050975364 0.21968961 -0.15918742 0.2514314
0003f0 cb 4d 36 be dd 38 aa bb a2 6d 0e 3d 12 e9 91 bd
       -0.17803113 -0.005194767 0.034772523 -0.07124533

functional_1_1/dense_1/Add/ReadVariableOp:0 f4 [128]
000000 a2 db 23 3d be 4d b9 3b 4c 7f 8e 3d 40 73 da 3c
       0.04000438 0.0056550195 0.06957874 0.026666284
000010 33 f2 e0 ba f1 b6 8a bd 99 28 7b bd 77 89 cc 3d
       -0.0017162025 -0.067731746 -0.061318014 0.09987157
000020 b7 73 10 bc 37 b7 3f 3d 47 e9 e1 bd 6c 0a 4d 3c
       -0.008816651 0.046805587 -0.11030822 0.012514692
000030 79 a7 f5 3b a6 cc 5e 3c a4 a4 6f 3d a2 a2 3a bc
       0.007496771 0.013598597 0.058506623 -0.011391314
000040 a6 da 84 3d f5 1b dd bd 73 38 76 bc 03 27 eb bd
       0.064870164 -0.10796348 -0.015028107 -0.1148205
000050 1f a3 00 3b c5 f6 a9 bd 1d bd 5f 3d d9 18 a0 bd
       0.0019628478 -0.08299021 0.05462371 -0.07817239
000060 fb f9 9a 3c bb e1 6c bd 8a 7d ab bd 33 06 95 bd
       0.018918028 -0.05783246 -0.08373554 -0.07276573
000070 f1 5b b7 bd 7a 72 1c bd d7 18 f2 3d 8c 2b 17 bd
       -0.08953083 -0.03819511 0.11821144 -0.036906764
000080 56 1f 74 3d e1 68 86 3d e0 b0 3b 3d 83 cf cc bb
       0.059600197 0.06562973 0.045822978 -0.0062503233
000090 97 1e 3b 3d 42 fb 93 3d 54 3e ab 3d 00 00 00 00
       0.04568347 0.07225658 0.083614975 0.0
0000a0 d7 d5 82 3c 97 d8 20 bd 46 ba 54 3b 4e e5 75 bd
       0.015971107 -0.039269056 0.003245966 -0.060033135
0000b0 00 00 00 00 8c 97 fe 3d 3b e6 28 3d 20 ac d6 ba
       0.0 0.12431249 0.04123519 -0.0016378202
0000c0 9a d4 a7 3d ad 74 8c 3d 00 00 00 00 1f 8f 33 3d
       0.081948474 0.06858192 0.0 0.043837663
0000d0 f2 69 80 3d 42 68 ed bc c6 3f 26 3d 25 b6 c4 bc
       0.062702075 -0.028980378 0.040588163 -0.024012635
0000e0 a4 c9 af 3c e1 90 25 bc 43 71 e8 3d 05 74 ae 3d
       0.021458454 -0.010105343 0.11349728 0.08518223
0000f0 a4 46 b7 3d ad 8c a5 3d 54 7b 9a bc 0f 99 13 bd
       0.089490205 0.080834724 -0.018857636 -0.03603464
000100 f7 ca 86 3d b6 1c 18 3c e8 59 a0 bc 4e 86 52 3d
       0.06581681 0.009284189 -0.01957412 0.051397614
000110 02 76 df 3d e6 96 63 bd d5 04 ce 3c b0 cc 42 3c
       0.1091118 -0.05556383 0.025148788 0.011889622
000120 7d 7e c6 3d de bb 86 bc 37 86 00 bd 8a 3c 50 3c
       0.096920945 -0.016447004 -0.031377997 0.012709746
000130 89 41 2b 3c 00 00 00 00 89 28 87 bd 3e 34 cc 3d
       0.0104526365 0.0 -0.06599528 0.09970902
000140 00 00 00 00 b3 e0 c8 3d ea 33 37 bd 13 a1 9a 3d
       0.0 0.09808483 -0.044727243 0.07550254
000150 4f 3c 1d 3c ed 97 63 bd 59 ab 96 3c 12 2e 30 bd
       0.009596898 -0.05556481 0.018392252 -0.043012686
000160 be 46 d1 bc 00 00 00 00 5b c5 ab bd 00 77 db 3c
       -0.025546428 0.0 -0.08387252 0.026790142
000170 18 01 0e bd 4b 38 42 bd 33 59 62 bc 30 94 76 3d
       -0.03466901 -0.047416966 -0.013815212 0.060199916
000180 b0 75 da 3b de b2 14 bd 1e 05 e7 ba 1a af 3e bd
       0.0066668615 -0.036303394 -0.0017625426 -0.04655371
000190 58 bb cf 3c b9 4d 9c bd 04 f1 ac bd a7 fe d9 3c
       0.025357887 -0.07632012 -0.084444076 0.026610686
0001a0 4d 66 e7 bc de 56 8c 3d 91 49 81 3b c6 64 b6 bb
       -0.028247023 0.06852506 0.0039455374 -0.0055662123
0001b0 9c df d5 bc e2 fd 87 3c 18 ee 52 bd 6e 41 75 3d
       -0.026107602 0.016600553 -0.051496595 0.05987685
0001c0 04 34 ac bd b9 a3 c2 3d 61 e0 ad 3d 4d e4 33 3d
       -0.08408359 0.09503884 0.084900625 0.043918896
0001d0 ff 2f 21 bc f1 5b b7 bb 26 7d 76 3d 70 e5 75 bd
       -0.009838103 -0.005595677 0.060177945 -0.06003326
0001e0 38 79 21 3c fd 2d 1c 3d aa d9 84 3d ee 46 25 3d
       0.009855561 0.038129795 0.064868286 0.040350847
0001f0 3f 6c 5a 3d c8 58 82 3d 70 c8 38 bc 00 00 00 00
       0.053325888 0.0636459 -0.011278257 0.0

functional_1_1/batch_normalization_2_1/batchnorm/sub:0 f4 [32]
000000 04 f3 03 be 4a 6c 67 be 18 c5 82 be a8 b1 c0 be
       -0.12885672 -0.22599903 -0.25540996 -0.3763554
000010 21 3c b4 be 50 d6 b3 be 4b 60 d0 be 18 25 49 be
       -0.35202125 -0.35124445 -0.40698466 -0.19643056
000020 da a7 bc be cb 67 62 be f6 42 90 be 2f 72 92 be
       -0.3684681 -0.22109906 -0.28176087 -0.2860274
000030 73 4e d6 be 4b fb e9 be b0 5c 99 be a4 7b 77 be
       -0.41856727 -0.45699534 -0.29953527 -0.24168259
000040 e8 d5 8a be 74 b3 aa be 03 89 9b be 26 3c 57 be
       -0.27116323 -0.33340037 -0.3037797 -0.21019039
000050 46 78 c5 be 07 ac ae be 71 25 4a be b8 78 fe be
       -0.38568324 -0.3411562 -0.19740845 -0.49701476
000060 d6 3e 65 be 17 ad 0d be 9e 04 d3 be 72 3d cd be
       -0.22387251 -0.1383556 -0.4121446 -0.40085942
000070 48 84 6e be 54 b4 cb be c9 52 79 be 64 15 f6 be
       -0.23292649 -0.39786017 -0.24347986 -0.48063195

functional_1_1/batch_normalization_2_1/batchnorm/mul:0 f4 [32]
000000 db 2f 12 3f d0 27 36 3f 4c 51 f3 3e 81 93 59 3f
       0.5710427 0.711545 0.47522962 0.849907
000010 cd 94 68 3f 16 f5 85 3f d6 a9 5c 3f a0 da e6 3e
       0.9085205 1.0465419 0.8619665 0.45088673
000020 57 21 72 3f 23 4c 70 3f cb 1f 77 3f 7c 86 3e 3f
       0.9458212 0.93866175 0.9653289 0.74423957
000030 5e 4b 24 3f 52 ad 3b 3f a1 f7 47 3f 6b c4 fd 3e
       0.641775 0.7331134 0.78112227 0.49563918
000040 35 b7 6b 3f e1 db 32 3f f6 a5 53 3f a9 6e 42 3f
       0.92076427 0.6986676 0.8267511 0.75950104
000050 78 f7 2f 3f 4b 95 59 3f fc e6 4c 3f c6 71 4a 3f
       0.6873698 0.8499343 0.80039954 0.79079854
000060 6a 65 3b 3f fc 03 51 3f 9d 36 3e 3f d2 ea 20 3f
       0.7320162 0.81646705 0.74302083 0.6285831
000070 e2 41 29 3f 4d 63 20 3f 54 5b 2a 3f c1 3f 3a 3f
       0.66116154 0.6265152 0.66545606 0.7275353

functional_1_1/batch_normalization_1_2/batchnorm/sub:0 f4 [64]
000000 3b b8 bb be f2 6f d5 be 8b 65 00 bf a4 84 bb be
       -0.36663994 -0.4168697 -0.5015494 -0.36624634
000010 e3 db 08 bf 33 cb a7 be a3 49 ec be f8 45 b6 be
       -0.5346052 -0.32772216 -0.4614993 -0.35600257
000020 df 13 c6 be 31 04 b6 be 67 ab 84 be 5b 36 03 bf
       -0.38687035 -0.35550073 -0.2591202 -0.51254815
000030 eb d7 9c be f6 8f f3 be 40 46 85 be b4 8d ff be
       -0.30633482 -0.4757077 -0.2603016 -0.49912798
000040 48 15 99 be 19 68 dc be d4 e4 c9 be 0a 96 09 bf
       -0.2989905 -0.4304817 -0.39432395 -0.53744566
000050 2d f0 e1 be e8 da d6 be 19 b5 df be e0 d3 eb be
       -0.44128552 -0.41963887 -0.43692854 -0.46060085
000060 7e fc c7 be 4c f2 96 be 99 75 e4 be 76 5d e4 be
       -0.39059824 -0.29481733 -0.4462097 -0.44602555
000070 a7 40 bb be 02 1c c1 be bc 91 a1 be e0 13 f5 be
       -0.36572763 -0.3771668 -0.315565 -0.47866726
000080 fe d0 77 be e6 3f e5 be 36 10 db be 60 80 9e be
       -0.24200818 -0.44775313 -0.42785805 -0.30957317
000090 3a 4d fb be 30 32 e7 be 1a 4c 8e be 34 1e d0 be
       -0.49082357 -0.45155478 -0.27792436 -0.40648043
0000a0 48 a6 c3 be 5c 9b 08 bf 44 57 c5 be 8c 52 a9 be
       -0.382128 -0.5336206 -0.3854314 -0.3307079
0000b0 a2 a4 ae be a2 19 c9 be 50 e2 08 bf fe 37 8d be
       -0.3410998 -0.3927737 -0.53470325 -0.2758178
0000c0 00 0c e1 be fe 67 a8 be 4d 02 90 be 46 27 d0 be
       -0.43954468 -0.3289184 -0.28126755 -0.40654963
0000d0 84 4d c0 be 98 15 c8 be 42 88 ea be ae 8e be be
       -0.3755914 -0.39078975 -0.4580708 -0.3721823
0000e0 5a bc b3 be fe 54 9d be c4 d3 e5 be ae ab ed be
       -0.35104638 -0.30728906 -0.44888127 -0.46420044
0000f0 9c 0b 3a be 13 98 02 bf ee 65 d5 be bf 1d 9a be
       -0.18168491 -0.51013297 -0.4167933 -0.3010082

functional_1_1/batch_normalization_1_2/batchnorm/mul:0 f4 [64]
000000 3c d5 04 3f 66 f3 7e 3f b3 02 6a 3f 9c e0 61 3f
       0.5188787 0.99590147 0.9141037 0.8823335
000010 23 f2 82 3f e2 83 56 3f 52 92 84 3f a5 86 3d 3f
       1.0230144 0.8379499 1.0357153 0.74033576
000020 13 af 86 3f 50 39 79 3f fa 01 53 3f 56 62 42 3f
       1.0522178 0.97353077 0.8242489 0.759313
000030 2c 78 db 3e 26 89 49 3f 66 22 99 3f 9c ab 7a 3f
       0.4286512 0.78724897 1.1963623 0.97918105
000040 8c f4 62 3f 55 04 43 3f 2c 91 61 3f 46 e6 7b 3f
       0.886544 0.76178485 0.8811214 0.98398244
000050 72 4a 5c 3f cc d7 4e 3f b2 e9 36 3f 93 3a 66 3f
       0.86051095 0.8079803 0.7145034 0.8993313
000060 c7 b0 75 3f 2c d7 67 3f 1f cc 34 3f b3 7b 47 3f
       0.95972866 0.905627 0.70623964 0.77923125
000070 57 3c 79 3f 2d 5c 67 3f 1d e4 53 3f 8d 60 59 3f
       0.97357696 0.90375024 0.8276995 0.8491295
000080 67 6d 3e 3f 36 1a 7a 3f bc 27 59 3f 5a 52 25 3f
       0.74385685 0.97696245 0.84826255 0.64578784
000090 c9 2e 73 3f ab 47 3d 3f da fc 55 3f da 6d 62 3f
       0.94993263 0.7393748 0.83588946 0.8844887
0000a0 06 33 85 3f 49 d6 57 3f 35 92 3d 3f 20 19 5b 3f
       1.0406196 0.8431135 0.7405122 0.8558521
0000b0 de 44 48 3f 22 99 7f 3f 56 d9 64 3f b2 4a 5d 3f
       0.78230083 0.9984304 0.8939413 0.864421
0000c0 96 4f 48 3f 7e ca 5e 3f 02 8b 4d 3f f2 e6 5c 3f
       0.7824644 0.8702773 0.80290234 0.86289895
0000d0 bf 97 69 3f 23 2e fc 3e 27 c6 21 3f 8e dd 2b 3f
       0.9124717 0.4925395 0.6319298 0.6713494
0000e0 f5 97 61 3f 5e af 19 3f 04 26 7b 3f cf 37 80 3f
       0.88122493 0.60033214 0.9810488 1.0017031
0000f0 bd 40 82 3f 9c 97 6b 3f f3 9f 4c 3f fa 37 4f 3f
       1.0176007 0.9202821 0.79931563 0.8094479

functional_1_1/batch_normalization_1/batchnorm/sub:0 f4 [128]
000000 ce cd b0 bd 25 2e 10 3c 34 54 a5 be 8b 53 b5 be
       -0.08633004 0.008800064 -0.32290804 -0.354153
000010 30 7e b9 bd 90 93 63 3d b2 97 f5 bd 2e 37 29 be
       -0.090572715 0.05556065 -0.11991824 -0.16524956
000020 f9 34 88 bd 86 e4 b1 be 20 22 e1 3d 10 ad 2e be
       -0.06650729 -0.34744662 0.10992837 -0.17058206
000030 97 49 f8 bd d0 fb ee be 80 40 c3 be ff b9 0e be
       -0.12123411 -0.46676493 -0.38135147 -0.1393814
000040 5d 99 00 be 88 6d e6 bb 68 1a 6e be aa 3d 5f 3d
       -0.12558503 -0.0070321 -0.2325226 0.054502167
000050 b8 28 fc bb 1e 52 06 bd fa ab a6 be c0 a6 00 3d
       -0.0076952837 -0.032793157 -0.32553083 0.031409025
000060 40 92 c9 bc f2 54 ee bd 7c bb 2f bd d2 fd c4 3d
       -0.02460587 -0.11637296 -0.04290341 0.09618725
000070 c3 18 47 3d 15 5a 0e be 6a c7 cd be 4d f7 c8 bd
       0.0486076 -0.13901551 -0.40191203 -0.09812794
000080 1e 7f c7 bd 3d 22 95 be 0c bb 16 bd 2c d0 33 be
       -0.097410426 -0.29127684 -0.036799476 -0.1755988
000090 fb 48 bc be cc 09 b7 be 64 2f ae be 52 0f 9d bd
       -0.3677443 -0.35749662 -0.3402053 -0.07668938
0000a0 fe 3f 6d be 45 49 67 3d d9 3a a6 be c7 07 b6 bd
       -0.23168942 0.05646636 -0.32466772 -0.08888202
0000b0 02 b5 1f 3d c4 d8 75 be 04 2e 36 be 7c 2b 4b be
       0.038990982 -0.24008471 -0.17790991 -0.19840807
0000c0 71 07 dc be c7 00 64 be fc 9e a9 bd 62 a7 a5 be
       -0.42974427 -0.22265922 -0.08282277 -0.32354265
0000d0 f3 cb 71 be f3 0f 3a be d8 c6 cd bd 2c fb fd 3b
       -0.23612957 -0.18170147 -0.10047692 0.0077508893
0000e0 5d 71 eb bc 5c e4 3a bd 40 6a 13 be 1e 7a 8e be
       -0.02874058 -0.045627937 -0.14396 -0.27827543
0000f0 ac 94 e2 be 4c 3b c1 be e5 c7 b9 bd 84 e6 8b be
       -0.44254053 -0.37740552 -0.0907133 -0.27324307
000100 4d 3f 45 be 5c cd 81 3c 87 77 74 be 61 b7 0d bd
       -0.19262429 0.015844993 -0.23873721 -0.034598712
000110 96 7d 9f be 49 75 f9 3c ea 99 86 be 84 d6 af bd
       -0.31150502 0.030451434 -0.26289302 -0.085858375
000120 06 86 31 be eb 50 1e 3e 68 87 d1 3b 61 7c 00 bd
       -0.17336282 0.15460555 0.0063943155 -0.031368617
000130 f6 05 81 be 44 9d 0f 3d 4e 2d dc bd 3c 99 b0 be
       -0.2519986 0.03506209 -0.10750829 -0.3449191
000140 34 e6 fb bc dc b5 12 be 38 c3 16 3d 85 ab a1 be
       -0.030749418 -0.14327186 0.03680727 -0.31576172
000150 6c 02 19 bd fc 71 12 bd 8a 81 de bd 04 ab 76 bd
       -0.037355825 -0.035753235 -0.10864551 -0.060221687
000160 d3 80 78 bd 8d 7c d4 3c 13 3b 46 bc 4b 65 db bd
       -0.06066973 0.025938297 -0.012099045 -0.107126795
000170 28 3b 02 be 4a 9a d7 3c 9c 62 a4 be 86 3c c0 be
       -0.12717879 0.026318688 -0.32106483 -0.37546176
000180 17 cf e3 be 31 19 e7 bc 70 f2 8d be 7f f7 b4 bd
       -0.44493935 -0.028210254 -0.27724028 -0.08836269
000190 18 df 39 be c8 c6 d9 3c df e1 78 bd 86 57 e5 bc
       -0.1815151 0.026584044 -0.060762282 -0.027995836
0001a0 9f 3e 4e be 18 3f 9f be 12 b3 a0 3c b1 7b 6a be
       -0.20141076 -0.31102824 0.019616637 -0.22898747
0001b0 18 06 00 be 5a 1f 47 be 34 a3 80 3d 16 b6 ba be
       -0.12502325 -0.19445553 0.062811285 -0.36467046
0001c0 e9 90 16 3c 49 e2 84 be 1c 27 3b be 34 ce 6d be
       0.009189823 -0.25953892 -0.18276638 -0.23223191
0001d0 26 8a 5d bd 06 62 9f bd e9 b7 bc be a7 9f 3d bd
       -0.054086827 -0.07782368 -0.36859062 -0.046294834
0001e0 ab db 52 be 18 45 c5 bd 8b 76 4d be fd f9 50 be
       -0.20591609 -0.09632319 -0.20064752 -0.20407863
0001f0 a2 02 29 bd d8 09 23 be 1b 96 db bd 68 b3 da bc
       -0.041262276 -0.15921724 -0.1072199 -0.026696876

functional_1_1/batch_normalization_1/batchnorm/mul:0 f4 [128]
000000 41 e0 cc 3f c0 ce c3 3f 2b 6f cb 3f 77 4d bf 3f
       1.6005937 1.529747 1.5893301 1.4945515
000010 70 41 aa 3f f6 77 cb 3f af 4d 9d 3f 1f e6 c4 3f
       1.330122 1.5895984 1.2289332 1.5382727
000020 92 f5 b6 3f 57 d5 ce 3f 66 91 ae 3f 92 ec c3 3f
       1.4293692 1.6158856 1.3638122 1.530657
000030 73 38 c3 3f 23 24 c1 3f af c5 c5 3f b7 69 c3 3f
       1.5251602 1.5089153 1.5450953 1.5266637
000040 e0 9a cc 3f 04 01 cd 3f b6 cc cf 3f 18 2a aa 3f
       1.5984764 1.6015935 1.6234348 1.3294096
000050 fe 06 c2 3f 8d 66 ab 3f 5d 34 c1 3f 3b 85 bf 3f
       1.5158384 1.3390671 1.5094105 1.4962534
000060 cd 83 cf 3f 41 af b4 3f 20 19 b9 3f 8e a3 b2 3f
       1.6212097 1.4115983 1.4460793 1.3956163
000070 ad 3d b4 3f 82 a4 cb 3f 4a 4a b4 3f fa 4c be 3f
       1.4081322 1.5909579 1.4085171 1.4867241
000080 f6 72 c7 3f c3 46 b6 3f c2 a6 c3 3f e6 07 ad 3f
       1.5581958 1.4240345 1.5285265 1.3518035
000090 0f 15 b2 3f f1 91 bb 3f d2 06 bd 3f fb 1f bf 3f
       1.3912677 1.4653913 1.4767706 1.4931635
0000a0 bd 96 b0 3f d3 5e bc 3f 51 57 bb 3f a1 cb b3 3f
       1.3796002 1.4716438 1.4636022 1.4046518
0000b0 fb 1f bf 3f 42 f8 b8 3f e8 e6 b1 3f 3a 59 b4 3f
       1.4931635 1.4450762 1.3898592 1.408973
0000c0 b4 c7 b8 3f d5 42 d3 3f fb 1f bf 3f 77 51 ae 3f
       1.4435945 1.650477 1.4931635 1.3618611
0000d0 7f 80 ad 3f 20 55 9e 3f 51 66 b7 3f 05 30 b4 3f
       1.3554839 1.2369728 1.43281 1.4077154
0000e0 0d 91 af 3f 5d df bf 3f 37 bf b9 3f 2e 3d b7 3f
       1.3716141 1.499004 1.4511479 1.4315546
0000f0 54 f8 a6 3f 03 9f bf 3f 18 a3 b6 3f 7f 74 a6 3f
       1.3044534 1.4970402 1.4268522 1.3004302
000100 85 4a ad 3f 76 d8 c8 3f ac e3 bb 3f 74 39 cd 3f
       1.3538367 1.5691059 1.4678855 1.6033158
000110 c7 16 c4 3f c1 dc b4 3f 2a de a8 3f 70 9f c1 3f
       1.5319451 1.4129869 1.3192799 1.5126781
000120 5c 85 be 3f 83 5c b8 3f 29 f5 c4 3f c2 d9 c9 3f
       1.4884448 1.4403232 1.5387317 1.576958
000130 da 0c bf 3f fb 1f bf 3f 9a 00 be 3f da a3 b8 3f
       1.4925797 1.4931635 1.4843934 1.4425004
000140 fb 1f bf 3f f9 86 be 3f f3 46 b4 3f 83 98 bf 3f
       1.4931635 1.488494 1.4084152 1.4968418
000150 53 5b ae 3f b5 81 b4 3f a3 d8 b5 3f e9 be b3 3f
       1.362162 1.4102083 1.4206737 1.4042636
000160 b7 ce af 3f fb 1f bf 3f 47 e4 be 3f 5b cf ca 3f
       1.3734959 1.4931635 1.4913415 1.584453
000170 61 eb bf 3f b2 e8 ca 3f bf 19 cd 3f ed f1 ba 3f
       1.4993707 1.5852263 1.6023482 1.460508
000180 97 d4 c1 3f 41 79 bf 3f c5 c8 ce 3f 28 5a b0 3f
       1.5143002 1.4958879 1.615502 1.3777514
000190 e5 e0 b7 3f 08 53 b1 3f 75 75 af 3f 1e 33 c6 3f
       1.4365507 1.3853464 1.370772 1.548435
0001a0 ec 37 b1 3f 4f d4 cb 3f 3b 5c ba 3f 37 9b af 3f
       1.3845191 1.5924166 1.4559397 1.3719243
0001b0 aa 92 bd 3f c1 e8 b8 3f f5 70 c2 3f ff 1a a7 3f
       1.4810383 1.4446031 1.5190722 1.3055114
0001c0 79 fd ae 3f e4 1a b9 3f e7 34 b3 3f 8a fd be 3f
       1.3671104 1.4461331 1.400052 1.4921124
0001d0 0e 8f ca 3f 5b 96 ce 3f 03 1d aa 3f 98 aa b3 3f
       1.5824907 1.6139635 1.3290104 1.4036436
0001e0 17 64 ca 3f 5a fa bf 3f 3c 0d c2 3f f6 d3 c8 3f
       1.5811795 1.4998276 1.5160289 1.5689685
0001f0 37 83 c2 3f 19 de bb 3f 9c 05 bf 3f fb 1f bf 3f
       1.5196294 1.4677154 1.4923587 1.4931635
