models/Kozina/speed/Kozina_speed_model.onnx (onnx, 61073 bytes, 13 tensors)

functional_5_1/dense_9_1/Cast/ReadVariableOp:0 f4 [128, 64]
0	0x3d74d7b4	0.059776023
1	0xbc304404	-0.010758404
2	0xbd4d2866	-0.050087355
3	0xbce3d92b	-0.027813515
4	0x3e01734b	0.12641637
5	0xbdf22fd3	-0.11825528
6	0x3d960f72	0.07327165
7	0x3e1fa60a	0.15590683
8	0xbca836f4	-0.020534016
9	0xbc8418e4	-0.01612515
10	0xbe7cad0e	-0.2467539
11	0x3d0d259e	0.034459703
12	0xbe5f1583	-0.2178555
13	0xbdb75ba2	-0.089530244
14	0xbd0e9deb	-0.03481857
15	0x3db65961	0.089037664
16	0x3d04d1b7	0.032426562
17	0x3d137748	0.036002427
18	0x3cbd2fae	0.023094025
19	0xbde3b3af	-0.11118256
20	0xbdd8cb2d	-0.10585628
21	0x3e0c7a32	0.13718489
22	0xbe07fb7d	-0.13279529
23	0x3e58fab5	0.21189387
24	0xbd4aab32	-0.04947967
25	0xbdb41e1e	-0.08794807
26	0xbd9caebb	-0.07650515
27	0x3dcb2ec4	0.09921029
28	0x3dd08a7c	0.10182664
29	0xbb793e40	-0.0038031489
30	0x3e3cd3ac	0.18440121
31	0xbc7672a4	-0.015041981
32	0x3caa7430	0.020807356
33	0x3bfafc4c	0.0076594707
34	0xbccb538b	-0.02482011
35	0x3c7be679	0.015374773
36	0xbdb059b1	-0.08610857
37	0x3dd7db1b	0.10539838
38	0x3cc0514f	0.023476271
39	0xbd8cb36f	-0.06870162
40	0xbe0e18e7	-0.13876687
41	0xbdb15ada	-0.08659907
42	0xbe2024ef	-0.15639089
43	0x3c96e702	0.0184207
44	0xbb2c871d	-0.002632565
45	0xbd207351	-0.039172474
46	0x3dffd386	0.12491517
47	0x3d152405	0.036411304
48	0xbdda0ea3	-0.10647323
49	0x3d45c9df	0.048288222
50	0xbda7ddac	-0.081965774
51	0x3dfd01e8	0.12353879
52	0xbdf1545d	-0.11783669
53	0x3979c94c	0.0002382148
54	0x3d8ce58c	0.0687972
55	0xbe1ada97	-0.15122448
56	0x3e4767b3	0.19473152
57	0x3cb0a8a1	0.021564784
58	0x3e171984	0.14755827
59	0xbd4a31af	-0.04936379
60	0x3e1d34ab	0.15352122
61	0x3b992631	0.004673742
62	0x3c2595be	0.010106502
63	0xbb830dfa	-0.003999469
64	0x3ccc7854	0.02495972
65	0x3dff04e8	0.12452108
66	0xbdedd0a9	-0.116120644
67	0xbd1063ad	-0.03525131
68	0xbe09af7e	-0.13445851
69	0xbd7f906f	-0.062393602
70	0xbe7a0789	-0.24416937
71	0xbe59d883	-0.21273999
72	0xbe9ce64f	-0.30644462
73	0x3d96e088	0.07367045
74	0xbd0b3395	-0.03398474
75	0x3db0da6a	0.08635409
76	0xbd164a66	-0.036692046
77	0x3e613b31	0.21995236
78	0xbd9f7fcf	-0.077880494
79	0xbd3d4901	-0.0462122
80	0x3da9e96c	0.08296475
81	0xbdefb2d6	-0.11704032
82	0xbdfaaefa	-0.122404054
83	0xbd7a2f21	-0.061080102
84	0x3e2fe30b	0.17176454
85	0xbdaa2086	-0.083069846
86	0x3e12fa43	0.1435328
87	0xbe82f945	-0.25580803
88	0x3d6be079	0.05758712
89	0xbd700c29	-0.058605347
90	0xbd303d35	-0.04302712
91	0x3cc6ab1b	0.024251511
92	0x3df00240	0.11719179
93	0xbdcd2069	-0.10015947
94	0x3defaa7b	0.117024384
95	0x3bbacf80	0.0057010055
96	0x3e7358b7	0.23764311
97	0x3e6e6b6a	0.23283163
98	0x3d3a480a	0.045478858
99	0x3dbf724b	0.093479715
100	0x3e663285	0.22480209
101	0xbe4a04f1	-0.19728447
102	0xbdb37323	-0.08762195
103	0xbd6d8ec2	-0.057997473
104	0xbe4e87d2	-0.20168999
105	0x3db364bd	0.08759449
106	0x3de3ff86	0.111327216
107	0xbdbe6339	-0.09296269
108	0x3d8a1d2c	0.06743845
109	0x3d6c7b93	0.057735037
110	0x3e5eb858	0.21750009
111	0x3da5cfda	0.08096285
112	0x3dbf6e84	0.09347251
113	0xbce8b797	-0.028407855
114	0x3d33a4a4	0.043858185
115	0xbd046453	-0.03232224
116	0x3c8f390f	0.017483262
117	0x3e71b1fb	0.2360305
118	0x3ccf4b11	0.02530435
119	0xbcd277e4	-0.025691934
120	0x3d0e7589	0.03478006
121	0x3d8f1ff7	0.06988519
122	0xbe12afb9	-0.14324845
123	0xbdc1c488	-0.094613135
124	0xbdbfe87b	-0.09370514
125	0xbd49d293	-0.049273085
126	0xbe3b86a8	-0.18313086
127	0xbd883c64	-0.066521436
128	0xbe2d86d9	-0.16945972
129	0xbe1b44a8	-0.15162909
130	0x3da2a5d3	0.07941785
131	0xbd080400	-0.03320694
132	0x3e1b0f95	0.15142663
133	0x3d815241	0.06314517
134	0x3e2285df	0.1587138
135	0x3b60971d	0.0034269758
136	0x3df0757e	0.1174116
137	0x3d411f66	0.047149085
138	0x3e410599	0.18849792
139	0xbe3b58e0	-0.18295622
140	0xbde55b12	-0.11199011
141	0x3e364f3f	0.17803667
142	0x3cf966c8	0.030444518
143	0xbe3d85d7	-0.18508087
144	0xbe819ea6	-0.25316352
145	0xbd9541a7	-0.07287913
146	0x3e1d7782	0.1537762
147	0x3df95419	0.121742435
148	0xbdd186b2	-0.10230769
149	0x3d90ce48	0.07070595
150	0xbe12da6f	-0.14341138
151	0x3e0608b4	0.13089257
152	0xbca4e0dc	-0.020126753
153	0x3ce3fdb6	0.02783094
154	0xbd31d9c9	-0.043420587
155	0xbe268cf2	-0.16264704
156	0x3e15e389	0.14637579
157	0x3e7ae95b	0.2450308
158	0xbdf4754f	-0.11936437
159	0xbcd38421	-0.02581984
160	0xbdb9b29b	-0.090672694
161	0x3e1c900e	0.15289328
162	0xbd4ad8eb	-0.049523275
163	0x3d45c481	0.048283104
164	0x3df3dca2	0.11907317
165	0x3e4897b9	0.19589128
166	0x3d5eb01f	0.05436718
167	0xbdb285e0	-0.08716941
168	0x3e663046	0.22479352
169	0x3d5767d5	0.052589256
170	0x3db158e1	0.086595304
171	0x3e42058e	0.18947431
172	0x3e094204	0.13404089
173	0x3cc6b2e8	0.024255231
174	0x3c7aff98	0.015319727
175	0x3e8d6cc9	0.2762206
176	0xbc3d81bd	-0.011566577
177	0x3bf322fe	0.007419943
178	0xbd3c9c21	-0.046047334
179	0xba345e28	-0.00068804855
180	0xbd0368b9	-0.032082293
181	0xbba17214	-0.0049269293
182	0xbdfcfd78	-0.12353033
183	0x3d59f9e2	0.053216822
184	0xbd8d61bc	-0.06903407
185	0x3d23108e	0.03981071
186	0x3dc98d3d	0.09841392
187	0xbd8e10b3	-0.06936779
188	0x3e603a44	0.21897227
189	0xbe394105	-0.18091209
190	0xbe1871d5	-0.14887173
191	0x3dc2ca24	0.095112115
192	0x3dcb2d01	0.09920693
193	0x3dd2f7eb	0.10301193
194	0xbd5a957e	-0.053365223
195	0x3e3e02c9	0.1855575
196	0xbd408a78	-0.047007054
197	0x3e06312d	0.13104697
198	0xbe7c0dfb	-0.24614708
199	0xbd0469b3	-0.032327365
200	0xbdfc370f	-0.12315189
201	0xbd3fa15d	-0.046784747
202	0xbe04fb95	-0.12986596
203	0xbc94040b	-0.018068334
204	0xbe15ccea	-0.1462895
205	0x3d507042	0.050888307
206	0x3da95425	0.082680024
207	0x3dad8674	0.084729105
208	0x3d276314	0.040865973
209	0x3dabb89f	0.08384823
210	0xbe5dc9b8	-0.21658981
211	0xba828f85	-0.0009960985
212	0x3db4ba52	0.088246
213	0xbcf78fd1	-0.030219944
214	0xbd0c2ee0	-0.03422439
215	0xbe2fab70	-0.17155242
216	0x3db23869	0.08702166
217	0xbd1245b5	-0.03571101
218	0x3daf4bab	0.085593544
219	0xbe4f23f0	-0.20228553
220	0xbd4491bb	-0.047990542
221	0xbb3a0c97	-0.0028388852
222	0x3ddb6f88	0.10714632
223	0xbe15fe68	-0.1464783
224	0x3b0c9ce8	0.0021455828
225	0xbb7d9cc8	-0.0038698185
226	0x3e14736e	0.14497158
227	0x3e15361c	0.14571422
228	0xbdc250f4	-0.09488097
229	0xbd9aad05	-0.07552532
230	0xbd97b358	-0.07407254
231	0xbdee0017	-0.11621111
232	0xbcbe64a9	-0.023241358
233	0xbe096794	-0.13418418
234	0xbe40108e	-0.18756315
235	0x3e347c56	0.17625555
236	0xbd8474bd	-0.064675786
237	0xbdd15231	-0.10220755
238	0x3ea6e9cd	0.3260025
239	0x3c715f53	0.0147322
240	0x3de8ef4a	0.11373766
241	0x3d19309e	0.03739988
242	0xbe0fc3df	-0.14039563
243	0xbd091e5a	-0.03347621
244	0xbe1cb192	-0.15302113
245	0x3e177d36	0.14793858
246	0x3e38aa23	0.18033652
247	0xbe59f5f9	-0.21285237
248	0xbd2a37ee	-0.041557245
249	0xbda5f22c	-0.08102831
250	0xbe1b5c94	-0.15172035
251	0xbea03036	-0.31286782
252	0x3d9241a0	0.07141423
253	0xbd4271fe	-0.047471993
254	0xbe41f917	-0.18942676
255	0x3c0ce8d4	0.008600432

functional_5_1/dense_9_1/Add/ReadVariableOp:0 f4 [64]
0	0x3df9a152	0.121889725
1	0xbde02f13	-0.10946479
2	0xbd481e1a	-0.048856832
3	0x3df368d5	0.118852295
4	0xbc243233	-0.010021734
5	0xbcdb3ed2	-0.026763353
6	0xbe0c3aed	-0.13694353
7	0x3d4a31f9	0.049364064
8	0x3d2cf05c	0.042221412
9	0x3d76825d	0.060182918
10	0x3d1bb1bb	0.038011294
11	0xbdaba25b	-0.08380576
12	0x3d9287c6	0.07154803
13	0xbc50848b	-0.012726913
14	0xbca1e235	-0.019761184
15	0xbd63b226	-0.055589817
16	0x3d871c0c	0.065971464
17	0x3d9986de	0.07496427
18	0x3dd063ef	0.10175311
19	0xbd9c59c4	-0.07634309
20	0xbc0725c6	-0.008248752
21	0xbdd45124	-0.10367039
22	0xbd854bd0	-0.06508601
23	0xbda73ed7	-0.081662826
24	0x3dc05c32	0.09392585
25	0x3d7a56d5	0.061117966
26	0xbd0bee91	-0.03416306
27	0xbdacd6c9	-0.084394045
28	0xbd439eea	-0.047758974
29	0xbdae7e61	-0.085201986
30	0x3da36d39	0.07979817
31	0xbdbce7d3	-0.092239045
32	0xbd96785f	-0.07347178
33	0x3d31c39a	0.04339943
34	0xbdbb39b6	-0.09141867
35	0x3d70df3c	0.058806643
36	0xbd4e5aec	-0.05037968
37	0xbd9b7815	-0.07591263
38	0x38ba7e99	8.892752e-05
39	0x3af807c6	0.0018923215
40	0xbd5e6230	-0.054292858
41	0x3e005c8d	0.12535305
42	0x3dbf6331	0.09345091
43	0x3d1b4949	0.037911687
44	0xbd11f239	-0.035631392
45	0x3dc8569e	0.09782146
46	0xbbdbb8e4	-0.0067053903
47	0xbdf977c2	-0.12181045
48	0x3dc1a2df	0.09454893
49	0x3d9adb94	0.075614125
50	0x3da65917	0.08122461
51	0xbc86ed3b	-0.016470542
52	0x3e063abc	0.13108343
53	0x3c98d7b6	0.018657546
54	0x3de48377	0.111578874
55	0x3d1cfab5	0.03832503
56	0x3d729a3f	0.05922913
57	0x3bb15b4f	0.005412496
58	0xbdc404a0	-0.09571195
59	0xbd71384d	-0.058891583
60	0x3d91ca6b	0.07118686
61	0xbdd0deea	-0.101987675
62	0x3d1c48c5	0.038155336
63	0x3ddfd048	0.10928398

functional_5_1/dense_8_1/Cast/ReadVariableOp:0 f4 [26, 128]
0	0xbc79d3b0	-0.015248224
1	0xbe2aee32	-0.16692427
2	0x3e348831	0.17630078
3	0xbd6e2990	-0.058145106
4	0xbda98a1d	-0.08278296
5	0xbddf7b92	-0.10912241
6	0x3e1b2f27	0.15154706
7	0x3e31d939	0.1736802
8	0x3e33ae75	0.17547019
9	0xbe38656f	-0.18007444
10	0x3d7c9504	0.06166555
11	0x3c8ae7e0	0.01695627
12	0x3ddfaafa	0.10921283
13	0x3c666e40	0.014064372
14	0xbdeaacde	-0.11458753
15	0xba81be80	-0.0009898692
16	0x3cc8c110	0.024506122
17	0x3cd449d8	0.025914118
18	0x3dfc9b8e	0.12334357
19	0xbda8e99d	-0.08247683
20	0x3e20230b	0.15638368
21	0x3d14e5b4	0.036351874
22	0xbe412d2d	-0.1886489
23	0xbd1d870c	-0.03845887
24	0xbe135e6a	-0.14391485
25	0xbe0afe96	-0.1357368
26	0x3e2c8b17	0.16849934
27	0xbdb88a65	-0.09010772
28	0xbdf71f3d	-0.12066505
29	0x3e4257df	0.18978833
30	0x3e24547d	0.16047855
31	0x3c71ed40	0.014766037
32	0xbe00b1e0	-0.12567854
33	0x3c94ba00	0.018155098
34	0x3dee1146	0.116243884
35	0x3e453a11	0.19260432
36	0xbd10fe8c	-0.035399005
37	0x3df137da	0.11778231
38	0xbdb2f4ee	-0.08738123
39	0x3d7cbc44	0.06170298
40	0x3d769544	0.060200945
41	0x3e27f5b1	0.16402318
42	0x3d1192a0	0.035540223
43	0x3c189890	0.0093137175
44	0xbd9d7a24	-0.07689312
45	0xbe0c78e0	-0.13717985
46	0x3df9d58a	0.121989325
47	0xbdb2d5ea	-0.08732207
48	0x3e286c8f	0.16447662
49	0x3e04f107	0.1298257
50	0x3db73382	0.08945371
51	0xbe2e0497	-0.16993938
52	0x3dbe62da	0.09296198
53	0xbc950040	-0.018188596
54	0x3d83798e	0.06419669
55	0xbc7e8360	-0.015534252
56	0x3e122ba7	0.14274465
57	0x3d69d39c	0.057086572
58	0x3da06906	0.07832532
59	0xbe267c3e	-0.16258332
60	0x3e1c2759	0.15249385
61	0x3e1424a1	0.14467098
62	0x3e21ea43	0.1581202
63	0x3e008631	0.1255119
64	0x3da0afae	0.07846008
65	0x3e12cdd1	0.14336325
66	0x3cb3a490	0.021929055
67	0xbe13d1a4	-0.1443544
68	0x3cae0b08	0.021245494
69	0xbab67080	-0.0013919026
70	0xbe1c38c5	-0.15256031
71	0xbe46ee33	-0.19426803
72	0xbe40a95f	-0.1881461
73	0x3da69062	0.081330076
74	0x3e2cc471	0.16871811
75	0xbd0b88c0	-0.03406596
76	0x3d68b354	0.056811646
77	0xbcd48a00	-0.02594471
78	0x3c5d98d0	0.013525203
79	0x3cdbef08	0.026847377
80	0x3e20fd77	0.15721689
81	0xbe215969	-0.15756764
82	0xbe26235c	-0.16224426
83	0x3e1fc9cb	0.15604322
84	0x3d5bdcc4	0.053677335
85	0xbe17247e	-0.14760014
86	0xbd51c6c4	-0.05121495
87	0x3ddbe36a	0.10736735
88	0x3e499323	0.19685034
89	0xbd0409f8	-0.03223607
90	0x3dbb7b0e	0.0915433
91	0xbe2a3578	-0.16621959
92	0x3e26d817	0.16293369
93	0xbd9d6a7f	-0.07686328
94	0x3d2ea5f0	0.04263872
95	0xbdf871c1	-0.12131072
96	0x3dab4662	0.08363034
97	0xbb5f2500	-0.0034049153
98	0xbe22f9a2	-0.1591554
99	0xbd0daea0	-0.034590364
100	0x3e13d335	0.14436038
101	0xbe0666e6	-0.1312519
102	0xbe300912	-0.1719096
103	0x3d471864	0.048607245
104	0xbe2a0ea2	-0.16607144
105	0xbdc49ac3	-0.09599831
106	0xbd1b6fa4	-0.037948266
107	0x3c087a40	0.008329928
108	0xbe0d168a	-0.13778129
109	0x3dd98f76	0.10623066
110	0x3e12d0e1	0.14337493
111	0xbdfbaf90	-0.12289345
112	0xbd14ab54	-0.036296204
113	0x3da28dae	0.079371795
114	0x3ac5c000	0.0015087128
115	0xbe01ce3c	-0.12676328
116	0xbaba8780	-0.0014231056
117	0x3cc81608	0.024424568
118	0x3e32c909	0.17459501
119	0x3d740664	0.059576407
120	0xbdeb8940	-0.11500788
121	0x3e1b01f1	0.1513746
122	0xbdf0a4e1	-0.11750198
123	0xbde1f457	-0.11032932
124	0xbdddd537	-0.10831683
125	0x3e30f8cd	0.1728241
126	0xbe242454	-0.16029483
127	0xbdb5aad6	-0.08870475
128	0x3d3b5563	0.045735728
129	0xbe10e70b	-0.14150636
130	0x3de02dd8	0.10946244
131	0x3e189c96	0.14903483
132	0xbd6495b3	-0.055806827
133	0xbe37438f	-0.17896865
134	0xbd312e14	-0.043256834
135	0x3e4b1b5a	0.19834653
136	0x3e05210b	0.13000886
137	0x3e2e1b25	0.17002542
138	0xbe176116	-0.14783129
139	0x3e5af649	0.21383013
140	0xbe5f96fb	-0.21834938
141	0x3c84f1d0	0.016228586
142	0x3d94aa01	0.07258988
143	0xbd237581	-0.039906982
144	0x3e17a23f	0.14807986
145	0xbe0e2a86	-0.13883409
146	0x3dc2f154	0.09518686
147	0x3d5c1745	0.05373313
148	0x3e8f451f	0.27982423
149	0xbd44ea39	-0.048074935
150	0xbc4b114f	-0.012394263
151	0x3d464a68	0.048410803
152	0x3e1f520e	0.15558645
153	0xbe3f70e0	-0.18695402
154	0x3e7dba4a	0.24778095
155	0xbe30c608	-0.17263043
156	0x3e968e5a	0.2940548
157	0xbd8a6f0f	-0.06759464
158	0x3c3dfd6e	0.011596067
159	0xbc5540b8	-0.013015918
160	0x3e4ae6c9	0.198146
161	0xbde65181	-0.112460144
162	0xbdecf85d	-0.11570809
163	0x3da601c2	0.08105804
164	0x3ce809bb	0.028324952
165	0xbe57f53d	-0.21089645
166	0xbe58399e	-0.21115729
167	0x3e59061e	0.2119374
168	0xbdf4e8a6	-0.11958437
169	0x3e4e3525	0.2013746
170	0x3d7992b5	0.060930926
171	0xbe0f4c41	-0.13993932
172	0x3decf751	0.11570609
173	0xbe4f9965	-0.20273359
174	0xbdbfd81c	-0.093673915
175	0x3b9d74ff	0.004805207
176	0xbdae0eab	-0.084988914
177	0xbe4ebffa	-0.20190421
178	0xbcdd4685	-0.027011165
179	0x3d7476fd	0.05968379
180	0x3e0500fe	0.1298866
181	0x3e027412	0.1273959
182	0x3dacf0fa	0.084444
183	0xbdf91b23	-0.12163379
184	0xbe642883	-0.22281079
185	0x3a45fe19	0.0007552817
186	0x3e8b9d76	0.2726857
187	0x3e486162	0.19568399
188	0xbcdac894	-0.026706971
189	0xbd0e8130	-0.03479117
190	0x3d9b5e2b	0.075863205
191	0x3e21d87b	0.15805237
192	0x3dab600c	0.08367929
193	0x3e118079	0.14209165
194	0xbe50cd23	-0.20390753
195	0xbe674706	-0.22585687
196	0xbd940122	-0.072267786
197	0x3de6dcc9	0.1127258
198	0x3d9f53c5	0.0777965
199	0x3e0dceff	0.13848494
200	0xbe3e2212	-0.18567684
201	0x3e62a2fc	0.22132486
202	0x3d999ba0	0.07500386
203	0x3e55d035	0.20880206
204	0xbcf3c247	-0.029755725
205	0x3e2aaf99	0.16668548
206	0xbe0e79ef	-0.13913701
207	0x3db37e1d	0.087642886
208	0x3e61dfaf	0.22057985
209	0xbe7df02c	-0.2479865
210	0x3d938aa3	0.07204177
211	0x3dd10571	0.10206116
212	0xbc9b610c	-0.018967174
213	0xbe17c770	-0.14822173
214	0x3dd28c89	0.10280711
215	0x3d73ff24	0.059569493
216	0x3e422d00	0.18962479
217	0x3db75e13	0.0895349
218	0xbe0c818d	-0.13721295
219	0xbe8a8e7a	-0.27061826
220	0xbdb155e9	-0.08658964
221	0xbdcf12e9	-0.10111029
222	0x3e5138dc	0.20431846
223	0x3d50e5f8	0.051000565
224	0x3de85fc4	0.11346391
225	0x3e8b05a5	0.27152744
226	0xbe09df1c	-0.13464016
227	0xbe34ab7e	-0.17643544
228	0x3e255f34	0.16149598
229	0x3d305edc	0.043059215
230	0x3e302b15	0.17203934
231	0xbd8e6700	-0.069532394
232	0xbe68ad72	-0.22722414
233	0xbe2c60e2	-0.16833833
234	0xbe886675	-0.2664067
235	0xbddb0f2f	-0.106962554
236	0xbd5e915d	-0.054337848
237	0xbafe9389	-0.0019422631
238	0xbe25bb3a	-0.16184703
239	0xbd287691	-0.0411287
240	0x3ddf99a7	0.10917979
241	0xbd3766d2	-0.04477579
242	0x3d911df4	0.07085791
243	0x3e5a4eec	0.21319169
244	0x3e17c428	0.14820921
245	0x3d51b6c8	0.051199704
246	0xbd8b21f3	-0.06793585
247	0xbe6a80cd	-0.22900696
248	0x3dae67cf	0.08515894
249	0x3dea1515	0.11429802
250	0x3e25b08f	0.16180633
251	0xbe766da0	-0.24065256
252	0x3ddfcbfc	0.10927579
253	0x3eab7ab9	0.33492067
254	0xbe18afda	-0.14910832
255	0x3e1491e0	0.14508772

functional_5_1/dense_8_1/Add/ReadVariableOp:0 f4 [128]
0	0x3d20fcfa	0.039303757
1	0x3c4f66d3	0.012658793
2	0xbdb0de89	-0.08636195
3	0x3cecdacb	0.028912922
4	0xbcc0f574	-0.023554541
5	0xbdc1e3d6	-0.094672844
6	0x3d75faef	0.060053762
7	0xbc71690e	-0.01473452
8	0x3db8b06d	0.090180255
9	0x3c20f97d	0.009825108
10	0xbd2f8a56	-0.042856537
11	0x3da95545	0.08268217
12	0x3c89fd87	0.016844524
13	0x00000000	0.0
14	0x3cf7736f	0.03020641
15	0x3d1ac19c	0.037782297
16	0x3d4a3170	0.049363554
17	0x3d9416eb	0.07230934
18	0x3cd898d2	0.026440058
19	0xbcb63b13	-0.022244966
20	0x3d3b099d	0.045663465
21	0xbd9dbc53	-0.077019356
22	0x3d25bd5d	0.040463794
23	0x3dd4fd4e	0.103998765
24	0x3d63afbc	0.055587515
25	0xbcabb1eb	-0.020958861
26	0x3d108ec2	0.035292394
27	0x3d1bccbb	0.038037043
28	0xbce1946c	-0.027536593
29	0xbc841da1	-0.01612741
30	0xbd9efcc7	-0.07763057
31	0xbdde14c8	-0.108438075
32	0x3dc005cc	0.09376106
33	0xbd7eee57	-0.062239017
34	0x3dbd3fec	0.09240708
35	0x3c9b050d	0.018923307
36	0xbc90b87a	-0.01766609
37	0xbdd25e5b	-0.10271903
38	0xbd7af4a8	-0.06126848
39	0xbcc4c52b	-0.024019798
40	0xbd30cd91	-0.043164793
41	0xbde5852a	-0.1120704
42	0xbcd76a22	-0.026295725
43	0xbb99f13f	-0.004697948
44	0xbceea651	-0.02913204
45	0x3c2f8995	0.010713954
46	0xbd75fb53	-0.060054135
47	0xbcfa75c7	-0.030573739
48	0x00000000	0.0
49	0xbdec1ffa	-0.115295365
50	0xbdb1990b	-0.08671769
51	0xbdabbcca	-0.08385618
52	0xbbd06f5b	-0.006360931
53	0xbdf747d8	-0.1207425
54	0x3d9f6bb5	0.07784215
55	0xbde8ffb7	-0.11376899
56	0xbd07586e	-0.033043317
57	0xbd954cda	-0.07290049
58	0x3de2bbae	0.11070953
59	0x3d98a143	0.07452633
60	0xbd09611e	-0.033539884
61	0x00000000	0.0
62	0x3d8dbe70	0.06921089
63	0xbd651583	-0.05592872
64	0x3ceee086	0.029159795
65	0x00000000	0.0
66	0x3d63ac96	0.055584513
67	0xbde4c92e	-0.111711845
68	0x3d979aa6	0.07402544
69	0x3d1ae627	0.037817147
70	0x3d8646f5	0.06556503
71	0x3dad9e9a	0.084775165
72	0xbd637a39	-0.055536482
73	0xbcbf689e	-0.023365315
74	0x3df15ee5	0.11785678
75	0x3de9e0d4	0.11419836
76	0x3c592c8f	0.0132552525
77	0x3d9cac62	0.07650067
78	0x3daa8ef7	0.0832805
79	0xbe0da0e4	-0.13830906
80	0x3df33375	0.11875049
81	0x3d007700	0.031363487
82	0x3d6fd2ac	0.05855052
83	0xbd63b00c	-0.055587813
84	0x3d4ab562	0.049489386
85	0xbcb098f3	-0.021557307
86	0xbd03c99c	-0.03217469
87	0xbc896e07	-0.016776098
88	0xbdc2aa96	-0.09505193
89	0xbd987fcb	-0.074462496
90	0xba2d8967	-0.0006619901
91	0x3baa0b76	0.0051893545
92	0xbd44313f	-0.047898527
93	0xbd1ca45b	-0.03824268
94	0x3c43e1d7	0.0119557
95	0xbd945fce	-0.07244836
96	0x3d6e8afd	0.05823802
97	0x3c61d994	0.013784785
98	0x00000000	0.0
99	0xbd3b27d3	-0.045692276
100	0x3dc288fe	0.094987854
101	0xbc8d5020	-0.01725012
102	0xbbc273c3	-0.00593421
103	0x3d7aa903	0.06119634
104	0xbd75fac1	-0.06005359
105	0x3d8422e7	0.064519696
106	0x3db4c43d	0.08826492
107	0xbdac0c6f	-0.08400809
108	0xbc9b68a9	-0.018970804
109	0x3d38d1ef	0.045122083
110	0x3d75a45b	0.059971195
111	0xbd8e720c	-0.069553465
112	0x3bdcba9b	0.0067361123
113	0xbbee13db	-0.0072655506
114	0x3c457f58	0.012054287
115	0x3dbadb72	0.09123887
116	0x3d801c9d	0.062554576
117	0x3de7a6cc	0.11311111
118	0xbd064bd7	-0.03278717
119	0xbd75fb14	-0.0600539
120	0xbd75fb36	-0.060054027
121	0x3ce8fc44	0.028440602
122	0x3d87d89d	0.066331126
123	0xbd75f96d	-0.060052324
124	0x3cd6fd1d	0.02624374
125	0xbe08bde2	-0.13353685
126	0xbdada86b	-0.08479389
127	0x3daa774f	0.083235376

functional_5_1/dense_11_1/Cast/ReadVariableOp:0 f4 [32, 1]
0	0xbde31d0f	-0.11089527
1	0xbd440a37	-0.047861304
2	0xbb73f912	-0.0037227315
3	0x3d855158	0.06509656
4	0xbd40185d	-0.046898235
5	0x3ce707d6	0.028201979
6	0x3c93ea4b	0.018056056
7	0x3da3c4d4	0.07996526
8	0xbd83ef50	-0.064421296
9	0x3b12503b	0.0022325653
10	0xbd3b5c34	-0.04574223
11	0xbc2f8d00	-0.010714769
12	0xbdb53962	-0.088488355
13	0x3c883c52	0.016630325
14	0xbd88a116	-0.0667135
15	0xbdb8788c	-0.090073675
16	0x3d0726d9	0.032996032
17	0x3dc87ea1	0.097897775
18	0x3d862685	0.06550316
19	0x3c4cc7d8	0.012498818
20	0xbb10a5cf	-0.0022071486
21	0x3d88e79f	0.06684803
22	0xbc94514e	-0.018105175
23	0xbd1b7d73	-0.037961435
24	0xbd6ce86e	-0.05783885
25	0xbd78bca6	-0.060726784
26	0xbc15a8ab	-0.009134452
27	0xbc95a857	-0.018268747
28	0x3d2ecba7	0.042674687
29	0xbd66d183	-0.05635215
30	0xbd922592	-0.07136072
31	0x3dad0987	0.08449083

functional_5_1/dense_10_1/Cast/ReadVariableOp:0 f4 [64, 32]
0	0xbe901345	-0.281397
1	0x3ced848d	0.02899387
2	0x3e0e62ff	0.13904952
3	0xbe8c17d3	-0.27361926
4	0xbe009326	-0.12556133
5	0x3e09d395	0.13459618
6	0x3de75b08	0.1129666
7	0xbdb94ad6	-0.09047477
8	0x3ec40bd7	0.38290283
9	0x3e236d3c	0.15959638
10	0x3c9da08d	0.019241596
11	0x3e13f05c	0.14447159
12	0x3e8f39bc	0.27973735
13	0xbe0e3e3c	-0.13890928
14	0xbe685155	-0.22687276
15	0xbe243a79	-0.1603793
16	0xbdb5cb4c	-0.088766664
17	0x3d0ea8d0	0.03482896
18	0xbdd5db41	-0.1044221
19	0x3e4c2f54	0.19939929
20	0xbe41d2fd	-0.18928142
21	0x3decadd9	0.11556596
22	0x3e16f0f9	0.14740361
23	0x3d495678	0.04915473
24	0xbe263953	-0.16232805
25	0x3e6d0975	0.23148139
26	0xbdd89eab	-0.105771385
27	0x3e097993	0.13425283
28	0xbe9fae08	-0.31187463
29	0xbd0aa908	-0.033852607
30	0xbd0fcb57	-0.03510603
31	0x3e368642	0.17824653
32	0x3e213a62	0.15744928
33	0xbdfd2288	-0.12360102
34	0x3d2cd6ba	0.042196967
35	0x3dc21a75	0.094777025
36	0x3ba74224	0.00510432
37	0x3eaa656c	0.33280504
38	0x3d146f84	0.036239162
39	0xbe830c08	-0.25595117
40	0xbe60f99f	-0.21970223
41	0x3e52f362	0.20600656
42	0x3d977aa7	0.07396441
43	0x3db3eaad	0.08784995
44	0xbe9b69a2	-0.3035403
45	0xbd005b9e	-0.031337373
46	0x3d3cc437	0.046085563
47	0xbe72acb4	-0.23698694
48	0xbd10fca9	-0.035397206
49	0xbd10e7da	-0.03537736
50	0xbe649f71	-0.22326447
51	0x3ea9f14f	0.33191916
52	0x3d8f039a	0.06983109
53	0x3e806d43	0.2508336
54	0xbe953f25	-0.29149738
55	0x3d84f12c	0.064913124
56	0xbe08354a	-0.13301578
57	0x3e17ca6f	0.14823316
58	0x3d311eb3	0.043242168
59	0xbe05a1b1	-0.13049962
60	0xbe8fb4d6	-0.28067654
61	0x3e691dba	0.22765246
62	0xbcb2051f	-0.021730958
63	0x3e80329f	0.2503862
64	0x3e642274	0.22278768
65	0x3e2c77e6	0.16842613
66	0xbe0f40a9	-0.1398951
67	0xbe07eaff	-0.13273238
68	0x3e20d21a	0.15705147
69	0x3e28cde7	0.16484796
70	0xbd8a1d61	-0.06743885
71	0x3e7e63ae	0.24842712
72	0xbe61cd98	-0.22051084
73	0xbdae2ed6	-0.08505027
74	0x3dd066f1	0.101758845
75	0x3da60af1	0.08107556
76	0xbe678a7e	-0.22611424
77	0xbbd08666	-0.006363678
78	0x3e118fcd	0.14215012
79	0x3e302ac7	0.17203818
80	0xbdec45a1	-0.11536718
81	0xbc7495c7	-0.014928288
82	0x3decf131	0.11569441
83	0xbe92e217	-0.28688118
84	0xbd6c1628	-0.057638317
85	0xbe97c657	-0.2964351
86	0x3e61dd6e	0.22057125
87	0x3dfd62e8	0.123723805
88	0xbe4a08a5	-0.1972986
89	0xbdfd1b6a	-0.123587444
90	0xbdce9885	-0.100876845
91	0xbe55271c	-0.208157
92	0x3e24cb72	0.16093233
93	0x3e2a993f	0.16660021
94	0xbe23555a	-0.15950528
95	0x3d7acd56	0.06123098
96	0x3e4c7c29	0.19969238
97	0xbdf742ff	-0.12073325
98	0xbdfab513	-0.122415684
99	0x3e4d67d0	0.20059133
100	0x3e32ff15	0.17480119
101	0xbe72883f	-0.23684786
102	0xbe515731	-0.20443417
103	0xbbf3cc88	-0.0074401535
104	0xbeb6c111	-0.35694173
105	0xbe6c2199	-0.23059691
106	0xbe29ca42	-0.16581061
107	0x3d1c1e36	0.03811475
108	0xbe8eab72	-0.27865177
109	0x3e12a1a5	0.14319475
110	0xbe7765aa	-0.24159876
111	0x3cfab835	0.030605415
112	0x3c505b46	0.012717074
113	0xbe55f38d	-0.20893688
114	0xbda820db	-0.08209392
115	0x3d9b0108	0.07568556
116	0xbddb81f0	-0.10718143
117	0xbe546e50	-0.20745206
118	0xbd912cde	-0.07088636
119	0xbe9a7bf7	-0.30172703
120	0xbe11e4ca	-0.14247432
121	0x3b075058	0.0020647254
122	0x3d3195d9	0.043355796
123	0xbcf9bb00	-0.030484676
124	0x3d87d84f	0.066330545
125	0xbe884f3e	-0.26622957
126	0x3e575223	0.21027426
127	0x3eab1746	0.33416194
128	0x3e3b3cba	0.18284884
129	0xbe41d8ce	-0.1893036
130	0x3de64f8e	0.112456426
131	0x3e101dd7	0.14073883
132	0x3e990f91	0.2989469
133	0xbe1c3621	-0.15255024
134	0x3e29dbd8	0.1658777
135	0x3d6dcebc	0.058058485
136	0x3e9d388e	0.3070721
137	0xbe6132a3	-0.21991973
138	0xbe809d83	-0.25120172
139	0x3eb6e91e	0.3572473
140	0x3c6c522d	0.014423889
141	0x3d95e88a	0.07319744
142	0x3e516ab5	0.20450862
143	0xbd9b8936	-0.0759453
144	0x3e0d1a12	0.13779476
145	0xbd06bcbf	-0.032894846
146	0xbe597809	-0.21237196
147	0xbdc63733	-0.09678497
148	0xbe3a2068	-0.18176425
149	0x3d6c8070	0.057739675
150	0x3d42df8d	0.047576476
151	0x3e6e7ea1	0.23290493
152	0xbde016e8	-0.10941869
153	0xbce72ac3	-0.028218633
154	0xbdab8569	-0.08375055
155	0x3e244b5c	0.16044372
156	0xbe38ab30	-0.18034053
157	0x3dd14f8f	0.10220253
158	0xbe55890f	-0.20853065
159	0x3ddf81fb	0.10913464
160	0xbe31e154	-0.17371112
161	0x3e847030	0.25866842
162	0xbe28d0e2	-0.16485932
163	0xbd45b38a	-0.048266925
164	0x3e03c8c2	0.12869552
165	0xbe2a25c0	-0.16615963
166	0xbdf39e3b	-0.118954144
167	0x3d2ef9bf	0.042718645
168	0x3e4cd79b	0.20004122
169	0x3eb2ba0f	0.34907576
170	0xbe13826c	-0.14405221
171	0x3da461c7	0.08026462
172	0xbca9563c	-0.020671003
173	0xbe4906fb	-0.19631569
174	0x3e850388	0.25979257
175	0x3e4021f0	0.18762946
176	0xbddebfae	-0.10876404
177	0x3e71df59	0.23620357
178	0xbe9c8d01	-0.30576327
179	0x3d653c9d	0.05596601
180	0x3e278b6c	0.16361779
181	0x3e30139f	0.17194985
182	0x3e020162	0.1269584
183	0xbcc23296	-0.023705762
184	0xbdb935ed	-0.09043489
185	0x3e74ee13	0.23918943
186	0xbe417640	-0.18892765
187	0x3a507f65	0.00079535536
188	0xbe6718ad	-0.22568007
189	0x3e1a9a64	0.15097958
190	0xbe592bc7	-0.21208106
191	0x3c930f5e	0.017951664
192	0x3d93c793	0.072158
193	0xbe14a5d5	-0.14516385
194	0xbd025c81	-0.0318265
195	0xbe472134	-0.1944626
196	0xbd59d7d4	-0.053184345
197	0x3dd42aea	0.10359748
198	0x3d0f5661	0.034994487
199	0x3c24fa90	0.010069504
200	0xbd973c76	-0.07384579
201	0xbd0aa8fa	-0.033852555
202	0xbe78b414	-0.24287444
203	0xbd0c91d9	-0.03431878
204	0x3e3f1cbb	0.18663304
205	0xbe45361e	-0.19258925
206	0xbd62dbd4	-0.055385426
207	0xbd954a13	-0.07289519
208	0xbd8f26b9	-0.06989808
209	0x3dabebf3	0.08394613
210	0x3e4e00a2	0.20117429
211	0x3e19cdf5	0.15019973
212	0x3d7ef06e	0.06224101
213	0xbeb5024d	-0.35353318
214	0x3eb2bde4	0.349105
215	0xbe98c0c8	-0.2983458
216	0xbd375a0e	-0.044763617
217	0x3e7118fa	0.23544684
218	0x3beb906e	0.007188848
219	0xbdd2c381	-0.10291196
220	0x3d8a4bb9	0.06752724
221	0x3e892215	0.26783815
222	0x3e922924	0.28547013
223	0x3e47740c	0.19477862
224	0xbeacdd68	-0.3376267
225	0xbe0062e4	-0.12537724
226	0xbddbc469	-0.10730822
227	0xbe8c5dfd	-0.27415457
228	0xbe8233b1	-0.25430062
229	0xbce64254	-0.0281078
230	0xbe2173b7	-0.15766798
231	0xbdcf253e	-0.10114525
232	0xbe257ae9	-0.16160168
233	0x3d20ea45	0.039285917
234	0xbd7145d2	-0.058904476
235	0x3c71bbf0	0.01475428
236	0xbe84df3f	-0.25951573
237	0xbcc54cbc	-0.024084441
238	0x3ea89da3	0.32932767
239	0xbeaf21d7	-0.34205505
240	0x3ead6b3c	0.33870876
241	0x3ec85184	0.3912469
242	0xbe80197d	-0.25019446
243	0x3e1e6617	0.15468632
244	0xbdbe69a3	-0.09297492
245	0x3eb881fe	0.36036676
246	0xbde5fb42	-0.11229564
247	0xbb184c6c	-0.002323891
248	0x3dfb7e72	0.12279977
249	0x3e9ff0bd	0.31238356
250	0xbc3c4f03	-0.011493447
251	0x3d93ea20	0.0722239
252	0xbd84139f	-0.06449055
253	0x3e9b29be	0.30305284
254	0x3e35e72e	0.1776397
255	0x3dee72ed	0.11643014

functional_5_1/dense_10_1/Add/ReadVariableOp:0 f4 [32]
0	0x3dad9ce8	0.08477193
1	0x3c74adf5	0.014934053
2	0x3d1de4fa	0.038548447
3	0xbd967ca6	-0.073479936
4	0x3c656540	0.014001191
5	0xbcc80cd8	-0.024420187
6	0x3ddd2653	0.107983254
7	0x3e03c13b	0.1286668
8	0xbe1ee3c8	-0.15516579
9	0x3db99f9a	0.09063645
10	0xbc6f3e80	-0.0146023035
11	0x3d40467c	0.04694222
12	0xbcf733e5	-0.030176112
13	0xbd1b8dea	-0.037977137
14	0x3d2ed825	0.0426866
15	0x3d3bc4d3	0.045842003
16	0x3dfda039	0.12384076
17	0xbc1f94a1	-0.009740026
18	0x3cbdd6e3	0.023173755
19	0xbc70fc99	-0.0147086615
20	0x3d803329	0.06259758
21	0x3d6c2c65	0.057659525
22	0x3ca064f1	0.019579383
23	0xbdd8c29c	-0.10583994
24	0x3cb1664c	0.021655224
25	0x3d84ca8b	0.064839445
26	0xbd1b926c	-0.037981436
27	0x3d0c34f1	0.034230176
28	0x3db4d7de	0.08830236
29	0xba078b65	-0.0005170613
30	0xbc073bfc	-0.0082540475
31	0x3d89c5ae	0.067271575

functional_5_1/batch_normalization_8_1/batchnorm/sub:0 f4 [32]
0	0xbf1b8a8e	-0.6075829
1	0xbf04d47c	-0.51886725
2	0xbef95d48	-0.4870398
3	0xbe91f6f6	-0.2850873
4	0xbf110b1d	-0.5665758
5	0xbe97352a	-0.29532748
6	0xbebe941c	-0.37222373
7	0xbec5c574	-0.38627207
8	0xbf0e0fcf	-0.5549287
9	0xbeee6c96	-0.4656722
10	0xbef4572c	-0.47722757
11	0xbf146ff2	-0.57983315
12	0xbf06a32a	-0.5259272
13	0xbedd75b7	-0.43253872
14	0xbf102dbe	-0.563198
15	0xbf27fbe7	-0.6561875
16	0xbe89068b	-0.26762804
17	0xbe281899	-0.16415633
18	0xbe42b7d3	-0.19015436
19	0xbe884bd0	-0.2662034
20	0xbf0fde2d	-0.5619839
21	0xbe4cd9d0	-0.20004964
22	0xbf109104	-0.56471276
23	0xbf309d62	-0.6899015
24	0xbf07ba89	-0.53019005
25	0xbf15e3b6	-0.58550584
26	0xbf1163b0	-0.56792736
27	0xbe99f1da	-0.3006733
28	0xbed2eee1	-0.41197875
29	0xbf030bf4	-0.51190114
30	0xbf007321	-0.5017567
31	0xbe87495d	-0.2642316

functional_5_1/batch_normalization_8_1/batchnorm/mul:0 f4 [32]
0	0x3f07a15a	0.5298058
1	0x3f08d092	0.53443253
2	0x3f6473d7	0.8923926
3	0x3f4fcd7c	0.8117292
4	0x3f3fa659	0.748632
5	0x3ee4794f	0.446238
6	0x3f2a3c1d	0.66497976
7	0x3f0a9854	0.54138684
8	0x3f6c7f2c	0.9238155
9	0x3f1258cd	0.5716675
10	0x3f341f77	0.7036051
11	0x3f7d88aa	0.9903666
12	0x3f2b5427	0.6692528
13	0x3f608a80	0.87711334
14	0x3f008d6e	0.50215805
15	0x3f08573a	0.532581
16	0x3f3ceab1	0.7379561
17	0x3ee807a5	0.45318332
18	0x3f02bc15	0.5106824
19	0x3f56a8e5	0.8385146
20	0x3f55330b	0.8328101
21	0x3eeb4aa4	0.45955384
22	0x3f50bd8b	0.8153922
23	0x3f60fc91	0.87885386
24	0x3f6350cc	0.8879516
25	0x3eff09da	0.49812204
26	0x3f40ecb9	0.7536121
27	0x3f48bdc3	0.78414553
28	0x3f4be6a7	0.7964882
29	0x3edd09e8	0.4317162
30	0x3f1cc0b0	0.6123152
31	0x3f0d8ea6	0.5529579

functional_5_1/batch_normalization_7_1/batchnorm/sub:0 f4 [64]
0	0xbf132a4e	-0.57486427
1	0xbf2b2f30	-0.6686888
2	0xbee70f00	-0.45128632
3	0xbf399145	-0.7248729
4	0xbefcbdcc	-0.49363554
5	0xbf0d39d6	-0.55166376
6	0xbea793ac	-0.32729852
7	0xbf004c89	-0.50116783
8	0xbf0f1d1e	-0.55903804
9	0xbf26b0b2	-0.65113366
10	0xbf4321a4	-0.76223207
11	0xbf0c2658	-0.5474601
12	0xbee0baba	-0.4389246
13	0xbf1c5310	-0.61064243
14	0xbf1334ba	-0.5750233
15	0xbefff4db	-0.49991497
16	0xbf2ef1b1	-0.6833754
17	0xbf0a5f71	-0.5405188
18	0xbf0ea583	-0.557213
19	0xbef01a92	-0.46895272
20	0xbf1b4f45	-0.6066783
21	0xbed0971d	-0.4074029
22	0xbee45c02	-0.44601446
23	0xbef41ae9	-0.4767678
24	0xbee8e71f	-0.4548883
25	0xbf1c2f2e	-0.6100949
26	0xbebf19f5	-0.3732449
27	0xbeed6320	-0.4636469
28	0xbf118a3c	-0.56851554
29	0xbe8aeaff	-0.27132413
30	0xbee0c634	-0.43901217
31	0xbf136938	-0.57582426
32	0xbea23e30	-0.3168807
33	0xbf08c869	-0.534308
34	0xbeb94d99	-0.36192015
35	0xbf01428b	-0.5049216
36	0xbefdb05b	-0.4954861
37	0xbf264bbf	-0.6495933
38	0xbebaa547	-0.36454222
39	0xbeb3b05a	-0.35095483
40	0xbf06da4e	-0.52676857
41	0xbeef2441	-0.46707347
42	0xbf082919	-0.5318771
43	0xbf01b89f	-0.50672334
44	0xbf048815	-0.51770145
45	0xbf1a7c52	-0.6034595
46	0xbedb646c	-0.42850053
47	0xbf0eca35	-0.55777293
48	0xbf448626	-0.76767194
49	0xbf0f6754	-0.5601704
50	0xbf50675e	-0.81407726
51	0xbf2604d5	-0.64851123
52	0xbee2f8b3	-0.44330367
53	0xbef627c6	-0.4807722
54	0xbf1e8868	-0.6192689
55	0xbeff2a7d	-0.49837103
56	0xbf3af9b4	-0.73037267
57	0xbf10091f	-0.5626392
58	0xbf00ecbc	-0.5036123
59	0xbeea1ef6	-0.45726746
60	0xbf09e7e9	-0.5386949
61	0xbec634e8	-0.3871224
62	0xbf24bbc6	-0.6434902
63	0xbf18be3a	-0.5966526

functional_5_1/batch_normalization_7_1/batchnorm/mul:0 f4 [64]
0	0x3f87e592	1.0616934
1	0x3f08c1c9	0.5342069
2	0x3f6edf85	0.93309814
3	0x3f64cc09	0.8937383
4	0x3f2d47b8	0.6768756
5	0x3f29c221	0.6631184
6	0x3f5b8931	0.8575621
7	0x3f2f0f08	0.6838231
8	0x3f72113c	0.9455755
9	0x3f171788	0.5902028
10	0x3f562052	0.83643067
11	0x3f300013	0.68750113
12	0x3f69e657	0.91367096
13	0x3f19c75e	0.60069835
14	0x3f2aa617	0.66659683
15	0x3f52e690	0.8238306
16	0x3f014816	0.5050062
17	0x3f2deecd	0.67942506
18	0x3f89996b	1.0749944
19	0x3f4f0236	0.8086275
20	0x3ef64461	0.48099044
21	0x3f765430	0.9622221
22	0x3f61b642	0.8816873
23	0x3f698581	0.91219336
24	0x3f32cd91	0.6984492
25	0x3f4a25b0	0.78963757
26	0x3f1822cf	0.59428114
27	0x3f4f9733	0.81090087
28	0x3f804bf6	1.0023181
29	0x3f5e6e72	0.86887276
30	0x3f723f86	0.9462818
31	0x3f817397	1.01134
32	0x3f5034b6	0.8133043
33	0x3f7446a0	0.95420265
34	0x3f68db69	0.90959793
35	0x3f2f72a2	0.6853429
36	0x3f39cab7	0.72574943
37	0x3f7d3000	0.9890137
38	0x3f6e3eae	0.9306439
39	0x3f1f0955	0.62123615
40	0x3f2e26f5	0.68028194
41	0x3f6ce73c	0.92540336
42	0x3f21fbdc	0.6327493
43	0x3f701ba9	0.93792206
44	0x3f748d5f	0.95528215
45	0x3f4e0cb3	0.8048813
46	0x3f78111a	0.96901095
47	0x3f31c095	0.6943448
48	0x3f5b6e5a	0.8571526
49	0x3f106f89	0.5642019
50	0x3f555a3c	0.8334081
51	0x3f52907b	0.8225171
52	0x3f43871c	0.76378036
53	0x3f52d3ff	0.8235473
54	0x3f181bbb	0.59417313
55	0x3f158eb0	0.5842085
56	0x3f5e1ab9	0.86759526
57	0x3f349289	0.70536095
58	0x3f54c394	0.8311093
59	0x3f825e80	1.0185089
60	0x3f367af9	0.7128139
61	0x3f82ed09	1.0228587
62	0x3f19475c	0.5987451
63	0x3f711f57	0.94188446

functional_5_1/batch_normalization_6_1/batchnorm/sub:0 f4 [128]
0	0xbe7dcf23	-0.24786048
1	0xbe73409c	-0.23755115
2	0xbe84eecc	-0.25963438
3	0xbed79637	-0.42106792
4	0x3cc88253	0.024476206
5	0x3d85aeb8	0.065274656
6	0xbf2a50d8	-0.6652961
7	0xbe55d6f6	-0.20882782
8	0xbf00c227	-0.5029625
9	0xbeea4724	-0.457574
10	0xbdf6c355	-0.120489754
11	0xbeed4a66	-0.46345824
12	0xbe0c8aa2	-0.13724759
13	0xbc9cd122	-0.019142691
14	0xbde8196c	-0.11332974
15	0xbeeaa96a	-0.45832378
16	0xbef716fb	-0.4825972
17	0xbe8a1701	-0.26970676
18	0xbe9bbd3d	-0.30417815
19	0xbe723048	-0.2365123
20	0xbe1a614c	-0.15076178
21	0xbea6d349	-0.32583073
22	0xbe55b5a4	-0.20870072
23	0xbf3d5f1d	-0.73973256
24	0xbf5cd50e	-0.86262596
25	0x3b0e7f24	0.0021743262
26	0xbe969762	-0.2941237
27	0xbf012ba3	-0.5045721
28	0xbed2c114	-0.41162932
29	0xbe5169a8	-0.20450461
30	0x3cab2a42	0.020894174
31	0xbde9af3a	-0.11410375
32	0xbf1896b3	-0.5960495
33	0x3ce842bd	0.028352136
34	0xbf05ff23	-0.5234243
35	0xbea52a0f	-0.3225865
36	0xbdfab488	-0.12241465
37	0x3a7c0128	0.00096132094
38	0xbe18bbe7	-0.14915429
39	0xbe061d57	-0.1309713
40	0xbd6f1a43	-0.058374655
41	0xbe1c8c1d	-0.15287824
42	0x3d9e9280	0.077427864
43	0xbddd6a76	-0.108113214
44	0xbe282c86	-0.16423234
45	0xbc425648	-0.011861391
46	0xbc1a9dd4	-0.009437043
47	0xbd11f8fe	-0.035637848
48	0x3d79e0d2	0.06100542
49	0x3cfcbf81	0.030853035
50	0xbe6a88d9	-0.22903766
51	0xbec98d3d	-0.3936557
52	0xbe8c2568	-0.2737229
53	0x39cfbd98	0.00039623375
54	0xbed7b308	-0.42128778
55	0x3d203bf3	0.039119672
56	0x3baad1b9	0.005212989
57	0x3c8891ee	0.016671147
58	0xbf2c9dc5	-0.6742824
59	0xbeca9379	-0.39565638
60	0xbee03260	-0.43788433
61	0x3d508ed8	0.050917476
62	0xbf3fe2de	-0.74955547
63	0xbe9cedb2	-0.30650097
64	0xbe6ecc8d	-0.23320217
65	0xbbc4c0d5	-0.0060044327
66	0xbf295004	-0.6613772
67	0x3d472aca	0.04862479
68	0xbf03b2aa	-0.51444495
69	0xbe4aa139	-0.19788064
70	0xbe714864	-0.23562771
71	0xbf3a3ebd	-0.7275198
72	0x3d8f613a	0.07000966
73	0x3aaf1a40	0.0013359264
74	0xbf1cc7d3	-0.6124241
75	0xbf5ac1b6	-0.8545183
76	0xbe00a47e	-0.12562749
77	0xbf0c016e	-0.5468968
78	0xbed214de	-0.41031545
79	0xbce8f90e	-0.028439071
80	0xbf0a1676	-0.5394052
81	0xbe81a519	-0.25321272
82	0xbe98d280	-0.298481
83	0xbd28bf46	-0.041198038
84	0xbebd48f9	-0.36969736
85	0x3db7134a	0.08939226
86	0xbf027c8b	-0.5097129
87	0x3d0c13f6	0.034198724
88	0x3cb9f5dc	0.022700243
89	0xbd020d51	-0.03175098
90	0xbd880351	-0.066412576
91	0xbe6cdbd4	-0.23130733
92	0xbd997bb8	-0.074943006
93	0xbe83a9fc	-0.25715625
94	0xbe1a090a	-0.1504251
95	0x3d87a824	0.06623867
96	0xbf3e91bc	-0.74441123
97	0xbe9d867e	-0.30766672
98	0xbc0e4084	-0.008682374
99	0xbd5e9565	-0.054341692
100	0xbf2232b2	-0.63358605
101	0xbf01987f	-0.50623316
102	0xbe282bd8	-0.16422975
103	0xbeb81a3d	-0.35957518
104	0x3cb9edf9	0.022696482
105	0xbdda0fcd	-0.10647545
106	0xbec918ea	-0.3927682
107	0xbbfcb6ee	-0.0077122366
108	0xbc6065c8	-0.013696142
109	0xbeadc60b	-0.33940157
110	0xbe9b8ded	-0.30381718
111	0x3db3cbc9	0.08779103
112	0x3da27b9b	0.07933732
113	0xbedc9afe	-0.43087
114	0xbe74bb98	-0.23899686
115	0xbf1a8705	-0.60362273
116	0xbf1eceb9	-0.62034184
117	0xbf3be260	-0.73392296
118	0xbd941734	-0.07230988
119	0x3d953506	0.07285504
120	0xbcc48004	-0.023986824
121	0xbf060e5d	-0.52365667
122	0xbf057ca5	-0.5214332
123	0x3d5ebd75	0.0543799
124	0xbec1ea87	-0.37874243
125	0xbf147a8c	-0.5799949
126	0xbc3e1b0c	-0.011603128
127	0xbf115b79	-0.567802

functional_5_1/batch_normalization_6_1/batchnorm/mul:0 f4 [128]
0	0x3fcb002c	1.5859427
1	0x3fdb9f21	1.7157937
2	0x3fe6c1b4	1.8027864
3	0x3fdfd1e1	1.7485925
4	0x3fe58f64	1.7934384
5	0x3fd1e092	1.6396658
6	0x3fe80ac1	1.8128282
7	0x3fd2f2f9	1.6480399
8	0x3fe8c68e	1.8185594
9	0x3ff88a53	1.9417213
10	0x3fd511c7	1.664605
11	0x3fca4cbf	1.5804671
12	0x3fd29f33	1.6454834
13	0x3fe98bfb	1.8245844
14	0x3ff49613	1.9108299
15	0x3ff075e1	1.8785974
16	0x3fd7368f	1.6813525
17	0x3fee3150	1.8608799
18	0x3feb7e68	1.8397951
19	0x3fd6dab9	1.6785499
20	0x3fd7962f	1.6842707
21	0x3ff4c8ac	1.912374
22	0x3fe27e00	1.7694702
23	0x3fe51afa	1.7898858
24	0x3ffb1bb7	1.9617833
25	0x3fea75ba	1.8317177
26	0x3fdd5d99	1.7294189
27	0x3fe2810e	1.7695634
28	0x3fe975dc	1.8239093
29	0x3fe9e17d	1.8271939
30	0x3ff7e7ca	1.9367611
31	0x3ff29db8	1.8954382
32	0x3fee7545	1.8629538
33	0x40032253	2.04897
34	0x3fe6bcae	1.802633
35	0x3fea12de	1.8287008
36	0x3fd5c98f	1.6702136
37	0x3ff0da57	1.8816632
38	0x3fde300d	1.7358414
39	0x3feaffdf	1.8359336
40	0x3fd9c372	1.701277
41	0x3fdef892	1.7419608
42	0x3fd35b6c	1.6512275
43	0x3fdf8477	1.74623
44	0x3fcfdaa1	1.6238595
45	0x3fbf6c63	1.4954952
46	0x3fdb8585	1.7150122
47	0x3fd7c5e3	1.6857265
48	0x3fe98bfb	1.8245844
49	0x3ff5f3cf	1.921503
50	0x3ff0d45d	1.8814808
51	0x3fd667b5	1.6750399
52	0x3fdfd0a1	1.7485543
53	0x3fc94a88	1.572587
54	0x3fead15b	1.834514
55	0x3fe95749	1.8229762
56	0x3fe00cf6	1.7503955
57	0x3fd75d0c	1.6825271
58	0x3ffdf021	1.9838907
59	0x3fd738b2	1.6814177
60	0x3fe6c762	1.8029597
61	0x3fe98bfb	1.8245844
62	0x3fe496a4	1.7858472
63	0x40019989	2.024996
64	0x3fdeabc6	1.7396171
65	0x3fe98bfb	1.8245844
66	0x3fe99a21	1.8250161
67	0x3fdab2b2	1.7085783
68	0x3ff69f81	1.9267427
69	0x3fe8a9f3	1.8176864
70	0x3fea530b	1.8306593
71	0x3ff5dab4	1.9207368
72	0x3ff0298b	1.8762678
73	0x3fcffe88	1.6249552
74	0x3fd20e80	1.6410675
75	0x3fdd3b65	1.7283751
76	0x3ff1d2fd	1.8892514
77	0x3fdded2e	1.7338006
78	0x3fec4e67	1.8461426
79	0x40034450	2.0510445
80	0x3fdd6fb0	1.7299709
81	0x3fea53d1	1.8306829
82	0x3fc663d3	1.5499214
83	0x3fdc956c	1.72331
84	0x3ffa9a19	1.9578277
85	0x3fec4786	1.8459327
86	0x3fcf4318	1.619235
87	0x3fc766c5	1.5578238
88	0x3fdf27c5	1.7434012
89	0x3fe7ebc6	1.8118827
90	0x3fce25bb	1.6105264
91	0x3fe5087d	1.7893215
92	0x3fd05549	1.6276027
93	0x3fd2fef3	1.6484054
94	0x3fd8bc6e	1.6932504
95	0x3fda9f91	1.7079946
96	0x3fe87fc6	1.8163993
97	0x3fdfb53c	1.7477183
98	0x3fe98bfb	1.8245844
99	0x3fedb823	1.8571819
100	0x3fd0d7de	1.6315877
101	0x3fdc9e76	1.7235858
102	0x3fe02854	1.7512307
103	0x3febd277	1.8423604
104	0x3fdb874a	1.7150662
105	0x3fc243a6	1.5176895
106	0x3fe2fafd	1.7732846
107	0x3fdac6cb	1.7091917
108	0x3fd9cbcf	1.7015322
109	0x3fd9368e	1.6969774
110	0x3fd07582	1.628586
111	0x3fd958dd	1.6980244
112	0x3feef751	1.8669225
113	0x3fedd424	1.8580365
114	0x3fdf536c	1.7447333
115	0x3fc34605	1.5255743
116	0x3fecb776	1.8493488
117	0x3fe8b56b	1.8180364
118	0x3fdb3bfd	1.7127682
119	0x3fdb862a	1.7150319
120	0x3fdb85bb	1.7150186
121	0x3fdccb96	1.724963
122	0x3fcff96f	1.6247996
123	0x3fdb87b5	1.715079
124	0x3fc89c60	1.5672722
125	0x3fe7f62b	1.8122
126	0x3fd7515a	1.6821702
127	0x3fd620d5	1.672877
