models/Kozina/speed/Kozina_speed_model.onnx (onnx, 61067 bytes, 13 tensors)

functional_5_1/dense_9_1/Cast/ReadVariableOp:0 f4 [128, 64]
0	0xbca2e8e7	-0.019886447
1	0x3d4f60cf	0.050629433
2	0x3e751bb6	0.23936352
3	0xbe26d2d4	-0.16291362
4	0x3e63ffdf	0.22265576
5	0xbd98028e	-0.07422362
6	0x3dc6037f	0.096686356
7	0xbe503668	-0.20333254
8	0xbe00c257	-0.12574135
9	0x3d5d08e7	0.053963568
10	0x3dd411b1	0.10354937
11	0xbd736959	-0.05942664
12	0xbdf35d83	-0.1188307
13	0xbe0af793	-0.13571005
14	0x3be32fe2	0.0069331983
15	0xbd932ba0	-0.07186055
16	0xbdaa32b8	-0.08310455
17	0xbd0188fe	-0.031624787
18	0xbd72d2c2	-0.059283026
19	0xbdcd033d	-0.10010383
20	0xbd8ca151	-0.06866706
21	0xbcf4dd9b	-0.029890826
22	0x3deb5382	0.11490537
23	0xbc596f84	-0.013271216
24	0x3d502ed8	0.050825924
25	0x3e778474	0.2417162
26	0xbc88fe85	-0.016722927
27	0xbda26513	-0.079294346
28	0x3e422496	0.18959269
29	0xbd2aaa4b	-0.04166631
30	0xbd1b64e9	-0.037938032
31	0x3e1de772	0.1542032
32	0xbe6a0ed7	-0.22857223
33	0x3e0ae34c	0.1356327
34	0xbe0d1c3e	-0.13780305
35	0xbd51239a	-0.051059343
36	0xbc0ed07f	-0.0087167015
37	0xbdcef5b9	-0.101054616
38	0x3d116458	0.035496086
39	0xbd8e1dfb	-0.06939312
40	0xbe31b650	-0.17354703
41	0x3a5902c8	0.00082783075
42	0xbe54e2cf	-0.20789646
43	0xbc89545f	-0.016763864
44	0x3e5483c5	0.20753391
45	0xbd4d443a	-0.050113894
46	0xbdbcdf4a	-0.092222765
47	0xbbfc55fc	-0.00770068
48	0xbd0744b8	-0.03302452
49	0xbd8efcb6	-0.069817945
50	0x3da25a79	0.079274125
51	0xbdcc2361	-0.099676855
52	0x3daee89d	0.08540461
53	0x3e51691e	0.20450255
54	0x3e1804de	0.14845607
55	0xbc8274a9	-0.015924769
56	0x3d85dad3	0.06535878
57	0xbe03a998	-0.12857664
58	0x3cba5b0e	0.022748496
59	0xbd302ee8	-0.043013483
60	0x3d30ba05	0.043146152
61	0xbd7a5866	-0.06111946
62	0x3df3cefd	0.11904714
63	0x3de980b7	0.114015035
64	0xbc6739b9	-0.014112883
65	0x3e304c3b	0.1721658
66	0x3d311ae8	0.04323855
67	0xbdd03277	-0.101658754
68	0x3cc1039c	0.023561291
69	0x3e3deec6	0.18548116
70	0xbe2d0765	-0.16897352
71	0xbe4baa3d	-0.1988916
72	0x3e5f0b8c	0.21781749
73	0x3e58ee99	0.21184768
74	0x3de238c4	0.110459834
75	0xbd8c5dac	-0.06853804
76	0xbd49a1ba	-0.0492265
77	0x3ce29dcf	0.02766314
78	0x3d72a94d	0.05924349
79	0xbe523521	-0.2052808
80	0x3debe66f	0.11518561
81	0xbda97c25	-0.08275632
82	0x3e1f74b3	0.15571861
83	0x3d0b899c	0.03406678
84	0xbc77f78b	-0.015134702
85	0x3cbe26c5	0.023211846
86	0x3e15b78a	0.14620796
87	0x3c940446	0.018068444
88	0xbdabaa9b	-0.0838215
89	0xbdabe074	-0.083924204
90	0x3e1eab61	0.15495063
91	0xbcc31d22	-0.023817603
92	0xbdafc0a4	-0.08581665
93	0x3d481c29	0.04885498
94	0xbde1c39d	-0.110236384
95	0xbe3d78da	-0.18503132
96	0x3d39dff3	0.04537959
97	0x3c8503f9	0.016237246
98	0x3e6bf954	0.2304433
99	0xbdc8953f	-0.097940914
100	0xbd6794ee	-0.056538515
101	0x3e25e4e7	0.162006
102	0xbd63ca4a	-0.05561284
103	0xbe581344	-0.21101099
104	0x3db77a73	0.08958902
105	0xbd14fef5	-0.03637596
106	0x3dd47703	0.10374262
107	0xbe42f49d	-0.19038625
108	0xbd11aba8	-0.035564095
109	0xbc64c85e	-0.013963787
110	0x3d8f59aa	0.06999524
111	0xbe0d46ea	-0.13796583
112	0x3bfa7ad5	0.0076440373
113	0x3e54decd	0.20788117
114	0xbc896ece	-0.016776469
115	0xbba85709	-0.0051373285
116	0xbd7e61eb	-0.0621051
117	0xbda28d72	-0.07937135
118	0xbe2adc29	-0.16685547
119	0x3e7d6836	0.24746785
120	0xbe59e68e	-0.21279356
121	0x3df4e5bc	0.11957881
122	0xbdcfbc5e	-0.1014335
123	0xbdd94ca2	-0.1061032
124	0xbe488f01	-0.19585802
125	0x3d3ce1a9	0.046113644
126	0x3d1f894c	0.038949296
127	0xbdef075f	-0.11671328
128	0xbe2022b0	-0.15638232
129	0x3e71f3b2	0.23628119
130	0x3e317b8f	0.1733229
131	0xbe4d95bc	-0.2007665
132	0x3d7f7873	0.06237073
133	0xbdd346c3	-0.10316231
134	0xbda6ad63	-0.0813854
135	0x3d274b06	0.040843032
136	0x3de0cf6c	0.109770626
137	0x3e3511f0	0.17682624
138	0x3db8f97d	0.09031961
139	0x3c80543d	0.015665168
140	0x3da69c55	0.08135287
141	0xbe66fde8	-0.22557795
142	0x3e1bbe71	0.15209366
143	0xbb034e42	-0.002003566
144	0x3e442053	0.19152956
145	0xbdab1c1e	-0.08354972
146	0xbd586f3c	-0.052840456
147	0x3e19282e	0.14956734
148	0x3c92fa80	0.017941713
149	0x3c571034	0.013126422
150	0xbd81125a	-0.063023284
151	0xbe33b4c0	-0.1754942
152	0x3d5c28c9	0.053749833
153	0xbdf5e1ca	-0.120059565
154	0xbd42183a	-0.047386386
155	0xbe2e6da2	-0.17034009
156	0x3de98f7a	0.11404319
157	0x3d8598fd	0.06523321
158	0x3d4bad4f	0.049725827
159	0xbe2d7eb8	-0.1694287
160	0xbe2d6c31	-0.16935803
161	0xbd0eab7c	-0.03483151
162	0xbdf54651	-0.119763024
163	0x3dc1f0b1	0.09469736
164	0x3d2c69bb	0.04209302
165	0x3c2fcf98	0.010730647
166	0x3e690c80	0.22758675
167	0xbd96f3e0	-0.07370734
168	0x3e0e3689	0.13887991
169	0xbe8a3a1a	-0.26997453
170	0xbe4057ba	-0.18783465
171	0x3d9cf95a	0.076647475
172	0x3d77e2ba	0.060518958
173	0xbcacdf1a	-0.021102477
174	0xbe890387	-0.26760504
175	0x3dcbda81	0.09953786
176	0xbdf88529	-0.12134773
177	0x3dd7ef59	0.10543699
178	0xbb635867	-0.0034690143
179	0xbd3c7c5b	-0.046017032
180	0xbd02325d	-0.03178631
181	0xbd992bd1	-0.074790604
182	0x3e03ab11	0.12858225
183	0x3da1eaec	0.07906136
184	0x3e053012	0.13006619
185	0xbc87df7c	-0.016586058
186	0xbce3fa18	-0.027829215
187	0x3cafd5f9	0.021464335
188	0x3e247c67	0.1606308
189	0x3dec2f1b	0.11532422
190	0xbd8da5eb	-0.06916412
191	0xbe9d4eea	-0.3072427
192	0xbc0041a2	-0.007828148
193	0xbdf7accf	-0.120935075
194	0xbd84311f	-0.064546816
195	0x3e158745	0.14602382
196	0xbce55331	-0.02799377
197	0x3dbd664d	0.09248028
198	0x3dd29ec9	0.10284192
199	0xbd91a223	-0.07111003
200	0x3d161a56	0.03664621
201	0x3c7372f1	0.014858947
202	0x3e5774b5	0.21040614
203	0x3d3228e8	0.043496042
204	0xbd28bf20	-0.041197896
205	0xbe04efc7	-0.12982093
206	0xbc95b2d8	-0.018273756
207	0xbc8ebf4f	-0.017425207
208	0xbe27adc3	-0.16374879
209	0x3dc38f9d	0.095488764
210	0xbd106184	-0.03524925
211	0xbba21692	-0.0049465382
212	0x3e0a76bf	0.1352186
213	0xbd42559b	-0.04744492
214	0x3e14bb9e	0.14524695
215	0x3e303e5e	0.17211291
216	0xbe01ceaa	-0.12676492
217	0xbe0467e4	-0.12930256
218	0x3e80ba2b	0.25142035
219	0x3da2af23	0.07943561
220	0x3e612327	0.21986066
221	0x3d890a4d	0.06691418
222	0xbe152373	-0.14564304
223	0x3d75b9ff	0.059991833
224	0x3e0b79fc	0.13620752
225	0x3dfea145	0.124331035
226	0x3dbf4e2f	0.09341084
227	0xbda48918	-0.08033961
228	0xbd13148a	-0.03590826
229	0x3d4edb7f	0.050502297
230	0x3e497e02	0.19676974
231	0x3d99704c	0.07492122
232	0xbd33b1fd	-0.043870915
233	0x3e6f6ea9	0.23382057
234	0x3e0aef66	0.13567886
235	0xbc66fb80	-0.014098048
236	0x3e10c9ce	0.14139482
237	0xbd896c91	-0.067101605
238	0x3e4eee99	0.20208205
239	0x3e6e60b2	0.23279074
240	0xbdd710df	-0.10501265
241	0x3e4446b3	0.19167595
242	0xbde04fce	-0.109527215
243	0xbdb5bc12	-0.08873762
244	0xbd86cbd3	-0.06581845
245	0x3e583467	0.2111374
246	0xbd9496d6	-0.07255332
247	0x3d871797	0.06596296
248	0xbd1dfffd	-0.038574208
249	0x3cd8abf4	0.026449181
250	0x3c228635	0.009919693
251	0x3cc15428	0.0235997
252	0xbbe6ab9a	-0.0070394995
253	0x3e2d015b	0.16895048
254	0x3dce8b48	0.100851595
255	0xbda3dd67	-0.080012135

functional_5_1/dense_9_1/Add/ReadVariableOp:0 f4 [64]
0	0x3d83b9d3	0.064319275
1	0x3d45edc1	0.048322443
2	0xbd2d1ba9	-0.042262707
3	0x3cfac79c	0.03061276
4	0xbd321fc5	-0.04348733
5	0x3c4a53ce	0.012349082
6	0xbce8fa0b	-0.028439542
7	0xbb0b7e3f	-0.0021284965
8	0x3d8d25b7	0.06891959
9	0xbbdb99be	-0.006701677
10	0x3d1d3ef3	0.03839011
11	0xbdaee10f	-0.0853902
12	0xbc68a863	-0.014200303
13	0xbd87863a	-0.066173986
14	0xbcad7ca6	-0.021177601
15	0xbc2f7693	-0.010709423
16	0xbce77994	-0.028256215
17	0x3d658ffa	0.05604551
18	0x3c27db69	0.010245183
19	0xbc58c416	-0.013230344
20	0x3dcf80c8	0.10131985
21	0xbd0cbfac	-0.03436248
22	0xbdcda9cf	-0.10042154
23	0x3d51c54f	0.05121356
24	0xbd22f799	-0.03978691
25	0x3d492a5c	0.049112663
26	0x3df685d7	0.12037247
27	0xbd520e5e	-0.051283233
28	0xbd2e1de1	-0.042508963
29	0xbd5e8a9f	-0.054331418
30	0x3e2a20db	0.16614096
31	0x3d9062bf	0.07050084
32	0xbd30f19d	-0.04319917
33	0xbccfe26a	-0.025376517
34	0x3d2734a3	0.040821683
35	0xbccdd614	-0.025126494
36	0xbc0670f3	-0.00820564
37	0x3da1684d	0.07881222
38	0xba8bcb38	-0.0010665422
39	0xbd7595e6	-0.059957407
40	0xbdcf9209	-0.10135276
41	0x3d97a20e	0.07403956
42	0x3d87ad37	0.06624835
43	0x3c8b9955	0.017040888
44	0xbd8c70c5	-0.068574466
45	0xbd37e37e	-0.044894688
46	0xbae0aeea	-0.0017141972
47	0xbd96f621	-0.07371164
48	0xbcb9415f	-0.02261418
49	0xbd81228a	-0.06305416
50	0xbb9aaf05	-0.004720571
51	0xbc8b94e5	-0.017038772
52	0xbd446b70	-0.047954023
53	0x3dbf05b7	0.09327262
54	0x3d5195af	0.05116814
55	0xbd7a01ee	-0.061036997
56	0xbd381676	-0.044943295
57	0x3da6a069	0.081360646
58	0x3df479cd	0.11937294
59	0x3ca57e15	0.020201722
60	0x3dbb196a	0.09135707
61	0xbbac5fb5	-0.0052604326
62	0x3d475fc5	0.048675317
63	0xbdab3fd6	-0.08361785

functional_5_1/dense_8_1/Cast/ReadVariableOp:0 f4 [26, 128]
0	0x3df23c42	0.118278995
1	0x3e222b61	0.1583686
2	0x3cae6658	0.021289036
3	0x3d65c3bc	0.05609487
4	0x3d9e23aa	0.07721646
5	0x3dcd122e	0.10013233
6	0xbdf6faac	-0.120595306
7	0x3de60e4e	0.11233197
8	0xbc23bd00	-0.009993792
9	0x3d884b56	0.06654994
10	0xbdbe96f5	-0.093061365
11	0xbdbcae35	-0.09212915
12	0x3dfe7206	0.12424092
13	0xbdc09359	-0.09403104
14	0xbd4f4ac0	-0.050608397
15	0xbd47b7bc	-0.048759207
16	0xbe2ca3aa	-0.16859308
17	0xbe38ebab	-0.1805865
18	0x3e1421c3	0.14466004
19	0x3e0de047	0.13855086
20	0xbe3dd16d	-0.18536921
21	0xbe168c0d	-0.14701863
22	0xbd146264	-0.036226645
23	0x3e48ffd5	0.19628842
24	0x3dacd826	0.084396645
25	0x3be740a0	0.0070572644
26	0x3dcbb526	0.09946661
27	0x3e3e2387	0.1856824
28	0xbe17834a	-0.14796177
29	0x3dd53046	0.10409598
30	0xbdbcb1cf	-0.09213602
31	0x3da74bfe	0.08168791
32	0x3def878a	0.11695774
33	0xbdade32b	-0.084905945
34	0xbda9fe20	-0.083004236
35	0xbdea4345	-0.11438612
36	0xbe121c52	-0.14268616
37	0x3d8db6b6	0.06919615
38	0x3d4b5268	0.049639136
39	0xbe4499c3	-0.1919928
40	0xbe275eb8	-0.16344726
41	0xbdaaea5f	-0.08345484
42	0xbd70e720	-0.058814168
43	0x3e130e85	0.14361008
44	0xbbd1cca0	-0.006402567
45	0xbe0952b8	-0.13410461
46	0xbdf65af7	-0.12029069
47	0x3ca1aa20	0.019734442
48	0x3e04ba0b	0.12961595
49	0x3deb9dfa	0.11504741
50	0xbdbc7dd3	-0.092036866
51	0x3d5a5e64	0.053312674
52	0xbce63238	-0.028100118
53	0xbd3e85d0	-0.046514332
54	0x3d99fd72	0.07519044
55	0xbe1fff74	-0.15624791
56	0x3c99e510	0.018785983
57	0xbcf7c390	-0.030244619
58	0xbe39aa35	-0.18131335
59	0x3de9dd5e	0.114191756
60	0xbcae5c10	-0.021284133
61	0xbcecc2b0	-0.028901428
62	0x3db08ad6	0.08620231
63	0x3da527b6	0.08064215
64	0xbc7643c0	-0.015030801
65	0x3e06e60d	0.13173695
66	0x3e03bfdb	0.12866156
67	0x3e14fd39	0.14549722
68	0x3e38b251	0.18036772
69	0x3da2ae9e	0.07943462
70	0xbe09b97e	-0.13449666
71	0x3e186f39	0.14886178
72	0xbda19eb1	-0.07891596
73	0xbd3d24f0	-0.046177804
74	0x3da160ee	0.07879816
75	0xbe3f7cf9	-0.18700017
76	0x3d138a80	0.036020756
77	0x3df13d6a	0.11779292
78	0x3e294dbd	0.16533561
79	0x3e013b9d	0.12620397
80	0x3e350f6b	0.17681663
81	0xbda6329e	-0.08115123
82	0x3d59d19c	0.053178415
83	0xbdc0de9a	-0.09417458
84	0x3df52d82	0.119715706
85	0xbdb0c138	-0.086306036
86	0x3d8d0796	0.068862125
87	0x3e1b7017	0.15179478
88	0x3d8857da	0.06657381
89	0xbdbd8104	-0.092531234
90	0xbd8533a8	-0.06503993
91	0xbe0796f2	-0.13241175
92	0x3d975f32	0.07391204
93	0xbdda22da	-0.10651179
94	0xbd97ee72	-0.07418527
95	0x3da0e4f2	0.07856168
96	0x3c4dc5e0	0.012559384
97	0xbd969b6f	-0.07353865
98	0xbe0d776b	-0.13815086
99	0x3cd4ac40	0.025961041
100	0xbde264f3	-0.11054411
101	0xbd40ae0c	-0.047040984
102	0xbe1ad394	-0.15119773
103	0x3e361521	0.17781498
104	0xbdda42c1	-0.106572635
105	0xbde497fe	-0.11161803
106	0x3e07fc27	0.13279782
107	0xbe1a480a	-0.15066543
108	0xbd389bf8	-0.04507062
109	0x3df4388e	0.119248495
110	0xbde4955a	-0.11161299
111	0xbe290a41	-0.16507818
112	0x3ccff608	0.025385872
113	0x3e31f2ad	0.1737773
114	0x3db2ee8a	0.08736904
115	0xbd325a78	-0.04354331
116	0xbc75c340	-0.0150001645
117	0x3d61a714	0.05509098
118	0xbda4daff	-0.08049583
119	0xbe336bae	-0.17521545
120	0xbe2bc0be	-0.16772744
121	0xbd79ed94	-0.061017588
122	0xbdee69f1	-0.116413005
123	0xbce95970	-0.02848503
124	0x3c686ae0	0.014185637
125	0x3d097fd0	0.033569157
126	0xbdb476b8	-0.08811706
127	0xbd8226a6	-0.06355028
128	0xbd954fb0	-0.0729059
129	0x3e27ae65	0.1637512
130	0x3d36a221	0.044588212
131	0x3d176f1f	0.036971208
132	0x3e18955e	0.14900729
133	0xbe613710	-0.21993661
134	0x3e1fa730	0.1559112
135	0x3e8f0493	0.27933177
136	0xbe22171c	-0.15829128
137	0x3d25a8b0	0.040444076
138	0xbbaf65a0	-0.005352691
139	0xbde1fa04	-0.11034015
140	0xbe0b92f0	-0.13630271
141	0xbe3fd335	-0.18732913
142	0xbcf65119	-0.030067967
143	0xbe5d2848	-0.21597397
144	0xbe103b3a	-0.14085093
145	0x3e00477e	0.12527272
146	0x3cfc9e79	0.030837284
147	0xbb728905	-0.003700794
148	0xbc748e79	-0.014926546
149	0x3c7debd3	0.015498119
150	0xbb033a82	-0.0020023887
151	0xbd520f99	-0.051284406
152	0xbe67e388	-0.2264539
153	0x3d83c506	0.064340636
154	0xbe4e97a9	-0.20175041
155	0xbd2a3a0e	-0.04155927
156	0xbdc4bf13	-0.09606757
157	0x3d46152a	0.048360027
158	0xbe8293f6	-0.2550351
159	0xbe1361dc	-0.14392799
160	0xbe3c9f8c	-0.18420237
161	0x3cffe3bd	0.031236524
162	0xbe05d0b3	-0.13067894
163	0xbdd2466f	-0.102673404
164	0xbe67cadc	-0.22635978
165	0xbdcd8f10	-0.10037053
166	0xbde19e67	-0.11016541
167	0x3e39d7a4	0.18148667
168	0x3df03f5c	0.11730835
169	0xbdf7f6e4	-0.121076375
170	0xbe30a240	-0.17249393
171	0xbe3fc2bd	-0.1872663
172	0xbd718b7b	-0.05897091
173	0xbd2112b5	-0.03932448
174	0x3d272908	0.040810615
175	0x3e211df8	0.15734088
176	0x3e676e33	0.22600631
177	0x3c92166c	0.017832957
178	0xbde347d3	-0.11097684
179	0x3e1ae3d1	0.15125968
180	0x3c8a3c55	0.016874472
181	0xbd135472	-0.035969205
182	0x3e12ceda	0.1433672
183	0xbdca16b6	-0.09867613
184	0xbdcb2fd2	-0.099212304
185	0xbe124467	-0.14283906
186	0xbdfbf022	-0.12301661
187	0x3c025ca1	0.007956655
188	0xbd16884b	-0.036751073
189	0xbd3baa2e	-0.045816593
190	0x3db95537	0.090494566
191	0x3e4e1999	0.20126952
192	0xbdd7c0d4	-0.10534826
193	0xbe29727a	-0.16547576
194	0xbe2fd26d	-0.17170115
195	0xbd93151c	-0.07181761
196	0xbe2db514	-0.16963607
197	0xbc966130	-0.01835689
198	0xbc1a2760	-0.009408802
199	0x3cf8c6d2	0.030368242
200	0x3d58a8ac	0.052895233
201	0xbd8e5428	-0.06949645
202	0x3e0136ca	0.12618557
203	0x3da78710	0.08180058
204	0x3e228840	0.15872288
205	0x3dbbd61d	0.09171698
206	0x3d4f2535	0.050572593
207	0x3ea04ccf	0.313086
208	0xbe89caf6	-0.2691266
209	0xbb91b90b	-0.0044471077
210	0xbdecd0ef	-0.115632884
211	0x3df2651e	0.11835693
212	0xbdc6dc8b	-0.09710034
213	0xbdb23ebf	-0.08703374
214	0xbdad39b0	-0.08458269
215	0x3e32bef7	0.1745566
216	0xbe0221a8	-0.12708151
217	0x3d43c394	0.04779394
218	0xbd9c1ded	-0.076228954
219	0xbe2bd30e	-0.1677973
220	0xbe6e4979	-0.23270215
221	0x3e00979a	0.12557831
222	0xbe87052a	-0.26371127
223	0x3d7a363f	0.06108689
224	0x3cc368a4	0.023853607
225	0xbe279e6e	-0.1636903
226	0xbdbab52c	-0.09116587
227	0xbe14be95	-0.14525826
228	0xbd6b774d	-0.05748682
229	0x3e06b018	0.13153112
230	0x3dc198c7	0.09452968
231	0x3e6ae755	0.22939809
232	0xbe5ebe4b	-0.21752279
233	0x3e1cad2a	0.15300432
234	0xbe3e68f5	-0.18594725
235	0xbe2adf3e	-0.16686723
236	0x3db02e25	0.08602551
237	0xbd86626e	-0.06561743
238	0x3e36d4ac	0.17854565
239	0x3dc328f8	0.095292985
240	0x3e6a6c8b	0.22892968
241	0xbc59c48e	-0.013291491
242	0xbd244adc	-0.040110454
243	0x3e75bebb	0.23998539
244	0x3e125fdb	0.14294378
245	0x3dc82ae2	0.09773804
246	0xbd76576d	-0.06014197
247	0xbb9ca466	-0.00478034
248	0x3e21dfaf	0.15807985
249	0xbda39dbb	-0.07989069
250	0xbe5fe0df	-0.21863125
251	0x3e2851c1	0.16437437
252	0xbe3b6388	-0.18299687
253	0x3e412804	0.18862921
254	0x3d98fba9	0.07469875
255	0x3d32b70c	0.0436316

functional_5_1/dense_8_1/Add/ReadVariableOp:0 f4 [128]
0	0xbd75e591	-0.060033385
1	0xbd1803cf	-0.037113007
2	0x3d6314aa	0.05543963
3	0x3d35c4c1	0.044377092
4	0x3da3e39d	0.08002398
5	0xbd67a12b	-0.056550186
6	0x3c9fcab0	0.019505829
7	0xbd376afe	-0.04477977
8	0x3d3828ee	0.04496091
9	0xbd141100	-0.036149025
10	0x00000000	0.0
11	0x3dae3989	0.08507068
12	0x3d12af64	0.035811797
13	0x00000000	0.0
14	0xbd5988e4	-0.053109065
15	0xbce8d892	-0.028423581
16	0x00000000	0.0
17	0x3cefe3ef	0.029283492
18	0xbdc21763	-0.09477117
19	0xbcc10e2f	-0.023566334
20	0xbd75e534	-0.06003304
21	0xbcad34ec	-0.0211434
22	0xbbfcb4e0	-0.0077119917
23	0x3c1d8b8a	0.009615788
24	0xbcf9ba72	-0.030484412
25	0x3dbeae95	0.09310643
26	0xbbb39723	-0.0054806634
27	0xbbfdf133	-0.0077497005
28	0x3d1b863a	0.037969805
29	0xbd62cba8	-0.055370003
30	0xbd2a8e15	-0.041639406
31	0xbd9a496c	-0.07533535
32	0xbd1fe8eb	-0.039040487
33	0x3d91b627	0.07114821
34	0x00000000	0.0
35	0xbda75e80	-0.08172321
36	0xbd67d29c	-0.056597337
37	0x3c11a268	0.008888818
38	0x00000000	0.0
39	0x3d9038a2	0.07042052
40	0xb8b1ebdd	-8.483951e-05
41	0x3c3d717a	0.011562699
42	0xbc5c482e	-0.013444943
43	0x00000000	0.0
44	0xbe0927cd	-0.13394089
45	0xbcb30432	-0.021852586
46	0x00000000	0.0
47	0x3dfb32c5	0.12265543
48	0x3d25b657	0.040457096
49	0x3d1fe4b3	0.039036464
50	0x3d474881	0.04865313
51	0xbc85211b	-0.016251137
52	0xbd75e532	-0.06003303
53	0xbd4c25e1	-0.04984081
54	0x3a2d1c64	0.0006603657
55	0x3da6928c	0.0813342
56	0x3d822250	0.06354201
57	0xbd98a9a7	-0.074542336
58	0xbd812165	-0.063051976
59	0xbd453f7a	-0.04815624
60	0x3cfe2300	0.031022549
61	0xbdc074ef	-0.09397303
62	0x3dc9ebc4	0.09859422
63	0xbd9e2099	-0.07721061
64	0x3d29cbdd	0.041454185
65	0x3d88f216	0.06686799
66	0xbd88a065	-0.06671218
67	0x00000000	0.0
68	0x00000000	0.0
69	0x00000000	0.0
70	0xbd75e50c	-0.06003289
71	0x3c24542f	0.010029837
72	0xbdb79b68	-0.08965188
73	0x00000000	0.0
74	0x3d4afe02	0.049558647
75	0x3d2e1e9f	0.04250967
76	0x3d8def1e	0.069303736
77	0xbb4af212	-0.003096704
78	0x3d53e91b	0.05173598
79	0x3ce26cfa	0.027639855
80	0xbdfd6a08	-0.123737395
81	0x3d8c778a	0.06858738
82	0xbd0c2173	-0.034211587
83	0x00000000	0.0
84	0xbdaa3398	-0.08310622
85	0x3dba71e6	0.09103756
86	0x00000000	0.0
87	0xbc6a44d7	-0.014298639
88	0x3cd6c8d5	0.026218811
89	0xbd371668	-0.044699103
90	0x3d9ed035	0.07754556
91	0xbc95b1d6	-0.018273275
92	0xbd96cf0d	-0.073637106
93	0x3db83072	0.08993615
94	0xbd6d74d5	-0.057972748
95	0x3db9fc10	0.0908128
96	0x3db76c1a	0.089561656
97	0xbdca1a31	-0.09868277
98	0x00000000	0.0
99	0x3cc6f30c	0.024285816
100	0x3d1fb6f0	0.038992822
101	0xbd8fc1cc	-0.07019386
102	0x3d45714e	0.04820376
103	0x3ca2ed94	0.019888677
104	0xbd9ccfc3	-0.07656815
105	0x3d8e2fc3	0.069427036
106	0x3cc127ea	0.023578603
107	0xbc88d033	-0.01670084
108	0x3c977e96	0.018492978
109	0x3da86b7f	0.08223628
110	0x3d60597c	0.05477284
111	0x3c4538d7	0.012037477
112	0x3d9959b4	0.07487813
113	0xbda0ae81	-0.07845784
114	0x00000000	0.0
115	0x3dbf9e73	0.09356394
116	0x3da4cc46	0.080467746
117	0xbd75e4d3	-0.060032677
118	0x3d6b61d4	0.057466343
119	0x3d41edf0	0.047346056
120	0x3c81cbb0	0.015844196
121	0x3d340a0c	0.043954894
122	0xbd639809	-0.055564914
123	0x3ced66c3	0.028979665
124	0xbdac0f2a	-0.0840133
125	0x3cc36aa6	0.023854565
126	0x3dfab773	0.122420214
127	0x00000000	0.0

functional_5_1/dense_11_1/Cast/ReadVariableOp:0 f4 [32, 1]
0	0x3b25ac83	0.0025279827
1	0xbe198639	-0.14992608
2	0x3db22143	0.086977504
3	0xbc1ca391	-0.009560482
4	0x3bc6f019	0.0060711023
5	0x3dc19580	0.09452343
6	0x3db8cede	0.09023832
7	0xbddfce30	-0.10927999
8	0x3ca2bffc	0.019866936
9	0x3cc81170	0.024422377
10	0x3c9bf89a	0.01903944
11	0xbd0b3f09	-0.033995662
12	0xbdaf1247	-0.08548408
13	0xbe16f28c	-0.14740962
14	0xbda323ec	-0.07965836
15	0x3d68f7b6	0.05687686
16	0x3de6c0ed	0.112672664
17	0x3d089016	0.033340536
18	0xbd01c569	-0.031682406
19	0x3db1c603	0.08680346
20	0x3de04512	0.10950674
21	0x3caf5d9a	0.021406937
22	0xbe10730e	-0.1410639
23	0xbcb95c45	-0.022627005
24	0x3ca389ee	0.019963231
25	0xbddd446a	-0.108040646
26	0xbacec455	-0.0015775064
27	0x3d09ae15	0.033613283
28	0xbc411d18	-0.011786722
29	0x3b4b674b	0.003103691
30	0xbcd59845	-0.026073584
31	0x3c963eb3	0.018340444

functional_5_1/dense_10_1/Cast/ReadVariableOp:0 f4 [64, 32]
0	0x3e417137	0.18890844
1	0xbe6a5f7a	-0.22887984
2	0x3e73918b	0.23785989
3	0xbe84d655	-0.25944772
4	0xbdeab345	-0.11459974
5	0xbd97cf1a	-0.07412548
6	0xbb22ae0a	-0.0024822974
7	0xbcc3fe10	-0.023924857
8	0x3e262533	0.16225128
9	0xbddf10b0	-0.10891855
10	0xbe58300a	-0.21112075
11	0xbebd96d4	-0.37029135
12	0xbe1aff93	-0.15136556
13	0x3c91a2e0	0.01777786
14	0xbd9a7b5f	-0.075430624
15	0xbe6b4e7b	-0.22979157
16	0xbe0cc319	-0.13746299
17	0xbe2d9fde	-0.16955516
18	0x3e68ea1b	0.22745554
19	0x3e4186ed	0.18899126
20	0xbdc4f71d	-0.096174456
21	0x3e55a35f	0.20863102
22	0x3e16158f	0.14656661
23	0x3dd20ecf	0.10256731
24	0x3d3f2ca6	0.04667344
25	0x3df38f89	0.118926115
26	0xbe896636	-0.26835793
27	0x3e8bd350	0.27309656
28	0xbd0f5870	-0.03499645
29	0xbe2cb583	-0.16866116
30	0xbe6e5cc8	-0.2327758
31	0xbe209b3c	-0.15684217
32	0x3cec0a4a	0.0288135
33	0xbd829e4c	-0.06377849
34	0xbe2f55a9	-0.1712252
35	0xbe0c7308	-0.13715756
36	0x3d034cc9	0.03205565
37	0x3e1bf1a1	0.15228893
38	0xbd744bdf	-0.05964267
39	0x3e49dfdb	0.197143
40	0xbe757d3d	-0.23973556
41	0xbc12c9a5	-0.008959209
42	0xbda0c46e	-0.07849966
43	0xbadd0130	-0.0016861316
44	0xbe4301c5	-0.19043644
45	0xbd69b31b	-0.057055574
46	0x3d2ea3b5	0.042636592
47	0xbdb92524	-0.09040287
48	0x3dd23715	0.10264412
49	0x3e24e817	0.1610416
50	0xbe62658f	-0.22109054
51	0xbdb00ae0	-0.08595824
52	0x3e6d6d84	0.23186308
53	0x3e5a259d	0.21303411
54	0xbd862c96	-0.06551473
55	0x3dc57f72	0.09643449
56	0xbe86d28c	-0.2633251
57	0x3e2cfd81	0.16893579
58	0x3d9a59ef	0.07536685
59	0xbe5d3575	-0.21602423
60	0xbe19ef4b	-0.1503269
61	0xbec7d6ba	-0.3903101
62	0x3e257495	0.16157754
63	0xbddf3e83	-0.10900595
64	0xbe816b70	-0.2527728
65	0x3e6714bb	0.22566502
66	0xbe1ad79d	-0.15121312
67	0xbd61c313	-0.055117678
68	0xbd0d3531	-0.034474555
69	0x3e92a7c4	0.2864362
70	0xbe67c41e	-0.22633407
71	0xbdd4aab9	-0.10384125
72	0x3e8271ba	0.2547739
73	0xbbabacf5	-0.005239124
74	0xbc32c591	-0.010911361
75	0x3e839d98	0.25706172
76	0xbd9e6673	-0.077343844
77	0xbd4a8de7	-0.049451735
78	0x3d889f4c	0.066710085
79	0xbe7766c2	-0.24160293
80	0x3dc88302	0.09790613
81	0xbe5bbf25	-0.21459635
82	0xbeaddfec	-0.339599
83	0x3d0d5517	0.034504976
84	0xbdd8709b	-0.10568353
85	0xbe04b034	-0.12957841
86	0xbccc519f	-0.024941264
87	0xbd1e6378	-0.03866908
88	0xbe04c211	-0.12964655
89	0x3e431047	0.19049178
90	0xbbe27695	-0.0069111087
91	0xbe251a48	-0.16123307
92	0xbe51875c	-0.20461792
93	0xbe0044ed	-0.12526293
94	0xbdbe0d72	-0.09279908
95	0xbd9e9c11	-0.07744611
96	0xbe33d657	-0.17562233
97	0x3e42015a	0.18945828
98	0xbe405047	-0.18780623
99	0xbc31ab0f	-0.010844006
100	0xbe4e1348	-0.20124543
101	0xbe4dab7c	-0.20084947
102	0xbdf7163c	-0.12064788
103	0xbd91cd95	-0.0711929
104	0xbe8d16ac	-0.2755636
105	0x3dd6fe80	0.10497761
106	0x3e1c1e57	0.15245949
107	0x3a319343	0.0006773958
108	0x3c96134f	0.018319754
109	0x3d9f5fb4	0.07781926
110	0xbd8e54c4	-0.069497615
111	0xbe0c61ea	-0.13709226
112	0xbe7af256	-0.24506506
113	0xbe0f3510	-0.13985085
114	0xbbb0c2b4	-0.005394304
115	0x3e2adf69	0.16686787
116	0xbe708993	-0.2348998
117	0xbdb044c5	-0.08606867
118	0xbe016501	-0.12636186
119	0xbe6017ee	-0.21884128
120	0xbd079427	-0.033100273
121	0x3e10287a	0.1407794
122	0x3e56e83c	0.20987028
123	0x3db1f431	0.08689154
124	0x3d1e0f77	0.038588967
125	0x3c442595	0.011971851
126	0xbe193741	-0.14962484
127	0x3e195db7	0.14977156
128	0x3e090153	0.13379411
129	0xbe0b9833	-0.13632278
130	0x3e612c77	0.21989618
131	0x3db79d40	0.0896554
132	0x3d8cdf0e	0.06878482
133	0x3dc01692	0.09379305
134	0xbdfb8c08	-0.12282568
135	0x3e95dc96	0.29269856
136	0x3e5da637	0.21645437
137	0x3e369166	0.17828903
138	0xbd7869b6	-0.06064769
139	0x3e2f3d50	0.17113233
140	0xbe1289d2	-0.14310387
141	0x3de23147	0.11044555
142	0xbc198236	-0.009369424
143	0xbc00ceee	-0.007861836
144	0x3e883ab5	0.2660729
145	0xbcdc3500	-0.026880741
146	0x3dda47eb	0.106582485
147	0x3bffe052	0.0078087235
148	0xbe5cc641	-0.21560003
149	0xbe12c343	-0.14332299
150	0xbe71784a	-0.23581043
151	0x3dd6535f	0.104651205
152	0x3e713b6e	0.23557827
153	0xbe312bd1	-0.17301871
154	0xbe127325	-0.14301737
155	0xbc9666f3	-0.018359637
156	0xbdd3e04f	-0.10345518
157	0xbe462934	-0.19351655
158	0xbe1b6993	-0.15176992
159	0xbd097230	-0.033556163
160	0x3e02e87c	0.12783998
161	0xbd9417ac	-0.072310776
162	0xbdae711d	-0.085176684
163	0xbcb3c836	-0.021946054
164	0xbe6c457e	-0.23073384
165	0xbe706947	-0.2347766
166	0x3ec87715	0.39153352
167	0x3e8841c1	0.26612666
168	0x3d98224a	0.07428415
169	0x3e947d62	0.2900191
170	0x3e2891e5	0.16461904
171	0x3dd6fbe1	0.10497261
172	0xbd7caafb	-0.061686497
173	0xbe1ab6b3	-0.15108757
174	0x3e2533a9	0.16132988
175	0xbce4b897	-0.02792005
176	0xbd854297	-0.06506842
177	0x3e3d3375	0.1847666
178	0xbe37b312	-0.17939404
179	0x3e147741	0.14498617
180	0x3e23b81f	0.15988205
181	0x3c4e2f2c	0.012584489
182	0xbe4ea31f	-0.20179413
183	0xbe868e89	-0.2628062
184	0x3cf5f8dc	0.030025892
185	0x3e536506	0.20644006
186	0x3deb794f	0.11497747
187	0xbe1e3bb7	-0.15452467
188	0xbe29e0d1	-0.16589667
189	0xbe3b2eb2	-0.18279532
190	0xbd309afb	-0.04311655
191	0xbe2cdeba	-0.16881838
192	0x3cdd601e	0.027023371
193	0xbdf5e382	-0.12006284
194	0x3dc9c216	0.09851472
195	0x3dbca647	0.092114024
196	0xbe762964	-0.24039227
197	0x3d6865ca	0.0567377
198	0xbcda8244	-0.026673444
199	0xbde25523	-0.11051395
200	0x3da4b0a1	0.08041502
201	0x3e643ee5	0.22289617
202	0x3e458555	0.19289143
203	0x3d7dde7e	0.061979763
204	0x3d370967	0.0446867
205	0x3eac3519	0.3363426
206	0xbe54fa15	-0.20798524
207	0xbeb619a4	-0.35566437
208	0xbe82c5b7	-0.2554147
209	0x3bdc858d	0.0067297877
210	0x3dca5b1d	0.0988066
211	0xbd9c9131	-0.076448806
212	0x3e9321b2	0.28736645
213	0xbeb69b99	-0.35665587
214	0x3cbd76d6	0.023127954
215	0x3e91096b	0.28327498
216	0xbe4f25f9	-0.20229329
217	0x3e07108a	0.13189903
218	0x3da1467b	0.07874771
219	0xbda32154	-0.07965341
220	0x3eaf3f0a	0.34227782
221	0xbe78dd77	-0.24303232
222	0x3da4f078	0.08053678
223	0x3e931f3e	0.28734773
224	0xbd9af434	-0.07566109
225	0x3d9d5406	0.07682042
226	0xbe646751	-0.22305037
227	0xbe149749	-0.14510836
228	0xbdc4ebb7	-0.096152715
229	0xbe59f489	-0.21284689
230	0xbe4712a8	-0.1944071
231	0x3e431d32	0.19054106
232	0xbe203996	-0.15646967
233	0x3e0b3b29	0.13596787
234	0xbde60040	-0.112305164
235	0xbdee8b7c	-0.11647698
236	0x3cbc2424	0.022966452
237	0x3e21dcb6	0.15806851
238	0x3d9f03e2	0.077644125
239	0x3e2c8cf9	0.16850652
240	0xbd8acf67	-0.0677784
241	0x3e8f5bf5	0.27999845
242	0xbde6e265	-0.1127365
243	0x3e6899b4	0.22714883
244	0xbe87bbf1	-0.26510575
245	0x3d5beeb8	0.053694457
246	0xbe632acb	-0.22184293
247	0x3e05735e	0.1303229
248	0x3df616ff	0.12016105
249	0x3d8a5d84	0.06756118
250	0xbda10152	-0.0786158
251	0x3ddc85dc	0.10767719
252	0xbc3b8998	-0.011446379
253	0xbe0d7d97	-0.1381744
254	0xbd3e0604	-0.046392456
255	0x3cd03c40	0.025419354

functional_5_1/dense_10_1/Add/ReadVariableOp:0 f4 [32]
0	0xbd4113da	-0.047138073
1	0xbd3a16e9	-0.045432005
2	0x3dccfa37	0.10008662
3	0xbd8fbb79	-0.070181794
4	0xbcd5a8d8	-0.026081488
5	0xbd9540c0	-0.07287741
6	0x3d49c7d2	0.04926283
7	0xbc3107cf	-0.010805084
8	0x3e2380cc	0.15967101
9	0x3d9d6679	0.07685561
10	0x3db0295f	0.08601641
11	0x3daa414b	0.08313235
12	0xbcffe3b3	-0.031236505
13	0xbc167a1f	-0.009184389
14	0x3d4e63ed	0.050388265
15	0xbd206a68	-0.039163977
16	0xbcf49c30	-0.029859632
17	0xbcd9ba90	-0.026578218
18	0x3e020aab	0.12699382
19	0xbdacc887	-0.08436685
20	0xbc08ddaf	-0.008353635
21	0x3ca68bd4	0.020330347
22	0xbdb036a8	-0.08604175
23	0xb91db26c	-0.00015039154
24	0x3ba9ad1b	0.0051781065
25	0xbcee28bb	-0.029072156
26	0x3d0a2f3e	0.03373646
27	0xbd163fee	-0.03668206
28	0xbbb604c3	-0.005554767
29	0x3d843ce8	0.064569294
30	0xbc482d4b	-0.01221783
31	0x3de8baa4	0.11363724

functional_5_1/batch_normalization_8_1/batchnorm/sub:0 f4 [32]
0	0xbec52398	-0.38503718
1	0xbeffd47e	-0.49966806
2	0xbe4a9bd5	-0.19786008
3	0xbe1aed65	-0.15129621
4	0xbe65e230	-0.22449565
5	0xbdaa19f8	-0.083057344
6	0xbe3be459	-0.18348826
7	0xbeee67d0	-0.46563578
8	0xbee73203	-0.45155343
9	0xbe000014	-0.1250003
10	0xbe7e54a4	-0.24836975
11	0xbf08c872	-0.53430855
12	0xbf09aac9	-0.5377622
13	0xbec128ec	-0.37726533
14	0xbef5938c	-0.47964132
15	0xbd9b732c	-0.07590327
16	0xbd0255c4	-0.031820074
17	0xbdedd414	-0.11612716
18	0xbf0d16fd	-0.551132
19	0xbdf94d20	-0.121729136
20	0xbe54f0cc	-0.20794982
21	0xbe82c9d6	-0.25544614
22	0xbeca5549	-0.39518192
23	0xbedf1b61	-0.43575576
24	0xbe67f70e	-0.22652838
25	0xbf161280	-0.5862198
26	0xbecac17a	-0.39600736
27	0xbe1c6269	-0.15271915
28	0xbe8595da	-0.2609089
29	0xbed2c77f	-0.41167828
30	0xbed1b16b	-0.40955672
31	0xbe8ba0fa	-0.27271253

functional_5_1/batch_normalization_8_1/batchnorm/mul:0 f4 [32]
0	0x3f774de2	0.96603215
1	0x3f29a3bc	0.66265464
2	0x3f27288b	0.6529624
3	0x3f4161a4	0.7553961
4	0x3f72c218	0.94827414
5	0x3f4b575c	0.79430175
6	0x3f4ee375	0.8081582
7	0x3f1237eb	0.57116574
8	0x3f5dbcac	0.86616015
9	0x3f82c64e	1.0216768
10	0x3f591507	0.8479771
11	0x3f613d10	0.879838
12	0x3f4e8a1c	0.8067949
13	0x3f35a1f1	0.7095023
14	0x3f1cb8d2	0.61219513
15	0x3f30613b	0.6889836
16	0x3f0a1907	0.5394444
17	0x3f3dfbcd	0.7421234
18	0x3f6788d0	0.90443134
19	0x3f3251d9	0.6965614
20	0x3f28af37	0.65892357
21	0x3f69da58	0.9134879
22	0x3f0ff407	0.5623173
23	0x3f75ca0b	0.9601142
24	0x3f59bfd9	0.8505836
25	0x3f53fd10	0.8280802
26	0x3f4b4389	0.79399925
27	0x3f579f2c	0.8422725
28	0x3f7ced4c	0.98799586
29	0x3f53f5ea	0.8279711
30	0x3f70d78e	0.9407891
31	0x3f669e32	0.90085137

functional_5_1/batch_normalization_7_1/batchnorm/sub:0 f4 [64]
0	0xbea1fcf8	-0.31638312
1	0xbf0e60d2	-0.55616486
2	0xbebd59db	-0.36982617
3	0xbeeed09b	-0.46643528
4	0xbedef460	-0.43545818
5	0xbea461d3	-0.32105884
6	0xbeb335b8	-0.35001922
7	0xbea70066	-0.3261749
8	0xbee7dcc1	-0.4528561
9	0xbe85ebe7	-0.26156542
10	0xbed08cdc	-0.40732467
11	0xbebdf89a	-0.3710373
12	0xbee273be	-0.4422893
13	0xbebc7bea	-0.3681329
14	0xbe3714a8	-0.17878973
15	0xbe90c427	-0.28274652
16	0xbee1bb20	-0.44088078
17	0xbef54837	-0.47906658
18	0xbee33160	-0.44373608
19	0xbefbe67a	-0.49199277
20	0xbeee6abb	-0.46565804
21	0xbe901b6f	-0.2814593
22	0xbe96c900	-0.29450226
23	0xbe45558a	-0.19270912
24	0xbe882d2e	-0.2659697
25	0xbed4283c	-0.41436946
26	0xbecbeb75	-0.39828077
27	0xbeab20d9	-0.33423498
28	0xbea3448f	-0.31888244
29	0xbeabb078	-0.33533072
30	0xbf02bb63	-0.5106718
31	0xbedb374f	-0.42815635
32	0xbe933914	-0.28754485
33	0xbe9204db	-0.2851933
34	0xbeacd3c0	-0.33755302
35	0xbeaeea78	-0.3416326
36	0xbee91600	-0.45524597
37	0xbee6fcab	-0.45114645
38	0xbecb41f2	-0.3969875
39	0xbeaad790	-0.33367586
40	0xbef151e0	-0.47132778
41	0xbef0132b	-0.46889624
42	0xbec86b6e	-0.39144462
43	0xbec5fae5	-0.3866798
44	0xbecf60a5	-0.4050342
45	0xbecfd3b9	-0.4059122
46	0xbead8bcc	-0.3389572
47	0xbe3e6c70	-0.18596053
48	0xbec44d2a	-0.38340122
49	0xbec3ffe2	-0.3828116
50	0xbe8bbf14	-0.2729422
51	0xbeb73d16	-0.35788792
52	0xbe94a1fa	-0.29029828
53	0xbee8d98e	-0.4547848
54	0xbe9f642c	-0.31131113
55	0xbe95a91b	-0.2923058
56	0xbea55a4d	-0.32295457
57	0xbed6ca44	-0.4195119
58	0xbed1c5ea	-0.4097131
59	0xbeb5680c	-0.35430944
60	0xbeaf8b4e	-0.3428597
61	0xbea14902	-0.31501013
62	0xbf127ec6	-0.5722469
63	0xbea091d5	-0.3136126

functional_5_1/batch_normalization_7_1/batchnorm/mul:0 f4 [64]
0	0x3f60dd89	0.87838036
1	0x3f780a6c	0.968909
2	0x3f3a9ad2	0.7289249
3	0x3f7a6327	0.97807544
4	0x3f883db0	1.0643826
5	0x3f839be4	1.0281949
6	0x3f82e118	1.0224943
7	0x3f8bc864	1.0920529
8	0x3f6086a8	0.8770547
9	0x3f558290	0.8340235
10	0x3f62f0bd	0.8864859
11	0x3f912d01	1.1341859
12	0x3f6cbfcd	0.92480165
13	0x3f880948	1.0627832
14	0x3f5d39d9	0.86416394
15	0x3f51148e	0.8167199
16	0x3f75fb25	0.9608634
17	0x3f79af63	0.97533244
18	0x3f71aa5a	0.9440056
19	0x3f6aa7c9	0.9166227
20	0x3f83791a	1.0271332
21	0x3f6b2683	0.9185564
22	0x3f4a1d00	0.789505
23	0x3f2e9606	0.6819767
24	0x3f71f3e5	0.9451278
25	0x3f675c7e	0.90375507
26	0x3f558767	0.8340973
27	0x3f62134c	0.88310695
28	0x3f642d59	0.89131695
29	0x3f7ec3cb	0.99517506
30	0x3f7620cd	0.961438
31	0x3f6964b8	0.9116931
32	0x3f91bd6f	1.1385936
33	0x3f5ee6e6	0.87071073
34	0x3f7a9ffa	0.97900355
35	0x3f845521	1.0338479
36	0x3f7c93ed	0.98663217
37	0x3f824390	1.0176868
38	0x3f483312	0.7820293
39	0x3f69e1f1	0.91360384
40	0x3f2d9ba7	0.6781563
41	0x3f99869a	1.1994202
42	0x3f49ace9	0.78779465
43	0x3f75577a	0.95836604
44	0x3f67208e	0.9028405
45	0x3f4e5f5c	0.80614257
46	0x3f95ee81	1.1713411
47	0x3f37d7b4	0.7181351
48	0x3f510559	0.81648785
49	0x3f8e6982	1.1125948
50	0x3f36a0ec	0.713393
51	0x3f886156	1.0654705
52	0x3f6b493a	0.9190861
53	0x3f8471d0	1.0347233
54	0x3f69e0dc	0.91358733
55	0x3f683dcd	0.907193
56	0x3f47633b	0.7788579
57	0x3f869c3e	1.0516431
58	0x3f681f43	0.906727
59	0x3f244011	0.6416026
60	0x3f41609e	0.7553805
61	0x3f560356	0.8359884
62	0x3f94a4fb	1.1612848
63	0x3f59d9c3	0.85097903

functional_5_1/batch_normalization_6_1/batchnorm/sub:0 f4 [128]
0	0xbcd8e6e1	-0.02647728
1	0xbdad3385	-0.08457092
2	0xbe8d6fe8	-0.2762444
3	0xbe3c7f58	-0.18407953
4	0xbeb0bcec	-0.34519136
5	0x3d1f3afb	0.038874608
6	0xbee9016b	-0.45508894
7	0xbeabc5b4	-0.33549273
8	0xbe18fa1c	-0.14939159
9	0xbe1bcb22	-0.15214208
10	0x3d54f152	0.051987953
11	0xbebaa288	-0.36452127
12	0xbe84522c	-0.25843942
13	0x3b8393e9	0.004015435
14	0x3d947013	0.07247939
15	0x3d7a13d4	0.061054066
16	0xbd30f358	-0.04320082
17	0xbdef8974	-0.11696139
18	0xbe1e4ff5	-0.15460189
19	0x3cc8a328	0.024491861
20	0x3ca590ec	0.020210706
21	0xbdd1f754	-0.10252252
22	0xbed85276	-0.42250413
23	0xbeb3687e	-0.3504066
24	0x3d02b4de	0.03191077
25	0xbec4aedf	-0.38414666
26	0xbd9fdea7	-0.078061394
27	0xbda668e0	-0.08125472
28	0xbe772c7a	-0.2413806
29	0xbd037b92	-0.032100268
30	0x3d73c18a	0.059510745
31	0xbe732dd6	-0.23747954
32	0xbc8ca4e1	-0.017168464
33	0xbe712921	-0.23550846
34	0x3bb3a04a	0.0054817544
35	0x3c44fa10	0.01202251
36	0x3d03ddee	0.03219407
37	0xbebf5c77	-0.37375233
38	0x3b7f9c95	0.0039003242
39	0xbe3305ad	-0.17482634
40	0xbe1520bc	-0.14563268
41	0xbe27d7b8	-0.16390884
42	0xbd0fe2b4	-0.03512831
43	0xbc1a4e7d	-0.009418127
44	0x3d06d6b5	0.032919604
45	0xbd706933	-0.058694076
46	0xbd3b95ea	-0.045797266
47	0xbeb2dde8	-0.34934926
48	0xbd72c76e	-0.059272222
49	0xbe89140c	-0.26773107
50	0xbe8f8cfc	-0.2803725
51	0x3d5a50de	0.053299777
52	0xbdc14bde	-0.09438299
53	0x3d2d1f0a	0.04226593
54	0xbe725ebe	-0.23668954
55	0xbe5fb257	-0.21845375
56	0xbe102ca8	-0.14079535
57	0xbd6efd50	-0.058347046
58	0xbdca57bc	-0.09880015
59	0xbd60c211	-0.054872576
60	0xbe2798d1	-0.16366889
61	0xbdc9c776	-0.09852497
62	0xbe0a5e97	-0.13512646
63	0x3bf47240	0.0074599087
64	0xbe481ce3	-0.1954227
65	0xbe846170	-0.2585559
66	0x3d482374	0.048861936
67	0x3dabbe86	0.08385949
68	0x3d57db3f	0.052699324
69	0x3a71e3d2	0.0009227368
70	0xbd5f968a	-0.054586925
71	0xbd94cba9	-0.072654076
72	0x3b8ed62d	0.004359028
73	0xbd43358c	-0.04765849
74	0xbe46dd58	-0.19420373
75	0xbe12318d	-0.14276715
76	0xbe921174	-0.2852894
77	0x3ddeb6d4	0.108747154
78	0xbef8f1ff	-0.48622128
79	0xbe9f91c7	-0.31165907
80	0x3d30133f	0.042987105
81	0xbe9577bb	-0.2919291
82	0xbc8feab2	-0.017567966
83	0x3bc8f8a9	0.006133158
84	0xbdf103f2	-0.11768331
85	0xbee40f8b	-0.44543108
86	0x3db3a3b4	0.08771458
87	0x3b4cc9da	0.0031248243
88	0xbc39a068	-0.011329748
89	0x3d22ea37	0.039774146
90	0xbeb58d95	-0.3545958
91	0xbe8bf15c	-0.2733258
92	0xbc0430da	-0.008068288
93	0xbee5d3af	-0.44888064
94	0xbce25ca6	-0.027632069
95	0xbef100ee	-0.47071022
96	0xbe92d0e7	-0.28675005
97	0x3d104f08	0.03523162
98	0x3d8f6b83	0.07002928
99	0x3c4805a7	0.012208379
100	0xbcc7ebdc	-0.024404459
101	0xbc25d173	-0.010120737
102	0xbea0f349	-0.31435612
103	0xbd9c2aa4	-0.076253206
104	0x3d9560a6	0.07293825
105	0xbe19d557	-0.15022789
106	0xbe2e0b30	-0.16996455
107	0x3c20a895	0.009805818
108	0xbeb6d95c	-0.35712707
109	0xbe371ed1	-0.1788285
110	0xbea3357e	-0.3187675
111	0xbe6e2f32	-0.23260191
112	0xbe35cab4	-0.17753106
113	0x3d85d6af	0.06535088
114	0xbb7b1bcd	-0.003831613
115	0xbeab6cdd	-0.33481494
116	0xbe888fa4	-0.2667209
117	0xbc3471ba	-0.011013443
118	0xbe5f3db7	-0.21800886
119	0xbe84b98d	-0.25922814
120	0xbf32bacd	-0.69816285
121	0xbe811fec	-0.25219667
122	0xbd798dbf	-0.060926195
123	0x3d59f34c	0.05321054
124	0x3d38e9cb	0.045144837
125	0xbe2823a6	-0.16419849
126	0xbe88358a	-0.26603347
127	0xbc02f6ce	-0.007993413

functional_5_1/batch_normalization_6_1/batchnorm/mul:0 f4 [128]
0	0x3fb3a6b4	1.4035249
1	0x3fc1570e	1.5104692
2	0x3fb1723c	1.3862987
3	0x3fb53b36	1.4158695
4	0x3fbd3c88	1.4784098
5	0x3fbb8428	1.4649706
6	0x3fd3a0f5	1.6533495
7	0x3fbd3b5e	1.4783742
8	0x3fbe3cc2	1.4862292
9	0x3fc008dd	1.5002705
10	0x3fbf1ffb	1.4931635
11	0x3fc5ae78	1.5443869
12	0x3fbf9e87	1.4970254
13	0x3fbf1ffb	1.4931635
14	0x3fb1fb13	1.3904747
15	0x3fd0b0a2	1.6303904
16	0x3fbf1ffb	1.4931635
17	0x3f97c1f2	1.1856062
18	0x3fae6168	1.3623476
19	0x3fc64c3f	1.5492018
20	0x3fb3a6fd	1.4035336
21	0x3fc52bca	1.5403988
22	0x3fd0c3a3	1.6309704
23	0x3fb6a082	1.4267733
24	0x3fbad01a	1.4594758
25	0x3fc2e31d	1.522556
26	0x3fd27c38	1.6444159
27	0x3fda80b4	1.7070527
28	0x3fa027ef	1.2512187
29	0x3fb3c730	1.4045162
30	0x3fb7f532	1.4371703
31	0x3fb55e7a	1.4169457
32	0x3fb6dcf6	1.4286182
33	0x3fc78782	1.5588229
34	0x3fbf1ffb	1.4931635
35	0x3faf79de	1.3709066
36	0x3fa92d41	1.3216935
37	0x3fbbf491	1.4684011
38	0x3fbf1ffb	1.4931635
39	0x3fd0c4fa	1.6310112
40	0x3fb35e72	1.4013197
41	0x3fceb2e1	1.614834
42	0x3fad85f3	1.3556503
43	0x3fbf1ffb	1.4931635
44	0x3fd0cdc3	1.6312793
45	0x3fc488e6	1.5354278
46	0x3fbf1ffb	1.4931635
47	0x3fb302e9	1.3985263
48	0x3fbffd05	1.499909
49	0x3fa217dc	1.2663531
50	0x3fbaabfe	1.4583738
51	0x3fcb9dc1	1.5907518
52	0x3fb3a707	1.4035348
53	0x3fc9c450	1.5763035
54	0x3fb25536	1.3932254
55	0x3fbae1d2	1.4600165
56	0x3fbe3ae6	1.4861724
57	0x3fb6169c	1.422565
58	0x3fbfa0c8	1.4970942
59	0x3fa6ed26	1.3041122
60	0x3fda75a4	1.7067151
61	0x3fb5b6ea	1.4196446
62	0x3fcc0ac5	1.5940787
63	0x3fbc5eee	1.471647
64	0x3fb9cdb6	1.4515903
65	0x3fa77b9d	1.3084599
66	0x3fc4b35f	1.536724
67	0x3fbf1ffb	1.4931635
68	0x3fbf1ffb	1.4931635
69	0x3fbf1ffb	1.4931635
70	0x3fb3ac7c	1.4037013
71	0x3fadec81	1.35878
72	0x3fbadc47	1.4598473
73	0x3fbf1ffb	1.4931635
74	0x3fd9a9b3	1.7004913
75	0x3fc1dc49	1.5145351
76	0x3fc99ae1	1.575039
77	0x3fd34362	1.6504939
78	0x3fc54d2b	1.5414175
79	0x3fd00f5d	1.6254689
80	0x3fb56ec6	1.417443
81	0x3fb782a9	1.4336749
82	0x3fb64823	1.4240764
83	0x3fbf1ffb	1.4931635
84	0x3fa56bcf	1.2923526
85	0x3fbe5b82	1.4871676
86	0x3fbf1ffb	1.4931635
87	0x3fc46379	1.5342857
88	0x3fb35c26	1.4012496
89	0x3faca020	1.3486366
90	0x3fb2da59	1.3972884
91	0x3fa3c4a1	1.2794381
92	0x3fb9b314	1.4507775
93	0x3fb5c34c	1.4200225
94	0x3fc401c1	1.5313035
95	0x3fa98d0a	1.3246167
96	0x3fbf0741	1.4924089
97	0x3fac419a	1.345752
98	0x3fbf1ffb	1.4931635
99	0x3fae58a3	1.36208
100	0x3fce8bdc	1.6136432
101	0x3fb88d7f	1.4418181
102	0x3fb4c5df	1.4122885
103	0x3fdb9d22	1.7157328
104	0x3fc5a30b	1.5440382
105	0x3fc30231	1.5235044
106	0x3fc7a282	1.5596468
107	0x3fbb0ad5	1.4612681
108	0x3fc8f7bb	1.5700601
109	0x3fc3c4a9	1.5294391
110	0x3fcbce60	1.5922356
111	0x3fba8abc	1.4573588
112	0x3fc45e01	1.5341188
113	0x3fb0a5a2	1.3800547
114	0x3fbf1ffb	1.4931635
115	0x3fbfac26	1.497441
116	0x3fa79b1d	1.3094212
117	0x3fb3a760	1.4035454
118	0x3fb60f76	1.4223468
119	0x3fc8eaf2	1.56967
120	0x3fc51a7d	1.5398709
121	0x3fc85fe2	1.5654261
122	0x3fb48162	1.4101985
123	0x3fcbda04	1.5925908
124	0x3fb1ecf8	1.3900442
125	0x3fb786eb	1.4338049
126	0x3fcc24d0	1.5948734
127	0x3fbf1ffb	1.4931635
