models/Pomurska/cars/Pomurska_cars_model.onnx (onnx, 60689 bytes, 13 tensors)

functional_11_1/dense_23_1/Cast/ReadVariableOp:0 f4 [32, 1]
000000 3e 87 87 3d 3b 4c f8 3d d6 89 09 3e 20 1c 02 bd
       0.06617592 0.12123915 0.13431486 -0.031765103
000010 71 2f 16 be 3c f8 8d bc 94 8c 71 bc 75 56 4a bd
       -0.14666535 -0.017330281 -0.014742989 -0.049398858
000020 33 16 d2 bc 1a cf c3 3c 43 e9 b6 bd 6d a3 cb 3c
       -0.025645351 0.023902465 -0.0893121 0.0248582
000030 13 e5 0e bd 14 63 f6 3a f8 4e 8b bd ba 00 4c 3d
       -0.03488643 0.0018797838 -0.068021715 0.04980538
000040 c5 f6 37 3e 74 26 b3 bc ab ec 2b bc 69 da 67 3d
       0.17965229 -0.021868922 -0.010493438 0.056604777
000050 a9 ca a6 3d c1 bf 21 be 34 4d 41 3e aa fc 1d 3d
       0.08144123 -0.15795805 0.18877107 0.038571037
000060 60 d1 f1 bd 3b 96 bd bc c0 16 19 bd 59 e5 0d bd
       -0.11807513 -0.023142925 -0.03737521 -0.03464255
000070 0c cc eb bd 7a 65 18 3e 0b 87 2d 3d 11 a1 f6 bc
       -0.11513528 0.1488246 0.042365115 -0.0301061

functional_11_1/dense_22_1/Cast/ReadVariableOp:0 f4 [64, 32]
000000 5b bc 21 3d e9 23 a6 bd fd 68 03 3c 69 5c d8 3d
       0.03948627 -0.08112318 0.008020637 0.10564501
000010 f8 93 f1 bd 6a d9 12 3e 30 c9 51 3e 4c 3a f4 3c
       -0.11795801 0.1434075 0.20486903 0.029812954
000020 52 9c 6a 3a 6a d5 ff bd 15 85 88 3e 77 db 38 be
       0.0008949685 -0.124918774 0.26664034 -0.18052469
000030 76 a7 d2 bd ac b1 da bd 34 31 81 3e ea ee 47 3c
       -0.10285847 -0.106784195 0.25232852 0.012202958
000040 42 dd d8 bd 19 de 71 3d 11 8e 54 be 2a 13 30 3d
       -0.105890766 0.0590497 -0.20757319 0.042987026
000050 24 8e 81 bd 64 9c aa be 99 4b 33 be 00 7c c1 bb
       -0.06325939 -0.33322442 -0.17509307 -0.0059046745
000060 17 6a a9 3d 81 23 ec bb 43 cf 74 3e d3 95 23 3d
       0.08272188 -0.007206381 0.23907189 0.039937805
000070 f2 24 20 be b4 4e 70 3e f6 a5 3f bd 51 5f 72 be
       -0.15639094 0.23467523 -0.046789132 -0.23669173
000080 b7 78 47 3e f7 06 b2 bd be 62 10 3d 29 24 d8 bd
       0.19479643 -0.08692735 0.035250418 -0.10553772
000090 1b 13 4e be 2b 4d f5 3d 30 60 38 be 98 df 71 be
       -0.20124476 0.11977609 -0.18005443 -0.2362045
0000a0 94 59 1a bd e8 02 05 3e 27 0d b7 3c b0 13 ab be
       -0.037683085 0.1298939 0.022345139 -0.33413458
0000b0 69 4c 6a 3e 8e 69 a2 3d 9e 0c b3 3c 0b 57 14 3e
       0.2288071 0.07930289 0.021856602 0.1448633
0000c0 cc 6d c5 3d 01 b6 80 be cb 1f 83 be 29 14 92 3e
       0.09640083 -0.25138858 -0.25610194 0.28531006
0000d0 2f b8 d8 bd 2d ce b3 3d 26 4f 72 be 76 70 3c be
       -0.10582005 0.08779559 -0.23663005 -0.18402275
0000e0 5e 9b 43 bd 8d 4b 95 3e ae 27 30 bd fe 5e 0f be
       -0.04775559 0.29159203 -0.04300659 -0.1400108
0000f0 61 ce 97 3d c9 a3 d4 3d 5e 88 c0 3d c8 1b 4e bd
       0.074124105 0.10382802 0.0940101 -0.050319463
000100 b0 e9 39 3e c6 b0 ba bd 3b 1f 18 be ea 5e 15 be
       0.18155551 -0.09115748 -0.14855663 -0.14586988
000110 5e f9 bd 3d 8b dc 1f 3e ee 17 7b be f6 89 04 3c
       0.09276079 0.15611474 -0.24520847 0.008089533
000120 28 4e 9d 3e 4e 5b 80 3c bf 3c 62 bc 75 95 df 3c
       0.3072369 0.015668537 -0.013808428 0.027292946
000130 83 cb c1 3b 5f 01 15 3e 78 ff 0e 3e c2 1c b8 bd
       0.005914153 0.14551304 0.13964641 -0.0898986
000140 b6 37 0b be d9 9c 66 bc a1 4c ee 3d 55 7b 3e 3e
       -0.13595471 -0.014075481 0.116357096 0.18601735
000150 51 52 30 3e 73 7f 74 3e c2 c3 9a bd 75 ea d9 bc
       0.17218901 0.23876743 -0.07556869 -0.026601056
000160 d7 c1 03 3e ad 9c ae be b5 17 07 3e e4 bb 76 bd
       0.12866913 -0.3410391 0.13192637 -0.06023778
000170 37 a0 3a bd 99 c2 7a 3e 30 88 0b be 2d 3d 6a 3d
       -0.04556295 0.24488296 -0.1362617 0.057187248
000180 60 8b eb 3c 5b b7 e9 3d 30 0b 55 3e 18 d6 4b 3e
       0.028752983 0.114119254 0.20805049 0.19905889
000190 79 01 15 3e 0f 86 1e be 0d d1 ac 3e 2c e7 ca b8
       0.14551343 -0.15480827 0.33753243 -9.67517e-05
0001a0 10 b8 fb 3c 06 63 c4 bd 7d 10 76 3d f4 63 03 be
       0.030727416 -0.095892 0.06007432 -0.12831098
0001b0 e4 c0 90 bd a3 6e 1b be ef dc e5 3d 59 99 8c be
       -0.07068041 -0.15178923 0.1122378 -0.27460745
0001c0 93 43 1f be 86 56 56 bd b8 9e 93 be 3d de a3 bc
       -0.15553121 -0.05232861 -0.2883203 -0.020003432
0001d0 04 ba 09 3e 95 24 f7 bd f3 8c 5f 3e ad d8 27 3e
       0.13449866 -0.12067524 0.21831112 0.16391249
0001e0 91 ab b2 be b3 ea 35 be e5 ef 17 be 58 4a 78 3e
       -0.3489652 -0.17765312 -0.14837606 0.2424711
0001f0 e3 6c a4 bc 9d 16 22 be dd 8d 39 bd 58 91 4d bd
       -0.020071452 -0.15828939 -0.045301307 -0.05018744
000200 8d 1d 86 3e f5 09 80 3e 14 09 a4 bc 07 29 02 be
       0.2619442 0.25007597 -0.02002386 -0.12710963
000210 dc a7 91 3e 7d 93 db bd cc 35 8e bd f6 ea e6 3d
       0.2844838 -0.107214905 -0.06943855 0.11275284
000220 87 a7 1b be b6 00 48 bd 59 c4 82 bb be 2a ba bc
       -0.15200625 -0.048828803 -0.0039906916 -0.02272546
000230 01 d4 6f 3d 46 8b 18 3e 5c 9c 53 bd c2 54 7d 3e
       0.058551792 0.14896879 -0.051662788 0.24739364
000240 39 b8 06 be b1 84 d1 bd 19 11 0d 3c 97 0b de 3d
       -0.13156213 -0.10230387 0.008610033 0.10842054
000250 6a fe 8b 39 86 04 15 3e 5b 53 3a 3d 50 f0 10 be
       0.000267017 0.14552507 0.04548965 -0.14154172
000260 10 76 bc bd a5 c1 fc 3b fc 3c 2d be db de f5 3d
       -0.09202206 0.007713514 -0.16917795 0.12005397
000270 0c d0 91 be 65 33 97 bd 58 aa a8 bd 33 2d 62 3e
       -0.2847904 -0.073828496 -0.082356155 0.22087555
000280 f5 c3 a2 be a0 0f d5 3d 2c 18 c2 3d 89 b1 63 3e
       -0.31790128 0.10403371 0.09477267 0.22235693
000290 72 b1 36 be a6 56 22 be 50 13 89 3c fc 02 c4 3d
       -0.17841128 -0.15853366 0.016732842 0.09570882
0002a0 fe f5 22 3d 0a 10 6a 3e bb 13 51 bd 5c 60 ed bd
       0.039785378 0.22857681 -0.051044207 -0.11590645
0002b0 79 0c a5 3d 72 0d 85 3e 26 4b eb 3d 77 29 e7 bd
       0.080590196 0.2598682 0.11488943 -0.11287206
0002c0 bc 01 07 be 96 1d 78 3d d7 56 a5 be 6a 11 92 3d
       -0.13184255 0.06057509 -0.32292816 0.07132228
0002d0 84 da e6 bd 93 62 fb bd 6b 58 5f 3d 08 01 52 bd
       -0.11272147 -0.12274661 0.05452768 -0.051270515
0002e0 d4 51 a7 3b 74 8e 46 3e 0f 0f 97 be 49 a4 2b bc
       0.00510619 0.19390279 -0.29503676 -0.01047618
0002f0 73 8a 11 3c aa 49 9b 3e f6 b6 6d 3e 02 ff 73 3c
       0.0088831065 0.3032964 0.23214325 0.014892342
000300 5a 94 1b be e0 52 ff 3d ae 67 68 3e 08 2e 92 be
       -0.1519331 0.12466979 0.226958 -0.28550744
000310 16 75 06 be 25 1c d7 3d 8f bc 1a be d3 6d 66 3e
       -0.13130602 0.10503415 -0.15110992 0.22502832
000320 14 3b 3b be 66 ad 4a 3b 2a 57 9b bd 5c f6 37 bd
       -0.18284255 0.0030926107 -0.075849846 -0.04491268
000330 3e 91 6d 3d 7e 6e 72 bd 77 d6 07 bd 8f cd 76 3e
       0.057999842 -0.059187405 -0.033163514 0.24101852
000340 47 29 fb bd 27 f0 86 bd b9 a8 83 3c 86 08 dd bd
       -0.122637324 -0.06588774 0.016071664 -0.10792641
000350 9f 93 04 be 45 4a 1d 3e c5 c2 00 3e 86 6a 6a 3d
       -0.12946938 0.15360363 0.12574299 0.057230495
000360 ec cd 2d 3e bc f4 24 bd 9b 36 0d be 3b fb 8d 3c
       0.16973084 -0.04027246 -0.13790362 0.01733171
000370 cf f7 4d be 54 5a 6a be 43 d3 bf 3d df 14 b9 be
       -0.20114063 -0.2288602 0.09366467 -0.36148736
000380 4b 03 ce 3d ee 38 63 be dc 7d d3 bd 30 b9 9b be
       0.10059222 -0.22189686 -0.1032674 -0.30414724
000390 61 4c b1 3c 85 81 52 be f5 a4 02 3e 6a 19 8c bd
       0.021642866 -0.2055722 0.12758239 -0.06840785
0003a0 ba 60 92 3d 8a 33 48 3e 6b 5a f0 ba 87 31 72 3d
       0.071473554 0.1955091 -0.0018337494 0.059129264
0003b0 46 e3 40 3e ae 1a a8 3e 75 3f a1 be 17 9e 7b 3d
       0.18836698 0.32832855 -0.31493726 0.061430063
0003c0 a8 b5 ff bc 2f cf 1e be af c6 44 3e b9 4b 32 3e
       -0.03121455 -0.15508722 0.19216417 0.17411698
0003d0 26 81 15 3c 24 42 43 bc 88 6c eb bd 79 a9 2b 3b
       0.00912503 -0.011917625 -0.1149531 0.0026193543
0003e0 ba 12 03 3d 06 4e 1d be df f3 e3 bd d7 01 71 3e
       0.03200028 -0.15361795 -0.11130499 0.23535858
0003f0 28 43 20 3e 22 f5 a2 3c 62 31 2b 3e 74 cc 5a be
       0.15650618 0.019892279 0.16718057 -0.21367055

functional_11_1/dense_22_1/Add/ReadVariableOp:0 f4 [32]
000000 5b de 12 3e a0 3d ad bc 26 a0 fa 3d 61 1d 07 bd
       0.14342634 -0.02114755 0.12237577 -0.032987002
000010 9a 81 08 3d e6 6f d4 bc 73 ab a8 3d 9d 3e 5b 3d
       0.033326723 -0.025932264 0.08235826 0.05352651
000020 3f ae c4 bd cc 1d 93 bd 4b f0 92 3d 9f 63 12 bd
       -0.09603547 -0.07183418 0.071747385 -0.035739537
000030 02 83 91 3a 6e 57 3c bd 92 d0 8c 3c ff 5d e5 bd
       0.0011101665 -0.045981817 0.017189298 -0.11199569
000040 7a 05 a1 bd 24 7c 12 be 6c e0 13 3e ae 2a bf bb
       -0.07862373 -0.14305168 0.14441079 -0.0058339452
000050 a6 aa db 3d 43 9c 17 3e b7 f0 8f 3d aa 09 c9 3d
       0.10725908 0.14805703 0.070283346 0.098162964
000060 ed 47 0a bd 0e b9 8a bd 5e 21 88 3b 3d 7b e8 3d
       -0.03376 -0.06773578 0.0041543683 0.11351631
000070 f1 22 8d 3d 1c 3d 6a 3c ac d0 ec ba f1 f6 80 3d
       0.0689143 0.014296796 -0.001806756 0.062971

functional_11_1/dense_21_1/Cast/ReadVariableOp:0 f4 [128, 64]
000000 5d c3 eb bc b2 0a df bc 7a a6 9e 3c 36 b6 86 be
       -0.02877968 -0.02722678 0.019366492 -0.2631089
000010 39 16 a8 bd 55 29 56 3c 62 b5 f0 bd ce 61 9c 3d
       -0.08207364 0.013071378 -0.11753346 0.07635842
000020 2d b5 69 3e a0 36 00 3d c2 34 e3 3d 61 03 ca bd
       0.2282302 0.031302094 0.11094047 -0.09863926
000030 63 83 96 bd 50 95 5d bd 9c c8 73 bc 5a be 2a be
       -0.07349279 -0.054097474 -0.014879372 -0.16674176
000040 bb f2 7f 3e c5 86 74 bb 2b 52 09 3d 29 0a b2 bd
       0.24994938 -0.0037311774 0.033525627 -0.08693344
000050 88 87 63 bd 34 99 32 3c c1 5c 1d 39 40 73 81 3e
       -0.055549175 0.010900784 0.0001500724 0.2528324
000060 58 08 03 be b0 a4 17 3e 3e ab c8 3d a1 fa 1b be
       -0.12796152 0.14808917 0.09798287 -0.15232326
000070 02 31 d9 bd 26 81 3a 3b a4 a4 f9 3d 19 49 98 3d
       -0.106050506 0.0028458326 0.12189606 0.07435817
000080 ad 4a 58 3c d8 46 d3 3d 89 19 77 bd 60 86 1d be
       0.013201398 0.10316247 -0.060327087 -0.15383291
000090 b1 b0 08 3d ac 99 bf 3c a1 39 76 bd 05 85 0d 3e
       0.03337163 0.023388706 -0.060113553 0.13820274
0000a0 f0 5a dc bd a2 60 4f 3c c4 64 97 3d 71 1c 15 bd
       -0.107595325 0.012657316 0.073922664 -0.036404077
0000b0 fd 62 51 3e 8e 20 96 3c a8 9e 27 be 7b cf 9d be
       0.20447917 0.01832607 -0.16369116 -0.30822358
0000c0 5f c9 26 3e bf 66 39 be d5 3f a7 bd 63 b5 00 bd
       0.16287754 -0.18105601 -0.08166472 -0.031422984
0000d0 bf f6 97 bc 55 17 a9 3d cc 32 71 be 3e e5 8e bd
       -0.018550275 0.08256403 -0.23554534 -0.06977318
0000e0 1f a3 b0 3b 71 74 38 3e c8 ea 32 be ce 18 d9 3c
       0.0053905393 0.18013169 -0.17472374 0.026501086
0000f0 18 c8 3f 3e 31 e2 55 ba 57 ae 12 3c 88 9d df 3d
       0.18728673 -0.00081590103 0.008952699 0.109187186
000100 ab 66 62 be 0b 1a 1f 3d 74 94 3c be b6 39 8d 3e
       -0.22109477 0.038843196 -0.18416005 0.27583092
000110 b5 ed 57 3e eb 44 a0 bd be b8 fa bd 65 cc f6 3d
       0.21086772 -0.07825645 -0.12242268 0.12050704
000120 38 3f ce bc 64 71 c2 bc da 1a 11 be 85 f9 15 be
       -0.02517663 -0.02373571 -0.141704 -0.14645965
000130 a2 3b 04 3e 42 fc 8f 3e fc 08 8e 3e f4 d8 9c b8
       0.12913373 0.28122145 0.2774123 -7.47907e-05
000140 0c 83 d8 bd 63 e7 27 bd 72 9c a3 bd 32 de fd bd
       -0.1057187 -0.040992152 -0.07988824 -0.12395896
000150 14 7e 3a bd 34 2e a7 bc bd cd d5 bd 28 f6 33 3e
       -0.045530394 -0.020407774 -0.10439632 0.1757437
000160 0c 94 03 3e 6d 86 83 bc 20 68 d3 3d 8f 4a 75 bd
       0.12849444 -0.01605531 0.10322595 -0.059885558
000170 c2 bd 84 bc e1 84 07 be c7 c3 90 3d 4a 3f 58 be
       -0.016203765 -0.13234283 0.070685916 -0.21117893
000180 5e b5 5e 3d ca f5 58 3e d8 c8 43 3e 21 9d 14 be
       0.054372184 0.21187511 0.19119585 -0.14513065
000190 63 c6 a2 bb 8b 98 62 3e 7b b4 be 3d e0 a7 0a be
       -0.004967497 0.22128503 0.09311768 -0.13540602
0001a0 fd 44 ab bd fb 02 71 3e 9a 76 dc bd cc 9c 5e be
       -0.08362768 0.23536293 -0.10764809 -0.21739501
0001b0 5e d3 43 bc 46 f5 5f be bb 93 e6 3d 5c eb 36 3d
       -0.011952249 -0.21870908 0.11258646 0.04465805
0001c0 96 0f 95 3d cf e7 fa bd 03 4e c5 bc 32 fa ec 3c
       0.072783634 -0.12251245 -0.02408505 0.028927896
0001d0 6f da 76 3d 72 b9 8e 3d 37 9e a7 3d e1 2a 8a 3e
       0.06026691 0.06968965 0.08184474 0.2698584
0001e0 d9 58 18 be ca 71 f2 bd 09 07 6f 3e ed 22 bb 3d
       -0.14877643 -0.1183811 0.23342527 0.09137521
0001f0 27 ac c9 3d 28 26 ab 3d e1 45 5c 3e 37 da c0 3d
       0.098472886 0.08356887 0.21511032 0.09416621
000200 77 a4 9e 3d 2e d7 f7 3c 89 c1 08 bd 2a bd 17 3e
       0.07746213 0.030253973 -0.033387695 0.14818254
000210 a6 8d 03 3d 64 25 b1 bd 87 71 00 bd 92 0c e9 3d
       0.03211751 -0.0864971 -0.031358268 0.11379351
000220 21 10 90 3d 1e 6c 12 3d e2 e7 6f 3c 34 99 1d be
       0.07034326 0.03574764 0.0146426875 -0.15390474
000230 9a 89 04 3e bc c6 dd 3d 22 41 23 3d b1 2e cc 3d
       0.12943116 0.10828921 0.039857037 0.09969843
000240 d9 0f bf 3d 21 9a 94 bd 1d 1d 95 3d 8b e9 8a 3d
       0.093291946 -0.0725596 0.072809435 0.06782826
000250 2e dc 0c be e8 06 56 be 5d a7 30 bd 1a 72 45 3e
       -0.13755867 -0.20901072 -0.04312836 0.19281808
000260 4d a8 28 be 94 a1 3f 3d dc e3 81 bd 39 57 e2 bd
       -0.16470452 0.046784952 -0.06342289 -0.11051793
000270 0d 18 08 bc 05 a8 29 3d 5c 42 5d bc a4 10 78 bc
       -0.008306515 0.04142 -0.013504591 -0.015140686
000280 25 bf 65 bd 83 a9 d3 3c 1b c9 f9 bd 1c d1 05 be
       -0.056090493 0.025837665 -0.12196561 -0.1306805
000290 af 03 c5 bd 1b aa 60 3c be 53 1e 3e b2 52 89 be
       -0.09619843 0.013712431 0.15461633 -0.26820904
0002a0 00 81 86 be 6d ad bb 3c cd 15 09 be f6 59 52 3d
       -0.26270294 0.022909844 -0.13387223 0.051355325
0002b0 3d b1 44 3e c3 57 0f 3e 3d dc 07 3c 57 2f e4 bd
       0.19208236 0.13998322 0.008292255 -0.11141842
0002c0 3d 9f 33 be ba 1d 07 bd bf 4c 93 bb 01 f3 fb bd
       -0.17541213 -0.032987334 -0.004495233 -0.12302209
0002d0 fd c5 d6 bd 68 0b ee bd 5a 62 95 3d 28 eb 92 3d
       -0.10486982 -0.11623269 0.0729415 0.07173759
0002e0 5b a0 41 3d 77 b1 84 3c a1 0d 95 bd 1a ba 3e be
       0.047272068 0.016197903 -0.0727799 -0.1862568
0002f0 f9 d4 47 3d df 6e e3 bd 79 e8 05 bd a2 eb 8d be
       0.04878709 -0.11105131 -0.032692406 -0.27718836
000300 e7 2f 42 be f9 69 14 be da d4 0b be d3 81 35 3e
       -0.18963586 -0.1449355 -0.13655415 0.17725305
000310 78 29 de 3d 1c aa eb 3a 0d 31 88 3e f5 10 07 ba
       0.10847753 0.0017979774 0.26599923 -0.0005152368
000320 2e 73 eb bd 53 25 82 bb 07 53 73 3d f5 f1 5f 3d
       -0.11496578 -0.0039717345 0.059405353 0.054674108
000330 46 60 84 3d 8e 09 6e be b7 de 28 bd fe a9 9d bd
       0.06463675 -0.23245832 -0.041228022 -0.07698439
000340 ef 9f ab bd 6e 22 6c 3c 40 5a c1 3d b8 84 fe bb
       -0.08380114 0.014412506 0.09441042 -0.007767286
000350 af 88 51 bc 5d 78 0c be ed ef e3 3d 5b f0 80 3d
       -0.012788936 -0.1371779 0.111297466 0.06295844
000360 a4 3b 06 3e c1 12 f7 3d 2a 17 4c be a0 f2 b6 3a
       0.13108689 0.12064124 -0.19930711 0.0013957806
000370 b9 9b 5b be 78 de 8c bc 5f f7 e2 bd e5 c2 31 be
       -0.21446122 -0.017195925 -0.110823385 -0.17359503
000380 50 a1 f4 bd 93 23 0d 3d ad f2 52 be 9d 26 3f be
       -0.119448304 0.034457754 -0.20600386 -0.18667074
000390 3e fe 8d be e0 03 23 be 45 55 c0 bd db b8 55 bc
       -0.27733034 -0.15919447 -0.09391264 -0.013044561
0003a0 26 fa 19 be 39 3b b3 bd ed 5c 93 3e d4 ad 04 3e
       -0.1503683 -0.0875153 0.28781834 0.12956935
0003b0 4f 33 35 be ae 1b db bd 0d 89 63 3b 5c d0 b5 3c
       -0.17695354 -0.10698639 0.003471914 0.02219408
0003c0 63 e4 56 be 91 5a cb bc 1f 93 54 3e 2a bd 5a bd
       -0.2098556 -0.024823459 0.20759247 -0.053403057
0003d0 03 8f 34 3c bf 01 88 3d 9f 79 76 3e 50 44 9f 3c
       0.011020425 0.06640958 0.24069832 0.019441754
0003e0 5d 77 2a 3e aa d1 80 bd 60 81 32 3d 6a fe 0b be
       0.16647096 -0.0628999 0.043580413 -0.1367127
0003f0 c7 90 2b be 4c de 49 3c 71 04 ac 3d c3 44 0d be
       -0.16754447 0.012321066 0.08399285 -0.13795762

functional_11_1/dense_21_1/Add/ReadVariableOp:0 f4 [64]
000000 45 e0 ce 3d 58 26 89 bc b0 87 b0 bd 90 ae 54 bd
       0.1010137 -0.016741917 -0.0861963 -0.05192429
000010 e7 9c 09 3d da f2 f2 bc fa 74 84 3d 9e 36 65 bd
       0.0335969 -0.029656816 0.06467624 -0.05596029
000020 ef 99 f2 bc dc ee 51 bd 8f 2c 1b be d6 58 cf bc
       -0.029614417 -0.051253185 -0.15153717 -0.025310915
000030 b8 1e 27 3c 91 c6 f4 3d f4 33 15 be d8 20 45 bc
       0.010200195 0.11951936 -0.145706 -0.012031756
000040 9f 48 93 bd d1 b8 21 3d 58 2a d4 bd 5d 9e 04 3d
       -0.07191586 0.039482895 -0.10359639 0.03237759
000050 f6 58 28 be 1a 24 b2 bd 7d 8c 8e 3d 8d 3d 52 bd
       -0.16440186 -0.08698292 0.0696039 -0.05132823
000060 43 50 88 bd ad a8 c0 bd 67 96 ea bd 99 c3 99 3d
       -0.06655934 -0.09407172 -0.11454468 0.075080104
000070 72 83 7e 3d 01 0d e2 3d f5 96 89 bd 98 de 12 3d
       0.062137075 0.110376365 -0.06718246 0.035856813
000080 b8 4e 15 bd e7 e4 ff bd 3a 86 69 bd 64 c3 46 be
       -0.036452025 -0.124948315 -0.057012774 -0.19410473
000090 03 d6 1d be d9 fd 81 3d 72 ce 4a 3d 6d e1 b7 bd
       -0.1541367 0.06347246 0.049513288 -0.089785434
0000a0 5f 3a 93 3d 30 37 ae 3d c0 ab 9a 3c 96 a7 c5 3d
       0.07188868 0.0850662 0.018880725 0.09651105
0000b0 4a a1 16 ba f4 85 ad 3d 26 0c 9d 3d 1f 39 81 3d
       -0.000574608 0.08472815 0.07668333 0.06309723
0000c0 28 b3 66 bd 95 92 76 bb 66 a6 27 bc 8b c9 66 bc
       -0.0563232 -0.003762399 -0.010232544 -0.0140861375
0000d0 24 cf 0f bd 74 d1 80 3d 4d 69 e4 3d cb 86 8f 3d
       -0.035109654 0.0628995 0.11152897 0.070081316
0000e0 9d 30 ee bd 66 86 a4 bd 56 f3 26 bd fa 95 a3 bc
       -0.11630366 -0.08033447 -0.040759407 -0.019968975
0000f0 f3 27 bb bc 9f 96 d6 3d d7 6c 3e bb cc b2 68 3d
       -0.022846198 0.104779474 -0.0029056573 0.05681114

functional_11_1/dense_20_1/Cast/ReadVariableOp:0 f4 [25, 128]
000000 4d f8 3b 3e 38 08 3a 3d b4 02 3e be b4 ed 30 3d
       0.18356438 0.045417994 -0.18555719 0.04319544
000010 77 98 1a 3e 4e 2b b6 3d 9a 23 30 be 60 50 b1 bb
       0.15097223 0.088949785 -0.17201081 -0.005411193
000020 fa c3 03 be a0 01 48 3d 83 20 2c 3e 8a 6d ce 3d
       -0.12867728 0.048829675 0.16809277 0.10079487
000030 f0 90 6e bd 1e c3 88 3d 60 a0 30 3d 62 e9 e5 3d
       -0.058243692 0.06677841 0.043121696 0.11226155
000040 8a be e5 3d 4f bd c2 bd c9 3f 22 be 5e 0c 99 3d
       0.11217983 -0.09508764 -0.15844645 0.07473062
000050 18 1c 28 be f0 cb 08 bc c5 24 27 3e 62 32 fe 3d
       -0.16416967 -0.008349404 0.1632262 0.124119535
000060 21 9f 17 3e 7c 0a 36 3d af d0 1e be 0c 3f 45 3d
       0.14806797 0.044443592 -0.15509294 0.04815583
000070 ac 7b b3 bd 90 be ce bc 05 77 46 be 5b a4 de bd
       -0.08763823 -0.025237352 -0.1938134 -0.10871192
000080 d0 f8 ef bc 40 4b e4 3b 58 e2 c4 bd 8a 70 f0 3d
       -0.029293448 0.0069669783 -0.09613484 0.11740215
000090 f0 a1 2a bd 48 ec 22 be 99 24 37 3e 8d bd 2d be
       -0.041658342 -0.15910447 0.17885055 -0.16966839
0000a0 60 86 af 3c a8 3b ee 3c ef f6 3e 3e e0 51 f9 bd
       0.02142638 0.02908118 0.18648885 -0.121738195
0000b0 88 3f f8 3c d8 8d c3 bc 68 4a 1a be 72 f9 ed 3d
       0.030303732 -0.023871347 -0.15067446 0.116198435
0000c0 5f 53 3c 3e 04 08 12 bd 2c ca 3e be 16 8f 03 be
       0.18391179 -0.035652176 -0.1863181 -0.12847552
0000d0 c3 8e 05 3e 50 21 ce 3c 3b cb 1c be 5f d8 07 3e
       0.1304274 0.025162369 -0.15311901 0.13266133
0000e0 c3 50 21 be 73 82 10 be 80 19 c5 3b f4 31 20 be
       -0.15753464 -0.14112262 0.0060150027 -0.15644056
0000f0 a8 21 ed 3c c0 bb 0b bd 25 f0 48 3e 56 44 c4 3d
       0.028946713 -0.0341146 0.19622858 0.095833465
000100 b6 64 e3 3d 98 38 05 3d 5d b1 01 3e 80 f8 3f 3b
       0.111031935 0.032524675 0.12665315 0.0029292405
000110 d2 11 9c 3d d5 e7 dd bd ae 11 c6 3d 61 94 35 3e
       0.076205865 -0.10835234 0.09671341 0.17732383
000120 48 78 de bc a8 3e a7 3c 40 b8 3f be 8a f4 3f be
       -0.027156964 0.020415619 -0.1872263 -0.18745628
000130 10 15 fa bc 16 93 20 be 40 1d 7f bb 6d 27 13 be
       -0.030527622 -0.15681109 -0.0038927346 -0.14370508
000140 c0 e5 c9 bd 28 55 50 bd f4 42 59 3d cc e9 02 be
       -0.098582745 -0.05086246 0.053042367 -0.12784499
000150 b2 56 a5 3d 3e 15 d7 3d 00 b7 4d 3a e6 b8 ca bd
       0.080731764 0.105020985 0.00078473985 -0.09898548
000160 ce 64 dd 3d ac ff 25 be 13 1f c8 bd 60 db 0f 3c
       0.108102426 -0.16210812 -0.09771552 0.00878033
000170 ea 08 db 3d a3 3f 00 3e fc ad a5 bd c2 a3 87 bd
       0.106950596 0.12524275 -0.080898255 -0.06623031
000180 5c 9a 0f be 07 5b 22 be 0e f3 84 bd 18 fb 96 bc
       -0.14023727 -0.15855037 -0.064916715 -0.018430278
000190 7a 1b 85 3d 50 55 16 be 03 45 40 be 54 bb 2a be
       0.06499381 -0.14680982 -0.18776326 -0.16673023
0001a0 35 12 13 3e 34 af 72 bd 56 fb f0 3d 44 f2 b3 bd
       0.14362414 -0.059249118 0.117666885 -0.08786443
0001b0 99 f9 00 3e c0 38 50 bb 16 8f 90 bd dc 95 14 bd
       0.12595214 -0.0031772107 -0.070585415 -0.03627573
0001c0 7c 9a 30 3d 1e e1 3a be b0 e4 92 bd 92 57 ba 3d
       0.043116078 -0.18249938 -0.07172525 0.09098734
0001d0 3b 66 3a 3e a1 40 31 be b2 db d1 3d c7 9d 0d 3e
       0.1820306 -0.1730981 0.10246982 0.13829719
0001e0 82 bc a4 3d 04 da 11 3d 42 ef e4 3d 40 87 8c bb
       0.080437675 0.035608307 0.11178447 -0.004288584
0001f0 18 c2 ee bc a4 53 65 3d 40 d9 cd 3b 90 22 2d 3c
       -0.029145285 0.05598797 0.0062820017 0.010567322
000200 63 f8 03 be 21 f3 26 be 72 54 de 3d 40 00 5c bb
       -0.12887721 -0.16303684 0.108559504 -0.0033569485
000210 17 a6 08 3e 1d 28 1e 3e 52 13 4a be d7 0e 72 bd
       0.13344608 0.1544499 -0.19733933 -0.059096184
000220 b4 3e 67 3d 5c d6 0a 3e 52 70 35 3e 2f ec c0 bc
       0.056456283 0.13558334 0.17718628 -0.023550121
000230 78 2b 3d 3d 95 3a f6 3d 4f 5f 33 be 14 14 f8 3d
       0.046184033 0.120228924 -0.17516826 0.121132046
000240 c7 1b be 3c 27 5b 08 bd 90 5d 0b be d4 0f 2b 3e
       0.023206605 -0.033290055 -0.1360991 0.16705257
000250 c6 f9 2b 3e 64 4a 06 bc b2 29 64 bc d8 21 76 bd
       0.167945 -0.008196447 -0.013925957 -0.06009087
000260 6f e3 15 be 9f fc 74 3e f6 3f 32 be 43 cb 43 3e
       -0.1463754 0.23924492 -0.17407212 0.19120507
000270 a8 dc a6 3c 23 01 2e 3c 60 1a f2 3d cc 97 15 3e
       0.020368889 0.010620388 0.11821437 0.14608687
000280 8e 9b c3 3d b7 c3 42 be 31 ef 2c be 1d de 5f 3e
       0.09551154 -0.19019972 -0.1688812 0.21862073
000290 94 19 be bd 13 53 0d be 9b 25 89 3d 0a 21 4f 3d
       -0.092822224 -0.13801222 0.06696626 0.050568618
0002a0 a3 34 45 3d 96 67 b2 bd 5c 2f 59 3d b1 cd ca bd
       0.0481459 -0.08711164 0.05302368 -0.09902514
0002b0 d8 61 fd 3d cc ee 96 3d 88 15 2f 3b 88 ae d5 bd
       0.12372178 0.07369766 0.0026715714 -0.1043368
0002c0 c0 c8 40 3e 9b 56 4b 3d ca 46 47 3e aa 57 2d 3e
       0.1882658 0.04964314 0.19460598 0.16927972
0002d0 36 ba da bd 50 57 76 be 20 29 dd 3d a7 c3 34 bd
       -0.10680048 -0.24056745 0.107988596 -0.0441319
0002e0 1a 38 41 3d 7e fe 2e be 18 39 23 3e 19 3b 5c 3d
       0.047172643 -0.17089269 0.15939748 0.053767297
0002f0 64 38 a9 bd 97 98 5e bd e3 64 c1 bd 4b 5b 25 be
       -0.08262709 -0.05434474 -0.09443071 -0.16148107
000300 8f cb 66 3e 44 74 1f be 3f 50 1b 3d e6 f1 12 3d
       0.22538589 -0.15571696 0.037918326 0.035875224
000310 82 cf 9f 3d b6 f8 0e be 98 cc 0e be 26 21 09 3d
       0.07803251 -0.13962063 -0.13945234 0.03347888
000320 f1 7a 46 bd a8 f8 9f 3d b7 9a c8 bd 6b 22 a1 be
       -0.04845709 0.07811099 -0.097951345 -0.3147157
000330 19 de 4e 3e df b4 60 bc 9c b8 35 3d 70 71 0c bc
       0.20201911 -0.013714998 0.04436551 -0.0085719675
000340 c1 62 bc bc 05 0d b4 3d 99 d8 db bd ec a5 1f be
       -0.022996308 0.08791546 -0.10734672 -0.15590638
000350 63 32 da 3d f4 04 95 bd 61 f7 8d 3e e4 07 62 bd
       0.10654142 -0.07276335 0.27727798 -0.055183306
000360 23 e1 34 be 23 ee 06 be d0 88 ae 3d b9 01 3a 3e
       -0.17664008 -0.1317678 0.08522189 0.1816472
000370 a0 27 b1 3c 4b 80 25 3e f9 37 66 3d 3a fa f1 bd
       0.02162534 0.16162221 0.056205723 -0.11815305
000380 36 52 0c be b7 fc 04 bd c5 b4 61 be 57 a2 62 be
       -0.13703236 -0.03246757 -0.22041614 -0.2213224
000390 41 32 ae 3c 15 e6 0b bc 9a 62 00 bc 77 6c 8d bd
       0.021264197 -0.008538743 -0.007836008 -0.06905454
0003a0 a8 1c 5d 3e 89 d6 86 3c df 92 9c 3d ea 65 42 be
       0.21592963 0.01645972 0.07645201 -0.1898419
0003b0 6c 8f 30 3b f3 52 94 bd 71 ed 81 bd 76 7d dc 3d
       0.0026940955 -0.07242384 -0.063441165 0.10766117
0003c0 87 67 1e 3e 94 a3 63 3d 58 46 99 bd 18 7c 34 bd
       0.1546918 0.055575922 -0.0748412 -0.044063658
0003d0 0c 8a 7a 3d 2c 15 1f 3c 88 38 73 bd d0 23 96 bd
       0.061166808 0.009709638 -0.059380084 -0.073310494
0003e0 6f 02 0f 3e e1 69 1d 3d 76 65 82 3d c9 90 7f be
       0.13965772 0.038431052 0.063670084 -0.24957575
0003f0 1a 82 ec 3d d8 94 57 bd eb be 26 3e 80 55 26 3c
       0.115482524 -0.052632183 0.16283767 0.010152221

functional_11_1/dense_20_1/Add/ReadVariableOp:0 f4 [128]
000000 9b e5 75 bd 51 a1 96 bd 5e f0 0e 3d 66 cc bd 3c
       -0.060033422 -0.073549874 0.0348972 0.023168754
000010 72 5e f2 3c 83 00 02 bb 51 11 b7 bd 2a 45 9d 3d
       0.02958605 -0.001983673 -0.0893885 0.076792076
000020 ec bd ed 3d 7e e8 6c 3d e6 66 93 3c 8e e5 75 bd
       0.1160849 0.05783891 0.017993402 -0.060033374
000030 00 00 00 00 72 67 db 3d 6c fc ab bd fa da ab 3c
       0.0 0.1071309 -0.08397755 0.02097844
000040 fd e4 75 3d 74 65 c6 3d fc c1 23 3d fa cd b3 3d
       0.060032833 0.096873194 0.03997992 0.08779521
000050 57 da a8 3d 09 c9 7c bd d9 0c e3 bd 0d 83 02 3c
       0.0824477 -0.06171516 -0.11086435 0.007965815
000060 2f 95 87 3d bf a7 1d bc df ca 3e bd 2f 14 a9 3d
       0.066202514 -0.009622513 -0.04658019 0.08255803
000070 00 00 00 00 7e bc 23 be 22 6e 27 3d 0f 1c df bd
       0.0 -0.15989873 0.040876515 -0.108940236
000080 9e bd a6 bb 67 27 1a 3d 00 00 00 00 40 db 99 bb
       -0.005088522 0.037635233 0.0 -0.004695326
000090 08 42 1d bd 00 00 00 00 61 d9 84 3d 45 83 e7 3d
       -0.03839305 0.0 0.06486774 0.113043346
0000a0 d5 ba 1d bd 9d e4 75 bd 92 5c 84 ba 00 00 00 00
       -0.038508255 -0.060032476 -0.0010098389 0.0
0000b0 70 e5 75 3d b1 ea 18 bd b3 2a 15 bd 00 00 00 00
       0.06003326 -0.037333194 -0.036417674 0.0
0000c0 44 eb 79 bd 44 49 50 bd cd 80 43 bc 34 12 9d 3d
       -0.061015382 -0.05085112 -0.011932564 0.076694876
0000d0 b4 a2 18 bc 54 9a 3e bd 50 b5 71 bd ed 1c 00 3a
       -0.009316135 -0.046533898 -0.059010804 0.0004887123
0000e0 4c b8 aa 3c d8 e2 e3 bd b4 2f 2e bd 02 13 60 bd
       0.020839833 -0.111272514 -0.042525962 -0.054705627
0000f0 1e 87 87 bc cc 38 3a bc 3e 72 22 3d 28 76 f8 3d
       -0.016543921 -0.0113660805 0.03965973 0.121319115
000100 00 81 34 bc 91 e5 75 bd a2 b0 2d 3c 8c fb ae bd
       -0.011017084 -0.060033385 0.010601195 -0.085440725
000110 91 35 71 bd 28 06 33 3d ea cf b4 3d d3 ee 42 bd
       -0.058888976 0.043707043 0.08828719 -0.04759104
000120 93 b0 63 3d 92 9a 84 3d 95 e5 75 bd d5 11 25 bd
       0.055588316 0.064747944 -0.0600334 -0.04030021
000130 23 bf 18 3c 19 87 cc bd fb 7b 5e ba 00 00 00 00
       0.009322914 -0.09986705 -0.00084871025 0.0
000140 8c e5 75 bd 52 12 15 3c 7c af 37 3d 00 00 00 00
       -0.060033366 0.009098606 0.04484509 0.0
000150 fa dd c4 3c 56 3f 81 bb dd 7f a7 3d 9c 77 70 3d
       0.024031628 -0.003944318 0.08178685 0.05870782
000160 e5 c2 bd 3c f6 fb 68 3d 98 59 3f bd d4 8e 16 3d
       0.023164222 0.056880914 -0.046716303 0.036757305
000170 00 00 00 00 4f 4d d1 3b 59 9d 00 3a 01 0f dd 3b
       0.0 0.0063873897 0.0004906259 0.0067461734
000180 2e 90 9c 3d 7a 08 8e bd 83 e5 75 bd c5 ca 18 3c
       0.076446876 -0.069352105 -0.060033333 0.009325688
000190 3e b5 f4 bc 11 8f d0 bd 63 97 23 3d 31 78 ae 3d
       -0.02987158 -0.10183538 0.039939296 0.085190184
0001a0 c0 61 bc 3d df 80 c6 3d 54 39 b5 3d 00 1e 15 bd
       0.09198332 0.09692549 0.08848825 -0.036405563
0001b0 e8 04 0d bd 05 e3 75 bd 47 85 07 be 10 c4 13 38
       -0.034428507 -0.060030956 -0.13234435 3.523013e-05
0001c0 00 00 00 00 ff c5 fe bd 9e 0e e4 bd 00 00 00 00
       0.0 -0.124401085 -0.111356005 0.0
0001d0 d9 93 95 bd cb 30 e4 bc 00 00 00 00 ac a6 0c bd
       -0.0730359 -0.027855298 0.0 -0.03433864
0001e0 cc 05 ed bd d9 3c 2c 3d 5b 22 f5 3d 62 7a 89 bd
       -0.11573371 0.042050216 0.119694434 -0.06712796
0001f0 82 e5 75 bd 00 00 00 00 55 b0 bf bd 68 4d ba 3b
       -0.06003333 0.0 -0.093598045 0.005685497

functional_11_1/batch_normalization_17_1/batchnorm/sub:0 f4 [32]
000000 f2 a6 93 be 02 a3 78 be 62 d5 7e be 76 19 e2 be
       -0.28838307 -0.24280933 -0.24886087 -0.4416005
000010 fb 4b b8 be 19 f9 23 be a1 f1 c0 be 44 ff fe be
       -0.35995468 -0.16012992 -0.37684348 -0.49804127
000020 98 d7 7d be ae 50 99 be 14 b4 02 bf c6 83 cd be
       -0.24789274 -0.29944366 -0.5105603 -0.40139598
000030 a1 80 e8 be ad e7 a1 be 2f 5b d5 be ab d7 1a be
       -0.45410636 -0.31622067 -0.4167113 -0.15121333
000040 99 9e 55 be 1c e6 a5 be e1 58 87 be 59 8d 8a be
       -0.20861281 -0.32402122 -0.26434997 -0.27060965
000050 b5 28 8e be ee 97 cd be d2 26 3f be 99 b4 39 be
       -0.27765432 -0.40154976 -0.18667153 -0.18135299
000060 44 6f 93 be b4 ca d9 be 64 0d c5 be b4 18 dd be
       -0.28795826 -0.42537463 -0.3848678 -0.4318291
000070 9d 4c 99 be 55 eb ab be 21 0f 66 be f0 a6 97 be
       -0.29941264 -0.33577982 -0.22466709 -0.2961955

functional_11_1/batch_normalization_17_1/batchnorm/mul:0 f4 [32]
000000 14 1a 3b 3f e6 40 0a 3f 64 f9 4f 3f a0 ab 4b 3f
       0.7308667 0.5400528 0.81239915 0.79558754
000010 43 b7 0d 3f 8e 15 4d 3f 00 31 75 3f db c5 44 3f
       0.5535776 0.80111015 0.95777893 0.76864403
000020 77 24 71 3f f0 10 4d 3f 9d c0 23 3f d7 3d 51 3f
       0.94196266 0.8010397 0.6396578 0.81734985
000030 6d 4e 36 3f 9d 09 52 3f ab 76 2c 3f 3c 18 73 3f
       0.7121342 0.8204592 0.6736857 0.94958854
000040 3a f9 35 3f 48 17 64 3f 94 24 6d 3f 90 b7 40 3f
       0.71083415 0.89098024 0.9263394 0.75280094
000050 4b 53 5f 3f cb a9 1b 3f 6c 8b 08 3f 8e da 53 3f
       0.8723647 0.6080596 0.5333774 0.82755363
000060 da e1 61 3f 29 98 3b 3f 9d 84 4c 3f 02 6c 6f 3f
       0.8823525 0.7327905 0.7988985 0.9352418
000070 96 3b 22 3f 4d 38 23 3f d4 35 78 3f d6 c5 7e 3f
       0.6337217 0.63757783 0.96957135 0.99520624

functional_11_1/batch_normalization_16_1/batchnorm/sub:0 f4 [64]
000000 ef e5 0d bf 08 d5 fe be ff 80 a2 be 60 19 86 be
       -0.55428976 -0.49771905 -0.3173904 -0.26191235
000010 d3 33 9a be 1f 36 af be ad 98 d1 be 56 93 99 be
       -0.30117664 -0.3422098 -0.40936795 -0.2999522
000020 a6 d1 a7 be 4f 68 ad be a1 91 88 be 52 4a d1 be
       -0.32777137 -0.33868644 -0.26673606 -0.40877014
000030 69 b4 a5 be e1 a4 bc be 2d 03 39 be c8 53 02 bf
       -0.32364205 -0.36844543 -0.18067618 -0.5090909
000040 8f 95 db be a2 63 86 be 8e ba 85 be 79 44 db be
       -0.42887542 -0.2624789 -0.26118892 -0.42825678
000050 01 17 3c be 6a 91 b1 be 44 89 be be 6e b9 b6 be
       -0.1836815 -0.34681255 -0.372141 -0.35688347
000060 8b 1b 06 bf e4 5c dd be ae 99 50 be 9e 70 02 bf
       -0.5238578 -0.43234932 -0.20371124 -0.5095309
000070 90 38 bf be 7f bd ed be b3 3d ed be fc c6 88 be
       -0.3734784 -0.46433637 -0.46336135 -0.26714313
000080 71 23 ad be 63 60 b2 be 3d 8d aa be 8e a9 68 be
       -0.33816102 -0.34839162 -0.3331088 -0.2272093
000090 4c 59 1c be 0e c0 94 be 74 ed 7f be ec 71 be be
       -0.15268439 -0.29052776 -0.24992925 -0.3719629
0000a0 06 cc ee be b0 9a d0 be 5b b3 da be e9 07 c1 be
       -0.46640033 -0.40743017 -0.42714962 -0.37701347
0000b0 60 53 ba be 8d f7 10 bf 51 03 10 bf 18 ab 9f be
       -0.36391735 -0.5662773 -0.5625506 -0.31185222
0000c0 b0 b8 2b be c6 2d c3 be e7 3d 17 bf ce a7 be be
       -0.16769671 -0.3812086 -0.5907883 -0.372374
0000d0 40 6c 64 be c3 f0 78 be 6d 5d fd be 95 d3 e3 be
       -0.22306919 -0.24310593 -0.4948534 -0.44497362
0000e0 08 e5 b9 be b1 3f 00 bf 02 ed c3 be 1e 19 f5 be
       -0.3630755 -0.50097185 -0.3826676 -0.47870725
0000f0 01 5c e4 be 53 6e f0 be 98 b0 a1 be 88 5b bd be
       -0.44601443 -0.4695917 -0.31580043 -0.36983895

functional_11_1/batch_normalization_16_1/batchnorm/mul:0 f4 [64]
000000 f0 f3 52 3f 06 44 63 3f 8a 38 81 3f 60 fc 87 3f
       0.8240347 0.8877567 1.0095379 1.0623894
000010 a9 5c 5b 3f 8a 2e 2e 3f a0 d6 2f 3f f4 31 46 3f
       0.85688263 0.6803976 0.68686867 0.7741997
000020 6d 60 62 3f 59 bc 62 3f 51 84 89 3f c3 3d 71 3f
       0.88428384 0.88568646 1.0743505 0.94234866
000030 75 49 87 3f b7 87 6d 3f 3b 9a 84 3f e3 2c 54 3f
       1.0569292 0.9278521 1.0359567 0.8288099
000040 d8 9c 8a 3f 82 dc 45 3f 65 06 8c 3f fb 20 59 3f
       1.0829115 0.77289593 1.0939451 0.8481595
000050 c1 12 61 3f b0 ae 40 3f fc f4 50 3f 36 bd 8f 3f
       0.8791924 0.7526655 0.81623816 1.1229618
000060 44 1e 83 3f 80 51 63 3f ac 27 97 3f 2b 1b 62 3f
       1.0243611 0.88796234 1.1808982 0.88322705
000070 a9 51 52 3f 46 b4 47 3f 70 61 8c 3f 14 08 69 3f
       0.82155854 0.7800945 1.0967236 0.9102795
000080 78 d3 83 3f 4c 36 83 3f 4a 1b 86 3f d4 9f 88 3f
       1.029891 1.0250945 1.0477078 1.0673776
000090 c1 8a 74 3f 96 32 61 3f b1 73 5a 3f 1a 78 51 3f
       0.9552422 0.87967813 0.8533278 0.81823885
0000a0 76 7d 8e 3f cf c5 6a 3f a4 50 2f 3f b5 f7 54 3f
       1.1132038 0.9170808 0.6848242 0.8319047
0000b0 da 01 8e 3f c4 84 61 3f ef 26 4e 3f dd a0 88 3f
       1.1094315 0.8809321 0.8052816 1.0674092
0000c0 9b 2f 53 3f 47 23 3a 3f 26 aa 3a 3f 18 fe 82 3f
       0.82494515 0.7271008 0.72915876 1.0233793
0000d0 c6 d7 76 3f c3 66 60 3f ad 29 7b 3f 2e 73 6c 3f
       0.96422994 0.876568 0.9811047 0.9236325
0000e0 7c 92 30 3f 92 4e 6d 3f 2a 8e 82 3f e7 cf 7d 3f
       0.6897352 0.92698014 1.0199635 0.9914536
0000f0 19 cc 70 3f 7b a5 4b 3f ef 8e 65 3f 24 29 71 3f
       0.9406143 0.7954938 0.89671224 0.942034

functional_11_1/batch_normalization_15_1/batchnorm/sub:0 f4 [128]
000000 2d 0e cc bc ed ad 0e bd f0 d8 84 bd c4 22 0f bd
       -0.024909103 -0.034833837 -0.0648669 -0.034945264
000010 1d 8c 1a be c3 a9 9e bd 40 a8 4c bb ee 64 b0 bd
       -0.15092511 -0.07747223 -0.0031228215 -0.08613001
000020 b3 ef 79 be 2d 24 4f be b6 f0 88 be bd 86 03 be
       -0.24407844 -0.20228644 -0.26746148 -0.12844367
000030 76 c5 d4 3d bd ba 82 be 77 e2 c2 bc 52 1b 54 be
       0.10389225 -0.25533095 -0.023789627 -0.20713547
000040 9c 22 9b be 7c 93 61 be 5c 55 c2 bd fa 4a 90 be
       -0.30299842 -0.22028917 -0.09488937 -0.28182203
000050 03 36 79 be b2 fd e3 bd 32 12 00 3e f7 c6 26 be
       -0.2433701 -0.11132373 0.12506941 -0.16286837
000060 96 1a 50 bd 09 f6 62 3d 36 66 11 3c 08 ed 63 be
       -0.050806604 0.05541042 0.008874467 -0.22258389
000070 a3 fc bc 3d 70 a0 6b 3a 81 36 0e be a6 f3 e5 3d
       0.09227874 0.00089884456 -0.13887979 0.11228113
000080 75 88 b8 bc 6d bc 82 be 22 14 99 bd b6 dd 2f be
       -0.022526005 -0.25534382 -0.07474543 -0.1717442
000090 3c 21 c9 bc 75 2a 78 3d 92 c8 15 be 59 47 8c be
       -0.02455198 0.060587365 -0.14627293 -0.27398184
0000a0 b7 be c9 3c 2c 78 97 bd 95 28 9c bd a4 b2 7c 3d
       0.024627073 -0.07395968 -0.07624928 0.061693802
0000b0 85 f3 3e be 14 53 41 bc 26 85 aa bd dc 68 bb 3d
       -0.18647583 -0.0117995925 -0.08326177 0.0915086
0000c0 c5 33 73 bd 59 00 d2 3c b2 fe 69 bd d6 a2 6f be
       -0.059375543 0.025634931 -0.057127662 -0.2340196
0000d0 86 10 35 be 97 e9 c8 3d 5a 89 83 bd c8 1f 3a 3c
       -0.17682084 0.09810179 -0.06422682 0.011360116
0000e0 f4 8f f0 bd b7 df 56 3c 8a 43 25 be f7 00 21 bd
       -0.11746207 0.013114861 -0.16139045 -0.03930756
0000f0 a0 88 ee bd 00 90 00 bc 75 e2 ac bd 16 4e 55 be
       -0.11647153 -0.007846832 -0.08441631 -0.20830569
000100 42 b0 ef be 77 d3 40 3c c1 61 dc bd cc 9c 5e 3d
       -0.46814162 0.011769167 -0.107608326 0.054348752
000110 99 d1 2e be df 12 1c bd 0c 12 90 be f1 81 ae bd
       -0.17072143 -0.038103934 -0.2813877 -0.08520878
000120 80 61 0d be 31 ce 68 be 65 39 01 bc 37 cc 4b 3e
       -0.13806725 -0.22734906 -0.007887219 0.1990212
000130 d2 b6 02 be ce 2b 33 bd 54 6d 9c bd 6e ae 96 bc
       -0.12765053 -0.043742947 -0.0763804 -0.018393721
000140 1e 76 a3 3c af e1 f8 be d8 16 60 be 5d 76 55 3d
       0.019953784 -0.48609683 -0.21883714 0.052114833
000150 5d 80 45 be 7b 2f cd 3c ba 11 80 be 03 0b 41 be
       -0.19287248 0.025047055 -0.25013524 -0.18851857
000160 d0 93 ac be ae b3 e8 3c ae b1 37 be c4 b3 99 be
       -0.33706522 0.02840599 -0.17938873 -0.30019963
000170 d5 2b 77 3d c0 2b fb 3a 80 4b ba 39 b7 5c 10 3d
       0.060344536 0.0019162819 0.00035532936 0.03524467
000180 59 11 88 be 6b 1d 31 bd 99 65 5e 3d ae e7 81 3d
       -0.26575735 -0.043240946 0.05429611 0.063430175
000190 30 aa 30 3c 94 cc f6 bd de 9b 76 be b0 51 9b be
       0.010782763 -0.12050739 -0.24082896 -0.3033576
0001a0 4c c9 44 be d5 62 a2 be 15 0f 7e be 60 8c 1b 3a
       -0.19217414 -0.31716028 -0.24810441 0.0005933698
0001b0 f4 5a e1 3c c0 4f ff bb bd bf 77 bd 22 9a 70 bd
       0.02750919 -0.0077914894 -0.06048559 -0.058740743
0001c0 98 83 ad 3c d9 fc 6e bd 54 48 8d bd d0 70 29 3d
       0.021180913 -0.058346603 -0.06898561 0.041367352
0001d0 3a 08 ef 3c 6c f3 9f bd f4 f8 22 bd 56 98 13 3d
       0.029178727 -0.07810101 -0.0397882 0.03603395
0001e0 86 4b 34 bd 70 2d 2a be 8f cb 84 be 74 ba e7 bd
       -0.044017337 -0.16618896 -0.25936553 -0.1131486
0001f0 bf 9d b3 3d 44 49 d5 bc 5f 61 aa 3d c6 b5 a4 bd
       0.08770322 -0.026035912 0.08319353 -0.08042483

functional_11_1/batch_normalization_15_1/batchnorm/mul:0 f4 [128]
000000 bc a6 b3 3f 8d e7 d7 3f 34 40 b1 3f 92 3e c5 3f
       1.4035258 1.6867539 1.3847718 1.540972
000010 df bf ac 3f de 5b b7 3f ab eb c3 3f d2 f7 c3 3f
       1.3496054 1.4324911 1.5306295 1.5310004
000020 82 ac ad 3f 65 83 ad 3f 63 39 b4 3f ef 98 ca 3f
       1.356827 1.3555723 1.4080013 1.5827922
000030 fb 1f bf 3f 4f dc b4 3f 86 3b a4 3f f6 e0 b5 3f
       1.4931635 1.4129733 1.2830665 1.4209278
000040 3f 9b af 3f 81 67 b1 3f fd 12 b7 3f a0 f3 cc 3f
       1.3719252 1.3859712 1.430267 1.6011848
000050 18 15 bb 3f 5d 04 b1 3f 0d 50 c9 3f e2 7d bc 3f
       1.4615812 1.3829457 1.5727555 1.4725916
000060 7d c8 b0 3f 9b 0c d5 3f 8b 93 bc 3f 27 21 9c 3f
       1.3811184 1.6644472 1.4732527 1.2197617
000070 fb 1f bf 3f 30 ad ac 3f fc db de 3f 67 36 b5 3f
       1.4931635 1.3490353 1.7410884 1.4157227
000080 5c b2 c6 3f db fe da 3f fb 1f bf 3f bf eb cc 3f
       1.5523181 1.7109026 1.4931635 1.6009444
000090 25 48 b7 3f fb 1f bf 3f e0 2f ba 3f 11 18 c0 3f
       1.4318892 1.4931635 1.454586 1.5007344
0000a0 d8 a9 b0 3f 52 a7 b3 3f a8 27 cd 3f fb 1f bf 3f
       1.3801832 1.4035437 1.6027727 1.4931635
0000b0 15 62 c0 3f a9 bc b9 3f c5 db c7 3f fb 1f bf 3f
       1.5029932 1.45107 1.5613943 1.4931635
0000c0 05 02 b2 3f ed bf b8 3f 0b fc bb 3f a7 07 c6 3f
       1.3906866 1.4433571 1.4686292 1.5471085
0000d0 59 19 cd 3f 69 a0 b3 3f 6a 9d b0 3f 8e 1e ce 3f
       1.602336 1.4033328 1.3798039 1.6103075
0000e0 74 34 c2 3f 26 ea a6 3f 33 06 bd 3f 8f c9 b8 3f
       1.5172257 1.3040206 1.4767517 1.4436511
0000f0 38 86 b5 3f 6a 8b b9 3f 67 6b b3 3f a6 e9 d1 3f
       1.4181585 1.4495671 1.4017152 1.6399429
000100 fb ef ce 3f ce a6 b3 3f 0f ce d0 3f 63 4e b3 3f
       1.6166986 1.403528 1.6312884 1.4008297
000110 14 e1 ca 3f 26 95 d5 3f 40 36 d8 3f fc 02 b4 3f
       1.5849938 1.6686141 1.6891556 1.4063411
000120 4b e1 ae 3f fa 45 b6 3f e9 a6 b3 3f f7 f4 b8 3f
       1.3662504 1.4240105 1.4035312 1.4449757
000130 2f 8b ac 3f 7c 99 aa 3f 6a f1 c3 3f fb 1f bf 3f
       1.3479975 1.332809 1.5308049 1.4931635
000140 bc a6 b3 3f cb 88 b7 3f e8 1d a8 3f fb 1f bf 3f
       1.4035258 1.4338621 1.3134127 1.4931635
000150 8a 0f b6 3f 7f bc c4 3f 29 ed be 3f f3 a2 a6 3f
       1.4223492 1.5370024 1.4916126 1.3018478
000160 7b f4 bf 3f 90 a5 c3 3f af 6a c3 3f 61 ea ae 3f
       1.4996485 1.5284901 1.5266932 1.3665277
000170 fb 1f bf 3f 9a e7 be 3f 13 f8 d2 3f 2b 7b bc 3f
       1.4931635 1.4914429 1.6481956 1.4725088
000180 36 69 cd 3f 1e 48 b1 3f d1 a7 b3 3f 6e 29 cb 3f
       1.6047733 1.3850133 1.4035589 1.5872018
000190 f3 d3 ba 3f 27 a1 c8 3f cb 39 c3 3f 20 6c ba 3f
       1.4595932 1.567418 1.5252012 1.4564247
0001a0 ca 1f c8 3f 7b 4e b8 3f c5 89 c9 3f 19 c3 cc 3f
       1.5634701 1.439895 1.5745169 1.5997039
0001b0 6e f6 c5 3f 26 ab b3 3f a4 32 a8 3f 22 55 ca 3f
       1.5465829 1.4036605 1.3140454 1.580723
0001c0 fb 1f bf 3f 27 d1 cd 3f c0 4a a2 3f fb 1f bf 3f
       1.4931635 1.6079453 1.2679062 1.4931635
0001d0 c9 81 b0 3f 48 56 d8 3f fb 1f bf 3f 08 da b4 3f
       1.3789607 1.6901331 1.4931635 1.4129038
0001e0 62 99 a4 3f 7a 89 cc 3f ab 92 cd 3f dd 81 c1 3f
       1.2859309 1.5979455 1.6060385 1.5117756
0001f0 22 96 ca 3f fb 1f bf 3f c9 e9 cd 3f ae 4c ac 3f
       1.5827067 1.4931635 1.608697 1.3460901
