models/Postojna/speed/Postojna_speed_model.onnx (onnx, 61129 bytes, 13 tensors)

functional_9_1/dense_19_1/Cast/ReadVariableOp:0 f4 [32, 1]
0	0xbdae2cfc	-0.08504674
1	0x3e38cd2a	0.18047014
2	0x3e29bd76	0.1657618
3	0x3cfcb3f1	0.030847521
4	0x3d1f75e9	0.038930807
5	0xbaea9f54	-0.0017900267
6	0x3dc615f2	0.096721545
7	0x3d1e78eb	0.038689535
8	0x3e4731bc	0.19452566
9	0xbe249050	-0.16070676
10	0x3b4d0a90	0.0031286813
11	0x3da213ee	0.079139575
12	0xbd942309	-0.07233245
13	0x3d71d7d6	0.059043728
14	0x3e48641d	0.1956944
15	0x3e0e3dd1	0.13890769
16	0xbcbaff2a	-0.02282675
17	0xbe11965c	-0.14217514
18	0xbcf778c9	-0.030208962
19	0x3daf721c	0.085666865
20	0xbd7c0fce	-0.06153851
21	0xbb3ecb0a	-0.002911272
22	0xbba07548	-0.0048967935
23	0x3dbaad2b	0.091150604
24	0xbd01e76c	-0.03171484
25	0xbc8da0b3	-0.017288541
26	0xbd9724dc	-0.07380077
27	0x3e35fa05	0.17771156
28	0x3b7ff0f7	0.0039053538
29	0xbe107798	-0.14108121
30	0x3e800aec	0.25008333
31	0xbd01aef4	-0.03166099

functional_9_1/dense_18_1/Cast/ReadVariableOp:0 f4 [64, 32]
0	0xbe40caa3	-0.188273
1	0x3df8b3ea	0.12143691
2	0xbe062448	-0.13099778
3	0x3e160b40	0.14652729
4	0xbe29060c	-0.16506213
5	0x3e378160	0.17920446
6	0x3e13438c	0.14381236
7	0xbdbb03dd	-0.09131596
8	0xbc87af37	-0.016563041
9	0x3e26e730	0.16299129
10	0xbe7cc929	-0.24686112
11	0xbd5b8fee	-0.05360406
12	0xbd62370f	-0.05522829
13	0x3dd4c29f	0.103886835
14	0xbe1cb0e2	-0.1530185
15	0xbe541b9a	-0.20713654
16	0xbdf1b3de	-0.11801885
17	0xbe52fd73	-0.20604496
18	0xbe11a74a	-0.14223972
19	0x3c7dc2f8	0.015488379
20	0x3d965fd4	0.073424965
21	0x3e053580	0.1300869
22	0x3d302a0e	0.043008856
23	0xbe3a8186	-0.18213472
24	0x3dd0453f	0.10169458
25	0x3e14f02d	0.14544745
26	0xbe3f8838	-0.18704307
27	0xbe403c26	-0.18772945
28	0xbe721871	-0.23642136
29	0x3ab2f670	0.0013653766
30	0x3e220afc	0.15824503
31	0xbe427870	-0.18991256
32	0xbdc51cfb	-0.09624668
33	0x3e49b648	0.19698441
34	0x3e666f6f	0.22503446
35	0xbdb377f0	-0.08763111
36	0xbe3fea83	-0.18741803
37	0xbd94b2b9	-0.07260651
38	0x3cd3c124	0.025848933
39	0xbe20afab	-0.15692012
40	0xbe8ee097	-0.27905723
41	0xbd62f7a7	-0.05541196
42	0xbe1d59db	-0.15366308
43	0xbd16a2c6	-0.036776327
44	0xbde6a84f	-0.11262571
45	0xbeac09fc	-0.33601367
46	0x3b4c2dd4	0.0031155245
47	0xbd7bdfc3	-0.061492693
48	0xbdc91757	-0.09818905
49	0x3c7023c3	0.014656964
50	0x3d3f0dd9	0.046644066
51	0xbcea3914	-0.02859167
52	0x3d6a64c9	0.057225022
53	0xbe657c9d	-0.22410817
54	0xbe4c0abf	-0.19925974
55	0x3ea56fbc	0.3231181
56	0x3dda0343	0.106451534
57	0x3c41aea7	0.0118214255
58	0x3c857696	0.016291898
59	0x3d5d7b5a	0.054072715
60	0xbc9735a0	-0.018458188
61	0x3e8373d8	0.2567432
62	0xbd5ae1f6	-0.05343815
63	0x3b1e455c	0.0024150228
64	0x3d56960d	0.052389193
65	0xbe8425c6	-0.2581007
66	0xbea9388e	-0.3305096
67	0x3e1cba30	0.153054
68	0xbd35b592	-0.044362612
69	0xbc727305	-0.014797931
70	0xbe4b4212	-0.19849423
71	0x3dcc5d3c	0.099787205
72	0xbddd90ca	-0.10818632
73	0x3d704979	0.05866382
74	0x3daa70eb	0.08322319
75	0xbe019176	-0.12653145
76	0xbe7061b6	-0.23474774
77	0xbdfa95ce	-0.12235604
78	0xbddd9908	-0.10820204
79	0x3e91fead	0.28514615
80	0x3ea4d449	0.3219321
81	0xbeb6db97	-0.3571441
82	0x3d7fcf1d	0.062453378
83	0xbe0bf7d1	-0.13668753
84	0x3cc759d7	0.024334831
85	0x3e088b10	0.13334298
86	0xbe08d0e1	-0.13360931
87	0x3e426f3c	0.18987745
88	0x3d162d8d	0.036664534
89	0x3e5f0313	0.21778516
90	0x3e5e55ba	0.2171239
91	0x3d3d3c28	0.046199948
92	0x3e4f1bc7	0.2022544
93	0xbc64861b	-0.013947989
94	0xbe389166	-0.18024215
95	0xbd82d528	-0.063883126
96	0x3e699f72	0.2281473
97	0x3e914d8f	0.28379485
98	0xbe285207	-0.16437541
99	0x3e7fd76c	0.2498452
100	0x3e461692	0.19344547
101	0x3dd148d4	0.10218969
102	0xbe85eb23	-0.26155958
103	0x3e5b0947	0.21390258
104	0x3b2fe12a	0.002683709
105	0xbe3116cb	-0.17293851
106	0x3ddc9b5d	0.10771821
107	0xbd436ae9	-0.04770938
108	0xbc9b6b2e	-0.018972006
109	0xbd68896c	-0.05677168
110	0x3e69d248	0.22834122
111	0x3df4a053	0.11944642
112	0x3d5bf0aa	0.053696312
113	0xbe4b49a3	-0.19852309
114	0xbde6c4b1	-0.11267985
115	0x3e5265ca	0.20546642
116	0xbe16dd38	-0.14732826
117	0x3c5b7703	0.013395074
118	0xbd293515	-0.04131039
119	0xbdb41357	-0.08792751
120	0xbe06b761	-0.13155891
121	0x3e2e817e	0.17041585
122	0x3d27ce13	0.040968012
123	0xbe0485eb	-0.1294171
124	0x3b8f2a8c	0.0043690857
125	0xbe794257	-0.24341713
126	0xbe883161	-0.26600173
127	0xbdb32fa8	-0.08749324
128	0x3e3688f2	0.17825678
129	0xbd107173	-0.035264444
130	0x3d11d82c	0.03560655
131	0xbdb5041d	-0.08838675
132	0xbe3606dc	-0.17776054
133	0x3d068ee0	0.0328511
134	0x3e243cc3	0.16038804
135	0x3e816388	0.2527125
136	0xbe696bcb	-0.22795026
137	0xbe52ab70	-0.2057321
138	0x3d9ff7be	0.07810925
139	0x3e290bc4	0.16508394
140	0x3d738031	0.059448425
141	0xbe4b80b0	-0.19873309
142	0x3e50536e	0.20344326
143	0xbddd8e6e	-0.10818182
144	0xbdc10769	-0.094252415
145	0xbe02430c	-0.12720889
146	0x3c8e5ed7	0.017379208
147	0xbe2366b5	-0.15957148
148	0x3e180f5e	0.14849612
149	0xbd262808	-0.04056552
150	0xbe0e30cc	-0.13885802
151	0x3e004f05	0.12530144
152	0x3ddc3059	0.10751409
153	0xbe26caff	-0.16288374
154	0x3d8d5e40	0.069027424
155	0x3dcfc29a	0.10144539
156	0xbdd013ab	-0.10160001
157	0x3e061438	0.1309365
158	0x3e022a2c	0.127114
159	0x3e290354	0.16505176
160	0x3e401236	0.18756947
161	0x3e86f150	0.26355982
162	0x3ccf13c0	0.025277972
163	0xbe2e2fcd	-0.17010422
164	0x3e9cb409	0.30606106
165	0xbe4572e1	-0.19282104
166	0x3e3a84a8	0.18214667
167	0x3dba0ba8	0.090842545
168	0x3e1cf6a3	0.1532846
169	0x3dc76e80	0.09737873
170	0xbe1b867a	-0.15188017
171	0xbe25ba0a	-0.1618425
172	0x3e849b5f	0.2589979
173	0xbe093916	-0.13400683
174	0xbe15ff2f	-0.14648126
175	0xbc8d465f	-0.01724547
176	0x3e9d8c5c	0.30771148
177	0x3db1e213	0.08685698
178	0x3d600908	0.054696113
179	0x3e333680	0.17501259
180	0xbdba5388	-0.090979636
181	0xbe4b338b	-0.19843881
182	0x3e26f1d3	0.16303186
183	0xbea03197	-0.31287834
184	0xbd53f310	-0.051745474
185	0xbe80a164	-0.2512313
186	0xbdfaa3c7	-0.12238269
187	0xbe714b76	-0.23563942
188	0x3c4014d7	0.011723719
189	0xbd18ea63	-0.037332904
190	0x3e78adbe	0.24285027
191	0xbeb78051	-0.35840085
192	0xbe2bed73	-0.16789798
193	0x3dfc7495	0.12326924
194	0xbd9e135d	-0.07718537
195	0xbdb1634e	-0.08661519
196	0xbc8987f0	-0.016788453
197	0xbeb7cdf8	-0.3589933
198	0x3c260ad2	0.010134416
199	0x3d1624cb	0.036656182
200	0xbe39a2bc	-0.18128484
201	0x3db08509	0.086191244
202	0x3dcb94b3	0.099404715
203	0x3e4387ac	0.19094723
204	0x3eb42ca5	0.3519031
205	0x3ce47a5b	0.027890375
206	0xbe6239de	-0.22092387
207	0x3e55cd59	0.20879115
208	0xbe49ff18	-0.19726217
209	0x3ccb1b0b	0.024793169
210	0x3e920bc6	0.28524607
211	0x3ad380ac	0.001613637
212	0x3c94485a	0.018100906
213	0x3e892af1	0.26790574
214	0xbe8e2320	-0.27761173
215	0xbdb57ca4	-0.08861664
216	0x3e59b462	0.21260217
217	0xbd907f56	-0.070555374
218	0x3da0ec36	0.07857554
219	0x3d40a03e	0.04702782
220	0x3e70b536	0.23506626
221	0x3e45558c	0.19270915
222	0xbe81b1d4	-0.25330985
223	0xbe04f19e	-0.12982795
224	0xbe0c0211	-0.13672663
225	0xbe3b6c37	-0.18303
226	0x3c9da4fb	0.019243708
227	0x3a4f48ba	0.00079072604
228	0x3db4f982	0.08836652
229	0xbe19f3e3	-0.15034442
230	0x3e861c7c	0.26193607
231	0x3daecde1	0.08535362
232	0xbe64200a	-0.22277847
233	0xbdf662fe	-0.120306
234	0xbe0f161c	-0.13973278
235	0x3e66b408	0.22529614
236	0xbe283197	-0.16425167
237	0x3bf588d8	0.0074931197
238	0xbe8b2863	-0.2717925
239	0xbdafe1c6	-0.08587985
240	0xbe387d7b	-0.18016617
241	0x3c27189e	0.01019874
242	0x3e007004	0.1254273
243	0x3d3e6f9a	0.04649315
244	0xbe59bb5f	-0.21262883
245	0xbe21deb6	-0.15807614
246	0x3e994785	0.29937378
247	0x3d26ce5b	0.04072414
248	0xbe830946	-0.25593013
249	0x3dad0626	0.08448438
250	0x3e139a73	0.14414386
251	0xbc75ac0e	-0.014994634
252	0x3e65eb25	0.22452982
253	0xbd237897	-0.039909925
254	0x3db46407	0.08808141
255	0xbdd41762	-0.103560224

functional_9_1/dense_18_1/Add/ReadVariableOp:0 f4 [32]
0	0x3dae8422	0.08521296
1	0xbd4e3892	-0.05034692
2	0x3d65bfd8	0.05609116
3	0xbdbac44e	-0.091194734
4	0x3d0c376d	0.034232546
5	0x3de294ba	0.110635236
6	0x3d9334a2	0.07187773
7	0xbe0d5966	-0.13803634
8	0x3e4d1054	0.2002576
9	0xbd5bebf6	-0.053691827
10	0x3d562726	0.05228343
11	0x3d92eb13	0.07173743
12	0x3c924d25	0.017859051
13	0x3d5b2a0d	0.0535069
14	0x3d9bcea0	0.0760777
15	0x3d39d5a7	0.04536977
16	0xbd917019	-0.07101459
17	0x3cce930a	0.025216598
18	0xbda17c26	-0.078850076
19	0x3d9b82ab	0.07593282
20	0xbe1be225	-0.15222986
21	0x3bd575fa	0.006514308
22	0x3c9cc102	0.019135002
23	0x3d3d9de0	0.04629314
24	0x3c7fffe7	0.015624977
25	0xbd079ff6	-0.033111535
26	0x3d43f29e	0.0478388
27	0x3e36cc04	0.17851263
28	0x3d1aac47	0.037761953
29	0xbc8315d3	-0.016001618
30	0xbd5eeeba	-0.054426886
31	0x3d33e33e	0.043917887

functional_9_1/dense_17_1/Cast/ReadVariableOp:0 f4 [128, 64]
0	0xbde7c608	-0.11317068
1	0x3d6eb7e2	0.058280833
2	0xbcf11a69	-0.029431539
3	0x3b8c50ba	0.0042820843
4	0xbdc80cc5	-0.097680606
5	0x3d357a31	0.044305984
6	0x3de1f3ee	0.11032854
7	0xbcd66cc4	-0.02617491
8	0xbe42c3f4	-0.19020063
9	0xbe478ff3	-0.19488506
10	0xbd461c46	-0.048366807
11	0x3dae1c1b	0.085014544
12	0x3cf84b27	0.030309273
13	0xbe1bfa81	-0.15232278
14	0xbe3b70f8	-0.18304813
15	0x3e440aab	0.19144695
16	0xbd3b5156	-0.045731865
17	0xbcc7baab	-0.024381002
18	0xbe1f9620	-0.15584612
19	0xbb98f43b	-0.0046677864
20	0xbe14156f	-0.14461301
21	0x3de6c844	0.112686664
22	0x3caf1c88	0.02137591
23	0x3d9ecaf0	0.07753551
24	0xbdcff343	-0.1015382
25	0xbd20ab50	-0.039225876
26	0x3db03078	0.08602995
27	0x3dad1abb	0.08452364
28	0xbe104d4e	-0.1409199
29	0x3e5ca45d	0.21547075
30	0xbe180b62	-0.14848092
31	0xbdc03a31	-0.09386099
32	0xbce800f2	-0.028320763
33	0xbd822727	-0.06355124
34	0x3e27b77c	0.16378587
35	0xbe453778	-0.19259441
36	0x3e1cb9ca	0.15305248
37	0x3e145bf7	0.14488207
38	0x3bb456d9	0.005503517
39	0x3da67727	0.08128195
40	0xbd704249	-0.058656964
41	0x3e42a048	0.19006455
42	0xbd94fdb3	-0.07274952
43	0xbd1568dd	-0.03647696
44	0xbd296e73	-0.0413651
45	0xbd9bdd3f	-0.07610559
46	0xbd2a1eea	-0.04153339
47	0xbd8a30d6	-0.06747596
48	0xbd4c0343	-0.049807798
49	0xbdf44dc0	-0.11928892
50	0xbdc62842	-0.09675647
51	0x3e4ea10a	0.20178619
52	0xbe2de927	-0.16983472
53	0xbe3118a7	-0.1729456
54	0xbe45325b	-0.1925749
55	0x3e102db4	0.14079934
56	0x3c5674b7	0.01308935
57	0x3dfb9ff2	0.122863665
58	0xbe050489	-0.12990011
59	0xbd70aa59	-0.058756206
60	0x3dcdd5d8	0.10050553
61	0xbdd22b73	-0.102621935
62	0xbe479787	-0.19491397
63	0x3d14c830	0.036323726
64	0xbdca7c05	-0.09886936
65	0x3dcd0b8f	0.1001197
66	0x3e616208	0.22010052
67	0xbd07a887	-0.033119705
68	0xbddd1850	-0.10795653
69	0x3df49709	0.1194287
70	0x3dfc2c8e	0.12313186
71	0x3e65f647	0.22457229
72	0xbe3e3f5f	-0.18578862
73	0x3dcd0998	0.100115955
74	0xbcb95fe5	-0.022628734
75	0xbd477308	-0.048693687
76	0x3dd82e57	0.105557136
77	0x3e423279	0.18964566
78	0xbcab75dd	-0.020930225
79	0x3e52158a	0.20516029
80	0xbd01d061	-0.031692866
81	0xbdcd2f8b	-0.10018834
82	0x3d90c369	0.070685215
83	0xbe71b463	-0.23603968
84	0x3d54cfac	0.051955864
85	0x3d36492b	0.044503372
86	0xbdad4659	-0.084606834
87	0xbe12c8b8	-0.1433438
88	0xbe8079b2	-0.25092846
89	0xbe8629ec	-0.2620386
90	0xbb44aa4e	-0.0030008736
91	0x3e688068	0.22705233
92	0xbe1192cb	-0.14216153
93	0xbe4ab6fc	-0.19796365
94	0xbdd63294	-0.10458866
95	0xbdc64df7	-0.09682839
96	0xbd86eb78	-0.06587881
97	0x3e83458e	0.25639004
98	0x3d90e584	0.07075027
99	0xbd7510c6	-0.05983045
100	0x3c3174bc	0.010831054
101	0xbdb6c859	-0.08924932
102	0xbd1eb3b9	-0.038745616
103	0xbe4c39da	-0.19943944
104	0x3d1188ed	0.035530973
105	0xbd8d86dc	-0.06910488
106	0xbe6024f7	-0.21889101
107	0xbe77df30	-0.24206233
108	0xbdd521b1	-0.10406817
109	0x3ddbdb92	0.10735239
110	0x3df4ff02	0.119627014
111	0xbe17bb88	-0.14817631
112	0x3e9d2f94	0.30700362
113	0x3e649898	0.22323835
114	0xbd7f358a	-0.06230692
115	0xbd840ed3	-0.0644814
116	0xbcb766d4	-0.0223879
117	0x3e23bde4	0.15990406
118	0x3befa7d6	0.007313709
119	0x3d202f1d	0.03910743
120	0x3d8d59d9	0.06901903
121	0x3e1c1839	0.15243615
122	0x3dc6f2ed	0.09714303
123	0xbe62c441	-0.22145177
124	0x3c041654	0.008061964
125	0x3d0ae5c7	0.03391054
126	0x3cfd2ad8	0.030904219
127	0xbb974938	-0.0046168827
128	0xbd67f2a0	-0.05662787
129	0x3d0a9211	0.033830706
130	0xbe0cf088	-0.1376363
131	0xbc8ad962	-0.01694936
132	0x3de67b55	0.112539925
133	0x3db52d68	0.08846551
134	0xbdcc64c7	-0.09980159
135	0xbd8003a9	-0.06250698
136	0x3dfeb9a7	0.12437754
137	0xbd992def	-0.07479464
138	0xbe4595c2	-0.1929541
139	0xbe51e84f	-0.20498775
140	0x3d556e96	0.052107416
141	0x3d150e85	0.0363908
142	0x3cde2f00	0.02712202
143	0xbe80afa3	-0.25134
144	0xbe4a0733	-0.19729309
145	0x3c7ce8ad	0.015436334
146	0xbca59692	-0.0202134
147	0x3ccf42ca	0.025300402
148	0x3dcafbfc	0.099113435
149	0xbe15f899	-0.14645614
150	0xbd98e961	-0.074663885
151	0x3d85bd27	0.065302186
152	0xbdd15b89	-0.10222537
153	0x3d13889d	0.036018956
154	0x3d259b53	0.04043133
155	0xbe1b6394	-0.15174705
156	0x3d86d150	0.06582892
157	0xbde3ce4c	-0.111233324
158	0xbd0753bc	-0.03303884
159	0xbc02ac27	-0.007975615
160	0xbd137f85	-0.036010284
161	0xbda93d43	-0.08263638
162	0x3d474e47	0.048658635
163	0x3e6a9ca9	0.22911324
164	0xbbd57e84	-0.006515326
165	0xbce43510	-0.027857333
166	0x3e5c638e	0.21522352
167	0x3c26026c	0.010132413
168	0x3e3c3469	0.18379368
169	0xbd2252f5	-0.039629895
170	0xbe197e03	-0.14989476
171	0x3e30b574	0.17256719
172	0xbe35c238	-0.1774987
173	0x3e2ab5db	0.16670935
174	0x3d635d5a	0.05550895
175	0x3e4ca2e0	0.19984007
176	0xbe2e7676	-0.17037377
177	0xbe42f623	-0.19039206
178	0xbe0d009f	-0.13769768
179	0x3d7b0b41	0.06129003
180	0xbe53cd47	-0.20683776
181	0x3acdd5c2	0.0015703964
182	0xbc9a409f	-0.018829642
183	0x3d5b0602	0.053472526
184	0x3d2d1a5f	0.042261478
185	0x3db32a6a	0.08748324
186	0x3dfc2336	0.123114035
187	0xbde59ced	-0.11211572
188	0x3e0d1af9	0.1377982
189	0x3d4b28f3	0.0495996
190	0xbe349141	-0.17633535
191	0xbde1d2ef	-0.110265605
192	0x3e256387	0.16151248
193	0xbe28a9b9	-0.16470994
194	0xbe2f40b6	-0.17114529
195	0xbe0b143f	-0.13581942
196	0x3dbda164	0.092592984
197	0xbd53c20c	-0.05169873
198	0x3e2ab80b	0.1667177
199	0x3dc8e29b	0.098088466
200	0xbbf84e9f	-0.0075777317
201	0x3e465042	0.19366553
202	0x3dc46511	0.095895894
203	0xbdb000a5	-0.08593873
204	0x3e491594	0.19637138
205	0xbd082019	-0.033233736
206	0x3e305dc5	0.1722327
207	0x3e6b7993	0.22995596
208	0xbde08f8c	-0.109648794
209	0xbe264c58	-0.1624006
210	0xbe4b2ff0	-0.19842505
211	0x3dae4205	0.08508686
212	0x3dcc47c5	0.099746265
213	0xbd70c88b	-0.058785003
214	0xbdab0fd1	-0.08352626
215	0x3dd5a02e	0.104309425
216	0x3e163862	0.14669946
217	0xbcb1dc9e	-0.021711644
218	0x3db9f754	0.09080377
219	0x3e4caff5	0.19988997
220	0x3e009eda	0.12560597
221	0xbc8a1f24	-0.016860552
222	0x3c0dbff4	0.008651722
223	0xbdec97d0	-0.115523934
224	0xbdecc0de	-0.11560224
225	0xbdd756ba	-0.10514589
226	0x3d98f6c2	0.0746894
227	0xbe81a56e	-0.25321525
228	0x3d888c6a	0.06667407
229	0x3e1fe236	0.15613636
230	0x3e1f2ce5	0.1554447
231	0x38aca378	8.2320475e-05
232	0x3db0a7a8	0.08625728
233	0x3d958320	0.07300401
234	0x3d00dd45	0.03146102
235	0xbe7197f4	-0.23593122
236	0xbe6b2da6	-0.22966632
237	0x3e58496c	0.21121758
238	0xbdb729a5	-0.0894349
239	0xbe8528c1	-0.26007655
240	0xbe06f1d2	-0.13178185
241	0x3d8e55bd	0.06949947
242	0x3da00da6	0.07815103
243	0xbe6c9962	-0.23105386
244	0x3de9e788	0.11421114
245	0x3e3a8dae	0.18218109
246	0xbdf29b21	-0.11845995
247	0xbc13b2fb	-0.00901484
248	0xbd9a847f	-0.07544803
249	0x3dc65011	0.0968324
250	0x3c4fbdcd	0.012679529
251	0xbe800c8f	-0.2500958
252	0xbdf86e30	-0.121303916
253	0xbdebf1e9	-0.1152075
254	0xbe5dcc7d	-0.21660037
255	0x3d933689	0.07188136

functional_9_1/dense_17_1/Add/ReadVariableOp:0 f4 [64]
0	0x3d9f11dc	0.07767078
1	0xbc755ffc	-0.014976498
2	0x3ccc5ac4	0.024945624
3	0xbdc4ec43	-0.09615376
4	0xbbacaf84	-0.0052699465
5	0xbe0d747d	-0.13813968
6	0x3d96f0e8	0.07370168
7	0x3d81e6d2	0.063428536
8	0x3d5faf1f	0.054610368
9	0x3dcbe418	0.09955615
10	0xbbbaa119	-0.005695474
11	0x3d8d6b80	0.069052696
12	0xbdd4a128	-0.103823006
13	0xbd8510c3	-0.06497338
14	0xbcf41c89	-0.029798763
15	0x3b8d2eea	0.004308571
16	0x3d546eb6	0.051863395
17	0xbcc03726	-0.023463797
18	0xbaa70837	-0.0012743537
19	0x3e06c9e9	0.1316296
20	0x3d874946	0.06605773
21	0xbdee1a43	-0.11626103
22	0x3d9cfdb0	0.076655746
23	0x3d6e4f1e	0.05818092
24	0x3d6fd0a0	0.05854857
25	0x3d3fc9b4	0.04682322
26	0x3e17838d	0.14796276
27	0x3c861dbf	0.016371606
28	0x3d51b83e	0.051201098
29	0x3e31e805	0.17373665
30	0x3da9d4bf	0.08292531
31	0x3d684bd9	0.05671296
32	0xbcaf48b9	-0.021396982
33	0xbd955572	-0.07291688
34	0x3c879abb	0.016553273
35	0xbdd85da8	-0.105647385
36	0x3ca320f3	0.019913172
37	0x3b5600f8	0.0032654386
38	0xbb55e10f	-0.0032635366
39	0x3dd724a4	0.105050355
40	0x3c466e79	0.0121113
41	0xbac5a940	-0.0015080348
42	0x3d82f88a	0.06395061
43	0x3dd0e513	0.101999424
44	0xbdb56c0d	-0.088585
45	0x3d283e64	0.041075125
46	0xbd2901df	-0.04126155
47	0x3dc5adab	0.09652265
48	0xbc90d328	-0.017678812
49	0xbd9729ee	-0.07381044
50	0xbc783e17	-0.015151522
51	0xbdd77d37	-0.1052193
52	0xb9fdf7d4	-0.00048440567
53	0x3cfccddb	0.030859878
54	0x3d7a96fb	0.061179142
55	0xbc726cfb	-0.014796491
56	0x3cae318b	0.021263858
57	0x3dbd10a8	0.092316926
58	0xbdc33971	-0.095324405
59	0x3c96d9f3	0.018414473
60	0x3dc07329	0.09396965
61	0xbdf808bb	-0.1211104
62	0x3b8ae2a5	0.004238444
63	0x3c379d7a	0.011206979

functional_9_1/dense_16_1/Cast/ReadVariableOp:0 f4 [26, 128]
0	0x3b94bc80	0.0045390725
1	0x3ae0a180	0.0017137975
2	0xbe0ae874	-0.13565236
3	0xbdfc4721	-0.12318254
4	0xbd96645d	-0.073433615
5	0x3d5882a4	0.052858964
6	0x3d9b2faa	0.075774506
7	0xbe1a6fc6	-0.150817
8	0xbdaee94c	-0.085405916
9	0xbc976868	-0.018482402
10	0xbdd30dc4	-0.1030536
11	0xbe2425eb	-0.1603009
12	0xbe140335	-0.14454348
13	0x3d682d04	0.056683555
14	0xbe134c1f	-0.14384507
15	0xbde14362	-0.109991804
16	0x3d03b2c8	0.03215292
17	0xbd98a552	-0.07453407
18	0xbc1df010	-0.009639755
19	0xbe2840e6	-0.16431007
20	0xbe0cb968	-0.13742602
21	0x3e3886d7	0.18020187
22	0x3e34b21f	0.17646073
23	0x3dbe2fba	0.09286447
24	0xbe03a924	-0.12857491
25	0x3d473020	0.04862988
26	0x3e0cd279	0.13752164
27	0xbdbd4f01	-0.092435844
28	0xbe1badc3	-0.15203004
29	0x3df3c456	0.119026825
30	0xbe3208ee	-0.17386219
31	0xbd34942c	-0.04408662
32	0xbd3417ec	-0.043968126
33	0xbe0ce370	-0.13758636
34	0xbe08ef29	-0.13372482
35	0x3da95d92	0.082698
36	0xbe19ad66	-0.15007553
37	0x3daafa82	0.08348562
38	0x3e360527	0.17775403
39	0xbe0a4673	-0.13503437
40	0xbbedb8c0	-0.00725469
41	0xbd8e2194	-0.06939998
42	0xbd668c30	-0.056286037
43	0x3e2139e9	0.15744747
44	0xbd8117d0	-0.0630337
45	0xbe061bce	-0.13096544
46	0x3df884b6	0.121346876
47	0xbe2b1474	-0.16707021
48	0x3e3dd2df	0.18537472
49	0x3e1c735f	0.15278386
50	0xbdeac868	-0.11464006
51	0x3c98f180	0.018669844
52	0x3d950956	0.07277171
53	0xbcc9afd0	-0.024619967
54	0x3e3feb07	0.18742
55	0x3de1ce12	0.11025633
56	0x3e10a207	0.14124309
57	0x3e177795	0.1479171
58	0x3db0129a	0.08597298
59	0x3e3c02f7	0.18360506
60	0x3e3e9ffd	0.18615718
61	0xbc795ed0	-0.015220359
62	0x3e44ea3d	0.1922998
63	0xbde532ea	-0.11191352
64	0x3c85b0e0	0.016319692
65	0xbc90c1d8	-0.017670557
66	0xbd39dd68	-0.045377165
67	0x3d8e85d2	0.06959118
68	0x3d712344	0.058871523
69	0x3e3014e5	0.1719547
70	0x3dee7f4a	0.11645372
71	0x3e0ea699	0.1393074
72	0x3dd7abaa	0.10530789
73	0x3cd6a6d8	0.026202604
74	0x3e12cd7f	0.14336203
75	0xbe353d79	-0.17699231
76	0x3dbfac16	0.09358995
77	0xbe3de0ee	-0.18542835
78	0x3d3327d0	0.04373914
79	0xbe084855	-0.13308842
80	0xbdbed890	-0.0931865
81	0x3c3aec30	0.011408851
82	0xbe20c5c0	-0.15700436
83	0x3e32d321	0.17463352
84	0x3e291a77	0.16514002
85	0xbde5dee3	-0.11224153
86	0xbe3896c5	-0.18026264
87	0xbe081a90	-0.13291383
88	0x3de2862a	0.11060746
89	0xbe171319	-0.14753379
90	0x3e45de41	0.19323064
91	0xbe30e5e9	-0.17275204
92	0x3dca30ae	0.09872566
93	0xbd83e890	-0.06440842
94	0x3dba7cea	0.09105857
95	0xbcceedf0	-0.025259942
96	0xbd407a24	-0.046991482
97	0xbd787420	-0.06065762
98	0xbdf17049	-0.11788995
99	0x3e3567df	0.17715405
100	0x3cef94e8	0.029245809
101	0xbe44121f	-0.19147538
102	0xbd6855bc	-0.056722388
103	0xbe440c79	-0.19145383
104	0x3e1ea99b	0.15494387
105	0xbe1ce8ed	-0.15323229
106	0x3d32b0d4	0.043625668
107	0xbe134533	-0.14381866
108	0xbcde7f70	-0.027160376
109	0xbe2070dd	-0.15668054
110	0xbe042ecf	-0.12908481
111	0x3e0c7237	0.13715445
112	0xbddc5a04	-0.107593566
113	0x3d860bd6	0.06545226
114	0x3d78bd64	0.060727492
115	0x3d6fac0c	0.058513686
116	0xbe2b8fbe	-0.16754052
117	0x3e3622c9	0.17786707
118	0x3e312efd	0.17303081
119	0xbdb11805	-0.086471595
120	0xbdeadcc2	-0.114678875
121	0x3e199fb7	0.15002333
122	0x3d0d8e80	0.034559727
123	0xbe0c3dd8	-0.13695467
124	0xbd6f8680	-0.05847788
125	0xbd0b9b38	-0.034083575
126	0x3d037a6c	0.032099172
127	0x3d32b758	0.04363188
128	0xbdd28de7	-0.10280972
129	0xbdef80c3	-0.11694481
130	0x3d3e5ad5	0.046473343
131	0xbcbbef7f	-0.02294135
132	0xbda4fb4b	-0.08055743
133	0x3d5c9df2	0.053861566
134	0xbb5be12d	-0.0033550963
135	0x3e00cffa	0.12579337
136	0x3e14c069	0.14526524
137	0xbd3d479c	-0.04621087
138	0xbdfb042f	-0.12256657
139	0x3e756350	0.23963666
140	0xbdb9c997	-0.09071653
141	0xbe61aa40	-0.22037601
142	0xbddd24bb	-0.107980214
143	0x3d20e661	0.039282206
144	0x3d675adc	0.056483135
145	0xbd311ace	-0.043238454
146	0x3e218ced	0.15776415
147	0x3c1c35e2	0.009534331
148	0x3e2a0909	0.16605009
149	0xbe223737	-0.15841375
150	0x3e3bdcde	0.18345973
151	0xbbc652c0	-0.006052345
152	0xbe7ec5e2	-0.24880174
153	0x3d0071bc	0.031358466
154	0xbd703498	-0.058643907
155	0xbe1fc57d	-0.1560268
156	0xbe163b2c	-0.1467101
157	0xbd69c4e1	-0.057072524
158	0xbdb1d038	-0.08682293
159	0xbd998dde	-0.07497762
160	0xbd837da2	-0.06420447
161	0xbcbcc02d	-0.023040855
162	0x3c6caf9e	0.014446167
163	0x3df43c23	0.11925533
164	0xbddbecf0	-0.107385516
165	0x3d2314c3	0.03981472
166	0x3c6b89d0	0.014376119
167	0xbe64754b	-0.22310369
168	0xbcd5514d	-0.026039744
169	0xbe3b15df	-0.18270062
170	0x3dcb22bb	0.09918734
171	0x3d1b7c50	0.03796035
172	0xbc198c0a	-0.009371767
173	0xbe5cb7f0	-0.21554542
174	0x3d70fa56	0.05883249
175	0xbe28509d	-0.16437002
176	0xbd0908dc	-0.033455715
177	0xbd1d5641	-0.038412336
178	0x3e92cdd5	0.28672662
179	0xbb4a117a	-0.003083317
180	0xbe72f241	-0.23725225
181	0xbc8469f4	-0.016163804
182	0xbe2bede5	-0.16789968
183	0xbd9dbef9	-0.07702441
184	0xbe1046dc	-0.1408953
185	0x3e13fdd6	0.144523
186	0x3dd8b954	0.105822235
187	0xbdc1b9d2	-0.094592705
188	0x3d94ab68	0.07259256
189	0x3e42e75e	0.19033572
190	0xbdc5787a	-0.0964212
191	0xbe69e3fb	-0.22840874
192	0xbe9d078a	-0.30669814
193	0x3d055abc	0.032557234
194	0x3e23a613	0.15981321
195	0x3ddb3022	0.1070254
196	0x3ea6f203	0.32606515
197	0xbe054343	-0.1301394
198	0xbe347237	-0.17621695
199	0x3c79e318	0.015251897
200	0x3dec177c	0.11527917
201	0x3e164976	0.1467646
202	0xbdf3fe4a	-0.11913736
203	0xbdce8cdb	-0.1008546
204	0xbe009430	-0.12556529
205	0xbe18e581	-0.14931299
206	0x3d7e9dfc	0.062162384
207	0xbd9ebcb1	-0.07750834
208	0xbdefcad2	-0.11708607
209	0xbe48f6e0	-0.19625425
210	0x3d40ef82	0.047103412
211	0xbe43b821	-0.19113208
212	0x3d91c781	0.071181305
213	0x3de802dd	0.11328671
214	0xbca0152e	-0.01954135
215	0x3d547000	0.051864624
216	0xbd4cc151	-0.04998905
217	0xbe8317a7	-0.25603983
218	0xbd909c60	-0.07061076
219	0xbe2d4a1f	-0.16922806
220	0xbe4b7e1a	-0.19872323
221	0x3dfe91e8	0.12430173
222	0x3e863444	0.2621175
223	0xbdde9849	-0.1086889
224	0xbdacd372	-0.084387675
225	0x3e0da08e	0.13830778
226	0xbcb56c89	-0.02214648
227	0x3c592280	0.013252854
228	0xbe4dde83	-0.20104413
229	0xbe60419f	-0.21900032
230	0x3df0e97c	0.117632836
231	0xbe38ef99	-0.18060149
232	0x3e30b086	0.17254838
233	0x3cb6d6da	0.022319246
234	0xbe40e082	-0.18835643
235	0xbd091810	-0.033470213
236	0xbe7f9df0	-0.24962592
237	0xbe5b1fc5	-0.21398838
238	0xbdaedfd2	-0.08538784
239	0xbd941ee5	-0.07232455
240	0x3e07bde0	0.13256025
241	0x3d80bf62	0.062865034
242	0xbe31a8e1	-0.17349578
243	0xbe19c6e2	-0.15017274
244	0x3c8d7c16	0.017271083
245	0x3cd5bb7b	0.026090374
246	0xbe25fd44	-0.16209894
247	0xbb8001a2	-0.0039064446
248	0x3d66d377	0.056354012
249	0xbe3a0a1a	-0.18167916
250	0xbdb0b5c6	-0.086284205
251	0x3dcd72f1	0.10031689
252	0xbb5e7680	-0.0033945143
253	0x3e8f129c	0.27943885
254	0x3d04906f	0.032364305
255	0x3d213bc7	0.03936365

functional_9_1/dense_16_1/Add/ReadVariableOp:0 f4 [128]
0	0xbdeaac00	-0.11458588
1	0xbdba4cf9	-0.090967126
2	0x3da9d645	0.08292822
3	0xbd75e4a9	-0.06003252
4	0x3d4d541b	0.050129037
5	0xbd864f22	-0.06558062
6	0xbc1590fa	-0.009128803
7	0xbc7dfc03	-0.015501979
8	0x3ddc0177	0.10742467
9	0x3d0be18b	0.03415064
10	0x00000000	0.0
11	0x3b111e43	0.0022143282
12	0x3cb842d7	0.02249281
13	0xbcafc3d4	-0.021455683
14	0x00000000	0.0
15	0xbbd14dfd	-0.0063874708
16	0xbd74c3a7	-0.0597569
17	0xbdf9d8d4	-0.1219956
18	0x3db70da0	0.08938146
19	0x3d95727b	0.07297226
20	0xbc55451a	-0.013016963
21	0xbd9d98bc	-0.076951474
22	0x3da190a9	0.0788892
23	0xbd919cf4	-0.071100146
24	0xbdab7347	-0.08371597
25	0xbda64e8a	-0.08120449
26	0x00000000	0.0
27	0xbd07554d	-0.033040334
28	0xbdefb709	-0.11704833
29	0x3dedfc18	0.11620349
30	0x3db4c30e	0.08826266
31	0xbdce53dc	-0.10074589
32	0x00000000	0.0
33	0x3df6dc85	0.120537795
34	0x3d835669	0.06412966
35	0x3db02ac8	0.0860191
36	0xbd962dac	-0.0733293
37	0xbddb0a29	-0.10695297
38	0xbc717cc7	-0.014739222
39	0x3dcb23f3	0.09918966
40	0xbd81fa97	-0.06346624
41	0xbd629424	-0.05531706
42	0x3d9ee9b0	0.07759416
43	0xbdbaa72f	-0.09113919
44	0xbdc51a63	-0.096241735
45	0x3d3804cf	0.04492646
46	0x3d75eaef	0.060038503
47	0xbd472523	-0.0486194
48	0x3c49f50c	0.01232649
49	0xbc7a1cea	-0.015265683
50	0x3da7fa10	0.082019925
51	0xbd22962c	-0.039693996
52	0x3dc7ceee	0.097562656
53	0xbd0fed39	-0.035138343
54	0x3c7494a5	0.014928018
55	0x3dcb3d00	0.09923744
56	0x3c4fc970	0.012682304
57	0x3b7217a2	0.0036940356
58	0x3d5ae39a	0.053439714
59	0xbd1dd461	-0.03853262
60	0x3db36216	0.08758943
61	0xbd910421	-0.07080866
62	0x00000000	0.0
63	0xbe009629	-0.12557282
64	0xbd0cf831	-0.03441638
65	0xbc8f69d8	-0.017506525
66	0x3e5e20b6	0.21692166
67	0xbd5479e5	-0.05187406
68	0x3dfba000	0.12286377
69	0xbd75e49e	-0.06003248
70	0x3b8464d0	0.004040338
71	0x3dc4f3dc	0.09616825
72	0x3cdc8ebc	0.02692353
73	0xbda8adb6	-0.08236258
74	0xbd7a070a	-0.06104187
75	0x3d9bd0df	0.076081984
76	0xbdd54877	-0.10414212
77	0x3d5a8c7d	0.053356636
78	0x00000000	0.0
79	0x00000000	0.0
80	0xbcb95a4f	-0.02262607
81	0x3ba018be	0.004885762
82	0xbdcaa0b7	-0.09893935
83	0x3c40c8ca	0.011766622
84	0xbe1c0c71	-0.15239121
85	0x3dacbf49	0.08434922
86	0x3d70f0d9	0.05882344
87	0xbe037e28	-0.12841094
88	0x3d9e5984	0.077319175
89	0xbd84e9d1	-0.064899094
90	0x3d0019b7	0.031274524
91	0x00000000	0.0
92	0xbda51197	-0.080599956
93	0x3d1854e4	0.037190333
94	0x3e110950	0.14163709
95	0x3d99e090	0.07513535
96	0xbc9284c4	-0.017885573
97	0xbd80c08f	-0.06286728
98	0xbdb0de52	-0.08636154
99	0x00000000	0.0
100	0xbd753177	-0.059861626
101	0x3da27425	0.07932309
102	0xbd9ff00e	-0.07809459
103	0xbdbf4c6a	-0.09340747
104	0x3db87507	0.09006696
105	0xbdce3f5e	-0.1007068
106	0xbc9f8d2b	-0.019476494
107	0xbd81cbf0	-0.06337726
108	0xbd2e5d08	-0.04256919
109	0xbd75e593	-0.060033392
110	0x3d0f6abf	0.03501391
111	0xbe13bba2	-0.14427045
112	0xbd44c490	-0.04803902
113	0x00000000	0.0
114	0x3c75ca63	0.015001866
115	0xbdd45828	-0.10368377
116	0x3d88ee5b	0.06686088
117	0x3da71313	0.08157935
118	0xbd75e56d	-0.06003325
119	0xbdc89a14	-0.09795013
120	0x3d3b88e7	0.045784857
121	0x00000000	0.0
122	0x3dc68dd3	0.096950196
123	0xbd9b9426	-0.075966164
124	0x00000000	0.0
125	0x3db8b7cc	0.090194315
126	0x3cc46acb	0.023976704
127	0xbdb208f9	-0.08693118

functional_9_1/batch_normalization_14_1/batchnorm/sub:0 f4 [32]
0	0xbef30e8e	-0.47472042
1	0xbdf06300	-0.11737633
2	0xbe8e0ed4	-0.27745688
3	0xbe170351	-0.14747359
4	0xbececd05	-0.40390792
5	0xbe7143f0	-0.23561072
6	0xbdd5b588	-0.10435015
7	0xbe2c4d09	-0.16826262
8	0xbe591b6c	-0.21201867
9	0xbf0d4249	-0.5517927
10	0xbe1ed4aa	-0.15510812
11	0xbe188a5e	-0.14896533
12	0xbecfa212	-0.40553337
13	0xbe9657fc	-0.29364002
14	0xbe407050	-0.18792844
15	0xbe6b9a8e	-0.23008177
16	0xbe9c853d	-0.30570403
17	0xbf0d724d	-0.55252534
18	0xbebee147	-0.37281248
19	0xbe560174	-0.20898992
20	0xbef977dc	-0.48724258
21	0xbe0ce068	-0.13757479
22	0xbefabe58	-0.48973346
23	0xbdd63cee	-0.1046084
24	0xbefdbf08	-0.49559808
25	0xbe6f843e	-0.2339029
26	0xbf012b70	-0.50456905
27	0xbe4f22c4	-0.20228106
28	0xbe619caf	-0.22032426
29	0xbf083d27	-0.5321831
30	0xbe146877	-0.14492975
31	0xbe9d90ad	-0.3077444

functional_9_1/batch_normalization_14_1/batchnorm/mul:0 f4 [32]
0	0x3f384e7b	0.7199475
1	0x3f28a5b1	0.65877825
2	0x3f29d20f	0.6633615
3	0x3f855b5c	1.0418506
4	0x3f52177c	0.82067084
5	0x3f6980ea	0.9121233
6	0x3f5e085f	0.86731523
7	0x3f6596a0	0.8968296
8	0x3f383320	0.7195301
9	0x3f32a8fe	0.6978911
10	0x3f5d232d	0.863818
11	0x3f36dc80	0.71430206
12	0x3f5a8088	0.85352373
13	0x3f796db5	0.97433025
14	0x3f4311c6	0.76198995
15	0x3f3934f5	0.7234643
16	0x3f5e3596	0.86800516
17	0x3f49324b	0.78592366
18	0x3f5739d4	0.84072614
19	0x3f627112	0.8845378
20	0x3f69527a	0.91141474
21	0x3f7bc10e	0.98341453
22	0x3f31ef51	0.6950579
23	0x3f378507	0.7168736
24	0x3f6b1073	0.91821975
25	0x3f6498b9	0.89295536
26	0x3f0ab11b	0.5417649
27	0x3f338acc	0.7013366
28	0x3f416375	0.75542384
29	0x3f3bcd7d	0.73360425
30	0x3f3cf525	0.7381156
31	0x3f4e6217	0.80618423

functional_9_1/batch_normalization_13_1/batchnorm/sub:0 f4 [64]
0	0xbf0b02e3	-0.5430128
1	0xbeabfe86	-0.33592623
2	0xbec82efa	-0.3909834
3	0xbe956878	-0.29181266
4	0xbee27779	-0.44231775
5	0xbecaae72	-0.39586216
6	0xbeee00a3	-0.4648486
7	0xbec91f8b	-0.39281878
8	0xbefc08e6	-0.4922554
9	0xbf1a6a85	-0.60318786
10	0xbea05f7f	-0.31322858
11	0xbef9a0d0	-0.48755503
12	0xbe75cd88	-0.24004185
13	0xbe9e9090	-0.30969667
14	0xbec12c0b	-0.37728915
15	0xbeee893b	-0.46589074
16	0xbe7ed824	-0.24887139
17	0xbe810589	-0.25199535
18	0xbebaefce	-0.3651108
19	0xbf014b38	-0.505054
20	0xbed75f9f	-0.4206514
21	0xbf118c80	-0.5685501
22	0xbecb9daa	-0.39768726
23	0xbeba9cce	-0.36447757
24	0xbf132020	-0.57470894
25	0xbee4d861	-0.44696334
26	0xbecde70e	-0.40215343
27	0xbeb1ec35	-0.34750524
28	0xbedc0458	-0.42972064
29	0xbf0b7374	-0.5447304
30	0xbe94aaa4	-0.29036438
31	0xbef2a68d	-0.47392693
32	0xbe4cc77c	-0.19997972
33	0xbe9ec3c8	-0.31008744
34	0xbefd15db	-0.49430737
35	0xbea5ab5f	-0.32357308
36	0xbedf44c0	-0.4360714
37	0xbef0d5df	-0.4703817
38	0xbebc700e	-0.3680424
39	0xbed8b038	-0.42321944
40	0xbed76ee4	-0.4207679
41	0xbe5d2fb3	-0.21600227
42	0xbf17ebea	-0.5934435
43	0xbf0e879e	-0.55675685
44	0xbf0d9432	-0.55304253
45	0xbee29c5e	-0.44259924
46	0xbebdd6fa	-0.37078077
47	0xbef16299	-0.47145537
48	0xbec3c193	-0.38233623
49	0xbe9cc555	-0.30619302
50	0xbed72daa	-0.42027026
51	0xbeb0ace6	-0.3450691
52	0xbf023344	-0.50859475
53	0xbea5dfaf	-0.3239722
54	0xbeca25d3	-0.39481983
55	0xbed4e281	-0.4157906
56	0xbea857fa	-0.3287962
57	0xbec4f6b4	-0.3846947
58	0xbe785115	-0.2424968
59	0xbf0ef405	-0.55841094
60	0xbec4a1bb	-0.3840464
61	0xbe4ee3d4	-0.20204097
62	0xbeab121e	-0.3341226
63	0xbed912cb	-0.4239715

functional_9_1/batch_normalization_13_1/batchnorm/mul:0 f4 [64]
0	0x3f7796c9	0.96714455
1	0x3fa83380	1.3140717
2	0x3f856608	1.0421762
3	0x3f86a032	1.0517638
4	0x3f4b65b1	0.79452044
5	0x3f9a1099	1.2036315
6	0x3f579957	0.84218353
7	0x3f811c37	1.0086735
8	0x3f7f2b01	0.99674994
9	0x3f8959b9	1.0730506
10	0x3f726a8f	0.94693846
11	0x3f69a011	0.91259867
12	0x3f8e08b1	1.1096402
13	0x3f8b0133	1.0859741
14	0x3fa25dda	1.2684891
15	0x3f7781b1	0.9668227
16	0x3f83d3e2	1.0299037
17	0x3f66c2db	0.90141076
18	0x3f735511	0.95051676
19	0x3f674b39	0.90349156
20	0x3f586513	0.84529227
21	0x3f86b2fa	1.0523369
22	0x3f538571	0.8262549
23	0x3f8191f8	1.0122671
24	0x3f67be35	0.9052461
25	0x3f8762c2	1.0577013
26	0x3f435822	0.76306355
27	0x3f6c2904	0.92250085
28	0x3f840152	1.0312903
29	0x3f80c13c	1.005897
30	0x3f830d62	1.0238459
31	0x3f6dacab	0.92841595
32	0x3f8996ba	1.0749123
33	0x3f8f03ee	1.1173074
34	0x3f563c06	0.8368534
35	0x3f8651ec	1.049375
36	0x3f81a97d	1.0129849
37	0x3f7f3fe2	0.9970685
38	0x3f733fb3	0.9501907
39	0x3f60c0ad	0.87794
40	0x3f82d8a2	1.0222361
41	0x3f856c97	1.0423764
42	0x3f76cba5	0.96404487
43	0x3f6d203e	0.9262732
44	0x3f570ee3	0.8400709
45	0x3f54c1c5	0.8310817
46	0x3f7cb1e2	0.9870893
47	0x3f5d24b8	0.86384153
48	0x3f89627b	1.0733179
49	0x3f838e33	1.0277771
50	0x3f83eea9	1.0307208
51	0x3fa8f1e9	1.3198825
52	0x3f6d49d0	0.92690754
53	0x3f69f8dd	0.9139536
54	0x3f9340ad	1.1504112
55	0x3f8332fa	1.0249932
56	0x3f32ec44	0.6989176
57	0x3f6ad92c	0.9173763
58	0x3f7302e5	0.9492629
59	0x3f6947ea	0.9112536
60	0x3f823559	1.017253
61	0x3f9aa0bc	1.2080302
62	0x3f4bd44d	0.7962082
63	0x3f659c3b	0.89691514

functional_9_1/batch_normalization_12_1/batchnorm/sub:0 f4 [128]
0	0xbd25882c	-0.040413067
1	0xbd878f7f	-0.066191666
2	0xbe91a8ab	-0.28448996
3	0x3db0e05b	0.086365424
4	0xbec33778	-0.38128257
5	0xbc88d937	-0.016705139
6	0xbb2817a0	-0.0025648847
7	0xbeb3a818	-0.35089183
8	0xbdf2c601	-0.118541725
9	0xbcce4290	-0.025178224
10	0x3c1c2841	0.009531082
11	0xbe81e627	-0.25370905
12	0xbeb6d370	-0.3570819
13	0xbdca0294	-0.09863773
14	0xbd700087	-0.058594253
15	0xbe249379	-0.16071881
16	0xbd26eaf1	-0.0407514
17	0x3ccbca1c	0.024876647
18	0xbe80d4c7	-0.25162336
19	0xbe8fcc4c	-0.28085554
20	0xbe55b6a7	-0.20870458
21	0xbc36a6b3	-0.011148143
22	0xbe87bfd8	-0.26513553
23	0xbe827626	-0.25480765
24	0x3b5f6727	0.0034088583
25	0x3d18d146	0.037308954
26	0x3ddef5d8	0.10886735
27	0xbd9a8274	-0.07544413
28	0x3c7899af	0.01517336
29	0xbeb157b0	-0.34637213
30	0xbed6cbbe	-0.41952318
31	0x3d520e96	0.05128344
32	0xbc6b45ac	-0.014359873
33	0xbea8be99	-0.32957914
34	0xbc7ec0b0	-0.01554887
35	0xbf128e71	-0.572486
36	0x3bef7c40	0.007308513
37	0xbcce0bf4	-0.025152184
38	0xbedfd02e	-0.43713516
39	0xbed16b31	-0.40902093
40	0x3dc65a92	0.09685244
41	0xbcd493a0	-0.0259493
42	0xbf245804	-0.641968
43	0xbe4c036b	-0.19923179
44	0xbda151c6	-0.07876925
45	0xbe134ad2	-0.1438401
46	0xbe929d94	-0.28635848
47	0xbcb63bb4	-0.022245266
48	0xbdfb2063	-0.12262037
49	0xbdbaecae	-0.09127174
50	0xbea6e028	-0.32592893
51	0xbe446545	-0.19179256
52	0xbe4c0ec2	-0.19927505
53	0xbe24d8ac	-0.16098279
54	0x3d4b88d8	0.04969105
55	0xbe9c36ae	-0.30510467
56	0xbe10b11c	-0.14130062
57	0xbe3b0a8a	-0.18265739
58	0xbe8bd6ce	-0.2731232
59	0xbe2aca10	-0.16678643
60	0xbec5e34f	-0.38649985
61	0xbe4235da	-0.18965855
62	0x3db6c942	0.08925106
63	0xbd2cfc82	-0.042232998
64	0x3d54e467	0.051975634
65	0xbe90eb1e	-0.2830438
66	0xbea62146	-0.3244726
67	0xbe8e487a	-0.2778967
68	0xbeae30fc	-0.34021747
69	0x3ded81f1	0.1159705
70	0xbe5f6463	-0.21815638
71	0xbd7a498a	-0.06110529
72	0xbeb4ca28	-0.35310483
73	0xbd9e2ab9	-0.077229924
74	0x3dc82e06	0.09774403
75	0xbe80a5c7	-0.25126478
76	0xbc62d73e	-0.013845263
77	0xbea1bf56	-0.3159129
78	0xbd0431ee	-0.03227418
79	0x3d13cac7	0.036082055
80	0xbe837d76	-0.25681657
81	0xbe833305	-0.25624862
82	0xbdc56234	-0.096378714
83	0xbdfbb65b	-0.12290641
84	0xbd6a8b51	-0.05726177
85	0xbd9f29a4	-0.07771614
86	0xbe7825f8	-0.24233234
87	0xbd482b2f	-0.048869308
88	0xbeb39411	-0.35073903
89	0xbd8b76f0	-0.06809795
90	0xbd062720	-0.032752156
91	0xbdc49f9a	-0.09600754
92	0x3ddac34f	0.106817834
93	0xbeadcbe8	-0.3394463
94	0xbebdbd6f	-0.3705859
95	0xbe5aaa96	-0.21354136
96	0xbd18904c	-0.037246987
97	0xbd83452a	-0.064096764
98	0x3dcf884b	0.10133418
99	0xbbf5dd9d	-0.007503225
100	0xbd0e5909	-0.03475288
101	0xbd74bcac	-0.059750244
102	0xbd4f7a15	-0.050653536
103	0xbda2b40e	-0.07944499
104	0xbe77aa38	-0.24186027
105	0xbdc0ac8e	-0.09407912
106	0xbda47791	-0.08030618
107	0xbe5062dc	-0.20350212
108	0x3c1f574b	0.009725402
109	0xbd0f39c8	-0.034967214
110	0xbe8c05b1	-0.27348092
111	0xbcf143f6	-0.029451352
112	0x3d138232	0.036012836
113	0xbd8199ea	-0.06328185
114	0xbd54ee42	-0.051985033
115	0x3c2f680c	0.010705959
116	0xbeb9ef0a	-0.36315185
117	0xbec79ac5	-0.38985267
118	0xbc034a3b	-0.008013303
119	0x3dd68cc0	0.10476065
120	0xbdb1b9fb	-0.08678051
121	0xbd9651bc	-0.07339808
122	0xbe30e624	-0.17275292
123	0xbd144c0e	-0.036205344
124	0x3da7655e	0.08173631
125	0xbea1452a	-0.3149808
126	0xbe203f02	-0.15649036
127	0x3d2c154e	0.042012505

functional_9_1/batch_normalization_12_1/batchnorm/mul:0 f4 [128]
0	0x3fb570b7	1.4175023
1	0x3fb9dcc7	1.4520501
2	0x3fc547aa	1.5412495
3	0x3fb3a73d	1.4035412
4	0x3fb8ab9a	1.4427369
5	0x3fbdb180	1.4819794
6	0x3fbf78a7	1.4958695
7	0x3fd4b4b2	1.6617644
8	0x3fbf232e	1.4932611
9	0x3fc1ae73	1.5131363
10	0x3fbf1ffb	1.4931635
11	0x3fcbcfd8	1.5922804
12	0x3fb12031	1.3837949
13	0x3fc2537a	1.5181725
14	0x3fbf1ffb	1.4931635
15	0x3fbe376d	1.4860665
16	0x3fadfde4	1.3593106
17	0x3fbe4747	1.4865502
18	0x3fb3a801	1.4035646
19	0x3fb49af9	1.4109794
20	0x3fb7c33e	1.4356458
21	0x3fb29257	1.3950909
22	0x3fbc5f14	1.4716516
23	0x3fc11474	1.5084367
24	0x3fb7c0ba	1.435569
25	0x3fcb733e	1.5894544
26	0x3fbf1ffb	1.4931635
27	0x3fba1d19	1.454013
28	0x3faf3668	1.3688478
29	0x3fbf5512	1.4947836
30	0x3fb21b9b	1.3914675
31	0x3fc6f2c9	1.5542842
32	0x3fbf1ffb	1.4931635
33	0x3fc1a1e5	1.5127531
34	0x3fc0ade3	1.5053066
35	0x3fd68164	1.6758237
36	0x3fac7cd5	1.3475596
37	0x3faeb72c	1.364965
38	0x3fac72e8	1.3472567
39	0x3fb854f4	1.4400926
40	0x3fc282d5	1.5196177
41	0x3fcaf78f	1.5856799
42	0x3fc40c7e	1.5316312
43	0x3fcc13b4	1.5943513
44	0x3fa81d49	1.3133937
45	0x3fc36789	1.5265971
46	0x3fc84d37	1.5648564
47	0x3fb89979	1.4421836
48	0x3fb44b89	1.4085552
49	0x3faccfad	1.3500878
50	0x3fb58569	1.4181339
51	0x3fdbbcd3	1.7167
52	0x3fad630d	1.3545853
53	0x3fc6353d	1.5484997
54	0x3fc37a75	1.5271746
55	0x3fb8e8c4	1.4446034
56	0x3fcc567b	1.5963892
57	0x3fc5e636	1.546088
58	0x3fbf193d	1.4929577
59	0x3fd2fbbc	1.6483073
60	0x3fba4ca4	1.4554639
61	0x3fc86ab6	1.5657566
62	0x3fbf1ffb	1.4931635
63	0x3fbd91b6	1.4810092
64	0x3faaf953	1.3357338
65	0x3fcb5d3b	1.5887827
66	0x3fcb4dd9	1.5883132
67	0x3fab7e15	1.3397852
68	0x3fc43ab9	1.5330421
69	0x3fb3a85b	1.4035753
70	0x3fba1de5	1.4540373
71	0x3fd00444	1.6251302
72	0x3fc7b38f	1.5601672
73	0x3fce33c8	1.6109552
74	0x3fb4278c	1.4074569
75	0x3fbc6a6c	1.4719977
76	0x3fafd248	1.3736048
77	0x3fc4f945	1.5388571
78	0x3fbf1ffb	1.4931635
79	0x3fbf1ffb	1.4931635
80	0x3fbe8654	1.4884744
81	0x3fc9d68b	1.5768598
82	0x3fbd3199	1.4780761
83	0x3fb152a0	1.385334
84	0x3fc5a3f6	1.5440662
85	0x3fd321a6	1.6494644
86	0x3fab3397	1.3375119
87	0x3fc17a97	1.5115536
88	0x3fab1fb7	1.3369054
89	0x3fca57c1	1.580803
90	0x3fcbff08	1.5937204
91	0x3fbf1ffb	1.4931635
92	0x3faeed72	1.3666213
93	0x3fd4acf0	1.6615276
94	0x3fd8a0b3	1.6924042
95	0x3fbf2324	1.4932599
96	0x3fac4a64	1.3460202
97	0x3fa8dc9a	1.3192322
98	0x3fbe5036	1.4868228
99	0x3fbf1ffb	1.4931635
100	0x3fcb567b	1.5885767
101	0x3fc7cbe5	1.5609099
102	0x3faf0cf7	1.3675832
103	0x3fc42dd2	1.5326483
104	0x3faf22d5	1.3682505
105	0x3fba6ea6	1.4565017
106	0x3fb5cb65	1.4202696
107	0x3fa60642	1.297066
108	0x3fb4474e	1.408426
109	0x3fb3a701	1.403534
110	0x3faa342f	1.3297175
111	0x3fa58df7	1.2933949
112	0x3fae8b8e	1.3636339
113	0x3fbf1ffb	1.4931635
114	0x3fbb6bd3	1.464228
115	0x3fb424fb	1.4073786
116	0x3fc29139	1.5200568
117	0x3fb70eb7	1.4301366
118	0x3fb3a6e7	1.403531
119	0x3fb3c322	1.4043925
120	0x3fbb475d	1.4631153
121	0x3fbf1ffb	1.4931635
122	0x3fc4f217	1.538638
123	0x3fae0147	1.359414
124	0x3fbf1ffb	1.4931635
125	0x3fce3c60	1.6112175
126	0x3fb155ff	1.3854369
127	0x3fc20713	1.5158409
