models/Postojna/speed/Postojna_speed_model.onnx (onnx, 61123 bytes, 13 tensors)

functional_9_1/dense_19_1/Cast/ReadVariableOp:0 f4 [32, 1]
0	0xbd7f1dbf	-0.062284227
1	0xbb718320	-0.0036851838
2	0xbe1802f4	-0.14844877
3	0xbd1bfc09	-0.038082156
4	0x3dc0db27	0.094168
5	0xbd883866	-0.06651382
6	0x3cca4bf8	0.024694428
7	0x3d8a4aab	0.06752523
8	0xbd44763b	-0.047964316
9	0x3ddf9d57	0.10918682
10	0x3e183d9c	0.14867252
11	0xbd812c1b	-0.063072406
12	0xbc68ebe1	-0.014216394
13	0x3d88a00f	0.06671154
14	0x3d28beb7	0.041197505
15	0x3d80d317	0.06290262
16	0xbd7272c8	-0.059191495
17	0xbdee3006	-0.116302535
18	0x3e2f6b18	0.17130697
19	0x3d50a00a	0.050933875
20	0x3dd3be4c	0.103390306
21	0xbd2c5c9a	-0.0420805
22	0xbc31c880	-0.010851026
23	0xbbd19416	-0.006395827
24	0x3d1be8ca	0.0380638
25	0x3c54279b	0.012948896
26	0xbe32a508	-0.17445767
27	0xbe02f362	-0.12788156
28	0x3e165886	0.14682207
29	0x3e13e052	0.1444104
30	0xbdcf9153	-0.1013514
31	0xbdd6c3eb	-0.10486587

functional_9_1/dense_18_1/Cast/ReadVariableOp:0 f4 [64, 32]
0	0x3e02793a	0.12741557
1	0x3e0be184	0.13660246
2	0xbe2103af	-0.15724061
3	0xbe28ba20	-0.16477251
4	0x3b99f1d6	0.0046980185
5	0x3e1e2a87	0.1544591
6	0xbe131d81	-0.14366724
7	0xbe470f38	-0.19439399
8	0xbe0f26a6	-0.13979587
9	0x3e7f7745	0.24947841
10	0x3d84c2d2	0.064824715
11	0xbd2bb8f6	-0.04192444
12	0xbdd3917b	-0.103304826
13	0x3d1d9674	0.03847356
14	0x3e89c3a6	0.2690708
15	0xbc132caa	-0.008982817
16	0x3d858cec	0.06521019
17	0x3d89bfdd	0.06726048
18	0x3d12ebea	0.035869516
19	0x3d9196f3	0.071088694
20	0xbe2b1028	-0.16705382
21	0x3e0bffdd	0.13671823
22	0xbe6dba15	-0.23215516
23	0xbdb47b1a	-0.08812542
24	0x3e8d4b80	0.27596664
25	0x3e07e1bd	0.13269706
26	0xbe889ed4	-0.26683676
27	0xbaf3dba2	-0.0018604884
28	0x3e070871	0.13186814
29	0x3ced9768	0.02900286
30	0x3d7556ad	0.059897114
31	0x3e274435	0.16334613
32	0x3cb5461d	0.02212816
33	0xbe905cba	-0.28195745
34	0x3e531fe0	0.20617628
35	0x3a4fe474	0.00079304655
36	0x3e20669e	0.15664145
37	0xbc90f429	-0.01769455
38	0xbdf7e18c	-0.121035665
39	0xbdc0d812	-0.09416212
40	0x3eaf7793	0.34270915
41	0xbe9f92c9	-0.31166676
42	0x3e2b4538	0.16725624
43	0xbd1b5d94	-0.03793104
44	0x3e13d66d	0.14437266
45	0xbe1f610b	-0.15564363
46	0x3d1b06e1	0.037848357
47	0xbe8ee67a	-0.27910215
48	0xbcfbf059	-0.030754255
49	0xbcc52a4c	-0.02406802
50	0x3e9415ce	0.28922886
51	0xbe835da2	-0.25657374
52	0x3d43e20b	0.047822993
53	0xbe60afce	-0.21942064
54	0x3cab2320	0.020890772
55	0x3e3e9ee5	0.18615301
56	0xbd13f900	-0.036126137
57	0x3e8f5b4b	0.27999339
58	0x3cc4c19f	0.024018107
59	0x3e35edf9	0.1776656
60	0xbe00cdbd	-0.12578483
61	0x3e182f6a	0.14861837
62	0x3dc5444a	0.09632166
63	0xbe1226f2	-0.14272669
64	0x3e93efc3	0.2889386
65	0xbc737469	-0.014859297
66	0xbddae2e4	-0.10687807
67	0x3cc26666	0.023730468
68	0x3e1ca5bb	0.15297596
69	0xbcaf79c4	-0.021420367
70	0xbe1a7d7d	-0.15086932
71	0xbd75bf2f	-0.05999678
72	0xbe6ef37d	-0.23335071
73	0xbd41cde2	-0.047315486
74	0xbbd3300c	-0.0064449366
75	0xbe36181b	-0.17782633
76	0x3e672d8c	0.22575969
77	0x3e8416ea	0.25798732
78	0x3e4a4c08	0.19755566
79	0xbe8d6d6b	-0.27622542
80	0x3ec3c04f	0.38232657
81	0x3d72911b	0.059220415
82	0x3e0544fe	0.130146
83	0x3e97bd21	0.2963648
84	0x3b91762a	0.004439135
85	0xbe709ac8	-0.23496544
86	0x3e8d8bf1	0.2764583
87	0x3d5ac7b4	0.053413108
88	0xbd17c6ea	-0.037054934
89	0xbea033b9	-0.3128946
90	0xbd89ef43	-0.06735089
91	0x3dce87dc	0.10084507
92	0x3e254b3c	0.16141981
93	0x3d8b3b80	0.06798458
94	0xbe3e292b	-0.18570392
95	0xbd05eacc	-0.032694623
96	0x3cdb389f	0.026760397
97	0x3dc6c338	0.09705204
98	0x3e7c2329	0.24622788
99	0x3e1baaf9	0.1520194
100	0xbe2ed8ec	-0.17074937
101	0x3d97b931	0.07408369
102	0x3d1be210	0.038057387
103	0x3dfb4d0a	0.122705534
104	0xbe309949	-0.17245974
105	0x3de12ded	0.10995088
106	0x3eaf4f4d	0.3424019
107	0x3e3692ac	0.17829388
108	0xbe859f19	-0.26097944
109	0x3d91f26d	0.07126317
110	0x3df20f29	0.11819298
111	0x3ebaf7de	0.36517233
112	0x3d5e1949	0.054223333
113	0x3d8e0d4f	0.06936132
114	0xbe141a5b	-0.14463179
115	0xbd01fdd9	-0.03173623
116	0xbdf0356a	-0.11728938
117	0xbe28be20	-0.16478777
118	0xbe63ab1c	-0.22233242
119	0xbd3f5385	-0.04671051
120	0xbd37697f	-0.044778343
121	0x3da402ae	0.080083236
122	0xbdc11efc	-0.09429738
123	0xbd1dfd1f	-0.038571473
124	0xbd64de8b	-0.055876296
125	0xbe240a2a	-0.16019502
126	0x3e5581bb	0.2085027
127	0x3d886f16	0.06661813
128	0xbe93bfc4	-0.28857243
129	0xbb623610	-0.0034517087
130	0x3e0d3ca8	0.1379267
131	0xbe171f43	-0.14758019
132	0xbe1e925c	-0.15485519
133	0xbe90d67e	-0.28288645
134	0xbe821afb	-0.2541121
135	0xbc5dee00	-0.013545513
136	0xbe205477	-0.15657221
137	0xbe749e63	-0.23888545
138	0x3e423221	0.18964435
139	0x3e83d9db	0.25752148
140	0xbd1e0862	-0.038582213
141	0x3d9e359f	0.07725071
142	0x3bf0baeb	0.007346501
143	0xbdba1a31	-0.09087027
144	0xbdfc4baf	-0.12319123
145	0x3e30f05e	0.17279193
146	0x3e47fd6b	0.19530265
147	0x3dd36e32	0.103237525
148	0x3e35aa31	0.17740704
149	0xbc333405	-0.010937695
150	0xbe201293	-0.15632086
151	0x3e16bc40	0.14720249
152	0x3e3d4ba9	0.18485893
153	0x3db67cfd	0.089105584
154	0xbc81523b	-0.01578628
155	0xbd86b3be	-0.06577252
156	0xbe088f9d	-0.13336034
157	0xbe9aa009	-0.30200222
158	0xbdd49371	-0.10379685
159	0xbe6362a3	-0.22205596
160	0x3e44dbe4	0.19224507
161	0x3dbda4b2	0.09259929
162	0x3d73aff3	0.05949397
163	0xbd8425c4	-0.06452516
164	0x3e3a3393	0.18183737
165	0xbcfc7e8d	-0.030822063
166	0xbdd4bb85	-0.10387329
167	0xbdfd7b4e	-0.12377034
168	0x3c0355dd	0.008016077
169	0xbc8923c6	-0.01674069
170	0x3e3c1bc0	0.18369961
171	0x3d861e56	0.06548755
172	0x3db0ae51	0.08626998
173	0x3cf88b5b	0.030339887
174	0xbc7a228e	-0.015267028
175	0x3d7aa04c	0.061188027
176	0xbce8804d	-0.028381491
177	0xbe92ce77	-0.28673145
178	0xbe0796b3	-0.13241081
179	0x3d7d2503	0.061802875
180	0x3e4a3805	0.19747932
181	0xbe38c288	-0.18042958
182	0x3dca186d	0.0986794
183	0x3e1a709b	0.15082018
184	0xbe3e9e1b	-0.18615
185	0xbe7d22c0	-0.24720287
186	0x3b6004d2	0.003418256
187	0x3e51368e	0.20430967
188	0x3e20a2ee	0.15687153
189	0xbe7918a2	-0.24325803
190	0x3e484ea4	0.19561249
191	0xb9c90fda	-0.00038349518
192	0x3e41f20d	0.18939991
193	0x3e014456	0.12623724
194	0x3e5b8846	0.21438703
195	0x3df2bfd3	0.11852994
196	0xbeb6a713	-0.35674343
197	0xbe06e526	-0.1317335
198	0x3e5bbbe8	0.214584
199	0x3df4516c	0.119295925
200	0x3dcf6d04	0.10128215
201	0x3d066947	0.032815244
202	0x3d56c318	0.05243215
203	0x3e650758	0.22366083
204	0x3e802088	0.2502482
205	0x3d398176	0.04528948
206	0xbe8211d7	-0.25404236
207	0x3e204a15	0.1565326
208	0xbd9acc88	-0.075585425
209	0x3e68c814	0.22732574
210	0xbe6ed29e	-0.23322532
211	0x3e899a99	0.2687576
212	0xbd4db734	-0.050223544
213	0x3a981b1c	0.0011604759
214	0xbb8a1be8	-0.0042147525
215	0xbda1a6aa	-0.07893117
216	0x3e665818	0.22494543
217	0xbce7cb22	-0.028295103
218	0xbc032cd7	-0.008006296
219	0xbe081ffc	-0.13293451
220	0xbd863221	-0.0655253
221	0x3ea958ef	0.33075663
222	0xbb2df116	-0.0026541403
223	0x3da29958	0.07939404
224	0xbe56a8f3	-0.20962887
225	0xbd0731a4	-0.033006325
226	0xbe1f1ec6	-0.15539083
227	0xbe3c213b	-0.18372051
228	0xbe8f26e6	-0.27959365
229	0x3df44b3a	0.11928411
230	0xbe526885	-0.20547684
231	0xbde51362	-0.111853376
232	0x3e2ced3e	0.16887376
233	0xbe35dc64	-0.17759854
234	0x3e03175d	0.12801881
235	0x3e85351b	0.2601708
236	0x3cb1422a	0.021637995
237	0x3e08c952	0.13358048
238	0xbd931ee2	-0.07183625
239	0xbe40cfa3	-0.18829207
240	0xbda4e901	-0.080522545
241	0xbe152869	-0.14566197
242	0x3d141b00	0.03615856
243	0xbdf55840	-0.11979723
244	0x3e5c3897	0.21505962
245	0xbe688604	-0.22707373
246	0x3e6f850c	0.23390597
247	0xbe9071da	-0.28211862
248	0x3dc5cc71	0.09658135
249	0x3df8199c	0.121142596
250	0x3dec3e56	0.11535327
251	0x3d1af220	0.037828565
252	0xbe0b84cc	-0.13624877
253	0xbd0428cd	-0.032265473
254	0x3e20714e	0.15668222
255	0xbe4b081b	-0.1982731

functional_9_1/dense_18_1/Add/ReadVariableOp:0 f4 [32]
0	0x3d752054	0.059845284
1	0xbdd9f3c3	-0.10642197
2	0xbc5ba5ce	-0.01340623
3	0xbd1045f3	-0.03522296
4	0x3dc356c5	0.09538034
5	0xbb9f0441	-0.004852802
6	0xbd4b2a75	-0.049601037
7	0x3c597137	0.013271621
8	0x3c8cde50	0.01719585
9	0x3cf4013b	0.029785743
10	0x3e3b930f	0.18317817
11	0x3cc08a7f	0.02350354
12	0x3da03d1c	0.07824156
13	0x3e0dcd55	0.13847859
14	0x3d72f080	0.05931139
15	0x3d7bc7a5	0.061469693
16	0x3d730d69	0.05933896
17	0x3dff012f	0.12451398
18	0xbd884df3	-0.06655493
19	0xbc45ad73	-0.012065279
20	0x3c896c12	0.016775165
21	0xbc9b9ee3	-0.018996662
22	0xbd5a4040	-0.05328393
23	0xbc826c15	-0.015920678
24	0xbd2488ea	-0.040169634
25	0x3d4f5d6f	0.050626215
26	0x3d262aed	0.04056828
27	0xbd8519f1	-0.064990886
28	0x3d45b5f4	0.048269227
29	0x3c457da3	0.01205388
30	0xbc216afb	-0.009852166
31	0x3d68571c	0.0567237

functional_9_1/dense_17_1/Cast/ReadVariableOp:0 f4 [128, 64]
0	0x3d36493e	0.044503443
1	0xbc1bc22c	-0.009506743
2	0x3c95b2a4	0.018273659
3	0xbde34e42	-0.11098911
4	0x3d371aba	0.044703223
5	0x3d8e9acf	0.06963121
6	0x3de34700	0.110975266
7	0xbd9d7403	-0.07688143
8	0x3e4b76e3	0.1986957
9	0x3e1af205	0.15131386
10	0xbe27752e	-0.16353294
11	0x3cea50c1	0.02860296
12	0xbe740887	-0.23831378
13	0x3dbe3f0d	0.0928937
14	0xbe153851	-0.14572264
15	0x3daebd0c	0.085321516
16	0xbde7c574	-0.11316958
17	0x3b95f3d1	0.0045761843
18	0x3e328261	0.17432548
19	0xb509ac80	-5.12875e-07
20	0x3e036c75	0.12834342
21	0x3e1b53d1	0.15168692
22	0x3caff028	0.02147682
23	0xbc3a3a90	-0.011366501
24	0x3e6d4c0a	0.23173538
25	0x3e1699e4	0.14707142
26	0x3e679fba	0.22619525
27	0x3e1c31d1	0.15253378
28	0xbd20dcc4	-0.03927304
29	0xbd949e69	-0.07256777
30	0xbdd9b430	-0.10630071
31	0xbd23c76a	-0.039985098
32	0xbd45f7bb	-0.048331957
33	0x3c51b0f6	0.012798538
34	0x3d933525	0.07187871
35	0x3e15f0ad	0.14642592
36	0x3d58af0d	0.052901316
37	0x3e89b970	0.2689929
38	0x3d5de730	0.054175556
39	0x3d01afd2	0.031661816
40	0x3d5509fe	0.052011482
41	0x3dfee4ff	0.12446021
42	0xbde44d91	-0.11147607
43	0x3c2ba6ea	0.010476807
44	0x3c6decfb	0.014521833
45	0xbd86e8bd	-0.0658736
46	0x3e27c8f2	0.16385248
47	0x3de25165	0.11050681
48	0xbdde4d7b	-0.10854622
49	0x3d61b496	0.05510386
50	0xbe082832	-0.13296583
51	0x3c9b304f	0.018943934
52	0xbdce43d8	-0.10071534
53	0xbe3e7450	-0.18599057
54	0x3e8892d6	0.26674527
55	0x3d1f0532	0.038823314
56	0xbd870e72	-0.06594552
57	0x3d715f80	0.058928967
58	0x3d89eee6	0.067350194
59	0xbe2e666f	-0.17031263
60	0x3dca8a55	0.09889666
61	0x3d3f1443	0.046650182
62	0xbd367230	-0.04454249
63	0xbe80d9b2	-0.25166088
64	0x3dcbae64	0.09945372
65	0x3e101000	0.14068604
66	0x3d084caf	0.033276256
67	0x3c6fc491	0.014634267
68	0xbe060ee5	-0.1309162
69	0x3deb26f8	0.11482042
70	0xbb98bccd	-0.0046611787
71	0xbd66b586	-0.056325458
72	0xbd27e7b2	-0.040992446
73	0x3dcba1d2	0.09942974
74	0x3e1e8640	0.154809
75	0xbe5e30e3	-0.21698336
76	0x3d137340	0.035998583
77	0xbca8f85b	-0.020626238
78	0x3c7f4b11	0.015581862
79	0x3e201af9	0.15635289
80	0xbd4587bd	-0.048225153
81	0x3d0e53dd	0.034747947
82	0xbe4fa8fa	-0.20279303
83	0x3e50b9af	0.20383333
84	0x3df9c4d8	0.12195748
85	0x3dbb4aac	0.09145102
86	0xbe213381	-0.15742303
87	0xbe81b109	-0.2533038
88	0xbdf161b1	-0.11786211
89	0x3b4d6723	0.0031341992
90	0x3b77b22e	0.0037795412
91	0xbe579443	-0.21052651
92	0x3bc6d522	0.006067888
93	0x3e0c81aa	0.13721338
94	0x3e1b1104	0.1514321
95	0xbd6fecd4	-0.058575466
96	0x3e1d39c0	0.15354061
97	0xbd8e7c5d	-0.06957314
98	0x3dc9cd52	0.09853615
99	0xbdd2b1d0	-0.10287821
100	0xbd0e3c31	-0.03472537
101	0x3d86c10d	0.0657979
102	0x3def1045	0.11673025
103	0xbd2e63b2	-0.042575546
104	0x3e2673ae	0.16255066
105	0xbdbae8f4	-0.091264635
106	0xbba0ef90	-0.0049113706
107	0xbdeb9943	-0.11503842
108	0x3e0868d0	0.13321233
109	0x3e023e70	0.1271913
110	0x3e4ed321	0.20197727
111	0xbd7f034b	-0.062259
112	0xbe3461b2	-0.17615393
113	0xbb6265a1	-0.0034545439
114	0x3e215408	0.15754712
115	0xbde61418	-0.11234301
116	0x3d714503	0.058903705
117	0x3de33c26	0.11095457
118	0x3d5fedfd	0.054670323
119	0xbe835fc0	-0.2565899
120	0xbdcf781b	-0.1013033
121	0x3dc4c3c9	0.096076556
122	0x3d2098e1	0.039208297
123	0xbe3ae662	-0.18251947
124	0x3e484eb5	0.19561274
125	0x3de3a8a5	0.11116151
126	0x3d4839e2	0.048883326
127	0x3e1e10c0	0.15436077
128	0xbc72db4a	-0.01482279
129	0xbccbc533	-0.024874305
130	0x3dd52849	0.104080744
131	0xbe8bc20c	-0.27296484
132	0xbe0feb43	-0.14054589
133	0xbd4f4522	-0.05060304
134	0xbe40b38b	-0.1881849
135	0xbc2c5e14	-0.010520477
136	0x3e2286fb	0.15871803
137	0x3e479b58	0.19492853
138	0xbd1c16db	-0.038107734
139	0x3d29f529	0.04149357
140	0x3e4b8e60	0.1987853
141	0x3de91252	0.113804474
142	0xbe747791	-0.23873736
143	0xbe433d3c	-0.19066328
144	0xbe127d69	-0.14305653
145	0x3e13e491	0.1444266
146	0xbca425b5	-0.020037511
147	0x3e1b3063	0.15155177
148	0xbda2306a	-0.079193905
149	0xbe1f764d	-0.15572472
150	0xbe390760	-0.1806922
151	0xbe75bb40	-0.23997211
152	0x3c68f99d	0.014219669
153	0xbe5fc279	-0.21851529
154	0xbe5357d0	-0.20638967
155	0xbd3b87e7	-0.045783903
156	0x3dcd4f47	0.100248866
157	0xbd8c770a	-0.068586424
158	0x3dde249c	0.108468264
159	0xbe34bd20	-0.1765027
160	0x3c8c14ca	0.017099757
161	0xbd9e52c9	-0.07730634
162	0xbb8564bb	-0.004070846
163	0xbe15b98e	-0.14621565
164	0x3d2167de	0.039405696
165	0x3da79977	0.08183568
166	0x3b6911a5	0.0035563495
167	0xbe236a11	-0.1595843
168	0x3d68b8ab	0.056816738
169	0xbddbe6be	-0.1073737
170	0xbdfe47eb	-0.12416061
171	0xbe00bc47	-0.12571822
172	0x3e247bbc	0.16062826
173	0x3dd29ea6	0.10284166
174	0x3b152936	0.002276016
175	0xbd8401ba	-0.06445642
176	0xbd9e61b6	-0.07733481
177	0xbe7a41ce	-0.24439165
178	0xbe4b88ca	-0.198764
179	0xbd729ea5	-0.059233326
180	0xbda34385	-0.07971863
181	0xbdf5f3b8	-0.12009376
182	0x3d591d46	0.053006433
183	0xbda729d9	-0.08162279
184	0xbd84f91b	-0.064928256
185	0x3d9ab925	0.07554845
186	0x3e0bf5d2	0.13667992
187	0x3e16bcb4	0.14720422
188	0xbdb10bb0	-0.08644807
189	0x3da4def7	0.0805034
190	0xbcd2b159	-0.025719332
191	0xbe13ddae	-0.14440033
192	0x3d1236e0	0.035696864
193	0x3d9c24ad	0.07624183
194	0xbe0516ff	-0.12997054
195	0xbc17c61d	-0.0092635425
196	0xbe249186	-0.16071138
197	0xbe065e08	-0.13121808
198	0x3de24261	0.11047817
199	0x3d434a60	0.04767835
200	0x3e108615	0.14113648
201	0x3e40bffd	0.18823238
202	0xbd86b97c	-0.06578347
203	0x3e646f44	0.2230807
204	0xbe4dc53a	-0.20094767
205	0xbe044d75	-0.12920173
206	0xbe3b528d	-0.1829321
207	0x3e8454a8	0.25845838
208	0xbd9de1d0	-0.07709086
209	0x3e016523	0.12636237
210	0xbd49919d	-0.049211133
211	0x3daebb0d	0.08531771
212	0xba2a1947	-0.0006488752
213	0x3e60ed4a	0.21965519
214	0xbd4735ff	-0.04863548
215	0xbdbc2576	-0.091868326
216	0x3dbe2614	0.092846066
217	0xbc94b9da	-0.018155027
218	0x3d928676	0.07154553
219	0x3c8a3980	0.016873121
220	0x3d0c73cd	0.034290124
221	0xbded337f	-0.11582088
222	0xbc5ab977	-0.013349882
223	0xbdc6ba55	-0.09703509
224	0xbdf5c17e	-0.11999796
225	0xbdd8b7c8	-0.105819285
226	0xbdc1385b	-0.09434577
227	0x3cec6682	0.028857473
228	0xbd80fd12	-0.06298269
229	0xbd40cc73	-0.047069978
230	0x3c107c40	0.008818686
231	0x3c615f55	0.013755639
232	0xbc94b2dc	-0.018151693
233	0xbd2c9117	-0.042130556
234	0x3da60b8b	0.081076704
235	0xbe36a5ad	-0.17836638
236	0xbc944fa6	-0.018104386
237	0xbc371492	-0.011174338
238	0xbdc2f822	-0.09519984
239	0xbd1a5287	-0.03767636
240	0x3e3a35df	0.18184613
241	0xbc4ec86a	-0.012621025
242	0x3dce61f4	0.10077277
243	0x3e09b883	0.13449292
244	0xbd4f7c12	-0.050655432
245	0xbe0e7af8	-0.13914096
246	0x3e67fe99	0.22655715
247	0x3de6cca6	0.11269502
248	0x3d2a7c46	0.041622423
249	0xbe111213	-0.14167051
250	0x3dec5225	0.11539105
251	0xbe052b79	-0.13004865
252	0x3e01b07b	0.12664978
253	0x3e8f5b19	0.2799919
254	0xbd9f92a2	-0.0779164
255	0xbe2aa2be	-0.16663644

functional_9_1/dense_17_1/Add/ReadVariableOp:0 f4 [64]
0	0x3c666281	0.014061571
1	0x3d9d63ab	0.07685026
2	0x3d05a3ab	0.03262679
3	0x3db46ba5	0.08809594
4	0xbd8b35ce	-0.06797372
5	0xbc822ad3	-0.01588956
6	0xbd99b7b4	-0.07505742
7	0xbcd8b07e	-0.026451346
8	0xbca9e55e	-0.020739254
9	0x3d50134d	0.050799657
10	0xbc6b42cf	-0.01435919
11	0xbcc9e958	-0.0246474
12	0x3dcde5d8	0.10053605
13	0x3cf1be1a	0.029509593
14	0x3d022144	0.031770006
15	0xbe05a9b5	-0.1305302
16	0xbbba1571	-0.0056788255
17	0xbd43ca60	-0.04780042
18	0x3d790c26	0.0608026
19	0xbc7e0ce6	-0.015506005
20	0x3cd3d21e	0.025857028
21	0x3d88b970	0.066759944
22	0xbda9945b	-0.0828025
23	0xbd1acc1b	-0.037792306
24	0x3bdd95b1	0.0067622294
25	0xbd2ce2e1	-0.042208556
26	0xbd32745b	-0.043567996
27	0xbd3e0e8e	-0.0464006
28	0xbd1216a5	-0.035666127
29	0xbb9f415a	-0.0048600854
30	0x3dc3a65c	0.09553215
31	0xbd0f4ba4	-0.034984246
32	0x3d904595	0.07044522
33	0xbda346ff	-0.07972526
34	0xbbd9a4e5	-0.0066419714
35	0x3d12b6e5	0.035818953
36	0x399f5b50	0.00030394876
37	0x3c5f6ab2	0.013636278
38	0x3d4f0591	0.050542418
39	0xbda9429e	-0.08264659
40	0xbd42cd90	-0.04755932
41	0xbd3f404f	-0.04669219
42	0x3d177c4e	0.03698378
43	0xbd0b072e	-0.033942394
44	0x3deb9292	0.115025654
45	0xbd995ea9	-0.07488758
46	0xbdc6857d	-0.096934296
47	0xbd9a7224	-0.07541302
48	0xbcb4f898	-0.022091195
49	0x3e0329e6	0.12808952
50	0x3a968171	0.0011482668
51	0xbd84541c	-0.06461355
52	0x3d2f2007	0.042755153
53	0xbc998f63	-0.01874513
54	0xbdf0a8b8	-0.117509305
55	0xbd6d822c	-0.05798547
56	0xbd021a65	-0.031763453
57	0x3d26ff59	0.040770862
58	0xbda032fa	-0.07822223
59	0xbd39f768	-0.04540196
60	0xbc955a17	-0.018231435
61	0xbd722c1c	-0.059124097
62	0x3d24f503	0.040272724
63	0x3d921f35	0.071348585

functional_9_1/dense_16_1/Cast/ReadVariableOp:0 f4 [26, 128]
0	0x3def3546	0.11680083
1	0xbdb8078e	-0.08985816
2	0xbd9485c1	-0.07252074
3	0x3e3ad70d	0.18246098
4	0x3dddc8ce	0.10829316
5	0x3d141bfc	0.0361595
6	0x3e41ae63	0.1891418
7	0xbe43ef2c	-0.19134206
8	0x3e066497	0.1312431
9	0x3e1336d7	0.14376388
10	0x3d128398	0.03577003
11	0xbe2a1f46	-0.16613492
12	0x3dbcac0e	0.09212504
13	0xb9f56c00	-0.00046810508
14	0x3e3fb721	0.18722202
15	0x3e096803	0.13418584
16	0xbda79bc9	-0.081840105
17	0xbe40d830	-0.18832469
18	0x3dbb8efe	0.09158133
19	0x3d5a4c84	0.053295627
20	0x3e25d0ed	0.1619298
21	0x3d7a020c	0.06103711
22	0xbdd22d57	-0.10262554
23	0x3da0f90e	0.078600034
24	0x3d358e90	0.04432541
25	0x3e31e8bb	0.17373936
26	0x3c646cd0	0.013941959
27	0x3d6154bc	0.05501245
28	0xbe3f6ddd	-0.18694253
29	0xbd8f2768	-0.06989938
30	0x3e209b2d	0.15684195
31	0xbdd6097a	-0.10451026
32	0x3da80eae	0.08205925
33	0xbd0e0954	-0.034676865
34	0x3e06852f	0.13136743
35	0x3e3afd5b	0.1826071
36	0xbd08b124	-0.03337206
37	0xbcc18678	-0.02362369
38	0x3c960028	0.018310621
39	0xbd7dbdf0	-0.061948717
40	0x3de3fa36	0.11131708
41	0xbcce8d68	-0.025213912
42	0x3e2bb9af	0.16770051
43	0x3c9cadd0	0.019125849
44	0x3dda06de	0.10645841
45	0xbd1af580	-0.037831783
46	0x3c196150	0.00936158
47	0xbe2f2d29	-0.17107071
48	0x3df686c2	0.12037422
49	0x3df2205a	0.11822577
50	0x3d8380d2	0.06421055
51	0x3e44116b	0.1914727
52	0xbe0a01b9	-0.1347722
53	0x3cde4848	0.027134076
54	0xbe29aea7	-0.16570531
55	0x3c52d150	0.012867287
56	0x3e030b43	0.12797265
57	0xbcd14970	-0.025547713
58	0x3ca5cea8	0.020240143
59	0x3d364b50	0.044505417
60	0xbdf6fc93	-0.120598935
61	0xbcaf6d40	-0.0214144
62	0xbe227975	-0.15866645
63	0xbbe23760	-0.006903574
64	0xbded5013	-0.115875386
65	0xbd0fc964	-0.03510417
66	0xbdce5250	-0.100742936
67	0xbdd46d1d	-0.10372374
68	0xbe387180	-0.18012047
69	0x3e220333	0.15821533
70	0x3e222eaf	0.15838121
71	0x3d3cc18c	0.04608302
72	0x3bd17a20	0.0063927323
73	0xbd04db4c	-0.0324357
74	0xbdde8310	-0.10864842
75	0x3d913246	0.07089667
76	0xbcc5a3d0	-0.024125963
77	0xbc5a2810	-0.013315216
78	0x3db18d6a	0.08669551
79	0x3df3c9c6	0.119037196
80	0xbd708700	-0.058722496
81	0x3db5ca1a	0.088764384
82	0xbdf03252	-0.11728348
83	0xbb31ba40	-0.002711907
84	0xbe374184	-0.17896086
85	0x3de0955e	0.109659895
86	0x3df2508a	0.11831768
87	0x3e493917	0.19650684
88	0xbe021827	-0.12704526
89	0xbe431752	-0.19051865
90	0xbe2693a2	-0.16267255
91	0x3d0188d0	0.031624615
92	0xbdf9fde2	-0.122066274
93	0xbd959000	-0.073028564
94	0xbd47261c	-0.04862033
95	0x3e0614a3	0.1309381
96	0xbcacfb58	-0.021115944
97	0x3d4bdb34	0.049769595
98	0xbdf89987	-0.12138658
99	0xbe36fb84	-0.17869383
100	0xbdd997d1	-0.1062466
101	0x3db3545e	0.08756326
102	0x3e1e3daf	0.15453218
103	0x3de141c6	0.109988734
104	0x3d2c2284	0.042025104
105	0x3e037e71	0.12841202
106	0xbd75c514	-0.0600024
107	0x3d04cdec	0.032422945
108	0xbe11debf	-0.14245127
109	0x3d77c20c	0.060487792
110	0x3d3f3474	0.046680883
111	0x3dd2f29a	0.10300179
112	0x3def02be	0.11670445
113	0x3e3ca6cb	0.18423001
114	0x3d547034	0.051864818
115	0x3c90ba28	0.017666891
116	0xbdf4c607	-0.11951833
117	0xbdafae24	-0.085781366
118	0xbe35c296	-0.1775001
119	0xbdb03da3	-0.08605506
120	0xbe217a33	-0.15769272
121	0xbc90ec18	-0.017690703
122	0xbe16e928	-0.1473738
123	0x3df55b52	0.119803086
124	0x3e012b45	0.12614162
125	0xbda1ad72	-0.0789441
126	0xbcf98f10	-0.030463725
127	0xbe34e59d	-0.17665716
128	0xbe70a2e5	-0.2349964
129	0x3e3e7e31	0.18602826
130	0xbdbb45aa	-0.09144147
131	0x3d16b622	0.03679479
132	0xbd7dc57a	-0.061955906
133	0xbe1182ae	-0.14210007
134	0xbe5fcebf	-0.21856211
135	0xbddabd4d	-0.106806375
136	0xbbf22cd6	-0.0073905988
137	0xbd738142	-0.05944944
138	0x3d810296	0.06299321
139	0xbe6c70a7	-0.23089848
140	0x3e247a7f	0.16062354
141	0x3dbba892	0.091630116
142	0x3df87d94	0.12133327
143	0x3df0492f	0.11732709
144	0x3e6fe90c	0.23428744
145	0xbe266175	-0.16248114
146	0x3dbd4e02	0.092433944
147	0xbe3a3402	-0.18183902
148	0x3cc55cca	0.024092097
149	0x3e1d0f56	0.15337881
150	0xbe5ebb5f	-0.21751164
151	0xbd2a81ea	-0.041627802
152	0xbe3ae382	-0.1825085
153	0xbd8d3d64	-0.06896475
154	0x3c1c9f34	0.009559441
155	0xbd6a88a0	-0.057259202
156	0xbdb0d934	-0.08635178
157	0x3e6da57f	0.23207663
158	0x3e704cdf	0.23466824
159	0xbe42aefa	-0.19012061
160	0x3db457dc	0.0880582
161	0x3d8a1236	0.06741755
162	0xbd57f98f	-0.052728232
163	0xbdbb2716	-0.091383144
164	0xbe44aeac	-0.19207257
165	0x3e202c05	0.15641792
166	0x3cf9471f	0.030429421
167	0xbe0aab00	-0.13541794
168	0x3d44d5e5	0.04805555
169	0x3d87d1e0	0.06631827
170	0x3e0fc1f0	0.14038825
171	0xbdc15f4c	-0.094420046
172	0xbd6667af	-0.056251224
173	0x3c851b0c	0.016248249
174	0x3d7ff1bf	0.062486406
175	0x3e06d2d3	0.1316636
176	0xbdf6c7e7	-0.12049847
177	0xbd857ffb	-0.06518551
178	0x3c93b850	0.018032223
179	0xbdfc7e2f	-0.12328755
180	0x3dcba226	0.09943037
181	0xbd82b5da	-0.06382342
182	0x3d971966	0.07377891
183	0x3e1a31be	0.15058038
184	0x3d7bdb05	0.06148817
185	0x3de9be8a	0.114132956
186	0xbe25ac1b	-0.16178934
187	0xbd719cc2	-0.058987387
188	0xbe0ddce2	-0.13853791
189	0x3c2625f4	0.010140885
190	0xbe1d89d8	-0.15384614
191	0x3da21447	0.07914024
192	0xbdec6b63	-0.1154392
193	0x3bfe37d8	0.007758122
194	0x3ddf9ac8	0.10918194
195	0xbe03c635	-0.12868579
196	0x3e0b4306	0.13599786
197	0x3b62d0d7	0.0034609342
198	0xbdd86cbb	-0.10567614
199	0xbe14e84b	-0.14541738
200	0xba473c29	-0.0007600212
201	0xbe3316e6	-0.17489204
202	0xbe67c967	-0.22635423
203	0xbda6fa82	-0.08153249
204	0x3ea38194	0.31934798
205	0x3e17f32f	0.14838861
206	0x3de36c6a	0.11104663
207	0xbc0e2ab9	-0.008677178
208	0x3cb3d5e6	0.02195258
209	0xbe05cd50	-0.13066602
210	0xbdaff222	-0.08591105
211	0xbe037fd1	-0.12841727
212	0xbcfcad85	-0.03084446
213	0xbc759e9b	-0.014991428
214	0xbd885d30	-0.06658399
215	0x3d0c89c0	0.034311056
216	0x3d82a208	0.06378561
217	0x3ddf2215	0.108951725
218	0x3e44f729	0.19234909
219	0x3ca1881f	0.019718228
220	0x3e5791ae	0.21051666
221	0x3dd5c10f	0.10437214
222	0x3d8714b6	0.06595747
223	0x3d9ed487	0.0775538
224	0xbe0f2653	-0.13979463
225	0x3e3ed651	0.18636443
226	0x3d4370cc	0.047714993
227	0xbe23c0d9	-0.15991534
228	0xbde0fe2a	-0.10985978
229	0xbd542173	-0.051789712
230	0x3e4861d4	0.19568568
231	0x3d6d9dad	0.0580117
232	0x3cea2d4d	0.028586054
233	0xbe0636d6	-0.13106856
234	0xbda92f97	-0.0826103
235	0x3e43fb08	0.1913873
236	0xbdbdf2da	-0.09274836
237	0xbde8b963	-0.11363485
238	0x3d83d6aa	0.06437428
239	0xbcd4668c	-0.025927804
240	0x3d52ac32	0.05143375
241	0xbd52d79a	-0.051475145
242	0xbe6fe21a	-0.23426095
243	0xbd821828	-0.06352264
244	0x3e2ac990	0.16678452
245	0x3e0723e5	0.13197286
246	0x3e493ad1	0.19651343
247	0xbe5d91fc	-0.2163772
248	0xbdd0e47d	-0.10199831
249	0x3cd31dcf	0.02577105
250	0xbd304f9c	-0.04304467
251	0xbe69cc2f	-0.22831796
252	0x3da34d32	0.07973708
253	0xbdd8518b	-0.10562428
254	0xbe20a8c0	-0.15689373
255	0x3caef7ee	0.021358456

functional_9_1/dense_16_1/Add/ReadVariableOp:0 f4 [128]
0	0xbd14532a	-0.036212124
1	0x3c2684c7	0.0101634925
2	0x3d197c37	0.037471976
3	0xbd5cf686	-0.05394604
4	0xbd06b1bc	-0.032884344
5	0x00000000	0.0
6	0xbd7654ff	-0.060139652
7	0x3df27303	0.11838343
8	0xbd3513fd	-0.044208515
9	0xbb442c36	-0.0029933578
10	0xbda67f8f	-0.081297986
11	0xbd3abf2f	-0.045592483
12	0xbdb83314	-0.089941174
13	0xbcc80b98	-0.02441959
14	0xbd75e553	-0.060033154
15	0x3dcdd94f	0.10051214
16	0x3b848c5e	0.0040450534
17	0xbc73a842	-0.014871659
18	0x00000000	0.0
19	0x00000000	0.0
20	0xbdbdcb28	-0.092672646
21	0xbac5c4ba	-0.0015088536
22	0xbc4849c8	-0.012224622
23	0x3cbabc1d	0.022794778
24	0xbcf82745	-0.030292163
25	0x3db13084	0.08651832
26	0xbcf0829f	-0.02935916
27	0x00000000	0.0
28	0x3d752a66	0.059854887
29	0x3c50e65b	0.0127502335
30	0x3cb223bc	0.021745555
31	0x3c804dc6	0.015662085
32	0xbd1a08d9	-0.037606094
33	0xbd9470de	-0.0724809
34	0x3d2be868	0.041969687
35	0x3dc27679	0.09495253
36	0xbbcdfb0e	-0.0062860316
37	0x3db251a1	0.08706976
38	0x3d39607f	0.04525804
39	0x3d1adf0a	0.037810363
40	0xbdb36f5f	-0.08761477
41	0x3d0f594c	0.03499727
42	0x3ca24ef1	0.019813033
43	0x00000000	0.0
44	0xbdbf99e6	-0.09355526
45	0x3d717c2a	0.058956303
46	0x3d97b26c	0.07407078
47	0x3c427c5c	0.01187047
48	0xbd898802	-0.067153946
49	0xbd75e584	-0.060033336
50	0x00000000	0.0
51	0xbd75e55a	-0.06003318
52	0xbca63363	-0.020288175
53	0x00000000	0.0
54	0x00000000	0.0
55	0xbbec0bd2	-0.0072035575
56	0x3dbda721	0.09260393
57	0x3cdb8e10	0.02680114
58	0x3c7c206f	0.015388592
59	0xbd040a9f	-0.03223669
60	0xbd057f1c	-0.032591924
61	0xbd007eac	-0.031370804
62	0x00000000	0.0
63	0x3dd83207	0.10556417
64	0xbd730306	-0.059329055
65	0xbd943522	-0.07236697
66	0x3d3c2c82	0.045940883
67	0x00000000	0.0
68	0x3c411036	0.01178365
69	0x3dd2d89b	0.102952205
70	0xbdff28d7	-0.124589615
71	0xbd833c6c	-0.06408009
72	0x3c046675	0.008081068
73	0xbd75e591	-0.060033385
74	0x3c9616f3	0.01832149
75	0x3d6b973f	0.057517286
76	0xbb926b5f	-0.004468366
77	0x00000000	0.0
78	0xbc396581	-0.011315704
79	0x3c024cec	0.00795291
80	0xbd9f8cb5	-0.077905096
81	0xbda2e613	-0.079540394
82	0xbd21c4dc	-0.03949438
83	0xbc8f1a09	-0.01746847
84	0x3d48fc5c	0.049068794
85	0xbc926f06	-0.017875206
86	0x3d864106	0.06555371
87	0x3d9a98e1	0.075486906
88	0xbd6397f6	-0.055564843
89	0x3de9438f	0.11389839
90	0xbc9c117f	-0.019051312
91	0x3d58945a	0.052875854
92	0xbaa3ba61	-0.0012491458
93	0xbd841469	-0.064492054
94	0xbcf35ee5	-0.029708335
95	0xbd0b6299	-0.034029577
96	0xbd9d9e3a	-0.07696195
97	0x3c5f17bf	0.013616501
98	0xbb9050ce	-0.004404164
99	0x3d3d86c4	0.0462711
100	0xbd58058f	-0.052739676
101	0x3dd52ee8	0.10409337
102	0xbbd08dff	-0.0063645835
103	0x3bb1883b	0.0054178513
104	0xbd69066f	-0.0568909
105	0x00000000	0.0
106	0xbb218c1f	-0.002465017
107	0x3d252c6f	0.04032558
108	0x3d1f8bb1	0.03895158
109	0xbdaeabf1	-0.08528889
110	0x3d12f66a	0.03587953
111	0xbc2f716b	-0.010708193
112	0xbdcbd29c	-0.0995228
113	0x3cc193cf	0.023630051
114	0x3cb1a517	0.021685166
115	0xbd612389	-0.05496553
116	0x3ce7c4d8	0.028292105
117	0xbd84783b	-0.06468245
118	0xbc6fc0bb	-0.014633353
119	0xbd587ff8	-0.052856416
120	0x3cf097a6	0.029369187
121	0xbe18a405	-0.14906318
122	0xbdca9c01	-0.09893037
123	0x3d0fdead	0.03512447
124	0x3a423abe	0.0007409266
125	0xbc9b8b3c	-0.01898729
126	0x00000000	0.0
127	0xbd75d165	-0.060014147

functional_9_1/batch_normalization_14_1/batchnorm/sub:0 f4 [32]
0	0xbf147607	-0.57992595
1	0xbee75f19	-0.4518974
2	0xbf01eb29	-0.5074945
3	0xbed45d48	-0.41477418
4	0xbe36436e	-0.1779916
5	0xbf1302c6	-0.57426107
6	0xbe15a65f	-0.14614247
7	0xbda6fbc2	-0.08153488
8	0xbef58ce1	-0.47959045
9	0xbe47d429	-0.19514526
10	0xbe3b74fc	-0.18306345
11	0xbf06dc08	-0.5267949
12	0xbf016670	-0.5054693
13	0xbe47d149	-0.1951343
14	0xbda52216	-0.08063142
15	0xbe2ad158	-0.16681421
16	0xbee0e0f8	-0.43921638
17	0xbf1c5f4d	-0.6108292
18	0xbddc9e7a	-0.107724145
19	0xbe0e8f93	-0.13921957
20	0xbdf77afc	-0.12084004
21	0xbef6adba	-0.48179418
22	0xbeffd854	-0.49969733
23	0xbe17b526	-0.14815196
24	0xbe2ed163	-0.17072062
25	0xbe689877	-0.2271441
26	0xbf045068	-0.5168519
27	0xbef6d65e	-0.48210424
28	0xbe77b1d0	-0.24188924
29	0xbdd0c1fa	-0.10193248
30	0xbf009bee	-0.5023793
31	0xbefa278e	-0.48858303

functional_9_1/batch_normalization_14_1/batchnorm/mul:0 f4 [32]
0	0x3f38e585	0.7222522
1	0x3f51eb9a	0.82000124
2	0x3f0f4edc	0.55979705
3	0x3f3e4157	0.7431845
4	0x3f3b3708	0.73130846
5	0x3f55ecfe	0.83564746
6	0x3f70437b	0.9385297
7	0x3f1de580	0.61678314
8	0x3f5f6b13	0.8727276
9	0x3f1a92cf	0.6038026
10	0x3f214326	0.62993085
11	0x3f4bc9fa	0.79605067
12	0x3f5fc149	0.87404305
13	0x3f49117d	0.7854231
14	0x3f4b7d1b	0.7948777
15	0x3f4fc158	0.81154394
16	0x3f5aa3cf	0.854062
17	0x3f1c451d	0.6104296
18	0x3f060663	0.52353495
19	0x3f378bca	0.71697676
20	0x3f319329	0.69365174
21	0x3f5ba13e	0.8579291
22	0x3f5fcd81	0.8742295
23	0x3f8411d2	1.0317938
24	0x3f554e77	0.8332285
25	0x3f798bc4	0.9747889
26	0x3f1848e0	0.594862
27	0x3f4043ae	0.7510327
28	0x3f3747d8	0.71594
29	0x3f32ed07	0.69892925
30	0x3f2007e4	0.6251204
31	0x3f2580d8	0.64649725

functional_9_1/batch_normalization_13_1/batchnorm/sub:0 f4 [64]
0	0xbef42c87	-0.47690222
1	0xbf01b711	-0.5066996
2	0xbe90ac67	-0.28256533
3	0xbedda4e6	-0.4328987
4	0xbed31c3f	-0.41232488
5	0xbea48932	-0.32135922
6	0xbe8a27c7	-0.26983473
7	0xbeb7ea8c	-0.35921133
8	0xbea69f40	-0.32543373
9	0xbea4bbf0	-0.32174635
10	0xbeec4f2c	-0.46154153
11	0xbee0f4d4	-0.4393679
12	0xbf0a8c27	-0.54120106
13	0xbea1c230	-0.31593466
14	0xbed46ebc	-0.41490734
15	0xbecea352	-0.4035898
16	0xbe89fdf7	-0.26951572
17	0xbeebc211	-0.46046498
18	0xbf08626a	-0.5327517
19	0xbeb282cb	-0.34865412
20	0xbefe193f	-0.49628636
21	0xbec67204	-0.38758862
22	0xbe97bfc1	-0.29638484
23	0xbe899858	-0.26874042
24	0xbedff57a	-0.4374197
25	0xbeb3b5b8	-0.35099578
26	0xbee14a68	-0.4400208
27	0xbeac3e66	-0.33641356
28	0xbf02d2cd	-0.51102906
29	0xbed2ed96	-0.4119689
30	0xbedcafd4	-0.43102896
31	0xbef15512	-0.47135216
32	0xbf077115	-0.52906924
33	0xbec2ec77	-0.38071033
34	0xbeb7bfa1	-0.3588839
35	0xbe97102c	-0.29504526
36	0xbedfe5a4	-0.4372989
37	0xbee891f4	-0.45423853
38	0xbeb6be63	-0.3569213
39	0xbe728428	-0.23683226
40	0xbea3abf2	-0.3196712
41	0xbee03fda	-0.43798715
42	0xbea4f94b	-0.32221445
43	0xbeb05680	-0.34440994
44	0xbec2fe04	-0.38084424
45	0xbe9ffc15	-0.3124701
46	0xbe73f6d1	-0.23824622
47	0xbe7bcc33	-0.24589615
48	0xbec17eaa	-0.3779195
49	0xbea67323	-0.32509717
50	0xbeb76f0d	-0.35826913
51	0xbf00706a	-0.5017153
52	0xbedbd400	-0.4293518
53	0xbec3e68a	-0.38261825
54	0xbe9d1401	-0.30679324
55	0xbed4131b	-0.41420826
56	0xbf0512fe	-0.51982105
57	0xbecc4e7d	-0.39903632
58	0xbeb8dbb7	-0.3610513
59	0xbec581f1	-0.385757
60	0xbedac258	-0.42726398
61	0xbe81e267	-0.25368044
62	0xbed2b8f8	-0.41156745
63	0xbee9a3ab	-0.4563268

functional_9_1/batch_normalization_13_1/batchnorm/mul:0 f4 [64]
0	0x3f5ec1d8	0.8701453
1	0x3f4b527c	0.79422736
2	0x3f6ec606	0.9327091
3	0x3f72839f	0.9473209
4	0x3f792cae	0.973338
5	0x3f8671ec	1.0503516
6	0x3f93e6e5	1.1554838
7	0x3f86d198	1.0532713
8	0x3f689a9e	0.9086093
9	0x3f85fe4f	1.0468234
10	0x3f3a7e64	0.72849107
11	0x3f7a661b	0.9781205
12	0x3f772acb	0.9654967
13	0x3f70b873	0.9403145
14	0x3f41db44	0.757252
15	0x3f5c979f	0.86168855
16	0x3f4c5269	0.7981325
17	0x3f21b583	0.6316759
18	0x3f50aec5	0.8151668
19	0x3f8a3c67	1.0799683
20	0x3f5314b8	0.8245349
21	0x3f82d9b4	1.0222688
22	0x3f7e5b2f	0.99357885
23	0x3f722009	0.9458013
24	0x3f76487e	0.96204364
25	0x3f7146d8	0.94248724
26	0x3f8560f8	1.0420218
27	0x3f5afc97	0.8554167
28	0x3f58c112	0.846696
29	0x3f2edefc	0.68309
30	0x3f897172	1.0737746
31	0x3f702f26	0.9382194
32	0x3f6fec60	0.93720055
33	0x3f41daf3	0.75724715
34	0x3f4fdc44	0.81195474
35	0x3f6d0a4b	0.9259383
36	0x3f8f0e94	1.1176324
37	0x3f6d9efe	0.9282073
38	0x3f820ab1	1.0159513
39	0x3f4df1a0	0.80446815
40	0x3f8cdbb0	1.1004543
41	0x3f7e9b8d	0.994561
42	0x3f7db839	0.99109226
43	0x3f70bb0d	0.94035417
44	0x3f56ff14	0.8398297
45	0x3f7b954f	0.982747
46	0x3f7852a5	0.97001106
47	0x3f8fe371	1.1241285
48	0x3f573da0	0.8407841
49	0x3f63d8b8	0.8900256
50	0x3f5a5854	0.8529103
51	0x3f301f2d	0.6879757
52	0x3f362c4b	0.71161336
53	0x3f28bb5e	0.659109
54	0x3f63dde4	0.89010453
55	0x3f6ee7c4	0.93322396
56	0x3f4abfb5	0.7919877
57	0x3f3e998e	0.74453056
58	0x3f68913f	0.9084663
59	0x3f2ef9e4	0.6835005
60	0x3f7b3c02	0.9813844
61	0x3f8c3843	1.095467
62	0x3f88862f	1.066595
63	0x3f805033	1.0024475

functional_9_1/batch_normalization_12_1/batchnorm/sub:0 f4 [128]
0	0xbd6b43af	-0.057437595
1	0xbce9fe60	-0.028563678
2	0xbcd50372	-0.02600262
3	0xbd265654	-0.040609673
4	0x3b417d60	0.0029524192
5	0x3d7e5fe8	0.062103182
6	0xbd671a3b	-0.0564215
7	0xbe7f1bca	-0.24912944
8	0xbd898fe9	-0.06716902
9	0xbd5e047e	-0.054203503
10	0x3d2cdcd8	0.0422028
11	0xbd876b18	-0.066122234
12	0x3b834458	0.00400595
13	0x3df67f3c	0.12035987
14	0x3d817358	0.06320828
15	0xbee88518	-0.45414042
16	0xbd49dd1e	-0.04928314
17	0xbdb6620a	-0.08905418
18	0xbca5a19b	-0.020218661
19	0xbd1add9f	-0.03780901
20	0x3d8f2a57	0.069904976
21	0xbe9e79cd	-0.30952302
22	0xbc89a24a	-0.016801018
23	0xbddffa69	-0.10936434
24	0x3d1710a6	0.03688111
25	0xbf08e798	-0.53478384
26	0xbe127552	-0.14302567
27	0xbd16aefa	-0.036787964
28	0xbe8bbc79	-0.2729223
29	0xbde55396	-0.111975834
30	0x3d9a02e0	0.075200796
31	0xbe420396	-0.1894668
32	0x3cff8898	0.031193063
33	0x3d4b6cab	0.04966418
34	0xbe2755d9	-0.16341342
35	0xbec8326c	-0.3910097
36	0xbe90c070	-0.28271818
37	0xbf09e5e7	-0.5386643
38	0xbe04f5d0	-0.12984395
39	0xbe4d275c	-0.20034546
40	0xbc550b75	-0.01300322
41	0xbea4257f	-0.32059857
42	0xbde1d219	-0.11026401
43	0x3d96dece	0.07366715
44	0xbd39d6ed	-0.045370985
45	0x3b62b260	0.0034591183
46	0xbc489020	-0.012241393
47	0xbeb68bc6	-0.35653514
48	0x3e118b7b	0.14213364
49	0xbd95fb6b	-0.07323345
50	0xbc349cfa	-0.011023754
51	0xbd56aea6	-0.05241265
52	0xbbb92898	-0.005650591
53	0xbcee8633	-0.029116726
54	0xbb0bb672	-0.0021318463
55	0xbe00817e	-0.12549397
56	0xbe6b3611	-0.22969843
57	0xbde3c340	-0.11121225
58	0x3d5acaa7	0.05341592
59	0xbdfa2be6	-0.12215404
60	0xbdc4d2bb	-0.09610506
61	0xbdc8f2de	-0.09811948
62	0x3e225727	0.15853558
63	0xbeae4f35	-0.34044805
64	0xbeb2f327	-0.34951136
65	0x3d966cf4	0.07345
66	0xbeda52cc	-0.42641294
67	0xbc0f710f	-0.008754983
68	0xbe4160bb	-0.18884556
69	0xbf022ef4	-0.50852895
70	0x3c20fb98	0.00982561
71	0xbd4df16a	-0.05027906
72	0xbe373c23	-0.17894034
73	0x3d032328	0.03201595
74	0xbe689147	-0.22711669
75	0xbdc3df93	-0.09564128
76	0xbebcc323	-0.36867628
77	0x3c9af262	0.018914405
78	0xbe2bdbf9	-0.16783132
79	0x3d800ab9	0.06252045
80	0xbd347d1c	-0.044064626
81	0xbd92e478	-0.07172483
82	0xbe6fe8ef	-0.23428701
83	0x3cf1d74c	0.029521607
84	0xbdf98054	-0.1218268
85	0xbda7fad3	-0.08202138
86	0xbe1b8096	-0.1518577
87	0xbe911ee4	-0.2834388
88	0xbd334457	-0.043766346
89	0xbe941736	-0.2892396
90	0x3d444f4c	0.047927186
91	0xbebab707	-0.36467764
92	0xbead2886	-0.3381998
93	0x3da04af2	0.07826795
94	0xbe818d49	-0.25303105
95	0xbd9c1c74	-0.076226145
96	0x3dbc703f	0.09201097
97	0xbec59aeb	-0.38594756
98	0xbd8d8110	-0.06909382
99	0xbee2edd6	-0.4432208
100	0xbd1333de	-0.035938136
101	0xbe98434e	-0.2973885
102	0x3d7cb74c	0.061698243
103	0xbeeb2a5b	-0.45930752
104	0x3db47120	0.088106394
105	0x3de09e9c	0.10967752
106	0xbd9bc2ae	-0.076054916
107	0xbd4a0dfc	-0.049329743
108	0xbdec998c	-0.11552724
109	0xbe003077	-0.12518488
110	0xbeb95f6c	-0.36205614
111	0xbe53a627	-0.20668851
112	0xbd8c5761	-0.06852604
113	0xbdf552cd	-0.119786836
114	0xbd3649e6	-0.04450407
115	0xbe458502	-0.1928902
116	0x3c7328a8	0.014841236
117	0x3c914755	0.01773421
118	0xbe1916cd	-0.14950104
119	0xbd475388	-0.048663646
120	0xbd31abbe	-0.043376677
121	0xbd573adc	-0.052546367
122	0xbd8fb38f	-0.0701667
123	0xbe1812eb	-0.14850967
124	0xbea0436e	-0.31301445
125	0x3d0e98ee	0.034813814
126	0x3d1479d8	0.03624901
127	0xba4e87ef	-0.0007878532

functional_9_1/batch_normalization_12_1/batchnorm/mul:0 f4 [128]
0	0x3fc5d722	1.5456278
1	0x3fb56246	1.4170616
2	0x3fce2b58	1.6106977
3	0x3fca9987	1.5828103
4	0x3fb7e97d	1.436813
5	0x3fbf1ffb	1.4931635
6	0x3fc01528	1.5006456
7	0x3faecfb4	1.3657136
8	0x3fab8737	1.3400639
9	0x3fcb6527	1.5890244
10	0x3fd11cbc	1.6336894
11	0x3fc4e408	1.538209
12	0x3fc5591f	1.5417823
13	0x3fc7c1c7	1.5606011
14	0x3fb3a6cf	1.4035281
15	0x3fc0fb3f	1.5076674
16	0x3fd71df6	1.6806018
17	0x3fbe37b6	1.4860752
18	0x3fbf1ffb	1.4931635
19	0x3fbf1ffb	1.4931635
20	0x3fc1ea2c	1.5149589
21	0x3fb2e46a	1.3975956
22	0x3fd33d7b	1.6503137
23	0x3fbf17c6	1.492913
24	0x3fca8885	1.5822912
25	0x3fdedfb9	1.7412025
26	0x3fbf56c3	1.4948353
27	0x3fbf1ffb	1.4931635
28	0x3faeab75	1.3646075
29	0x3fc0cb25	1.5061995
30	0x3fca85f5	1.582213
31	0x3f9e8253	1.2383522
32	0x3fc6216e	1.5478952
33	0x3faf3b24	1.3689923
34	0x3f9dc352	1.2325232
35	0x3faa46a2	1.3302805
36	0x3fb10273	1.3828872
37	0x3fb0e0ec	1.3818641
38	0x3fb56ff3	1.4174789
39	0x3fb523a9	1.4151508
40	0x3fc6e44b	1.553842
41	0x3faa22bb	1.3291849
42	0x3fc76b22	1.5579569
43	0x3fbf1ffb	1.4931635
44	0x3fadee85	1.3588415
45	0x3fb51fa8	1.4150286
46	0x3fb5d6f9	1.420623
47	0x3fb1781b	1.3864778
48	0x3fb3a3a0	1.4034309
49	0x3fb3abb1	1.4036771
50	0x3fbf1ffb	1.4931635
51	0x3fb3a8e0	1.4035912
52	0x3fb60560	1.422039
53	0x3fbf1ffb	1.4931635
54	0x3fbf1ffb	1.4931635
55	0x3fcc914e	1.5981843
56	0x3fbe16f4	1.4850755
57	0x3fb450b5	1.408713
58	0x3fbbd678	1.4674826
59	0x3fbf6878	1.4953756
60	0x3fb2402a	1.3925831
61	0x3f9f08f8	1.2424612
62	0x3fbf1ffb	1.4931635
63	0x3fcb1c74	1.5868058
64	0x3fbfe9b8	1.49932
65	0x3fbae2b9	1.460044
66	0x3fbb128c	1.4615035
67	0x3fbf1ffb	1.4931635
68	0x3fdaa60e	1.7081926
69	0x3fc960ac	1.5732627
70	0x3fa86283	1.3155063
71	0x3fc2ea68	1.5227785
72	0x3fc588d4	1.5432382
73	0x3fb3a70c	1.4035354
74	0x3fca3d5f	1.5799979
75	0x3fb11c06	1.3836677
76	0x3fa5d6e1	1.2956201
77	0x3fbf1ffb	1.4931635
78	0x3fb94196	1.447314
79	0x3fafe898	1.3742857
80	0x3fb3af41	1.4037858
81	0x3fb2ea09	1.3977672
82	0x3faef3dc	1.366817
83	0x3fc5285d	1.5402943
84	0x3fb21874	1.3913713
85	0x3fc4f025	1.5385786
86	0x3fcf5415	1.6197535
87	0x3fc01d9c	1.5009036
88	0x3fc9bd83	1.5760959
89	0x3fb5e041	1.4209062
90	0x3fd44de9	1.6586276
91	0x3fcaa174	1.5830522
92	0x3f9dd5d4	1.233088
93	0x3fbdb27a	1.4820092
94	0x3fbff0f5	1.4995409
95	0x3fb82884	1.4387364
96	0x3fafc771	1.373274
97	0x3fd931f3	1.6968368
98	0x3faa0a44	1.3284383
99	0x3fbcb389	1.474229
100	0x3fad2be3	1.3529018
101	0x3fd5caa9	1.6702472
102	0x3fc0f2b3	1.5074066
103	0x3fcff234	1.624579
104	0x3faebfa7	1.3652238
105	0x3fbf1ffb	1.4931635
106	0x3fc0882b	1.5041555
107	0x3fc4e23c	1.5381541
108	0x3fc152d5	1.5103403
109	0x3fb288a8	1.3947954
110	0x3fc8b613	1.5680565
111	0x3fb746fe	1.431854
112	0x3fc7c25c	1.5606189
113	0x3fb3c1c7	1.4043511
114	0x3fbfdfe2	1.4990199
115	0x3fcadbe0	1.584835
116	0x3fd19c8e	1.6375902
117	0x3fae77c3	1.3630298
118	0x3fbd7ba0	1.4803352
119	0x3fcbdf5a	1.5927536
120	0x3fb22dda	1.3920243
121	0x3fb55c2c	1.4168754
122	0x3fa7eebe	1.3119733
123	0x3fbaa408	1.4581308
124	0x3fab7542	1.3395159
125	0x3fbc5f14	1.4716516
126	0x3fbf1ffb	1.4931635
127	0x3fb19b8a	1.3875592
