models/Ljubljana/cars/Ljubljana_cars_model.onnx (onnx, 60601 bytes, 13 tensors)

functional_7_1/dense_15_1/Cast/ReadVariableOp:0 f4 [32, 1]
0.026748251 0.026661677 -0.073386975 0.051212605 0.12612507 0.009370523 0.0006040094 0.008182595
-0.06319821 -0.01568729 -0.0274139 -0.00012221572 0.1639663 0.09623499 -0.12218649 0.13245422
-0.023481654 0.004423312 -0.09400112 0.052125387 0.14179131 0.053925496 -0.11145471 -0.03442658
0.09704689 0.11669351 0.06663516 0.0127143115 -0.05791512 0.050366186 -0.007835122 -0.031598393
00000000: 261f db3c 9769 da3c e94b 96bd 4fc4 513d
00000010: ee26 013e d286 193c 6256 1e3a 4a10 063c
00000020: 106e 81bd a282 80bc 1d93 e0bc 0827 00b9
00000030: c8e6 273e da16 c53d e93c fabd 14a2 073e
00000040: 995c c0bc 6ef1 903b a983 c0bd 6e81 553d
00000050: be31 113e fbe0 5c3d 5e42 e4bd e302 0dbd
00000060: 85c0 c63d 02fd ee3d 0478 883d b04f 503c
00000070: 6838 6dbd c64c 4e3d e25e 00bc 516d 01bd

functional_7_1/dense_14_1/Cast/ReadVariableOp:0 f4 [64, 32]
-0.08704239 -0.01407799 0.11541035 0.18128146 -0.08698419 -0.1311343 -0.011038684 0.31070304
-0.30027372 -0.18415377 -0.20486933 -0.05778974 0.022057347 -0.037567347 -0.040887844 -0.12005272
0.023257429 -0.10511079 -0.17466351 0.15624224 -0.032737773 0.23890676 0.15029459 -0.010523981
-0.26544806 0.2201966 0.09305292 -0.22133657 -0.10240139 0.11658734 -0.09813091 0.026746176
0.23900433 -0.23686321 -0.011644051 -0.09569609 0.24881971 -0.3181714 -0.3039489 0.15061943
0.25366047 -0.19990878 -0.03004695 -0.16291064 0.004823827 -0.28265914 0.07752195 0.13981052
-0.025562983 0.060629737 -0.100388385 -0.106087655 -0.17772314 -0.09114391 -0.10224823 0.07106471
0.23196723 0.04435371 -0.24245384 0.0632346 -0.0037657071 0.067084074 0.03648922 0.09131408
-0.15129192 0.12255576 0.059692997 0.21480471 0.038706608 -0.11259099 -0.2774574 -0.053776003
-0.13695595 0.08367217 0.1944 -0.10637815 -0.16127153 0.10030419 0.1380228 0.050667938
0.113928385 -0.2323462 0.33773795 -0.18043347 0.08898253 0.14073801 0.23100299 -0.13094893
-0.15050755 0.18882209 -0.11979285 0.16506705 -0.14990143 0.22252059 -0.023131203 -0.054106366
0.042937875 0.00819699 -0.17195036 0.0408375 -0.09843139 -0.2464002 0.16509655 -0.13849092
0.287647 -0.30791512 0.0656419 0.16452256 -0.15692538 0.09774886 -0.09305887 0.18288662
-0.019806007 -0.34417808 0.064403385 0.15520586 0.17667158 0.12653689 -0.19645706 0.17140771
-0.1621487 -0.2954305 -0.03230399 -0.15253632 -0.03801701 0.115478255 -0.12016375 0.19095488
0.09894801 0.17401011 0.2746473 -0.2740175 0.015836783 0.0073978417 0.1107256 -0.3124004
0.022205591 -0.056932166 0.05790283 0.15557633 -0.023963338 0.24569334 -0.24236621 -0.14631109
0.1737413 0.3073235 0.27336094 -0.20858718 -0.010259798 0.1688427 0.08561997 0.0749124
-0.049688738 -0.0009947204 0.21310216 0.045420855 0.22361276 -0.061773255 0.13487111 -0.10213684
-0.03688191 -0.084679045 0.21222529 0.026335454 -0.2674312 -0.12919673 -0.22849767 -0.22551773
0.02849653 0.07104235 0.0028793765 -0.09158173 -0.18710607 -0.18132864 0.20452614 -0.0004468485
-0.041047506 0.093143135 -0.0842941 0.17774169 -0.008776917 0.28463247 -0.24124157 0.314981
0.019193716 0.084852114 0.019255502 0.083178215 -0.19326648 -0.0623375 0.057282683 0.02985275
-0.27931276 -0.16015425 -0.16543292 -0.17342931 0.009391505 0.10925842 -0.04700251 -0.11219745
0.06708414 0.120589055 0.11478668 0.045185506 -0.013789148 -0.13267823 -0.0145988045 0.07046025
-0.039989393 0.06620615 0.023770636 0.13802966 -0.20752263 0.14784612 -0.19120038 -0.19334507
0.062020022 -0.1685881 0.18836762 -0.13698661 0.12921672 -0.04766375 -0.2541542 0.27791893
0.196694 -0.052278504 0.21854149 -0.22784016 -0.19736415 0.124628104 0.30970755 0.23070246
0.21807832 -0.09840262 0.09866239 -0.18647796 0.23407565 0.031520214 -0.043585356 0.13265492
0.0875181 0.027307296 -0.13665722 0.38866308 -0.026161408 -0.21399856 0.114165574 0.40466884
-0.2047532 -0.26037914 -0.13702022 -0.02471098 -0.15516303 0.1608591 -0.005186898 0.17251511
00000000: 4843 b2bd 5fa7 66bc 435c ec3d d9a1 393e
00000010: c424 b2bd 1248 06be 99db 34bc 7814 9f3e
00000020: 7abd 99be ce92 3cbe 44c9 51be efb4 6cbd
00000030: 9cb1 b43c 38e0 19bd 037a 27bd 33de f5bd
00000040: 5d86 be3c 5344 d7bd feda 32be f7fd 1f3e
00000050: 0b18 06bd f9a3 743e d3e6 193e c76c 2cbc
00000060: cfe8 87be 387b 613e 8892 be3d 0ea6 62be
00000070: d2b7 d1bd 58c5 ee3d dcf8 c8bd cc1a db3c
00000080: 8dbd 743e 458c 72be b1c6 3ebc 50fc c3bd
00000090: 98ca 7e3e 5de7 a2be 319f 9bbe fb3b 1a3e
000000a0: c9df 813e e3b4 4cbe 0525 f6bc 0cd2 26be
000000b0: 3211 9e3b b3b8 90be d4c3 9e3d 7d2a 0f3e
000000c0: 7669 d1bc e356 783d 6d98 cdbd 7c44 d9bd
000000d0: 0efd 35be a9a9 babd 8567 d1bd 608a 913d
000000e0: d188 6d3e 3cac 353d d245 78be 2481 813d
000000f0: 15ca 76bb 6063 893d b875 153d e002 bb3d
00000100: 45ec 1abe 84fe fa3d a580 743d c4f5 5b3e
00000110: d28a 1e3d 1b96 e6bd e50e 8ebe 3a44 5cbd
00000120: 2e3e 0cbe 515c ab3d cb10 473e cadc d9bd
00000130: 5d24 25be 486c cd3d d955 0d3e 2f89 4f3d
00000140: 4953 e93d 2aec 6dbe fdeb ac3e 8dc3 38be
00000150: 793c b63d a01d 103e 0c8c 6c3e 7a17 06be
00000160: a71e 1abe 945a 413e f455 f5bd 5607 293e
00000170: c37f 19be 70dc 633e a67d bdbc a39e 5dbd
00000180: a0df 2f3d ab4c 063c c113 30be 3945 273d
00000190: 6696 c9bd 5650 7cbe 120f 293e 90d0 0dbe
000001a0: 7846 933e 0da7 9dbe 436f 863d 9a78 283e
000001b0: 0cb1 20be 8e30 c83d a695 bebd a146 3b3e
000001c0: 3540 a2bc 1c38 b0be ece5 833d 49ee 1e3e
000001d0: 65e9 343e e392 013e 0a2c 49be 8185 2f3e
000001e0: 4f0a 26be ab42 97be 3051 04bd 7b32 1cbe
000001f0: b9b7 1bbd dd7f ec3d 6a18 f6bd ad89 433e
00000200: 41a5 ca3d b52f 323e 929e 8c3e 064c 8cbe
00000210: 24bc 813c 9869 f23b 1ac4 e23d f2f2 9fbe
00000220: 80e8 b53c b431 69bd 852b 6d3d 674f 1f3e
00000230: c34e c4bc 0997 7b3e d92e 78be 93d2 15be
00000240: 3de9 313e 8159 9d3e f7f5 8b3e e197 55be
00000250: b618 28bc 1ae5 2c3e 8659 af3d ac6b 993d
00000260: 6b86 4bbd 4761 82ba 7437 5a3e 380b 3a3d
00000270: befa 643e f405 7dbd a71b 0a3e 1f2d d1bd
00000280: 7c11 17bd 356c adbd 9651 593e 73bd d73c
00000290: beec 88be 264c 04be 4bfb 69be 1fee 66be
000002a0: 8e71 e93c a77e 913d ecb3 3c3b 348f bbbd
000002b0: bc98 3fbe 37ae 39be 4d6f 513e fe46 eab9
000002c0: 6e21 28bd d4c1 be3d 63a2 acbd eb01 363e
000002d0: 0fcd 0fbc 59bb 913e 0808 77be 3145 a13e
000002e0: 243c 9d3c f2c6 ad3d b7bd 9d3c 5759 aa3d
000002f0: a6e7 45be 9b55 7fbd 3fa1 6a3d c18d f43c
00000300: 1502 8fbe 7aff 23be 3f67 29be 7497 31be
00000310: d4de 193c e1c2 df3d b485 40bd c7c7 e5bd
00000320: 6963 893d 65f7 f63d 4715 eb3d 7014 393d
00000330: e1eb 61bc cddc 07be d32f 6fbc 774d 903d
00000340: ebcb 23bd 1797 873d a3ba c23c a657 0d3e
00000350: d080 54be f964 173e 08ca 43be 40fc 45be
00000360: b508 7e3d 5ca2 2cbe 71e3 403e 3846 0cbe
00000370: 6351 043e 103b 43bd 8020 82be 644b 8e3e
00000380: 276a 493e fc21 56bd 57c9 5f3e ee4e 69be
00000390: d419 4abe 053d ff3d fd91 9e3e 443d 6c3e
000003a0: ec4f 5f3e 5087 c9bd 820f ca3d 14f4 3ebe
000003b0: 87b1 6f3e 571b 013d 8f86 32bd b1d6 073e
000003c0: b13c b33d 8db3 df3c dfef 0bbe d9fe c63e
000003d0: 7350 d6bc 7022 5bbe a4cf e93d c130 cf3e
000003e0: d3aa 51be 6a50 85be 074f 0cbe ae6e cabc
000003f0: 0fe3 1ebe 3fb8 243e dbf6 a9bb cda7 303e

functional_7_1/dense_14_1/Add/ReadVariableOp:0 f4 [32]
0.08672398 -0.044594273 -0.04207225 -0.033529222 0.08172627 0.021735385 -0.02011432 -0.0033213252
0.13291878 -0.107954286 -0.12107211 -0.12744282 0.11217894 -0.009393536 0.055344317 0.12969418
0.14620239 -0.018536365 0.013021977 0.08346503 0.033842515 0.05316706 0.070451036 0.022371963
0.029875007 0.2107324 0.019297233 0.07863711 -0.06494962 -0.098762155 -0.043188892 0.02633796
00000000: 589c b13d 7ca8 36bd f453 2cbd f055 09bd
00000010: 1a60 a73d 680e b23c c9c6 a4bc 97aa 59bb
00000020: dc1b 083e 2317 ddbd a8f4 f7bd 5f80 02be
00000030: 12be e53d 58e7 19bc b9b0 623d 8dce 043e
00000040: 14b6 153e 93d9 97bc 215a 553c b7ef aa3d
00000050: 739e 0a3d b4c5 593d a248 903d 6845 b73c
00000060: 6ebc f43c 3cca 573e 3b15 9e3c 7e0c a13d
00000070: 4e04 85bd d043 cabd d6e6 30bd b5c2 d73c

functional_7_1/dense_13_1/Cast/ReadVariableOp:0 f4 [128, 64]
-0.009369683 0.067856304 -0.058350436 -0.07666999 0.033586364 0.019329218 -0.15286826 -0.10139537
0.12587646 0.111855604 -0.14091022 -0.083243296 0.1009674 -0.05234699 0.080644615 0.032614686
-0.087763965 0.16695368 -0.13381593 0.034468144 -0.010624633 -0.12230698 -0.026287429 0.24115366
0.0151039045 -0.18244289 -0.07022477 0.0069447774 -0.07095638 0.16653536 0.14856994 0.04601184
0.22761066 -0.06900625 -0.0253845 -0.2030482 0.11273605 0.11135513 0.13600402 -0.17552832
-0.015485883 0.056410737 0.09450294 -0.10849233 0.030059282 0.020962209 0.04130092 -0.021207223
0.11594867 0.0075249895 0.25579667 0.10480716 0.13563338 0.110274725 0.13998015 0.2294814
0.15717632 0.117213726 0.12554727 -0.16302978 -0.11999369 0.099230975 0.17497967 -0.06461484
0.040687077 0.07415455 -0.052439623 0.19278021 0.12038328 -0.04615631 -0.003479585 -0.14076415
-0.110707775 0.18750109 0.031919368 -0.09162519 -0.08647577 0.19249776 -0.15655552 0.12453009
0.12094 -0.031542893 -0.11613326 -0.07009662 0.071827896 -0.1627987 0.054926675 0.17013583
0.10864497 -0.19563922 0.057105266 0.11080649 0.20832472 0.11374686 0.007703883 -0.041872147
0.03872982 -0.038056742 0.11367729 -0.23793457 -0.13494116 -0.3126188 -0.15634647 0.11913101
-0.07114747 -0.15727073 -0.041659176 -0.22501361 0.09006179 0.07049403 -0.23334603 -0.10399881
0.15480156 -0.19334947 -0.07508631 0.095532954 -0.16307753 -0.16662028 -0.07956148 0.09105557
-0.08482979 -0.08461763 0.043112393 0.13058366 0.044365216 0.027506392 0.11417243 0.08185569
-0.107080154 -0.034772124 0.048686568 -0.37138766 -0.01676602 -0.0315636 -0.1402393 -0.0015875489
0.05912341 -0.04365637 0.18450229 -0.13320808 0.047884256 -0.14115876 -0.07954942 -0.04565649
-0.047460005 0.18719153 -0.024811229 -0.07281587 -0.04357717 0.25332537 -0.06755871 -0.085080855
0.08801105 -0.049021866 0.09296393 -0.09214963 0.03193388 0.07962673 0.13892044 0.07614161
-0.0014991545 0.09765194 -0.100530975 -0.028428188 0.16950405 0.21837236 0.064342245 0.021670815
-0.01970098 -0.14430057 0.020335855 0.20866671 -0.14666595 -0.16181 -0.032435548 -0.08930751
-0.060960107 -0.0594516 -0.025118636 0.08412245 0.17837462 0.12930273 -0.20532548 0.21254171
-0.069499 0.009496734 -0.15192638 -0.019921565 0.23991567 -0.044883113 0.08455186 0.03518379
0.035597518 -0.21546112 -0.08331816 0.05899242 0.1216834 -0.040495396 0.24159269 0.0812023
-0.06146859 0.10675506 -0.20912333 0.23172636 -0.24996535 -0.051757433 -0.16189776 0.049403932
0.19473816 -0.15724854 -0.085397944 0.07087616 0.21136542 0.11913768 -0.014533268 0.20699762
0.19578676 -0.17621528 0.17506735 0.043093786 0.06320037 0.042129345 -0.011490156 0.24260229
-0.12987007 0.24437341 -0.1652608 0.05322402 -0.24169496 0.0014558558 0.14367847 -0.10736709
0.09998126 0.11491067 0.16262169 0.08909599 -0.21870527 0.14139336 -0.15501179 0.07730336
-0.10251228 -0.009313418 0.11729209 0.043889303 0.07065456 -0.042631883 0.039291997 -0.12936589
-0.15950695 -0.10869805 -0.05836079 0.14321081 -0.03389313 0.051770292 0.04331835 -0.045697182
00000000: 4d83 19bc 3ff8 8a3d de00 6fbd 2805 9dbd
00000010: db91 093d 4f58 9e3c 7f89 1cbe 60a8 cfbd
00000020: c2e5 003e 8d14 e53d c54a 10be 767b aabd
00000030: ffc7 ce3d cc69 56bd 0129 a53d fa96 053d
00000040: 98bd b3bd e8f5 2a3e 0b07 09be 782e 0d3d
00000050: f112 2ebc 157c fabd bc58 d7bc fcf0 763e
00000060: 5e76 773c 4fd2 3abe 01d2 8fbd 0491 e33b
00000070: 9451 91bd 3f88 2a3e b822 183e e976 3c3d
00000080: c512 693e 2653 8dbd 28f3 cfbc deeb 4fbe
00000090: 28e2 e63d 290e e43d a344 0b3e b2bd 33be
000000a0: 80b8 7dbc f20e 673d c28a c13d 3a31 debd
000000b0: e23e f63c f0b8 ab3c 272b 293d c5ba adbc
000000c0: 7f76 ed3d 3094 f63b c8f7 823e 23a5 d63d
000000d0: 7ae3 0a3e b7d7 e13d f556 0f3e 2cfd 6a3e
000000e0: d4f2 203e c00d f03d 778f 003e 47f1 26be
000000f0: 40bf f5bd 9c39 cb3d df2d 333e c954 84bd
00000100: 7ea7 263d 57de 973d eeca 56bd 2d68 453e
00000110: 828b f63d 660e 3dbd c009 64bb 7a24 10be
00000120: c2ba e2bd 4900 403e e2bd 023d fda5 bbbd
00000130: 351a b1bd 221e 453e 1750 20be a209 ff3d
00000140: 64af f73d 1f33 01bd 46d7 edbd d18e 8fbd
00000150: 811a 933d b4b4 26be cbfa 603d 1638 2e3e
00000160: 4181 de3d a655 48be 36e7 693d 83ee e23d
00000170: 1353 553e 1df4 e83d db70 fc3b 2182 2bbd
00000180: 29a3 1e3d 63e1 1bbd a4cf e83d 1fa5 73be
00000190: 042e 0abe 920f a0be 4a19 20be f5fa f33d
000001a0: c4b5 91bd 940b 21be d0a2 2abd f869 66be
000001b0: 5172 b83d 2d5f 903d 43f2 6ebe 54fd d4bd
000001c0: 4d84 1e3e 67fd 45be dac6 99bd c8a6 c33d
000001d0: ccfd 26be 829e 2abe 21f1 a2bd 587b ba3d
000001e0: 3ebb adbd 024c adbd 9f96 303d b9b7 053e
000001f0: 4db8 353d 1655 e13c 3cd3 e93d f5a3 a73d
00000200: d74c dbbd 376d 0ebd 916b 473d 8626 bebe
00000210: e458 89bc d548 01bd e49a 0fbe 4d15 d0ba
00000220: 642b 723d 06d1 32bd 2bee 3c3e b367 08be
00000230: 4822 443d ec8b 10be ceea a2bd 4d02 3bbd
00000240: 6c65 42bd 23af 3f3e eb40 cbbc 7d20 95bd
00000250: fa7d 32bd ddb3 813e 395c 8abd df3e aebd
00000260: 233f b43d 27cb 48bd df63 be3d f2b8 bcbd
00000270: 1acd 023d 5713 a33d 2941 0e3e 22f0 9b3d
00000280: 477f c4ba befd c73d 2fe3 cdbd 3be2 e8bc
00000290: 7892 2d3e 019d 5f3e dec5 833d fe86 b13c
000002a0: f363 a1bc 87c3 13be 6197 a63c baac 553e
000002b0: 992f 16be 85b1 25be 23db 04bd dbe6 b6bd
000002c0: 4eb1 79bd 8583 73bd 99c5 cdbc 6448 ac3d
000002d0: d6a7 363e ef67 043e d840 52be 89a4 593e
000002e0: 7e55 8ebd 3098 1b3c 9792 1bbe 8d32 a3bc
000002f0: 74ac 753e 5bd7 37bd 8729 ad3d e11c 103d
00000300: b4ce 113d d7a1 5cbe b6a2 aabd 09a2 713d
00000310: 2535 f93d 80de 25bd 1364 773e 644d a63d
00000320: 7dc6 7bbd 66a2 da3d 6d24 56be ad49 6d3e
00000330: ebf6 7fbe 9aff 53bd 87c8 25be c75b 4a3d
00000340: 7169 473e c305 21be 1ee5 aebd 8527 913d
00000350: 2d70 583e 75fe f33d f21c 6ebc 2ff7 533e
00000360: 537c 483e c771 34be db44 333e 1c83 303d
00000370: 326f 813d d28f 2c3d 3541 3cbc bc6c 783e
00000380: a9fc 04be 063d 7a3e 213a 29be 6e01 5a3d
00000390: e27e 77be 6ad2 be3a 7320 133e 47e3 dbbd
000003a0: fac2 cc3d 4956 eb3d 4d86 263e f577 b63d
000003b0: 46f4 5fbe 6cc9 103e 69bb 1ebe 3951 9e3d
000003c0: f5f1 d1bd 4e97 18bc d636 f03d 45c5 333d
000003d0: 57b3 903d c59e 2ebd a5f0 203d 7e78 04be
000003e0: ca55 23be 159d debd b90b 6fbd dba5 123e
000003f0: 86d3 0abd 160d 543d 956e 313d f82c 3bbd

functional_7_1/dense_13_1/Add/ReadVariableOp:0 f4 [64]
0.09841108 -0.060352746 0.08892108 -0.06568947 -0.028812934 0.012380444 0.027926624 0.05963369
0.014316035 0.0915269 -0.0034644424 0.073628366 -0.022047855 0.1114752 0.0108205825 -0.16852582
-0.017367233 0.07074797 0.06789275 0.010781839 0.07759678 -0.037978783 -0.037439443 -0.023755912
-0.047200244 0.053327464 0.027830452 0.039779935 0.0006723648 -0.09720528 0.024305928 -0.019743422
-0.080657385 -0.020397555 -0.027540807 -0.0004881928 -0.06878841 0.008623056 0.051509697 0.025228884
0.053632356 -0.0005858064 0.06124837 -0.06303836 0.025650842 -0.0630883 -0.02338712 -0.10561652
0.05530923 -0.11910793 -0.10340301 0.03027172 -0.0047625457 -0.018395731 -0.052075375 -0.016721873
-0.12729694 -0.027812466 0.08495553 -0.01592285 0.090513885 -0.041975297 -0.025497604 0.116271466
00000000: c08b c93d 7134 77bd 411c b63d 3388 86bd
00000010: 1a09 ecbc 59d7 4a3c 60c6 e43c 7542 743d
00000020: ce8d 6a3c 7572 bb3d b30b 63bb 78ca 963d
00000030: b49d b4bc 1c4d e43d d048 313c 0892 2cbe
00000040: ba45 8ebc 50e4 903d 5b0b 8b3d 4fa6 303c
00000050: 10eb 9e3d a48f 1bbd 1a5a 19bd c29b c2bc
00000060: 0b55 41bd e66d 5a3d b0fc e33c 49f0 223d
00000070: a341 303a 9013 c7bd 3a1d c73c f5bc a1bc
00000080: b32f a5bd c618 a7bc 429d e1bc 21f4 ffb9
00000090: f0e0 8cbd b847 0d3c d5fb 523d ceac ce3c
000000a0: 9aad 5b3d cd90 19ba 92df 7a3d 411a 81bd
000000b0: b721 d23c 7034 81bd 5896 bfbc 794d d8bd
000000c0: ee8b 623d dcee f3bd f5c4 d3bd 66fc f73c
000000d0: 210f 9cbb a5b2 96bc fd4c 55bd 4ffc 88bc
000000e0: 215a 02be f8d6 e3bc 2afd ad3d a370 82bc
000000f0: 585f b93d 4aee 2bbd 5ae0 d0bc bc1f ee3d

functional_7_1/dense_12_1/Cast/ReadVariableOp:0 f4 [25, 128]
0.09381916 0.099353835 -0.06739281 0.16619454 0.17255421 -0.0067380816 -0.015515909 -0.09431168
0.041985303 0.10514967 -0.072910324 -0.089341804 -0.035066158 0.16947551 -0.049638823 0.15448008
-0.11592677 -0.04189551 0.107277796 0.11151306 0.053584024 0.1545581 -0.19562702 0.020263508
-0.17290188 0.16057669 0.11874534 0.18219335 -0.04980874 0.05243422 0.09789218 -0.04811178
0.06261872 -0.009179279 -0.031575248 -0.044119567 -0.051280826 -0.029495 -0.088833496 -0.040866286
-0.01875493 0.04336956 -0.17618713 -0.14712206 0.031549662 0.114826515 -0.023179442 0.09637351
-0.091942914 -0.056723356 0.014260441 -0.07858912 0.016806826 -0.1190665 0.05330701 0.002046585
0.06086804 -0.09535463 -0.13594986 0.013034433 -0.18255599 -0.09282397 0.04614325 0.10358511
-0.075609066 -0.19414271 -0.019899577 -0.08340815 -0.15132242 0.097246274 -0.09128069 0.049724564
0.0153338015 -0.040091038 0.03848383 0.1643265 -0.11404421 0.008489102 -0.018082365 -0.073626935
0.1734777 -0.19145757 0.091924205 -0.123661265 0.014326975 0.0580215 0.15879361 -0.055864587
0.028025419 0.19190009 -0.13449955 0.12772594 -0.13676369 0.19781367 0.1335089 0.0058900267
-0.08079282 0.12465154 -0.18362562 0.09771128 -0.1577787 0.19574298 -0.09965535 -0.1721466
0.08860503 0.09688525 0.19324948 -0.15515399 -0.10344002 0.022157967 0.11391054 0.13790731
-0.1800732 0.09510295 -0.17826742 0.12516414 0.10612281 -0.18913057 0.07129584 -0.1088123
0.15774469 -0.06238483 -0.078205265 -0.0070752352 0.06348835 -0.05385469 -0.008317441 0.14381929
-0.020237813 -0.029093342 -0.11094642 0.106869936 -0.0994142 -0.12667151 0.08714342 -0.09758787
0.18887858 -0.15022767 -0.14166838 0.14896756 0.10685068 -0.13744457 0.11536664 0.2441731
-0.09018712 0.046016287 0.0015503683 -0.09444997 0.057775866 -0.25673598 -0.01144188 0.07102063
-0.1469582 -0.1868971 0.058128856 0.0945846 0.051638335 0.045608148 0.05591972 0.04041708
-0.1149494 0.06989147 -0.04781584 -0.10397984 0.024744429 -0.020762093 -0.1535034 0.25074756
-0.06071645 -0.220557 -0.052901458 -0.12866354 0.082614735 0.20396931 0.09018015 -0.1792243
-0.029027056 -0.021763975 0.14524195 0.18952526 -0.1831558 -0.016851686 0.13884915 0.052400995
0.22258885 -0.18352458 0.3082514 0.05205436 -0.081251055 0.05191201 -0.03505403 0.16956647
0.03754772 -0.15502724 0.22202438 -0.04491171 0.16874921 -0.044294737 -0.166027 -0.1795953
0.01651817 -0.1480921 0.2527637 -0.18181469 0.19637936 -0.19327839 -0.036690615 0.15828119
-0.1114975 0.028509498 0.030745894 0.1766653 -0.1354818 -0.15414618 -0.05809395 -0.094519936
0.10360799 0.049539946 0.026982086 -0.014651081 0.063754454 -0.11177387 0.20708904 0.1573357
-0.11138329 -0.16608626 -0.022809254 -0.019136887 0.021531306 -0.040122766 0.023451963 -0.098100334
0.00530417 -0.07354035 0.17752367 -0.12256707 -0.020877082 -0.14451307 -0.05304125 0.00997473
0.10876738 0.2284662 0.1864525 0.23177385 -0.047190152 -0.22444193 0.0040804213 -0.13130492
0.06645114 -0.08387592 0.022434572 0.04576024 0.06726933 0.17158106 0.019311506 -0.15936546
00000000: 4224 c03d 067a cb3d 3e05 8abd e72e 2a3e
00000010: 0db2 303e 20cb dcbb 7036 7ebc 7b26 c1bd
00000020: c8f8 2b3d b658 d73d 0252 95bd d6f8 b6bd
00000030: 88a1 0fbd fd8a 2d3e 1452 4bbd 0730 1e3e
00000040: 046b edbd a09a 2bbd 76b4 db3d f660 e43d
00000050: ec7a 5b3d 7b44 1e3e 7352 48be a8ff a53c
00000060: 310d 31be 376e 243e c230 f33d e590 3a3e
00000070: 4004 4cbd 44c5 563d b27b c83d dc10 45bd
00000080: 3e3e 803d b064 16bc 0c55 01bd b8b6 34bd
00000090: d80b 52bd 809f f1bc 56ee b5bd 6863 27bd
000000a0: f0a3 99bc 48a4 313d 666a 34be 2aa7 16be
000000b0: 383a 013d 2a2a eb3d d0e2 bdbc 7a5f c53d
000000c0: 914c bcbd c056 68bd a0a4 693c 55f3 a0bd
000000d0: 78ae 893c 23d9 f3bd 7458 5a3d 0020 063b
000000e0: c450 793d 4a49 c3bd 7136 0bbe 608e 553c
000000f0: f5ef 3abe 7e1a bebd b400 3d3d 6e24 d43d
00000100: edd8 9abd 59cd 46be 7004 a3bc e4d1 aabd
00000110: 44f4 1abe 0e29 c73d 5ff1 babd fcab 4b3d
00000120: a03a 7b3c 8036 24bd 38a1 1d3d 3545 283e
00000130: 0390 e9bd e015 0b3c 7821 94bc b8c9 96bd
00000140: 23a4 313e 740d 44be c242 bc3d 1e42 fdbd
00000150: b0bb 6a3c f4a7 6d3d cb9a 223e 44d2 64bd
00000160: 9095 e53c 7581 443e 40ba 09be 97ca 023e
00000170: c80b 0cbe ab8f 4a3e 8fb6 083e 2001 c13b
00000180: b576 a5bd 4e49 ff3d 5b08 3cbe da1c c83d
00000190: bd90 21be d970 483e 1b18 ccbd 3347 30be
000001a0: 8e76 b53d c66b c63d 31e3 453e b0e0 1ebe
000001b0: 5cd8 d3bd a084 b53c ee49 e93d 9337 0d3e
000001c0: 1c65 38be 56c5 c23d bc8b 36be 072b 003e
000001d0: ea56 d93d 72ab 41be 8e03 923d fcd8 debd
000001e0: d387 213e 3c87 7fbd 152a a0bd 60d7 e7bb
000001f0: 2e06 823d bc96 5cbd e045 08bc 5d45 133e
00000200: c5c9 a5bc 2955 eebc e037 e3bd a0de da3d
00000210: ac99 cbbd 2db6 01be 4078 b23d 26dc c7bd
00000220: 6369 413e 48d5 19be 8411 11be f48a 183e
00000230: 88d4 da3d 45be 0cbe 5845 ec3d 8308 7a3e
00000240: 06b4 b8bd 937b 3c3d ba35 cb3a fc6e c1bd
00000250: 63a6 6c3d e672 83be b976 3bbc 4473 913d
00000260: 367c 16be f461 3fbe 8618 6e3d 92b5 c13d
00000270: b882 533d 9ccf 3a3d 140c 653d 618c 253d
00000280: 976a ebbd 4223 8f3d 8bda 43bd 62f3 d4bd
00000290: d4b4 ca3c 4415 aabc ff2f 1dbe fc61 803e
000002a0: d0b1 78bd b2d9 61be 33af 58bd 60c0 03be
000002b0: ea31 a93d 55dd 503e 5fb0 b83d 9386 37be
000002c0: 26ca edbc 5d4a b2bc 4eba 143e e912 423e
000002d0: 328d 3bbe 8c0c 8abc 792e 0e3e 6da2 563d
000002e0: 55ee 633e deed 3bbe 21d3 9d3e f436 553d
000002f0: f466 a6bd b0a1 543d d194 0fbd d5a2 2d3e
00000300: a3cb 193d 76bf 1ebe 5c5a 633e 57f5 37bd
00000310: 98cc 2c3e 666e 35bd fb02 2abe d5e7 37be
00000320: 1d51 873c 75a5 17be 3e6a 813e a12d 3abe
00000330: ac17 493e c5ea 45be e648 16bd 7714 223e
00000340: cd58 e4bd c08c e93c d0de fb3c c0e7 343e
00000350: bebb 0abe 7fd8 1dbe ecf3 6dbd ab93 c1bd
00000360: 6d30 d43d 66ea 4a3d 8909 dd3c 160b 70bc
00000370: b291 823d b3e9 e4bd 260f 543e 9c1c 213e
00000380: ec1c e4bd 8412 2abe 79da babc f6c4 9cbc
00000390: 6c62 b03c c557 24bd 551e c03c d4e8 c8bd
000003a0: 9ace ad3b 539c 96bd c4c8 353e 7204 fbbd
000003b0: 6a06 abbc 3cfb 13be c841 59bd 0d6d 233c
000003c0: 6fc1 de3d 0bf3 693e 67ed 3e3e 2056 6d3e
000003d0: 764a 41bd 1bd4 65be 0eb5 853b cc74 06be
000003e0: 8917 883d 23c7 abbd b5c8 b73c 176f 3b3d
000003f0: 81c4 893d f2b2 2f3e 2a33 9e3c b330 23be

functional_7_1/dense_12_1/Add/ReadVariableOp:0 f4 [128]
-0.03506901 -0.060033366 0.0 0.008294295 0.009410885 0.039868478 0.013896031 -0.004877293
0.04998452 -0.06543752 0.020872645 0.028874109 0.0899326 0.029039113 -0.037992608 0.10454061
0.0 -0.055564936 0.086499825 -0.106344424 0.065858796 -0.08400538 0.060030546 0.060032256
-0.0018878963 0.03831763 0.023477733 -0.011510705 -0.023872392 0.04241761 0.0 0.06970178
-0.049275998 0.0 -0.07350281 -0.010849077 0.022738885 0.08810218 -0.051757824 0.033944674
-0.05949408 -0.11808873 0.022013817 0.0 0.09849408 -0.01735167 -0.13185345 -0.060032982
-0.18531531 0.017985234 -0.061062135 0.054649528 0.0 0.031161772 0.055406183 0.02013648
0.060840093 0.02508439 -0.02628935 0.019290932 0.021867938 0.0063734176 -0.07078433 0.014952502
-0.06559486 0.063967906 -0.0064601954 0.1085798 -0.065133594 -0.06003334 0.012806481 0.053511977
0.06465229 -0.0623633 0.048460245 0.0 0.07729901 -0.046383496 0.09837775 -0.040433895
-0.0695905 0.06907301 0.0 0.04309041 0.018565277 -0.060017675 0.106217176 -0.0028647347
0.029023496 -0.08012044 -0.045720696 0.044208378 0.068943866 0.03895629 -0.118967414 -0.015573446
0.0 -0.11558993 0.06650078 0.0671404 -0.083611876 0.06133962 0.06562893 -0.0017836953
0.07284916 -0.07903825 -0.024861787 -0.08484888 0.06277027 -0.0065702535 0.010712105 -0.13548201
-0.013212767 0.060033195 0.031129379 -0.046025388 0.072316416 0.025476092 -0.03630787 0.0
0.059497297 0.060032137 0.05936101 -0.1019411 0.07580129 0.095008664 0.077586435 0.055726986
00000000: 86a4 0fbd 8ce5 75bd 0000 0000 cbe4 073c
00000010: 1d30 1a3c 214d 233d 2eac 633c b3d1 9fbb
00000020: 91bc 4c3d 1b04 86bd 1cfd aa3c 6589 ec3c
00000030: 952e b83d 6fe3 ed3c 239e 1bbd 6319 d63d
00000040: 0000 0000 0f98 63bd d226 b13d 1bcb d9bd
00000050: fae0 863d 030b acbd 97e2 753d 62e4 753d
00000060: 4a73 f7ba f2f2 1c3d 6054 c03c 6597 3cbc
00000070: 0990 c3bc 16be 2d3d 0000 0000 cfbf 8e3d
00000080: a1d5 49bd 0000 0000 a488 96bd 54c0 31bc
00000090: e646 ba3c ea6e b43d 0300 54bd 9209 0b3d
000000a0: 10b0 73bd 81d8 f1bd 5256 b43c 0000 0000
000000b0: 44b7 c93d 1725 8ebc 9704 07be 25e5 75bd
000000c0: 4cc3 3dbe c555 933c 4a1c 7abd 2fd8 5f3d
000000d0: 0000 0000 f946 ff3c 98f1 623d 42f5 a43c
000000e0: 7633 793d c77d cd3c c35c d7bc 0408 9e3c
000000f0: 6424 b33c 1ad8 d03b 60f7 90bd 57fb 743c
00000100: 9956 86bd 9b01 833d 0cb0 d3bb 165f de3d
00000110: c364 85bd 85e5 75bd 46d2 513c 602f 5b3d
00000120: 6b68 843d a970 7fbd 407e 463d 0000 0000
00000130: f14e 9e3d 9ffc 3dbd 467a c93d 039e 25bd
00000140: 7785 8ebd 2676 8d3d 0000 0000 927f 303d
00000150: 3516 983c 18d5 75bd 6488 d93d 46be 3bbb
00000160: afc2 ed3c 2f16 a4bd a045 3bbd d813 353d
00000170: 7132 8d3d a190 1f3d 30a5 f3bd c427 7fbc
00000180: 0000 0000 6aba ecbd 9031 883d e880 893d
00000190: b43c abbd 413f 7b3d 7668 863d e2ca e9ba
000001a0: f131 953d cede a1bd f2aa cbbc 40c5 adbd
000001b0: b38d 803d 484b d7bb d381 2f3c ccbb 0abe
000001c0: 5d7a 58bc 5ee5 753d 0a03 ff3c 1e85 3cbd
000001d0: a11a 943d 3db3 d03c 90b7 14bd 0000 0000
000001e0: 70b3 733d 42e4 753d 8824 733d 7fc6 d0bd
000001f0: b53d 9b3d e793 c23d a3e5 9e3d fb41 643d

functional_7_1/batch_normalization_9_1/batchnorm/sub:0 f4 [128]
-0.20875299 -0.033460487 0.013717065 -0.32369784 -0.09344883 -0.17122065 -0.046041753 -0.41622314
-0.28177065 -0.03169861 -0.028937384 -0.2765078 -0.22014439 -0.12854038 0.034336105 -0.2331277
-0.0023336248 0.15158996 -0.23084597 -0.13921562 -0.5376299 -0.013545791 -0.5012255 -0.3005646
-0.060146645 -0.031656224 -0.15503317 -0.31968954 -0.03312561 -0.13118999 -0.056380745 -0.5070882
0.020390611 -0.03958137 -0.10044883 0.06179698 -0.19925429 -0.26745287 -0.17825219 -0.094578154
0.02584358 0.008700892 -0.017817667 0.0073675434 -0.5742977 -0.34551138 0.122548744 -0.033295657
-0.32061088 -0.3636931 -0.0348013 -0.073051035 -0.11518753 -0.08861065 -0.29518804 -0.42578855
-0.17135161 0.08078939 -0.18991992 0.067041494 -0.09429755 0.031875033 0.051734313 -0.1710827
0.028806025 -0.31574413 -0.1842082 -0.17586572 -0.32517666 0.059464913 -0.17894982 -0.17440309
-0.14065333 0.0019806402 -0.24168111 -0.021872735 -0.39096817 -0.103143975 -0.46027145 -0.25428078
-0.037450857 -0.29534915 -0.041490998 -0.13892484 -0.14092007 -0.012046468 -0.52389395 -0.040917166
-0.38477907 0.005084959 -0.06789324 -0.27344975 -0.2662807 -0.24905753 0.0020944937 -0.013674039
0.037844464 -0.013807405 -0.24433483 -0.27081925 -0.060916282 -0.0052991286 -0.24543512 -0.0444789
-0.22937234 0.020034809 -0.049298733 0.014996286 -0.2204253 -0.21925826 -0.39987925 -0.049339384
-0.33124536 -0.4742869 -0.07184882 0.06301869 -0.1853383 -0.20412377 -0.2265052 -0.037331074
-0.1875115 -0.38660893 -0.14268434 0.045954403 -0.1934776 -0.26615202 -0.13945982 -0.492369
00000000: 58c3 55be dd0d 09bd 8abd 603c b9bb a5be
00000010: 1a62 bfbd 7754 2fbe 4796 3cbd 331b d5be
00000020: 3e44 90be 67d6 01bd 180e edbc 6e92 8dbe
00000030: 886d 61be 17a0 03be 04a4 0c3d 07b9 6ebe
00000040: baef 18bb 663a 1b3e e362 6cbe 8a8e 0ebe
00000050: 1da2 09bf 2aef 5dbc 5050 00bf 9ae3 99be
00000060: 545c 76bd f5a9 01bd 04c1 1ebe 59ae a3be
00000070: b8ae 07bd ab56 06be 7fef 66bd 88d0 01bf
00000080: 360a a73c 1320 22bd 1eb8 cdbd d51e 7d3d
00000090: 5109 4cbe 95ef 88be be87 36be 31b2 c1bd
000000a0: eab5 d33c 308e 0e3c 5bf6 91bc 6f6b f13b
000000b0: 2d05 13bf dee6 b0be d6fa fa3d 0761 08bd
000000c0: 1c27 a4be fb35 babe cf8b 0ebd c89b 95bd
000000d0: 71e7 ebbd 8079 b5bd e322 97be f500 dabe
000000e0: cc76 2fbe e874 a53d 5e7a 42be 0d4d 893d
000000f0: 131f c1bd 658f 023d 5ce7 533d 4e30 2fbe
00000100: 9dfa eb3c 37a9 a1be 13a1 3cbe 2516 34be
00000110: 8e7d a6be 7b91 733d 9f3e 37be b996 32be
00000120: 6d07 10be a1cd 013b 417b 77be 732e b3bc
00000130: fb2c c8be 263d d3bd b3a8 ebbe 1731 82be
00000140: 1266 19bd 0138 97be 77f2 29bd 5042 0ebe
00000150: 5a4d 10be 8d5e 45bc ea1d 06bf c298 27bd
00000160: c301 c5be ba9f a63b 9c0b 8bbd 9b01 8cbe
00000170: f255 88be f008 7fbe c643 093b 1409 60bc
00000180: cc02 1b3d 7438 62bc e932 7abe d2a8 8abe
00000190: 5a83 79bd 50a4 adbb 5853 7bbe 822f 36bd
000001a0: 95e0 6abe 0a20 a43c 78ed 49bd fbb2 753c
000001b0: 2bb7 61be 3d85 60be f9bc ccbe 1818 4abd
000001c0: fe98 a9be bcd5 f2be 7925 93bd f10f 813d
000001d0: 53c9 3dbe d205 51be fbf0 67be 78e8 18bd
000001e0: 0403 40be 9bf1 c5be d81b 12be af3a 3c3d
000001f0: fe1e 46be 1445 88be 8ece 0ebe ca17 fcbe

functional_7_1/batch_normalization_9_1/batchnorm/mul:0 f4 [128]
1.4033996 1.4035378 1.4931635 1.5852445 1.3920727 1.6126584 1.4632099 1.6237808
1.5068709 1.4409674 1.6656768 1.5245347 1.4390901 1.4333602 1.3920614 1.5809392
1.4931635 1.4101928 1.3026469 1.4326109 1.3308375 1.3868968 1.4646362 1.3611714
1.589244 1.5825789 1.4872317 1.4593507 1.4617864 1.4598303 1.4931635 1.5376483
1.3983101 1.4931635 1.3820635 1.5507507 1.5033363 1.5491037 1.3754433 1.424612
1.4201308 1.3699176 1.6096914 1.4931635 1.5067202 1.4022847 1.3659909 1.4035385
1.5769775 1.4817804 1.4084134 1.6211033 1.4931635 1.4406245 1.5899006 1.6269932
1.4074852 1.5640152 1.3640838 1.5812985 1.4668323 1.4565057 1.4942075 1.4199697
1.3675143 1.3257716 1.5946213 1.5187958 1.5227183 1.4035257 1.5268692 1.4198681
1.3507735 1.3979553 1.3887016 1.4931635 1.4335451 1.4543644 1.4119761 1.5463989
1.4060881 1.4792517 1.4931635 1.3209612 1.5380212 1.4045632 1.463196 1.3924564
1.487099 1.5453981 1.6771448 1.3878049 1.4361937 1.250203 1.3707306 1.385863
1.4931635 1.3104181 1.350649 1.6361374 1.3925191 1.5322533 1.5936612 1.4518315
1.4984459 1.3488852 1.3959934 1.4811665 1.5900296 1.3486813 1.5304421 1.463136
1.3264843 1.6179565 1.4683372 1.6424459 1.5447602 1.5088894 1.4598206 1.4931635
1.6022686 1.4976404 1.498081 1.3934984 1.5483673 1.5556868 1.6031942 1.6917793
00000000: 99a2 b33f 20a7 b33f fb1f bf3f 4be9 ca3f
00000010: 702f b23f 976b ce3f 764a bb3f 0dd8 cf3f
00000020: 25e1 c03f 9f71 b83f e634 d53f f423 c33f
00000030: 1b34 b83f 5978 b73f 112f b23f 375c ca3f
00000040: fb1f bf3f 3381 b43f 22bd a63f cb5f b73f
00000050: e258 aa3f d685 b13f 3379 bb3f dd3a ae3f
00000060: 596c cb3f f291 ca3f 9c5d be3f 01cc ba3f
00000070: d11b bb3f b8db ba3f fb1f bf3f a9d1 c43f
00000080: d3fb b23f fb1f bf3f 75e7 b03f 007f c63f
00000090: 536d c03f 0849 c63f 870e b03f b059 b63f
000000a0: d9c6 b53f 7659 af3f 5e0a ce3f fb1f bf3f
000000b0: 35dc c03f 117e b33f cad8 ae3f 26a7 b33f
000000c0: 66da c93f fbaa bd3f e446 b43f 5080 cf3f
000000d0: fb1f bf3f 6266 b83f dd81 cb3f 5041 d03f
000000e0: 7a28 b43f a631 c83f 4c9a ae3f fd67 ca3f
000000f0: 29c1 bb3f c76e ba3f 3142 bf3f 91c1 b53f
00000100: b50a af3f e2b2 a93f 8d1c cc3f e767 c23f
00000110: 6fe8 c23f bba6 b33f 7370 c33f 3dbe b53f
00000120: 25e6 ac3f 33f0 b23f f9c0 b13f fb1f bf3f
00000130: 687e b73f 9d28 ba3f a2bb b43f 66f0 c53f
00000140: b2fa b33f 1f58 bd3f fb1f bf3f 4215 a93f
00000150: e1dd c43f bac8 b33f 024a bb3f 033c b23f
00000160: 4359 be3f 9bcf c53f aeac d63f 97a3 b13f
00000170: 32d5 b73f a706 a03f 1a74 af3f f563 b13f
00000180: fb1f bf3f c8bb a73f 11e2 ac3f f36c d13f
00000190: 113e b23f e020 c43f 17fd cb3f 9dd5 b93f
000001a0: 13cd bf3f 45a8 ac3f e9af b23f dd96 bd3f
000001b0: 1786 cb3f 97a1 ac3f 87e5 c33f 0a48 bb3f
000001c0: 3dca a93f 3319 cf3f 79f2 bb3f ab3b d23f
000001d0: b4ba c53f 4a23 c13f 67db ba3f fb1f bf3f
000001e0: 2317 cd3f aeb2 bf3f 1ec1 bf3f 285e b23f
000001f0: e630 c63f bf20 c73f 7835 cd3f 398c d83f

functional_7_1/batch_normalization_11_1/batchnorm/sub:0 f4 [32]
-0.22684908 -0.20818019 -0.37899703 -0.23098794 -0.2395542 -0.28000352 -0.29751623 -0.32481793
-0.40628782 -0.28124362 -0.47282577 -0.38995162 -0.16843998 -0.2149102 -0.44577533 -0.21872552
-0.26521736 -0.2827471 -0.4200222 -0.30888525 -0.2357552 -0.247082 -0.3816924 -0.43563655
-0.26090014 -0.33312982 -0.27899644 -0.28329197 -0.27841836 -0.26314932 -0.22940412 -0.3994644
00000000: 204b 68be 302d 55be e60b c2be 1a88 6cbe
00000010: b24d 75be 9f5c 8fbe 0c54 98be 894e a6be
00000020: f504 d0be 2aff 8fbe 3816 f2be bda7 c7be
00000030: 887b 2cbe 6b11 5cbe aa3c e4be 95f9 5fbe
00000040: 92ca 87be 3ac4 90be 260d d7be 3526 9ebe
00000050: d069 71be 1003 7dbe 306d c3be c10b dfbe
00000060: b494 85be fe8f aabe 9fd8 8ebe a50b 91be
00000070: da8c 8ebe 82bb 86be eae8 6abe 9986 ccbe

functional_7_1/batch_normalization_11_1/batchnorm/mul:0 f4 [32]
0.7467946 0.64697796 0.79141253 0.6462718 0.63346756 0.8641253 0.680254 0.942368
0.60869366 1.0876726 0.76500255 0.73873544 0.41459927 0.67161447 0.7405671 0.59158313
0.9343827 0.90333724 0.5471362 0.6945578 0.5760637 0.74442637 0.6419556 0.79257876
0.76962763 0.5967357 0.64064986 0.8373247 0.66946334 0.8658929 0.69387656 0.7267762
00000000: ee2d 3f3f 59a0 253f 039a 4a3f 1272 253f
00000010: ee2a 223f 5137 5d3f 2025 2e3f 073f 713f
00000020: 59d3 1b3f db38 8b3f 35d7 433f c41d 3d3f
00000030: 5b46 d43e edee 2b3f ce95 3d3f fe71 173f
00000040: b433 6f3f 1c41 673f 1e11 0c3f 8ace 313f
00000050: e978 133f ba92 3e3f 3457 243f 71e6 4a3f
00000060: 5106 453f acc3 183f a101 243f e95a 563f
00000070: f361 2b3f 28ab 5d3f e5a1 313f 010e 3a3f

functional_7_1/batch_normalization_10_1/batchnorm/sub:0 f4 [64]
-0.50317955 -0.26043582 -0.48908582 -0.42374846 -0.29467362 -0.4757955 -0.3998548 -0.4208143
-0.47336614 -0.3086645 -0.29408914 -0.51436716 -0.44863352 -0.43316165 -0.44084814 -0.33645272
-0.41505447 -0.40178433 -0.41734153 -0.3480358 -0.65148896 -0.43564042 -0.38264072 -0.33628044
-0.24586365 -0.46128395 -0.25198823 -0.4078971 -0.5355775 -0.19284403 -0.35209304 -0.5511453
-0.23490748 -0.32047874 -0.3199785 -0.34022602 -0.5192239 -0.49129602 -0.25010157 -0.62833655
-0.39550075 -0.39393118 -0.34596854 -0.26836708 -0.2757729 -0.4586687 -0.22707681 -0.3599159
-0.5602187 -0.29436994 -0.2402899 -0.22709167 -0.36785734 -0.4080388 -0.343577 -0.21944761
-0.26478934 -0.45529878 -0.4501144 -0.65883464 -0.38531765 -0.36304516 -0.45383283 -0.56826216
00000000: 60d0 00bf d857 85be 7569 fabe 8ff5 d8be
00000010: 76df 96be 789b f3be c5b9 ccbe f974 d7be
00000020: 0c5d f2be 4609 9ebe da92 96be 91ad 03bf
00000030: 4bb3 e5be 5dc7 ddbe d9b6 e1be 8843 acbe
00000040: 0582 d4be adb6 cdbe caad d5be c031 b2be
00000050: fbc7 26bf 430c dfbe 7ce9 c3be f32c acbe
00000060: aec3 7bbe 692d ecbe 9a04 81be e4d7 d0be
00000070: 9b1b 09bf e878 45be 8a45 b4be dc17 0dbf
00000080: 968b 70be ca15 a4be 39d4 a3be 1b32 aebe
00000090: dceb 04bf 278b fbbe 500d 80be aada 20bf
000000a0: 137f cabe 59b1 c9be ca22 b1be 6967 89be
000000b0: 1b32 8dbe a0d6 eabe d386 68be e646 b8be
000000c0: 7e6a 0fbf a8b7 96be 8e0e 76be b88a 68be
000000d0: cc57 bcbe 76ea d0be 53e9 afbe e0b6 60be
000000e0: 7892 87be ec1c e9be 6575 e6be 63a9 28bf
000000f0: 5b48 c5be 0ee1 b9be c75c e8be a179 11bf

functional_7_1/batch_normalization_10_1/batchnorm/mul:0 f4 [64]
0.9229279 0.9083194 0.98164254 1.0009147 0.8404139 1.0010278 0.7874723 0.8312466
0.9454043 0.54228634 0.95173514 0.62456995 0.8066777 0.8222246 0.71188766 0.92955375
0.96060014 0.54990095 0.94127697 0.9166413 1.0767833 0.7466186 0.95139086 0.7649774
0.43250862 0.9373322 0.81165457 0.7517107 0.8551443 0.9458672 0.87346476 0.87300515
0.89983815 0.7808146 0.7572867 0.9529858 1.0204486 0.78343886 0.7426491 0.9963026
0.6628835 0.9917322 0.7574538 1.1486841 0.94847894 0.7814399 1.0255326 0.8644262
0.7052197 0.9439971 0.69670707 0.88427347 1.130431 0.7826965 1.0929694 0.79827166
0.9662045 0.69329196 1.0150737 0.95869243 0.88859886 0.84214574 0.8423463 0.8534953
00000000: 0145 6c3f 9f87 683f ed4c 7b3f f91d 803f
00000010: 5e25 573f ae21 803f c997 493f 94cc 543f
00000020: 0406 723f 47d3 0a3f eaa4 733f d1e3 1f3f
00000030: 6e82 4e3f 507d 523f 453e 363f 3cf7 6d3f
00000040: e4e9 753f 4fc6 0c3f 87f7 703f 01a9 6a3f
00000050: 09d4 893f 6622 3f3f 5a8e 733f 8fd5 433f
00000060: c571 dd3e 01f5 6f3f 98c8 4f3f 1d70 403f
00000070: bdea 5a3f 5a24 723f 639b 5f3f 447d 5f3f
00000080: cb5b 663f 77e3 473f 8bdd 413f e1f6 733f
00000090: 0f9e 823f 738f 483f 401e 3e3f b00d 7f3f
000000a0: bcb2 293f 29e2 7d3f 7ee8 413f 1508 933f
000000b0: 84cf 723f 720c 483f a744 833f 094b 5d3f
000000c0: 4789 343f cba9 713f 655b 323f bf5f 623f
000000d0: f7b1 903f cc5e 483f 6ce6 8b3f 885b 4c3f
000000e0: 2e59 773f 957b 313f efed 813f de6c 753f
000000f0: 377b 633f dd96 573f 02a4 573f ab7e 5a3f
