models/Ljubljana/cars/Ljubljana_cars_model.onnx (onnx, 60601 bytes, 13 tensors)

functional_7_1/dense_15_1/Cast/ReadVariableOp:0 f4 [32, 1]
0.05068103 0.056088775 -0.046683706 0.010894549 -0.11182679 -0.019271879 0.039601658 -0.10516052
-0.0322301 -0.13149332 -0.012782386 0.034545273 -0.069561854 -0.026115315 0.11648834 0.1254767
-0.02427599 0.05034389 0.031994056 -0.15024921 0.096798316 -0.01677999 -0.033759184 -0.080800526
-0.085971236 0.17896779 -0.03362646 0.011637034 0.06659774 -0.0025795745 -0.09436108 -0.05807261
00000000: e996 4f3d 58bd 653d 6a37 3fbd 0d7f 323c
00000010: 7205 e5bd 0fe0 9dbc 5935 223d 665e d7bd
00000020: b603 04bd 2fa6 06be 366d 51bc 587f 0d3d
00000030: 7276 8ebd c9ef d5bc 7091 ee3d f77c 003e
00000040: 71de c6bc 6535 4e3d 330c 033d eeda 19be
00000050: 323e c63d 3176 89bc 1247 0abd bf7a a5bd
00000060: b011 b0bd 5543 373e e6bb 09bd 42a9 3e3c
00000070: 6564 883d 140e 29bb 6240 c1bd 8cdd 6dbd

functional_7_1/dense_14_1/Cast/ReadVariableOp:0 f4 [64, 32]
-0.08854013 0.05380028 -0.23381682 0.06373908 0.24526298 -0.24670908 0.11567213 0.03823362
-0.1252043 -0.23138788 -0.14866684 0.12516977 0.033011936 -0.25316855 -0.2078702 -0.18187535
0.0057079755 0.14441715 -0.073540695 0.0021580404 -0.04558858 -0.10206071 -0.20748651 -0.28595373
-0.050423615 -0.025709048 -0.18716186 -0.19635293 -0.19633208 0.38487667 -0.053230163 0.17941515
-0.006343772 -0.048412036 -0.16424619 -0.15185511 -0.05342741 -0.086196534 -0.16895525 0.019345734
0.18339097 -0.08922264 -0.1560287 -0.16016743 -0.064474896 0.02818521 -0.0065337494 0.09567389
-0.16994865 0.3127014 0.006778013 0.13973765 -0.009385191 0.29093823 0.016143754 0.27173963
0.025792051 -0.020851143 0.13114955 0.18315808 0.032512054 0.23529056 -0.008396217 -0.01832337
0.2545382 -0.07591998 0.051508892 -0.122666195 0.08081808 0.16811945 0.049883354 -0.1217927
0.16483971 -0.0176542 -0.018121978 0.21375106 -0.34278846 0.081004016 -0.064356245 -0.058279864
-0.05017114 0.020967554 -0.19164525 0.06525196 0.112012185 -0.13408862 0.028347813 0.08331865
-0.20128864 -0.09640915 -0.2258092 0.069549784 0.25603876 0.06943601 0.17619422 -0.20752758
0.050925907 -0.037637733 -0.32573804 0.21326002 -0.05793174 -0.20872991 0.075357474 0.3880287
-0.22948867 0.0030919034 0.20645396 0.07352896 0.08494077 -0.06931024 -0.19358663 0.3129362
-0.13184722 0.072928354 -0.06509688 0.05492114 0.13663489 0.06321258 0.09254345 -0.007884171
0.25599107 -0.08659624 -0.09379827 0.16284232 0.06456948 0.05547424 -0.11992909 -0.1408314
-0.09432433 0.2248199 -0.25065002 0.26912266 -0.20429392 0.018464942 0.004591122 -0.14510359
0.00077058363 -0.08702836 -0.040020123 0.13481282 0.22640285 -0.17719093 0.124627724 -0.024622511
-0.14540638 -0.34976822 0.08145811 0.11400985 0.108979054 0.060568217 -0.16511723 -0.01757759
-0.007295806 -0.0607136 -0.24383539 -0.07705745 0.19968043 -0.047215443 0.02036673 0.22497794
-0.02955161 0.22684127 0.20485498 0.10646269 0.26336884 -0.27960372 -0.24596223 -0.18532076
-0.11141163 0.13218291 -0.017605558 0.265556 -0.22973754 -0.057381522 -0.14252792 -0.22030167
0.061384134 0.17355625 -0.105420776 0.18134007 0.28214768 0.048788585 -0.029790515 -0.18183249
-0.20299128 -0.10425066 0.23381242 0.16024657 0.016411668 -0.11026673 -0.056766838 -0.31756818
0.05751759 -0.14237748 0.120069884 -0.18593885 0.28680167 0.003996645 0.12717715 0.13523024
-0.16525178 -0.20721151 0.016715731 0.14299758 0.20167083 -0.071391284 -0.018141259 -0.22399323
-0.09765153 0.021874703 0.16245717 -0.3538349 0.03835392 -0.12077642 -0.03880879 -0.21361986
0.1891382 0.10256442 0.1544581 0.12515189 -0.43685773 0.28098252 -0.025401894 0.32568762
-0.12422268 0.05001254 0.08514437 -0.013494622 0.28139654 -0.20473611 -0.20264353 -0.097829714
-0.12465778 -0.20129605 0.12140722 -0.10123313 0.10389671 0.10471679 0.1784145 0.11859521
-0.16645691 -0.4242386 -0.116128534 -0.03892799 -0.06378709 -0.10562581 0.23285903 0.25472867
0.055404548 0.11834749 -0.21933201 -0.13372613 0.012217501 -0.02684325 0.12521161 -0.072299704
00000000: 8754 b5bd af5d 5c3d ad6d 6fbe a389 823d
00000010: 3826 7b3e 4ea1 7cbe 82e5 ec3d db9a 1c3d
00000020: 8e35 00be f2f0 6cbe 1f3c 18be 812c 003e
00000030: 8637 073d 4f9f 81be eddb 54be 883d 3abe
00000040: f809 bb3b 17e2 133e 819c 96bd e96d 0d3b
00000050: 17bb 3abd 3505 d1bd 5877 54be 8768 92be
00000060: fe88 4ebd c89b d2bc 5ca7 3fbe be10 49be
00000070: 470b 49be 8e0e c53e df07 5abd 9bb8 373e
00000080: 6bdf cfbb b34b 46bd 2730 28be e87f 1bbe
00000090: b3d6 5abd cf87 b0bd 9b02 2dbe f27a 9e3c
000000a0: d8ca 3b3e 5cba b6bd fdc5 1fbe ee02 24be
000000b0: 6a0b 84bd abe4 e63c 1019 d6bb acf0 c33d
000000c0: 0507 2ebe 661a a03e 181a de3b 6317 0f3e
000000d0: 58c4 19bc dbf5 943e e83f 843c 7521 8b3e
000000e0: da49 d33c 04d0 aabc 114c 063e cb8d 3b3e
000000f0: 5c2b 053d 02f0 703e 4990 09bc e41a 96bc
00000100: d552 823e ef7b 9bbd fdfa 523d 6a38 fbbd
00000110: f383 a53d 8127 2c3e 7d52 4c3d 736e f9bd
00000120: becb 283e 8a9f 90bc 8b74 94bc 8fe1 5a3e
00000130: f881 afbe 6fe5 a53d 35cd 83bd deb6 6ebd
00000140: 4180 4dbd 26c4 ab3c a73e 44be d2a2 853d
00000150: a566 e53d 874e 09be ac39 e83c f8a2 aa3d
00000160: 9c1e 4ebe 2972 c5bd 873a 67be 1e70 8e3d
00000170: 8317 833e 7834 8e3d 426c 343e 1c82 54be
00000180: af97 503d 062a 1abd 23c7 a6be d660 5a3e
00000190: d549 6dbd 4bbd 55be 0555 9a3d b3ab c63e
000001a0: 14ff 6abe 88a1 4a3b ab68 533e 5a96 963d
000001b0: 6df5 ad3d 87f2 8dbd 933b 46be 2c39 a03e
000001c0: f502 07be 765b 953d 8351 85bd fdf4 603d
000001d0: 04ea 0b3e 9975 813d 6c87 bd3d 9c2c 01bc
000001e0: 4311 833e 5f59 b1bd 4f19 c0bd 23c0 263e
000001f0: 013d 843d f538 633d 629d f5bd 1b36 10be
00000200: 1d2d c1bd 3037 663e 3355 80be 72ca 893e
00000210: 6d32 51be ca43 973c 1f71 963b 0996 14be
00000220: fe00 4a3a ed3b b2bd 24ec 23bd 5f0c 0a3e
00000230: 26d6 673e 8a71 35be d23c ff3d 26b5 c9bc
00000240: 69e5 14be d214 b3be 82d3 a63d ff7d e93d
00000250: 6930 df3d 6116 783d 7e14 29be e1fe 8fbc
00000260: a811 efbb d3ae 78bd fcaf 79be 4cd0 9dbd
00000270: 0779 4c3e fb64 41bd 21d8 a63c 9e60 663e
00000280: 3816 f2bc 1449 683e 81c5 513e 1c09 da3d
00000290: 48d8 863e 3828 8fbe 86dd 7bbe bac4 3dbe
000002a0: c82b e4bd f55a 073e 8839 90bc f5f6 873e
000002b0: 5140 6bbe e308 6bbd d7f2 11be c396 61be
000002c0: ee6d 7b3d bbb8 313e d9e6 d7bd 36b1 393e
000002d0: a975 903e 8ad6 473d 3d0b f4bc 4c32 3abe
000002e0: f2dc 4fbe 5f81 d5bd 866c 6f3e ad17 243e
000002f0: c371 863c 86d3 e1bd 5884 68bd 4c98 a2be
00000300: 9097 6b3d 67cb 11be 33e7 f53d c166 3ebe
00000310: abd7 923e 4af6 823b ba3a 023e cc79 0a3e
00000320: c337 29be 412f 54be 6eef 883c f56d 123e
00000330: cc82 4e3e 9835 92bd fa9c 94bc 7b5e 65be
00000340: 86fd c7bd 9432 b33c 2c5b 263e d929 b5be
00000350: 0019 1d3d a159 f7bd f7f5 1ebd 2abf 5abe
00000360: 72ad 413e 4b0d d23d 442a 1e3e d127 003e
00000370: d1ab dfbe f1dc 8f3e a217 d0bc 87c0 a63e
00000380: 7668 febd f3d9 4c3d 2c60 ae3d 8c18 5dbc
00000390: 3513 903e 58a6 51be c981 4fbe f25a c8bd
000003a0: 944c ffbd 8d20 4ebe 59a4 f83d 5153 cfbd
000003b0: ccc7 d43d c275 d63d 4ab2 363e 0ce2 f23d
000003c0: ae73 2abe cd35 d9be ccd4 edbd f572 1fbd
000003d0: cea2 82bd 5852 d8bd 9972 6e3e cc6b 823e
000003e0: e1ef 623d 2b60 f23d 9298 60be 81ef 08be
000003f0: ea2b 483c 60e6 dbbc 7937 003e de11 94bd

functional_7_1/dense_14_1/Add/ReadVariableOp:0 f4 [32]
0.05087854 -0.0013769716 -0.010414089 -0.0759357 0.10352322 0.09680978 -0.06494984 -0.14059179
0.042994093 -0.07145572 -0.06055419 -0.008706926 -0.06242492 -0.0064400495 -0.029256523 -0.0241559
0.023550326 -0.031071335 0.07795674 0.044427272 0.041550912 -0.044764314 -0.0343813 0.07394013
0.06378969 -0.009060302 0.021713693 -0.05823079 0.015963675 -0.02409808 0.06780318 -0.013318145
00000000: 0466 503d 807b b4ba db9f 2abc 2d84 9bbd
00000010: fb03 d43d 3544 c63d 6c04 85bd 4bf7 0fbe
00000020: 931a 303d 6057 92bd ac07 78bd 7fa7 0ebc
00000030: 46b1 7fbd 0d07 d3bb 60ab efbc 98e2 c5bc
00000040: 9dec c03c 5089 febc c9a7 9f3d 5ff9 353d
00000050: 4a31 2a3d c95a 37bd 68d3 0cbd ec6d 973d
00000060: 2ba4 823d a971 14bc eae0 b13c 6983 6ebd
00000070: 41c6 823c 5669 c5bc 65dc 8a3d 5934 5abc

functional_7_1/dense_13_1/Cast/ReadVariableOp:0 f4 [128, 64]
-0.1352286 0.08749368 -0.008617941 0.044257525 0.08660888 0.09524026 0.08500089 -0.17999837
-0.1141126 -0.0748226 0.178884 0.09601587 0.10501954 -0.08192489 0.0793434 0.03483902
-0.18565485 -0.09641452 -0.18008989 0.17495523 -0.13291484 0.0057326416 -0.07619093 0.0367309
0.099368334 0.084273756 -0.000771687 0.1610079 -0.026773168 0.23489189 0.015848756 0.011953958
-0.1571349 0.022958014 0.022949424 -0.078002125 -0.06084498 -0.059564456 -0.17116262 -0.016829137
-0.015689228 0.057814267 -0.10229892 -0.046728756 0.016205464 -0.11237124 -0.11056961 0.28605148
0.21047723 0.09502281 -0.10313361 0.14351496 -0.059654072 -0.19922271 0.07343378 -0.057523582
0.027689647 -0.015200267 -0.1822736 0.088736534 -0.006742965 0.10997434 -0.01921739 0.18291774
0.11302544 -0.10642707 -0.09742786 0.032962944 -0.13731743 -0.016072465 0.06888618 -0.18874365
-0.12706321 -0.07822627 -0.02034477 0.023750596 0.12228201 -0.069736786 -0.14670038 0.030491821
0.07418368 -0.09730333 0.11278313 0.18034686 0.09384109 -0.087896764 -0.11893251 -0.040849023
0.013155882 -0.13474806 0.009585244 -0.21631916 0.05103933 0.048151173 -0.17314641 0.0770194
0.053106364 0.2708778 -0.031048803 -0.056019258 0.075060695 0.17790978 -0.17722306 -0.08263542
-0.05058445 0.0074129417 0.054687142 -0.027009306 0.007360581 -0.16988868 -0.022628924 -0.14875564
-0.09555039 -0.034401778 0.06270082 0.25903603 0.0490636 0.078512825 -0.084382124 -0.1118097
0.11989999 0.17548735 0.019366369 -0.14430682 -0.092563465 0.074405536 -0.095155805 0.003802668
0.093554005 0.21900862 -0.0026247674 0.17096 -0.018115243 -0.03243007 0.20482863 -0.04042648
-0.17651142 -0.10107131 -0.12345209 0.00020481541 -0.09657467 -0.06246918 0.011650006 0.02095362
0.12234 0.10035568 -0.10662748 -0.008690885 -0.15129076 -0.031092724 0.08406133 0.10178523
0.1441407 -0.04512659 0.12580557 -0.10458943 0.25142094 0.06820138 -0.1818872 -0.08585182
-0.065427706 -0.14672716 0.19531369 0.1372036 0.09258278 -0.12613496 -0.14016658 -0.00013578092
0.0013797256 -0.031529628 0.12642662 -0.06556153 -0.1930842 0.034200188 0.14809747 0.1316019
-0.100199185 0.14422928 0.05983543 -0.13895981 -0.113180734 0.18244098 0.09373308 -0.16055068
-0.07687321 -0.06919239 -0.03827877 0.031221118 -0.07527357 0.062800415 0.05481735 0.18270263
-0.04195286 0.020028343 -0.02333105 -0.003979567 -0.1286111 0.020869175 0.024541521 -0.17303792
0.10557834 0.046943597 0.13757086 -0.072067246 0.10104024 -0.106642514 -0.05745785 0.024964906
0.2015663 0.083736256 -0.2691502 -0.12349091 -0.0033708566 0.020597138 -0.11578444 0.020126224
-0.008001484 0.024164006 0.24782927 -0.07540315 -0.0036502704 -0.15558778 0.120619364 -0.17624366
0.0023064208 0.17478962 -0.0348866 0.10248209 -0.31052282 -0.15827022 -0.07663007 0.38380626
-0.025031367 -0.07653494 0.063724734 -0.011426661 -0.08015135 0.038379863 0.052200016 0.11882375
-0.24923155 0.13865227 0.025212979 0.18410006 0.05111795 -0.08400793 -0.06981098 -0.20661248
0.019786589 -0.26587495 0.1737198 -0.08867007 0.030816082 -0.041936383 -0.040359035 0.076470025
00000000: 5e79 0abe e32f b33d 4432 0dbc 6147 353d
00000010: ff5f b13d 530d c33d f214 ae3d 7e51 38be
00000020: deb3 e9bd 973c 99bd 5e2d 373e f8a3 c43d
00000030: 7c14 d73d 3dc8 a7bd cb7e a23d 5cb3 0e3d
00000040: 4e1c 3ebe fa74 c5bd 7c69 38be 7727 333e
00000050: d41a 08be e2d8 bb3b fe09 9cbd 2473 163d
00000060: a081 cb3d b897 ac3d 0a4b 4aba 41df 243e
00000070: 6753 dbbc 8087 703e 40d5 813c 89da 433c
00000080: f9e7 20be 7212 bc3c 6e00 bc3c 94bf 9fbd
00000090: 9638 79bd dcf9 73bd 4145 2fbe 42dd 89bc
000000a0: b286 80bc a7ce 6c3d 1982 d1bd a766 3fbd
000000b0: 52c1 843c e522 e6bd 5272 e2bd 5775 923e
000000c0: 5887 573e 529b c23d b737 d3bd 96f5 123e
000000d0: d457 74bd 0a01 4cbe 7364 963d d99d 6bbd
000000e0: 66d5 e23c 8a0a 79bc eea5 3abe 80bb b53d
000000f0: 17f4 dcbb 3a3a e13d ca6d 9dbc ca4e 3b3e
00000100: e279 e73d 70f6 d9bd 4288 c7bd 2704 073d
00000110: f19c 0cbe 67aa 83bc 3314 8d3d 0446 41be
00000120: dc1c 02be 1835 a0bd 13aa a6bc 9c90 c23c
00000130: fe6e fa3d 29d2 8ebd a038 16be fcc9 f93c
00000140: 9ded 973d f846 c7bd d7fa e63d d9ac 383e
00000150: c22f c03d 3803 b4bd e392 f3bd 4e51 27bd
00000160: c58b 573c 65fb 09be 6d0b 1d3c c582 5dbe
00000170: 9e0e 513d 2a3a 453d 4b4d 31be 59bc 9d3d
00000180: 0f86 593d 7fb0 8a3e 0f5a febc 7374 65bd
00000190: 6cb9 993d fb2d 363e f679 35be c23c a9bd
000001a0: a431 4fbd 43e8 f23b a0ff 5f3d 9f42 ddbc
000001b0: 0731 f13b 4cf7 2dbe 4b60 b9bc 6653 18be
000001c0: ecaf c3bd e1e8 0cbd 4a69 803d 5fa0 843e
000001d0: eaf6 483d 55cb a03d 89d0 acbd 7cfc e4bd
000001e0: 208e f53d f5b2 333e 38a6 9e3c 2bc5 13be
000001f0: ea91 bdbd ee61 983d 0ce1 c2bd 2f36 793b
00000200: 3e99 bf3d cc43 603e 4a04 2cbb 2310 2f3e
00000210: 6b66 94bc 65d5 04bd 99be 513e 3d96 25bd
00000220: 69bf 34be 7afe cebd 73d4 fcbd b8c3 5639
00000230: f1c8 c5bd afdf 7fbd abdf 3e3c eda6 ab3c
00000240: 658d fa3d 4787 cd3d 825f dabd 3764 0ebc
00000250: f7eb 1abe 2bb6 febc 5928 ac3d c674 d03d
00000260: 9f99 133e a9d6 38bd 2dd3 003e fc32 d6bd
00000270: 3fba 803e 2aad 8b3d a340 3abe 14d3 afbd
00000280: f6fe 85bd a53f 16be 5000 483e 1a7f 0c3e
00000290: 0a9c bd3d 8629 01be d487 0fbe 6a60 0eb9
000002a0: e9d7 b43a 3625 01bd fb75 013e 2045 86bd
000002b0: ddb7 45be 7f15 0c3d dda6 173e a6c2 063e
000002c0: 3b35 cdbd d7b0 133e ff15 753d 7b4b 0ebe
000002d0: 4dcb e7bd cfd1 3a3e 21f7 bf3d 6667 24be
000002e0: b46f 9dbd bdb4 8dbd 33ca 1cbd 6ec3 ff3c
000002f0: 0829 9abd 819d 803d 2888 603d 6616 3b3e
00000300: c3d6 2bbd 7b12 a43c c220 bfbc 0767 82bb
00000310: a1b2 03be d5f5 aa3c 4d0b c93c da30 31be
00000320: 7539 d83d ee47 403d 60df 0c3e fe97 93bd
00000330: 2fee ce3d 6467 dabd ec58 6bbd 3483 cc3c
00000340: 6567 4e3e ea7d ab3d 0ece 89be cde8 fcbd
00000350: 97e9 5cbb 54bb a83c 6420 edbd c0df a43c
00000360: a818 03bc 98f3 c53c f5c6 7d3e f76c 9abd
00000370: 6039 6fbb 6752 1fbe 4907 f73d 3879 34be
00000380: 5227 173b 0dfc 323e 40e5 0ebd 21e2 d13d
00000390: d9fc 9ebe 9711 22be 3af0 9cbd 4182 c43e
000003a0: 950e cdbc 5abe 9cbd 1d82 823d e436 3bbc
000003b0: 6426 a4bd 3434 1d3d afcf 553d de59 f33d
000003c0: 8e36 7fbe dcfa 0d3e 738b ce3c ba84 3c3e
000003d0: 0e61 513d 590c acbd 0ff9 8ebd 3992 53be
000003e0: 7c17 a23c c320 88be 9ae3 313e a798 b5bd
000003f0: 0272 fc3c 7cc5 2bbd 844f 25bd 519c 9c3d

functional_7_1/dense_13_1/Add/ReadVariableOp:0 f4 [64]
-0.064867154 0.05094428 -0.08113218 0.01907077 0.02631428 -0.12319066 0.04445297 -0.13650513
-0.054472327 0.050603185 -0.021630779 0.07343905 0.123417735 0.0034383854 0.010763959 -0.055409327
0.047133982 -0.06659864 -0.07503054 0.056590345 0.0678842 -0.0423218 -0.0058968016 -0.081549875
0.04836365 0.0784184 0.021133317 -0.033695035 -0.08640098 0.038811054 0.047788266 0.12765324
-0.039770793 -0.02224305 -0.07222445 -0.07807333 -0.08342537 -0.005064036 0.110550314 -0.04804453
0.123566985 -0.015762394 -0.09549979 -0.09521192 -0.032683797 0.05182525 0.001817988 0.08722375
0.07409235 0.09641813 -0.0039310153 0.10118327 -0.019887952 -0.106778525 0.2002045 -0.034036342
-0.11626183 -0.07180259 0.088835746 -0.11182256 0.10961623 -0.017302511 -0.018503772 0.0046164473
00000000: 12d9 84bd f3aa 503d a128 a6bd 4e3a 9c3c
00000010: 0c91 d73c 624b fcbd 5114 363d 00c8 0bbe
00000020: 601e 5fbd 4945 4f3d 0833 b1bc 3667 963d
00000030: 70c2 fc3d 8956 613b 515b 303c e4f4 62bd
00000040: 900f 413d de64 88bd 9da9 99bd 47cb 673d
00000050: df06 8b3d a059 2dbd f539 c1bb 9f03 a7bd
00000060: f618 463d d399 a03d c71f ad3c ce03 0abd
00000070: fff2 b0bd 57f8 1e3d a1bd 433d 88b7 023e
00000080: b3e6 22bd 0f37 b6bc 6aea 93bd e9e4 9fbd
00000090: ecda aabd 37f0 a5bb 3468 e23d 57ca 44bd
000000a0: b010 fd3d 2320 81bc 6595 c3bd 78fe c2bd
000000b0: 72df 05bd b746 543d 8e49 ee3a 5ea2 b23d
000000c0: bbbd 973d de76 c53d bfcf 80bb 2d39 cf3d
000000d0: 0fec a2bc b3ae dabd 6902 4d3e b169 0bbd
000000e0: af1a eebd 3c0d 93bd 84ef b53d 3a03 e5bd
000000f0: 797e e03d ffbd 8dbc 3995 97bc 9145 973b

functional_7_1/dense_12_1/Cast/ReadVariableOp:0 f4 [25, 128]
-0.022940531 -0.13565232 -0.0029193312 0.08375932 0.028084353 0.08783446 -0.13886485 0.11478798
0.18009232 0.07205169 0.094143644 -0.013832167 0.0042402744 -0.09656468 -0.12037367 0.18782921
0.19058548 -0.12744004 0.013129294 0.061223403 -0.11090836 0.15859674 0.01365152 -0.12701398
0.08993541 -0.06554556 0.12934299 0.0027607828 -0.19631138 0.06735952 0.08304761 0.044142976
0.13891642 -0.13597608 -0.0117082 0.0878741 0.007666543 -0.19148141 0.19572635 0.04146269
-0.19099812 0.0154476315 -0.124560975 -0.054221496 -0.02976577 0.088176504 -0.053077832 -0.0660245
0.007287279 -0.05849421 -0.18651569 0.14333497 -0.033630326 -0.113443606 0.047764093 0.16312619
0.17339583 0.04199432 -0.007448986 0.12570076 0.18517189 -0.17160572 0.17598991 0.16387798
0.029996559 0.15550251 -0.18266115 0.09753673 -0.13536106 0.037072748 0.06540869 -0.16810136
-0.1528498 0.03158152 0.07740225 -0.12980747 -0.14420913 -0.11196312 0.052150324 -0.100746036
0.02750428 0.090372965 0.08349536 -0.07712378 -0.07963646 0.1390376 0.08786486 0.15403496
0.071514115 -0.066634506 0.17066224 -0.10810178 -0.062057912 -0.10007555 0.054177597 0.103514805
0.021632805 -0.14411046 0.043347657 -0.1438548 -0.15146323 0.1506324 -0.052190542 -0.00014442205
-0.10018377 -0.17544892 -0.14309531 0.1427143 0.16216265 0.033425614 -0.10754437 0.18883158
0.041917592 0.048171416 0.090300396 0.04285389 -0.015184656 -0.16113348 -0.1341394 0.09777804
-0.06629942 -0.19167106 0.18760403 -0.11629429 0.12615265 0.08452828 0.19204827 0.081922516
0.003167146 -0.07140421 -0.22053868 0.23059215 0.10613141 -0.122359455 0.05556394 0.21499316
0.1683259 0.017350834 -0.3116038 0.16158539 -0.15659863 -0.055271838 -0.15311006 -0.12655783
0.121973224 0.09528491 -0.332952 -0.017113116 -0.19303101 0.013534238 -0.07078102 0.14014795
0.1848593 0.16192888 -0.16672947 -0.040254176 0.049722873 -0.2036079 -0.022256033 -0.088141486
-0.18273011 0.036908813 -0.22385034 -0.0755662 -0.1805296 -0.09059633 0.22746953 0.008059655
0.066455424 0.18041435 -0.17783011 0.24293745 0.108905286 0.24178392 0.061509605 -0.1776203
0.13280524 -0.16020685 0.088617176 -0.050798256 -0.15050045 0.02491777 -0.0900272 -0.17438832
-0.007479946 -0.027981324 -0.11585559 0.087605275 -0.11966988 -0.24544999 -0.18136278 -0.009403408
-0.20878801 0.017823411 -0.12035232 0.08294213 0.10426355 -0.16847186 0.19911182 0.082609475
0.17180002 -0.26572397 0.08542616 -0.16808115 -0.11367832 -0.19984517 0.00920004 -0.08141692
-0.044469915 0.04305523 -0.12604019 0.04949271 0.026553351 -0.07444758 -0.116052486 0.0146254925
-0.032086924 -0.068148494 -0.23073797 -0.19861192 -0.15235248 0.09782793 -0.21250582 0.013618114
-0.07641651 -0.17330773 -0.043161772 -0.10400743 -0.13278657 0.1355057 0.04728808 0.099627435
0.17067876 -0.046467356 0.07702978 -0.03106761 -0.12321413 0.0018090195 -0.14970085 -0.16122527
0.10990472 -0.18947095 -0.016703041 0.2041747 -0.12105546 0.16100287 0.056041706 -0.0755266
-0.03498731 0.19370942 -0.037157882 -0.005288848 -0.19546585 0.19005561 -0.2218191 -0.18653908
00000000: c8ed bbbc 71e8 0abe 4052 3fbb 028a ab3d
00000010: 2811 e63c 8ee2 b33d 9632 0ebe f615 eb3d
00000020: 1f6a 383e d68f 933d 62ce c03d 50a0 62bc
00000030: 00f2 8a3b b4c3 c5bd 7886 f6bd 4d56 403e
00000040: d728 433e a47f 02be 401c 573c 64c5 7a3d
00000050: ec23 e3bd 2f67 223e a0aa 5f3c f40f 02be
00000060: 0e30 b83d c03c 86bd 7d72 043e 40ee 343b
00000070: da05 49be caf3 893d de14 aa3d 44cf 343d
00000080: 1b40 0e3e 503d 0bbe c0d3 3fbc 56f7 b33d
00000090: a037 fb3b b413 44be 7d6c 483e c8d4 293d
000000a0: 0395 43be 1018 7d3c d319 ffbd 5c17 5ebd
000000b0: 58d7 f3bc e295 b43d 2468 59bd da37 87bd
000000c0: 20ca ee3b a097 6fbd f8fd 3ebe 67c6 123e
000000d0: f4bf 09bd 1f55 e8bd 48a4 433d 8d0a 273e
000000e0: ad8e 313e 3c02 2c3d a016 f4bb b3b7 003e
000000f0: b39d 3d3e 69b9 2fbe b336 343e a1cf 273e
00000100: 58bb f53c 0d3c 1f3e 860b 3bbe 56c1 c73d
00000110: 179c 0abe 98d9 173d fef4 853d c322 2cbe
00000120: a884 1cbe a05b 013d 1285 9e3d 40ec 04be
00000130: 8fab 13be ec4c e5bd 949b 553d f053 cebd
00000140: a850 e13c 7615 b93d 9eff aa3d 13f3 9dbd
00000150: 7118 a3bd df5f 0e3e 7ef2 b33d 57bb 1d3e
00000160: fe75 923d ac77 88bd 15c2 2e3e 7764 ddbd
00000170: 7030 7ebd 69f4 ccbd 54e9 5d3d 92ff d33d
00000180: 4837 b13c b191 13be 508d 313d ac4e 13be
00000190: 2d19 1bbe 613f 1a3e c0c5 55bd 0070 17b9
000001a0: 262d cdbd e2a8 33be 9487 12be b323 123e
000001b0: f70d 263e 4ce9 083d 3940 dcbd 115d 413e
000001c0: c8b1 2b3d 644f 453d 6aef b83d 9087 2f3d
000001d0: 10c9 78bc 2d00 25be d75b 09be da3f c83d
000001e0: fec7 87bd 6b45 44be 451b 403e b32b eebd
000001f0: 292e 013e 2a1d ad3d 4da8 443e fec6 a73d
00000200: e48f 4f3b 5f3c 92bd e4d4 61be 5920 6c3e
00000210: 6d5b d93d 9897 fabd 0497 633d 2b27 5c3e
00000220: a05d 2c3e 5623 8e3c 898a 9fbe a476 253e
00000230: 645b 20be b964 62bd e2c8 1cbe 6098 01be
00000240: 19cd f93d bc24 c33d af78 aabe ce30 8cbc
00000250: eca9 45be b5be 5d3c a4f5 90bd f282 0f3e
00000260: c24b 3d3e afd0 253e 21bb 2abe 90e1 24bd
00000270: 36aa 4b3d 977e 50be 4952 b6bc 8683 b4bd
00000280: 9a1d 3bbe b22d 173d 0639 65be 74c2 9abd
00000290: c0dc 38be 928a b9bd c6ed 683e a50c 043c
000002a0: c819 883d 8abe 383e 1919 36be 98c4 783e
000002b0: bc09 df3d 3496 773e 7ff1 7b3d 19e2 35be
000002c0: 19fe 073e 440d 24be ec7c b53d d511 50bd
000002d0: ca1c 1abe 5a20 cc3c 2e60 b8bd da92 32be
000002e0: 561a f5bb 1739 e5bc b245 edbd 656a b33d
000002f0: 7b15 f5bd 3e57 7bbe 2ab7 39be c010 1abc
00000300: 86cc 55be 6702 923c 477b f6bd 90dd a93d
00000310: 2188 d53d e383 2cbe f8e3 4b3e 282f a93d
00000320: 58ec 2f3e f90c 88be e9f3 ae3d 771d 2cbe
00000330: 2ed0 e8bd 36a4 4cbe c4bb 163c eabd a6bd
00000340: 1626 36bd ae5a 303d ae10 01be deb8 4a3d
00000350: 6a86 d93c f977 98bd edac edbd c39f 6f3c
00000360: 946d 03bd 7091 8bbd 9346 6cbe ec60 4bbe
00000370: 4a02 1cbe 025a c83d 209b 59be 831e 5f3c
00000380: 4280 9cbd 9577 31be 66ca 30bd d901 d5bd
00000390: 34f9 07be 02c2 0a3e 25b1 413d 7809 cc3d
000003a0: 6ac6 2e3e 8e54 3ebd cac1 9d3d 8081 febc
000003b0: b157 fcbd 9f1c ed3a 2e4b 19be 3d18 25be
000003c0: ba15 e13d ac04 42be d1d4 88bc 2c13 513e
000003d0: edeb f7bd f0dd 243e fd8b 653d b1ad 9abd
000003e0: db4e 0fbd c35b 463e dd32 18bd 134e adbb
000003f0: 3328 48be f09d 423e 8c24 63be 1a04 3fbe

functional_7_1/dense_12_1/Add/ReadVariableOp:0 f4 [128]
-0.077552244 0.043889686 -0.09735213 0.028707962 -0.060033116 -0.08502058 -0.050332792 0.08614306
0.10510816 0.013876405 0.010166823 0.08070631 -0.09244807 -0.012358267 0.008207648 0.0
-0.058234356 0.024375942 0.018221946 -0.006814974 0.0 0.02133864 -0.07273316 -0.038189575
0.038080238 -0.001268633 0.0 -0.04354466 0.075875886 -0.0840413 0.030116059 0.06003285
0.021813223 -0.027586024 -0.077500775 -0.10237853 -0.026463896 0.060034096 0.0833637 -0.051766887
-0.0019256679 -0.06003327 0.042712674 0.08754697 -0.0684186 0.05486771 -0.025139276 -0.11720805
0.0 -0.026932968 0.01199907 0.06003297 0.0 -0.06476527 -0.036915973 0.0
-0.031702124 -0.07081579 -0.060033403 -0.056899447 0.0552991 -0.0066751153 0.066690855 0.0
0.035851385 0.10430105 0.0 -0.011786476 -0.054169677 -0.06003341 0.07118948 0.068877555
-0.11622921 -0.030622285 0.010586654 0.0 -0.052439474 -0.060031943 0.02945281 0.06215268
0.0361096 0.04861321 0.0 -0.08458378 0.0010347536 0.106089234 -0.06003337 -0.12564373
-0.06003322 -0.008681285 -0.07393842 0.06886356 -0.027971478 0.0 -0.034780137 -0.052062336
0.05481754 0.0 0.044173524 0.036381617 0.0 0.061155632 0.0016240026 -0.066344835
-0.09142781 0.013084838 0.025450924 0.0 -0.043226607 0.06559359 0.031058047 0.07482106
-0.057572357 -0.03898962 0.027878346 -0.02497605 0.03903342 -0.104583606 -0.08845986 0.026001953
-0.08623665 -0.07576625 0.07928059 0.05901337 -0.08105448 0.110835075 -0.04809712 -0.028127186
00000000: b6d3 9ebd acc5 333d 8e60 c7bd f62c eb3c
00000010: 49e5 75bd 451f aebd c229 4ebd c66b b03d
00000020: f242 d73d dc59 633c bf92 263c 5a49 a53d
00000030: 6a55 bdbd 547a 4abc 5f79 063c 0000 0000
00000040: 2687 6ebd 0eb0 c73c 3146 953c 2550 dfbb
00000050: 0000 0000 5fce ae3c 1ff5 94bd ac6c 1cbd
00000060: 06fa 1b3d 4248 a6ba 0000 0000 e35b 32bd
00000070: d164 9b3d d81d acbd f4b5 f63c 01e5 753d
00000080: a5b1 b23c 16fc e1bc bab8 9ebd d6ab d1bd
00000090: d0ca d8bc 50e6 753d 96ba aa3d 8409 54bd
000000a0: b166 fcba 72e5 75bd 7cf3 2e3d d34b b33d
000000b0: 0d1f 8cbd f7bc 603d e2f0 cdbc c60a f0bd
000000c0: 0000 0000 87a2 dcbc bf97 443c 22e5 753d
000000d0: 0000 0000 a7a3 84bd 3435 17bd 0000 0000
000000e0: 16da 01bd de07 91bd 96e5 75bd 650f 69bd
000000f0: 4f81 623d edba dabb 3795 883d 0000 0000
00000100: e7d8 123d ca9b d53d 0000 0000 101c 41bc
00000110: 06e1 5dbd 98e5 75bd cacb 913d ad0f 8d3d
00000120: 9409 eebd 96db fabc a573 2d3c 0000 0000
00000130: c6ca 56bd 0ee4 75bd 0547 f13c cf93 7e3d
00000140: a9e7 133d a51e 473d 0000 0000 433a adbd
00000150: 92a0 873a 5045 d93d 8de5 75bd c0a8 00be
00000160: 65e5 75bd f33b 0ebc 076d 97bd 5708 8d3d
00000170: 7124 e5bc 0000 0000 9e75 0ebd 513f 55bd
00000180: 5b88 603d 0000 0000 4cef 343d e404 153d
00000190: 0000 0000 547e 7a3d 7cdc d43a cddf 87bd
000001a0: 813e bbbd ca61 563c 757e d03c 0000 0000
000001b0: 620e 31bd ef55 863d 726d fe3c c93b 993d
000001c0: fed0 6bbd 94b3 1fbd 2161 e43c 939a ccbc
000001d0: 82e1 1f3d ee2f d6bd 712a b5bd 0c02 d53c
000001e0: d79c b0bd 562b 9bbd dd5d a23d 01b8 713d
000001f0: e4ff a5bd 80fd e23d 7c01 45bd fc6a e6bc

functional_7_1/batch_normalization_9_1/batchnorm/sub:0 f4 [128]
0.07567636 -0.1148694 -0.060332637 -0.15532267 0.09894219 -0.0965975 -0.12105928 -0.3740859
-0.30462024 -0.11172308 -0.009488149 -0.38856822 0.006598949 -0.017200954 -0.1291556 0.057051916
-0.064325854 -0.08079193 -0.1701978 -0.46869284 0.11970371 -0.34002012 -0.019326812 -0.34958228
-0.086765 -0.031646512 -0.012788006 -0.07664593 -0.04761784 -0.14468813 -0.06367553 -0.29964548
-0.1170863 -0.002338484 0.08175867 0.042285696 -0.020785093 -0.24560705 -0.25025132 -0.039135564
-0.044583037 -0.033983648 -0.2310671 -0.16353823 0.05525485 -0.33164093 -0.041022345 0.038289078
-0.026472276 -0.1348864 0.030888919 -0.49438417 0.105975725 0.019770922 -0.095673926 0.13449353
-0.05639719 -0.022987887 0.037982125 0.04666309 -0.3722735 -0.10219143 -0.21715862 -0.03618793
-0.20494118 -0.19523403 -0.033319794 -0.088081405 0.0620797 0.0043548285 -0.26451775 -0.124732085
-0.115036786 -0.11907906 -0.16352342 -0.020015761 -0.2768963 -0.06562775 -0.32356104 -0.2628909
-0.057469375 -0.21378332 -0.14217435 0.020032726 -0.021986224 -0.36754686 -0.05392468 0.04456883
0.07804191 0.022830125 0.020535352 -0.12187947 -0.0025615804 -0.046364445 0.03306696 -0.094055906
-0.3392534 -0.00894705 -0.18570141 -0.09001678 -0.09106948 -0.25714874 -0.24854395 -0.11862449
-0.106127046 -0.2772733 -0.27678418 0.02430792 -0.01819094 -0.30198243 0.0047285855 -0.2171571
0.0071664033 -0.19671556 -0.30003166 -0.20537889 -0.4234797 -0.09399982 -0.095600866 -0.08641213
-0.0691487 0.101281725 -0.15130225 -0.28682572 -0.19556111 -0.25868455 -0.051594753 0.057465874
00000000: 35fc 9a3d a640 ebbd 5b1f 77bd e80c 1fbe
00000010: 34a2 ca3d e9d4 c5bd eeed f7bd 3088 bfbe
00000020: 2ff7 9bbe 12cf e4bd 2e74 1bbc 6af2 c6be
00000030: ff3b d83b 04e9 8cbc 5e41 04be 45af 693d
00000040: 46bd 83bd 3d76 a5bd 5548 2ebe 82f8 efbe
00000050: 3827 f53d 1e17 aebe 4353 9ebc 73fc b2be
00000060: d9b1 b1bd c69f 01bd c984 51bc 8bf8 9cbd
00000070: ed0a 43bd 2029 14be 5168 82bd 226b 99be
00000080: f1ca efbd 4041 19bb 1771 a73d c433 2d3d
00000090: 8045 aabc 6a80 7bbe f120 80be 9d4c 20bd
000000a0: b49c 36bd 7032 0bbd db9c 6cbe 9176 27be
000000b0: e952 623d d7cc a9be 0c07 28bd 02d5 1c3d
000000c0: 63dc d8bc a91f 0abe c20a fd3c ec1f fdbe
000000d0: cd09 d93d a1f6 a13c b1f0 c3bd acb8 093e
000000e0: bd00 67bd 1851 bcbc 2593 1b3d cc21 3f3d
000000f0: a29a bebe be49 d1bd d45e 5ebe cb39 14bd
00000100: 1adc 51be 6eeb 47be 567a 08bd 0664 b4bd
00000110: 4947 7e3d f3b2 8e3b df6e 87be 8973 ffbd
00000120: 6898 ebbd b9df f3bd af72 27be 18f8 a3bc
00000130: 5ac5 8dbe d767 86bd cba9 a5be a399 86be
00000140: 0265 6bbd 04ea 5abe 2796 11be ac1b a43c
00000150: 741c b4bc 1a2f bcbe 20e0 5cbd ce8d 363d
00000160: 70d4 9f3d 3e06 bb3c c139 a83c f29b f9bd
00000170: 30e0 27bb a5e8 3dbd 3871 073d 62a0 c0bd
00000180: 9fb2 adbe a696 12bc 8328 3ebe b85a b8bd
00000190: a382 babd 00a9 83be 4e82 7ebe 66f1 f2bd
000001a0: 2359 d9bd c4f6 8dbe a8b6 8dbe 6721 c73c
000001b0: 2b05 95bc 719d 9abe 40f2 9a3b 6e5e 5ebe
000001c0: 26d4 ea3b ce6f 49be c09d 99be d84e 52be
000001d0: 55d2 d8be fa82 c0bd 63ca c3bd d8f8 b0bd
000001e0: d59d 8dbd cb6c cf3d faee 1abe d2da 92be
000001f0: 2c41 48be 4d72 84be 0555 53bd 5661 6b3d

functional_7_1/batch_normalization_9_1/batchnorm/mul:0 f4 [128]
1.3932142 1.3736186 1.3484732 1.5638819 1.4035257 1.3709741 1.3396674 1.4471844
1.6079001 1.5151385 1.5425985 1.6606638 1.4991561 1.3516107 1.4059747 1.4931635
1.5678253 1.4817721 1.4667529 1.1944757 1.4931635 1.4804126 1.4700022 1.6760023
1.5095115 1.515833 1.4931635 1.3491443 1.4360138 1.3340168 1.4411954 1.3628871
1.5552701 1.4567928 1.3451078 1.3826698 1.4279022 1.5356088 1.5639299 1.5338345
1.6728351 1.4035221 1.6096814 1.4103361 1.4084523 1.5494645 1.4300466 1.3447533
1.4931635 1.7025602 1.5295658 1.4839252 1.4931635 1.3991628 1.5332223 1.4931635
1.3868786 1.388461 1.4035231 1.4082713 1.5473458 1.6356705 1.5627459 1.4931635
1.3543915 1.5680124 1.4931635 1.3923565 1.408558 1.4035243 1.5832905 1.3967034
1.5482299 1.3787557 1.5660276 1.4931635 1.3845514 1.4035356 1.3556646 1.6886765
1.5677011 1.5248562 1.4931635 1.397936 1.6269401 1.4798535 1.5827909 1.499856
1.4035425 1.4780302 1.4093894 1.6854317 1.4481362 1.4931635 1.4278367 1.6240801
1.3335224 1.4931635 1.3921351 1.332012 1.4931635 1.3514072 1.5093986 1.5236355
1.6111217 1.3395121 1.5451858 1.4931635 1.3678479 1.4142333 1.4054097 1.4521437
1.5454519 1.4910504 1.6633466 1.5798684 1.54006 1.535049 1.5574213 1.5461814
1.3364105 1.4794537 1.3812257 1.422141 1.4416134 1.4667934 1.3836169 1.3766756
00000000: d854 b23f bcd2 af3f c59a ac3f 482d c83f
00000010: bba6 b33f 147c af3f 397a ab3f 573d b93f
00000020: accf cd3f 0ff0 c13f de73 c53f a290 d43f
00000030: 59e4 bf3f 9401 ad3f fbf6 b33f fb1f bf3f
00000040: 80ae c83f b5aa bd3f 8fbe bb3f 94e4 983f
00000050: fb1f bf3f 297e bd3f 0829 bc3f 3e87 d63f
00000060: ac37 c13f d106 c23f fb1f bf3f c3b0 ac3f
00000070: 4dcf b73f 10c1 aa3f 1779 b83f 1673 ae3f
00000080: 1713 c73f 3078 ba3f 7e2c ac3f 53fb b03f
00000090: 80c5 b63f d48e c43f db2e c83f b054 c43f
000000a0: 761f d63f 9da6 b33f 0a0a ce3f e585 b43f
000000b0: 2a48 b43f da54 c63f c40b b73f e020 ac3f
000000c0: fb1f bf3f 7eed d93f d0c8 c33f 43f1 bd3f
000000d0: fb1f bf3f c417 b33f a140 c43f fb1f bf3f
000000e0: 3d85 b13f 17b9 b13f a5a6 b33f 3c42 b43f
000000f0: 6d0f c63f a75d d13f 0f08 c83f fb1f bf3f
00000100: b35c ad3f a1b4 c83f fb1f bf3f bd38 b23f
00000110: a14b b43f afa6 b33f 43a9 ca3f 2dc7 b23f
00000120: 662c c63f 117b b03f 9873 c83f fb1f bf3f
00000130: fb38 b13f 0ea7 b33f 6b86 ad3f 8d26 d83f
00000140: 6eaa c83f 7d2e c33f fb1f bf3f 91ef b23f
00000150: 933f d03f d76b bd3f e498 ca3f 48fb bf3f
00000160: 48a7 b33f 1830 bd3f df66 b43f 3abc d73f
00000170: 875c b93f fb1f bf3f 5ac3 b63f dbe1 cf3f
00000180: ddb0 aa3f fb1f bf3f 7c31 b23f 5f7f aa3f
00000190: fb1f bf3f e9fa ac3f f933 c13f 7d06 c33f
000001a0: 3c39 ce3f 2275 ab3f a6c8 c53f fb1f bf3f
000001b0: a415 af3f 9905 b53f 77e4 b33f d8df b93f
000001c0: 5ed1 c53f bdda be3f 8be8 d43f 2139 ca3f
000001d0: b020 c53f 7c7c c43f 9559 c73f 46e9 c53f
000001e0: 800f ab3f bd5e bd3f 01cc b03f b708 b63f
000001f0: ca86 b83f e3bf bb3f 5c1a b13f e836 b03f

functional_7_1/batch_normalization_11_1/batchnorm/sub:0 f4 [32]
-0.25674334 -0.14609794 -0.4895993 -0.34715566 -0.48274276 -0.44299978 -0.21493486 -0.3599117
-0.45785332 -0.42160177 -0.3157431 -0.2747562 -0.33449697 -0.3731953 -0.14092124 -0.2710378
-0.4455372 -0.35062477 -0.32204446 -0.3449225 -0.22487429 -0.32671553 -0.35762197 -0.40328407
-0.3192868 -0.18503833 -0.44009882 -0.39392442 -0.4498294 -0.33725864 -0.43136436 -0.4360435
00000000: dd73 83be b39a 15be c2ac fabe 63be b1be
00000010: 0f2a f7be ded0 e2be e217 5cbe 5946 b8be
00000020: c06b eabe 30dc d7be 14a9 a1be d8ac 8cbe
00000030: 3043 abbe 7413 bfbe a84d 10be 77c5 8abe
00000040: 741d e4be 1785 b3be 03e3 a4be af99 b0be
00000050: 7245 66be 4247 a7be 3a1a b7be 407b cebe
00000060: 8f79 a3be b07a 3dbe a254 e1be 76b0 c9be
00000070: 0a50 e6be 2aad acbe cadb dcbe 1841 dfbe

functional_7_1/batch_normalization_11_1/batchnorm/mul:0 f4 [32]
0.62385774 0.94595736 0.76864964 0.9101073 0.6318419 0.70390296 0.98322546 0.75260407
0.7898807 0.5439407 0.80334294 0.97246116 0.812625 1.0204922 0.7100795 0.5875838
0.975178 1.05249 0.7902131 0.60442215 0.7190897 1.0314496 0.8370152 0.65726554
0.6064391 0.6211533 0.74223876 1.0591904 0.6008679 0.9988815 0.61058956 0.8020478
00000000: 24b5 1f3f 432a 723f 39c6 443f cbfc 683f
00000010: 64c0 213f fc32 343f aab4 7b3f a9aa 403f
00000020: 9f35 4a3f b33f 0b3f e2a7 4d3f 37f3 783f
00000030: 3108 503f 7d9f 823f c5c7 353f e46b 163f
00000040: 44a5 793f feb7 863f 684b 4a3f 69bb 1a3f
00000050: 4316 383f 8a06 843f a146 563f 8e42 283f
00000060: 983f 1b3f e703 1f3f 5c03 3e3f 8d93 873f
00000070: 7bd2 193f b3b6 7f3f 994f 1c3f 0153 4d3f

functional_7_1/batch_normalization_10_1/batchnorm/sub:0 f4 [64]
-0.40252867 -0.36615586 -0.27156645 -0.62402475 -0.3376593 -0.21401651 -0.5342098 -0.27832252
-0.31798613 -0.48762283 -0.4286371 -0.38545477 -0.34337622 -0.4635245 -0.44517997 -0.33480224
-0.4802085 -0.40146774 -0.17737696 -0.25495562 -0.32009608 -0.3555147 -0.49503982 -0.42043513
-0.4039295 -0.35882655 -0.3692552 -0.3767094 -0.23081008 -0.40570438 -0.36569208 -0.45594147
-0.47047564 -0.37931672 -0.34607998 -0.37868538 -0.42289707 -0.40818176 -0.40176257 -0.4338942
-0.38921762 -0.37445495 -0.33517867 -0.36090094 -0.37853283 -0.35623962 -0.44559684 -0.59910876
-0.5559635 -0.4042449 -0.21764562 -0.40500033 -0.41244435 -0.33170605 -0.6305375 -0.5285503
-0.23935208 -0.41330346 -0.3231847 -0.28007254 -0.41763288 -0.26659706 -0.21141753 -0.44212228
00000000: 3d18 cebe c878 bbbe c20a 8bbe 16c0 1fbf
00000010: aee1 acbe 2527 5bbe f9c1 08bf 4a80 8ebe
00000020: 14cf a2be b3a9 f9be 5276 dbbe 545a c5be
00000030: 02cf afbe 1553 edbe a1ee e3be 336b abbe
00000040: e3dd f5be 2e8d cdbe 4ea2 35be 8b89 82be
00000050: a2e3 a3be 0606 b6be dc75 fdbe 4643 d7be
00000060: d9cf cebe 1db8 b7be 040f bdbe 0ee0 c0be
00000070: 7a59 6cbe 7cb8 cfbe fe3b bbbe 2971 e9be
00000080: 2fe2 f0be cd35 c2be 6531 b1be 0de3 c1be
00000090: f785 d8be 33fd d0be d3b3 cdbe 6127 debe
000000a0: 8847 c7be 8fb8 bfbe 8a9c abbe 02c8 b8be
000000b0: 0ecf c1be 0a65 b6be 4525 e4be 315f 19bf
000000c0: a053 0ebf 30f9 cebe 7ede 5ebe 345c cfbe
000000d0: e82b d3be 60d5 a9be e86a 21bf 134f 07bf
000000e0: b618 75be 839c d3be 7778 a5be ab65 8fbe
000000f0: fad3 d5be 697f 88be d67d 58be da5d e2be

functional_7_1/batch_normalization_10_1/batchnorm/mul:0 f4 [64]
0.96887743 0.8089371 0.86410475 1.0679952 1.0740316 1.2906547 1.0932333 1.0449054
1.0700231 1.0247302 1.0892054 0.9591634 0.8075247 0.9565961 1.0701569 1.0768667
0.92868745 0.88194114 0.9681191 1.0261811 1.1183516 0.88100016 1.1366729 0.95859706
0.9122792 0.89554983 1.2112538 0.9101298 1.0777727 0.9751086 1.0567567 0.85437834
0.851426 0.93477654 1.1316209 1.2105757 0.9024605 1.0008134 1.0138037 1.1194125
0.9827517 0.8044734 0.94166815 1.1024648 0.9962552 0.965323 0.9345712 1.0665996
0.98941 0.9959885 0.99018174 0.84203166 1.0127817 1.0799668 0.9711277 0.85343784
1.1890572 0.9769716 0.9108421 0.8757896 0.7965512 1.0470206 0.9867141 1.0285847
00000000: 5a08 783f 8016 4f3f f835 5d3f 11b4 883f
00000010: de79 893f 2c34 a53f 12ef 8b3f 76bf 853f
00000020: 84f6 883f 5c2a 833f 156b 8b3f bc8b 753f
00000030: f0b9 4e3f 7be3 743f e7fa 883f c5d6 893f
00000040: 76be 6d3f e5c6 613f a7d6 773f e759 833f
00000050: 2526 8f3f 3a89 613f 7f7e 913f 9e66 753f
00000060: 218b 693f c142 653f 5d0a 9b3f 44fe 683f
00000070: 75f4 893f b8a0 793f ce43 873f 8ab8 5a3f
00000080: 0ef7 593f 844d 6f3f f4d8 903f 25f4 9a3f
00000090: a707 673f a71a 803f 52c4 813f e948 8f3f
000000a0: 9e95 7b3f f8f1 4d3f 2a11 713f 911d 8d3f
000000b0: 950a 7f3f 681f 773f 0f40 6f3f 5686 883f
000000c0: f949 7d3f 1af9 7e3f 8d7c 7d3f 638f 573f
000000d0: d5a2 813f 5a3c 8a3f d39b 783f e77a 5a3f
000000e0: 0733 983f d01a 7a3f f32c 693f bf33 603f
000000f0: c8ea 4b3f c504 863f 4c99 7c3f aaa8 833f
