models/Maribor/speed/Maribor_speed_model.onnx (onnx, 60994 bytes, 13 tensors)

functional_1_1/dense_3_1/Cast/ReadVariableOp:0 f4 [32, 1]
00000000: 3fe4 f3bc ea98 013e 1136 853d b2a4 063d
00000010: 351f bcbb 72c4 bfb9 f8b5 c7bd a730 1abe
00000020: 7794 2cbd e587 163e 9905 113d 6630 703d
00000030: 2eef e4bc b2a2 d5bc 86c3 15bd 344a 163a
00000040: acb9 8bbd 2751 31be 35ae d2bd cb18 a9bd
00000050: 4ca0 1fbd 248f 1e3d b07f f7b9 00e2 f03d
00000060: 89f8 093e baa7 27bd d38b 8b3d 588a 1a3e
00000070: 7b16 edbc 9fb8 0bbe 92bf 16bc 6ec6 c53d
-0.029771922 0.12655988 0.06504453 0.03287191 -0.005741025 -0.00036576722 -0.09751505 -0.15057622
-0.042133775 0.14700277 0.03540573 0.058639906 -0.027946081 -0.026078556 -0.03656342 0.0005733103
-0.068225235 -0.17316113 -0.102871336 -0.08256682 -0.03897123 0.03871073 -0.00047206646 0.11761856
0.13473715 -0.04093144 0.06813779 0.15091836 -0.028941384 -0.13644646 -0.009200947 0.09656988

functional_1_1/dense_2_1/Cast/ReadVariableOp:0 f4 [64, 32]
00000000: e54a 81be e816 0a3e 2f09 0dbe 4e16 a5bd
00000010: 7234 63be 8008 373d c57f 25be e26f 32be
00000020: d88b 333c 5096 d6bd 79a5 c93c c594 91be
00000030: e86d 833e 63a2 153d eb00 a73d c41c 853e
00000040: 707c 2d3d 3c5e 2dbd 0c18 d9bd 0fcd b0bd
00000050: 8832 4ebc 1037 b8be 2d12 e23c dfa2 a2be
00000060: abd4 143d b115 1d3d 035f f23d 2418 053e
00000070: 4318 16bd 97b4 acbc 065b 12be 5e65 f93c
00000080: 8aa9 2fbd 054d 80bc d4c9 fb3d bb3c f5bd
00000090: da8a 18be 9b94 a2bd cf28 7c3e 6faf 5abd
000000a0: cf91 9dbe 6563 9b3e 80ed 873d 13dd d53d
000000b0: 26f8 03be 5a6e 83be 74a2 c8bc f911 cbbd
000000c0: 07ae a53d b299 00bc 916e e3bc 4044 293d
000000d0: 13c6 8ebe 0144 63be b272 963d df0b 7cbe
000000e0: cc40 dcbc 2e11 4d3d 5ef0 103e aad0 77bd
000000f0: d542 133e 7aa3 893d 4641 b0bd 33b2 07be
00000100: 2eb5 d13d 868e 87bb 893e ca3d 5504 053e
00000110: e32d 6fbe 535c 8bbc de1d 1bbd a53e 2abe
00000120: ef27 1dbb a04b 3c3d dfb4 84be f494 4a3e
00000130: a4e1 4bbd 224e 7d3e d850 20be fe73 e3bd
00000140: 3462 74be 19d5 51bd fc2a 8f3a 4b47 c13c
00000150: 0a74 053e 172f 21be c5bd a0bb c905 6a3b
00000160: 584c 883e e7e1 a5bd 8a8c bf3d 7795 ebbd
00000170: 4607 323d 210a 933e cd7f 213e 5729 313d
00000180: 59cc 66be 9350 213e d00d 8a3e 4bb6 223e
00000190: 9eb3 493e 8bd8 313e 1066 8cbb 9308 093e
000001a0: a422 063e c569 06be 5bbe 013d 9252 9abd
000001b0: 1f7a 7ebe 50a0 133d 6b2a 743e c11b 8d3d
000001c0: 661c e33d b440 f9bd 31ef fcbc bc3d 13be
000001d0: 7a14 303e 7a3a d93d 39a2 eebd ee50 49bd
000001e0: b2c8 91bd 5ff2 543e 40b1 a2bd 6a9e 6fbe
000001f0: 984e 88bd 59fd a4be ff1a 713e 7000 8cbe
00000200: b1ef e93d 5362 863e 6442 393d 7b28 a63d
00000210: 0f07 01bd e1d1 29be 0647 3e3d dcca 623e
00000220: 18e0 c5bc 970c fdbc 0c81 1fbe c311 b23d
00000230: f230 5e3c bc5d f53d 3c3e 7f3d 4c54 30bd
00000240: b189 91be e340 073e f84d 1dbe ee86 6d3e
00000250: 4b85 24bd 01ca 8cbe 4237 583e ac60 30be
00000260: dfec 123d 4410 30be e884 82be d52a 4cbe
00000270: bc3a 793e 54fd 5a3d 8711 283c d21b d83a
00000280: 8342 503e 6011 de3c 80b6 8bbe 75a8 433d
00000290: 1f2b 20be 6082 2d3e ac16 6fbe 6038 8fbe
000002a0: 1358 6d3d 3af2 dfbb 4fb8 743e 4b58 303e
000002b0: 8b15 b83d e928 fbbc 77c8 ca3d eff5 4a3b
000002c0: 402e 17bd 2d4f 603d 8fb1 123e 9b1a 3bbd
000002d0: 7ae6 4bbe 46c3 b93d babb f13c a86e a4be
000002e0: 6456 583e 6b56 99bd 7d06 6c3e 02c9 443e
000002f0: d2f2 c4bc a25d 273e f9a5 373e 83b4 16be
00000300: 65d3 2b3e f420 4abe 450b 3cbd 11f4 633e
00000310: 5c19 16be 1dcd 69be fed0 803e 0a2f 34be
00000320: abe8 12be af28 1cbe 6dc0 753e 4366 6dbe
00000330: 4ed3 14be 34f9 4abe cbce de3d 092b 593e
00000340: aebc 19be b484 3d3e a1ad 98bd 6675 04be
00000350: b8ff 1bbd a00a 143e 7d17 f2bd 9998 de3c
00000360: f56e b43c fdbb 3fbc b395 073e 5332 b13d
00000370: 7dfa 533e 8e4b 433e e1f8 aebd aa8b 093e
00000380: 25fb 913e c94b cdbd 42f5 bebd d68c dcbd
00000390: d8b7 d9bd 1140 c7bd 08ed 1b3e f5f7 20be
000003a0: 47af 1e3d 04d0 563e d94f 0f3e ae6a 3abe
000003b0: 6284 963d a586 9bbe 9c36 a9bc 8787 a63d
000003c0: bf70 3e3e 00df 42bd 7956 3bbc 7d0d 26bd
000003d0: a53d 8d3d 7373 ea3b 7529 a2bd 08b5 0cbd
000003e0: 8166 d03c d737 83be 54d1 633c 8871 943d
000003f0: 9af3 9abd 2395 cfbd 9d6e 4d3e 320d 9f3e
-0.25252452 0.134853 -0.13773035 -0.08060895 -0.22187975 0.04468584 -0.16162021 -0.17425492
0.010958634 -0.104778886 0.024615036 -0.28433815 0.2566979 0.036531817 0.08154472 0.2599851
0.042355 -0.042326197 -0.1060029 -0.08632862 -0.01258529 -0.3597951 0.027596558 -0.31764886
0.03633563 0.038350765 0.11834528 0.1299749 -0.03664423 -0.021082206 -0.14292535 0.030443843
-0.042886294 -0.015661726 0.12294355 -0.11974474 -0.14896718 -0.079385005 0.24624942 -0.053389963
-0.30775306 0.3034927 0.066370964 0.10442557 -0.1288763 -0.2567013 -0.024491526 -0.099155374
0.08089834 -0.007849144 -0.027762683 0.041324854 -0.27885494 -0.2219391 0.07346095 -0.24613903
-0.026886366 0.050065212 0.14154193 -0.060501732 0.14380963 0.06720634 -0.086062 -0.13251571
0.102396354 -0.004136863 0.09875209 0.12989934 -0.23357348 -0.017011797 -0.03787028 -0.1662546
-0.00239801 0.04597056 -0.25919244 0.19783384 -0.049775735 0.24736837 -0.1565584 -0.11106108
-0.23865587 -0.051228616 0.0010922845 0.023593565 0.13032547 -0.1574062 -0.004905435 0.0035709015
0.26620746 -0.08099728 0.093529776 -0.115031175 0.043463968 0.28718665 0.15771408 0.043252315
-0.2253889 0.15753393 0.26963663 0.15889852 0.19697425 0.17367761 -0.0042846277 0.13382177
0.13099152 -0.13126285 0.031675678 -0.0753528 -0.24851273 0.036041558 0.23844306 0.06890059
0.11089401 -0.12170544 -0.030875774 -0.14379019 0.17195311 0.10606857 -0.11652035 -0.049149446
-0.07118358 0.20795582 -0.07943964 -0.23400274 -0.066556156 -0.3222454 0.23545454 -0.27344084
0.11422671 0.2624689 0.04522933 0.0811319 -0.031500872 -0.16583969 0.046454452 0.22147697
-0.024154708 -0.030889792 -0.15576571 0.08694794 0.013561474 0.11980769 0.06231521 -0.04304914
-0.28425363 0.13208346 -0.15361774 0.23196003 -0.04016618 -0.27497867 0.21114829 -0.17224377
0.03587043 -0.17193705 -0.25492024 -0.19938214 0.24338812 0.05346425 0.010258085 0.0016487783
0.20337872 0.027107894 -0.27287674 0.047768075 -0.1564145 0.16944265 -0.23348492 -0.27972698
0.057945322 -0.0068342956 0.23898433 0.17221181 0.08988484 -0.030659156 0.09901517 0.0030969342
-0.03690934 0.054763008 0.14325546 -0.04567967 -0.19912139 0.090704486 0.02950846 -0.32115674
0.21126705 -0.07487186 0.2304935 0.19217303 -0.024041567 0.16344312 0.17934407 -0.14717297
0.1677986 -0.19739133 -0.045909185 0.22261073 -0.14658111 -0.22832151 0.25159448 -0.17596069
-0.14346568 -0.15249895 0.23999186 -0.23183541 -0.14533731 -0.19821626 0.108792864 0.21207823
-0.15013382 0.18507653 -0.07454992 -0.12935409 -0.03808567 0.14457178 -0.11820886 0.027172374
0.022025565 -0.011702535 0.132407 0.08652177 0.20701022 0.1907179 -0.08543564 0.13432184
0.2851192 -0.100242205 -0.09324123 -0.1076905 -0.106307685 -0.097290166 0.15227139 -0.15719588
0.038741376 0.20977789 0.13995303 -0.18204758 0.07349469 -0.30376163 -0.020655923 0.081313185
0.18597697 -0.04757595 -0.011434191 -0.040540207 0.068965234 0.007154876 -0.079180636 -0.034352332
0.025439503 -0.2562854 0.013904888 0.07248217 -0.075659946 -0.101358674 0.20061727 0.31064755

functional_1_1/dense_2_1/Add/ReadVariableOp:0 f4 [32]
00000000: 17c7 88bc e486 ad3b c971 133e 50c1 0d3c
00000010: 61c7 04bc 0e86 53bc c1da 8b3d 40da 9dbd
00000020: b48a a0bd f66a cbbd 2292 0cbe 9275 c9bc
00000030: 3c9d ca3d 1f81 bf3d 9181 9bbd a30b 5e3d
00000040: c996 a1bc 4f93 a63d 2942 41bc b615 a53d
00000050: 8e21 b73d d8ae 53bd 7b13 b6bd e912 e3bd
00000060: 4eac 303c 064b 2c3b c66f 01be 408e 373e
00000070: 0c8f 6bbc 9387 2f3d 7da2 533d 53bc 1f3d
-0.016696496 0.005295621 0.14398874 0.008652046 -0.008104176 -0.012910379 0.06828833 -0.077076435
-0.078389555 -0.099325106 -0.1372762 -0.024592195 0.09893271 0.093508 -0.07593072 0.054210316
-0.01972522 0.08133566 -0.011795559 0.08060782 0.08941947 -0.051680416 -0.08890434 -0.11087591
0.010783268 0.0026289835 -0.12640294 0.17925358 -0.014377367 0.042853903 0.051668633 0.03899796

functional_1_1/dense_1_2/Cast/ReadVariableOp:0 f4 [128, 64]
00000000: 11f1 1d3d 2036 593d 7471 9abd 7c3d aabd
00000010: aa77 8bbe 34d5 e83d 65c1 d33d 9bda 333e
00000020: 6098 ae3d 81cd f43d 27c0 5b3e 2d8c 2d3e
00000030: 0605 3a3e ba62 5d3e e80c f83d 41f6 203e
00000040: 1e72 e6bd 7685 0b3e c241 4b3d 1fac 6f3d
00000050: 9522 cf3c c6bc 453d 7271 4c3d 8bbf bdbd
00000060: 0736 54be 5502 a4bc fea5 5abd dbc0 6ebd
00000070: fdfc f33c 717a 06be bc4c 233e 7623 d93d
00000080: 9f35 c0bd 7f39 403e 54c8 ddbd 4199 283e
00000090: 0c8a 27bc f92c c2bd c905 7b3e 209e 58bd
000000a0: 5066 f13d 1f21 d23d 4722 103e 41d0 053c
000000b0: be39 37bd b298 693d f486 49be 8667 16be
000000c0: 2f75 5d3d 3bc4 b73c 589e 32be 7141 2d3e
000000d0: ded5 b13d b1f9 09be 7366 cabb 61b1 773d
000000e0: ed47 17bd ce4c 94bd 4894 9cbe 61b5 133e
000000f0: 7305 f93d 2782 f0bd ef87 013d 7c46 bfbd
00000100: 44ea 073e 895d 53bd 2b6f 6cbd 2244 823d
00000110: 035c 583d e9dc 47bd 46a2 173d 7dc3 0bbe
00000120: a11e c33d 5d66 aabd 5a0d 483e 7f24 18bd
00000130: 13de 44bd dcc8 0b3e bf5e 163e 5d2f 31be
00000140: 7462 cbbb f0d5 5f3d b81e 23be 6305 4a3e
00000150: fbac a0bd f334 da3d 93a6 cdbd 71b2 0cbe
00000160: 6997 ecbc c0f2 da3d d92b d4bd 9d60 033e
00000170: 77e4 e1bd ec34 82bd 5964 6fbb 1798 aebd
00000180: f175 2b3e a7c6 8b3c d6cf b33d 1414 1ebe
00000190: 77e8 cc3c 7aaf cdbc f278 a43d 3f5c 92bd
000001a0: bf2f 05be 74c5 873d f789 46bc b2c0 96bc
000001b0: be4e 0d3e d77f 243e 6d36 bebc 2c5f 063e
000001c0: d005 00be 9212 483d f6ce fe3d af81 a53d
000001d0: 7285 91bc 043f d1bc 6b7e 21be e820 bc3c
000001e0: 6e56 5b3e 3fde 62bd cba7 66be 5f49 fa3d
000001f0: 9831 403e aecc af3c a053 ae3d 2698 253e
00000200: 817c bebd ed3b 7d3d cb61 373e a875 7b3c
00000210: eb8e a3bd 691c 93bd 4661 fd3c fbf5 a93d
00000220: c444 b93d 5da8 6f3d b1bc e7bc 7a81 68bd
00000230: 7f37 893e 3679 d63b cd33 d83a 5a54 5b3e
00000240: 3a0e 7b3e 28f0 e7bd b5fe 103e e553 8e3d
00000250: d591 b6bd bbf3 81be 6add 903d 6c6f f5bc
00000260: aa70 5a3d 31fe 96bc b73e 1a3e 999c 213d
00000270: ac20 81be 6826 df3d bd16 a93d d48f 45bd
00000280: 2489 003d be43 ec3c b41f 3fbe 585d bf3d
00000290: fa83 34be ca6e e1bd a569 64bd ec1b 3d3c
000002a0: 8f38 503c b6ae 58be d95a efbc 24a4 913d
000002b0: b4eb 3b3c 1c14 fbbd bf33 51be fd38 523e
000002c0: e2ce 0d3e ad31 16bd d258 40bd 6f41 953d
000002d0: 8b80 7bbe 162d bd3d 854e babd 3c5b 3bbe
000002e0: 0cc9 b6bc 4d5d 183e 472e 18be 90d5 753c
000002f0: 8757 9d3d 0948 2e3d cbfd 933a 7e90 4a3e
00000300: b115 57be aae8 e3bc 356b 5bbe 0ce4 3d3e
00000310: 43aa 5e3e 1da6 23be 63f0 55be 3c40 5a3d
00000320: 6162 d33c c1e9 cdbd 948e c6bd 582c 0dbe
00000330: 14ee b63c 5ddf e8bc 0da5 b8bd 264b 15be
00000340: caef edbd 3016 333e c9cd b13d 4646 07bd
00000350: 173a 80be ae45 9e3d 1b05 33bd 86bc 85be
00000360: 03d9 08bd d436 b0bc 55f6 7cbe 2f92 193e
00000370: 4b7d 65be 81a0 18be c151 06bd 4ce4 c5bc
00000380: e821 0cbe e49f 9bbc 86ce ff3d 5802 2a3d
00000390: d98d d23d 74fd f03c eb4c 1cbd 10d9 33bd
000003a0: 50dc 7f3d 7ed1 de3d 4d3a b9bd f036 063e
000003b0: 755a e53d 0d8a 73be e534 813d 9908 de3d
000003c0: e3af fe3b 7ef8 68bc 5f82 c4bd 93c3 6c3d
000003d0: c7df a1bc b1c4 4c3d 4180 343d e581 573a
000003e0: 5b2a 633d 355c 2e3d 15f4 cfbd 3de7 33bc
000003f0: 1e56 c2bd fad9 4a3b bcd7 043b 5402 3bbe
0.038559977 0.053030133 -0.07541171 -0.083125085 -0.27239734 0.1136879 0.103396215 0.1756386
0.08525157 0.11953259 0.21460019 0.16948004 0.18165979 0.21619692 0.12111837 0.15718938
-0.11252235 0.1362513 0.04962326 0.058513757 0.025285045 0.04827573 0.049912877 -0.092650495
-0.20723735 -0.020020643 -0.05338096 -0.05828939 0.02978372 -0.13132645 0.1594724 0.10602467
-0.093852274 0.18771933 -0.10829225 0.16464712 -0.010225784 -0.09481234 0.24513926 -0.052885175
0.11787093 0.102602236 0.14075576 0.008167327 -0.0447328 0.057030387 -0.19680387 -0.14687929
0.054066833 0.022432437 -0.17443216 0.16919495 0.0868337 -0.13474156 -0.0061767637 0.060471896
-0.03693383 -0.07241212 -0.3058188 0.1442466 0.121592425 -0.117435746 0.031623777 -0.09339616
0.13272959 -0.051602874 -0.057723206 0.063606516 0.052822124 -0.04879466 0.03701999 -0.13648792
0.095273264 -0.083203055 0.19536343 -0.03714418 -0.04806335 0.1365084 0.1468458 -0.17303224
-0.006206805 0.054647386 -0.15929687 0.19728617 -0.078454934 0.106546305 -0.10041537 -0.13739945
-0.028880792 0.10690832 -0.10359926 0.12829824 -0.11029904 -0.0635775 -0.0036528318 -0.085251026
0.1674421 0.017062498 0.08779876 -0.15437347 0.025013192 -0.025108088 0.08030881 -0.07146501
-0.13006495 0.06629458 -0.012117854 -0.018402431 0.13799569 0.16064392 -0.023219312 0.13122243
-0.12502217 0.048845835 0.124418184 0.08081376 -0.017763827 -0.025542744 -0.15770881 0.02296491
0.21419689 -0.05538773 -0.22524945 0.12221026 0.18768919 0.021459904 0.08512044 0.16171321
-0.09301091 0.061824728 0.17908399 0.015347876 -0.07986244 -0.07183153 0.030930173 0.0829887
0.09046319 0.058510173 -0.028288217 -0.056764103 0.26800153 0.006545211 0.001649493 0.21418896
0.24517146 -0.11325103 0.14159663 0.06949595 -0.08914534 -0.25381264 0.070734814 -0.029960357
0.0533301 -0.018431755 0.15062986 0.039455984 -0.2522024 0.10895997 0.0825629 -0.04823287
0.031380787 0.028840896 -0.18664438 0.09343976 -0.1762847 -0.110074595 -0.055764813 0.011542302
0.012708797 -0.21160397 -0.029218124 0.071113855 0.01146977 -0.12259695 -0.20429896 0.20529552
0.13848451 -0.03666847 -0.046959706 0.07287871 -0.24560754 0.09237115 -0.09097008 -0.18296522
-0.022312663 0.14879341 -0.14861403 0.015004531 0.0768271 0.042549167 0.0011290846 0.19781682
-0.21004368 -0.027820904 -0.21427615 0.18544024 0.21744637 -0.15981336 -0.20892482 0.053283915
0.025803747 -0.10054351 -0.09695163 -0.13786447 0.022330321 -0.02842682 -0.09015856 -0.14579448
-0.11618002 0.17488933 0.086818285 -0.033026002 -0.2504432 0.07728134 -0.04370604 -0.26120394
-0.033410084 -0.02151052 -0.24703343 0.14997171 -0.22411077 -0.14904977 -0.03279281 -0.024156712
-0.13684809 -0.01899714 0.12490563 0.04150614 0.102809615 0.02941773 -0.038159292 -0.04390818
0.062465966 0.10879801 -0.09044323 0.13106894 0.11198894 -0.23783131 0.06308917 0.108414836
0.007772432 -0.014219401 -0.09595179 0.0578037 -0.019760026 0.049992267 0.044067625 0.0008220955
0.055460315 0.042568404 -0.10153977 -0.0109804245 -0.09489082 0.0030952678 0.002027019 -0.18262607

functional_1_1/dense_1_2/Add/ReadVariableOp:0 f4 [64]
00000000: b78b 96bd 8cd3 d3bd 6be9 c13c 145a 18bc
00000010: 04b8 e13d bef2 b83b ccf7 bd3d 380d b53d
00000020: 37fa 9bbb c2ec 0d3d e668 6fbd 8969 27bd
00000030: 995a 67bd de51 29bc a303 383d cabf 5abd
00000040: f623 5cbd 8645 5b3d a6ad 84bc ef18 9e3c
00000050: 2ef6 6d3d ce93 163d 6c97 d83d 85d6 a13d
00000060: ccfb c4bc 394f 74bd 7567 efbc 729c 7ebb
00000070: 313d 31bd febb 4a3d 91b9 0d3d 1c6b 2c3d
00000080: 711b 833d a3dd ff3c 400f 3bbc aef7 3e3d
00000090: 6ffe 46bd 00a5 93bd 52d2 81bd a4af d63d
000000a0: 0007 bb3c 5665 01be 9be8 23bc 328c 26be
000000b0: 4c10 853c d3b9 593d f628 84bc 2f45 f83b
000000c0: c721 c0bc 8eed cfbd 5da8 16bd 8605 c73d
000000d0: 6e8f 663b 2220 db3d a805 713d bf9d 1ebc
000000e0: e03f e93d 0556 84bd 9ded be3d 0918 30bc
000000f0: d43c 973d 6c81 c43c 80ab a2bd 3476 06bd
-0.07350867 -0.10343084 0.023670873 -0.00929882 0.11021426 0.0056441715 0.09275779 0.08840412
-0.0047600525 0.034649618 -0.05844965 -0.04087213 -0.056482885 -0.01033446 0.044925343 -0.05340556
-0.053745233 0.0535331 -0.016196083 0.019298999 0.058096103 0.03676205 0.105757564 0.079022445
-0.024045847 -0.059645865 -0.029224137 -0.0038850573 -0.043271247 0.04949569 0.034600798 0.042094335
0.064017184 0.031233614 -0.01141721 0.046622925 -0.04858249 -0.072092056 -0.063389435 0.104827195
0.022830486 -0.12636313 -0.010004188 -0.16264418 0.016243123 0.05315573 -0.016132813 0.0075766067
-0.023453606 -0.10152732 -0.036781657 0.097178504 0.0035180706 0.10699488 0.058843285 -0.009681164
0.11389136 -0.064617194 0.09322665 -0.010747918 0.07384649 0.023987494 -0.07942867 -0.03282757

functional_1_1/dense_1/Cast/ReadVariableOp:0 f4 [26, 128]
00000000: e3cc e9bd d5fe b3bd 8c50 523d cfd7 133e
00000010: c67f ae3d 401b 003d 0038 3d3b e2a7 8abd
00000020: ac4b 35be 1bbf 243e 933f a9bd 3cca 583d
00000030: 9565 383e ecde 1d3d 023e a33d 265c f43d
00000040: 607b d4bd 4a75 e63d 021b d03d b08e 6fbd
00000050: 7ea8 b03d fe7c c8bd c0a3 e33b bd7e 3f3e
00000060: 7a08 b13d e767 e4bd 50a7 c9bc 58fc 6bbd
00000070: e296 ce3d 1c32 6d3d 5f66 3c3e c803 25be
00000080: 089b a43c 2c19 09bd 8102 013e 1434 16bd
00000090: f031 b0bc b833 f1bc 22c8 1dbe e7a1 153e
000000a0: 9317 14be b814 af3c 2f0a 4abe 8d54 3d3e
000000b0: aa5e 3fbe 0c6f 313d a22c 26be 3c02 40be
000000c0: bfba f6bd f2be a73d b231 c3bd ec18 7d3d
000000d0: 1722 0fbe a89e 05bd ecae 34bd 4798 153e
000000e0: 8d2d 1e3e 25b4 fabd fec4 40be 00fb 0eba
000000f0: 1e04 c53d 0072 afbc 2ad0 b53d 8e5d ba3d
00000100: 1f87 a0bd b02c fa3c 5cbb 6b3d 580f ecbc
00000110: 54ed 22bd 35b8 193e 7e72 b13d 530d 10be
00000120: beb9 35be c1bd 003e 6015 093c 9845 a53c
00000130: 000d 383a 0be9 433e 841f 713d c5f8 1bbe
00000140: 6aa2 0fbe f84b 3e3d 2111 9dbd caee fc3d
00000150: 4615 03be 4e7c 863d 85cd 133e 9658 9a3d
00000160: 0d79 1e3e d006 303d 089c a63c 9dce 053e
00000170: 1b67 0a3e d416 8fbd fb30 003e f5d4 373e
00000180: 11cf 213e 6ffd 22be 7820 2ebe c06a c83b
00000190: c23d d63d a060 6cbd 10bb 7bbd 3d17 073e
000001a0: 7d2b 393e deea d03d 82ab cc3d 6d13 063e
000001b0: 9003 363d 7e19 d63d 887f dfbc 78ef 76bd
000001c0: dc82 cdbd 7c4e 073d 57b6 003e 8c52 18bd
000001d0: 5418 5b3d 78a1 77bd f05f 25bd 7a6a ca3d
000001e0: 6c2f 663d 262c a93d b09b 17be 08cb dd3c
000001f0: 957c 0b3e 8094 6ebd ca57 1bbe 58a9 333d
00000200: 7b36 143e 42a8 5a3e 05ef f2bc 6a9d 423e
00000210: 6471 26be d05f 243e ded4 d9bc ef29 5f3e
00000220: 3026 d2bd c8b2 11be 7dd6 46bd 1cfc ed3d
00000230: a1df 93bd dc94 dcbd a176 bb3c e8cc e03a
00000240: 86c7 ca3d c06a 683e 7004 0f3e 6304 313e
00000250: f917 8abd cbdd d43d 79f0 2bbe 49bc 423e
00000260: 3546 91be 7b1c f8bd 2075 15bd 76dc 163e
00000270: 0c0c 7cbd 4ca3 c43d a159 4dbe 7d02 383e
00000280: 923f 183e 3267 9abd bea6 34bd 32f9 cb3d
00000290: 3a17 19be 6672 21bd 6ecd 08be 0049 b83d
000002a0: 1622 1bbe c21c f3bd 4c40 6d3d dc3b 673e
000002b0: 7a18 bebd 2c78 5a3e 44bc f0bd 30e0 593e
000002c0: 8290 223e 58f6 863d 6275 063e b1c8 0f3e
000002d0: a0f0 76be e7e2 d2bd f89a 6d3b 6093 ffbd
000002e0: 3557 883e 800a 51be c65f 17be dc1d 3cbd
000002f0: 70b9 433d f28f 73bd b971 1bbe 5c64 9bbd
00000300: 55d5 15bd d804 eebd e6ac 1ebe b6e4 aebd
00000310: 70ec b3bd 7695 8dbe d847 9a3c d776 cdbd
00000320: a525 96bd df62 23be 0a60 913c ffac 44be
00000330: 5d32 b1bb f23d 843e de29 5a3e 86ca fd3d
00000340: 4088 cdbc d9af 94bd 634e 5f3e b7fa 36b9
00000350: 5b94 fc3d a82c 4b3d d61e 9d3d 358c f93c
00000360: 47cb 613d 80e9 723d d5a3 acbc 4605 90bd
00000370: 3cd8 9cbd b37b ce3d 89a6 f1bd 8207 18bd
00000380: d6de 13be b7ca df3d 5d10 48bd 46da 36bd
00000390: 256c 053e 62b9 1e3b 18f9 dbbd ed2a 323e
000003a0: 9fe2 c1bd 71e3 0bbe 517e 99bd 1a7e f43d
000003b0: f908 3bbd 2dd0 0d3d c7a3 3abe 1f96 4e3e
000003c0: aab8 5ebd 9f3f 26be 261e 1e3e e1ca 163e
000003d0: ae9d d3bd bcc0 263e 6891 583e 4f50 e03d
000003e0: 7f27 3bbb 3ce8 923d 87dd 98bd 506f 6fbd
000003f0: c017 e1bd 801a 503d 7d93 333e 065f 6d3e
-0.11416032 -0.0878884 0.051346347 0.14437793 0.085204646 0.031275988 0.002887249 -0.06770302
-0.17704648 0.16088526 -0.08264079 0.05292724 0.180075 0.038542673 0.079708114 0.119316384
-0.103750944 0.1125284 0.10161401 -0.058485687 0.08625887 -0.09789465 0.0069470108 0.1870069
0.08644195 -0.1115263 -0.024615914 -0.0576137 0.10087372 0.057909116 0.18398426 -0.16114724
0.020093456 -0.03347127 0.12598611 -0.03667076 -0.021508187 -0.029443607 -0.15408376 0.14612542
-0.14462118 0.021372184 -0.19730447 0.18489285 -0.18688455 0.043318793 -0.16227964 -0.18750852
-0.12047338 0.08190717 -0.09530963 0.061791345 -0.13977848 -0.03262201 -0.04411213 0.1460887
0.15447064 -0.12241391 -0.18825147 -0.0005454272 0.09619926 -0.021416664 0.08877595 0.090998754
-0.07838272 0.030538887 0.057551727 -0.02881591 -0.039777115 0.15011676 0.08664416 -0.14067583
-0.17746636 0.12572385 0.008366913 0.020174786 0.000702098 0.19131868 0.058867946 -0.15231617
-0.140268 0.04645917 -0.07669283 0.12350233 -0.12801084 0.06566678 0.14433868 0.07536428
0.15475865 0.042975247 0.020338073 0.13067098 0.13515894 -0.06986776 0.12518685 0.1795233
0.15801646 -0.1591699 -0.17004573 0.006116241 0.10460998 -0.057709336 -0.061457694 0.13192458
0.18082996 0.10201047 0.0999365 0.13093348 0.04443699 0.10454081 -0.027282491 -0.06028697
-0.10034725 0.033033833 0.12569557 -0.037188098 0.053489998 -0.060456723 -0.040374696 0.0988359
0.05619757 0.08260374 -0.14805484 0.027074352 0.13621743 -0.05824709 -0.15170208 0.04386267
0.14473908 0.21353248 -0.029654989 0.19005361 -0.16254193 0.16052175 -0.02659076 0.2179334
-0.1026119 -0.14228356 -0.048544396 0.11620352 -0.07220388 -0.1077058 0.022883715 0.001715091
0.09901337 0.22696972 0.13966537 0.1728683 -0.06742854 0.10393866 -0.16790952 0.19017138
-0.28373876 -0.12114807 -0.036488652 0.14732537 -0.061534926 0.09601459 -0.20053722 0.17969699
0.14868 -0.07539214 -0.04410433 0.099596396 -0.14950266 -0.03941574 -0.13359615 0.08998299
-0.15149722 -0.118707195 0.057922646 0.22581428 -0.09282012 0.21334904 -0.11754659 0.21276927
0.15875438 0.06589955 0.13130715 0.14041401 -0.24115229 -0.102971844 0.0036255699 -0.124792814
0.26629034 -0.20414162 -0.14782628 -0.045926914 0.04778427 -0.05946345 -0.151801 -0.075875014
-0.036580402 -0.116220176 -0.15495643 -0.08539717 -0.08785331 -0.27653092 0.018833086 -0.100324325
-0.07331399 -0.15955685 0.01774599 -0.19206618 -0.005407615 0.2582851 0.21305034 0.12392144
-0.025089383 -0.07260103 0.21807246 -0.00017450271 0.12332984 0.049603134 0.07671897 0.030462364
0.0551255 0.059304714 -0.021074215 -0.07032256 -0.07658431 0.100821875 -0.11799342 -0.037116535
-0.14440474 0.10927337 -0.04884373 -0.044641756 0.13029535 0.0024219383 -0.1074087 0.17399187
-0.09467053 -0.13660981 -0.07494796 0.119381145 -0.045662854 0.03462236 -0.18226539 0.20174454
-0.054375328 -0.16235207 0.15441188 0.1472583 -0.103328094 0.1628446 0.21149218 0.10952818
-0.0028557477 0.071732014 -0.07464128 -0.058455765 -0.10990858 0.050806522 0.17536731 0.2318078

functional_1_1/dense_1/Add/ReadVariableOp:0 f4 [128]
00000000: b620 d4bd 9038 80bd 44bf 723d 1b7d 9bbd
00000010: d17d 9ebd e483 373d dc50 3a3c 9d63 8fbd
00000020: 2225 34bd 4af2 32bd 199a 6e3d 5d72 a23d
00000030: 8bf7 c9bd 85e5 75bd d4ea 2a3b bf2a 5abd
00000040: 3736 e5bc b334 693d 3aa5 243b cafd 4d3c
00000050: f6bb 4b3d 3532 a93d 186d 213c 5549 e53c
00000060: 527e 683c 59ee 42bc b770 d83d eb19 3f3d
00000070: d2f0 f53d 0a96 c4bb 09f4 4a3d 93c7 713c
00000080: 67ce 913d 07ab c0bc d0ad 90bd f804 98bb
00000090: ac8a ee3c 02c8 a3bc a358 593d ce9b bab9
000000a0: 0000 0000 0a18 ad3b c3dc 91bd a136 123d
000000b0: 0a69 a83d 0a70 963c b6da a43c adf8 4e3d
000000c0: 14b7 c43d 0f1e cabd 0066 6e3d 9857 e7bb
000000d0: 9dde 2d3d 08a2 10bd ab50 d13b 5344 613b
000000e0: 46c2 4e3d 5cb6 14bd fbd5 1e3d 5acd 593d
000000f0: 1674 f33a 84e4 7d3d de8a c8bd 0000 0000
00000100: 6430 52bd 336c ecbc 0000 0000 1deb 0b3c
00000110: 14e5 75bd 8019 923d 0000 0000 c7f9 5a3d
00000120: 0000 0000 bf0b 41bd b8d9 e53d c599 b4bd
00000130: 0a3d 523d 7f60 8f3d 537c 843d cc8c f6bc
00000140: 0000 0000 d6e2 79bd b8e3 75bd 7381 823c
00000150: d0c9 fb3b 5bc3 debd 9d87 bc3d 3bc5 58bd
00000160: 020f 92bd e0a0 b3bd 6112 6a3d 90c2 ad3d
00000170: 8596 e43c cb2c ef3c 0ea8 163d 6577 623d
00000180: bad3 a53d a1ba debd dcfa 92bb b0e2 75bd
00000190: 99ac 133d ada5 1c3d f3d3 5abd 5d8e 353c
000001a0: 113e 5d3d adbe 0fbd 6ce5 75bd 81bb d3bc
000001b0: 332e 3ebd dec7 05bc 6d13 883d 975c 12ba
000001c0: e3bd a0bc 0000 0000 d5bb d03b 4e3f 61bd
000001d0: dc36 52bc 82e4 753d d948 8fbc 1f48 62bd
000001e0: 9054 453d 3860 c2bc 0000 0000 95ad 92bb
000001f0: 7456 97bd 0000 0000 dc86 883c e59b b53d
-0.103578016 -0.062607884 0.059264436 -0.07592221 -0.07738841 0.044803515 0.011371817 -0.070014216
-0.043980725 -0.043688096 0.058252428 0.07931969 -0.09861668 -0.06003334 0.002607991 -0.053263422
-0.027979953 0.056935024 0.0025122897 0.012572715 0.0497398 0.08261529 0.00985267 0.027989069
0.014190273 -0.011897647 0.10568374 0.046655577 0.120088235 -0.0059993314 0.049549136 0.014757055
0.07119446 -0.023519052 -0.07064402 -0.004639264 0.029118858 -0.019992832 0.053063046 -0.00035592768
0.0 0.0052824067 -0.07122185 0.03569663 0.082231596 0.018363971 0.02012382 0.050530124
0.09605232 -0.098690145 0.058202744 -0.0070600025 0.04244863 -0.035310775 0.00638779 0.0034373
0.050478242 -0.036306724 0.038778286 0.053174354 0.0018574025 0.061985508 -0.09792112 0.0
-0.05131568 -0.028860187 0.0 0.008539942 -0.06003292 0.0713377 0.0 0.053460862
0.0 -0.047130343 0.11223167 -0.08818392 0.051327743 0.07000827 0.064690255 -0.030096434
0.0 -0.061007343 -0.060031623 0.015930867 0.00768397 -0.10877105 0.09205554 -0.05292247
-0.07131769 -0.08770919 0.057146434 0.084843755 0.027903805 0.029196164 0.036781363 0.055289645
0.08097024 -0.108754404 -0.004485471 -0.06003064 0.036053274 0.03824394 -0.053424787 0.011081305
0.05401427 -0.035093952 -0.060033247 -0.025846245 -0.046430778 -0.008165328 0.0664433 -0.0005583255
-0.019621795 0.0 0.0063700476 -0.054992013 -0.012830462 0.060032375 -0.017490791 -0.05524456
0.04817635 -0.023727521 0.0 -0.004476259 -0.073895365 0.0 0.016665868 0.08867625

functional_1_1/batch_normalization_2_1/batchnorm/sub:0 f4 [32]
00000000: 0a6c 06bf 443e 9bbd b2f3 27be a48b b0bd
00000010: 404e 38be 4074 acbe be8d 14bf 8975 0cbf
00000020: b783 f3be daa1 80bd 141a fcbd 2427 90bd
00000030: 5eb8 14bf 880a 10bf c48f c0be bfb3 ddbe
00000040: 2017 03bf 5f9a 02bf a5a6 f2be 4091 07bf
00000050: 59fb 12bf 6dee 04be 0ebc 1abe 3e8e 90bd
00000060: a1f4 49be 3ce5 0ebf 285a b9bc 4de5 07be
00000070: 3676 22bf 3f9c 07bf 1ec2 dbbe f8d0 c2bd
-0.52508605 -0.075802356 -0.16401556 -0.08620384 -0.179986 -0.33682442 -0.5802878 -0.54866844
-0.47561428 -0.06280871 -0.123096615 -0.070387155 -0.5809382 -0.5626607 -0.37609684 -0.43301198
-0.5120716 -0.510168 -0.47392765 -0.5295601 -0.57414776 -0.12981577 -0.151108 -0.070583805
-0.19722225 -0.55818534 -0.022625998 -0.13271065 -0.63461626 -0.5297279 -0.42921537 -0.09512514

functional_1_1/batch_normalization_2_1/batchnorm/mul:0 f4 [32]
00000000: 1ab2 623f b65e 2a3f 73df 393f 0ab4 5c3f
00000010: c6b4 833f 2b0a 3d3f 3c88 203f 1793 f53e
00000020: fb3b 4f3f 0ee8 dc3e 8c29 5e3f 3b6b 5b3f
00000030: c534 413f 1e0c 3c3f 8929 7a3f a510 603f
00000040: 1de3 413f fe77 163f 093e 343f be97 1c3f
00000050: 2185 353f bc1b 633f 2895 5c3f d8c5 2a3f
00000060: da31 153f bcc7 3d3f a038 483f c00b 273f
00000070: 2941 5f3f 24ff 203f a244 803f fb22 183f
0.8855301 0.6655077 0.7260658 0.8621222 1.0289543 0.7384364 0.6270788 0.47963783
0.809509 0.43145794 0.86782146 0.85710496 0.75471145 0.7345599 0.9771963 0.875254
0.7573717 0.58776844 0.7040716 0.6116904 0.70906264 0.88714194 0.86165094 0.66708136
0.5827919 0.74132895 0.782114 0.65252304 0.872088 0.62889314 1.0020945 0.59428376

functional_1_1/batch_normalization_1_2/batchnorm/sub:0 f4 [64]
00000000: 77b7 5abe eda2 b5be be0a b3be f855 0bbf
00000010: c92e cbbe b2c1 05bf b80c 07bf c873 eabe
00000020: fc95 f2be 932d 02bf 9dc2 1cbf c119 ebbe
00000030: c9a0 e5be 05d2 9ebe b2ee 1abf 9950 c3be
00000040: b375 10bf ea12 aabe 6d67 c8be cc81 abbe
00000050: 2111 06bf 97e2 19bf 47bd 94be f7fa fabe
00000060: 4d91 a9be 35e3 83be bb07 cabe c95e 05bf
00000070: a31e fabe 6078 cfbe 4fe7 8dbe de20 afbe
00000080: 568d 04bf b908 f7be b4df dcbe 645a bfbe
00000090: 7b22 95be 6482 adbe 4975 e1be 4b12 efbe
000000a0: 9d30 d0be 5d7e 4fbe 4ebf c9be 7bf1 9bbe
000000b0: 7973 b3be ddd0 00bf 564d e7be 2baa bebe
000000c0: 3052 e7be 0972 9cbe 5a58 18bf cc67 1dbf
000000d0: 8c1d a7be a444 11bf 02be 97be cf6b bebe
000000e0: 9e52 12bf ef94 b2be 6fd0 c5be 8bbc 26bf
000000f0: 5e75 c4be 864b c6be 5283 fbbe 4841 aabe
-0.21359049 -0.35475865 -0.34969133 -0.5442805 -0.39684132 -0.5224868 -0.5275378 -0.4579146
-0.47380054 -0.5085079 -0.61234456 -0.45918086 -0.44849232 -0.31019607 -0.6052047 -0.3814743
-0.56429595 -0.33217555 -0.39141408 -0.33497465 -0.52369887 -0.60111374 -0.29050657 -0.49019596
-0.33118668 -0.25759283 -0.39459023 -0.52097756 -0.488515 -0.40521526 -0.27715537 -0.34204763
-0.5177816 -0.48248842 -0.43139422 -0.3737365 -0.2912787 -0.33888543 -0.44034794 -0.46693644
-0.4066209 -0.20263048 -0.39403766 -0.30457672 -0.35049036 -0.503187 -0.4517619 -0.37239203
-0.45179892 -0.30555752 -0.59509814 -0.61486506 -0.3263973 -0.5674536 -0.29637152 -0.37191626
-0.57157314 -0.34879252 -0.38635585 -0.65131444 -0.38370794 -0.38729495 -0.49123627 -0.3325293

functional_1_1/batch_normalization_1_2/batchnorm/mul:0 f4 [64]
00000000: 22be 4a3f e311 0b3f e367 533f 6902 8d3f
00000010: 3401 1d3f 1549 703f 6f23 5e3f b84c 5a3f
00000020: ad71 263f 5df9 4a3f 6890 6a3f c4d6 813f
00000030: d00e 683f 2b43 653f 8954 583f 4e10 4b3f
00000040: 4dda 843f 8ad7 443f c0df 6a3f 1d00 813f
00000050: cdd0 633f b893 5a3f 0a24 453f 2d1e 843f
00000060: 8437 623f 1f55 803f a0d3 553f 04e1 173f
00000070: 4dae 533f 3069 653f f944 563f 0bf5 4b3f
00000080: 4d40 563f d5bd 723f a4bb 563f 113e 363f
00000090: da4e 603f 76aa 483f 850d 923f 6fcb 1e3f
000000a0: 907d 4c3f b285 8a3f a620 4d3f cc6a 373f
000000b0: c678 703f a1f5 753f 5220 953f b8ea 513f
000000c0: 5046 493f 792e 683f 909a 5a3f 78b5 503f
000000d0: daa2 443f aa39 6f3f deb1 123f 42fb 2a3f
000000e0: 8f91 733f 0b0d 853f 342d 253f 9382 853f
000000f0: 5e0c 263f 8c6c 323f 4882 6c3f 6256 4b3f
0.7919637 0.5432417 0.82580394 1.101636 0.6132996 0.93861514 0.8677282 0.85273314
0.65017205 0.7928675 0.91626596 1.0143666 0.906476 0.89555615 0.8450399 0.79321754
1.037912 0.76891387 0.91747665 1.007816 0.8899048 0.8538165 0.77008116 1.0321709
0.8836596 1.0025977 0.8352604 0.5932772 0.82687837 0.8961363 0.83698994 0.7967078
0.83691865 0.9482091 0.83880067 0.71188456 0.8762032 0.783851 1.1410376 0.62029165
0.79879093 1.082205 0.8012794 0.71647334 0.93934286 0.96077925 1.1650488 0.8199878
0.78622913 0.9069591 0.85392094 0.815269 0.7681099 0.93447363 0.57302654 0.6678964
0.9514398 1.0394605 0.645221 1.0430473 0.6486262 0.6969688 0.92386293 0.79428685

functional_1_1/batch_normalization_1/batchnorm/sub:0 f4 [128]
00000000: 8527 c7be 62fa ff3b c6bf 58be e589 f6bc
00000010: cfd4 873c c4cc 86be b264 18bd f8a6 afbb
00000020: 281c a0bd 584b 0c3d dae8 26bd 9fbd 5cbe
00000030: 24ef b33d b5e3 a23c d465 c2bc 50b5 33bc
00000040: d6a7 813d c8ed 6fbe 2fa2 26be a31e 88bd
00000050: 2674 bdbd f865 43be 17c8 b7be cd0a aabd
00000060: 2711 45be d43a 1b3c 2f1b b2be 40ef d0bd
00000070: 51ea dfbe 1f70 2fbd 4989 91be aa8f 77be
00000080: 0cd6 eabe 1aad e8bc aaa8 0cbc d4ae 81be
00000090: eade 59be 9846 2d3d 83b1 cbbe 84a3 fbbe
000000a0: 3b98 073d 1fd4 d1bd 0a7a 083d e173 e0bd
000000b0: 3e07 11be 80a8 4b3c 621c 2ebe 70ce cfbd
000000c0: 91ce bfbe ec50 06bd d551 a7be 3e11 f2be
000000d0: bd34 5bbe 6ab2 e3bd 4cca 8bbe 7d01 25bd
000000e0: 32a0 13be e6da b6bc a08c 69bc 89d0 74bd
000000f0: bc13 93be b3e3 5abe a301 b0bd 959b fabd
00000100: 08ae efbc 3093 ccbb c6d3 cd3c 6595 eabd
00000110: ba1e 113d 9b21 87be e30a 34bd fe0c b5be
00000120: ebf2 223d 2538 c7bc 4c4c b5bc 769d eabc
00000130: 1905 9fbe cb68 0abe 3975 abbe 4bb7 91bc
00000140: 0c30 11be 1c82 193d 2537 913d 6745 3ebe
00000150: 0e29 16be b478 90bc f83a aabe 700a e33a
00000160: ba8f a1bd f4ca 1e3d e7f6 8ebe f9fd 90be
00000170: 01b6 17be 4000 82be e8fb adbe b90b c3be
00000180: 7504 7ebe a50c 883d b20a 88bd f89f 98bd
00000190: dfd1 84be c80a 00bc 8ce3 28be bb63 8a3d
000001a0: f864 54bc ac29 bbbd 5aad 803c 0c7a 863c
000001b0: 40c2 01be ef37 263d ea75 04be 5c42 48be
000001c0: 2cbf 68bd 9eed b03d cc4f 94be debb 5a3d
000001d0: 3021 91be 0be9 bbbe 8600 82bd 0857 0e3c
000001e0: 3742 bfbd 42d6 fcbd 0a69 d5bd bcf7 86be
000001f0: 5002 80bd df5b 843d 1a95 8dbe 0844 a7be
-0.38897339 0.0078118304 -0.21166906 -0.03009505 0.016580967 -0.263281 -0.037205406 -0.0053604804
-0.078178704 0.03425154 -0.04074941 -0.2155671 0.08785847 0.01988397 -0.023730196 -0.010968521
0.0633084 -0.2343055 -0.16272806 -0.066464685 -0.09250669 -0.19081867 -0.35894844 -0.08302841
-0.19244824 0.009474475 -0.34786364 -0.10201883 -0.43733457 -0.042831536 -0.28425053 -0.24175897
-0.4586643 -0.028402854 -0.0085851345 -0.25328696 -0.21276441 0.04230365 -0.39783868 -0.4914819
0.033104163 -0.10245537 0.03331951 -0.10959602 -0.14162919 0.01243031 -0.17003015 -0.10146797
-0.37462285 -0.032792017 -0.3267962 -0.4727878 -0.21406837 -0.11118014 -0.27302778 -0.040284622
-0.14416578 -0.022321176 -0.014254719 -0.059769187 -0.28725994 -0.21375923 -0.08594062 -0.12236706
-0.02925779 -0.006243132 0.025125396 -0.11454276 0.035429694 -0.26392826 -0.043955695 -0.35361475
0.039782446 -0.024318764 -0.022131108 -0.028639536 -0.31058577 -0.13516538 -0.3348787 -0.017787596
-0.14178485 0.037477598 0.07090596 -0.18581162 -0.14664099 -0.01763568 -0.33248115 0.0017321836
-0.07888742 0.03876777 -0.27922747 -0.28318766 -0.14815523 -0.25390816 -0.33981252 -0.3809488
-0.24806388 0.06643037 -0.06642665 -0.074523866 -0.2594137 -0.00781507 -0.16493052 0.06757303
-0.012963526 -0.09138808 0.01570766 0.016415618 -0.12671757 0.040580686 -0.12935606 -0.19556564
-0.05682294 0.08639072 -0.2896713 0.05340182 -0.28345633 -0.36701235 -0.06347756 0.008687742
-0.09338801 -0.12345554 -0.10420425 -0.2636088 -0.06250441 0.064628355 -0.27652818 -0.3266909

functional_1_1/batch_normalization_1/batchnorm/mul:0 f4 [128]
00000000: 40a0 c53f 9ebd bc3f 2b87 c53f 4774 cb3f
00000010: b80e bd3f d0bb af3f ce8c b53f 7384 c93f
00000020: 2a74 ae3f 53a5 bb3f f035 b83f 0f2f b13f
00000030: 3138 b13f bba6 b33f bf08 b53f 2329 b53f
00000040: 3423 bf3f 483b b93f 1305 bb3f 6dd4 ba3f
00000050: 4576 bf3f ec82 a63f 69c8 bc3f 0379 bf3f
00000060: 6106 d53f f206 c83f f3c1 d03f 54ec b33f
00000070: 1da9 b53f 1706 cb3f 730f c23f 60e2 c23f
00000080: d330 bb3f 934a ce3f 6b2b d43f 4a68 bc3f
00000090: cbcb c73f 74d5 c83f 21ad ac3f 0ee4 c53f
000000a0: fb1f bf3f 521a af3f 0666 ce3f 6d5e ca3f
000000b0: ee4e c73f 3776 c73f 5aba c13f e292 b63f
000000c0: 577a bf3f c34b b03f c373 b43f c74c a93f
000000d0: 2ad5 b33f 0e08 ca3f 22f2 9d3f ef50 af3f
000000e0: e572 cb3f 15d4 b73f 7e74 d03f 9f2a bc3f
000000f0: 8ca5 b73f f19a b83f 57bd ad3f fb1f bf3f
00000100: 8e43 b83f 7325 aa3f fb1f bf3f 22a6 b63f
00000110: 3ba7 b33f 9c8e b33f fb1f bf3f 5120 b33f
00000120: fb1f bf3f 3483 b43f 3a0a c93f 7655 c73f
00000130: 727b a63f a7b6 c83f 3c00 b03f 73a4 d43f
00000140: fb1f bf3f f230 c53f 1fa7 b33f b904 d03f
00000150: 7e5c d53f ec1a c03f a867 a93f 60d8 c33f
00000160: 9a5a c53f d4ad c93f b1ae be3f 12c0 af3f
00000170: 495a b63f 002d a53f 72b4 ae3f d5a1 b33f
00000180: 63b4 bf3f f89d d43f 7a05 d13f 9c97 ca3f
00000190: 0636 b53f 4ff9 b93f 5817 aa3f 814e b33f
000001a0: ebde c33f ddb1 bd3f 90a6 b33f e6a6 be3f
000001b0: 57a6 ab3f 24f1 b93f b5e9 ac3f 3016 c03f
000001c0: 0d49 cf3f fb1f bf3f 9c78 bb3f 0ce1 c83f
000001d0: 8f9f b83f 5c52 ba3f e669 bd3f a431 c73f
000001e0: 1f8f c93f aafb b83f fb1f bf3f fe07 af3f
000001f0: c775 c53f fb1f bf3f 581f b63f 2e74 b93f
1.543953 1.4745367 1.5431875 1.589486 1.4770117 1.3729191 1.4183595 1.5743545
1.36292 1.4659828 1.439146 1.3842486 1.3845273 1.4035257 1.4143294 1.4153179
1.4932618 1.4471216 1.4610924 1.4596077 1.4957968 1.3008704 1.474866 1.4958805
1.6642572 1.562712 1.6309189 1.4056497 1.4192234 1.5861233 1.5160965 1.5225334
1.4624275 1.6116508 1.657575 1.4719326 1.5609068 1.5690141 1.3490335 1.5460222
1.4931635 1.3679907 1.6124885 1.5810066 1.5570962 1.5582951 1.5134995 1.4263575
1.495921 1.3773121 1.4097828 1.3226556 1.4049428 1.5783708 1.2339518 1.3696574
1.5894438 1.4361597 1.628555 1.4700507 1.4347396 1.4422284 1.3573407 1.4931635
1.4395616 1.3292679 1.4931635 1.426945 1.403541 1.4027896 1.4931635 1.3994237
1.4931635 1.410254 1.5706246 1.5572956 1.3006423 1.5680741 1.3750072 1.6612686
1.4931635 1.5405562 1.4035376 1.6251441 1.6668851 1.5008216 1.3234758 1.5300407
1.5418274 1.5756173 1.4897062 1.373049 1.4246303 1.2904358 1.3648818 1.4033762
1.4976925 1.6610708 1.6329796 1.5827518 1.4157112 1.4529208 1.3288374 1.4008332
1.5302404 1.4819905 1.4035206 1.4894683 1.3410138 1.4526715 1.3508822 1.5006771
1.6194168 1.4931635 1.4646182 1.5693679 1.4423693 1.4556384 1.4797943 1.5562024
1.5746802 1.4451802 1.4931635 1.3674314 1.5426568 1.4931635 1.4228315 1.448858
