models/Maribor/speed/Maribor_speed_model.onnx (onnx, 60994 bytes, 13 tensors)

functional_1_1/dense_3_1/Cast/ReadVariableOp:0 f4 [32, 1]
00000000: e237 d3bc 7f6c 24bd 49d1 ac3b 3035 d7ba
00000010: 90c5 47bd 8b01 f9bd bc46 f93d 99d7 6abd
00000020: 7cd0 bf3c 53ae a7bd 3d8c 97bb 8a56 0ebd
00000030: 4877 f3bd 2140 58bc 391b cbbd 85e3 bf3a
00000040: fa0d 163d 9f0b 173d f8f3 f13c 40b9 1f3d
00000050: 7a60 be39 e271 aebd 1078 c43d 4289 443c
00000060: 1e50 123d 6c1d 433d 7863 8cbc c1e6 913c
00000070: 8ae7 9fbd 0058 90bc 9c1a 3f3c a448 593a
-0.025783483 -0.040142532 0.005273972 -0.0016419049 -0.048772395 -0.121584974 0.12171695 -0.057334516
0.023414843 -0.081875466 -0.004624872 -0.0347505 -0.118879855 -0.013198883 -0.09917302 0.001463995
0.036634423 0.036876317 0.029535279 0.038995028 0.00036311505 -0.08517815 0.095932126 0.011995615
0.035720937 0.04763548 -0.017137274 0.017810227 -0.078078344 -0.017620087 0.011664059 0.00082887174

functional_1_1/dense_2_1/Cast/ReadVariableOp:0 f4 [64, 32]
00000000: 52b3 e5bb 5dd7 4bbe 2dab 11be 7dbf a73e
00000010: 65ca 7abe a026 aa3e 79ca 903e f55d ecbd
00000020: 9831 4e3d 64c1 93be 9035 103e 88fa 52be
00000030: 427c 18be 81b4 f8bd 0b00 423e 7070 833e
00000040: 74de 0ebd afd3 663e ee9e 743e 6938 8cbe
00000050: 57d2 b3bd aecd 833a 7c79 1fbb d2da d43d
00000060: cb3c 34be 142f 103e 47b7 bdbd ccdc d53e
00000070: 9953 003e 6375 81bd bebe 2fbe 32b1 05bd
00000080: fb66 a2bd 96d4 253e c6d0 373e 6a38 2bbe
00000090: 19b8 4f3e 362c efbd 2e2c 453e 4eeb 2cbe
000000a0: 4c45 d3bc ef07 7f3e 479b 123e 955e 18bd
000000b0: bc6d 8b3e 03c0 a9bc 5017 453e 3b18 1f3e
000000c0: 7334 773e 1d10 1b3e d14c 8d3e b64f 793e
000000d0: 4d24 8d3d 7c3e 94bd 709d 2dbc 67ef 1f3e
000000e0: 582f 963e 91f1 a93d 7a1d 2fbe 91aa b03d
000000f0: f1db f23d bc71 39be 5008 1d3e fb2e 1bbe
00000100: a7e9 91bd 3d50 243d 81f5 043e 8920 bb3d
00000110: 25a9 39be 4bd6 ffbd 2aa6 50be cb86 463e
00000120: 93a1 5f3e 47e3 f73d af54 473e 94af 4fbe
00000130: 848c 933d 76f4 9bbe 2495 c9bd 01cf a4bd
00000140: 78e6 5b3e ca08 2d3c 749d 9abd 7633 673e
00000150: 924d 063d 3a8a 88be 82cf c4bd 42a1 83bd
00000160: f196 473e 6503 e8bc 5e03 5bbe fe40 ff3b
00000170: 9fdc d03d 9636 1abb 74cc 88bd 3d3e f63d
00000180: a096 2d3e a2d7 adbd 0c30 393d a725 d0bc
00000190: 1cd9 a03d 56dc 8bbc f184 9dbb 0cf7 383e
000001a0: 82b6 16bd 539b 87bd 807a 00bc 29e9 61bd
000001b0: 4500 ef3d 40ad 9ebd d8b0 8fbe 9ed0 1a3e
000001c0: 5dbe 9e3c 3e4c 323d df22 b13d 9be0 3d3e
000001d0: 34ac c9bd 2e5c 143d 27db 793d 8c6f f6bd
000001e0: 4693 8ebd 3d4b b5bd 3dd0 d5bd 06e5 65bd
000001f0: b866 99bd cdb0 3d3e edc5 90bd 432a 61bd
00000200: 0f17 85be 9bc5 bbbd 84ff a33d 63de 7f3e
00000210: 5ae6 42be 919d 5d3e a37f 74bc 34b1 1bbd
00000220: 5a77 f6bd d76e 3ebe b51b 363e e23b 043e
00000230: 27a3 2ebe 7108 febd 0d2f 083d 437d 023e
00000240: 009a 01be c551 88bd efe7 393e bc98 413e
00000250: b24a 5f3d 6485 753d d2a7 36be e962 0bbe
00000260: 9735 0bbc effa ed3d 3e32 233e 2055 9abd
00000270: 4c44 0a3e 4bd1 163e a471 373e b8b6 03be
00000280: 9757 15bd b9c1 82bd 752d b8bd 992f 223e
00000290: 7313 273e b259 80be b42a 1a3e 0d6d a33b
000002a0: 0363 07bd dffb 93be 4019 bdbc 0fd9 a4bd
000002b0: 5662 0bbe eb2d 58be e6e8 553e 0d84 d8bd
000002c0: a479 e1bd 9560 92be 3d63 113c f24c 823d
000002d0: 7758 0e3e bcfa 363e add2 423e ee1d b8bd
000002e0: 1c61 82be 194e f1bd 9d47 2bbe 6bad a03c
000002f0: c425 86bd cc2b 073e c377 fb3d fb98 723c
00000300: 913a 86bd 35c2 593e 5f0a bc3d 0db7 333e
00000310: 24b1 9cbc 7bb4 fdbd b08c 693d 9c3f 40bd
00000320: 9d66 033c e9e3 cebd 23c0 0b3e 083b 42be
00000330: c974 d3bd 8017 7ebd 11d2 53bd 04bc f53d
00000340: fd89 9bbe 3984 44bd 557c 073d b2ff 253e
00000350: b84d 273e 368b 833e e8e9 4bbe f654 0f3e
00000360: dfa2 7b3e ae8d d23d fe63 e5bc f9ae ac3d
00000370: 6052 bd3d 664f 09bd d870 8ebd b2ec 3c3e
00000380: 9610 483c 9f80 863e 95ff 5fbe 27b4 9b3c
00000390: 7a94 193e 89de 32be 119a a43e 7cd3 43be
000003a0: f2ca 6b3e 42f2 a9be b9fa 863e 2bae dd3d
000003b0: 9edb 4d3e c57f 98bc edb8 513e 697e a53d
000003c0: 5c33 333e 6cc0 653c 0659 85be 29c8 6b3e
000003d0: 02a5 633e 58e1 5f3d b266 2b3e 9b89 55be
000003e0: 33ca 683e a210 6f3e 8946 d5bd be64 943d
000003f0: 1671 063e 7eeb 8bbe 30b1 c3bc 3615 7cbe
-0.007009902 -0.19906373 -0.14225455 0.3276328 -0.2449127 0.33232594 0.28279474 -0.115413584
0.050340265 -0.28858483 0.14082932 -0.20603383 -0.1489115 -0.121438034 0.18945329 0.2567172
-0.034880117 0.22541688 0.23888752 -0.27386788 -0.087803535 0.0010055804 -0.0024333885 0.10393299
-0.17601316 0.14080459 -0.09263473 0.41770017 0.1253189 -0.06321218 -0.17162606 -0.03263969
-0.07929798 0.16194376 0.17950734 -0.16720739 0.20285071 -0.116783544 0.19255134 -0.16886637
-0.02578988 0.2490537 0.14317046 -0.037199575 0.27232158 -0.020721441 0.19247174 0.15536587
0.24141102 0.15142865 0.2759767 0.24346814 0.068916894 -0.072384804 -0.010596618 0.15618668
0.29332995 0.08298028 -0.17101088 0.08626283 0.11858357 -0.18109792 0.15335202 -0.1515464
-0.07124644 0.040115584 0.12984277 0.09137065 -0.1813093 -0.12492045 -0.20375887 0.19387357
0.2183898 0.121038966 0.19465898 -0.20281821 0.072045356 -0.30459946 -0.098428994 -0.08047295
0.21474636 0.0105611775 -0.07549563 0.22578225 0.03278882 -0.26667958 -0.096098915 -0.06427242
0.19491173 -0.028321931 -0.21388003 0.00778973 0.1019833 -0.002353107 -0.06679621 0.1202359
0.1695199 -0.08488394 0.045211837 -0.025408579 0.0785391 -0.017072838 -0.0048071076 0.18062991
-0.036795147 -0.066214226 -0.007841706 -0.055154 0.11669973 -0.077478886 -0.2806461 0.15118644
0.019377882 0.04352974 0.08649229 0.18542711 -0.09847298 0.036220722 0.061000016 -0.12032995
-0.06961684 -0.08852241 -0.10440109 -0.056126617 -0.07490295 0.18524475 -0.07069001 -0.054971945
-0.25994155 -0.091685496 0.0800772 0.24987178 -0.19033185 0.21642138 -0.014923009 -0.03801079
-0.12034483 -0.1859697 0.17784007 0.12913468 -0.17054425 -0.12403954 0.033247996 0.12743096
-0.12656403 -0.06656221 0.18154882 0.1890592 0.054514594 0.059941664 -0.17837456 -0.1361195
-0.0084966635 0.116201274 0.15937135 -0.075357676 0.13502616 0.14728276 0.17914444 -0.1286267
-0.036460485 -0.06384606 -0.08993045 0.1583847 0.16316013 -0.25068432 0.15055352 0.004987365
-0.03305341 -0.289031 -0.02308333 -0.08049213 -0.13611731 -0.21111266 0.20889625 -0.10572062
-0.11009529 -0.2858931 0.008873758 0.063623324 0.13900934 0.17869085 0.19025679 -0.08990084
-0.25464714 -0.11782474 -0.16726537 0.019613942 -0.06550172 0.13200301 0.12278702 0.014806981
-0.065541394 0.2126549 0.09181666 0.17550297 -0.019127436 -0.123879395 0.057018936 -0.046935663
0.00802007 -0.10102064 0.13647513 -0.18967831 -0.103250094 -0.06203413 -0.051714007 0.11998752
-0.30378714 -0.04797766 0.033077557 0.16210821 0.16338241 0.25692147 -0.19913447 0.13997254
0.24573849 0.102809295 -0.028001782 0.08431811 0.092442274 -0.033522986 -0.06955117 0.18449667
0.012210986 0.26270005 -0.2187484 0.019006802 0.14998046 -0.17467703 0.32148793 -0.19123644
0.23026636 -0.3319264 0.2636316 0.108242355 0.20103309 -0.018615613 0.204807 0.080807514
0.17500061 0.014022928 -0.26044482 0.23025574 0.22230914 0.054658264 0.16738394 -0.20853274
0.22733383 0.23346189 -0.10413844 0.072457775 0.13129076 -0.27328104 -0.0238882 -0.24617466

functional_1_1/dense_2_1/Add/ReadVariableOp:0 f4 [32]
00000000: ed76 babb 8d80 e9bc 0c84 5abc f0f0 d7bd
00000010: 5ab7 89bc cd80 f53d 39e3 98bd 7b0f af3a
00000020: df9b 263d 554f d13d a396 2ebb 26f7 2cbd
00000030: e342 253c b618 e6bc 42da 943d 5c4c fe3c
00000040: cabd ff3c 77d6 503c 48a2 043c 2212 30bd
00000050: 85b3 083e 91c5 d63d 7cf5 8fbc 69f2 173e
00000060: 9c6c a3bd 7385 9a3c 868e 773d b8da e3bd
00000070: cb6f 503d 15c3 e7bb 52b0 ab3c 0c77 28bd
-0.0056904466 -0.02850368 -0.0133371465 -0.10544002 -0.016811062 0.119874574 -0.07465214 0.0013356054
0.040675994 0.102202095 -0.002664008 -0.042227887 0.010086748 -0.028087955 0.07268192 0.03104227
0.031218428 0.012746445 0.0080953315 -0.042986043 0.13349731 0.104869016 -0.01757311 0.14838566
-0.079797 0.018862462 0.060438655 -0.11125702 0.050887864 -0.007072816 0.0209581 -0.041129157

functional_1_1/dense_1_2/Cast/ReadVariableOp:0 f4 [128, 64]
00000000: 363b 4d3d 2c25 863d fbdc ba3d 963b 95bd
00000010: a6ae 04be 666c e13c 5c2c 1f3e 33ea bf3c
00000020: 224d 2dbc 4b28 cd3d 8e57 0c3e dee1 843c
00000030: 6468 0cbe 04b0 bebc ed85 92bd 4b1f 7bbb
00000040: 1827 0b3e 4172 d2bd f0ed d2bd a65e 263e
00000050: 1b9d 0fbd 7f63 363d b0de 473e e7e7 abbd
00000060: 89d9 f3bd b31f 3b3e 7584 aabd 1355 fc3d
00000070: 412c 95bd c259 243c 37a4 8abd 7db2 093e
00000080: 2215 f4bd eea9 9f3d 33c8 53bc 9d52 9d3d
00000090: a020 e4bd e7b6 b4bd c875 3a3e 6ae9 77be
000000a0: 6c37 643e 2f46 963d b158 22be 8cec 9a3c
000000b0: 4ba9 743d abce 463e 49a9 1d3d b9ca 893d
000000c0: 958e 683e 660d 6f3e 42d1 a33c 471d 573e
000000d0: 81f9 263e 155b 75bd 3113 e7bd a893 a13d
000000e0: 361b 66be 88fe f0bd 032d ef3d 9471 49bd
000000f0: 3b0e 2b3d 55e7 5bbe 572b 533e 9bad 1f3d
00000100: b3b5 763e 62af 2bbe 5e30 60b9 42e6 ad3d
00000110: 7cc6 303d b54c e0bd 5ea5 4cbe 4337 a5bc
00000120: b751 2b3e f9d6 83bc aad6 953d 417d b03c
00000130: 66d6 32be 1450 033e a7a2 02be 84f0 323e
00000140: b447 4d3d d50f f8bc eba6 54bd 0cbb c33d
00000150: ab0f 783e baab 303d 3765 edbd 3d35 a8bb
00000160: 96a6 24bc 1622 be3d 77b3 c4bc 57fc 8f3d
00000170: fc85 173e 8fb9 b73d 289b fb3d ccbc 53be
00000180: d154 30bd 70e9 9fbd 7e2e 22bc 0514 8cbd
00000190: fc29 593c aa82 1cbe 6fa5 6e3b a501 0a3e
000001a0: fcfc f338 5a08 263d 1c49 043c a391 0f3c
000001b0: 5a6c a0bd a079 143e 5e59 d5bd 7e7b 85bb
000001c0: 9e76 5bbe 7c94 adbd fa23 273e 6638 b0bd
000001d0: bbe7 23be d6c2 3ebe cf29 b1bc 01ce 973e
000001e0: 5cc5 dcbd 3de1 033d 6144 6b3d 0234 b3ba
000001f0: 6589 0dbe c2d1 2b3e 23a2 8d3d 2e39 2e3d
00000200: 38ac 053e 8621 703d cd86 cdbd 6d13 1cbd
00000210: fde6 febb d734 433e c19a cabd 997e 5b3d
00000220: 5414 38bd a9c7 863d 2d14 acbd b15c a8bd
00000230: 86dd f63d f78a 52bd d270 bebd 04d2 f13d
00000240: e6e3 66bd 8e17 f6bd f80a 033e 662c 54bd
00000250: 0df0 40be c4b0 8b3d 5b30 b43c c202 eabd
00000260: 7cc4 63be 483b 16be 02a8 2abe 277c 48bd
00000270: ecd0 81be 90de 0cbe 208e 8a3d b8ac e13d
00000280: 3166 0d3e 1001 dcbd 1a39 7c3e a8df 8b3c
00000290: b43d 223e f432 293d 2bf2 dabd a0f2 8c3e
000002a0: 6101 01be 0ea5 963c e731 32be e1b4 273e
000002b0: b2b8 5a3e ea7c 17be b640 15be f6c7 973c
000002c0: df52 c93d be9b 843d 81b4 533d 2d75 1dbe
000002d0: 1221 37bd af63 453d a2ca 13be bc54 f0bd
000002e0: a678 6cbe 82b2 083d 56d6 aebc 162a ad3a
000002f0: d6a5 6cbe 7f18 1cbe 454d b33d a1d2 473d
00000300: 36e8 ccbd c809 9e3d a26a 76be e4fc ef3d
00000310: 48a9 d63c ce29 183e b794 29be a1bc b6bd
00000320: 0791 adbd 4a59 1b3e 3ecd 233d c883 a8bc
00000330: d9cd 1e3e 3574 d3bd 1fee 6d3e 14f1 3c3d
00000340: 73e9 e1bd 364a 36be 527a 823d e0d4 a0bd
00000350: e527 963c 5dc4 f83c 564e d33a ee1a 503d
00000360: 0714 6f3c 4ce1 adbd 1d4e a13c 8d02 443e
00000370: 0310 833e cb28 803d 2317 cdbd 87d5 9ebd
00000380: 9147 efbb 82e6 d03d b9f8 983c a8be 9fbd
00000390: 7f0a 12bc 6fc6 bf3d 8835 09be b5f1 19be
000003a0: 90e4 0ebe f08e 9ebd 0d99 2bbe c485 1ebe
000003b0: ea7e 9abd 27a4 87bd 117f ecbd 9aa0 573d
000003c0: 04c2 013e 4d63 9e3c b8c5 87be 3abb 01be
000003d0: 7c1d fc3c e5cf 3bbe 86c0 b73d b6f8 923d
000003e0: 22ab ccba f9f4 aabd faed 103e 6395 23be
000003f0: b0da 3fbe 869b bd3c d657 0e3e ef69 2a3e
0.050105296 0.06550059 0.0912418 -0.07286756 -0.12957248 0.027517509 0.15544266 0.023427105
-0.010577472 0.10017451 0.13705274 0.016220983 -0.13711697 -0.02327729 -0.071544506 -0.0038318213
0.13589132 -0.102756985 -0.10299289 0.16247043 -0.035061937 0.04452848 0.19518542 -0.08393841
-0.11906726 0.18273811 -0.083260454 0.12320914 -0.072838314 0.010031166 -0.06769603 0.13446994
-0.11918093 0.077960834 -0.012926149 0.07681773 -0.11139035 -0.08823948 0.18208992 -0.24210134
0.22286767 0.07337605 -0.15854146 0.018911622 0.059731763 0.19414775 0.03849152 0.067281194
0.2271064 0.23344955 0.019997243 0.21007262 0.16306116 -0.059901316 -0.11282957 0.07889491
-0.22471318 -0.11767298 0.11678507 -0.049180582 0.041761618 -0.21474965 0.20622002 0.038983922
0.2409275 -0.16766122 -0.00021380323 0.08491184 0.04315804 -0.10952131 -0.19984958 -0.020167952
0.1673039 -0.016093718 0.073163345 0.0215441 -0.17464599 0.12823516 -0.1275736 0.17474562
0.05011721 -0.030280987 -0.051916998 0.09557161 0.24224727 0.04313252 -0.11591571 -0.0051332996
-0.010049483 0.09283845 -0.024011357 0.07030552 0.14797205 0.08970939 0.12285453 -0.20677489
-0.043049637 -0.078081965 -0.00989878 -0.06839756 0.013254639 -0.1528422 0.0036414524 0.1347719
0.00011634265 0.04053531 0.008074071 0.00876275 -0.078331664 0.14499521 -0.10417436 -0.0040735593
-0.21431968 -0.08475587 0.16322318 -0.08604507 -0.16006367 -0.18629012 -0.021626381 0.29649356
-0.10779831 0.032197226 0.057438258 -0.0013672116 -0.13821943 0.16779235 0.06915691 0.042535
0.13053977 0.05862572 -0.10035477 -0.038104463 -0.007779001 0.19063126 -0.09892798 0.05358753
-0.04494126 0.06581051 -0.08402286 -0.082208045 0.12053971 -0.05140206 -0.092988625 0.118076354
-0.056369685 -0.120162115 0.12797153 -0.051800154 -0.18841572 0.06820825 0.021995714 -0.11426307
-0.22242922 -0.14671052 -0.16665652 -0.048946526 -0.25354707 -0.13756776 0.067653894 0.110192716
0.13808514 -0.1074239 0.24631158 0.017074421 0.1584385 0.04130836 -0.10690721 0.27528858
-0.12598182 0.018389251 -0.17401849 0.16377594 0.21359518 -0.14793745 -0.14575467 0.018527966
0.098302595 0.06475018 0.051685814 -0.1537673 -0.044709273 0.04819077 -0.14432767 -0.11734912
-0.23092899 0.033373363 -0.021342438 0.0013211395 -0.23110136 -0.1524372 0.08754972 0.048784856
-0.10005228 0.077167094 -0.24064115 0.11718157 0.026203766 0.14859697 -0.16560636 -0.08922697
-0.084749274 0.1517078 0.039990656 -0.02057065 0.15508212 -0.10324899 0.23235367 0.046128348
-0.11030855 -0.17801747 0.06370987 -0.07853103 0.01832957 0.03036707 0.0016121368 0.050806932
0.014592177 -0.084902376 0.019690568 0.19141598 0.25598153 0.06257781 -0.100141786 -0.07755571
-0.0073022326 0.10200216 0.018673288 -0.07800037 -0.008913635 0.0936402 -0.13399327 -0.1503361
-0.13954377 -0.07742107 -0.16757603 -0.15480715 -0.07543738 -0.066231064 -0.115476735 0.052643396
0.12671667 0.01933446 -0.26518035 -0.12669078 0.030775778 -0.18341024 0.08972268 0.07176344
-0.0015614966 -0.08347506 0.14153281 -0.15974955 -0.18735766 0.023145448 0.13900694 0.16641973

functional_1_1/dense_1_2/Add/ReadVariableOp:0 f4 [64]
00000000: 9fa8 babd b0bd a53d 122f 1b3d b734 43bd
00000010: ee65 5d3d 28fc 9c3d 0d21 d53b 1465 0f3d
00000020: 3656 a63d 4a67 973d 4c9a 42bd 03b6 a4bd
00000030: 1087 a7bd 7159 743c 813c 57bd 9f10 023d
00000040: 457a 8e3d 4472 81bb 3f37 1bbd 5334 c13d
00000050: 7bce 8cbd 88bd a1bb da23 9fbd 14d9 0fbd
00000060: ee0a 243d c7a2 d93d 9451 a8bd 8c8a 193d
00000070: 0966 b03d 0da5 7ebd 069c ef3c 81be e7bc
00000080: 6ddd 06be 259b 3d3d 9f7a c4bc a08e 54bb
00000090: f3cd 273d ed5e d33d 8c1d 13be b976 45bd
000000a0: d331 95bd 2b25 15bb 0447 aabd f89d ce3d
000000b0: b250 3bbd db7d b03b 54fe 2f3d 5a2c cebd
000000c0: 9dd8 7cbd 2a0b 14bb e289 e0bd d5e6 b9bd
000000d0: d74e 973d d68a bbbc 7606 693d 6031 693d
000000e0: a2b2 5f3d 48b8 3b3d b445 9dbd 97f3 0bbc
000000f0: 2596 45bd 9d2e ad3d 4c7c 29bc bece 163e
-0.09114193 0.08092821 0.037886687 -0.047657695 0.054052286 0.076652825 0.006504184 0.035008505
0.08121912 0.07392748 -0.04751043 -0.080425285 -0.08180058 0.014913903 -0.052547935 0.031754132
0.06956915 -0.003950389 -0.037894484 0.09433808 -0.068753205 -0.004935924 -0.0777051 -0.03511913
0.040049486 0.106267504 -0.08218685 0.037485644 0.08613212 -0.062169123 0.029249202 -0.028289082
-0.13170405 0.046290535 -0.023984252 -0.0032433644 0.040967893 0.1032084 -0.1436674 -0.048208926
-0.07284894 -0.002275775 -0.083143264 0.10088724 -0.045731254 0.005386097 0.042967156 -0.10067053
-0.061730016 -0.0022589662 -0.10963799 -0.09077231 0.073880844 -0.02289335 0.056890927 0.056931853
0.054613717 0.04583004 -0.076793104 -0.008541963 -0.048238892 0.084561564 -0.010344576 0.14727303

functional_1_1/dense_1/Cast/ReadVariableOp:0 f4 [26, 128]
00000000: 2cf7 9cbd 63ab 3a3e a8e5 4bbd db0a 32be
00000010: cef7 b33d 92b7 db3d eb8d 9cbd a484 503d
00000020: 8006 703c 7c4f 2abe 6ccd 13be d435 0d3d
00000030: 4356 e4bd 62db 8d3d b0e9 823c e888 bb3c
00000040: 9a27 873d e541 283e cc91 6b3d 21da 473e
00000050: 40e2 b4bc a120 36be 44f2 1c3d 5f13 0b3e
00000060: d0af 453d 80e9 03be 65af 283e e28e c33d
00000070: 6390 9cbd f4f9 9ebd 9a61 a63d 0ee0 b43d
00000080: 0846 d73c 27f0 023e a743 283e 968f c63d
00000090: d42d 703d c6d5 dcbd e8f0 033d 7c51 373d
000000a0: fc5e 19bd c246 28be 49a9 22be 1f37 3f3e
000000b0: 5efe e5bd d8e5 b9bc e964 143e 8ef2 3bbe
000000c0: a207 9a3d 29e5 283e ee30 29be 2858 f1bd
000000d0: eff2 0c3e 948b 423d b064 60bc 53e7 cfbd
000000e0: dcd4 38be 3a06 ce3d 80cf e7bb 603f 363d
000000f0: c2d4 d43d e26f 8d3d dd88 233e 947f 47bd
00000100: 96ff e43d c014 9dbc c8a2 3dbe 7d42 0f3e
00000110: f242 8dbd 9d9d 253e a129 033e b07e 6c3c
00000120: c74b 2d3e 1f13 223e 4294 8b3d f879 8cbc
00000130: 820f 873d feb3 1fbe 95cd 033e 1aa1 90bd
00000140: 7ee5 843d aebc a03d 11e7 38be 1752 aabd
00000150: c4df 43bd f821 a7bc 5029 8abd 9434 0dbe
00000160: 9530 ecbd b30e 273e 8be6 d0bd d818 96bc
00000170: adb9 333e 3109 043e 9c9e 7d3d 49a9 26be
00000180: 36aa 8d3d a4e2 1dbe 2a8b 06be 15a0 0c3e
00000190: 405f ff3b 780b 7ebd 80c4 a03b 6a4d 43be
000001a0: 8d7c 14be 5b22 45be 3ba6 183e 2ab4 9f3d
000001b0: 0d4b 423e 21b6 47be 18b4 c33c d1df 293e
000001c0: 8df3 103e 66f8 dc3d 1d1a e2bd 311c c7bd
000001d0: fb75 293e 1d81 483e 5959 363e 80ad c93a
000001e0: 26d6 a33d b317 013e 5487 323d c0d9 6c3b
000001f0: ca4f 8e3d 9762 0e3e 42d8 b83d 6cdd 8cbd
00000200: e7ea d8bd c540 e2bd 4cea da3d 8b67 913b
00000210: ae6f d8b9 3e81 2cbe fd92 393e cc41 18bd
00000220: 5ce9 71be cd8f 9abd 03a0 4fbe 13c3 a03d
00000230: 2f64 453d bf95 c73d 5b20 853d a36a a03d
00000240: 0a36 25be e65e 28be 48d6 febc 2a0c d7bb
00000250: 2dc9 903d f46f 763d eea1 0b3d 9234 85bc
00000260: 53a7 f5ba 2b03 3d3e cb90 c53d 3796 37bd
00000270: d11e d5bc 3bd1 a3bd 6d44 b3bc b4ee e5bd
00000280: 5292 923d 384d 1b3e 14b6 33bc 207b 6c3c
00000290: 29aa 38be 2456 05bd fab1 6dbe 8a25 c93d
000002a0: ebfc 793d a525 1bbe 2ec1 82be 8d77 993d
000002b0: 22bf 80bc 3e0d 053e c957 173e c685 b7bd
000002c0: 1265 8fbd f77b ad3d 90ca ff3d bc5f 86be
000002d0: 14da 77bd e4c6 e73d 1088 fb3d 6c11 3fbe
000002e0: e2dd 2e3e 4d8f e5bb dbd3 4a3d 5b51 c4bc
000002f0: fc80 ca3d b2f4 923d d5ac e9bd 0241 dc3d
00000300: 37c7 fa3c 14cf 073e 6c71 67be d80f 4dbe
00000310: f7f6 0dbe abae 44bc dc07 353e bea7 2d3d
00000320: 8a6e 19be f9c9 e73d 227a 55bd 0098 a33e
00000330: 5350 c0bd c25a d4bd 7d0d e1bd 3aa4 cbbd
00000340: bf33 6f3e b7bb 11bd 4835 3cbd 4189 c9bc
00000350: acdf 2dbd 6568 283e a961 09be 52dc 173e
00000360: 4b2b 243b bc11 953d e5dc 3ebe 5622 02bc
00000370: 7875 81bd 8c6a be3c 80a8 7d3d 8105 93bc
00000380: c48f 833e 69bd e5bd 887e 043d 2dd8 483d
00000390: 6cba 3bbe a41b 0f3e 680b 21be 0c7d 24be
000003a0: 0c12 01be 18bb ad3d 69fb 373e 3362 5bbe
000003b0: c695 9a3c df05 e63d 0ad2 1fbe 044b 06be
000003c0: 8dea e13d e057 3f3e fad3 81bb f3f6 a6bd
000003d0: 77a9 c63b e95c 6b3e 53bf 47bd 7886 e93d
000003e0: bc93 1abe d0a6 85bc 91c7 0b3e bebc d93d
000003f0: a818 b53d 3ac6 0ebc 3006 88bd 2b29 e0bd
-0.07664332 0.18229441 -0.049779564 -0.17386954 0.08787499 0.10728373 -0.07644256 0.050907746
0.014649987 -0.16631883 -0.14433831 0.034475163 -0.111492656 0.069266096 0.015980572 0.02289243
0.0659935 0.16431387 0.05751209 0.19516803 -0.02208054 -0.17785884 0.03831698 0.13581608
0.04826337 -0.12882042 0.16473158 0.09548737 -0.07644727 -0.077625185 0.08124085 0.088317975
0.02627851 0.12786923 0.16432057 0.096953556 0.058637455 -0.107829615 0.032212168 0.044755444
-0.0374441 -0.16433242 -0.1588489 0.18673371 -0.11230157 -0.022692606 0.14491619 -0.18354246
0.07520987 0.16493668 -0.16522571 -0.117843926 0.13764547 0.047496393 -0.013695881 -0.101515435
-0.1804995 0.100597814 -0.0070742965 0.044494033 0.10392143 0.069061056 0.15970178 -0.048705652
0.11181562 -0.019174933 -0.18519127 0.13990207 -0.068975344 0.16173406 0.12808849 0.0144345015
0.16923438 0.15827607 0.06815387 -0.017148003 0.06594755 -0.15596005 0.12871392 -0.07061978
0.06489085 0.07848488 -0.18056895 -0.08316439 -0.04782082 -0.02040194 -0.06746161 -0.13789588
-0.11532704 0.16314201 -0.102002226 -0.018322393 0.17551298 0.12894131 0.06191884 -0.16275515
0.06917231 -0.15418488 -0.13139024 0.13732941 0.007793337 -0.062022656 0.004906237 -0.190725
-0.14500637 -0.19251387 0.14907162 0.077980354 0.18973942 -0.1950307 0.023889586 0.16589285
0.14155407 0.10789566 -0.11040137 -0.09722174 0.16548912 0.19580503 0.17807521 0.001538679
0.0799983 0.12606697 0.04358609 0.0036140531 0.06948812 0.13904797 0.09025623 -0.0687817
-0.10591679 -0.1104751 0.1068922 0.004437392 -0.00041281938 -0.16846177 0.18122478 -0.037172124
-0.23624176 -0.07546959 -0.20275883 0.078497075 0.048191246 0.09745359 0.06500312 0.07832839
-0.16133896 -0.16442451 -0.031108037 -0.0065627294 0.07069621 0.06016536 0.034089975 -0.016260419
-0.0018741883 0.1845824 0.09646758 -0.04482099 -0.026015671 -0.07998892 -0.021883214 -0.1122717
0.07156815 0.15166175 -0.010968704 0.014433652 -0.18033661 -0.032552853 -0.23212424 0.09821613
0.061032217 -0.15151079 -0.2553801 0.074935056 -0.01571614 0.12993333 0.14779581 -0.08961062
-0.070016995 0.0847091 0.124898076 -0.26244915 -0.06051071 0.11317232 0.12281811 -0.1865899
0.17076829 -0.007005608 0.049518447 -0.023964575 0.09887883 0.07175578 -0.11409918 0.10754587
0.030612571 0.13262588 -0.22601861 -0.20025575 -0.13863741 -0.012004535 0.1767878 0.0423963
-0.14983574 0.1131782 -0.052118428 0.31951904 -0.09390321 -0.10368873 -0.10988901 -0.09943433
0.23359583 -0.03557941 -0.04594925 -0.02460158 -0.04244964 0.16446073 -0.1341616 0.1483014
0.0025050219 0.07278773 -0.18638952 -0.007942757 -0.063212335 0.023244165 0.061928272 -0.01794696
0.25695622 -0.11217768 0.032347232 0.049034286 -0.18332833 0.13975388 -0.15727007 -0.16063327
-0.1260454 0.08482951 0.17966999 -0.21424179 0.018870246 0.112315886 -0.15607467 -0.13114554
0.11031065 0.18685865 -0.003962037 -0.081525706 0.0060626823 0.22984661 -0.048766445 0.11402601
-0.15095419 -0.016314894 0.13650347 0.10631703 0.088425934 -0.008714253 -0.06641805 -0.10945352

functional_1_1/dense_1/Add/ReadVariableOp:0 f4 [128]
00000000: e0f1 46bc 7eb8 0b3c 0d16 963d e8fb 963d
00000010: 7a00 82bd 9e05 c0bd a961 a53d 808f 633d
00000020: 3e8f 3e3d 546a c63d 34fa b3bd fbe2 a53d
00000030: c5ae 8139 3c9e bb3c 91ff 24bd e924 b7bd
00000040: 0000 0000 0000 0000 c1a6 563d 27ec 48bd
00000050: 2c5c cf3c 0000 0000 7744 febd 8d80 9a3d
00000060: 3b83 a63d a718 403d 8862 5b3d 2ab2 623d
00000070: ea28 003b 39fb 393b 3c69 08bd 0be4 75bd
00000080: 8e6e 033d f325 e73d 45dd a63d 7494 583d
00000090: 0000 0000 7ed1 f43b 4366 5bbc 0000 0000
000000a0: c635 753d ede4 75bd b8e4 75bd 0be5 75bd
000000b0: 8ef6 463d 91e5 75bd ec9a 9cbb 0000 0000
000000c0: 9daa 083c 40c6 a13d a33b 0a3d 295e 39bd
000000d0: 27ad 193d e464 96bc 1aae 973d 0000 0000
000000e0: 867b 0bbd 2c9c 713d 3a8c 763d b99b e6bd
000000f0: 46a6 6a3d 6d8b 8d3d f085 cebd 21dd bdbb
00000100: aef6 95bd 5302 b63d d7e4 75bd 63ed c4bd
00000110: 0000 0000 415c 73bd 02c4 24bd 056f eabd
00000120: 75fc 333d 1098 63bd 63e5 75bd d405 7b3c
00000130: 9f3d d63d 1ecc c9bd 8dde d93c 0000 0000
00000140: d1c1 2a3d 6793 b0bc 4394 403c 4477 a13b
00000150: 0000 0000 eadf 423c 819c b5bd 5a24 243d
00000160: b647 05bd 4b0a 503d 0000 0000 641a 643d
00000170: 0000 0000 def0 953b ce2b 553d fc02 753d
00000180: 307a 3bbd 6367 3b3d 0000 0000 cc4c b53d
00000190: 0000 0000 d163 723d 0000 0000 ceab f6bd
000001a0: 0be9 cd3d b0f5 a33d fe6b 83bc 4fa7 1cbe
000001b0: 7350 453c 66e4 75bd 36fa 233c 4e3b f33c
000001c0: b125 573d 928c 793d 1ee5 75bd ecb8 c43d
000001d0: 5eea d03d f91d 0e3c a684 c4bd 4495 fcbd
000001e0: fec6 cb3c ca17 fabd 8441 71bb 048e 273d
000001f0: 3bca bd3d 1c97 a23d 93e7 943d de86 053d
-0.012142628 0.008527873 0.073284246 0.07372266 -0.06347747 -0.093760714 0.08075268 0.055556774
0.046523325 0.09688249 -0.08787957 0.08099934 0.0002473501 0.0229026 -0.04028279 -0.08942587
0.0 0.0 0.052405123 -0.049053337 0.025312506 0.0 -0.124154024 0.0754405
0.08130499 0.04689851 0.053560764 0.05534569 0.0019555637 0.00283785 -0.033303484 -0.06003193
0.032087855 0.11286535 0.081476726 0.05287595 0.0 0.0074712625 -0.01339108 0.0
0.059865735 -0.060032774 -0.060032576 -0.060032886 0.048574977 -0.060033385 -0.0047792103 0.0
0.008341459 0.07899141 0.03374828 -0.045255814 0.037518647 -0.018358655 0.07406254 0.0
-0.034053348 0.058986828 0.060192324 -0.112601705 0.057287477 0.06911359 -0.1008414 -0.005794183
-0.07322441 0.08887162 -0.06003269 -0.096155904 0.0 -0.059414152 -0.04022599 -0.114469565
0.043941934 -0.05556494 -0.060033213 0.015321214 0.10460972 -0.098533854 0.026595378 0.0
0.041688744 -0.021554662 0.011754098 0.0049275476 0.0 0.011894206 -0.088677414 0.04007373
-0.032539092 0.050791066 0.0 0.05568923 0.0 0.0045758327 0.05204373 0.0598173
-0.045770824 0.045752894 0.0 0.088525385 0.0 0.059177224 0.0 -0.12044488
0.10054215 0.080058455 -0.016042706 -0.15298198 0.012043106 -0.06003227 0.010008385 0.029691365
0.05252618 0.060925074 -0.060032956 0.096055835 0.10200952 0.008674138 -0.09595613 -0.12333158
0.02487516 -0.12211569 -0.0036812732 0.04090692 0.09267088 0.07938978 0.07270732 0.032599322

functional_1_1/batch_normalization_2_1/batchnorm/sub:0 f4 [32]
00000000: 2bb9 0fbf 21ac 0dbf c311 b6be 5430 4fbe
00000010: d9fe 02bf 45fd 01bf 4c5c 1bbd 2cd9 0ebf
00000020: 89a4 09be 0702 0fbf 1609 ddbe 53be 03bf
00000030: bfdf 0abf 06de 07bf f4e0 0abf 42c9 fabe
00000040: 703a d6bc b285 b8bd b07e a1bd d48c 92bd
00000050: fe72 fcbe 7610 0ebf 4cd3 73bd ae62 51be
00000060: a45a 73bd 64c0 1cbe 26da efbe e8a2 93be
00000070: a9fc 0abf b285 ddbe 1eee 2fbe 639d 84be
-0.5614192 -0.5534077 -0.35560426 -0.2023328 -0.51170117 -0.50777084 -0.037929818 -0.5580013
-0.13441671 -0.5586247 -0.43170995 -0.51462287 -0.5424766 -0.53073156 -0.542495 -0.48981673
-0.026150912 -0.09009875 -0.07885492 -0.07155767 -0.49306482 -0.5549387 -0.05952768 -0.204478
-0.059412614 -0.15307766 -0.46846122 -0.28835225 -0.5429178 -0.43266064 -0.17180678 -0.25901327

functional_1_1/batch_normalization_2_1/batchnorm/mul:0 f4 [32]
00000000: b239 6f3f 3867 353f caae 5f3f 8743 5d3f
00000010: 0204 303f 6eab ed3e 9924 223f 4a41 233f
00000020: 1533 463f 0e54 193f 7dc9 613f b000 4c3f
00000030: f85f 273f a1f9 653f 971f 193f 2ad6 3c3f
00000040: d5b8 493f a9a2 453f 059a 4f3f bf99 813f
00000050: ce9b 823f 513f 453f d082 0d3f 3ab3 543f
00000060: ee20 533f 289a 713f 9f50 663f b8b1 363f
00000070: 0930 263f 8899 643f 75e5 7c3f 1577 673f
0.9344741 0.70860624 0.8737608 0.86431164 0.68756115 0.46419853 0.63337094 0.637715
0.77421695 0.5989388 0.8819807 0.7968855 0.6538081 0.8983403 0.5981383 0.7376429
0.78797656 0.77201325 0.8109439 1.0125045 1.0203798 0.7704974 0.5527773 0.8308598
0.8247212 0.9437585 0.8996677 0.7136493 0.64917046 0.8929677 0.98787624 0.9041608

functional_1_1/batch_normalization_1_2/batchnorm/sub:0 f4 [64]
00000000: 9485 f0be 98ac ebbe b90b aabe 58d2 9bbe
00000010: 28f5 8fbe c499 2ebf b8f5 e7be 5ab3 fcbe
00000020: 58a3 dfbe 64fc bcbe 7560 8fbe abe9 a1be
00000030: ad62 a9be e6cb ccbe 95f6 c1be c383 9ebe
00000040: 04dc bcbe df08 a7be 4a58 b0be 219b b9be
00000050: 384c a0be e05f 7dbe 8c0b 08bf d11a 8dbe
00000060: dcae d9be 887e d8be 2819 91be 9a30 f8be
00000070: 6b67 dabe 9789 dabe 912a cabe 8d42 d6be
00000080: fa9f a1be 3cde b9be 2656 cfbe 72e3 f0be
00000090: 706a e6be 113d d6be bab3 92be edb3 cfbe
000000a0: 7894 e0be 1ed9 d0be 8b0f d1be 2118 24bf
000000b0: dc89 8abe a6ff ddbe 44b3 b3be 64f0 8dbe
000000c0: b26b cbbe f553 95be eebf 8ebe 0d29 12bf
000000d0: 3692 0ebf 5489 cebe 80a0 16bf 23e0 e9be
000000e0: 0ceb eebe 93d5 cabe 5ef1 68be 1a6c 8fbe
000000f0: 4445 f6be e9f6 efbe cea0 01bf 3fd8 bfbe
-0.46976912 -0.46030116 -0.3321207 -0.30433917 -0.28116727 -0.6820338 -0.45304656 -0.49355584
-0.4367931 -0.3691131 -0.28003278 -0.31623587 -0.33083096 -0.39999312 -0.3788344 -0.309599
-0.3688661 -0.32623956 -0.3444236 -0.36251166 -0.3130815 -0.24743605 -0.5314262 -0.27559522
-0.4251622 -0.42284036 -0.28339505 -0.4847458 -0.42657027 -0.42683098 -0.394856 -0.4184765
-0.31567365 -0.36302364 -0.40495414 -0.47048527 -0.4500308 -0.41843465 -0.28652745 -0.4056696
-0.43863273 -0.40790647 -0.4083217 -0.6409932 -0.27058303 -0.43359107 -0.35097706 -0.27722466
-0.39730603 -0.29165617 -0.27880806 -0.5709389 -0.5569185 -0.40339148 -0.58838654 -0.45678815
-0.46663702 -0.3961607 -0.22748324 -0.28012162 -0.4809972 -0.46868065 -0.50635993 -0.3746967

functional_1_1/batch_normalization_1_2/batchnorm/mul:0 f4 [64]
00000000: 3e53 8f3f 7cb9 7d3f b1b7 693f e80e 2a3f
00000010: 079a 7b3f aff4 303f 41a8 8b3f 82eb 983f
00000020: e784 7e3f 87d2 673f d0a4 913f 4246 373f
00000030: b5e0 703f 99c0 613f bcfa 733f cd77 5b3f
00000040: 313b 533f cb26 623f 392a 7e3f 4dbc 6d3f
00000050: 691c 273f c3dd 373f 1821 8b3f 648e 5b3f
00000060: 765d 553f ed63 7a3f 73d1 893f 9939 513f
00000070: 4852 863f 8272 803f bf63 7e3f ffcf 653f
00000080: 3783 6e3f c7f3 823f 43ae 733f 2f63 843f
00000090: a5ad 2e3f a776 893f f1ae 743f ca9c 5e3f
000000a0: 2fac 833f b491 8c3f a69a 453f a7ac 873f
000000b0: 4633 4c3f 8968 333f 8d81 4d3f 1129 4b3f
000000c0: 2fa9 753f 406d 5d3f 3d96 403f 0500 643f
000000d0: 743f 603f fd9c 723f d66d 8d3f cd2f 2f3f
000000e0: 017e 7f3f bf49 7f3f 6696 463f c18f 6c3f
000000f0: 14db 803f 908a 5a3f b20d 6d3f 7006 593f
1.1197278 0.9911115 0.91295916 0.66428995 0.982819 0.6912336 1.0910722 1.1946871
0.9942154 0.90555614 1.1378422 0.7159158 0.94092876 0.88184506 0.95304465 0.85729676
0.82512194 0.88340443 0.99283177 0.9286545 0.65277725 0.71822757 1.0869474 0.85764146
0.83345735 0.97808725 1.0767044 0.8172851 1.049386 1.0034945 0.9937095 0.897705
0.9316897 1.0230645 0.9518778 1.0342768 0.6823371 1.0739335 0.9557944 0.8695799
1.0286921 1.0981965 0.771891 1.0599564 0.7976574 0.70081383 0.80275804 0.7935954
0.9596128 0.8649483 0.75229245 0.8906253 0.8759682 0.94770795 1.1049144 0.68432313
0.9980164 0.997219 0.7757324 0.9240685 1.0066857 0.8536768 0.9259902 0.8477545

functional_1_1/batch_normalization_1/batchnorm/sub:0 f4 [128]
00000000: 46b4 ff3c aa49 5fbe 3ab8 d1be 1635 33be
00000010: 8b6e 943c 9953 d03c bf81 83be ac21 48be
00000020: 16c2 43be 75f8 d4be 23b6 523d 37dd aebe
00000030: 628a 35be 10d5 b1bb f843 79be 0c93 593d
00000040: 5b37 813c 9dbb f33d 695b 96be 9b95 b3bd
00000050: dd47 82be ad87 d3bd 95cb 73bd a21d 37be
00000060: 88b2 5abe 60b8 56be bb29 e3bd afc0 d3be
00000070: 7d37 86bd adaf 15bd 449a 03bd bc78 febd
00000080: 0893 c8bd d7da 17bf 6f41 92be f638 78be
00000090: 07be 06bd df7d 69bd 9a25 ccbd 0f92 28bd
000000a0: fd8d 86be 0d14 313d 4017 b6bc 9e45 45bd
000000b0: 1c0b 23be 850e 043c 917e e6be 44e5 3e3d
000000c0: a293 26be 1bdb babd 7df1 69be 1223 a3bd
000000d0: 81a2 bbbe f07f 8fbb d10b 9fbe d58d 173d
000000e0: 3211 ccbd c741 83be 7adf d4be bf6e 8abd
000000f0: 1f22 0ebe de48 9bbe c874 aebd c613 bdbd
00000100: 7c07 acbd 9ff1 e4be 2602 62bc 978e 1abe
00000110: 37bb ecbd 934f d9bc 647b 2ebd 47e9 9a3d
00000120: b152 95bd a3e8 90bc 7262 10bd 73ef 36be
00000130: 463a 14bf a0fc 31bd f96d acbd d4fb 01bc
00000140: 78fc 7dbe 6c54 f2bd 2f69 41be e320 64be
00000150: 5b16 243d f891 14be e5f6 01be d1f5 0dbe
00000160: 7211 4b3d 3f57 b8be 9ca4 94bc dae1 c3be
00000170: 5de7 ae3d 3a18 efbd 4d9b aebe e870 cdbe
00000180: 226f ebbd 6fbf 44be 18b1 0ebc a7c2 adbe
00000190: 28d7 033e b582 ccbe b717 7c3d 20ae 44bc
000001a0: bcc4 22bf 49b2 c0be 77ed f6be 1040 6fbd
000001b0: f0d6 4ebd ab07 0c3e 0e39 89be 8b7a 05be
000001c0: e0eb a4be dca9 d5bd 34e6 42bd 7743 b1be
000001d0: bc79 79be b911 abbe 980a d8bb 304c e6bc
000001e0: 91aa 56bd bcf0 cfbd 22ef ebbe 4c84 7fbe
000001f0: c783 a8be 72c9 f0be 4e6c 93be f6fa 50be
0.03121389 -0.21805444 -0.40960866 -0.1750072 0.018119117 0.025430487 -0.25684926 -0.19544095
-0.19117007 -0.41595808 0.05144323 -0.3415315 -0.1772857 -0.0054270104 -0.24342334 0.05311875
0.015773466 0.11901019 -0.29366615 -0.08768769 -0.25445452 -0.103286125 -0.059520323 -0.17882398
-0.21357167 -0.20968771 -0.11091944 -0.41357943 -0.06553552 -0.03654449 -0.03212954 -0.12425372
-0.09793669 -0.593183 -0.28565547 -0.24240479 -0.032896068 -0.057004806 -0.099681094 -0.041154917
-0.26280203 0.043232013 -0.022227883 -0.048162095 -0.15922207 0.008060102 -0.45018438 0.046605363
-0.16267255 -0.09123822 -0.22846027 -0.079656735 -0.36647418 -0.004379265 -0.31063703 0.037000496
-0.09964217 -0.25636122 -0.4157675 -0.067594044 -0.13880204 -0.3032903 -0.08518368 -0.09232287
-0.08399865 -0.44715592 -0.013794458 -0.15093456 -0.11559146 -0.026527202 -0.042598143 0.07564025
-0.07291163 -0.017689055 -0.035250135 -0.1786478 -0.5790142 -0.043453813 -0.08419413 -0.007933576
-0.2480334 -0.118325084 -0.1888778 -0.2227817 0.040060382 -0.14508808 -0.12691839 -0.13863303
0.049577184 -0.36004063 -0.018144898 -0.3825825 0.08540223 -0.11674543 -0.3410286 -0.40125203
-0.11495806 -0.19213651 -0.008709215 -0.3393757 0.12875044 -0.39943472 0.061546054 -0.012004405
-0.6358144 -0.3763602 -0.48228046 -0.058410704 -0.05049795 0.136748 -0.26801342 -0.13035028
-0.32211208 -0.10432789 -0.04758282 -0.34621784 -0.24362844 -0.3341196 -0.0065930597 -0.0281125
-0.05240876 -0.10153338 -0.4608088 -0.24952811 -0.32913038 -0.4702869 -0.28793567 -0.20408234

functional_1_1/batch_normalization_1/batchnorm/mul:0 f4 [128]
00000000: b693 b93f 8587 b63f ca22 bb3f 13a9 b43f
00000010: be11 d03f 985c b03f 561e be3f 8686 b53f
00000020: b401 b13f dcb0 ac3f ca09 b23f e71e c93f
00000030: 5d60 ca3f 605e b43f ef4f c43f baa5 b03f
00000040: fb1f bf3f fb1f bf3f 0afa bc3f 531e c03f
00000050: e456 ae3f fb1f bf3f 28b0 ba3f 1095 cc3f
00000060: 667a d23f 2a61 d13f 9ea6 af3f dc31 a13f
00000070: 3a49 cb3f 7d29 d13f 6d51 c13f caad b33f
00000080: 74bf b23f fc6a ca3f 51eb c63f 3e8c c73f
00000090: fb1f bf3f df8f c63f ae30 c13f fb1f bf3f
000000a0: 3a1c b23f fd98 ca3f d0a6 b33f a498 ca3f
000000b0: 1043 c63f bba6 b33f 6f43 cb3f fb1f bf3f
000000c0: 984a bc3f 7533 bc3f bb89 b33f a28f ab3f
000000d0: 4f65 c23f 7860 c63f 64e6 bb3f fb1f bf3f
000000e0: f50d d73f e445 b53f adba b83f 40be b93f
000000f0: f50d b73f 78b9 c53f 664e ae3f 8026 cd3f
00000100: 6105 b53f c47c ad3f f5a6 b33f d558 bf3f
00000110: fb1f bf3f de32 b23f 4023 cd3f e35f c63f
00000120: eb35 c03f e781 b43f eba6 b33f 7660 b93f
00000130: f0af bf3f 2012 cf3f 1d50 a73f fb1f bf3f
00000140: f4f1 bd3f 023b bc3f 1a3c c73f 19cb bf3f
00000150: fb1f bf3f 9a41 a83f 7d71 c13f 015d c03f
00000160: 2719 be3f 3b1d c93f fb1f bf3f 1672 cd3f
00000170: fb1f bf3f 3e4f ab3f 1ff5 b23f 15f1 ac3f
00000180: 6e16 d03f 88f8 bc3f fb1f bf3f 47e8 c03f
00000190: fb1f bf3f 9a5b af3f fb1f bf3f a3f8 ab3f
000001a0: ab5e bd3f bc5c c43f a501 af3f a5e4 c53f
000001b0: 91ef bc3f d5a6 b33f 232d b53f 5b14 a73f
000001c0: cd1b c13f ec51 bf3f 22a7 b33f 9872 b93f
000001d0: 1389 b83f c834 b23f e523 ad3f b40b b33f
000001e0: 8936 c53f 26da b63f 6bcc b73f 7cea b33f
000001f0: 20de a63f 9557 c33f 5f21 c13f fc5c c33f
1.4498203 1.4260107 1.4619992 1.4114097 1.6255414 1.3778257 1.4853008 1.4181678
1.3828645 1.3491473 1.3909237 1.5712556 1.5810658 1.4091301 1.5336894 1.3800576
1.4931635 1.4931635 1.4763806 1.5009254 1.3620267 1.4931635 1.4585009 1.598299
1.6443603 1.6357777 1.3722723 1.2593341 1.5881722 1.6340786 1.5102974 1.4037411
1.3964677 1.5813899 1.5540563 1.5589674 1.4931635 1.5512656 1.5092981 1.4931635
1.3914864 1.5827938 1.4035282 1.5827832 1.5489216 1.4035257 1.5879954 1.4931635
1.4710264 1.4703203 1.4026407 1.3403208 1.5187167 1.549819 1.4679685 1.4931635
1.6801134 1.4161954 1.4431969 1.4511185 1.4301134 1.5447226 1.3617675 1.6027374
1.4142267 1.35537 1.4035326 1.4948984 1.4931635 1.3921773 1.6026382 1.5498012
1.5016454 1.4102143 1.4035314 1.4482563 1.4975567 1.6177406 1.3071324 1.4931635
1.4839463 1.4705508 1.5565217 1.4983855 1.4931635 1.314502 1.5112759 1.5028383
1.4851426 1.5712045 1.4931635 1.6050441 1.4931635 1.3383558 1.3981055 1.3511072
1.6256845 1.4763346 1.4931635 1.5070885 1.4931635 1.369983 1.4931635 1.3435253
1.4794515 1.53408 1.3672377 1.5460402 1.476061 1.4035288 1.41544 1.3053087
1.5086609 1.4946876 1.403538 1.4488096 1.4416832 1.3922358 1.3526579 1.3987947
1.5407268 1.4285324 1.4359258 1.4055934 1.3036537 1.5261103 1.5088309 1.5262752
