models/Ljubljana/speed/Ljubljana_speed_model.onnx (onnx, 61113 bytes, 13 tensors)

functional_7_1/dense_15_1/Cast/ReadVariableOp:0 f4 [32, 1]
000000 e6 c0 ce bd d0 1c 7c 3d 8f ef 02 3e 5d 72 0e be
       -0.10095386 0.061550915 0.12786697 -0.13910814
000010 c3 79 07 be 89 55 eb 3d b6 03 19 bd eb f5 f0 3b
       -0.13230042 0.11490924 -0.037357055 0.0073535345
000020 1d 84 c7 3d 82 15 f1 3d bc 74 ee 3d c4 10 00 3d
       0.097419955 0.117716804 0.11643359 0.03126599
000030 ad 0b b0 bd 62 2c 74 3d 46 89 49 3c 7e 8d ac 3c
       -0.08595977 0.05961264 0.012300795 0.021063562
000040 58 54 a1 bc 0f 29 6b 3b 43 98 18 be d8 6c fd 3b
       -0.019693539 0.0035882627 -0.14901833 0.0077339225
000050 17 87 e6 3d 94 2d 12 be 40 cc de ba fa 5c 82 3d
       0.11256235 -0.14275199 -0.0016998127 0.0636539
000060 ee ea 02 be b4 da 47 bd 02 27 d7 bc 02 a2 c7 3d
       -0.12784931 -0.048792556 -0.026263718 0.097476974
000070 87 19 9d bd aa 27 09 3e 6e be cf bd 9c 52 e5 3d
       -0.076708846 0.13394037 -0.101437435 0.11197397

functional_7_1/dense_14_1/Cast/ReadVariableOp:0 f4 [64, 32]
000000 21 6f b4 be 91 44 85 bd 28 f6 d3 bd 1b 36 49 3e
       -0.35241035 -0.06507219 -0.10349685 0.19649546
000010 b2 16 09 3e 59 29 0d 3d b3 32 80 3e 35 32 46 be
       0.13387564 0.03446326 0.2503868 -0.1935509
000020 c6 15 ae bd a3 93 ec 3b ac 00 68 bc 06 38 b4 3d
       -0.08500247 0.007219748 -0.014160316 0.08799748
000030 4b 71 fd bd a9 a7 e0 3d d6 1d cb 3d 49 7d 80 be
       -0.123751245 0.10969479 0.099178 -0.25095585
000040 4c a7 8d 3d a9 34 48 3d b7 e7 56 be 0e 20 66 3e
       0.06916675 0.048878346 -0.2098683 0.22473165
000050 25 83 39 3d d7 c8 7e 3e a3 e7 50 3e ed 25 80 bc
       0.045291085 0.24881302 0.20400862 -0.015643084
000060 7a b5 96 3b 81 a2 81 be 4e 36 1c bd ad bb a6 be
       0.0045992704 -0.25319293 -0.038137726 -0.3256506
000070 dc 56 d4 3b 06 0f 34 be 92 fa 99 3e a9 b5 d3 bc
       0.006480081 -0.17583856 0.30073982 -0.025843458
000080 15 01 d8 bd e2 bb a4 3d 87 71 36 3d c8 17 4e 3d
       -0.105470814 0.08043648 0.04454186 0.05031565
000090 d2 54 ea 3b c2 21 1a 3e a3 1c 51 3e 3c cf 7e 3e
       0.0071512247 0.1505194 0.2042108 0.24883741
0000a0 39 bc bd bc d6 de 25 3e bb bd 6e 3e 95 7c 9f be
       -0.02316104 0.16198286 0.23314564 -0.31149736
0000b0 c7 8f 36 3e ae 97 a0 bd d1 e3 cd bc 8d ed ae be
       0.17828284 -0.078414306 -0.025133045 -0.34165612
0000c0 42 b1 7e bd 26 06 34 bd b3 b2 29 be 0f 86 30 3e
       -0.062180765 -0.043951176 -0.16572075 0.1723864
0000d0 c1 40 1c bd 2a a9 21 3e 19 4a 98 3e 1c 3d 80 bc
       -0.03814769 0.15787187 0.29744032 -0.01565414
0000e0 a5 87 18 be b0 30 34 bd 59 07 4d 3e 4b 0b 34 be
       -0.14895494 -0.043991745 0.20022334 -0.17582433
0000f0 b4 62 54 bd a6 80 b2 be 93 62 cb 3d 95 fd 07 bd
       -0.051851943 -0.34863776 0.09930911 -0.03320082
000100 30 2f 85 bc 1b b3 11 3c 27 f4 e0 3d 0e 10 65 3e
       -0.016257852 0.0088928 0.10984068 0.22369406
000110 ee aa 1c 3e e2 c1 2a be 97 fe d1 bd 42 22 0a be
       0.1529958 -0.16675523 -0.10253637 -0.13489631
000120 89 70 f2 bd 16 de 81 3d fd d1 43 3e 27 7e 85 bd
       -0.11837871 0.06341188 0.19123073 -0.06518202
000130 eb c4 94 3c 5c cc 36 3e 77 51 b4 bc 36 ff 88 3e
       0.018160304 0.17851394 -0.022011502 0.2675721
000140 8c 9c 64 3d 74 12 6f 3e 15 91 26 be 55 b0 67 3e
       0.055813357 0.23346883 -0.16266282 0.22625859
000150 06 15 30 be 46 58 44 be cf 0a 4a 3e 7a a5 05 be
       -0.1719552 -0.19174299 0.19730686 -0.13051406
000160 02 58 d3 3d 6b d5 23 be 6a 58 c2 bc 7b 14 c6 bd
       0.103195205 -0.15999381 -0.0237238 -0.09671875
000170 5d 09 07 3d 2e ec 95 bd 06 98 29 be 10 db f2 bd
       0.032967914 -0.07320438 -0.16561899 -0.11858189
000180 fd 9c 71 bc 57 49 49 bd 54 70 6e 3e 8d 9e 01 3e
       -0.014746902 -0.049142208 0.23285037 0.12658139
000190 a6 3a 8e 3e 08 12 16 be f6 9a 4d 3e ed 42 ac 3d
       0.2777912 -0.14655316 0.20078644 0.084112026
0001a0 b8 7c 1b 3d f6 ed d1 bc 55 ed 67 3e 0e 56 73 3e
       0.037960738 -0.025626164 0.22649129 0.23763296
0001b0 3c 39 79 be 0c 2c 88 bd df 35 2d 3e 8b fb 00 be
       -0.2433824 -0.06649026 0.16915081 -0.12595956
0001c0 ed 76 b5 3d 26 5f c0 3d 5d 6c 07 be cf df 17 bd
       0.08860574 0.09393148 -0.13224931 -0.037078675
0001d0 7e 75 9b 3c 31 a0 0b bb cf ca ce 3d a4 29 88 be
       0.018976923 -0.0021305198 0.100972764 -0.2659427
0001e0 3a c2 a1 3e b9 d8 6a bd d0 a0 64 bc 88 19 40 be
       0.31593496 -0.05733559 -0.013954356 -0.1875974
0001f0 79 06 db 3c 09 6a 75 3e 2a 46 86 be 99 1a 3f be
       0.026736485 0.2396623 -0.26225406 -0.1866249
000200 ab c6 b3 3d 90 2c 29 3e d8 10 55 bd b9 f0 d9 3c
       0.08778127 0.16520905 -0.052018017 0.026604043
000210 d4 f8 35 3e 7c 94 8c be ef 68 c4 bd 16 36 f0 3b
       0.17770702 -0.27457035 -0.09590327 0.0073306663
000220 f8 65 24 3e 17 13 05 3e a6 a1 83 be bd 6a 8a 3e
       0.16054523 0.12995563 -0.25709265 0.2703456
000230 a0 37 d2 3d 13 c8 b7 bd 2f eb 88 3e 45 c8 75 bc
       0.10264516 -0.08973708 0.2674193 -0.015001361
000240 db 3f cf bd 51 eb 00 3d 53 b7 b8 be a1 0b f4 bd
       -0.10119601 0.031474415 -0.36077365 -0.119162805
000250 b6 e3 32 bd f2 c4 ca 3d cb 02 49 3e f6 ff 53 be
       -0.043674193 0.099008456 0.19629972 -0.2070311
000260 3f e6 d4 bd d0 b0 7b be 99 23 95 bc 07 f7 89 bd
       -0.103954785 -0.24579167 -0.01820545 -0.0673657
000270 0d 22 0d 3e dd 34 bf bd f4 64 70 be c4 4a 3d 3b
       0.1378252 -0.09336255 -0.2347601 0.0028883675
000280 2f 6b 91 3c 28 28 aa be 5c 76 18 3e 43 1a 4b be
       0.017751304 -0.33233762 0.148889 -0.19834237
000290 28 07 1b 3e c1 ef 06 be 13 fc d1 bd f3 59 89 3e
       0.15139449 -0.13177396 -0.102531575 0.26826438
0002a0 17 47 5a 3e 10 e2 66 be 30 3a cf 3d f4 1e 91 be
       0.21316181 -0.22547174 0.1011852 -0.28343928
0002b0 af 23 12 be b3 3a 0a be f7 e5 b1 3d 3b 1d 65 be
       -0.14271425 -0.13498954 0.086864404 -0.22374432
0002c0 1e e5 58 3e 34 ba 2a 3e 27 c3 31 be 37 a6 53 be
       0.21181151 0.16672593 -0.17359601 -0.20668875
0002d0 60 58 14 3d df c4 96 3d 3e de 0a bd 3a 87 42 be
       0.036217093 0.07361769 -0.033903353 -0.18996897
0002e0 53 c1 fc bd 38 04 3d 3e 54 ab 86 3c ef 1e 73 3e
       -0.12341561 0.1845864 0.016439117 0.23742269
0002f0 fb d7 46 3d 48 26 6f be 21 f6 9f bd 41 47 25 3e
       0.04854582 -0.23354447 -0.07810617 0.16140462
000300 bb 0a 4d 3d fc 93 06 be e0 8b 94 3d c0 c8 3c 3e
       0.05005906 -0.13142389 0.072532415 0.18435955
000310 d7 76 f8 3d 13 cf 08 be c4 2b 34 3c a2 5e 1a be
       0.12132042 -0.13360243 0.010996763 -0.15075162
000320 88 0a c2 3d 2b 6d 3f 3e 86 ea a6 3d be cc 84 3e
       0.09474665 0.18693988 0.081502005 0.25937456
000330 33 d7 bf bd ce c5 76 bd e9 3c 5e be ee b0 92 3e
       -0.09367218 -0.060247235 -0.21702923 0.28650612
000340 55 0c cb 3c 94 61 14 be 5c b0 6a bd f6 03 37 bc
       0.024786154 -0.14490348 -0.057297096 -0.011170378
000350 dc 57 90 be dc 51 33 bd 8e 22 49 bd 26 c3 41 be
       -0.2819203 -0.04377924 -0.04910522 -0.189221
000360 42 f7 a7 bd 83 7b 15 be 95 6a 9d be 00 0c 78 be
       -0.082014576 -0.14597897 -0.30745378 -0.24223328
000370 f3 71 96 bd 21 73 41 3e 79 b1 0e bd ae 73 9b be
       -0.07345953 0.18891574 -0.03483722 -0.30361694
000380 8e 27 b1 be e7 ba 07 3e 2b ad a6 3d 83 20 8d bd
       -0.3460049 0.13254891 0.08138498 -0.06890967
000390 01 d9 d3 bd 9e df 32 be 56 74 3f be 12 c5 5c be
       -0.103441246 -0.17468116 -0.18696722 -0.21559551
0003a0 d1 b8 fb bd c6 75 89 be fb 48 ca 3d f1 fe 31 3e
       -0.1229111 -0.26847667 0.09877201 0.17382409
0003b0 39 26 1c bd 6e 15 28 be ba 7b c2 bd 1d 12 06 be
       -0.03812239 -0.16414425 -0.09496255 -0.13092847
0003c0 29 43 86 3e 90 7f 87 3d 66 62 3a 3e a7 6e fc bd
       0.26223114 0.066161275 0.18201599 -0.12325793
0003d0 ca 1e 02 be 2c 34 7b 3e 6e b7 91 3e 3d 83 0e 3d
       -0.12707058 0.2453162 0.28460258 0.034793127
0003e0 9d a2 1c 3e ce e0 3d be 73 87 95 bd 3e 33 b6 3d
       0.15296407 -0.18542787 -0.073012255 0.088964924
0003f0 83 a7 25 be 55 9a eb 3d e5 4e 26 be f8 ac bb bd
       -0.16177182 0.11504046 -0.16241033 -0.091638505

functional_7_1/dense_14_1/Add/ReadVariableOp:0 f4 [32]
000000 dd 64 30 3d bd 8c ab bd b7 2b 86 bd 2b f0 98 3d
       0.04306494 -0.08376453 -0.06551307 0.074676834
000010 2f 72 74 3d 9b dc 4f 3d ff 62 8c bd 8f b4 4c 3d
       0.059679206 0.050747495 -0.068548195 0.04997688
000020 95 69 e5 3b de ac 4f 3d 65 f4 11 bd 0c 69 18 3e
       0.0070011117 0.05070197 -0.035633463 0.14883822
000030 80 54 1c 3d 09 ae 07 be 37 03 54 bd b8 ee d1 3c
       0.038166523 -0.13249983 -0.05176088 0.025626525
000040 2c 73 ae 3d ed 27 de bc 21 b7 28 bc 3c 86 fa bd
       0.08518061 -0.027118647 -0.010297568 -0.122326344
000050 6e 0f 41 3d 1f 6b c3 bc 2e dd 74 bd a4 79 8d bc
       0.047133856 -0.02385479 -0.059781246 -0.017269917
000060 ae 28 1d bc 35 81 ec 3d ff f6 d5 bd b0 cd 41 3d
       -0.009592218 0.11548082 -0.104475014 0.0473153
000070 e2 e9 0f bd 2a c0 e6 3c f7 3c bd 3c 2b ef a8 3c
       -0.035135157 0.028167803 0.02310036 0.020621857

functional_7_1/dense_13_1/Cast/ReadVariableOp:0 f4 [128, 64]
000000 6f a4 4e be 04 51 16 be 71 ab ef 3d b0 91 db 3d
       -0.20179914 -0.14679343 0.11702622 0.10721147
000010 a4 42 10 3d aa cb 93 3d f7 3b 9c bd 07 eb 50 3e
       0.035219803 0.0721658 -0.07628625 0.20402156
000020 6b 55 2d 3e e9 6b 04 be 41 0c 66 bd 31 e5 d0 bd
       0.16927116 -0.1293179 -0.05616403 -0.10199965
000030 b4 59 f6 3d 5e 37 19 3e 25 0f 1b be b9 63 40 3d
       0.12028828 0.14962527 -0.15142496 0.046970103
000040 0c 34 8c be bd 3c 61 3e ac 96 9c bc 01 75 06 3e
       -0.2738346 0.21995826 -0.019114815 0.13130571
000050 ae 02 86 be 87 36 62 be cd 10 2a 3e 87 32 c5 3c
       -0.2617392 -0.22091113 0.16607971 0.024071945
000060 75 0d 5f bd db 93 22 3e 5c 1c 42 bd 42 c2 17 bd
       -0.054456193 0.15876715 -0.047390327 -0.037050493
000070 3e f9 53 bc 55 b6 17 3e 43 2f 82 3e ad a2 5e bd
       -0.012937842 0.14815648 0.25426683 -0.05435436
000080 30 a9 ee 3d ef 48 6f 3b 2d 49 1c bd c1 d9 cc bd
       0.11653364 0.0036511978 -0.038155723 -0.10002471
000090 e4 34 c2 bd bb a1 1d be f6 2e 42 3e 7d b2 10 be
       -0.09482744 -0.15393727 0.18963227 -0.14130588
0000a0 86 be a6 bd 85 77 11 bb b1 c4 f9 3c 2f 49 2a 3e
       -0.08141808 -0.0022196483 0.030489298 0.1662948
0000b0 0e 66 c0 bc 6a 6a 51 3e 22 35 91 3c 32 2d 7e 3d
       -0.023486163 0.2045075 0.017725531 0.06205482
0000c0 7b cd c8 bd e3 49 3b 3d 4a 0b bc 3d 5e 5d 00 3e
       -0.09804817 0.04572476 0.09181841 0.12535617
0000d0 51 bb 44 bd 3b 15 c1 bd 8f af ee 3d 76 6d 7e bd
       -0.0480302 -0.094278775 0.11654579 -0.06211611
0000e0 b3 dc f5 3d 7a 07 0d 3d 9e 96 00 be 8d 0e f1 3d
       0.12004986 0.03443096 -0.12557456 0.117703535
0000f0 27 f5 dc 3c 17 09 19 be 2a e9 6a 3e d6 a2 ea bd
       0.026972366 -0.14944874 0.22940508 -0.1145684
000100 98 b7 33 3e b5 65 0a 3e cb 73 30 3d 05 07 a3 bc
       0.17550504 0.1351536 0.04307918 -0.019900808
000110 12 8f b3 3d 4d 68 c9 3d 72 db 28 bd 93 33 6a bd
       0.08767523 0.09834347 -0.041224904 -0.05717809
000120 68 e8 f9 bc 80 97 44 3e 28 c2 27 3e 68 c8 a0 3c
       -0.030506328 0.19198418 0.16382658 0.019626811
000130 4a ee 35 3b 71 d7 26 3c b8 29 15 3c eb 05 e3 3d
       0.002776044 0.010183201 0.009104185 0.11085113
000140 83 9b bd 3d f9 d0 a3 3c 3b a7 3d 3d 92 9e c7 bd
       0.09258177 0.019997107 0.04630206 -0.09747042
000150 58 a7 2e 3e e8 2a 3d be 21 67 b5 bc 9b 3b 1b be
       0.17056024 -0.18473399 -0.022143902 -0.15159456
000160 7a 5c 23 3e 1e 7c c9 bd 96 37 a1 bd 8b fb 8b be
       0.15953246 -0.098381266 -0.0787193 -0.2734035
000170 72 96 f4 bd 5e 2a 0e 3e fd 54 85 3c 09 57 1a 3c
       -0.11942758 0.1388335 0.016275877 0.009420165
000180 cf e1 95 3c b5 0a 80 3e 21 8d 11 be 2f bb 18 3e
       0.01829615 0.2500817 -0.14213993 0.14915155
000190 2c 17 91 3b f1 e8 32 be 92 ce a4 bd a9 c3 bc 3d
       0.004427811 -0.17471673 -0.08047213 0.09217007
0001a0 36 a2 3b 3e 6f d9 52 3e b8 f3 06 bc 0e 44 29 bd
       0.18323597 0.20590757 -0.008236818 -0.041324668
0001b0 71 24 36 3e 0e e0 5e bb ae c1 cc 3d 74 c6 de 3d
       0.17787339 -0.0034008059 0.09997879 0.10877696
0001c0 7a e4 af bc 12 19 bf 3d 50 07 e6 bc a1 97 be bc
       -0.02147125 0.09330954 -0.028079659 -0.023265662
0001d0 7f cf 13 be aa 20 29 be 7a 74 81 bd c9 ee 99 bd
       -0.14434622 -0.16516367 -0.06321044 -0.07516248
0001e0 2d de 0d 3e fe 7d 55 bd 73 bf e9 3d ea f6 19 3d
       0.13854285 -0.05212211 0.11413469 0.03758899
0001f0 f8 c3 d9 bd a2 34 8f 3d ab a6 14 3e 61 8b fe bd
       -0.10633081 0.06992461 0.14516704 -0.12428928
000200 11 0e 22 3d b4 b8 0f be 03 0e e7 bd f5 93 ac 3d
       0.039564196 -0.14035302 -0.112819694 0.08426658
000210 0d f3 0f 3c 16 eb 5d be 42 94 d7 3d 43 20 17 3e
       0.008785975 -0.2167171 0.10526325 0.147584
000220 81 a6 71 bd 70 be e9 bd d7 4a c6 bd e4 04 ca bd
       -0.05899668 -0.11413276 -0.09682243 -0.09864214
000230 ea 4e 77 3b e7 43 c8 bd 55 0a 41 3e c6 4a d1 3c
       0.0037736245 -0.09778576 0.18851598 0.02554835
000240 b4 bd cc 3b 2b f0 31 be bf 6b 0c 3e 76 1f 39 be
       0.0062482003 -0.17376773 0.13712977 -0.18078408
000250 32 1e b2 bc 47 0e 00 be 18 ae 9f 3d d3 b7 e6 bd
       -0.021742914 -0.12505446 0.077968776 -0.112655304
000260 0f 14 30 3d 0e 5c c9 bd e2 31 c6 bd 70 ab 34 be
       0.04298788 -0.09832011 -0.09677483 -0.17643523
000270 2f b4 63 3d 8a 04 ab 3d 3d ae 9e bc 0b 06 44 3d
       0.05559176 0.08350475 -0.019370193 0.047857326
000280 74 18 95 bd 75 2d b5 bd 27 84 c5 3d fc 2b b4 bd
       -0.07280055 -0.08846561 0.09644347 -0.08797452
000290 e5 ae 09 3e 39 d7 02 3d f9 50 fd bd f4 8e ac 3d
       0.13445623 0.031943534 -0.1236896 0.08425704
0002a0 ca 84 f3 3d bb 09 46 bd 0c 10 0e 3e e6 d1 c1 3d
       0.11890562 -0.048349123 0.13873309 0.09463863
0002b0 df 78 65 3c 24 96 21 be 3e c6 88 bd 27 04 d9 3c
       0.014005869 -0.1577993 -0.06678437 0.026491238
0002c0 8b ea a8 be d2 1e 37 3e 3a 93 02 be a0 16 ec 3d
       -0.32991442 0.17882851 -0.12751475 0.11527753
0002d0 9f 04 c0 3d 47 4a d8 3d 89 fd da bd 43 a8 5b be
       0.093758814 0.10561042 -0.10692889 -0.21450906
0002e0 41 08 4c be da 18 b7 bd ce 7d 2a 3e 1d 59 d3 3d
       -0.19925024 -0.08940287 0.16649553 0.103197314
0002f0 3f e1 41 3e 01 0b fa 3d 49 d8 d5 bb 96 70 e6 3d
       0.18933581 0.1220913 -0.0065260273 0.11251943
000300 72 5f f8 bd ea d8 55 3d 40 d9 8c bd d0 33 e9 bd
       -0.1212758 0.05220882 -0.06877375 -0.113868356
000310 b4 a5 93 3d 39 ad ce bd e7 64 21 3e b8 0f 7c 3e
       0.0720934 -0.10091633 0.15761147 0.24615371
000320 3f 1d a6 3d a2 ba 80 be 02 1e 8e bc b9 20 12 be
       0.08111047 -0.2514239 -0.017348293 -0.14270295
000330 96 4b 03 3e 7f 77 d2 ba 8e fd 4f 3d 0e 74 13 3e
       0.12821802 -0.0016057341 0.050778918 0.1439974
000340 2a f3 40 be 2d dd 93 3c c8 7b e7 3d 62 b1 c4 bd
       -0.1884276 0.0180498 0.11302906 -0.096041456
000350 c2 5c 20 bd 55 56 93 bd a1 d5 46 3e 88 8a 96 3d
       -0.03915096 -0.07194201 0.1941743 0.073506415
000360 bc b5 16 be 47 0c 34 3e cb 25 3f 3d 15 1e f1 3b
       -0.14717764 0.17582808 0.0466669 0.0073583224
000370 30 f0 7f be f1 20 5b bd 5b c5 c1 bd a1 e7 7d 3d
       -0.24993968 -0.053498212 -0.09461471 0.061988477
000380 92 cc e5 ba e2 18 7b bd 36 08 03 ba 3d 8d 23 3d
       -0.001753228 -0.061303027 -0.0004998477 0.039929617
000390 66 24 eb bd 5a 63 a9 bd 5e 5e 93 bc 1f b1 a6 bc
       -0.11481552 -0.08270903 -0.017989334 -0.02034813
0003a0 9a 06 16 be 71 f9 a9 bc f4 46 25 bd a5 72 8f bd
       -0.14650956 -0.020748826 -0.04035087 -0.070042886
0003b0 fc be 2d bd c0 07 d2 bc bc 68 1d 3e be 24 a1 3c
       -0.042418465 -0.025638461 0.15371984 0.01967084
0003c0 82 8a af 3d 62 fe 4e be a7 90 81 3d d7 91 16 be
       0.0857134 -0.20214227 0.06326418 -0.14704071
0003d0 0c c0 40 bd 86 ec ab 3d d6 3a 8f bc bb 07 0b 3e
       -0.04705815 0.08394723 -0.01748411 0.13577168
0003e0 0c e0 80 3d 01 5a 0d be 96 cb f1 3d b1 5a f5 bd
       0.062927336 -0.13803865 0.11806409 -0.11980189
0003f0 f0 5c ab 3d d1 23 b7 3d 61 ee 5c be 1e 04 96 3d
       0.08367336 0.08942378 -0.2157531 0.07325004

functional_7_1/dense_13_1/Add/ReadVariableOp:0 f4 [64]
000000 a0 be 01 3d b0 4a a3 3d 75 0d 85 bd 30 82 7d 3d
       0.031675935 0.0797323 -0.06496707 0.061891735
000010 75 46 9b 3d a9 f9 ce 3c b7 7b 2b 3d db 37 a4 3d
       0.07581798 0.025265532 0.04186603 0.08018466
000020 50 13 9b bd c3 29 bf bc 23 08 40 3d f0 75 f0 3c
       -0.07572043 -0.023335343 0.04688276 0.029353112
000030 7f bb 98 bd d8 e4 c1 3c 83 3d b4 3c 41 50 f0 3c
       -0.07457637 0.023668692 0.022001987 0.029335143
000040 48 23 a7 3c df 35 9d 3d 43 02 02 bb 05 57 3a 3d
       0.020402566 0.07676291 -0.0019837774 0.045493145
000050 2b 48 41 ba 69 61 9b bc 6e 23 60 3c 93 a3 37 ba
       -0.00073731196 -0.018967347 0.013680322 -0.00070052705
000060 95 df d0 bc da 29 03 3a f3 a1 97 ba ac 92 2b bc
       -0.025497237 0.000500349 -0.001156865 -0.010471981
000070 6c 1c a7 bc 7b b4 a4 bd a2 8c 0f 3d 5f 32 19 3c
       -0.020399295 -0.080422364 0.035046227 0.009350388
000080 5f b6 2f 3a 77 5d ac bd f1 19 a6 3d 76 60 31 be
       0.00067028956 -0.084162645 0.08110417 -0.17321953
000090 37 20 20 3d e3 ef 35 3d 3e 24 28 3d 23 6d b6 bc
       0.039093222 0.044418227 0.04105019 -0.022268837
0000a0 bb 01 fa bc 85 b0 a9 bc 8e 47 3b be 72 b0 3d bd
       -0.030518403 -0.020714054 -0.18289015 -0.04631085
0000b0 2d d4 8b 3d 12 25 91 bd 05 9d 51 bd 95 df ca 3c
       0.06827579 -0.07087149 -0.051175136 0.024764815
0000c0 b9 db b8 bd 88 67 25 3c f4 94 d4 bd f2 4e 35 bd
       -0.09026284 0.010095485 -0.10379973 -0.04426474
0000d0 b5 7a b2 ba 3d ff da bc d9 77 74 bd 46 1d 5a bd
       -0.0013616892 -0.026733035 -0.059684608 -0.053250574
0000e0 70 76 b0 bd 88 c7 d7 bd 7f c1 88 bc 15 0c a3 bd
       -0.0861634 -0.105361044 -0.016693829 -0.07961289
0000f0 79 b1 ce 3c 8b 8e da bd c4 3d 20 3d 0e 82 50 bc
       0.02523111 -0.10671719 0.039121404 -0.01272632

functional_7_1/dense_12_1/Cast/ReadVariableOp:0 f4 [26, 128]
000000 a2 cf 81 3d f0 fa 23 bc 63 7a 2f 3e 97 0b 24 3e
       0.06338431 -0.010008559 0.1713653 0.16020046
000010 41 34 00 3e 61 4a c7 bd 19 71 36 3e c2 0b e0 3d
       0.12519933 -0.097309835 0.17816581 0.109397426
000020 74 e6 2b bd 3d ec 07 3e 0c 00 06 be e0 22 98 3b
       -0.041967824 0.13273712 -0.13085955 0.0046428293
000030 94 54 1a 3d 35 27 01 3e 5b 25 1b 3e 89 05 03 3e
       0.037678316 0.12612613 0.15150969 0.1279508
000040 48 c3 ed bc f7 9f ea bd f0 a8 bd bd 96 7b d6 3d
       -0.029023781 -0.11456292 -0.09260738 0.10472791
000050 34 73 0b be a7 20 02 3e 34 b2 47 be 40 4e 5a bd
       -0.13618165 0.12707768 -0.19501573 -0.05329728
000060 aa 68 14 be 00 52 07 3d ad 39 d2 bd 30 8d 20 bc
       -0.14493051 0.033037186 -0.10264907 -0.009799287
000070 37 87 49 3e d8 5e db bc 99 e2 35 be 9c 1e bc bd
       0.19680487 -0.026778623 -0.17762221 -0.09185526
000080 90 31 33 3c 38 c0 1b bd 0c 33 2f be 80 22 95 3c
       0.01093711 -0.03802511 -0.17109317 0.018204927
000090 4d 0a cc bd 59 36 9e bd 6e b1 bd 3d 6d da 3e 3e
       -0.09962902 -0.0772521 0.09262358 0.1863801
0000a0 2b 6b b1 bd ea 7c ac bd 06 0a 89 3d a3 4a 06 3e
       -0.08663019 -0.08422263 0.06691365 0.13114409
0000b0 10 4e 2f be 82 fc ce 3d c9 b5 47 3e 83 70 10 3e
       -0.17119622 0.10106756 0.1950294 0.1410542
0000c0 e6 22 ca 3d 56 84 f0 3d 89 7a 16 3e 5e a4 96 bd
       0.098699376 0.11743991 0.14695181 -0.07355569
0000d0 02 b4 d7 3d 40 d2 bd 3c 0b 21 43 3e c0 b4 bd 3b
       0.10532381 0.023171544 0.19055574 0.0057893693
0000e0 95 bd 28 be a8 05 b3 bd 0e 42 a3 3d c2 c5 cb bd
       -0.1647857 -0.08741313 0.07971583 -0.09949829
0000f0 a0 d0 fc 3c 20 c3 a5 bb a6 c9 80 bd 58 55 e4 bc
       0.030861199 -0.005058661 -0.062884614 -0.027872726
000100 5a 71 c9 3d c0 bf 36 3c 9d ad f8 bd c0 18 06 3d
       0.09836073 0.011154115 -0.12142489 0.032738447
000110 2d 8a 49 be 05 90 1e 3e c6 ce ac 3d 8b 88 35 3e
       -0.19681616 0.15484627 0.084378764 0.17727868
000120 92 80 de 3d 9a d8 8e bd fb bf a7 bd 48 7c 33 bd
       0.108643666 -0.06974907 -0.08190914 -0.043819696
000130 0a 04 8b bd 20 3b 7d bc 74 dd 54 3d da ef 8c 3d
       -0.0678788 -0.015455991 0.051969007 0.068816856
000140 ab 15 ef bd b1 d6 37 3e 00 c6 86 3c d4 d1 1d be
       -0.11674055 0.17952992 0.016451836 -0.15412074
000150 1b 2e e8 bd 98 69 0d bd a8 9d a9 3c fc bb 94 bd
       -0.11336919 -0.03452453 0.02070506 -0.07262418
000160 68 fa ea bc d0 2c c5 bc 3a 28 80 3d 0f 68 35 be
       -0.028683856 -0.02406922 0.062576726 -0.17715476
000170 90 6b 3f 3d 1e d4 97 3d 97 c5 c6 bd 93 a8 36 3e
       0.04673344 0.07413505 -0.09705656 0.17837743
000180 f5 8b 2e be fd cf 1a 3e ca 8f 81 3d 56 fd ed 3d
       -0.17045577 0.15118404 0.06326254 0.116205856
000190 2d f4 2b be e9 64 45 3e 00 d5 10 3a dc 1b 7b 3d
       -0.16792364 0.19276775 0.00055249035 0.061305866
0001a0 8f 22 3b be 30 79 23 3d 29 7f cd bd 80 41 6b 3b
       -0.18274902 0.039910495 -0.100340195 0.0035897195
0001b0 08 40 81 3c c9 16 2f 3e 94 f2 4a bd 50 de 4a bc
       0.015777603 0.17098536 -0.049547747 -0.012382105
0001c0 0e 22 cb 3d 4e fb fd 3d e4 f2 78 3d d7 9e 1c 3e
       0.09918605 0.12401448 0.060778514 0.15294968
0001d0 8e 9e 8f 3d a4 f1 2f bd 9c c3 ec bd 3b 62 07 be
       0.07012664 -0.042955056 -0.11560747 -0.13221066
0001e0 ac 11 b3 bd f0 44 0a bd 80 53 9a 3b 21 05 05 3e
       -0.08743605 -0.03375715 0.004709661 0.12990238
0001f0 f3 2c 1e 3e 98 be e9 3c e7 1a 95 bd 0c 5d 5f bd
       0.15446834 0.028533265 -0.07280522 -0.054532096
000200 cf 37 b3 bd 10 96 d1 3c bf f6 d9 3c 2d 96 bd bc
       -0.08750879 0.02558425 0.026606916 -0.023142898
000210 ac 25 11 3d 76 d3 60 be 37 94 62 bc 45 9d db 3d
       0.035436317 -0.21955666 -0.0138292825 0.10723356
000220 98 00 e0 bb f9 4d 56 3e de 37 27 3e 13 a8 53 bd
       -0.0068360083 0.20928182 0.16329905 -0.05167396
000230 ca e3 44 3d f5 0b f9 bd 41 b1 ac 3d 20 eb 2a be
       0.0480688 -0.12160484 0.08432246 -0.16691256
000240 d4 bc 84 bc 2b 16 0a be 1d 20 bd 3e 13 fe 07 bd
       -0.016203322 -0.13485019 0.36938563 -0.03320129
000250 74 78 45 be 1f 99 e7 bc c5 7a 70 3d 70 f0 92 3d
       -0.1928423 -0.028271256 0.058710832 0.07174766
000260 e8 4d b9 bd b6 b6 ce 3c cf 80 a4 3d 9a a8 26 3d
       -0.090480626 0.025233608 0.08032381 0.040688135
000270 f0 b2 9a bd d7 55 73 3d d8 2c 73 3e c6 1d 6f bc
       -0.07553661 0.059408035 0.23747575 -0.014594501
000280 a6 26 87 3d 66 e0 7d bd 20 1e 10 3e 47 48 00 be
       0.065991685 -0.06198158 0.14073992 -0.12527572
000290 6d e4 97 bb 56 69 d6 3d 32 25 40 be 4c da 93 3d
       -0.004635385 0.1046931 -0.18764189 0.07219371
0002a0 16 d0 41 3e ac cf 3d be f0 38 38 3c 84 e7 06 be
       0.18927035 -0.18536252 0.011244044 -0.13174254
0002b0 23 44 d5 3c 6d ac 3b 3d 0f 8d 12 be 7e 53 2c be
       0.026033467 0.045818735 -0.14311622 -0.16828725
0002c0 17 34 42 be 6b b9 9f 3d 0d 3c ce 3d 8a c4 13 be
       -0.18965183 0.077990375 0.100700475 -0.14430442
0002d0 96 2e 63 be 8d f6 87 3e d1 a4 4e be c5 61 85 3e
       -0.2218574 0.2655529 -0.2018006 0.26051155
0002e0 ec 4a c6 bc 95 2a 9b bd 9c 70 19 3e f2 45 28 be
       -0.024205647 -0.07576481 0.14984363 -0.16432932
0002f0 8c 5c 2f 3c 18 9e 5a bd 5b 78 b3 3d 52 c4 73 3c
       0.010703217 -0.053373426 0.0876319 0.014878349
000300 3f 7c 9c bd 46 52 2d be 09 d8 86 bd c2 8e 85 bd
       -0.076408856 -0.16925916 -0.06584174 -0.065213695
000310 6a 30 64 3e bc 6b f6 bd 87 b3 27 be 86 25 02 be
       0.22284093 -0.120322675 -0.16377078 -0.12709627
000320 3a 32 d5 b9 bc 4c bb bd cb 53 07 bd 8f 60 66 3e
       -0.00040663948 -0.09145495 -0.033038896 0.22497772
000330 80 67 89 3a a0 84 00 be 23 29 4e 3e b2 00 33 be
       0.0010483116 -0.12550592 0.2013288 -0.17480734
000340 36 29 94 bb a9 ca fc bd 10 be 0c 3d 0a 2e 3f 3e
       -0.0045215143 -0.12343342 0.034360945 0.18669906
000350 28 7d 2f be 7d 62 9e 3c df 24 53 3e 7b 2b e5 3b
       -0.17137587 0.019334072 0.20619534 0.0069937087
000360 3a 59 d2 3d 6c 08 70 3d 77 c2 29 3e 4c 2b 38 3b
       0.10270925 0.05860178 0.16578089 0.0028101979
000370 49 98 8d 3e ae 0f ac 3d a1 ab 87 3d 76 7e 80 3d
       0.27655247 0.08401428 0.066245325 0.062741205
000380 62 a3 c7 3d e3 b6 7b be 8b 9e 58 be 0b 84 ca bd
       0.0974796 -0.24581484 -0.2115423 -0.098884664
000390 24 1d 06 3e 40 c5 41 3d 1d 10 e3 bd ec ae 22 bd
       0.13097054 0.047307253 -0.11087058 -0.0397176
0003a0 33 71 2f be d0 54 05 3e 25 79 17 be a2 51 7e 3c
       -0.17133026 0.13020635 -0.14792307 0.0155223925
0003b0 65 a7 23 3d ac 60 78 3e ff 94 65 3d f9 ec 48 3d
       0.03995456 0.24255627 0.056050297 0.04905412
0003c0 9d 77 3b be a5 06 0e be a3 5f ce 3d b7 48 cb bd
       -0.18307348 -0.13869722 0.10076835 -0.09925979
0003d0 28 ed 4e 3d 41 4b 4b bd 80 5f ae bb f9 10 9d bd
       0.05051914 -0.049632315 -0.005321443 -0.07669253
0003e0 18 df 1d be f3 f7 c2 3d 92 9a aa 3d 92 0f 3e be
       -0.15417135 0.09519949 0.08330263 -0.18560627
0003f0 53 7e 62 3e 53 77 1f 3e 94 92 0b bc 93 08 22 3e
       0.22118501 0.15572862 -0.008518834 0.15823583

functional_7_1/dense_12_1/Add/ReadVariableOp:0 f4 [128]
000000 1f db 2a be 2b ab a3 bd 13 f5 43 3d d4 21 65 bd
       -0.1668515 -0.07991632 0.047841143 -0.055940464
000010 00 00 00 00 c9 ed 34 bd dc c0 b7 bd 14 94 fa 3d
       0.0 -0.044172082 -0.08972332 0.12235275
000020 ba 79 c9 bd 73 28 cc 3d 5a a4 00 3d 73 02 23 bd
       -0.098376706 0.099686526 0.031406738 -0.039797258
000030 db 7e 99 bd 2c 27 8c 3c d8 55 28 3d 63 76 69 bd
       -0.07494899 0.017108522 0.041097492 -0.056997668
000040 e7 a0 89 3c 91 45 72 bc ff f1 a6 3d 89 8a 85 3d
       0.016800357 -0.014787094 0.08151626 0.06520564
000050 c5 6b d3 3d 0e 26 c3 3c f2 06 a1 bd 69 78 73 3d
       0.1032329 0.023821857 -0.07862653 0.059441004
000060 77 42 92 bd 02 90 a3 3d 6f c6 96 bc c1 65 34 3d
       -0.071415834 0.07986452 -0.018405167 0.044042353
000070 06 c6 03 3b 5a ce e9 bb 71 ee 30 bc 93 93 ad bc
       0.0020107045 -0.0071351947 -0.010799036 -0.021188533
000080 00 00 00 00 86 ab 60 bd 9f c1 fd bb c6 ad a5 3d
       0.0 -0.054851077 -0.0077440287 0.08089785
000090 52 8a 1d bd af 3c 0f bd 00 00 00 00 f4 8a d8 bd
       -0.03846199 -0.03496998 0.0 -0.10573378
0000a0 42 0d a8 3d 00 00 00 00 4b e5 75 bd ce 8e 22 bd
       0.08205654 0.0 -0.060033124 -0.03968697
0000b0 0d 58 59 3d 73 e0 db bc b0 af 4f bd 0b db 49 bd
       0.053062487 -0.026840424 -0.050704658 -0.04928116
0000c0 00 00 00 00 36 5f 88 3d 71 4a 83 bc e0 27 8d 3d
       0.0 0.06658785 -0.016026707 0.06892371
0000d0 72 e5 75 bd f3 80 7e 3d 90 25 1a 3d 20 36 ac 3c
       -0.06003327 0.062134694 0.03763348 0.021021903
0000e0 c9 12 10 bc 5b 88 c1 3d 60 5d 00 3e 3d dd 73 bd
       -0.008793541 0.09449836 0.1253562 -0.05953716
0000f0 ee bc 8b bb 00 00 00 00 f0 10 8a bd 7f 06 55 bd
       -0.0042644655 0.0 -0.06741512 -0.05200815
000100 49 1c a5 3d 00 00 00 00 b8 31 19 bd 48 ec 09 3e
       0.080620356 0.0 -0.03740093 0.1346904
000110 d7 d0 30 3c 12 e4 75 bd 47 ec 38 bd 65 86 e5 3c
       0.010791979 -0.060031958 -0.045147207 0.028018186
000120 5a ba e1 3d 96 e3 75 bd ae 50 c4 3c f3 80 6b bc
       0.11021872 -0.060031496 0.023964252 -0.014374006
000130 00 00 00 00 6d ad d7 bd bd 8e 86 3d 37 87 ab 3d
       0.0 -0.10531125 0.06570194 0.083753996
000140 ad dd a7 3d 31 08 94 bd 00 00 00 00 8f d2 c1 3c
       0.08196578 -0.07228125 0.0 0.023659972
000150 f5 9c 0b bc 24 e0 b8 bd 46 da 62 3c 20 38 ed bb
       -0.008521308 -0.090271264 0.013845986 -0.0072393566
000160 0f b3 78 3d 8a c3 5c bc 20 5f 84 bc ba d5 98 bd
       0.06071764 -0.0134743545 -0.01615864 -0.0746264
000170 b8 0b 9c 3d fc 7e f2 3d e7 d3 06 3b 00 00 00 00
       0.07619423 0.118406266 0.002057308 0.0
000180 00 00 00 00 62 a5 6a bd 28 14 72 bd 00 00 00 00
       0.0 -0.057286628 -0.059101254 0.0
000190 22 75 08 3d 00 00 00 00 0f 47 10 3d 43 89 ad 3d
       0.03331483 0.0 0.035224017 0.08473446
0001a0 42 e5 75 bd 57 d8 47 3d 27 6a c7 3d b3 cf 76 bd
       -0.06003309 0.048790302 0.09737044 -0.06025667
0001b0 0e 4b 22 3d 62 9b 44 bb 2d 74 29 bd da 45 81 3d
       0.03962236 -0.0029999842 -0.04137056 0.06312151
0001c0 fd 69 7c bd af 44 8e bc 3a b9 6d ba e8 5e 66 bc
       -0.061624516 -0.017366735 -0.00090684334 -0.014060713
0001d0 d4 cc a4 3d 5f ad 30 be 00 00 00 00 3f d4 63 3d
       0.0804688 -0.17253636 0.0 0.055622336
0001e0 70 11 70 3d 64 e4 75 bd 00 00 00 00 97 53 f2 bd
       0.05861038 -0.060032263 0.0 -0.1183235
0001f0 da be 05 bc ca d8 3f bd 2d 51 0f 3d 00 00 00 00
       -0.008163178 -0.046837606 0.034989525 0.0

functional_7_1/batch_normalization_9_1/batchnorm/sub:0 f4 [128]
000000 26 aa 2f 3d cc 53 00 3d 4e 4b 97 be 28 6e 39 bd
       0.042886876 0.031329915 -0.2954964 -0.04527107
000010 f6 5a 0d bd 5b 01 b2 bd eb 3e a7 3b 82 72 e1 be
       -0.034510575 -0.08691665 0.005103936 -0.44032675
000020 4e 4e 71 bc 2d 95 8f be 39 74 62 be b2 dd f2 be
       -0.014728142 -0.280435 -0.22114648 -0.47434765
000030 dd a9 ad bd 59 41 35 be 41 04 5b be 22 7b 11 bd
       -0.084796645 -0.1770071 -0.21388341 -0.03551782
000040 b8 fb d1 ba 80 fc b8 be 34 6b dd be f0 a4 74 be
       -0.0016020453 -0.36130142 -0.43245852 -0.23891044
000050 51 64 aa be 80 fb 43 be 5e 56 73 3d ab 16 8e be
       -0.3327966 -0.19138908 0.059408538 -0.2775167
000060 be b4 b3 3c 0e bc 52 be 83 6a d1 bd 45 10 c4 be
       0.02193677 -0.2057955 -0.102253936 -0.38293663
000070 a6 0b aa bd ab 6b 8a be 25 74 5d be 4b b7 04 be
       -0.08303003 -0.2703527 -0.21626337 -0.12960546
000080 7f 4b 02 3d fc 3a 24 bc ae 17 70 be 4f c4 e7 be
       0.03181028 -0.010023829 -0.23446533 -0.4526696
000090 52 3b bc bb 22 c2 49 be 85 e1 6a 3c 02 73 e3 bd
       -0.005744376 -0.19702962 0.014335995 -0.111059204
0000a0 9b f3 63 be 44 4b d7 bc af aa c3 bd 4b 59 0f 3e
       -0.22260897 -0.026281007 -0.0955404 0.13998906
0000b0 71 6e 8a be aa 35 a5 bc 6e e9 9d bd 16 55 84 3d
       -0.27037385 -0.02016719 -0.07710539 0.06461541
0000c0 91 a7 13 3c 85 71 d2 be 20 85 74 be 5e 04 0d be
       0.009012119 -0.41102234 -0.23878908 -0.13771197
0000d0 73 ee 98 bd 0f d1 83 be 98 94 7d bd c2 ec cc be
       -0.074673556 -0.25745437 -0.06190929 -0.40024382
0000e0 73 f1 da be f6 4f b0 bd 99 e4 7a be 03 bb 1c be
       -0.42762336 -0.08609001 -0.24501266 -0.15305714
0000f0 d2 07 7c be db 29 46 3d 00 66 ab 3a 14 03 81 bb
       -0.24612358 0.04837976 0.0013076663 -0.0039371345
000100 a9 e0 ab be c6 88 9b 3d 3c fc 36 bf 3d ea aa be
       -0.3356984 0.07594447 -0.7147863 -0.33381835
000110 06 39 7f be c4 94 1a bd 6d fd aa be 68 84 d8 bd
       -0.24924096 -0.03773953 -0.33396474 -0.105721295
000120 9c c6 cb be 0d 22 d0 3d 38 a4 33 3c 45 26 03 be
       -0.39799964 0.10162745 0.010964446 -0.12807567
000130 9e d4 f5 3d 22 70 e9 3c 9c 2d 99 bd 02 bf c9 be
       0.12003444 0.028495852 -0.074794024 -0.3940354
000140 c3 01 77 be f2 9e 5e 3d 13 4b 62 3c fb 7e 53 bd
       -0.24121766 0.0543508 0.013811844 -0.05163477
000150 9a 6c 05 3d 37 e9 6a 3d d5 d5 4b be a8 6f 42 bd
       0.032574274 0.057351317 -0.19905789 -0.047469765
000160 6d 74 95 be a8 5c f6 bc 30 d5 dd be c4 c2 ae 3d
       -0.29190388 -0.030073479 -0.43326712 0.08533242
000170 bc 20 a4 bc 8e ac 69 be d6 3b d9 be 19 81 7a bd
       -0.02003514 -0.2281973 -0.42428464 -0.061158273
000180 de 76 a4 3d 88 e8 df 3c d5 59 6b bd 95 6f 3c bc
       0.080304846 0.02733256 -0.057458717 -0.011501213
000190 cb e3 b1 be 54 96 42 3d 41 d1 85 be a0 57 6c bd
       -0.34744105 0.047506645 -0.2613621 -0.057700753
0001a0 6e 2e fa 3a e1 01 16 be b8 eb 84 be 70 7a 4c 3b
       0.0019087323 -0.14649154 -0.2596109 0.0031200908
0001b0 51 39 ab be ca 0c fd be b6 6e 3d bd d5 80 06 be
       -0.33442166 -0.4942382 -0.04624816 -0.13135083
0001c0 a8 00 c2 bd 75 95 03 be e9 06 d1 3d e2 7a ce bd
       -0.094727814 -0.12849982 0.10206396 -0.10082032
0001d0 f7 25 77 be 80 5e 5b bd 4c e4 e3 bd 51 98 9e be
       -0.24135576 -0.05355692 -0.111275285 -0.30975583
0001e0 c5 fa 01 bf 9b bb 20 3d 8b 32 8d 3d ff 42 f3 3c
       -0.5077327 0.039241415 0.06894406 0.029695032
0001f0 cc 55 b5 be 96 c8 af bc a4 8f aa be 0d 2b 12 be
       -0.3541702 -0.021457952 -0.33312714 -0.14274235

functional_7_1/batch_normalization_9_1/batchnorm/mul:0 f4 [128]
000000 61 0a c2 3f 48 8b b9 3f 97 3e bd 3f 26 91 b7 3f
       1.5159417 1.449563 1.4784726 1.4341171
000010 fb 1f bf 3f 0e 7d ba 3f 53 d8 bc 3f e5 07 c1 3f
       1.4931635 1.4569414 1.4753517 1.5080534
000020 0a b9 ba 3f f2 39 bd 3f 42 ec c6 3f ed 20 b0 3f
       1.458772 1.4783309 1.554085 1.3760048
000030 e0 ae ab 3f 67 4d bd 3f 7d 92 b9 3f 3f 1b b9 3f
       1.3412743 1.4789246 1.449783 1.446144
000040 f0 c1 b8 3f 44 29 c9 3f 9e fa c5 3f 3b 73 b8 3f
       1.4434185 1.5715718 1.5467107 1.4410166
000050 8d 29 b9 3f 1d 1b c2 3f bc fb a5 3f c7 4d b8 3f
       1.4465805 1.5164524 1.2967448 1.4398736
000060 27 91 b8 3f c7 ed d0 3f 2e 9f b1 3f 57 79 ce 3f
       1.4419297 1.6322564 1.3876703 1.613078
000070 57 b4 d5 3f 16 c6 b8 3f 07 6b a9 3f 53 5e c4 3f
       1.669566 1.4435451 1.3235787 1.5341285
000080 fb 1f bf 3f 6c 8a bf 3f 26 5f ad 3f 84 93 cc 3f
       1.4931635 1.4964118 1.3544662 1.5982518
000090 17 f8 b3 3f 56 03 d0 3f fb 1f bf 3f 50 22 c4 3f
       1.4060086 1.6251018 1.4931635 1.5322971
0000a0 ee aa b9 3f fb 1f bf 3f a1 a6 b3 3f 57 1c bb 3f
       1.4505289 1.4931635 1.4035226 1.4618024
0000b0 6c 0f ca 3f 04 52 cc 3f 47 3b b6 3f 02 e6 b3 3f
       1.5785956 1.5962529 1.423684 1.4054568
0000c0 fb 1f bf 3f 0f d1 ad 3f 7c 12 d4 3f 45 84 c2 3f
       1.4931635 1.3579425 1.6568141 1.5196615
0000d0 9c a6 b3 3f 9e 69 c5 3f b6 0d d8 3f e9 af c7 3f
       1.403522 1.5422857 1.6879184 1.5600559
0000e0 7e 8d bc 3f 73 5c c4 3f 38 23 d4 3f 99 ec d2 3f
       1.473068 1.5340713 1.6573248 1.6478454
0000f0 13 23 c2 3f fb 1f bf 3f 85 2d d0 3f cf b1 c8 3f
       1.5166954 1.4931635 1.6263891 1.5679263
000100 87 88 b3 3f fb 1f bf 3f 00 82 bd 3f aa 95 af 3f
       1.402604 1.4931635 1.4805298 1.3717549
000110 08 52 b5 3f c4 ad b3 3f e3 7c bd 3f 78 7f c7 3f
       1.4165659 1.4037404 1.4803737 1.5585775
000120 95 a1 c4 3f fa a9 b3 3f 72 2b b1 3f 02 e8 aa 3f
       1.5361811 1.4036248 1.3841383 1.3352053
000130 fb 1f bf 3f b7 8b b7 3f c0 4a ad 3f 6d a7 b7 3f
       1.4931635 1.4339513 1.3538437 1.4347969
000140 e0 cc b5 3f c0 59 ad 3f fb 1f bf 3f 67 0d ab 3f
       1.4203148 1.3543015 1.4931635 1.3363465
000150 99 1b b9 3f b9 9e b8 3f 69 53 aa 3f d7 eb a8 3f
       1.4461547 1.4423438 1.3306705 1.3196973
000160 13 10 c3 3f 2d 0d cb 3f 01 b4 b6 3f 94 ad ab 3f
       1.523928 1.5863396 1.4273683 1.3412347
000170 99 b5 bf 3f 78 6a c0 3f dd 45 d0 3f fb 1f bf 3f
       1.4977294 1.5032492 1.627132 1.4931635
000180 fb 1f bf 3f 5b e6 bf 3f ed b7 c0 3f fb 1f bf 3f
       1.4931635 1.4992174 1.505613 1.4931635
000190 07 a8 ba 3f fb 1f bf 3f 0f dd bb 3f d5 05 bf 3f
       1.4582528 1.4931635 1.4676837 1.4923655
0001a0 18 ac b3 3f 4c 8c bd 3f 7e d4 b6 3f 2d ef c3 3f
       1.4036894 1.480844 1.4283597 1.5307366
0001b0 86 7f cf 3f f3 8f ab 3f 9a 48 b7 3f 29 6d c3 3f
       1.6210792 1.3403305 1.4319031 1.5267688
0001c0 6b 85 b1 3f 6a e9 c5 3f 05 bb d4 3f bb 3e d3 3f
       1.3868841 1.5461857 1.6619574 1.6503519
0001d0 d9 40 bc 3f e0 ab bc 3f fb 1f bf 3f 6f 33 ba 3f
       1.470729 1.4739952 1.4931635 1.4546946
0001e0 a0 27 c6 3f f5 a7 b3 3f fb 1f bf 3f ab 08 b1 3f
       1.5480843 1.4035631 1.4931635 1.383077
0001f0 62 3d bf 3f d1 68 a8 3f ee 55 a8 3f fb 1f bf 3f
       1.4940608 1.3156987 1.3151224 1.4931635

functional_7_1/batch_normalization_11_1/batchnorm/sub:0 f4 [32]
000000 67 3c 02 bf 0c 70 04 be 84 13 c1 bd f0 9a fe be
       -0.50873417 -0.12933367 -0.094275504 -0.49727583
000010 43 eb 13 bf 47 d4 11 be 76 ad ef be c3 10 44 be
       -0.57780856 -0.14241134 -0.46812028 -0.19147019
000020 42 c7 1e be 01 2c 03 be 3c 40 cd bd b3 c5 34 be
       -0.15505698 -0.12809755 -0.10022017 -0.17653541
000030 77 b4 04 bf e2 6f cb be 56 66 1a be c9 ef 66 be
       -0.5183787 -0.39733797 -0.150781 -0.22552408
000040 05 12 03 bf 6e 18 2a be 4d 32 e7 be 92 ca e5 bd
       -0.5119937 -0.16610882 -0.45155564 -0.11220278
000050 13 21 71 be a1 5b 02 bf 84 6d 13 be 52 04 e0 bd
       -0.23547773 -0.50921065 -0.14397246 -0.10938324
000060 fe bf ed be 5b f0 1e bf 7c f4 16 bf 73 c1 24 be
       -0.4643554 -0.62085503 -0.58966804 -0.1608942
000070 e5 ea 09 bf 76 e7 b4 bd fa 5a 16 bf 8e d4 ef bd
       -0.53874046 -0.0883321 -0.5873257 -0.117104635

functional_7_1/batch_normalization_11_1/batchnorm/mul:0 f4 [32]
000000 eb e6 36 3f f0 26 42 3f 5e 21 10 3f dc ad 12 3f
       0.714461 0.75840664 0.56300914 0.5729654
000010 98 53 02 3f 79 23 3c 3f d4 79 64 3f 6d b0 66 3f
       0.50908804 0.73491627 0.89248395 0.90112954
000020 26 79 18 3f dd 6d 22 3f 3d 56 30 3f ea e6 6c 3f
       0.5955986 0.6344889 0.6888159 0.92539847
000030 f8 91 3c 3f eb b2 4b 3f 9c 0a 63 3f ff 72 84 3f
       0.7366023 0.7956988 0.88688064 1.0347594
000040 53 9a 7e 3f 97 b0 77 3f 1f 5b 4a 3f be 9e 81 3f
       0.9945423 0.9675383 0.7904529 1.0126569
000050 6a e3 35 3f 03 92 0f 3f bb ef 65 3f 3e 9e 64 3f
       0.7105013 0.5608217 0.89818925 0.8930396
000060 80 71 36 3f 23 8c 62 3f a2 da 88 3f f8 8f 44 3f
       0.7126694 0.8849508 1.0691721 0.7678218
000070 42 c0 52 3f 45 ad 1f 3f 15 80 3b 3f 50 f9 51 3f
       0.8232461 0.62373763 0.7324231 0.82021046

functional_7_1/batch_normalization_10_1/batchnorm/sub:0 f4 [64]
000000 16 d3 ae be 32 f9 98 be b2 8e e1 be 1e 57 d4 be
       -0.3414542 -0.2987762 -0.4405418 -0.41472715
000010 a3 77 09 bf 03 d3 96 be ee 0e df be 7b 18 c9 be
       -0.53698176 -0.29457864 -0.43566078 -0.3927649
000020 21 33 c2 be 77 6f f6 be fc e8 bd be 51 20 cb be
       -0.37929633 -0.48131916 -0.37091815 -0.39673093
000030 86 d6 8f be 7e 90 f2 be c9 18 ec be 0e 22 67 be
       -0.28093356 -0.47375864 -0.4611266 -0.22571585
000040 df 0b e5 be 2f 7c db be 65 b1 00 bf 9c 40 dc be
       -0.4473562 -0.42868182 -0.5027068 -0.43018043
000050 cd d3 6c be cd d8 e1 be 44 22 6a be 2f 92 b6 be
       -0.2312767 -0.44110718 -0.22864634 -0.35658404
000060 89 c7 b3 be 34 b9 c9 be 01 4a a7 be 4b d3 8b be
       -0.3511317 -0.3939911 -0.32673648 -0.2730964
000070 ca 5e bc be 82 a3 a4 be a3 54 f8 be 52 d6 90 be
       -0.36791068 -0.32155997 -0.48502073 -0.28288513
000080 ef c2 05 bf 44 07 97 be 36 ac de be c2 01 af be
       -0.5225057 -0.2949773 -0.43490762 -0.3418103
000090 9e 1b f5 be e8 ce c6 be 08 47 97 be a5 41 b9 be
       -0.47872633 -0.38829732 -0.2954638 -0.36182895
0000a0 6a 08 ac be 80 47 58 be e8 da d6 be cf d1 c4 be
       -0.3360017 -0.21121025 -0.41963887 -0.3844132
0000b0 ae a6 e9 be 7b 08 f6 be 77 8a 4d be 63 11 b8 be
       -0.4563498 -0.48053345 -0.20072351 -0.35950765
0000c0 9d 90 9c be 0c 10 ea be 1d ec c7 be 67 dd c4 be
       -0.3057908 -0.45715368 -0.39047328 -0.38450167
0000d0 c0 f8 08 bf 80 98 97 be 05 a4 9e be 68 d7 98 be
       -0.5350456 -0.29608536 -0.30984512 -0.29851842
0000e0 38 ce f1 be 81 8d b4 be 27 fe d6 be 09 60 d0 be
       -0.47227645 -0.3526421 -0.41990778 -0.4069827
0000f0 d7 d5 00 bf 44 a0 a8 be fe cc 0f bf 9e 40 a7 be
       -0.50326294 -0.32934773 -0.5617217 -0.32666487

functional_7_1/batch_normalization_10_1/batchnorm/mul:0 f4 [64]
000000 ea a8 39 3f 1b 89 58 3f 35 f3 80 3f be 9e 6f 3f
       0.7252337 0.84584206 1.0074221 0.93601596
000010 01 c9 69 3f 4a 47 57 3f 70 83 61 3f 28 07 58 3f
       0.9132233 0.84093153 0.8809118 0.8438592
000020 86 34 80 3f 34 e4 78 3f 32 97 6a 3f 16 2a 70 3f
       1.0016029 0.9722321 0.91636956 0.9381422
000030 53 25 91 3f 43 ad 4f 3f 08 90 55 3f 89 d9 2c 3f
       1.1339515 0.8112375 0.834229 0.6751943
000040 80 e1 6d 3f 21 24 7e 3f bb 26 58 3f d2 85 3e 3f
       0.9292221 0.9927388 0.844341 0.74422944
000050 9d b6 5e 3f 0c cd 5c 3f f5 4f 44 3f dd 82 51 3f
       0.86997396 0.86250377 0.76684505 0.81840307
000060 9e 94 44 3f 4c 5c 61 3f 9d 71 47 3f e8 c7 74 3f
       0.7678927 0.8803146 0.77907735 0.9561753
000070 e5 31 8d 3f 12 28 6a 3f 9c b1 81 3f 8d a6 76 3f
       1.1030852 0.9146739 1.0132327 0.96347886
000080 3d a7 83 3f f5 8b 93 3f c6 c0 83 3f 44 55 61 3f
       1.0285412 1.1527086 1.0293205 0.8802073
000090 74 ff 4a 3f 8f d0 65 3f e5 d5 76 3f 54 be 21 3f
       0.7929604 0.8977136 0.9642013 0.6318104
0000a0 27 15 8b 3f 10 f2 38 3f f3 38 84 3f e2 4b 8b 3f
       1.086583 0.7224436 1.032988 1.0882533
0000b0 2d 6a 80 3f 2e 17 6d 3f f6 f1 6b 3f f2 e6 53 3f
       1.0032402 0.92613494 0.9216608 0.8277427
0000c0 b9 5b 58 3f 33 6b 92 3f bd e9 6a 3f e0 11 6e 3f
       0.8451496 1.1438965 0.91762906 0.92996025
0000d0 2e 6b 82 3f 9c 92 47 3f 1a 03 76 3f 5d b2 61 3f
       1.0188959 0.77958083 0.9609848 0.88162786
0000e0 0e 9b 5f 3f 60 71 5d 3f 83 ba 4c 3f 07 28 74 3f
       0.8734597 0.8650112 0.79972094 0.95373577
0000f0 68 51 62 3f 84 18 4c 3f ad 61 89 3f db 76 11 3f
       0.88405466 0.7972491 1.0732933 0.56821984
