models/Sl_Konjice/cars/Sl_Konjice_cars_model.onnx (onnx, 60695 bytes, 13 tensors)

functional_11_1/dense_23_1/Cast/ReadVariableOp:0 f4 [32, 1]
-0.013043526 -0.00071977277 0.011121601 -0.00076609105 -0.020909911 -0.0051416242 0.083234854 -0.005330053
0.03646227 0.07574586 0.10773761 0.023244305 -0.09400797 -0.09825364 -0.06756723 -0.058212478
0.16225943 0.07334425 0.09046235 -0.14641996 0.06857154 0.15579249 -0.06798614 -0.073287144
-0.04459268 0.0868646 -0.1643587 -0.15522297 0.025334729 0.2209343 0.005159229 -0.11522784
00000000: 83b4 55bc 22af 3cba 6037 363c 80d3 48ba
00000010: 434b abbc 127b a8bb 0977 aa3d baa7 aebb
00000020: 7659 153d a520 9b3d 89a5 dc3d d76a be3c
00000030: 4087 c0bd 3439 c9bd b060 8abd 3570 6ebd
00000040: 5627 263e 8335 963d 5344 b93d 1def 15be
00000050: 3c6f 8c3d 1188 1f3e 513c 8bbd 9217 96bd
00000060: d0a6 36bd 11e6 b13d a64d 28be c5f2 1ebe
00000070: c78a cf3c 9a3c 623e c00e a93b 93fc ebbd

functional_11_1/dense_22_1/Cast/ReadVariableOp:0 f4 [64, 32]
0.17671663 -0.20006952 -0.19373292 0.013701223 -0.20482157 0.19791777 0.012819617 0.14875053
-0.2631024 0.2521332 -0.26248282 0.0011527031 -0.10787249 -0.19387661 -0.014606903 0.19271648
-0.18009074 -0.17229179 0.17402583 -0.27506307 0.21138208 0.07411353 -0.22046776 0.17566529
0.02610427 0.0016064264 -0.06283602 -0.09902503 -0.25484383 -0.053411607 -0.16786394 -0.122286975
-0.082339875 0.082038246 0.30253822 0.14513884 -0.15991203 0.1127441 0.09074236 -0.099463165
-0.18252401 -0.002543026 0.1402162 0.2773623 0.30460906 -0.23574883 0.15625116 0.02719226
-0.15206799 0.141913 -0.009338263 0.035157707 0.006281253 -0.20807289 0.05942738 0.18371895
-0.05449724 -0.32238373 -0.090084955 0.07616005 -0.29724988 0.27489656 0.25736564 0.070227094
-0.08564903 -0.30585355 0.096173756 0.19041237 0.11559504 0.13310942 0.078934014 0.12244413
-0.0043004323 0.1465454 0.14075369 -0.04912615 0.13444807 -0.082813516 -0.14121936 0.07995677
-0.26474896 -0.002124473 -0.043397605 0.10925546 0.08540161 0.21082793 -0.2511696 0.022670705
-0.07963274 -0.24456136 -0.08593253 0.03722562 -0.0007246936 -0.11330342 0.14247653 0.08769788
0.20977545 -0.1498851 -0.19684923 -0.020747332 0.08313775 -0.16194515 -0.06722294 -0.14614546
-0.27137423 -0.12231506 -0.003057389 0.09650573 -0.13641174 -0.20625031 0.11017133 -0.19573978
-0.004235524 -0.17648275 -0.04935667 -0.08514211 -0.12272782 -0.038041078 -0.15155126 -0.21364504
-0.18717782 0.17139602 -0.08395601 0.116515316 -0.27622375 0.22106269 0.038473226 0.22918142
0.21012485 -0.087481976 -0.02955926 0.16361536 0.109216444 0.22950853 -0.0077045625 0.20195293
0.0726744 0.10243874 -0.14435971 0.13485956 0.16213188 -0.11012129 0.107238404 0.1558419
-0.02296082 0.011512119 -0.19110547 -0.074603215 -0.03718109 0.22986692 -0.21769792 -0.09772187
-0.17217301 -0.16266136 0.05840098 -0.08105723 -0.110297814 0.11276815 -0.087573476 -0.100218534
0.020100463 -0.022323351 -0.18056135 -0.09731316 0.10080889 0.041375328 -0.018116735 0.0689958
-0.0060116528 -0.16644618 0.13787703 0.11156949 0.2117892 -0.20150903 -0.1611067 0.023409642
-0.10591303 -0.112618215 -0.2583896 -0.19986093 -0.09964261 -0.04181331 0.14719565 -0.014979144
0.11446079 -0.1590133 -0.28445417 -0.28103867 0.19908167 -0.018523704 0.0076249805 0.18859276
0.13658749 -0.09603256 0.12508927 0.2989997 0.06670105 0.10769497 -0.24675962 -0.19115905
0.22315136 -0.32646164 -0.18554698 0.2346821 -0.016169978 0.0103395255 0.15559405 -0.042572033
-0.10148741 0.0031649042 -0.1839772 -0.028202903 0.043854177 -0.017751312 -0.12429804 -0.02998722
-0.06747246 -0.11615719 -0.13379703 -0.08490611 -0.0931723 0.072401494 -0.14156623 0.27163875
-0.031683754 0.069144025 0.08706444 0.029321613 0.28499243 -0.014450488 -0.11757843 -0.17873123
-0.13187858 0.016828474 -0.35130498 0.2767258 0.0872956 0.29894665 -0.055955317 0.07529654
-0.17667612 0.0819796 0.18308648 0.12859309 -0.21699482 0.07549858 -0.068313904 -0.006724217
0.10428658 0.23599756 0.19851018 -0.066323526 0.21120036 -0.12681165 0.2505452 -0.12729332
00000000: 34f5 343e 06df 4cbe ec61 46be 187b 603c
00000010: bfbc 51be f5aa 4a3e 5f09 523c 0f52 183e
00000020: 5cb5 86be 9a17 813e 2664 86be 4c16 973a
00000030: 41ec dcbd 9787 46be cb51 6fbc 7857 453e
00000040: b569 38be 426d 30be d433 323e 11d5 8cbe
00000050: 8b74 583e d6c8 973d 4dc2 61be 9ae1 333e
00000060: 9fd8 d53c ba8e d23a 2cb0 80bd a3cd cabd
00000070: e47a 82be 21c6 5abd 86e4 2bbe 9871 fabd
00000080: cfa1 a8bd ab03 a83d 4ae6 9a3e 479f 143e
00000090: fbbf 23be 61e6 e63d 21d7 b93d 58b3 cbbd
000000a0: 93e7 3abe e6a8 26bb d694 0f3e 6e02 8e3e
000000b0: b8f5 9b3e 2468 71be 4e00 203e 4dc2 de3c
000000c0: b6b7 1bbe a451 113e 84ff 18bc 8701 103d
000000d0: f8d2 cd3b 0f11 55be 206a 733d d220 3c3e
000000e0: 7f38 5fbd 7b0f a5be 767e b8bd cdf9 9b3d
000000f0: 2331 98be 3ebf 8c3e 6ec5 833e 39d3 8f3d
00000100: c268 afbd d698 9cbe bff6 c43d 76fb 423e
00000110: 18bd ec3d d64d 083e 28a8 a13d fdc3 fa3d
00000120: a4ea 8cbb ff0f 163e bc21 103e 8038 49bd
00000130: c1ac 093e 229a a9bd cf9b 10be 60c0 a33d
00000140: 2d8d 87be be3a 0bbb b0c1 31bd 54c1 df3d
00000150: 0ae7 ae3d 47e3 573e 4d99 80be eab7 b93c
00000160: 7d16 a3bd 4b6e 7abe 65fd afbd e479 183d
00000170: 5df9 3dba a00b e8bd 5ee5 113e f29a b33d
00000180: 60cf 563e 7b7b 19be d892 49be 4ff6 a9bc
00000190: 2044 aa3d f3d4 25be 2eac 89bd 28a7 15be
000001a0: 90f1 8abe 5180 fabd 7a5e 48bb cca4 c53d
000001b0: 85af 0bbe 4833 53be 82a1 e13d 0270 48be
000001c0: 27ca 8abb e5b7 34be 382a 4abd fd5e aebd
000001d0: b958 fbbd f6d0 1bbd 4130 1bbe c4c5 5abe
000001e0: 8bab 3fbe 7082 2f3e 21f1 abbd 959f ee3d
000001f0: 336d 8dbe 425e 623e 1a96 1d3d 89ae 6a3e
00000200: f82a 573e c029 b3bd 4326 f2bc c98a 273e
00000210: dfac df3d 4904 6b3e 8e76 fcbb c0cc 4e3e
00000220: 51d6 943d 67cb d13d 08d3 13be a018 0a3e
00000230: e605 263e 4587 e1bd cf9f db3d 0595 1f3e
00000240: 5418 bcbc 549d 3c3c 27b1 43be 92c9 98bd
00000250: 334b 18bd 3c62 6b3e 34ec 5ebe 6722 c8bd
00000260: 1f4e 30be b390 26be de35 6f3d 5501 a6bd
00000270: d2e3 e1bd fdf2 e63d b959 b3bd 603f cdbd
00000280: baa9 a43c 76df b6bc 13e5 38be 1f4c c7bd
00000290: e474 ce3d 2d79 293d 8c69 94bc ac4d 8d3d
000002a0: 66fd c4bb de70 2abe a32f 0d3e 8b7e e43d
000002b0: 45df 583e 6258 4ebe 28f9 24be 94c5 bf3c
000002c0: eee8 d8bd 61a4 e6bd a44b 84be 58a8 4cbe
000002d0: 6d11 ccbd 6f44 2bbd 75ba 163e 156b 75bc
000002e0: 6b6a ea3d 62d4 22be faa3 91be 4de4 8fbe
000002f0: 11dc 4b3e 06bf 97bc f9da f93b 761e 413e
00000300: 97dd 0b3e b8ac c4bd 6717 003e 7d16 993e
00000310: 8f9a 883d 2e8f dc3d 8eae 7cbe 33bf 43be
00000320: ca81 643e fb25 a7be 0700 3ebe 8150 703e
00000330: e776 84bc 1d67 293c 0c54 1f3e 0360 2ebd
00000340: a2d8 cfbd 486a 4f3b 8564 3cbe c609 e7bc
00000350: 70a0 333d 336b 91bc f98f febd c2a7 f5bc
00000360: 002f 8abd d2e3 edbd 1702 09be 41e3 adbd
00000370: 1ed1 bebd 3c47 943d bdf6 10be 3c14 8b3e
00000380: d3c6 01bd 629b 8d3d d74e b23d e133 f03c
00000390: 87ea 913e bdc1 6cbc f6cc f0bd 5205 37be
000003a0: 2e0b 07be dedb 893c 3fde b3be 01af 8d3e
000003b0: 09c8 b23d 890f 993e 6731 65bd 1335 9a3d
000003c0: 96ea 34be ece4 a73d 067b 3b3e e8ad 033e
000003d0: e433 5ebe 009f 9a3d 29e8 8bbd d256 dcbb
000003e0: 3494 d53d 58a9 713e 4146 4b3e a1d4 87bd
000003f0: e844 583e eada 01be 7647 803e 2e59 02be

functional_11_1/dense_22_1/Add/ReadVariableOp:0 f4 [32]
0.07618796 0.10917568 -0.1605854 -0.04970014 0.09111442 -0.04844539 -0.0641353 -0.09350595
0.05065591 0.074805506 0.03935156 -0.0025449314 0.0111179175 -0.08108667 -0.047771513 -0.0116121415
-0.005811915 -0.056513164 -0.07703995 0.097131714 -0.097246155 0.061144605 -0.019633096 0.04228163
0.11229339 0.07085986 -0.029518919 -0.0021649061 0.11219514 0.062319033 -0.018933447 -0.13495545
00000000: 6f08 9c3d 8097 df3d 8070 24be 6092 4bbd
00000010: 329a ba3d ac6e 46bd 5e59 83bd 0c80 bfbd
00000020: 927c 4f3d a133 993d 1a2f 213d ddc8 26bb
00000030: ed27 363c c510 a6bd 10ac 43bd da40 3ebc
00000040: e071 bebb 597a 67bd 1fc7 9dbd feec c63d
00000050: fe28 c7bd c472 7a3d 96d5 a0bc 812f 2d3d
00000060: 14fa e53d f91e 913d a9d1 f1bc 19e1 0dbb
00000070: 91c6 e53d 3e42 7f3d 511a 9bbc c331 0abe

functional_11_1/dense_21_1/Cast/ReadVariableOp:0 f4 [128, 64]
0.018016092 -0.079889044 0.15517908 -0.0029625131 -0.031334806 -0.149253 -0.07532146 0.17952213
0.03140071 -0.19664681 -0.07828588 -0.059917722 -0.10346025 0.0023432574 0.039234865 -0.0065028137
0.009429743 -0.047244117 0.07103672 -0.14465262 0.19053008 -0.022925008 0.14972383 0.024664743
0.012811632 -0.062487748 -0.02363871 0.048506856 -0.0955185 -0.11412113 0.09720343 -0.22479384
-0.25216722 0.04537652 0.0569923 -0.13789046 -0.18471554 -0.005683927 0.12650658 -0.113890074
-0.13681412 -0.21062937 -0.09817435 -0.05203441 0.05861204 -0.19711919 -0.08391874 0.050799422
0.11822037 0.08474327 -0.05906249 -0.03528226 0.25399148 -0.2765606 -0.15199433 -0.024076072
-0.11421346 -0.21754992 -0.051102746 -0.010861865 -0.0761115 -0.14743228 -0.101147756 -0.31720334
0.072436236 0.051414173 0.1111334 -0.17360352 0.1903235 0.08013534 -0.1317728 0.027357357
0.09097815 -0.056539766 0.19423905 0.021656215 -0.15459342 -0.09165644 -0.08405272 -0.14511412
0.057268564 0.019694997 -0.13309248 0.084463865 -0.10144419 0.14210752 -0.16997407 -0.18529817
0.06130557 -0.0042346255 -0.05339664 -0.21853845 -0.27939677 0.05962976 0.054216072 -0.19096653
-0.020985749 0.038884778 0.13753682 0.14399374 -0.009809725 -0.15754963 -0.061484113 0.0302267
-0.04115973 0.07459985 0.048536576 -0.014437022 0.11188474 -0.087935954 0.06728175 -0.030784734
0.014336048 0.024756907 -0.11803454 -0.08242039 0.0640147 0.031889174 0.046901405 -0.036034837
0.087988034 -0.20889068 -0.080487326 -0.098463245 -0.010593791 -0.25888392 0.122487746 -0.053575873
-0.2116797 -0.11898328 -0.07342286 -0.09296886 -0.05904356 -0.091992326 0.015237147 -0.03811
-0.016143689 0.01855244 -0.0028647776 0.003882059 0.03318518 0.19476733 -0.108805664 -0.1455915
-0.0026858137 0.03410507 0.044040214 -0.083004676 0.17351487 -0.045376 0.27819046 0.041404963
0.10257622 -0.270764 0.08304308 -0.07988755 0.016684856 -0.08443347 -0.09106613 -0.09003145
0.1694158 -0.08398162 -0.099318184 0.12337939 -0.011951808 0.103432804 0.10782922 0.17389528
0.17506166 -0.16218312 -0.2873818 -0.07050001 0.025589902 0.08645576 0.23706485 -0.019645486
0.043560546 0.20233357 -0.027082646 -0.007887041 0.004198047 0.15985659 0.16517286 0.08076409
0.03518046 -0.19829682 0.03614259 0.008920787 -0.20188424 0.22847614 -0.08114801 -0.11999061
0.05890869 0.12750511 -0.09991679 -0.111652926 0.23193671 0.0003441831 0.15670086 0.1486968
-0.08101683 -0.12143724 -0.181477 0.06964158 0.15110405 0.18379833 -0.16560164 -0.13431145
0.28388673 -0.09261342 0.18035732 -0.021992596 -0.16766337 0.105704844 0.06298961 0.008549628
0.025499444 -0.06607284 0.003685682 -0.09265571 -0.046014424 0.07219703 0.05670393 -0.33544254
-0.04228714 -0.3484255 -0.15576456 -0.15107076 0.13868402 0.070673116 -0.2371894 0.08556267
0.096059725 0.1432736 0.10130718 0.0059528067 0.14422426 0.008444564 -0.0025436063 -0.17520688
-0.032228597 -0.17984329 0.10952319 -0.14025724 0.04720948 -0.13363434 -0.00023643601 -0.07283301
0.19879898 -0.02962531 -0.2284635 0.1171397 -0.22634709 -0.062032763 -0.12657076 0.1428272
00000000: 7c96 933c de9c a3bd 44e7 1e3e b926 42bb
00000010: ed58 00bd c7d5 18be 2342 9abd a6d4 373e
00000020: 089e 003d c85d 49be 5954 a0bd 496c 75bd
00000030: f8e2 d3bd 5691 193b bdb4 203d 8e15 d5bb
00000040: 357f 1a3c 0c83 41bd b37b 913d d11f 14be
00000050: 511a 433e 3acd bbbc 3451 193e b70d ca3c
00000060: e1e7 513c 27f3 7fbd f8a5 c1bc 20af 463d
00000070: 349f c3bd 57b8 e9bd 9812 c73d 5b30 66be
00000080: 101c 81be bbdc 393d c270 693d 2833 0dbe
00000090: 1226 3dbe 3c40 babb f18a 013e 333f e9bd
000000a0: 0019 0cbe 3aaf 57be a20f c9bd 0922 55bd
000000b0: 2e13 703d 9dd9 49be 97dd abbd 0e13 503d
000000c0: 851d f23d e18d ad3d 82eb 71bd 2284 10bd
000000d0: 2c0b 823e 5a99 8dbe 67a4 1bbe 2f3b c5bc
000000e0: bfe8 e9bd 68c5 5ebe 1d51 51bd f7f5 31bc
000000f0: 59e0 9bbd 7df8 16be 8e26 cfbd 7a68 a2be
00000100: 7359 943d ab97 523d e899 e33d 1fc5 31be
00000110: 2ae4 423e ff1d a43d 73ef 06be 891c e03c
00000120: c152 ba3d 3e96 67bd 9ae6 463e 6068 b13c
00000130: bd4d 1ebe 5fb6 bbbd d523 acbd cc98 14be
00000140: 7192 6a3d 6757 a13c 6549 08be 64fb ac3d
00000150: f9c1 cfbd a284 113e af0d 2ebe cebe 3dbe
00000160: 8d1b 7b3d 9dc2 8abb 6fb6 5abd 8bc8 5fbe
00000170: 180d 8fbe 563e 743d ac11 5e3d bb8c 43be
00000180: 4eea abbc a545 1f3d 74d6 0c3e 1873 133e
00000190: f8b8 20bc b154 21be c4d6 7bbd fc9d f73c
000001a0: 1b97 28bd cec7 983d 4ace 463d 4289 6cbc
000001b0: d423 e53d c417 b4bd 04cb 893d 4430 fcbc
000001c0: bee1 6a3c ffce ca3c 18bc f1bd 05cc a8bd
000001d0: 241a 833d 399e 023d b01b 403d 4499 13bd
000001e0: 1233 b43d 70e7 55be 8ad6 a4bd 19a7 c9bd
000001f0: 9491 2dbc 6f8c 84be dbda fa3d 6072 5bbd
00000200: 90c2 58be 82ad f3bd b95e 96bd 7566 bebd
00000210: a9d7 71bd 7966 bcbd 3aa5 793c 3b19 1cbd
00000220: c53f 84bc 49fb 973c febe 3bbb 246a 7e3b
00000230: 2fed 073d 1671 473e 81d5 debd f015 15be
00000240: 7a04 30bb c2b1 0b3d 8363 343d 5bfe a9bd
00000250: e2ad 313e 2fdc 39bd fb6e 8e3e 4098 293d
00000260: 7b13 d23d 94a1 8abe 7e12 aa3d 159c a3bd
00000270: aeae 883c 75eb acbd e180 babd 6962 b8bd
00000280: 567b 2d3e 8efe abbd 5567 cbbd 55ae fc3d
00000290: 84d1 43bc 94d4 d33d 91d5 dc3d 9b11 323e
000002a0: 5d43 333e 5513 26be b523 93be 4f62 90bd
000002b0: eaa1 d13c b80f b13d 21c1 723e 92ef a0bc
000002c0: 8b6c 323d 8830 4f3e 6ddc ddbc a638 01bc
000002d0: c58f 893b 72b1 233e 1323 293e a567 a53d
000002e0: 6319 103d 520e 4bbe 410a 143d 7e28 123c
000002f0: beba 4ebe a6f5 693e ee30 a6bd a3bd f5bd
00000300: 3d4a 713d b390 023e 2da1 ccbd 4aaa e4bd
00000310: d180 6d3e 7973 b439 3176 203e f943 183e
00000320: 27ec a5bd 16b4 f8bd 1bd5 39be 3fa0 8e3d
00000330: 05bb 1a3e a135 3c3e 7a93 29be f188 09be
00000340: 9a59 913e 1bac bdbd 97af 383e d129 b4bc
00000350: f2af 2bbe c87b d83d b200 813d bd13 0c3c
00000360: 36e4 d03c 3251 87bd 7c8b 713b 47c2 bdbd
00000370: 9f79 3cbd 09dc 933d 6142 683d 20bf abbe
00000380: 4835 2dbd d464 b2be bf80 1fbe 4bb2 1abe
00000390: 2f03 0e3e 11bd 903d c7e1 72be 7b3b af3d
000003a0: f6ba c43d 51b6 123e 247a cf3d c30f c33b
000003b0: 86af 133e 125b 0a3c a2b2 26bb 6f69 33be
000003c0: 2202 04bd d728 38be b24d e03d 989f 0fbe
000003d0: ba5e 413d 71d7 08be cfeb 77b9 7929 95bd
000003e0: f691 4b3e c7b0 f2bc 56f2 69be f0e6 ef3d
000003f0: 88c7 67be 1116 7ebd c49b 01be 4b41 123e

functional_11_1/dense_21_1/Add/ReadVariableOp:0 f4 [64]
-0.0026148807 0.07178899 0.11767279 0.01328659 0.077527374 -0.13465437 -0.0026434145 0.0014365596
-0.14217588 0.039958812 0.035743825 0.045874383 -0.0057715042 -0.058055785 -0.0414605 0.01607143
-0.05336573 -0.08817118 -0.15426068 -0.061498992 0.16781668 0.034132507 0.006733517 -0.14746632
-0.023556743 -0.0010090125 0.032888442 0.098228425 -0.12730487 0.09943908 -0.064873375 0.063054435
-0.070426054 0.06563373 0.10969135 -0.14432228 -0.047401145 0.0674562 0.008031843 0.012413765
-0.022632841 0.0038272822 -0.16910557 -0.06799161 0.10342457 0.0034582939 0.03263604 0.083488084
0.021097818 0.021828057 0.06232642 -0.073306136 0.09035529 -0.17530374 -0.083043724 0.019391041
-0.05690058 0.043203253 0.117337264 -0.03528851 0.022074763 -0.026641415 0.0049560065 0.08373672
00000000: 6b5e 2bbb 1b06 933d 6ffe f03d ffaf 593c
00000010: acc6 9e3d d6e2 09be 233d 2dbb f14a bc3a
00000020: 8e96 11be daab 233d 1e68 123d c7e6 3b3d
00000030: e31e bdbb e7cb 6dbd 7cd2 29bd 3ba8 833c
00000040: 0696 5abd 1793 b4bd 83f6 1dbe 5ee6 7bbd
00000050: 23d8 2b3e 87ce 0b3d d6a4 dc3b 6901 17be
00000060: 12fa c0bc d740 84ba 08b6 063d fc2b c93d
00000070: 355c 02be b7a6 cb3d 55dc 84bd af22 813d
00000080: 893b 90bd fa6a 863d dca5 e03d 38c9 13be
00000090: b427 42bd 7a26 8a3d fe97 033c 1b63 4b3c
000000a0: 8268 b9bc 24d3 7a3b 032a 2dbe 2f3f 8bbd
000000b0: 43d0 d33d 8ba4 623b 5ead 053d cdfb aa3d
000000c0: 55d5 ac3c c1d0 b23c fd49 7f3d 8721 96bd
000000d0: 320c b93d d382 33be d412 aabd f6d9 9e3c
000000e0: 9510 69bd e5f5 303d 854e f03d af8a 10bd
000000f0: 22d6 b43c 193f dabc ff65 a23b 287e ab3d

functional_11_1/dense_20_1/Cast/ReadVariableOp:0 f4 [25, 128]
0.09889765 0.04198341 0.10974713 0.11732043 -0.09644778 -0.08511455 0.17627569 -0.023591712
-0.17217568 -0.04313907 -0.048973337 0.15844966 -0.0055116564 0.028094634 -0.17652692 0.12990843
0.09198932 0.11775531 0.0105253905 -0.1485251 -0.00023838878 -0.124686375 0.1010205 0.04463382
0.042991757 0.05146703 -0.02978839 -0.07578168 0.11977212 -0.12953633 0.1730492 0.15983321
-0.039003417 0.10544695 0.09757717 0.09821306 -0.06535147 0.035319597 -0.11216397 -0.05334644
-0.12531239 -0.16788012 0.023235336 -0.15100828 -0.12409081 -0.13963982 -0.06460294 0.09821673
0.05555944 -0.09484968 0.1488655 -0.15058151 -0.07721736 -0.14662059 0.07839428 0.10808824
-0.09549689 -0.011924818 0.0024736375 -0.15056714 -0.0902833 0.046671376 0.17836334 0.17012109
-0.05436167 0.14556204 -0.05647318 -0.11309795 -0.07363005 0.0035716444 -0.12745471 -0.06588343
0.03272122 -0.122293055 -0.056956604 0.14551537 -0.0774548 -0.03732954 -0.014054254 -0.16874154
-0.17094128 -0.14547668 0.023034528 -0.193149 -0.15999846 0.06534208 -0.00292027 -0.06292693
-0.113076046 0.08902891 0.07880871 -0.00066185 -0.14032835 -0.12845357 0.041979536 0.05891262
-0.037050456 0.14841051 0.18692465 0.009569928 0.026025862 -0.17940153 -0.12494142 0.17318831
0.0220574 0.10395263 -0.16025588 -0.07094306 -0.029974937 -0.043780282 0.09714429 -0.13871017
-0.14912212 -0.15545435 -0.14379442 0.099381045 -0.009305015 0.03505543 -0.1744615 -0.07371305
0.07816617 0.16136988 -0.0661668 -0.09363506 0.10619207 -0.11570501 0.03249167 -0.0904026
0.0748712 0.25678638 -0.019905109 0.06278818 -0.09872696 0.06984715 -0.2129811 0.20732272
-0.054740958 0.061438255 -0.15375796 -0.19164847 -0.0007135635 -0.21423632 -0.18061396 -0.07545488
-0.14323205 0.01855545 0.3001012 -0.136022 0.17978713 0.0933121 0.083604164 0.13340439
-0.16224506 -0.18125206 0.13602069 -0.24815632 -0.14189072 -0.21406808 0.0053820014 -0.06776929
0.18028948 0.13954295 0.20463054 -0.07167586 -0.12776631 -0.14730427 -0.07830616 -0.03628886
0.2776472 0.010329418 0.28244033 0.09887155 -0.18113376 0.035679575 -0.13504702 -0.07331275
-0.21202958 0.085456625 0.042211846 -0.0807842 0.16710833 -0.00596076 -0.099444695 -0.23332638
0.027781345 -0.18365826 -0.060710013 -0.0247382 0.11333236 0.12418642 0.045614548 0.10811321
0.19642591 0.23175384 0.08702745 0.06036194 0.09708783 0.02898354 -0.10317057 0.1009791
-0.2200016 -0.123843126 -0.13848789 0.17772634 -0.17583214 -0.106001854 -0.15705478 0.20477375
-0.11190174 -0.102162465 0.13235614 0.008890452 0.16112395 0.014396761 0.001694411 -0.027992269
0.081330635 0.023382064 -0.23642063 0.13076802 0.05773708 -0.03427104 -0.05061549 0.13356905
0.11781933 0.28769183 -0.11351768 -0.2684976 0.15252553 -0.029279707 0.14141935 0.07781805
0.07118808 0.06589061 0.053159356 -0.077246875 0.07308925 -0.18036075 0.07085173 0.08269207
0.12867077 0.13603145 -0.1947753 -0.1355637 0.04598917 0.08255686 -0.00042124093 -0.2048245
-0.13090242 0.19392264 0.047221467 -0.20828772 -0.06322838 -0.17235547 0.015074698 0.065824345
00000000: da8a ca3d ccf6 2b3d 1ac3 e03d b245 f03d
00000010: 6a86 c5bd 8a50 aebd 9d81 343e 6843 c1bc
00000020: d24e 30be 98b2 30bd 4498 48bd a140 223e
00000030: 209b b4bb b826 e63c 79c3 34be b706 053e
00000040: e664 bc3d b229 f13d b072 2c3c f716 18be
00000050: 00f8 79b9 925b ffbd d6e3 ce3d f4d1 363d
00000060: 2018 303d 18cf 523d c806 f4bc 6d33 9bbd
00000070: 164b f53d 2ca5 04be cf33 313e 51ab 233e
00000080: 0cc2 1fbd 92f4 d73d 8ad6 c73d ee23 c93d
00000090: fed6 85bd 48ab 103d 39b6 e5bd cc81 5abd
000000a0: e451 00be c4e8 2bbe 0858 be3c eaa1 1abe
000000b0: 5323 febd befd 0ebe 8c4e 84bd da25 c93d
000000c0: 4c92 633d 8d40 c2bd 3370 183e 0a32 1abe
000000d0: 2324 9ebd b523 16be 2e8d a03d 5e5d dd3d
000000e0: e093 c3bd 5060 43bc c01c 223b 462e 1abe
000000f0: 73e6 b8bd 7c2a 3f3d e1a4 363e 3934 2e3e
00000100: 58aa 5ebd 370e 153e 6c50 67bd e69f e7bd
00000110: 5acb 96bd 4012 6a3b 7d83 02be e4ed 86bd
00000120: b006 063d c874 fabd 544b 69bd fb01 153e
00000130: 9fa0 9ebd dce6 18bd d043 66bc 95ca 2cbe
00000140: 3b0b 2fbe d7f7 14be e8b2 bc3c dac8 45be
00000150: a3d6 23be 12d2 853d 0062 3fbb d6df 80bd
00000160: 6a94 e7bd ca54 b63d 7666 a13d 0080 2dba
00000170: 3cb2 0fbe 5589 03be bcf2 2b3d 5c4e 713d
00000180: 38c2 17bd edf8 173e 2d69 3f3e 30cb 1c3c
00000190: 3034 d53c 09b5 37be 4ae1 ffbd 4758 313e
000001a0: b8b1 b43c 1ee5 d43d 1e1a 24be 984a 91bd
000001b0: 008e f5bc f452 33bd 96f3 c63d 0a0a 0ebe
000001c0: 78b3 18be 6d2f 1fbe d83e 13be 4a88 cb3d
000001d0: 1074 18bc 4896 0f3d 09a6 32be def6 96bd
000001e0: 9615 a03d 253e 253e 7682 87bd bdc3 bfbd
000001f0: 3a7b d93d c0f6 ecbd fc15 053d 0025 b9bd
00000200: 1256 993d 8179 833e 0a10 a3bc 1797 803d
00000210: 5c31 cabd 060c 8f3d b817 5abe 684c 543e
00000220: 0e38 60bd aea6 7b3d ba72 1dbe 7f3f 44be
00000230: 700e 3bba c460 5bbe def2 38be 1788 9abd
00000240: 6cab 12be 9901 983c dda6 993e 5a49 0bbe
00000250: 1e1a 383e 6a1a bf3d a938 ab3d 299b 083e
00000260: 9223 26be 249a 39be 0249 0b3e b11c 7ebe
00000270: cd4b 11be aa34 5bbe 805b b03b a0ca 8abd
00000280: ce9d 383e 59e4 0e3e ab8a 513e cbca 92bd
00000290: 2cd5 02be eed6 16be fb5e a0bd a1a3 14bd
000002a0: c627 8e3e b83c 293c 059c 903e 2b7d ca3d
000002b0: 217b 39be bf24 123d c449 0abe ff24 96bd
000002c0: 481e 59be e203 af3d 54e6 2c3d 3072 a5bd
000002d0: 721e 2b3e 7b52 c3bb a9a9 cbbd 1ced 6ebe
000002e0: b495 e33c e910 3cbe 10ab 78bd c4a7 cabc
000002f0: cc1a e83d 7355 fe3d 52d6 3a3d 756a dd3d
00000300: e023 493e e150 6d3e 733b b23d 153e 773d
00000310: fcd5 c63d e46e ed3c 184b d3bd 21ce ce3d
00000320: 1948 61be 77a1 fdbd c5cf 0dbe e5fd 353e
00000330: 570d 34be 8017 d9bd f8d2 20be 36b0 513e
00000340: bd2c e5bd 8e3a d1bd 5e88 073e 42a9 113c
00000350: adfd 243e 64e0 6b3c 0017 de3a 0b50 e5bc
00000360: ad90 a63d be8b bf3c 4018 72be 0de8 053e
00000370: b77d 6c3d ca5f 0cbd 3052 4fbd 53c6 083e
00000380: 434b f13d 584c 933e f57b e8bd 8478 89be
00000390: a72f 1c3e ffdb efbc 3cd0 103e 125f 9f3d
000003a0: 0ecb 913d a8f1 863d a0bd 593d 9c33 9ebd
000003b0: d1af 953d 7db0 38be b61a 913d 765a a93d
000003c0: 45c2 033e d44b 0b3e 2d73 47be 36d1 0abe
000003d0: 245f 3c3d 9213 a93d 00da dcb9 84bd 51be
000003e0: 490b 06be a893 463e 4c6b 413d 6049 55be
000003f0: e27d 81bd f47d 30be defb 763c eace 863d

functional_11_1/dense_20_1/Add/ReadVariableOp:0 f4 [128]
0.0 0.07965902 0.05553818 0.07094381 0.039279494 0.08934381 -0.031843584 0.106145166
0.046700705 0.08651106 -0.060032964 0.13219853 0.089819215 -0.060594995 -0.06486773 -0.07612484
-0.03282203 0.002406696 0.03838936 0.0 -0.0046267486 0.0 -0.058598407 -0.041690532
0.029761042 -0.14703342 0.033491086 -0.0035767676 -0.029308451 -0.1026246 0.0 0.0
-0.029661749 0.059603907 0.11580915 0.019613605 0.022690495 -0.085761935 0.0 0.10388528
0.1095664 -0.02907568 -0.0029837058 0.07460126 -0.057969008 0.038760573 0.09191061 0.018640688
-0.035364848 0.0 0.078718476 0.006261656 -0.09267398 -0.048656933 0.00014699064 -0.06683434
-0.011119861 0.051858395 0.0 -0.003022014 -0.029318249 -0.053714596 -0.055791605 0.03614081
-0.063188925 0.060200736 0.046185806 0.04437525 -0.0022263257 -0.07147068 -0.034789715 0.02498782
-0.060033407 -0.035749666 -0.0676376 0.06244479 -0.08697247 -0.09076168 -0.06440972 0.10520451
-0.05283773 0.08316025 0.032305803 0.07848568 -0.037578292 -0.002018857 0.0 -0.03490548
-0.03899132 -0.042208325 -0.0613206 -0.016640209 -0.1436858 0.029554892 0.0 0.06569835
0.0032778685 0.04123237 -0.063843444 -0.07438554 0.0888879 0.07159726 0.040977415 0.0
0.044205476 0.024815822 -0.11610433 0.0 0.053836215 -0.060029697 0.11043536 -0.09027893
0.09794588 0.016218802 -0.0076516345 -0.04432484 -0.015862752 -0.07825367 0.0 0.062980734
-0.03683444 0.03464809 0.03316897 -0.0778644 -0.0067107556 -0.1008128 0.037507486 -0.0941915
00000000: 0000 0000 4524 a33d 017c 633d fd4a 913d
00000010: 89e3 203d e3f9 b63d 6b6e 02bd a362 d93d
00000020: 3d49 3f3d b62c b13d 20e5 75bd 0d5f 073e
00000030: 23f3 b73d 7532 78bd 5fd9 84bd 57e7 9bbd
00000040: 6570 06bd a9b9 1d3b 293e 1d3d 0000 0000
00000050: fb9b 97bb 0000 0000 e204 70bd b1c3 2abd
00000060: 6ecd f33c ee8f 16be f32d 093d 3468 6abb
00000070: 4718 f0bc d92c d2bd 0000 0000 0000 0000
00000080: 32fd f2bc 3a23 743d 592d ed3d b6ac a03c
00000090: 6be1 b93c f4a3 afbd 0000 0000 cec1 d43d
000000a0: 5964 e03d 1f30 eebc 478a 43bb 8cc8 983d
000000b0: e970 6dbd 68c3 1e3d a13b bc3d 5bb4 983c
000000c0: bbda 10bd 0000 0000 2737 a13d 942e cd3b
000000d0: dbcb bdbd 7e4c 47bd 8021 1a39 71e0 88bd
000000e0: 1430 36bc 7869 543d 0000 0000 fb0c 46bb
000000f0: d32c f0bc d603 5cbd bd85 64bd 6308 143d
00000100: 3269 81bd 0c95 763d 542d 3d3d d2c2 353d
00000110: 8ce7 11bb 385f 92bd a97f 0ebd 42b3 cc3c
00000120: 97e5 75bd 3e6e 12bd 9585 8abd 1cc6 7f3d
00000130: 9f1e b2bd 42e1 b9bd 3ee9 83bd 7675 d73d
00000140: 606c 58bd ec4f aa3d 1753 043d 1abd a03d
00000150: b2eb 19bd cd4e 04bb 0000 0000 0cf9 0ebd
00000160: 5db5 1fbd a3e2 2cbd 4f2b 7bbd 0c51 88bc
00000170: 5f22 13be 1a1d f23c 0000 0000 db8c 863d
00000180: 82d1 563b 46e3 283d 5ac0 82bd 7257 98bd
00000190: dc0a b63d 96a1 923d efd7 273d 0000 0000
000001a0: cd10 353d 8d4a cb3c 1bc8 edbd 0000 0000
000001b0: 5d83 5c3d b3e1 75bd ef2b e23d 29e4 b8bd
000001c0: d997 c83d 4bdd 843c 90ba fabb f78d 35bd
000001d0: 9af2 81bc 7643 a0bd 0000 0000 0bfc 803d
000001e0: b6df 16bd 28eb 0d3d 30dc 073d 5f77 9fbd
000001f0: e6e5 dbbb f176 cebd 73a1 193d 79e7 c0bd

functional_11_1/batch_normalization_17_1/batchnorm/sub:0 f4 [32]
-0.38973892 -0.2951312 -0.35848284 -0.50976807 -0.14312619 -0.16866328 -0.18072295 -0.28536305
-0.19965973 -0.18006319 -0.2933124 -0.22364676 -0.4263779 -0.4180318 -0.40871677 -0.46766996
-0.2418975 -0.20806423 -0.43967417 -0.5580615 -0.25790226 -0.22096796 -0.5145997 -0.4936831
-0.45922565 -0.22047085 -0.43888187 -0.48605752 -0.15046227 -0.26810843 -0.22235113 -0.33995435
00000000: dc8b c7be 701b 97be 108b b7be 2980 02bf
00000010: ac8f 12be 11b6 2cbe 700f 39be 1b1b 92be
00000020: 9a73 4cbe 7c62 38be 0b2d 96be a803 65be
00000030: 344e dabe 4408 d6be 5343 d1be 7072 efbe
00000040: fab3 77be ca0e 55be f91c e1be 1edd 0ebf
00000050: c40b 84be 6d45 62be cebc 03bf 08c4 fcbe
00000060: a01f ebbe 1cc3 61be 20b5 e0be 88dc f8be
00000070: c812 1abe 8245 89be 04b0 63be 7f0e aebe

functional_11_1/batch_normalization_17_1/batchnorm/mul:0 f4 [32]
0.8714204 0.83508754 0.76955485 1.0395795 1.0866797 0.8599703 0.8397945 1.0124334
0.9299285 0.86127603 0.74024886 0.8550406 0.818712 0.7763441 1.0387712 0.9386187
0.69309765 0.9272957 0.7810253 0.7172769 0.87042654 0.67859566 0.9883709 0.9148099
0.9287275 1.0855582 0.75949776 0.7019292 0.9728395 0.7683413 0.99475366 0.9678154
00000000: 6815 5f3f 4cc8 553f 8c01 453f f110 853f
00000010: 5218 8b3f 0327 5c3f c6fc 563f 6b97 813f
00000020: cb0f 6e3f 967c 5c3f f380 3d3f f1e3 5a3f
00000030: 1c97 513f 7dbe 463f 74f6 843f 5149 703f
00000040: d96e 313f 4063 6d3f 46f1 473f 759f 373f
00000050: 46d4 5e3f 72b8 2d3f e005 7d3f fb30 6a3f
00000060: 16c1 6d3f 92f3 8a3f 726e 423f a2b1 333f
00000070: 020c 793f 04b2 443f 2da8 7e3f c0c2 773f

functional_11_1/batch_normalization_16_1/batchnorm/sub:0 f4 [64]
-0.30777016 -0.43090692 -0.44840845 -0.4082437 -0.43685412 -0.29024532 -0.26315328 -0.3539821
-0.28097498 -0.48604718 -0.2867902 -0.3789007 -0.30783382 -0.3204262 -0.3766778 -0.3252187
-0.49051398 -0.4902786 -0.31227916 -0.29878303 -0.5276921 -0.3799209 -0.4041265 -0.21444392
-0.37606823 -0.3926083 -0.50673205 -0.6083297 -0.22141099 -0.43753174 -0.3966399 -0.5690954
-0.3138111 -0.54728067 -0.448833 -0.30572516 -0.41408905 -0.41373575 -0.5107271 -0.28916302
-0.5006768 -0.37676418 -0.37411708 -0.35677746 -0.25045136 -0.46524087 -0.39349857 -0.25195688
-0.25511253 -0.46510053 -0.30690718 -0.37306687 -0.56237596 -0.18173434 -0.32228693 -0.27526963
-0.46925354 -0.3379699 -0.40802318 -0.32856917 -0.5631213 -0.3394402 -0.29055208 -0.37892818
00000000: 0d94 9dbe d59f dcbe cb95 e5be 5105 d1be
00000010: 58ab dfbe 099b 94be 07bc 86be 243d b5be
00000020: f4db 8fbe 2ddb f8be 2ad6 92be 46ff c1be
00000030: 659c 9dbe e70e a4be eadb c0be 1183 a6be
00000040: a624 fbbe cc05 fbbe 0ee3 9fbe 17fa 98be
00000050: d416 07bf fe84 c2be abe9 cebe 3097 5bbe
00000060: 048c c0be f503 c9be 31b9 01bf 7fbb 1bbf
00000070: 90b9 62be 2904 e0be 6314 cbbe 3cb0 11bf
00000080: d9ab a0be 961a 0cbf 70cd e5be 0288 9cbe
00000090: 7b03 d4be 2cd5 d3be 03bf 02bf 2d0d 94be
000000a0: 5b2c 00bf 3ce7 c0be 468c bfbe 89ab b6be
000000b0: 293b 80be 0d34 eebe a578 c9be 7e00 81be
000000c0: 1c9e 82be a821 eebe f022 9dbe 9f02 bfbe
000000d0: dff7 0fbf 9118 3abe cb02 a5be 24f0 8cbe
000000e0: 0042 f0be 640a adbe 6ae8 d0be 383a a8be
000000f0: b828 10bf 1bcb adbe 3ec3 94be e002 c2be

functional_11_1/batch_normalization_16_1/batchnorm/mul:0 f4 [64]
0.8677125 1.0104508 0.8653625 0.80690134 0.8230225 0.8600691 0.87357134 0.8322742
0.90104866 1.1110433 0.98084545 0.7168436 1.1215605 1.0141593 0.8368024 0.8870217
0.78911996 0.91092855 1.0437334 0.92948866 1.0546839 1.0104873 1.0714731 0.7716982
1.0917009 0.71577203 1.0974154 0.90534246 1.0128356 0.9113894 1.0326145 1.0431399
1.1804001 1.007821 0.86004275 1.1412716 0.8741284 0.7759585 1.1085352 0.9542394
1.069665 0.7433509 0.906931 1.0769395 0.8773464 0.9863494 0.92007804 1.0182259
1.0854105 1.1190505 0.9140771 1.2333256 0.95867115 0.88152075 1.0460179 0.84059423
0.8775189 0.7714275 1.0070107 0.9050256 0.8880094 0.77727616 1.1688744 0.8382944
00000000: 6822 5e3f 7456 813f 6688 5d3f 1691 4e3f
00000010: 9ab1 523f 7d2d 5c3f 5fa2 5f3f ec0f 553f
00000020: 20ab 663f ab36 8e3f b018 7b3f 1083 373f
00000030: 4b8f 8f3f f9cf 813f af38 563f db13 633f
00000040: c403 4a3f 9d32 693f 0e99 853f f8f2 6d3f
00000050: e2ff 863f a657 813f 0826 893f 038e 453f
00000060: dbbc 8b3f d63c 373f 1c78 8c3f 86c4 673f
00000070: 99a4 813f d150 693f b62c 843f 9c85 853f
00000080: 5a17 973f 4700 813f c32b 5c3f 3015 923f
00000090: e1c6 5f3f 37a5 463f 7be4 8d3f 0949 743f
000000a0: c8ea 883f 3f4c 3e3f a12c 683f 27d9 893f
000000b0: c699 603f 6581 7c3f 3c8a 6b3f 3a55 823f
000000c0: bbee 8a3f 0c3d 8f3f f500 6a3f 9ddd 9d3f
000000d0: 796b 753f 58ab 613f eae3 853f 2f31 573f
000000e0: 14a5 603f 467c 453f bae5 803f c2af 673f
000000f0: 9654 633f 92fb 463f ad9d 953f 769a 563f

functional_11_1/batch_normalization_15_1/batchnorm/sub:0 f4 [128]
0.025597239 -0.27357346 -0.21775651 -0.15695065 -0.21346073 -0.25510848 -0.04372539 -0.38354674
-0.21860248 -0.2938646 -0.01664865 -0.32118857 -0.289613 0.106872566 0.12872976 0.080453
-0.096233286 -0.03751894 -0.24289942 0.025593547 -0.21798146 0.14555787 -0.120191894 0.0035966448
-0.3016948 -0.099149585 -0.19672337 -0.003699923 -0.110739335 0.045299705 -0.052038923 -0.018103646
-0.2023714 -0.3247886 -0.103297696 0.004152205 -0.08142379 -0.08682544 0.06476703 -0.071014024
-0.10495288 -0.16601016 -0.09595904 -0.01753898 -0.06864585 -0.3505482 -0.20799202 -0.016270258
-0.0904509 0.04892514 -0.2375334 0.0009428859 -0.0028219298 -0.09038624 -0.34392697 0.11492235
-0.024620023 -0.1891897 -0.11665868 -0.14714108 -0.16267502 -0.0064557306 -0.0145494975 -0.10727731
-0.177113 -0.36266768 -0.43395346 -0.32559514 -0.26930797 0.01942313 -0.03170152 0.0076963753
0.071791895 -0.20585652 -0.04946069 -0.35269374 -0.051326126 -0.10263369 -0.049110573 -0.17171352
0.012785961 -0.37709096 -0.21293665 -0.18174906 -0.100382574 -0.09810053 0.0063109794 0.05887079
-0.09719611 -0.02307503 0.117379755 -0.19322905 -0.172573 -0.12312966 0.058470853 -0.46438718
-0.0827489 -0.1969195 -0.05165693 0.16246572 -0.19250214 -0.10858203 -0.0695779 -0.04725449
-0.30984634 -0.3729769 -0.1313596 0.04858782 -0.14494695 0.0073324284 -0.3278322 0.029620238
-0.409223 -0.2673644 -0.29769042 0.05977056 0.0017343909 -0.0017834078 -0.002313979 -0.2224335
-0.18488002 -0.2174339 -0.12518057 0.07049455 -0.12390726 0.042708237 -0.18113898 0.10556289
00000000: 4db1 d13c d211 8cbe 90fb 5ebe acb7 20be
00000010: 7395 5abe 949d 82be 6519 33bd 3d60 c4be
00000020: 54d9 5fbe 6c75 96be c062 88bc d472 a4be
00000030: 2848 94be 01e0 da3d bcd1 033e 8bc4 a43d
00000040: f515 c5bd 76ad 19bd a0ba 78be 8fa9 d13c
00000050: 8836 5fbe 1f0d 153e 2b27 f6bd b0b5 6b3b
00000060: be77 9abe f00e cbbd da71 49be 687a 72bb
00000070: 4ecb e2bd 2f8c 393d c426 55bd 194e 94bc
00000080: 733a 4fbe b14a a6be be8d d3bd 380f 883b
00000090: 84c1 a6bd 89d1 b1bd 94a4 843d cd6f 91bd
000000a0: 89f1 d6bd 91fe 29be 2c86 c4bd e8ad 8fbc
000000b0: 3296 8cbd 0e7b b3be dcfb 54be 3449 85bc
000000c0: 523e b9bd ba65 483d f53b 73be 002c 773a
000000d0: 20f0 38bb 6c1c b9bd 3217 b0be 695c eb3d
000000e0: eeaf c9bc f2ba 41be bfea eebd 27ac 16be
000000f0: 4894 26be 988a d3bb 0461 6ebc 35b4 dbbd
00000100: 1c5d 35be 94af b9be 262f debe 68b4 a6be
00000110: bce2 89be 421d 9f3c 74d9 01bd e031 fc3b
00000120: a107 933d 0dcc 52be 4b97 4abd 4694 b4be
00000130: 583b 52bd 9d31 d2bd 2b28 49bd abd5 2fbe
00000140: 357c 513c 1112 c1be 110c 5abe 6d1c 3abe
00000150: 6195 cdbd eee8 c8bd 55cc ce3b 7f22 713d
00000160: c10e c7bd d807 bdbc cc64 f03d d6dd 45be
00000170: fab6 30be 672b fcbd 227f 6f3d 28c4 edbe
00000180: 4178 a9bd 44a5 49be 3896 53bd 6a5d 263e
00000190: 481f 45be 4160 debd dc7e 8ebd ed8d 41bd
000001a0: 2ea4 9ebe d4f6 bebe 2283 06be 0604 473d
000001b0: f96c 14be de44 f03b 9fd9 a7be 24a6 f23c
000001c0: ad85 d1be fde3 88be e16a 98be fad1 743d
000001d0: 8054 e33a 3cc1 e9ba 20a6 17bb 9cc5 63be
000001e0: 3051 3dbe fea6 5ebe 562f 00be 725f 903d
000001f0: 17c3 fdbd d5ee 2e3d 7f7c 39be 5b31 d83d

functional_11_1/batch_normalization_15_1/batchnorm/mul:0 f4 [128]
1.4931635 1.3808473 1.4866434 1.5262263 1.4694697 1.5058135 1.3526193 1.6194371
1.527576 1.5728081 1.4035331 1.494062 1.4522166 1.6000426 1.4762523 1.6397734
1.5613433 1.3555973 1.6205784 1.4931635 1.4776351 1.4931635 1.5403945 1.4227326
1.3360415 1.3636187 1.4884281 1.4599115 1.5580201 1.5370083 1.4931635 1.4931635
1.4833206 1.392759 1.2225384 1.4802516 1.526008 1.4145211 1.4931635 1.4433125
1.4676791 1.4222584 1.4605249 1.4287498 1.4568208 1.3928008 1.4136204 1.4898835
1.45274 1.4931635 1.5367651 1.4881666 1.3851161 1.5866764 1.3942404 1.3761109
1.5966895 1.4201566 1.4931635 1.6239812 1.5926514 1.5443571 1.3764478 1.3574927
1.5207238 1.5424155 1.5697511 1.6214585 1.4133044 1.5430076 1.5884341 1.5332924
1.4035232 1.4515551 1.4006441 1.4317992 1.429256 1.4194877 1.382698 1.4792017
1.4449626 1.7030327 1.3847309 1.5776054 1.400104 1.6612912 1.4931635 1.5528733
1.4316925 1.517987 1.533494 1.5254669 1.5387 1.4249476 1.4931635 1.5748858
1.3568193 1.5051 1.4121732 1.4278196 1.4534271 1.5406353 1.6507165 1.4931635
1.6014798 1.3024236 1.3014675 1.4931635 1.4948245 1.4036801 1.4524064 1.3144912
1.3715638 1.3891842 1.542402 1.4508637 1.4378678 1.5207225 1.4931635 1.5715122
1.5190907 1.7267555 1.4407667 1.3715225 1.5276655 1.3755672 1.4239683 1.3450893
00000000: fb1f bf3f 9bbf b03f 554a be3f 625b c33f
00000010: 9517 bc3f 7fbe c03f a122 ad3f b749 cf3f
00000020: 9c87 c33f c751 c93f f9a6 b33f 6c3d bf3f
00000030: 3ce2 b93f 32ce cc3f d6f5 bc3f 18e4 d13f
00000040: 19da c73f 3684 ad3f 1d6f cf3f fb1f bf3f
00000050: 2623 bd3f fb1f bf3f a62b c53f 1a1c b63f
00000060: 6803 ab3f 0f8b ae3f d084 be3f 61de ba3f
00000070: 346d c73f b0bc c43f fb1f bf3f fb1f bf3f
00000080: 73dd bd3f ed45 b23f 237c 9c3f e278 bd3f
00000090: 3b54 c33f 070f b53f fb1f bf3f 77be b83f
000000a0: e9dc bb3f 900c b63f 7bf2 ba3f 46e1 b63f
000000b0: 1b79 ba3f 4c47 b23f 83f1 b43f 81b4 be3f
000000c0: 62f3 b93f fb1f bf3f b8b4 c43f 3e7c be3f
000000d0: 7c4b b13f 3618 cb3f 7876 b23f 6724 b03f
000000e0: 5260 cc3f b1c7 b53f fb1f bf3f 9ede cf3f
000000f0: 00dc cb3f 7ead c53f 712f b03f 52c2 ad3f
00000100: 14a7 c23f df6d c53f 9bed c83f f48b cf3f
00000110: 29e7 b43f 4681 c53f cf51 cb3f ed42 c43f
00000120: a6a6 b33f 8fcc b93f 4e48 b33f 3245 b73f
00000130: dcf1 b63f c6b1 b53f 40fc b03f 7b56 bd3f
00000140: 89f4 b83f fafc d93f dd3e b13f f9ee c93f
00000150: 9c36 b33f 31a5 d43f fb1f bf3f 8dc4 c63f
00000160: b341 b73f 664d c23f 8849 c43f 8042 c33f
00000170: 1ff4 c43f af64 b63f fb1f bf3f dc95 c93f
00000180: 41ac ad3f 1ea7 c03f 17c2 b43f cbc2 b63f
00000190: e609 ba3f 8a33 c53f ae4a d33f fb1f bf3f
000001a0: 4afd cc3f d1b5 a63f 7d96 a63f fb1f bf3f
000001b0: 6956 bf3f caab b33f 74e8 b93f 3f41 a83f
000001c0: 678f af3f cad0 b13f 6e6d c53f e7b5 b93f
000001d0: 0d0c b83f 09a7 c23f fb1f bf3f 5027 c93f
000001e0: 9071 c23f 5306 dd3f 0b6b b83f 0d8e af3f
000001f0: 8b8a c33f 9612 b03f 9844 b63f e32b ac3f
