models/Vransko/speed/Vransko_speed_model.onnx (onnx, 61043 bytes, 13 tensors)

functional_3_1/dense_7_1/Cast/ReadVariableOp:0 f4 [32, 1]
00000000: 3ba1 07be 7c8a 9cbd f0d8 09be b8b2 c53c
00000010: 17a1 dabd 0e81 d6bb 39d5 c33d 85a3 363b
00000020: 8f81 0d3d 9ad9 40be 4e02 a43d 056a 27bc
00000030: 1b77 3f3d b5aa 0dbd 5d6d 44bd 7f67 ce3d
00000040: f6eb 863c b4bd e93d c551 3abd c173 ae3b
00000050: 947a c43d a856 a0bd 5654 ed3c 8579 713d
00000060: 8d58 c1bc f212 4e3d 6657 b23c 6a7b c13c
00000070: 4745 4f3d d92f d0bd 8f3a 523d a2d2 a3bc
-0.13245098 -0.07643601 -0.13461661 0.024133071 -0.10675257 -0.0065461462 0.09562153 0.0027868461
0.034547385 -0.18833008 0.08008252 -0.010218148 0.046744447 -0.034586627 -0.04795586 0.10078334
0.016469937 0.11413136 -0.045488138 0.0053238575 0.095936924 -0.07829028 0.028970879 0.05895378
-0.023601795 0.050311036 0.02177019 0.023618419 0.050603177 -0.10165376 0.051325377 -0.019997898

functional_3_1/dense_6_1/Cast/ReadVariableOp:0 f4 [64, 32]
00000000: 70ab 463e 6a47 903d 1ac7 fd3c bc88 b53d
00000010: 82fc 813e e5ce a4bd 6f05 8d3e 6687 3dbe
00000020: 0d87 e0bc c260 b03d 9001 1ebe 5499 bdbe
00000030: 6d65 04be 503a 23be 5378 7ebb 9caf 323e
00000040: 6905 4a3e a12f 95be 762c 9f3c 00f9 2b3e
00000050: f7d8 8f3e 098a 86be 0d28 563e 121a 53be
00000060: 17d4 a0be e7ed a03e 0e78 293e e119 cfbc
00000070: ece7 b7bd af1f 183e 782b a9bd 9fbc 08be
00000080: 965a ab3e 1cc7 e0bd c625 033e 4301 c33d
00000090: 115b 5abe 9e16 923e 255a f4bd 7886 00be
000000a0: 6301 4c3e be49 563d ca56 aabd 07c9 1d3e
000000b0: 3dbd 333e 9b3c 153c c88d 5bbe 325b 0a3e
000000c0: bf22 47be 80f0 8bbd 0a97 38bd f4c1 4ebe
000000d0: db38 72be 1e5f 5cbe 95c0 1c3d 6861 4f3d
000000e0: 1d84 5e3d f3b9 03be 5373 b13d 8f77 433e
000000f0: 3a52 803e cedf 86be 3968 853e 3ef6 7cbd
00000100: cf5d 6abd 9c14 4bbd ec2a a63c 8169 80bd
00000110: a2b1 303e c20d 913e 99d0 5ebe 3457 783e
00000120: b131 05be b154 adbb 5ace 373e 64e2 7cbe
00000130: 134f 8a3e b58b 1d3e 5744 27bc e18d 193d
00000140: a457 fb3d 8981 76bd f4cc 4cbe 7d10 23be
00000150: 7382 433e 7c2f a33d 1078 7dbd 7ec6 703e
00000160: 5e6d 9ebe b050 89be 8fab 4dbe b267 d73d
00000170: 51f7 093e b1f0 4c3d e7a8 e7bc 13c2 2abd
00000180: dc6a 033e 6140 a7be 0802 5bbe ad68 cfbc
00000190: d5dd 9c3e 2b87 823e 3e0f 5e3e 917b 2abe
000001a0: fb2c fbbd 3cd3 3cbe 08e6 3fbe bb5b 35be
000001b0: b2af 62be 4038 4bbe bba0 81be 1e6e aebd
000001c0: 562b 803e 5baf 283e 243e 92be c8e5 8abd
000001d0: 316a 043e 5040 6a3e 15a1 29bd bc24 923e
000001e0: 52dd 2d3e 25f2 8a3e 13fe ab3d 294b 693e
000001f0: 6028 a9bd aef5 493e ba3b 12be ee40 2b3d
00000200: 5c9d 173e 01c3 c9bc dbed 3f3e ddf7 f43c
00000210: cbbd 36be 7af2 533d a708 f63d 32bd 12be
00000220: 74f6 9f3d ae92 8cbb c628 fe3c e2ee 623b
00000230: fed3 e5bd 5afe 783e a435 253e 0d15 3a3e
00000240: 401a 00be 8ed8 4f3d 39f5 60be 5042 38be
00000250: 0696 8ebd b5ba f3bd ee69 59be f2c7 82bc
00000260: 0f06 213e 61cd 2d3e 3cef 8f3d 5c05 123d
00000270: 2db3 6d3d b5ca 053e 859e 61be cf05 213e
00000280: 2892 8abd e82b c0bd 3204 e33d 67a7 b63e
00000290: af6b 173d 53db 23be fc1c 11bc 8db5 753e
000002a0: b4fc 2bbe c65a d43d c60d 37be 2c99 3abd
000002b0: aa08 6f3e ff15 76bd 1d2f a23e f4f0 a13d
000002c0: d832 013e b816 063e a79e 36be ecd5 82bd
000002d0: 1da2 82bd 47c1 67be 66a7 eabd 887f 0f3d
000002e0: 45aa 39be 88b6 f13c 7545 e5bc dab3 243e
000002f0: 6b20 06be fe27 8b3c 4e86 353e 5dcc 5a3e
00000300: 2df5 24bd a1c4 993e 0dc5 ad3e 8055 593e
00000310: f679 0f3e 8f56 003e 5baf b13d e434 17bd
00000320: 0779 673d 7d78 513d b5f5 273e f7ab 13be
00000330: 2da1 6c3c 8ddf 4e3e 9428 e53d 7349 cfbd
00000340: d897 21be fdc8 bc3d 5ec7 90bd b2eb cabc
00000350: 93e9 e3bd dffb 86bd 1358 30be 19e0 a53d
00000360: e817 d9bc 2d46 72be e5f1 8f3e 7de0 5fbc
00000370: 5420 9cbd ef7e 3ebe 4003 f13c 9d15 453e
00000380: 801b 35bb 90c1 b23d d7f1 73bd b30e bf3d
00000390: 19da 363e 5f1e 113e c6a6 1ebc 40ba 9a3b
000003a0: c38a a93b 594b c6bd c0ef 41bd d266 033e
000003b0: 8789 25bd 5373 a5bb c8a1 533e 7b4c 1d3c
000003c0: 47ce 60be 930b 0b3e a89f 56be d9e0 5b3e
000003d0: 1ee6 c9bd d5ab 1f3e 04aa 923e c246 d33c
000003e0: 0134 9f3e de85 093e a8ac 15be d4c7 e9bd
000003f0: 0962 c2bd a5ac 1ebe fd38 a33c 4b24 3ebe
0.19401336 0.07044871 0.030978728 0.08863971 0.2538796 -0.080472745 0.27543208 -0.18508682
-0.027408147 0.08612205 -0.15430284 -0.37031043 -0.12929316 -0.15940213 -0.0038829043 0.17449802
0.19728626 -0.291379 0.01943038 0.16794205 0.2809522 -0.26277187 0.20913716 -0.20615414
-0.31411812 0.31431505 0.16549703 -0.025280895 -0.089797825 0.14855836 -0.08260244 -0.13353203
0.3346755 -0.10975477 0.12807378 0.09521725 -0.21323802 0.2853288 -0.11931256 -0.12551296
0.19922404 0.05231642 -0.08317335 0.15408717 0.17552657 0.009108688 -0.21440804 0.13511351
-0.19446848 -0.06832981 -0.045065917 -0.20191175 -0.23654501 -0.2152066 0.038269598 0.050630003
0.05432521 -0.12863903 0.086645745 0.19088577 0.25062734 -0.26342624 0.26056078 -0.061758272
-0.05721837 -0.0495802 0.020284139 -0.06270123 0.17255262 0.2833081 -0.21759261 0.24252015
-0.13007237 -0.005289637 0.1794981 -0.24695736 0.27013454 0.15385325 -0.010209165 0.037488822
0.122725755 -0.060182128 -0.20000058 -0.15924259 0.19092731 0.07968041 -0.06188208 0.23513219
-0.30942816 -0.26819372 -0.20084976 0.10517825 0.1347325 0.05003423 -0.028278781 -0.04168899
0.12833732 -0.32666305 -0.21387494 -0.025318468 0.30637994 0.2549375 0.21685502 -0.166487
-0.12264439 -0.18439955 -0.18740094 -0.17710774 -0.22137335 -0.19845676 -0.2531794 -0.08517097
0.25033063 0.16473143 -0.28563035 -0.067821085 0.12931134 0.22876096 -0.041413385 0.2854365
0.16978958 0.27137867 0.0839807 0.22782578 -0.08259654 0.19722626 -0.14280596 0.04180997
0.14806122 -0.024629118 0.18743078 0.029903347 -0.17845838 0.051744916 0.12013369 -0.14329985
0.07810679 -0.0042899465 0.031025302 0.0034627249 -0.11222075 0.24315777 0.16133744 0.18172093
-0.12510014 0.050743632 -0.21968545 -0.17994046 -0.069622084 -0.11900846 -0.21231815 -0.015964482
0.15724967 0.16972877 0.07028052 0.035649642 0.058032203 0.13065608 -0.22033127 0.15724872
-0.06766158 -0.093833745 0.110847846 0.35674593 0.03696793 -0.16001634 -0.008857008 0.23995037
-0.16795617 0.10368876 -0.17876348 -0.045556232 0.23343149 -0.06007957 0.3167657 0.07907286
0.12617052 0.13094604 -0.17833959 -0.063884586 -0.06378577 -0.22632323 -0.1145771 0.035033733
-0.18131359 0.029505983 -0.027987221 0.16084233 -0.13098304 0.016986843 0.17727014 0.21367021
-0.04027288 0.30032828 0.339394 0.21224022 0.14011368 0.1253302 0.086760245 -0.036915675
0.056511905 0.051140297 0.16402324 -0.14421068 0.014442724 0.20202465 0.1118938 -0.10121431
-0.1578058 0.09218023 -0.07069276 -0.024770591 -0.11128535 -0.06591009 -0.17221098 0.08099384
-0.026500657 -0.23659582 0.28114238 -0.013664362 -0.076233536 -0.18603109 0.029420495 0.19246526
-0.00276348 0.08728325 -0.05955681 0.093289755 0.17856635 0.14171742 -0.009683317 0.0047219098
0.0051740124 -0.0968234 -0.047347784 0.12832192 -0.04041436 -0.005049148 0.20667183 0.009600754
-0.21953689 0.13578634 -0.20959342 0.21472491 -0.098583445 0.15592892 0.28645337 0.025790576
0.31094363 0.13429973 -0.14616644 -0.11415067 -0.09491355 -0.15495546 0.019924635 -0.18568532

functional_3_1/dense_6_1/Add/ReadVariableOp:0 f4 [32]
00000000: 23ea fa3d 337c 89bd e25c b0bd 9b57 5a3d
00000010: ee16 83bd 4f0c d13d c9d5 1e3b 3a8a bb3d
00000020: 5eaa 3d3c 6180 8c3d 111b 97bc 57e6 babd
00000030: 8e3d cfbc 8330 8d3d 7e30 ca3b c668 f3bc
00000040: 293c 03be a8c5 833c 4514 ab3d dc88 2f3c
00000050: aaed 1f3d 6f72 f1bd 083c 7bbd 004a c33c
00000060: f7b3 d1bc bba6 753d b419 21bc be69 353d
00000070: ee9a afbd 2513 cbbc 8539 b53d 0bb8 1ebd
0.12251689 -0.06713142 -0.08611466 0.053306203 -0.06400858 0.10207426 0.0024236313 0.09157224
0.011576263 0.06860424 -0.018445523 -0.09125965 -0.025297906 0.068940185 0.0061703315 -0.029713046
-0.12815918 0.01608546 0.083534755 0.010713782 0.039045013 -0.117894046 -0.061336547 0.023838997
-0.02559851 0.05997346 -0.009832788 0.044290297 -0.08574472 -0.024789402 0.088488616 -0.038749736

functional_3_1/dense_5_1/Cast/ReadVariableOp:0 f4 [128, 64]
00000000: 34ff 2abe 4150 cdbd c84e 1cbd a5c9 5d3d
00000010: 1c53 823e 4860 12be 579b 053e 9694 71be
00000020: ca8f 8dbc f249 3dbe 992b b0bd 4a73 2b3e
00000030: 8db2 1cbd 74bd 233e 83de 723d d23f 9d3b
00000040: a341 fbbd 9aa9 6e3e 70fa 0dbe 63a5 e9bd
00000050: aba4 ebbc bc87 8cbd f67e 253e 5d32 06be
00000060: 9120 43bb 1ce4 edbd b5bb 2f3d 915a 57bd
00000070: d9b8 963d aa73 173c 5f0c b2bc 1abb 033e
00000080: 5b91 56be a360 403e 8a05 1c3e f170 9dbd
00000090: e72f 6ebd 2a45 893d 13a6 61bc 4752 55bd
000000a0: 9714 e63d 22a6 b2bc 66d2 e7bd 26f6 343e
000000b0: a224 343e c35f a83d efc7 823d 4db3 b03d
000000c0: 29e2 4abc 5747 debd bcf1 ef3c 98bd 933c
000000d0: 7823 623c cf26 043e 2a9c b9bd 11d4 ac3c
000000e0: e590 193e 3e50 993e 35c9 b83b 7e25 6c3d
000000f0: f14b d93d da25 f5bd a048 34be 461a f8bd
00000100: 4739 033d 07a0 af3d 5843 fe3d 324d fb3d
00000110: 2c9b 523d b4de e2ba 1790 c23b b21a 413d
00000120: ed10 2bbe 01a7 193e eddd 603d 5354 e33d
00000130: a060 2a3d 6cf0 e63d fd9a 84be 36c5 83bc
00000140: 7dbd 8c3d 17c7 2fbe 0dce 2f3d 9393 dabd
00000150: 0e86 c5bc e154 76be c3c0 103e 6855 e93d
00000160: 16f2 0ebc a276 76bd fceb 1bbe 8f41 e03d
00000170: 9298 a0bc 3181 49be 3772 50be cc10 94bd
00000180: f9f8 14be 47c3 16be 2bc1 103e b36c e13d
00000190: d3e6 95bd 0a3f 82bd 8c0d 993d b044 393e
000001a0: 187e bdbd 2909 76be a6a8 a7bd f19e 06be
000001b0: ceeb 31bd 6ca9 4fbe 23c6 95bd c8ab aaba
000001c0: df01 8e3d f37b 053d 6824 25bd 2dd2 c83d
000001d0: 1f16 85bd ff9d 75be ebce 43bd 0b29 52bb
000001e0: be70 85bd 06eb a93d 561d 443e dd8e fbbd
000001f0: fa73 1fbe cbac 89bd 343c 26bd e580 433e
00000200: 6873 e43c 7be9 993d 9713 18be fc6e 32be
00000210: e9a9 b3bc 90a4 0abe 2d49 853c ea18 f5bc
00000220: 05f9 483c 9f91 71be c2a2 f9bd 850e 0bbd
00000230: 16fe 40bd 8fea a03d adaf c43d 3235 e1ba
00000240: 9b03 913e e299 d5bd 8280 c73c b96e 1abd
00000250: 914b dbba 857f 1b3e 4576 48be 4d5b 023e
00000260: 3f77 4cbe af8e c6bd fa84 0abe 2bcc 4cbe
00000270: 1f52 903d b0e2 943a 78e4 5d3e 00b9 813d
00000280: a270 87bd 6f0e 23bd b093 87bd 1aa7 07be
00000290: d57b 4ebe c4c6 af3e b655 af3d c67c 823d
000002a0: 5027 9bbd 3b87 06be b310 573d 526f 5c3e
000002b0: 0504 8abd f924 b33d fba0 4b3e 92e8 62bd
000002c0: 8bba 9bbd 6a1b f9bd 583a f8bd 26f3 c03d
000002d0: 6350 acbd 2b23 923d f319 193e bd42 b83c
000002e0: f4c8 3a3d 2020 80be bc6e 5abd b19a 083e
000002f0: 8f4b 0a3e cc9b 79bd 4cfd 913d 2809 b6bd
00000300: 4c2b dfbd 7de7 d9bd 1776 0ebe 5883 303d
00000310: 605a 253d a5d1 92be da92 84be fab3 9a3d
00000320: f3ce f63d c717 3e3e 2c81 123d 0cdd 94bc
00000330: c168 cf3d f1df e63d 20ea 4e3c 8f19 4cbe
00000340: a0e9 7fbd bfc7 71be 22a8 353e f232 1c3d
00000350: fbb3 2d3d c7e7 2bbe 92e4 17bd afeb 47bd
00000360: 4d59 443d a587 f63d 62c2 7abc 5cbc fe3c
00000370: 613f b43d 7a2c 43bd 9320 233e f471 683d
00000380: ee0e 27bd 5d3a de3c f38a 5bbd 9303 543e
00000390: 2d71 05be 22d4 82bd 45cb 68bd 65f2 45bd
000003a0: d3e0 f63c e68a 9dbd cc3f 17bd f947 18be
000003b0: 9a2f 97ba 3ebd 363e 4342 3ebe 7b52 bebd
000003c0: 1413 623e 6a23 ed3b 3d17 92bd 5d50 58be
000003d0: abaa 17bd cc85 4d3d a651 1a3e 431d 0dbe
000003e0: 8ed1 9a3d 0d9e c7bc 45b9 7bbd 2a65 e93c
000003f0: e597 493d 09bd 203e 7a96 203e 7004 58bd
-0.16698915 -0.10025073 -0.03816107 0.05414738 0.25454032 -0.14294541 0.13047539 -0.23591837
-0.017280478 -0.18485239 -0.086020656 0.16743198 -0.038256217 0.1599024 0.059294235 0.0047988677
-0.122683786 0.23306885 -0.13865066 -0.11408498 -0.028765043 -0.06861827 0.16161713 -0.1310515
-0.002977405 -0.11615774 0.04290362 -0.052576605 0.07359476 0.009243885 -0.021734415 0.12864342
-0.20953886 0.18786864 0.15236488 -0.076875575 -0.058151152 0.06702645 -0.013772505 -0.05208042
0.11234396 -0.021807734 -0.11319427 0.17672023 0.175921 0.0822139 0.063857906 0.08627949
-0.012383022 -0.10853451 0.029290073 0.018034741 0.013802402 0.1290543 -0.09062989 0.021097215
0.14996679 0.29944032 0.00563922 0.057652943 0.10610188 -0.1197011 -0.17605829 -0.12114386
0.032037046 0.08575445 0.124151886 0.12270583 0.051417515 -0.0017308802 0.005937587 0.0471446
-0.16705675 0.15005113 0.054899145 0.11100068 0.041596055 0.112763256 -0.25899497 -0.016085248
0.068720795 -0.1716579 0.042921115 -0.10672679 -0.024111774 -0.24055816 0.14136033 0.11393243
-0.00872471 -0.06017173 -0.1522674 0.10950004 -0.019604001 -0.19678189 -0.2035607 -0.07229766
-0.145481 -0.1472293 0.14136188 0.11007061 -0.07319417 -0.0635968 0.07473287 0.18092608
-0.09252566 -0.24026932 -0.08186464 -0.13146569 -0.04343777 -0.20279473 -0.07313182 -0.0013021166
0.06933951 0.03258891 -0.040317923 0.09805713 -0.0649836 -0.23986052 -0.047804754 -0.003206792
-0.065156445 0.0829678 0.19151816 -0.122831084 -0.15571585 -0.06722411 -0.040584758 0.19092138
0.027887061 0.07515236 -0.14851223 -0.1742515 -0.021931605 -0.13539338 0.016270244 -0.029919107
0.012266402 -0.23590706 -0.12189247 -0.033949394 -0.047117315 0.078572385 0.0960382 -0.0017181991
0.28323063 -0.104297414 0.02435327 -0.03770325 -0.0016730895 0.15185364 -0.19576366 0.12730141
-0.19967364 -0.096951835 -0.13527289 -0.19999759 0.07046913 0.0011359062 0.21669185 0.06334114
-0.0661328 -0.039808687 -0.06619966 -0.13247338 -0.20164426 0.34331334 0.0856127 0.06371455
-0.07575858 -0.13137524 0.05250616 0.2152684 -0.06739048 0.08747286 0.19885628 -0.055397578
-0.076039396 -0.12163432 -0.12120503 0.09421377 -0.0841377 0.07135614 0.14951305 0.02249276
0.0456018 -0.2502451 -0.05332826 0.1334026 0.13505386 -0.060939595 0.07128391 -0.08888465
-0.1089693 -0.10639856 -0.13912235 0.04309401 0.04036939 -0.2867557 -0.2589329 0.07553859
0.12051191 0.18563758 0.03576772 -0.01817181 0.10127402 0.11273182 0.012629062 -0.19931625
-0.06247866 -0.23611353 0.17739919 0.038134523 0.04240797 -0.16787635 -0.037083216 -0.04880875
0.047936726 0.12037591 -0.015305134 0.031095676 0.08801151 -0.047649838 0.15930395 0.0567493
-0.040785722 0.02712744 -0.05359931 0.20704488 -0.13031454 -0.063881174 -0.056834478 -0.04832687
0.030136501 -0.076925084 -0.036926076 -0.14871205 -0.0011534572 0.17845628 -0.18579964 -0.09293076
0.2207759 0.0072368877 -0.071333386 -0.21124406 -0.037027996 0.050176427 0.15070209 -0.13780694
0.07559501 -0.024367357 -0.061455984 0.028490622 0.049217124 0.15697111 0.15682402 -0.052738607

functional_3_1/dense_5_1/Add/ReadVariableOp:0 f4 [64]
00000000: 6ef5 893c 5277 c53c 57ce 193d 956f a8bb
00000010: 56eb c7bd d2fe b53d e8ab c2bd 7c4f 96bb
00000020: 4e36 d63d 216c 613d 9e1c bbbd 0186 e4bd
00000030: 14f2 663d fb4c 9f3d fe39 b13d ca7a c53d
00000040: 1a97 bb3c dc00 51bd 7c58 cdbd ea2f 47bd
00000050: acb9 d43d d6a8 9d3d 0812 443d 2f11 b1bd
00000060: f423 573c 43b0 583c 5816 debc 9e96 e43c
00000070: 9972 35bd 5f67 543c 1f10 02bc d669 fabd
00000080: b67e c8ba dc53 00be 7972 26bd c56b 653c
00000090: 05ff ce3d f7e3 d8bc 4de2 cdbc d797 72bd
000000a0: 78aa 683d 997b 603c 8bbf 00be c4fa bb3d
000000b0: db5c 663d 77c0 283d afce d9bd 2dd9 2ebd
000000c0: 296a b13d 92b5 0abd bf83 6b3b 394f 283d
000000d0: 41a7 cebd b28f 12bd bccf adbc aa49 503d
000000e0: 7e02 9bbd 535f 93bd 25f6 9d3d 730d 0a3c
000000f0: 57e7 563d b290 8ebd 1f2e 133d 73b0 f0bd
0.016840663 0.024104748 0.037550297 -0.0051402547 -0.09761684 0.08886494 -0.09505445 -0.004587112
0.104595765 0.05503476 -0.09136318 -0.11158372 0.056383207 0.07778355 0.08653639 0.09642561
0.0228992 -0.05102621 -0.10026643 -0.04862968 0.103869766 0.076982185 0.04786876 -0.08645856
0.0131311305 0.013225618 -0.027110264 0.027903851 -0.044298742 0.012964099 -0.007938414 -0.12227218
-0.0015296552 -0.1253199 -0.040636513 0.014002745 0.10107235 -0.02647589 -0.025132323 -0.059226837
0.056803197 0.013701343 -0.12573068 0.09178689 0.056240898 0.041199174 -0.10635125 -0.042687584
0.086628266 -0.033864565 0.003593668 0.041091178 -0.10090495 -0.03578157 -0.02121722 0.0508515
-0.07568835 -0.07195916 0.07712964 0.008426058 0.052466717 -0.06961192 0.035932656 -0.11752405

functional_3_1/dense_4_1/Cast/ReadVariableOp:0 f4 [26, 128]
00000000: be72 10be ee36 983d a789 473e 2244 d7bd
00000010: 76a2 32be e096 f4bd 50a6 90bc b216 a63d
00000020: 70bc d33c 3475 2bbd 788b 4cbd 7cd8 50bd
00000030: b892 cfbd c369 98bd 4bf2 c0bd a22d c73d
00000040: 06fe 0dbe 7cc5 253d 96d7 a03d 4f46 38be
00000050: b46c 773d 70a6 1dbe 8e4f 20be 50da 2b3d
00000060: 8377 163e f260 c83d 2268 833d 2617 9c3d
00000070: 7450 c2bd 5f90 323e 5c86 283d 0a18 ea3d
00000080: 9813 1abd c886 42bd 65d6 3d3e 2920 44be
00000090: a93a 35be 7c78 d9bd 7889 e5bc cd48 e8bd
000000a0: 3a1b 35be 9ca7 3dbd 3500 063e 8c76 523d
000000b0: 409d d3bc 541e 9abd 3d70 323e 16b5 19be
000000c0: 3ab7 bd3d 57c3 17be f0e7 30bc 01b0 423e
000000d0: b8ad 9abc 84a5 15be 47b9 413e f03c e13c
000000e0: 144e 1b3d 61d5 3e3e afcd 0ebe 6df9 37be
000000f0: 7797 073e c88a c2bd aefa a83d 2a26 fe3d
00000100: 8811 893c ccbc 553d fae9 c0bd e210 a5bd
00000110: a658 0dbe eec6 dd3d 1d8d 213e f693 bc3d
00000120: 05cf 14be b2c4 973d bb44 2d3e f2b0 933d
00000130: 80f4 bd3c f6f8 dd3d f28a dd3d f011 2c3c
00000140: 9032 223d 0d96 2a3e 8b96 10be 465d 07be
00000150: b5cb 1a3e 680a 00be 5ab5 ce3d 2ea1 a43d
00000160: 0672 0abe ca70 e83d ded0 bebd f3fe 1f3e
00000170: 088d a5bc e290 0cbe 82c4 05be b445 ffbd
00000180: cb11 3bbe 63a1 1f3e 1a4e 8b3d c457 92bd
00000190: 2601 fbbd c5ca 07be c0b9 813b 4246 09be
000001a0: 3b80 38be 086b 29bd b801 2f3d 93df 443e
000001b0: 72e7 b33d 48a9 ffbd 20d4 343d 2c8c a2bd
000001c0: 4a93 cc3d 99f0 443e 6062 503c c88d 89bc
000001d0: 644c 143d f780 363e 7860 1f3d 807c fdbb
000001e0: 4424 6bbd dc73 703d 8e39 1abe d578 233e
000001f0: 7f86 083e ccc0 0e3d 9f2b 223e 2039 2cbe
00000200: 1346 08be a2bd 383e d685 2b3e fbbe 0dbd
00000210: eefb 8ebe 781f 203e 74a2 413d 0a4b f8bd
00000220: 289d 93bd 36b6 04be d7fc 723c 8787 483e
00000230: 513c 67be 534c debd 7af5 61bd 9b91 da3b
00000240: c355 10bd eeba 603e 8e22 ce3d a6ac b8ba
00000250: a36c 873d bc93 01be 8f7b 2bbd 331d dd3d
00000260: 9ec4 7e3d ab8e e1bd e67c 8c3e 4012 003e
00000270: 8bfd b1bd d861 e8bd 84f6 08be 05c7 383e
00000280: 8b6d 1abe 9bef 513e e908 b23d 3bc0 f1bd
00000290: e009 53bd 73d2 4fbe b0fb 09bc ebd6 7abe
000002a0: 42c7 b03d 791a 33be 2866 10bd 8746 dd3c
000002b0: 80e1 aebd 746e 99bb f907 1ebe 9aec 053e
000002c0: f962 1f3d 4114 233e 73b3 a6bd b0dc a73c
000002d0: 9523 063e 195a a93d 12b2 33be dce1 2abe
000002e0: e851 2ebe ff27 31be c8c9 913d fcca 863a
000002f0: faea b1bd cf06 1a3d 017f da3c b0c5 febc
00000300: f049 1c3d e51e 1d3e 7a97 84be 81f6 72be
00000310: 32fd 82be e09f ef3a d063 5d3e 278d 793e
00000320: b835 bcbc 8336 54bd 551a 2ebd 1904 f93c
00000330: 8d47 203e 17ba a23d 08a2 2bbd 1d0b 23be
00000340: 83c0 cbbd 5dc6 39bd f7fe a9bc 1fb7 adbc
00000350: db8a cb3c e3e6 c0bd e360 c23d dfb9 d6bd
00000360: 7752 c7bd b755 c2bd 2324 153d e29a 90bd
00000370: 3ad7 a2bd cbce abbc 1eb6 3b3e a38d 133d
00000380: a66f a8bd 18fc 4b3e 0421 0d3e 07db 37bd
00000390: a902 e6bd ec7b 76bd 0ccb 4c3e f3bc 19bd
000003a0: 3a2c 423e 9e7d b4bc 2d87 163e 68d8 9cbd
000003b0: 98d5 05be ed16 ba3d b434 fcbd 0baf edbd
000003c0: 0868 e1bd 42b6 ccbc 9993 403e db8f fabd
000003d0: 2af5 4fbe 82b8 7bbd 4737 51be 9637 aa3d
000003e0: bc2c b6bd 402a fbbd e250 cebc 453f 043d
000003f0: 85f9 043e 5f60 c3bc 0d6a 30be 1318 693e
-0.1410627 0.07432352 0.19486104 -0.10511042 -0.17444786 -0.119428396 -0.017657429 0.081097975
0.02584669 -0.04185982 -0.049937695 -0.050987706 -0.10135406 -0.074420474 -0.09421214 0.09725501
-0.13866434 0.04047154 0.0785362 -0.1799557 0.0604064 -0.15395522 -0.15655348 0.041956246
0.14694028 0.09784116 0.06416346 0.07621603 -0.094880015 0.17437886 0.04114376 0.11430366
-0.037616342 -0.04749182 0.18538816 -0.19152893 -0.17698158 -0.10618684 -0.028019652 -0.11342011
-0.17686167 -0.046302423 0.13086016 0.051382586 -0.025831819 -0.07525316 0.17425628 -0.15010485
0.09263463 -0.1482061 -0.010797486 0.19012453 -0.018881664 -0.1461392 0.18918334 0.027494878
0.037916258 0.18636085 -0.1394565 -0.17966242 0.13241373 -0.09499127 0.08250938 0.12409623
0.016731992 0.052182004 -0.094196275 -0.08059861 -0.13803348 0.108289585 0.15776487 0.09207909
-0.14532097 0.074105635 0.1692075 0.07211484 0.023187876 0.10838501 0.10817517 0.0105023235
0.039599 0.16658802 -0.14119928 -0.13219175 0.1511677 -0.1250397 0.10093184 0.08038555
-0.13520059 0.11349638 -0.09317182 0.15624599 -0.02020885 -0.13727143 -0.13063243 -0.12464467
-0.18268506 0.15588908 0.06802006 -0.07145646 -0.122560784 -0.13260944 0.0039589107 -0.13405707
-0.18017666 -0.04136184 0.04272625 0.19225912 0.08784379 -0.1248346 0.04414761 -0.07936892
0.09989031 0.19232406 0.012718767 -0.01679124 0.036205664 0.17822634 0.03891036 -0.007735789
-0.057407632 0.058704242 -0.15061018 0.15964063 0.13332556 0.034851834 0.15836953 -0.16818666
-0.13307981 0.18041089 0.16750273 -0.03460596 -0.27926582 0.15637004 0.047274068 -0.121236876
-0.072077096 -0.12960133 0.0148307895 0.1958295 -0.22581603 -0.108544014 -0.055165745 0.0066701896
-0.03523804 0.21946308 0.100651845 -0.0014089539 0.06612518 -0.12654012 -0.04186588 0.10796585
0.062199228 -0.1101354 0.2743904 0.12506962 -0.086909376 -0.11346787 -0.13375288 0.1804467
-0.1508085 0.20501558 0.08693106 -0.11804243 -0.05152309 -0.20295124 -0.008421823 -0.24496047
0.086317554 -0.17490567 -0.035253674 0.02701117 -0.085391045 -0.0046823565 -0.15432729 0.13078538
0.038912747 0.15925695 -0.08139696 0.020490974 0.13099511 0.08269138 -0.17548397 -0.16687721
-0.17023432 -0.17300414 0.07118565 0.0010283883 -0.08687396 0.03760415 0.026671888 -0.031100124
0.03815645 0.15343817 -0.25896817 -0.23726846 -0.25583798 0.0018281899 0.21620107 0.24370252
-0.022974834 -0.0518098 -0.04250558 0.030397462 0.15652294 0.0794565 -0.041902572 -0.15922208
-0.09948828 -0.04535519 -0.02075146 -0.021205483 0.024846485 -0.09419038 0.09491136 -0.10484671
-0.09732526 -0.09489005 0.036411416 -0.070607916 -0.079512075 -0.02097263 0.18331191 0.036023747
-0.0822442 0.19920385 0.13782126 -0.044886615 -0.11230976 -0.060176775 0.19999331 -0.03753371
0.18962184 -0.022032555 0.14700003 -0.07658464 -0.13069761 0.09086404 -0.1231474 -0.116056524
-0.110061705 -0.024989251 0.18806304 -0.122344695 -0.20308366 -0.061455257 -0.20431243 0.083113834
-0.08895251 -0.12263918 -0.025185052 0.0322869 0.12985809 -0.023849664 -0.17227955 0.2276309

functional_3_1/dense_4_1/Add/ReadVariableOp:0 f4 [128]
00000000: 6f84 1b3d f63d b53b 88c2 c8bc 87a4 98bc
00000010: f188 aebd f64e 923d 59b7 be3d f643 8abd
00000020: 414f 04bd 284a cabc 8ce4 75bd 51ee 9f3c
00000030: 00cc a73b f65d 0e3d 8f1f e6bc 193a b8bc
00000040: 7e9c bd3c 4c01 1b3d 4751 833d 7d4e 973d
00000050: 5e17 eabb 0000 0000 c014 f43d 4103 44bb
00000060: c7f1 01be c544 42bd 3856 5fbd 0c64 fdbb
00000070: 2366 683d 0874 97bd 5297 63bd 69f8 303d
00000080: 6ad3 a53d 3231 35bc b0ff 073d 0bd6 b13d
00000090: 5be5 753d e561 a43d 0000 0000 1998 63bd
000000a0: 4771 3fbd 9675 9fbd 0000 0000 7529 923d
000000b0: 0000 0000 86fb c4bd 0000 0000 950d 8abd
000000c0: 64a5 f33d 4ea4 d53c eb65 fe3c 0000 0000
000000d0: c7be 473d 1af2 28bb 7316 bebd 0000 0000
000000e0: 6ca9 50bd 0000 0000 e454 7f3d 4c6f 2dbe
000000f0: 53c5 48bd eae3 903d f09e bd3d 0000 0000
00000100: 0000 0000 f8ed 823d 593a 35bb 2824 ecbb
00000110: 12e4 75bd fba5 8a3c 4250 a23b 7154 6c3d
00000120: ccdd 70bc 4fcb 8dbd 0faf 073c 0357 203d
00000130: fa61 67bd 3774 1abc 1fc9 babc 4cf5 22bd
00000140: a2f7 8dbd 5c0d b73d 4b87 a6bd 1be8 6a3d
00000150: d0bb 513d 44e5 21bd c7e4 75bd 65e5 75bd
00000160: 38a3 0d3d 81e5 75bd 6ca5 7a3d bc81 753d
00000170: 0000 0000 a98f dcbd 28ab 0d3c 58ce 9d3d
00000180: 3a27 cf3c 4529 c53c 80ed d23d 45cd 40bd
00000190: 0000 0000 ef5b d8bc 598f e9bd 9230 67bd
000001a0: 3d82 e5bc 49b7 d53d 3a22 9c3d 3df8 6a3d
000001b0: fabf 163d 396d c6bc b8be 173d 0000 0000
000001c0: ab59 953d b1a6 3cbd 8d8e 963d 25c9 8b3d
000001d0: 9e14 07bd af4e 82bb c7e0 b53c ba18 783d
000001e0: 76e5 443d b1a0 87bc 1842 8a3d a660 803d
000001f0: 94bc 113d 8632 f73b 0000 0000 87a2 863d
0.037968095 0.005531068 -0.024506822 -0.01863314 -0.08522213 0.07143967 0.093123145 -0.06751244
-0.032302145 -0.024693564 -0.060032412 0.019522818 0.0051207542 0.034757577 -0.02809122 -0.02248864
0.02314591 0.037843034 0.06411987 0.07388017 -0.007143899 0.0 0.1191802 -0.0029909166
-0.12689887 -0.047428865 -0.054525584 -0.007732874 0.05673803 -0.07395178 -0.055564232 0.043205652
0.08096965 -0.011059092 0.033202827 0.086834036 0.060033184 0.080264844 0.0 -0.055564974
-0.04673889 -0.077860996 0.0 0.071368136 0.0 -0.09618287 0.0 -0.06740872
0.1189678 0.026079323 0.031054458 0.0 0.048765924 -0.002577907 -0.092816256 0.0
-0.050942823 0.0 0.062336817 -0.16936988 -0.049016308 0.07074721 0.092588305 0.0
0.0 0.06393045 -0.0027653186 -0.0072064586 -0.060031958 0.016924849 0.004953415 0.057697717
-0.014701318 -0.06923544 0.008281483 0.03914548 -0.056489922 -0.009427122 -0.02280098 -0.039784715
-0.06931998 0.08938095 -0.08131274 0.05735026 0.051204503 -0.039525285 -0.060032632 -0.06003322
0.034579486 -0.060033325 0.061192915 0.059938177 0.0 -0.107695885 0.008646764 0.077053726
0.02528726 0.02406753 0.10299206 -0.04707076 0.0 -0.026411025 -0.114042945 -0.056442805
-0.028016204 0.104353495 0.07623716 0.057365645 0.036804177 -0.024222003 0.037047118 0.0
0.072924934 -0.046057407 0.07351408 0.06825475 -0.032978646 -0.003976665 0.022201909 0.060570456
0.048070394 -0.016556116 0.06750888 0.06268434 0.035580233 0.0075438647 0.0 0.065739684

functional_3_1/batch_normalization_5_1/batchnorm/sub:0 f4 [32]
00000000: 900a f0be f30a 13bf 3ae1 d9be f246 0dbe
00000010: 9242 ebbe 87b9 6abe 3e9e d1bd 4fe5 2ebe
00000020: 98ea 4cbd 89f7 fbbe 8cc3 95bd 6ed1 ddbe
00000030: 86b4 b9bd d886 08bf 938b 03bf 8c00 81bd
00000040: 115b dbbe fc06 ebbd f72a fcbe 2130 28be
00000050: 14cb 8fbd 7f89 debe ce43 02be 8ef4 dfbd
00000060: 6385 0cbf 9032 b0bd 0ef2 adbd acc1 92bd
00000070: b82b 50bd cc1b 00bf c006 ebbd c763 10bf
-0.4688306 -0.5743858 -0.42554647 -0.13796595 -0.45949227 -0.22922336 -0.102352604 -0.17079662
-0.050028414 -0.49212292 -0.07312688 -0.43323845 -0.09067635 -0.53330755 -0.5138485 -0.062989324
-0.42842916 -0.114759415 -0.4925153 -0.1642461 -0.07021156 -0.43464276 -0.12721178 -0.10935317
-0.5489103 -0.08603394 -0.08493434 -0.07165846 -0.050822943 -0.50042415 -0.11475897 -0.5640225

functional_3_1/batch_normalization_5_1/batchnorm/mul:0 f4 [32]
00000000: dd2c 133f 080a 653f 5b8d d53e a65e 413f
00000010: 5155 e93e f37e 3b3f b78a 253f f0be 4a3f
00000020: f925 083f 53f3 043f 843c 273f c1a4 543f
00000030: 1d01 2d3f 698f 3d3f c171 423f 5e56 143f
00000040: 084c 5e3f 29fe 073f 4650 503f f6af 673f
00000050: a5fb 183f 50bf 383f c0df 493f e99c 263f
00000060: 5c20 733f 0143 3f3f 6646 1b3f bb15 483f
00000070: be43 1a3f 5deb 233f 25a5 3c3f 8f10 2d3f
0.5749033 0.8946843 0.41709408 0.7553505 0.45572904 0.73240584 0.6466479 0.791976
0.5318294 0.51933783 0.65326715 0.83063895 0.67579824 0.7404695 0.75954825 0.57944286
0.86834764 0.5312219 0.8137249 0.9050287 0.5975898 0.7216692 0.7885704 0.65083176
0.9497125 0.74711615 0.60654294 0.7815816 0.60259616 0.6403101 0.7368949 0.6760339

functional_3_1/batch_normalization_4_1/batchnorm/sub:0 f4 [64]
00000000: 0c71 bcbe bc1c 9dbe dac4 e8be 5339 f2be
00000010: e427 a3be 959b 8fbe b03c c5be bfbe d6be
00000020: 1c73 c2be d41a 09bf 294d ccbe 4fda 74be
00000030: d028 0ebf 37bf 10bf 0485 bebe 0984 e8be
00000040: b06f 9cbe 5597 c3be 2fd0 9bbe 3608 82be
00000050: c11d f2be 1e5f c5be 8890 d4be 5a25 abbe
00000060: 2e97 23bf 8244 03bf 8347 c3be 596b e3be
00000070: 1f69 fdbe 9f84 d5be 1d2b c9be abb1 bdbe
00000080: de5c 70be daa2 a4be d895 ebbe f268 f0be
00000090: 5978 07bf 82f2 81be 86b1 cbbe ec58 76be
000000a0: b87c 2bbf 925c 00bf 0af2 e1be 2192 d4be
000000b0: cc4c ccbe a0da b6be eeb4 75be 4a39 a6be
000000c0: f539 15bf 64de ffbe 3b3e febe 4dff d3be
000000d0: 44c4 d1be 843e b6be 1de7 b7be c5db f0be
000000e0: ea13 47be 8bcf d5be 7898 b8be bc18 e3be
000000f0: cc64 c5be f35a d4be baea b4be a22d b3be
-0.36804998 -0.30685985 -0.45462686 -0.4730936 -0.31866372 -0.28048387 -0.38522863 -0.41942403
-0.37978446 -0.5355656 -0.3990262 -0.23911403 -0.55531025 -0.5654177 -0.37210858 -0.45413235
-0.3055396 -0.38201395 -0.3043227 -0.2539689 -0.47288325 -0.3854913 -0.4151652 -0.33426934
-0.63902557 -0.5127641 -0.38140497 -0.44417837 -0.49494264 -0.41702744 -0.39290705 -0.37049612
-0.23472926 -0.32155496 -0.4601276 -0.46955067 -0.5291801 -0.2538033 -0.39783877 -0.24057359
-0.6698718 -0.5014125 -0.44129974 -0.41517738 -0.3990234 -0.35713673 -0.239948 -0.32465583
-0.5829156 -0.49974358 -0.49656853 -0.41405717 -0.4097005 -0.3559457 -0.35918513 -0.4704267
-0.1944119 -0.41759905 -0.36053824 -0.44354808 -0.38553464 -0.4147564 -0.35335332 -0.34995753

functional_3_1/batch_normalization_4_1/batchnorm/mul:0 f4 [64]
00000000: 0beb 833f 23e0 5d3f b76d 663f 6643 783f
00000010: 5112 4d3f ad0b 903f 67c0 483f e4c5 4e3f
00000020: 49c2 903f 7241 6a3f 1b58 463f 852c 7b3f
00000030: e046 893f df30 623f 804d 1c3f d7e6 463f
00000040: d871 fc3e 2666 5c3f 7fe2 573f e5b3 513f
00000050: 1716 843f 9134 163f 9d33 553f f2b4 593f
00000060: 773e 803f 43a1 7c3f 92d9 5b3f 084a 3a3f
00000070: eebd 383f 6708 853f 5e15 553f 9fc3 503f
00000080: f374 2a3f 3fe2 7d3f 0f02 833f 4c23 863f
00000090: 3fc6 613f 8dd2 473f df36 353f dfb0 1e3f
000000a0: a146 593f 80fd 813f ac41 6f3f 9e5f 433f
000000b0: 0bca 6d3f c797 353f 409c 8e3f c284 713f
000000c0: b781 5c3f 8ee8 5b3f 9486 713f 2da1 833f
000000d0: c610 503f d8ff 523f 257a 7f3f 3ed4 633f
000000e0: b806 6c3f eeaa 663f abcc 453f 8209 313f
000000f0: 7500 7e3f 76a2 8c3f f6b0 693f 9c0e 8e3f
1.0306104 0.8667013 0.9001116 0.9697784 0.80106074 1.1253563 0.7841858 0.8077071
1.1309291 0.9150611 0.7747819 0.98114806 1.0724754 0.8835582 0.61055756 0.77695984
0.49305606 0.86093366 0.8432998 0.8191512 1.0319241 0.5867396 0.8328188 0.85041726
1.0019063 0.98683566 0.8587886 0.7276921 0.7216481 1.0393189 0.8323573 0.81548494
0.665847 0.9917335 1.0235003 1.0479522 0.88193125 0.7805565 0.7078685 0.61988634
0.84873396 1.0155487 0.9345958 0.76317775 0.9288642 0.7093472 1.1141434 0.943432
0.8613543 0.85901725 0.94345975 1.0283562 0.81275594 0.82421637 0.9979575 0.8899573
0.9219775 0.9010457 0.77265424 0.6915513 0.9921945 1.0987079 0.91285646 1.1098208

functional_3_1/batch_normalization_3_1/batchnorm/sub:0 f4 [128]
00000000: 16d0 1cbe ced9 d4bc 7f6c 8dbd 7197 97be
00000010: 8a59 8dbd 5983 b9be b898 34be 02ee f5bd
00000020: 170f 03bd 7005 52bd 2772 b63d a027 94be
00000030: 7151 423d 1842 4b3c 9c33 b7bd de7f d7bd
00000040: dfe6 bebd 74f1 373d 1394 f0bd 7790 0abf
00000050: ceb6 4dbe c492 c23c 2455 72be b422 b7be
00000060: 6a3e 863b e497 6cbb 4ead a5be 5dfc efbe
00000070: 9d2a 87bd 2fd2 e3bc 92d1 4a3d c94f c8be
00000080: aeb5 44be 14c8 1abd 5dcc bbbe d371 d0bd
00000090: a70e c2be b575 b4be ae4f 823d a4e7 98bd
000000a0: a028 c93d 57b5 37bd 48ec 523c 05bf 24be
000000b0: 9f97 f8bc abbb 04bd 10bc 553d efee 85bd
000000c0: c360 98be 6ef7 56be 3bce b3be 3147 e1bd
000000d0: dee7 d4be 4705 9abe bb16 b83c 2ed4 e6bd
000000e0: 067e 3c3d 7b4f 0fbd c8e9 b5be 5ce2 3ebe
000000f0: 82a3 cabd 6142 a1be ae34 1dbe bb5a 5e3d
00000100: b3c6 a33d b050 50be 3367 afbc e2c0 4fbd
00000110: c556 763c 93ab 78be 00f3 dcbc e67a 96be
00000120: dedd 60be d0c5 f93b 9833 70bd bd1b 43be
00000130: 899f b2bd 84db bdbc d830 bfbd 9098 1d3b
00000140: 0bb6 a1bc 363c debe 51d1 af3d 21b4 13be
00000150: fb14 c0bd 3ad4 ba3c 6510 043d 179e e43d
00000160: 84e2 c53c 89b6 c9bd 7b2a a9be 925a a3be
00000170: 6c6e 9c3c 05f4 ba3c d72c 24be ac1f e2be
00000180: 0e4c a4bd 9067 29be 0f74 a8be 2d30 ebbc
00000190: 5cba ba3d b055 3b3d 3dcc 97bd faf6 c33d
000001a0: a99a 40bd e27d a3be 5cd6 84be 0078 6cbe
000001b0: 40bd f33b ee6e 82bc ebe3 5ebe 5f75 a63c
000001c0: 7c83 e0be 6e8e f4bc b8a4 7cbc c539 44be
000001d0: 2cf5 c6be 3688 93be 84f4 6cbe 2fd3 25be
000001e0: e282 25bd d8c1 e33b 33e3 1ebe b3f5 4bbe
000001f0: 6e74 49be 73e3 02be 5376 dfbd a855 7fbe
-0.15313753 -0.025982764 -0.069054596 -0.29607728 -0.06901844 -0.36233023 -0.17636383 -0.12008287
-0.031996813 -0.051274717 0.089084916 -0.2893648 0.04744095 0.012405895 -0.089453906 -0.105224356
-0.09321379 0.044908002 -0.11746993 -0.54126686 -0.20089266 0.023751624 -0.23665291 -0.35768664
0.004096796 -0.0036101276 -0.32358783 -0.46872225 -0.06599925 -0.027810184 0.049516268 -0.3912337
-0.1920993 -0.037788466 -0.36679354 -0.1017796 -0.37901804 -0.35246053 0.06362854 -0.07466057
0.09822202 -0.044850674 0.012873717 -0.16088493 -0.030345736 -0.032405537 0.052181304 -0.065397136
-0.29761323 -0.20992824 -0.3511828 -0.10999907 -0.4158315 -0.3008215 0.022471776 -0.11270939
0.046018623 -0.034987908 -0.35529923 -0.18641037 -0.09894468 -0.31495956 -0.15352127 0.054285746
0.07996883 -0.2034328 -0.021411514 -0.050721057 0.015035336 -0.242842 -0.02697134 -0.2939064
-0.21959636 0.007622458 -0.058642954 -0.1905355 -0.08721835 -0.023175962 -0.09335488 0.0024047233
-0.019740125 -0.43405312 0.08584846 -0.14424182 -0.09379002 0.022806276 0.032242198 0.11162966
0.024155863 -0.09849269 -0.33040223 -0.31905037 0.019095622 0.022821436 -0.1603273 -0.4416479
-0.08022319 -0.16543412 -0.32901046 -0.028709495 0.091175765 0.045736015 -0.07412002 0.095685914
-0.047022495 -0.31931978 -0.25944793 -0.23092651 0.007438332 -0.015922036 -0.21766631 0.020319639
-0.43850315 -0.029853072 -0.015420131 -0.19162662 -0.38858926 -0.28814858 -0.2314015 -0.16193841
-0.040408023 0.006950598 -0.15516357 -0.19917946 -0.1967332 -0.12782077 -0.109112404 -0.24935019

functional_3_1/batch_normalization_3_1/batchnorm/mul:0 f4 [128]
00000000: 6bf8 cf3f fcbf b63f 5b6f c13f 777a af3f
00000010: 2842 ca3f 9ff3 ba3f 4587 b73f cc89 a63f
00000020: 3ca5 bd3f d8fc c03f 16ac b33f a59c b93f
00000030: 5018 bb3f 562e b93f 8d72 c43f db44 aa3f
00000040: a979 cf3f b173 b83f 7b18 c93f beb7 c63f
00000050: fb97 c53f fb1f bf3f ff00 b73f b5b3 b23f
00000060: 74d4 ba3f 2d59 b43f 1e10 b73f ede1 ba3f
00000070: 45df cc3f 90d3 a93f fc82 b43f e4a9 d33f
00000080: 8b6c af3f a967 c73f 0ae2 d73f 7853 bb3f
00000090: 3299 ce3f 3729 b83f fb1f bf3f 5481 b43f
000000a0: 1f8e b93f 8828 c63f fb1f bf3f 3515 c13f
000000b0: fb1f bf3f c8fa bb3f fb1f bf3f 69e2 c93f
000000c0: 5dfa bb3f fb83 ae3f 369b b73f fb1f bf3f
000000d0: 0a95 be3f 03ae b13f e2fe c23f fb1f bf3f
000000e0: 85c6 b23f fb1f bf3f d0a2 cc3f 6dd2 d13f
000000f0: 0e59 c43f 19c1 c73f ec8d b33f fb1f bf3f
00000100: fb1f bf3f 5c04 c53f 63c5 a63f e3c2 af3f
00000110: 43a8 b33f 0dfd c93f 1cae c53f b5d7 b23f
00000120: a9f8 b73f 20f2 c93f 57e5 be3f ae8e cd3f
00000130: 6ecc d43f 71a4 c13f 3092 c93f e1c5 b43f
00000140: dbad c23f 4ddf a63f fbf6 b23f d0d9 c13f
00000150: 3a79 b83f 6537 aa3f 0ba8 b33f 85a6 b33f
00000160: b1fd b63f ef98 ca3f 0e6e d33f ddb6 bb3f
00000170: fb1f bf3f 3655 b63f 577b bc3f 62ff b03f
00000180: e56a cb3f 10a5 ae3f f422 b23f dfaf c53f
00000190: fb1f bf3f d949 b83f f555 cb3f 193a b53f
000001a0: d3f3 b93f 9457 af3f d42b c43f d03b aa3f
000001b0: 35fc b73f 1305 ca3f d64f a73f fb1f bf3f
000001c0: 23bb b83f 77ba b33f 31ab c53f db34 be3f
000001d0: 0165 ae3f ac69 c03f 133c be3f daba bd3f
000001e0: 76a4 c93f a30e b03f 907f be3f 7cd2 bc3f
000001f0: c307 bd3f c9f4 a13f fb1f bf3f fd35 b93f
1.6247686 1.4277339 1.5112108 1.3709248 1.5801439 1.4605597 1.4338156 1.3010802
1.481605 1.5077162 1.4036891 1.4500929 1.4616795 1.4467266 1.5347458 1.3302263
1.6209003 1.4410306 1.5710596 1.5524824 1.5437006 1.4931635 1.4297179 1.3961092
1.4596086 1.4089714 1.4301794 1.4600197 1.6005636 1.3267689 1.4102473 1.6536222
1.3705 1.557851 1.6865857 1.4634848 1.6140501 1.4387578 1.4931635 1.4101968
1.4496497 1.5481119 1.4931635 1.5084597 1.4931635 1.4685907 1.4931635 1.577222
1.468578 1.3634027 1.4344242 1.4931635 1.4889233 1.3881229 1.5234034 1.4931635
1.3966833 1.4931635 1.5987186 1.6392342 1.5339677 1.5605804 1.4027686 1.4931635
1.4931635 1.5391955 1.3028988 1.373135 1.4035724 1.578035 1.5443759 1.3972079
1.437276 1.5777016 1.4913739 1.6059167 1.6624887 1.5128309 1.5747738 1.4122888
1.5209306 1.3036896 1.3981622 1.5144596 1.4411995 1.3298155 1.4035658 1.4035193
1.429617 1.5827922 1.6517961 1.466518 1.4931635 1.4244754 1.472514 1.3827937
1.5891997 1.3644123 1.3916917 1.5444297 1.4931635 1.4397537 1.5885607 1.4158355
1.4527534 1.3698602 1.5325875 1.3299503 1.4373842 1.5782799 1.3071239 1.4931635
1.443211 1.404128 1.5442868 1.485988 1.3624574 1.5032248 1.4862083 1.4822648
1.5753314 1.3754467 1.4882679 1.4751735 1.4767994 1.2652828 1.4931635 1.4469601
