models/Vransko/speed/Vransko_speed_model.onnx (onnx, 61043 bytes, 13 tensors)

functional_3_1/dense_7_1/Cast/ReadVariableOp:0 f4 [32, 1]
-0.028090956 -0.009334696 -0.07146865 0.07645146 -0.0068257414 0.021056619 0.11723517 -0.07306237
-0.06465227 -0.09116909 0.035344254 -0.005068762 -0.035431374 -0.017220348 -0.035116635 0.05788244
-0.118782476 0.030158425 0.013781465 0.078493245 -0.08202802 -0.023100644 -0.047232278 0.04313941
0.11619252 -0.029990243 -0.041486684 -0.014287894 -0.03986311 -0.13589746 -0.029988969 -0.035080265
00000000: 011f e6bc 8ef0 18bc 285e 92bd 9592 9c3d
00000010: 78aa dfbb ee7e ac3c fe18 f03d b9a1 95bd
00000020: 6968 84bd dcb6 babd 23c5 103d dc17 a6bb
00000030: 7d20 11bd b011 8dbc 76d6 0fbd 2316 6d3d
00000040: 3a44 f3bd cd0e f73c a7cb 613c 11c1 a03d
00000050: 4efe a7bd 903d bdbc a276 41bd f3b2 303d
00000060: 58f6 ed3d 19ae f5bc f1ed 29bd c517 6abc
00000070: 8047 23bd b428 0bbe 6dab f5bc 53b0 0fbd

functional_3_1/dense_6_1/Cast/ReadVariableOp:0 f4 [64, 32]
-0.37268355 -0.035826433 -0.0019779445 0.2875999 -0.33833778 0.03810597 0.0047671758 0.05487871
-0.11875655 -0.04467087 -0.086779565 -0.1675832 -0.10082841 0.06995324 0.11197334 0.22571526
0.07788819 0.2564134 0.09585829 0.0011796716 -0.09098436 0.0011028671 -0.09414596 0.12203313
0.11412225 -0.14275166 0.036639754 -0.106169604 0.08463142 0.18335031 0.010173215 0.08249879
0.023683496 -0.13843468 0.04456126 -0.28256488 -0.012749968 0.11828845 -0.18177606 0.17251301
0.049447868 0.10454543 0.10628845 -0.018121526 0.17050885 -0.19345804 0.13515589 0.1661196
-0.29966363 0.28177738 -0.15409613 0.21774171 -0.04546286 0.27192503 0.07220911 -0.2444713
0.1536449 -0.11819207 -0.071106926 0.24798101 0.12750834 0.14073281 0.35786682 -0.089511536
-0.1464154 -0.32654026 0.03071231 0.17122863 -0.14113918 0.17362355 0.31949195 0.10313503
0.15720813 0.11649258 -0.08809549 0.12415069 0.03155103 0.16266198 0.0017912918 0.014142037
0.17657845 -0.14634201 -0.14704399 -0.031230906 -0.30574664 0.07129896 -0.3843699 -0.17997523
-0.20748581 -0.020599453 -0.17337823 -0.18483055 -0.044266447 0.14502764 -0.28165457 -0.19559067
-0.13994038 -0.2710347 -0.18167472 -0.03898691 0.030309556 -0.19129682 -0.16293316 -0.0101268925
0.31961587 -0.2200022 -0.15588918 0.08064029 -0.10828592 -0.12233062 -0.15812068 0.119022824
-0.28278944 0.21260557 -0.11277213 -0.07727439 0.21258222 0.06883345 0.18023829 0.18702558
0.08223323 0.0781076 0.036367472 0.23801866 0.07393929 0.12821858 0.06589986 0.15036687
0.07492685 -0.16256422 0.012563923 -0.07548405 -0.08860885 -0.3286141 0.10017371 -0.074826196
0.0077643204 0.09507567 0.11704646 0.24125081 -0.023694076 -0.32961026 -0.2996345 -0.22671105
0.13529803 0.04760862 0.06231606 0.035451412 -0.22161964 0.13114303 0.33194757 0.035498787
0.0767693 -0.03563218 0.3921421 0.16153805 0.09849612 0.023349408 0.12859185 0.03897785
-0.026289392 0.11884759 -0.16730803 -0.15173614 -0.2992345 -0.0044603576 0.33006746 0.13368888
0.18018769 -0.10467294 0.15996374 0.15515359 -0.12156596 -0.17039351 -0.11320257 -0.106002875
0.027158711 0.006689847 -0.023677142 -0.07275817 0.07699128 -0.2186027 0.06944145 0.07332072
-0.19377442 -0.11165077 0.004259837 -0.3040642 -0.12333875 0.019322485 -0.11665497 0.2549654
-0.1110273 -0.0009712362 -0.1805735 -0.23376219 -0.07015075 -0.034375478 0.21747087 0.16256677
0.17571855 -0.012623603 -0.0745927 0.27909094 -0.17749587 0.1969976 -0.046225995 0.17046782
-0.10455258 -0.1590572 -0.26457155 0.06317347 -0.19704024 -0.23360986 0.00234994 0.12052329
-0.19750862 0.14214338 -0.090370156 -0.14214037 -0.16503054 0.26822376 0.30061388 -0.010447123
0.0878515 -0.18744175 0.1150133 0.24215344 0.16227505 -0.12606356 0.19922297 -0.12203931
-0.1517138 0.15261653 -0.19947605 -0.019254709 0.03650898 -0.006511553 -0.09344876 0.115263484
-0.12743685 -0.13860689 0.21132673 0.1653154 -0.10033789 0.13602047 0.1718731 -0.2051892
0.052669127 -0.034612924 -0.01049653 -0.033045 -0.15990825 0.19614437 0.294181 -0.13709614
00000000: 61d0 bebe bdbe 12bd 67a0 01bb 4b40 933e
00000010: 9c3a adbe 0115 1c3d f835 9c3b 80c8 603d
00000020: a236 f3bd cdf8 36bd 7cb9 b1bd ee9a 2bbe
00000030: 207f cebd a543 8f3d 4752 e53d e721 673e
00000040: d883 9f3d 9e48 833e 5a51 c43d 369f 9a3a
00000050: 0256 babd 148e 903a 99cf c0bd 81ec f93d
00000060: edb8 e93d 7e2d 12be 9113 163d 736f d9bd
00000070: 3d53 ad3d 2fc0 3b3e 8ead 263c 20f5 a83d
00000080: e403 c23c d2c1 0dbe de85 363d 58ac 90be
00000090: 3ee5 50bc 3741 f23d 8123 3abe 40a7 303e
000000a0: d989 4a3d ea1b d63d c2ad d93d 9873 94bc
000000b0: df99 2e3e dd19 46be 4e66 0a3e 421b 2a3e
000000c0: 836d 99be 2045 903e 60cb 1dbe aff7 5e3e
000000d0: 4437 3abd c239 8b3e 5fe2 933d af56 7abe
000000e0: 1755 1d3e af0e f2bd 82a0 91bd bcee 7d3e
000000f0: 8c91 023e 431c 103e 523a b73e d351 b7bd
00000100: ebed 15be 4930 a7be 6298 fb3c 8f56 2f3e
00000110: ca86 10be 5fca 313e 7394 a33e 7538 d33d
00000120: 2bfb 203e a993 ee3d 696b b4bd b842 fe3d
00000130: a73b 013d dd90 263e c7c9 ea3a 01b4 673c
00000140: fbd0 343e aeda 15be b392 16be f5d7 ffbc
00000150: d38a 9cbe 3005 923d 22cc c4be 6d4b 38be
00000160: 2977 54be 2fc0 a8bc 108a 31be 3844 3dbe
00000170: bc50 35bd 2082 143e 0735 90be ec48 48be
00000180: 884c 0fbe 0fc5 8abe f008 3abe bdb0 1fbd
00000190: bf4b f83c 50e3 43be f3d7 26be 44eb 25bc
000001a0: b1a4 a33e 4248 61be 6aa1 1fbe bd26 a53d
000001b0: 02c5 ddbd 7a88 fabd 63ea 21be 3dc2 f33d
000001c0: c7c9 90be 46b5 593e 13f5 e6bd 0942 9ebd
000001d0: 27af 593e 8df8 8c3d 6390 383e a283 3f3e
000001e0: e569 a83d e1f6 9f3d 0ff6 143d 2abb 733e
000001f0: 7c6d 973d bb4b 033e 81f6 863d c6f9 193e
00000200: 4073 993d 3c77 26be ead8 4d3c 6297 9abd
00000210: 8f78 b5bd 1b40 a8be e027 cd3d 7a3e 99bd
00000220: d76b fe3b 08b7 c23d 0eb6 ef3d 740a 773e
00000230: 141a c2bc adc2 a8be b169 99be f126 68be
00000240: 918b 0a3e 4201 433d 203f 7f3d 8035 113d
00000250: 42f0 62be 5c4a 063e 08f5 a93e 2d67 113d
00000260: 3939 9d3d 0cf3 11bd d9c6 c83e 3b6a 253e
00000270: 55b8 c93d 4247 bf3c 95ad 033e 3da7 1f3d
00000280: da5c d7bc 5e66 f33d cc52 2bbe b860 1bbe
00000290: 4435 99be 3128 92bb 9afe a83e bde5 083e
000002a0: 1f83 383e c45e d6bd 89cd 233e 95e0 1e3e
000002b0: 93f7 f8bd a37b 2ebe c0d6 e7bd 0918 d9bd
000002c0: f27b de3c 8136 db3b 91f6 c1bc 3c02 95bd
000002d0: 9bad 9d3d 63d9 5fbe 5237 8e3d 2c29 963d
000002e0: cd6c 46be 29a9 e4bd 1a96 8b3b 4eae 9bbe
000002f0: 0799 fcbd 304a 9e3c cde8 eebd d38a 823e
00000300: 4862 e3bd 8f9a 7eba 42e8 38be 5b5f 6fbe
00000310: 32ab 8fbd 4dcd 0cbd afb0 5e3e e777 263e
00000320: 90ef 333e 3bd3 4ebc 0fc4 98bd 02e5 8e3e
00000330: 7ac1 35be bdb9 493e 7857 3dbd 1e8f 2e3e
00000340: aa1f d6bd e4df 22be ec75 87be 1861 813d
00000350: ebc4 49be 6c37 6fbe 7301 1a3b ead4 f63d
00000360: b33f 4abe 098e 113e fd13 b9bd 3f8d 11be
00000370: c4fd 28be a054 893e 10ea 993e 692a 2bbc
00000380: 7deb b33d bbf0 3fbe 188c eb3d 12f7 773e
00000390: 6e2b 263e ce16 01be 1b01 4c3e bfef f9bd
000003a0: dd5a 1bbe 8247 1c3e 7343 4cbe 0dbc 9dbc
000003b0: 718a 153d de5e d5bb 1062 bfbd 430f ec3d
000003c0: ce7e 02be f7ee 0dbe 0966 583e 7148 293e
000003d0: f47d cdbd f348 0b3e 80ff 2f3e 1e1d 52be
000003e0: 95bb 573d 48c6 0dbd a3f9 2bbc 325a 07bd
000003f0: fdbe 23be 12da 483e e49e 963e ee62 0cbe

functional_3_1/dense_6_1/Add/ReadVariableOp:0 f4 [32]
-0.03725991 -0.027947873 -0.026644409 -0.016096076 0.10393599 0.0066911057 0.034773663 0.17464507
0.052732725 0.018346466 0.031013532 -0.075742215 -0.01623191 0.06703567 0.042179156 -0.008851936
0.018037083 -0.026182285 -0.11045064 0.064558715 0.09474894 0.022440113 0.037672084 0.033585407
-0.007174465 0.106380984 0.08168038 -0.07068719 0.123870775 0.04639971 0.058747977 0.029775655
00000000: d99d 18bd f0f2 e4bc 6045 dabc ebdb 83bc
00000010: 64dc d43d 1041 db3b d46e 0e3d 28d6 323e
00000020: 45fe 573d 544b 963c 1710 fe3c bc1e 9bbd
00000030: c8f8 84bc ff49 893d 0dc4 2c3d b607 11bc
00000040: 81c2 933c 3b7c d6bc f233 e2bd 5c37 843d
00000050: bb0b c23d 54d4 b73c 0b4e 1a3d da90 093d
00000060: c617 ebbb 46de d93d 0b48 a73d 72c4 90bd
00000070: f6af fd3d 9f0d 3e3d b8a1 703d 13ec f33c

functional_3_1/dense_5_1/Cast/ReadVariableOp:0 f4 [128, 64]
0.06252361 0.0891342 0.15965112 -0.15528896 0.156449 -0.19717628 0.07014617 -0.007258034
0.0718531 -0.10361408 0.09591781 0.15643689 0.08512793 0.06354488 0.21128568 -0.016699495
0.09588996 0.1400899 0.09847746 0.1904182 0.018747143 0.004300036 0.055100523 0.16299699
-0.016434317 0.13047482 -0.073736526 0.07748914 0.055687908 -0.04282235 0.013040908 0.08525303
0.09601465 -0.14275478 -0.1882005 0.15567121 0.03291504 -0.24522173 -0.14839825 -0.17217903
-0.0012038613 0.011675522 -0.00995024 -0.110879034 0.044864766 0.06919016 -0.19484691 -0.1528385
-0.16110648 0.06382032 0.078129426 -0.08663725 0.0809433 -0.02684223 0.01693601 -0.05316806
0.038391154 -0.08137609 -0.010647597 0.08508578 -0.17826007 0.12891355 0.28283653 0.13530983
-0.094146155 -0.07166005 -0.20130052 0.1776296 -0.093059935 0.038016073 -0.117143944 0.11754101
-0.016585967 0.21145359 -0.061857674 0.016864156 -0.23606071 -0.1836696 0.18579732 0.21368015
0.09758216 0.012134386 -0.13902612 0.15220913 0.0065082177 0.0064599696 0.07593289 -0.037634145
-0.26116005 -0.060609635 0.05154391 -0.032242354 0.103889234 0.0701644 0.24416256 -0.07946525
0.020146618 -0.17168579 0.043822672 -0.16682558 0.15852752 -0.008592958 0.09543186 0.21336514
-0.07156115 0.17308559 0.032581277 -0.019574137 0.024320101 0.09802173 0.11160315 -0.18520023
-0.062438574 0.16291863 -0.08044658 -0.11844731 0.01875946 0.05112057 0.03502066 0.17020282
-0.11066426 -0.106062196 0.03935573 0.07026814 -0.08084098 -0.16796072 0.0966794 -0.03341
0.078671254 -0.12694754 -0.18468516 -0.072233096 0.12592535 0.1093801 -0.067227535 -0.08290022
-0.012119439 -0.0970755 0.034502275 0.17995192 -0.059213918 0.07245574 -0.110924 0.15672615
-0.083407044 0.017324226 0.13807635 -0.2041762 0.06288226 0.11484781 -0.11766149 -0.221405
0.14701757 0.06278576 0.036852557 -0.14680715 0.06226982 0.20608085 0.05727273 0.061525248
0.08141006 -0.06385158 0.018281534 -0.19615102 -0.029424267 -0.09161671 -0.009683757 -0.039578803
-0.15818395 0.20362453 -0.056926895 0.058383398 0.23554778 0.03383015 0.05028434 0.058405273
-0.08249949 0.13694742 -0.016437331 -0.032439366 0.105235375 0.17706229 -0.26183885 -0.03720664
-0.204113 -0.060953263 -0.12841478 -0.1357959 -0.06424966 -0.23242247 -0.08015315 -0.13805822
0.037248816 0.0031596783 -0.18204099 -0.107066855 -0.18418363 0.119582355 0.05982993 0.00040675132
0.12677187 0.14905936 -0.0060741655 0.11438486 0.018369537 -0.030884704 0.17416917 -0.012224141
0.05309081 0.025949797 0.0070417547 0.17459404 -0.120498165 -0.083817594 -0.066229075 -0.020273916
-0.05880805 0.050820526 -0.25544375 0.1680428 0.021897724 0.03504496 0.08895587 -0.16806813
-0.022564203 -0.0058440827 0.14603245 0.029591486 0.22074552 -0.0379688 -0.104859084 0.111742884
-0.151778 -0.052244913 -0.0887448 0.077642664 0.12947561 0.017725142 -0.03294589 -0.24621987
0.20855705 -0.07431408 -0.080674805 0.15728284 -0.044143163 -0.091351524 -0.19209807 0.023572335
-0.18942428 0.017212557 0.0015417074 -0.16192926 -0.01671345 0.15759702 0.1338761 -0.1105299
00000000: 610c 803d fe8b b63d 957b 233e 1204 1fbe
00000010: 2b34 203e 94e8 49be cca8 8f3d cdd4 edbb
00000020: b827 933d 9e33 d4bd 8f70 c43d fe30 203e
00000030: 8d57 ae3d d123 823d 465b 583e 61cd 88bc
00000040: f561 c43d ba73 0f3e 8dae c93d fdfc 423e
00000050: 9c93 993c 51e7 8c3b 16b1 613d afe8 263e
00000060: 43a1 86bc 319b 053e 2d03 97bd a0b2 9e3d
00000070: 0119 643d 7d66 2fbd 88a9 553c 2499 ae3d
00000080: 54a3 c43d 4f2e 12be a2b7 40be 4668 1f3e
00000090: ecd1 063d 681b 7bbe b6f5 17be b34f 30be
000000a0: e2ca 9dba b04a 3f3c 5506 23bc 8c14 e3bd
000000b0: 1ec4 373d 92b3 8d3d f385 47be b281 1cbe
000000c0: 19f9 24be 3ab4 823d 5202 a03d df6e b1bd
000000d0: 9ac5 a53d 3de4 dbbc 63bd 8a3c c0c6 59bd
000000e0: 0b40 1d3d 82a8 a6bd 4273 2ebc 7441 ae3d
000000f0: cf89 36be ea01 043e f3cf 903e a98e 0a3e
00000100: b3cf c0bd 81c2 92bd b921 4ebe 89e4 353e
00000110: 3596 bebd beb6 1b3d 2ae9 efbd 57b9 f03d
00000120: 4bdf 87bc 4a87 583e 795e 7dbd b326 8a3c
00000130: e6b9 71be e213 3cbe a741 3e3e f8ce 5a3e
00000140: 28d9 c73d 4ecf 463c dd5c 0ebe b6dc 1b3e
00000150: e342 d53b 27ae d33b b482 9b3d 4326 1abd
00000160: c5b6 85be cf41 78bd b51f 533d 8f10 04bd
00000170: e1c3 d43d 5ab2 8f3d c005 7a3e adbe a2bd
00000180: 850a a53c 66ce 2fbe 677f 333d 53d4 2abe
00000190: 0a55 223e 7ac9 0cbc c771 c33d 647c 5a3e
000001a0: a78e 92bd 593d 313e f273 053d f159 a0bc
000001b0: f33a c73c 9ebf c83d 3190 e43d 21a5 3dbe
000001c0: 97bf 7fbd 24d4 263e 2dc1 a4bd 8194 f2bd
000001d0: 70ad 993c ce63 513d d371 0f3d a649 2e3e
000001e0: f2a3 e2bd 2337 d9bd 7933 213d bee8 8f3d
000001f0: f58f a5bd e5fd 2bbe d9ff c53d edd8 08bd
00000200: 651e a13d 89fe 01be 1b1e 3dbe f2ee 93bd
00000210: 93f2 003e ad02 e03d 97ae 89bd 97c7 a9bd
00000220: 9d90 46bc 85cf c6bd 4252 0d3d 5145 383e
00000230: 4b8a 72bd ad63 943d 1f2c e3bd d27c 203e
00000240: 50d1 aabd 89eb 8d3c e363 0d3e 9113 51be
00000250: 6ac8 803d 5435 eb3d 82f8 f0bd feb7 62be
00000260: c68b 163e d295 803d b5f2 163d 9d54 16be
00000270: a40e 7f3d dc06 533e cf96 6a3d e601 7c3d
00000280: 51ba a63d 9ec4 82bd 28c3 953c d0db 48be
00000290: 290b f1bc 8ba1 bbbd 9fa8 1ebc 621d 22bd
000002a0: f9fa 21be f382 503e 2d2c 69bd 6e23 6f3d
000002b0: 7033 713e 7c91 0a3d f4f6 4d3d 5e3a 6f3d
000002c0: 7ef5 a8bd f23b 0c3e 95a7 86bc 24df 04bd
000002d0: a585 d73d d14f 353e be0f 86be fd65 18bd
000002e0: 0003 51be 21aa 79bd 2a7f 03be 150e 0bbe
000002f0: 5395 83bd 2800 6ebe 5627 a4bd 225f 0dbe
00000300: 3792 183d 9b12 4f3b f468 3abe de45 dbbd
00000310: a29a 3cbe 98e7 f43d 3b10 753d 3d41 d539
00000320: 7cd0 013e 04a3 183e cb09 c7bb 9c42 ea3d
00000330: b67b 963c eb01 fdbc 6759 323e c347 48bc
00000340: c075 593d ab94 d43c 85be e63b c8c8 323e
00000350: bec7 f6bd 8fa8 abbd 1ca3 87bd 7c15 a6bc
00000360: b6e0 70bd 2f29 503d 86c9 82be 6913 2c3e
00000370: db62 b33c 4e8b 0f3d 7f2e b63d 0d1a 2cbe
00000380: 90d8 b8bc b87f bfbb 8889 153e d869 f23c
00000390: 1d0b 623e 2c85 1bbd 5cc0 d6bd 74d9 e43d
000003a0: b16b 1bbe c3fe 55bd d5bf b5bd 1e03 9f3d
000003b0: 4195 043e 5134 913c 45f2 06bd 1021 7cbe
000003c0: fb8f 553e fb31 98bd d538 a5bd c10e 213e
000003d0: 76cf 34bd 8216 bbbd 5bb5 44be c51a c13c
000003e0: 70f8 41be 5901 8d3c 1e13 ca3a c9d0 25be
000003f0: a5ea 88bc 1d61 213e d116 093e 805d e2bd

functional_3_1/dense_5_1/Add/ReadVariableOp:0 f4 [64]
-0.015396865 0.021415174 0.012529019 0.015604136 0.025157792 0.071616754 -0.03505774 0.06858938
-0.033618923 0.026459102 -0.106726386 0.081257485 0.021153534 0.050318096 -0.060901437 -0.04459375
0.058391158 -0.08048854 0.012518714 -0.108696036 -0.11635574 -0.032501116 -0.01619806 -0.048089787
0.033719894 0.07925447 0.18671893 0.048979383 -0.055890225 0.015672214 0.043636475 0.011267155
-0.079384856 0.07281782 -0.052100837 0.06563011 -0.031146197 0.09527173 -0.087764814 0.09815573
0.033147108 0.002660586 -0.054425687 0.09078492 0.056858968 0.10321261 0.07204504 0.05555822
0.05237165 -0.07230075 0.07824939 -0.0034762782 0.087170534 -0.037678014 0.028076114 -0.03504091
0.07046665 0.041783582 0.041122016 -0.09195499 0.115134105 0.016691858 -0.020127647 -0.11659131
00000000: 2243 7cbc e06e af3c 8446 4d3c 7da8 7f3c
00000010: b717 ce3c ceab 923d b498 0fbd 9778 8c3d
00000020: ffb3 09bd c2c0 d83c 5d93 dabd 536a a63d
00000030: 2d4a ad3c 591a 4e3d c973 79bd f0a7 36bd
00000040: 912b 6f3d 2dd7 a4bd 4b1b 4d3c 079c debd
00000050: eb4b eebd e41f 05bd cbb1 84bc ccf9 44bd
00000060: df1d 0a3d 2b50 a23d 3f33 3f3e 9b9e 483d
00000070: 26ed 64bd 0463 803c 29bc 323d e099 383c
00000080: 8794 a2bd 8221 953d b067 55bd 1469 863d
00000090: 4f26 ffbc d31d c33d 0abe b3bd df05 c93d
000000a0: 43c5 073d 3a5d 2e3b 78ed 5ebd 72ed b93d
000000b0: f3e4 683d 2261 d33d 5a8c 933d 0491 633d
000000c0: a883 563d 6a12 94bd 3741 a03d 45d2 63bb
000000d0: 7786 b23d 4354 1abd e1ff e53c 0f87 0fbd
000000e0: d250 903d 4325 2b3d 8f6f 283d e652 bcbd
000000f0: 6ecb eb3d 5dbd 883c bce2 a4bc 6dc7 eebd

functional_3_1/dense_4_1/Cast/ReadVariableOp:0 f4 [26, 128]
-0.071908206 0.010351583 0.021255523 0.078706816 0.1933123 -0.14742024 -0.034080416 -0.054772392
-0.080351725 -0.18189897 0.12846644 -0.0064395964 -0.19215648 -0.08805932 0.062246457 -0.05682531
-0.08404498 -0.15780364 -0.183456 -0.19696888 -0.10744382 -0.09188053 -0.074583866 0.058212414
-0.15215385 -0.19380948 -0.15384671 0.1257024 -0.10802845 -0.047443822 0.19132923 -0.02570565
0.15446074 -0.11991175 0.19118817 -0.12525448 0.102513716 -0.15962125 -0.117494926 0.1868533
0.080986604 -0.17880358 0.132358 -0.0055062026 0.12991048 -0.10165511 0.010131389 0.12724088
0.04980202 0.122740164 0.058810785 0.085830316 0.13422139 -0.09699246 -0.045949936 -0.05164711
0.11462627 -0.11337116 -0.03890857 -0.08179935 -0.030963048 -0.093090124 0.1548496 0.12660097
0.040601194 0.10140349 -0.124658875 0.033349946 -0.1726965 -0.19330518 0.15680642 0.048280135
-0.05731313 -0.14359352 -0.06528512 -0.16404751 -0.09569459 -0.061953053 -0.08669048 -0.11627601
0.04276395 -0.185897 -0.112709165 0.15849955 -0.102606714 -0.12936619 0.1263795 0.15629704
-1.8969178e-05 0.18161793 -0.11492594 0.12343012 -0.020306125 -0.089026555 0.0068555623 -0.19242346
-0.119484305 0.18935136 0.033829957 0.15521218 0.17577274 0.13427053 0.01147835 0.095768854
0.12965776 -0.008349359 0.048491806 0.19167967 0.13370676 0.15063013 0.18292563 0.11966233
0.007969484 -0.18993755 -0.046527416 0.045509785 0.08311276 -0.04476148 0.19552009 0.055394396
-0.053558797 0.03530827 -0.12410597 -0.11447416 -0.022844851 -0.025351182 -0.052950397 0.051570207
0.15400802 0.23547377 0.2163754 -0.12565942 0.2028413 0.014060977 0.050317694 0.19284126
0.17800535 0.040330112 0.022193607 -0.047614977 -0.022762934 -0.1807326 -0.12089928 -0.091451384
-0.16949573 -0.003473196 0.15651473 0.25098604 -0.14120439 0.03946733 0.25017065 -0.18039855
0.1332866 0.12062606 0.16750221 0.043828998 -0.033983853 0.06667473 -0.22853127 -0.06738518
-0.112953626 -0.045508053 0.1868268 -0.19966964 0.07877629 0.029529583 -0.17021976 0.20621286
0.025493532 -0.26121962 -0.24400157 0.108553424 0.22730121 -0.07748708 -0.11955862 -0.18776976
0.15825854 -0.09615235 -0.087404154 0.2394261 -0.13590184 0.07225452 -0.08703702 0.045779474
-0.051697224 -0.022637624 0.06025434 -0.021300327 -0.2479165 -0.08183425 0.1377778 -0.17261392
-0.00036971923 0.13871402 -0.23589808 0.064747356 0.11622564 0.1915293 0.18889157 -0.16386847
0.16253038 -0.20181769 -0.0020563453 0.13857745 0.15383822 0.17762734 -0.25843486 -0.033782016
0.10509645 -0.11821577 0.047256842 -0.16897225 -0.27485457 -0.20922577 -0.13071907 0.10985456
-0.019607594 0.003452173 0.006597431 0.20711513 0.2224554 0.19208845 -0.202679 0.07745003
0.16489407 -0.09250022 0.1258646 -0.07065028 0.19890478 0.10415643 0.106655076 -0.03193403
0.04470651 -0.10861771 -0.26153547 0.14233913 -0.15933861 0.07821562 -0.006687656 0.17982203
-0.1040281 -0.032525256 -0.16365635 -0.06673021 0.01076609 -0.1416698 0.12564725 -0.21131395
-0.061389025 -0.14686467 -0.14390735 -0.21723111 -0.035450567 -0.11990009 0.08995387 0.0965545
00000000: 9c44 93bd b099 293c 1020 ae3c 0a31 a13d
00000010: a9f3 453e 55f5 16be e897 0bbd 0459 60bd
00000020: 728f a4bd b943 3abe b58c 033e 4003 d3bb
00000030: abc4 44be 7258 b4bd 24f6 7e3d a8c1 68bd
00000040: c61f acbd 4797 21be e4db 3bbe 36b2 49be
00000050: 810b dcbd dc2b bcbd 6dbf 98bd 2470 6e3d
00000060: 38ce 1bbe fe75 46be fe89 1dbe 21b8 003e
00000070: 053e ddbd 7454 42bd cfeb 433e a894 d2bc
00000080: f52a 1e3e 4b94 f5bd d5c6 433e b642 00be
00000090: b6f2 d13d c173 23be 2ea1 f0bd 7956 3f3e
000000a0: 4edc a53d 4918 37be db88 073e 606d b4bb
000000b0: 4107 053e 8e30 d0bd 20fe 253c 6f4b 023e
000000c0: 34fd 4b3d 325f fb3d 94e3 703d cec7 af3d
000000d0: 5571 093e fca3 c6bd 0036 3cbd ec8b 53bd
000000e0: 2ec1 ea3d 242f e8bd 985e 1fbd 6b86 a7bd
000000f0: 38a6 fdbc 09a6 bebd e590 1e3e afa3 013e
00000100: 704d 263d a2ac cf3d 274d ffbd f499 083d
00000110: 5ad7 30be cbf1 45be dd91 203e 64c1 453d
00000120: 2cc1 6abd 2e0a 13be 34b4 85bd 12fc 27be
00000130: 86fb c3bd 7cc2 7dbd c78a b1bd 1e22 eebd
00000140: 4029 2f3d c85b 3ebe 10d4 e6bd b54d 223e
00000150: 7823 d2bd 9278 04be a169 013e 550c 203e
00000160: 0020 9fb7 0dfa 393e 4b5e ebbd eec8 fc3d
00000170: 0859 a6bc 8e53 b6bd a0a4 e03b a80a 45be
00000180: 30b4 f4bd 53e5 413e 4891 0a3d f1ef 1e3e
00000190: c5fd 333e 377e 093e b00f 3c3c 7622 c43d
000001a0: 01c5 043e c0cb 08bc 589f 463d ad47 443e
000001b0: 6dea 083e c93e 1a3e db50 3b3e 8611 f53d
000001c0: 7092 023c fd7e 42be 8893 3ebd 7868 3a3d
000001d0: 0637 aa3d d057 37bd 6b36 483e 3ce5 623d
000001e0: 7860 5bbd 689f 103d 452b febd 6e71 eabd
000001f0: 2025 bbbc 48ad cfbc 84e2 58bd 483b 533d
00000200: 47b4 1d3e 0920 713e 8391 5d3e ddac 00be
00000210: a1b5 4f3e 0360 663c ed19 4e3d 2e78 453e
00000220: 0947 363e 3031 253d 5ecf b53c ec07 43bd
00000230: 5579 babc f711 39be 0b9a f7bd dd4a bbbd
00000240: 4a90 2dbe 8f9e 63bb 6645 203e 3e81 803e
00000250: e297 10be 7fa8 213d 5e16 803e 66ba 38be
00000260: 487c 083e cc0a f73d b385 2b3e 0986 333d
00000270: a732 0bbd c38c 883d 1a04 6abe 3e01 8abd
00000280: 3b54 e7bd a766 3abd 864f 3f3e 3376 4cbe
00000290: 7755 a13d 06e8 f13c 174e 2ebe 7729 533e
000002a0: d0d7 d03c 94be 85be 8cdb 79be 4251 de3d
000002b0: a6c1 683e 8cb1 9ebd 26db f4bd b746 40be
000002c0: 870e 223e 86eb c4bd f300 b3bd 1e2c 753e
000002d0: da29 0bbe 2efa 933d 7740 b2bd 4283 3b3d
000002e0: 78c0 53bd 8a72 b9bc 41cd 763d 067e aebc
000002f0: d3dd 7dbe b798 a7bd a015 0d3e b4c1 30be
00000300: e0d6 c1b9 0c0b 0e3e 448f 71be 439a 843d
00000310: b507 ee3d 4220 443e cb6c 413e 23cd 27be
00000320: 5d6e 263e 4ca9 4ebe c0c3 06bb 3fe7 0d3e
00000330: c487 1d3e f1e3 353e 9351 84be 035f 0abd
00000340: cf3c d73d 1c1b f2bd 6490 413d 1007 2dbe
00000350: bdb9 8cbe 483f 56be 38db 05be 6dfb e03d
00000360: 1ba0 a0bc da3d 623b 432f d83b fd15 543e
00000370: 59cb 633e d6b2 443e 158b 4fbe 1f9e 9e3d
00000380: fed9 283e c170 bdbd a6e2 003e 18b1 90bd
00000390: b2ad 4b3e f74f d53d fa6d da3d 42cd 02bd
000003a0: 2c1e 373d f672 debd fae7 85be 59c1 113e
000003b0: a929 23be 832f a03d 2024 dbbb 4423 383e
000003c0: af0c d5bd 3439 05bd 8895 27be d9a9 88bd
000003d0: 4164 303c e311 11be aca9 003e af62 58be
000003e0: 0f73 7bbd b163 16be 735c 13be d571 5ebe
000003f0: 9d34 11bd 2e8e f5bd bc39 b83d 5ebe c53d

functional_3_1/dense_4_1/Add/ReadVariableOp:0 f4 [128]
0.0 0.07405788 0.08456928 -0.091471896 -0.008522636 -0.059391186 0.07155629 0.06096391
0.021840861 0.10929799 0.081950426 -0.12407549 0.041054264 -0.008738582 -0.054668956 -0.027404234
-0.0777753 0.06702885 -0.04823426 0.07588888 0.021586664 -0.08469951 -0.0062379483 0.0
-0.050024953 -0.105230965 -0.040700756 0.06699295 -0.059849072 -0.06003221 -0.020466395 0.0
0.04996924 -0.04220051 -0.06711108 -0.055564895 0.04490969 -0.179689 -0.060033273 0.02873831
0.06444397 -0.05239863 -0.0036217037 -0.106842324 0.002519642 -0.060029995 0.035187077 -0.06584931
-0.0026025036 0.09508223 0.014861817 -0.0102655655 0.051227245 0.0 0.041597147 0.028551327
0.0 -0.04909643 -0.054151233 -0.0046221977 -0.052174978 0.07664129 0.022374483 -0.10581941
0.1145285 0.07900048 -0.060033385 -0.044845417 0.04857017 -0.034374073 0.06745454 -0.02602228
0.0429462 -0.006417829 0.0 0.019267423 0.044954695 0.08632609 -0.03178687 -0.01921717
0.08604215 0.0699089 0.07538966 -0.060031854 -0.057517976 -0.08804591 0.0 -0.07777264
-0.07140366 -0.048733976 -0.03384753 0.08666957 -0.05807487 0.04193378 -0.11029757 -0.01708681
-0.0055517484 0.028358985 0.08822865 0.0 0.06777196 -0.123668864 0.03578549 -0.00063830515
0.0018052023 -0.07000801 0.05265053 0.0 0.0 0.013860005 -0.01647955 -0.04858526
0.05184436 -0.09886145 -0.047341824 0.071933694 0.009127546 -0.057863787 0.029290158 -0.116916485
-0.012824089 0.0637077 -0.021780187 -0.023794608 -0.07492274 -0.059373636 0.023297925 -0.064891346
00000000: 0000 0000 a8ab 973d a932 ad3d 9e55 bbbd
00000010: 87a2 0bbc 2c44 73bd 1b8c 923d 4bb5 793d
00000020: 9beb b23c a0d7 df3d a0d5 a73d 4a1b febd
00000030: 8428 283d 452c 0fbc 8eec 5fbd d87e e0bc
00000040: a848 9fbd 6c46 893d 4a91 45bd a16b 9b3d
00000050: 84d6 b03c f076 adbd b467 ccbb 0000 0000
00000060: f7e6 4cbd 5583 d7bd d6b5 26bd 9a33 893d
00000070: 4d24 75bd 56e4 75bd 24a9 a7bc 0000 0000
00000080: 8cac 4c3d 71da 2cbd 8971 89bd 0498 63bd
00000090: 39f3 373d 6500 38be 73e5 75bd 9b6c eb3c
000000a0: 33fb 833d f29f 56bd 1b5a 6dbb 26d0 dabd
000000b0: 9420 253b 03e2 75bd 5320 103d 01dc 86bd
000000c0: c48e 2abb 79ba c23d fa7e 733c e730 28bc
000000d0: a9d3 513d 0000 0000 c561 2a3d 79e4 e93c
000000e0: 0000 0000 5719 49bd afcd 5dbd ce75 97bb
000000f0: 6eb5 55bd 1cf6 9c3d b14a b73c d9b7 d8bd
00000100: eb8d ea3d 01cb a13d 91e5 75bd d4af 37bd
00000110: 84f1 463d d4cb 0cbd 9b25 8a3d ad2c d5bc
00000120: 5be8 2f3d a74c d2bb 0000 0000 b7d6 9d3c
00000130: 6a22 383d bccb b03d f332 02bd 546d 9dbc
00000140: de36 b03d 662c 8f3d e565 9a3d f6e3 75bd
00000150: f897 6bbd 6a51 b4bd 0000 0000 4347 9fbd
00000160: 153c 92bd 479d 47bd b5a3 0abd d17f b13d
00000170: eadf 6dbd c1c2 2b3d b1e3 e1bd a3f9 8bbc
00000180: 71eb b5bb 1a51 e83c 39b1 b43d 0000 0000
00000190: 06cc 8a3d 1a46 fdbd ce93 123d ef53 27ba
000001a0: 8a9c ec3a 5c60 8fbd 15a8 573d 0000 0000
000001b0: 0000 0000 1315 633c 1f00 87bc 5601 47bd
000001c0: c05a 543d df77 cabd 80e9 41bd f951 933d
000001d0: b48b 153c 9402 6dbd eaf1 ef3c e971 efbd
000001e0: 211c 52bc 2f79 823d 5d6c b2bc e9ec c2bc
000001f0: 1871 99bd c531 73bd 4adb be3c c1e5 84bd

functional_3_1/batch_normalization_5_1/batchnorm/sub:0 f4 [32]
-0.58282256 -0.5473778 -0.50423336 -0.11860767 -0.51094353 -0.011393428 -0.11154072 -0.5630274
-0.5294619 -0.5538414 -0.09464806 -0.36607757 -0.56314754 -0.52755976 -0.71678966 -0.12820296
-0.47403145 -0.08025329 -0.13628684 -0.055018187 -0.55818844 -0.54978573 -0.64425313 -0.10579081
-0.0026496947 -0.59072196 -0.49339336 -0.50643563 -0.58157885 -0.43395746 -0.5214145 -0.5172497
00000000: dc33 15bf f420 0cbf 7015 01bf 94e8 f2bd
00000010: 32cd 02bf 80ab 3abc 766f e4bd 9022 10bf
00000020: d18a 07bf 8dc8 0dbf d8d6 c1bd 856e bbbe
00000030: 702a 10bf 280e 07bf 877f 37bf a347 03be
00000040: 40b4 f2be d65b a4bd c78e 0bbe c05a 61bd
00000050: 70e5 0ebf c2be 0cbf c6ed 24bf daa8 d8bd
00000060: 80a6 2dbb 8e39 17bf 0e9e fcbe c4a5 01bf
00000070: 5ae2 14bf ac2f debe 6c7b 05bf 7a6a 04bf

functional_3_1/batch_normalization_5_1/batchnorm/mul:0 f4 [32]
0.979641 1.0180631 0.8133525 0.58959347 0.8576723 0.96683127 0.4919031 0.6399067
0.6551428 0.7401118 0.7982997 0.98744774 0.8009129 0.8529506 0.8851186 0.76956093
0.70910233 0.6894716 0.8437401 0.7084407 0.52184963 0.8034168 0.6995977 0.7183165
0.4682538 0.85417765 0.55186385 1.0518762 0.60724044 0.551858 0.81074524 0.78123677
00000000: c1c9 7a3f e44f 823f df37 503f 99ef 163f
00000010: 6990 5b3f 4182 773f b9da fb3e edd0 233f
00000020: 70b7 273f f877 3d3f 5e5d 4c3f 60c9 7c3f
00000030: a108 4d3f f85a 5a3f 2297 623f f201 453f
00000040: bb87 353f 3681 303f 5aff 573f 5f5c 353f
00000050: f097 053f b9ac 4d3f d618 333f 97e3 373f
00000060: f6be ef3e 63ab 5a3f f346 0d3f e1a3 863f
00000070: 1c74 1b3f 9146 0d3f 008d 4f3f 22ff 473f

functional_3_1/batch_normalization_4_1/batchnorm/sub:0 f4 [64]
-0.22093096 -0.61036164 -0.45479298 -0.33483714 -0.42069995 -0.3190463 -0.25025922 -0.340051
-0.5732124 -0.44881827 -0.28067857 -0.44998506 -0.41065848 -0.47055537 -0.44310126 -0.31721428
-0.32346293 -0.33901417 -0.36877933 -0.2725419 -0.44339582 -0.3912641 -0.43500653 -0.41266993
-0.43429118 -0.517338 -0.39135104 -0.38184738 -0.1681876 -0.31390804 -0.48435777 -0.28391927
-0.2986371 -0.42904142 -0.35560092 -0.32981548 -0.43017542 -0.40932336 -0.22567044 -0.25202537
-0.43936753 -0.39513478 -0.3719982 -0.37342766 -0.3956081 -0.30832723 -0.32406172 -0.35805368
-0.48703304 -0.3893921 -0.4286012 -0.4901275 -0.46121565 -0.37951308 -0.5366709 -0.3935194
-0.22022374 -0.48091334 -0.3780985 -0.48302716 -0.40299165 -0.34083396 -0.25198177 -0.31508857
00000000: ba3b 62be a940 1cbf a0da e8be c66f abbe
00000010: fc65 d7be 095a a3be fa21 80be 2a1b aebe
00000020: 0cbe 12bf 82cb e5be 1ab5 8fbe 7164 e6be
00000030: d441 d2be a2ec f0be 2bde e2be e969 a2be
00000040: ef9c a5be 4493 adbe a5d0 bcbe 9d8a 8bbe
00000050: c704 e3be c553 c8be 2db9 debe 7949 d3be
00000060: 6a5b debe 4370 04bf 2a5f c8be 8081 c3be
00000070: 5f39 2cbe 8eb8 a0be befd f7be de5d 91be
00000080: f6e6 98be 51ab dbbe 5311 b6be 93dd a8be
00000090: f43f dcbe d592 d1be 2716 67be 7809 81be
000000a0: c8f4 e0be 1b4f cabe 8c76 bebe e931 bfbe
000000b0: 258d cabe 11dd 9dbe 6beb a5be d052 b7be
000000c0: 655c f9be 675e c7be 9e71 dbbe fef1 fabe
000000d0: 7524 ecbe 8a4f c2be 4463 09bf 607b c9be
000000e0: 5582 61be 463a f6be 2096 c1be 564f f7be
000000f0: ec54 cebe ca81 aebe c103 81be 4a53 a1be

functional_3_1/batch_normalization_4_1/batchnorm/mul:0 f4 [64]
0.7884538 1.1251221 0.8637337 0.90332484 0.5996483 0.8772943 1.1319656 0.9035163
1.1516483 1.1360929 1.1262856 0.9543428 0.87867796 1.0949372 0.9499182 0.8021435
0.6095697 0.930005 1.304144 0.7356613 0.94253474 0.9401635 0.90052676 0.84154075
0.9379952 0.9656158 0.9105727 1.203934 1.0962945 0.9298105 0.95302594 0.9181895
1.0024948 0.8797116 1.11835 0.79969794 1.0965028 0.7559019 0.7488611 0.9827793
0.82794076 0.72134745 0.8991989 1.0495212 1.0880613 0.69560266 1.0710661 0.8778245
0.98257273 0.8162245 1.0021796 0.8709728 1.0452232 0.722875 1.1176883 0.94209313
0.95068765 1.0052345 0.94003576 1.0919319 0.7908269 0.9457363 0.9168836 0.8765384
00000000: 1cd8 493f 0004 903f a71d 5d3f 4c40 673f
00000010: 8d82 193f 5c96 603f 40e4 903f d84c 673f
00000020: 3669 933f 7e6b 913f 202a 903f cf4f 743f
00000030: 0af1 603f e726 8c3f d72d 733f 4759 4d3f
00000040: c30c 1c3f cf14 6e3f 31ee a63f 4d54 3c3f
00000050: f549 713f 8eae 703f ec88 663f 376f 573f
00000060: 7420 703f 9932 773f 4b1b 693f 821a 9a3f
00000070: 6153 8c3f 1008 6e3f 82f9 733f 780e 6b3f
00000080: c051 803f c834 613f 1826 8f3f 01b9 4c3f
00000090: 345a 8c3f c982 413f 5cb5 3f3f 6d97 7b3f
000000a0: edf3 533f 3aaa 383f e631 663f b656 863f
000000b0: 9845 8b3f 0413 323f b218 893f 1bb9 603f
000000c0: e389 7b3f 17f4 503f 6c47 803f 13f8 5e3f
000000d0: e0c9 853f 560e 393f 6910 8f3f 042d 713f
000000e0: 4460 733f 86ab 803f 2fa6 703f 6dc4 8b3f
000000f0: a273 4a3f c61b 723f e2b8 6a3f d264 603f

functional_3_1/batch_normalization_3_1/batchnorm/sub:0 f4 [128]
-0.028282393 -0.40088633 -0.33280295 0.03276382 -0.24645096 -0.027352149 -0.30780426 -0.07602301
-0.31957462 -0.27982208 -0.17674221 -0.008706213 -0.111219116 -0.018158985 0.062360924 -0.037778374
-0.09573218 -0.19125406 -0.050098713 -0.27907187 -0.044487063 0.032268304 -0.24583983 0.09072457
-0.025943391 -0.012062823 0.04120358 -0.38811842 -0.09190428 0.07920682 0.0072768526 0.0642248
-0.17569147 -0.029977031 -0.41029698 -0.041070703 -0.056562804 -0.050947372 -0.09001114 -0.16009364
-0.32111615 -0.103930004 -0.1258455 0.1002443 -0.052613057 0.047916826 -0.12008119 0.049252376
-0.14523295 -0.23026198 -0.025083575 -0.28417534 -0.26093766 0.041687187 -0.15569834 -0.18331373
-0.069515795 -0.34712115 -0.13668475 0.0038720248 0.0063629597 -0.13401899 -0.061208937 -0.09002562
-0.24382788 -0.117634036 -0.010293896 -0.024472719 -0.18684205 -0.003357239 -0.16352 -0.049359556
-0.2286294 0.098859824 0.027918873 -0.18992925 -0.33636597 -0.34318966 0.01887154 -0.04694151
-0.25671077 -0.10383231 -0.23359567 0.060735058 0.029195363 0.05237617 -0.035874825 0.11222217
0.040487934 0.011663033 0.017677167 -0.56592745 0.041130845 -0.16804257 -0.072933 0.030238282
-0.2288787 0.013322286 -0.36130583 0.09269622 -0.112547025 0.106793456 -0.064768545 0.067896344
-0.14110418 0.09251994 -0.21573707 0.024576971 0.004426923 -0.3400655 -0.058891036 -0.11779319
-0.04859854 -0.49754506 -0.08332289 -0.36825573 -0.12696569 -0.10813113 -0.29484808 0.10036066
-0.02361989 -0.33356404 -0.15461688 -0.029753838 -0.030591043 -0.115312755 -0.07195571 -0.11130547
00000000: 7ab0 e7bc f940 cdbe 2665 aabe 5b33 063d
00000010: a45d 7cbe 9d11 e0bc 8598 9dbe f4b1 9bbd
00000020: 499f a3be d744 8fbe e9fb 34be 81a4 0ebc
00000030: d9c6 e3bd 27c2 94bc 2b6e 7f3d 7fbd 1abd
00000040: 3c0f c4bd 1bd8 43be 4f34 4dbd 82e2 8ebe
00000050: 1138 36bd c52b 043d 70bd 7bbe cecd b93d
00000060: 3c87 d4bc 26a3 45bc 16c5 283d 75b7 c6be
00000070: 5038 bcbd 2f37 a23d aa72 ee3b 4b88 833d
00000080: 77e8 33be 6492 f5bc 7212 d2be c139 28bd
00000090: 66ae 67bd 31ae 50bd c357 b8bd 96ef 23be
000000a0: 5669 a4be 41d9 d4bd a5dd 00be e24c cd3d
000000b0: ca80 57bd 6f44 443d 20ed f5bd dcbc 493d
000000c0: f2b7 14be ccc9 6bbe 127c cdbc 6e7f 91be
000000d0: 9f99 85be 2fc0 2a3d 636f 1fbe 98b6 3bbe
000000e0: 4c5e 8ebd ddb9 b1be 16f7 0bbe ccc1 7d3b
000000f0: 6080 d03b 463c 09be 39b6 7abd 5a5f b8bd
00000100: 04ae 79be 1dea f0bd bba7 28bc 037b c8bc
00000110: 8653 3fbe 2005 5cbb c971 27be 3f2d 4abd
00000120: d31d 6abe 0577 ca3d 1fb6 e43c d07c 42be
00000130: 2938 acbe 8eb6 afbe 7d98 9a3c be45 40bd
00000140: 986f 83be 09a6 d4bd b433 6fbe 53c5 783d
00000150: 1d2b ef3c 6588 563d 7bf1 12bd bdd4 e53d
00000160: add6 253d 4e16 3f3c b5cf 903c 9fe0 10bf
00000170: d178 283d 5a13 2cbe e65d 95bd 46b6 f73c
00000180: 2e5f 6abe b845 5a3c 14fd b8be 84d7 bd3d
00000190: 0e7f e6bd 87b6 da3d 5fa5 84bd 3d0d 8b3d
000001a0: 9d7d 10be 187b bd3d 2eea 5cbe a555 c93c
000001b0: b90f 913b 111d aebe ba37 71bd 8e3d f1bd
000001c0: 430f 47bd 3abe febe 31a5 aabd 048c bcbe
000001d0: 4b03 02be db73 ddbd 54f6 96be e489 cd3d
000001e0: 807e c1bc e8c8 aabe e353 1ebe 52be f3bc
000001f0: 119a fabc 1829 ecbd 845d 93bd 1ff4 e3bd

functional_3_1/batch_normalization_3_1/batchnorm/mul:0 f4 [128]
1.4931635 1.4932349 1.3379532 1.551296 1.5508065 1.491948 1.4832493 1.4531863
1.5463616 1.578287 1.5810139 1.6208009 1.6045802 1.4673477 1.5830497 1.3747021
1.4249356 1.4107673 1.5455548 1.4261888 1.4716046 1.3631984 1.3442671 1.4931635
1.4773924 1.4656281 1.577034 1.5496223 1.4143912 1.403761 1.5889629 1.4931635
1.6001227 1.4008771 1.4254425 1.4102 1.4921972 1.358645 1.403539 1.5139486
1.4225327 1.5243734 1.4712152 1.3425336 1.5939593 1.4036994 1.3680676 1.4012284
1.3273752 1.5601704 1.6049168 1.5387313 1.5092326 1.4931635 1.4076793 1.3911252
1.4931635 1.4213942 1.6634516 1.3986973 1.6970412 1.3252243 1.4136714 1.667687
1.4105355 1.3335004 1.4035246 1.4193785 1.3664056 1.5839665 1.4129378 1.3760751
1.4288188 1.3881887 1.4931635 1.5092553 1.445888 1.5512446 1.4374696 1.5759662
1.4177711 1.4142684 1.6035904 1.4035335 1.3561984 1.4205934 1.4931635 1.3787982
1.5601645 1.4966207 1.3990335 1.5152708 1.4844341 1.6106381 1.620684 1.5138671
1.6057019 1.3538363 1.40195 1.4931635 1.6261629 1.4402916 1.3856032 1.5726082
1.3640752 1.4308386 1.4477088 1.4931635 1.4931635 1.333837 1.3819883 1.5969324
1.54393 1.4755622 1.6228988 1.4676826 1.596412 1.4271928 1.4038471 1.4835421
1.6657941 1.530444 1.536672 1.5390203 1.4339228 1.4036274 1.4688307 1.3637604
00000000: fb1f bf3f 5222 bf3f 0d42 ab3f de90 c63f
00000010: d480 c63f 27f8 be3f 1ddb bd3f 0202 ba3f
00000020: 2def c53f 4f05 ca3f aa5e ca3f 6776 cf3f
00000030: e262 cd3f 0dd2 bb3f 5fa1 ca3f 3df6 af3f
00000040: 4a64 b63f 0694 b43f bdd4 c53f 5b8d b63f
00000050: 8a5d bc3f 497d ae3f f210 ac3f fb1f bf3f
00000060: 321b bd3f b499 bb3f 40dc c93f 065a c63f
00000070: c50a b53f 71ae b33f 2363 cb3f fb1f bf3f
00000080: d2d0 cc3f f14f b33f e674 b63f 6f81 b43f
00000090: 5100 bf3f 14e8 ad3f 2aa7 b33f 11c9 c13f
000000a0: 8d15 b63f ab1e c33f c850 bc3f 24d8 ab3f
000000b0: dc06 cc3f 6cac b33f d71c af3f 745b b33f
000000c0: 6ee7 a93f aab3 c73f ea6d cd3f 26f5 c43f
000000d0: 892e c13f fb1f bf3f d62e b43f 6410 b23f
000000e0: fb1f bf3f 3ff0 b53f fbeb d43f 8308 b33f
000000f0: a538 d93f f3a0 a93f 2ff3 b43f c576 d53f
00000100: 6d8c b43f 24b0 aa3f b2a6 b33f 32ae b53f
00000110: 61e6 ae3f 6abf ca3f 25db b43f 3b23 b03f
00000120: 89e3 b63f 2bb0 b13f fb1f bf3f 472f c13f
00000130: dc12 b93f 2f8f c63f 01ff b73f 43b9 c93f
00000140: 8679 b53f bf06 b53f 7342 cd3f fca6 b33f
00000150: e997 ad3f 01d6 b53f fb1f bf3f 767c b03f
00000160: 78b3 c73f 4491 bf3f 8813 b33f 65f4 c13f
00000170: f001 be3f 6429 ce3f 9372 cf3f 66c6 c13f
00000180: a487 cd3f 824a ad3f 1973 b33f fb1f bf3f
00000190: 1b26 d03f 7a5b b83f 725b b13f 3a4b c93f
000001a0: 049a ae3f b825 b73f 864e b93f fb1f bf3f
000001b0: fb1f bf3f 2cbb aa3f fee4 b03f 4868 cc3f
000001c0: 809f c53f 39df bc3f 26bb cf3f 06dd bb3f
000001d0: 3a57 cc3f 41ae b63f 43b1 b33f b5e4 bd3f
000001e0: be38 d53f 97e5 c33f abb1 c43f 9efe c43f
000001f0: c88a b73f 10aa b33f a502 bc3f b38f ae3f
