models/Pomurska/speed/Pomurska_speed_model.onnx (onnx, 61201 bytes, 13 tensors)

functional_11_1/dense_23_1/Cast/ReadVariableOp:0 f4 [32, 1]
00000000: 3702 6e3c c120 c03d 866e 06be 506a 033c
00000010: 19f2 a2bd bebc bebb 0f30 223e af07 933d
00000020: b9ae 083e 8321 0cbd 490e 2e3d 569e 663d
00000030: 70e7 9c3b 7d91 fe3d 3554 073e 9cb0 f8bd
00000040: 9cc9 f03d eaee b03d 2dd0 df3d 4b95 9b3d
00000050: b03e 0b3e bf42 a13d 8cca 5ebe b085 853d
00000060: 06c9 62bc 72a8 22be 578b 283e 4bec 8a3d
00000070: 5fa5 1a3e 3a4b 0fbc 9ba6 eebc 3164 1fbd
0.014526895 0.09381247 -0.13128099 0.008020952 -0.07956333 -0.0058208397 0.15838645 0.071792
0.13347901 -0.034211647 0.042494092 0.056303345 0.0047883317 0.124300934 0.13215716 -0.121430606
0.11757204 0.08639319 0.10928378 0.07596835 0.13598132 0.07874059 -0.21756953 0.065196395
-0.013841873 -0.1588457 0.16459404 0.067833506 0.15102147 -0.008745963 -0.029132178 -0.03891391

functional_11_1/dense_22_1/Cast/ReadVariableOp:0 f4 [64, 32]
00000000: 2f0a 46be 163b d6bd e7a6 ca3d 578d 19be
00000010: c16f a2be 5f4d 353c b165 30bd 49d6 12be
00000020: 8f7e 82be bf5d fb3d ef3e 22bd e30c b03d
00000030: 7441 aa3d 4e9a 61bc 157d 713e df29 08bb
00000040: b44a 903c c010 793e 53fb 043e 012c 0c3e
00000050: 3383 933d 6089 643d 594f ea3d dbf4 0d3a
00000060: 0b0f 023d f7b6 9e3d 8575 ab3d 84ee 35be
00000070: 05cf 603e 83bb 59be da28 733e ea6d 793e
00000080: 5cce cabd 939c 07bd 213c 72be fcd0 82be
00000090: 8c76 333e 0c48 bdbb 839f 37be 1994 773e
000000a0: 0f48 f43b 7b56 75be dcf8 cebd 863e 523e
000000b0: 13eb dbbc ca06 6bbe 1f04 05be 8c65 f0bb
000000c0: e10e 793d 0dec 3abc f8e5 113d 6e92 b53d
000000d0: 09fd fb3d a9ea 4ebd 1ce2 383e 1cc1 2fbe
000000e0: c046 093d 7aeb 4d3e 1940 5a3e bda5 a63d
000000f0: 9698 c1bd 223f b0bc b4f6 5cbb 1a0a f4bd
00000100: 55b7 5dbc 0579 60be c07f 72be dab6 9a3e
00000110: 3214 55bc 51af 79bd e11e 673e dbe6 b63e
00000120: f347 873c 0a35 0fbe efab 6f3e bcf9 0abd
00000130: f0f0 053e 6b12 36be 8164 4c3e a25e 803e
00000140: 8ee5 013e ec0a 97bc 73a1 2bbe 8618 90be
00000150: 921e 35bb aebe 753c e961 6d3e efc4 2c3d
00000160: 63f0 9b3e a8a6 613e b349 70be 9530 7e3e
00000170: 8a82 0b3e df62 773d 7de4 97be 3ac3 99be
00000180: 680b e83c 5bf0 bfbd 425e ac3b 497e 8d3e
00000190: 6d06 b9bd 475a c1bd 7123 87be 8de0 4abe
000001a0: 316a 733d 9e17 acbe 135a 063e 3e33 8a3d
000001b0: 6318 c13d 0af6 19be e171 04bd 49ce 1dbe
000001c0: 9549 d6bd 25c3 633d 3e66 f93d 6b20 8e3e
000001d0: 66e5 85bd 8cec d7bc 42a1 04be 2b93 4a3e
000001e0: 3bc8 aabc 71af 6a3e 94c8 01be 4b28 043e
000001f0: 67cf c03d fe8b 72bd ebbb 7c3d 4f3b f23d
00000200: 2219 0cbe b2ef dcba 6654 98be de9b 97bd
00000210: 5f45 8e3e d48b 90bd 4b15 d93d d25d ce3c
00000220: 45c4 893c 2fc5 cabd 4c63 99bc ef82 8dbd
00000230: c715 623d a926 193e b6cd 50be bb7c b7bd
00000240: a855 a33d b2ec 3a3d 1dd3 84bd be05 243d
00000250: 0172 acbc dcff c0bd ed4f 673e 099e 12be
00000260: 9dca e0bb f04c 29be f1ae 1abb d563 4abd
00000270: 91a0 cabd 59d4 0a3e 6cb1 1bbc 0bba 4bbc
00000280: bb77 b63c 4af7 ccbd e004 14be b71a 42bd
00000290: ab36 c53d f472 91bd c0e8 6abe 0e25 32bd
000002a0: ed8b dabd 1480 31be 7acf 0a3e df31 363e
000002b0: 91c1 87be b38b a2bd c37a 243b bd7a 2fbd
000002c0: d5a2 f03d 3dcb adbd d622 bf3d 6d1a b53d
000002d0: 8b4f 143e 9e3e dc3d 89bc 16bd 708e 81be
000002e0: 2bc2 b9bd 67c7 0fbe e3c0 6cbe 23c3 cd3d
000002f0: 081a 90be 6ff3 aa3d e5c2 4a3e 91bc 423e
00000300: 61c5 623d a531 a4bd 22ba ffbd 3b7b 8a3e
00000310: 6e29 53be a78b 5dbe 265e 7cbd 45ce c73d
00000320: 8141 8d3e e606 76be 5984 38be c5cd 46be
00000330: 787c 8e3e c261 c13c 2822 7ebe f9f0 9d3d
00000340: 666e 94be aec2 aa3d da27 d03d 5251 833d
00000350: e880 4e3e 2ee9 8f3d ae9e 4ebd 6b56 0dbe
00000360: ad24 63be 1395 a6bd 23e3 80bd 8611 6fbe
00000370: c5e4 723e 6ab2 e9bd 26ac ebbb 3b9d 4e3e
00000380: cdbe 5bbd f947 453e d714 d6bd 4b18 653e
00000390: f36e 8dbd 4e09 633e 47f4 87bd 5996 02be
000003a0: 8f9f 793e 5ea0 983d eccd 42bd 970b d5bc
000003b0: 75cb cf3c cf91 78be a366 43bd e68d 71bd
000003c0: 86f4 bcbd 0f82 04be b13d 763e 4c3f 12be
000003d0: 91ac 71be b387 04be 4aac 173e 0988 3f3e
000003e0: e083 f23d b04a 55be 7920 6f3e 5a0c 4cbd
000003f0: c83c 26be 81bf 1d3e 3ef4 113b dd06 fc3c
-0.19339822 -0.104604885 0.09895115 -0.14995323 -0.31725886 0.01106581 -0.04306573 -0.14339556
-0.25487182 0.1227374 -0.0396108 0.08596208 0.083132654 -0.013769699 0.23582871 -0.002077691
0.017613746 0.24322796 0.12986498 0.13688661 0.07202759 0.055795074 0.114409156 0.00054152095
0.031752627 0.077497415 0.083720244 -0.17766768 0.21953972 -0.21262936 0.23746052 0.24358335
-0.09902641 -0.033108305 -0.2365575 -0.25550067 0.17525691 -0.005776411 -0.17931943 0.24177589
0.007454879 -0.23958771 -0.1010606 0.20531663 -0.02684549 -0.22951809 -0.12989853 -0.007336324
0.060805205 -0.011408818 0.035619706 0.0886582 0.12304122 -0.050516758 0.18055004 -0.17163509
0.033514738 0.20109358 0.21313514 0.08137081 -0.094529316 -0.02151448 -0.0033716382 -0.11915989
-0.013532479 -0.21921165 -0.23681545 0.3021763 -0.013005303 -0.06095821 0.22570373 0.35723004
0.0165138 -0.13985077 0.23405431 -0.03392957 0.13080192 -0.17780463 0.19960214 0.250722
0.12685224 -0.018437825 -0.16760807 -0.2814371 -0.002763663 0.014999075 0.23181881 0.042179998
0.30456838 0.2203623 -0.23465614 0.2482322 0.13624015 0.060397025 -0.2966651 -0.3003176
0.028325751 -0.09372016 0.00526026 0.2763541 -0.09034429 -0.09441047 -0.26394227 -0.19812222
0.059427444 -0.33611768 0.13120298 0.06748055 0.094284795 -0.15035263 -0.032335166 -0.15410723
-0.104632534 0.055606026 0.12177704 0.27759108 -0.06537895 -0.026357912 -0.1295214 0.19782703
-0.02084743 0.22918488 -0.1267417 0.12905996 0.09414559 -0.05921554 0.06170265 0.118277185
-0.13681462 -0.0016856103 -0.2975189 -0.07402776 0.277873 -0.0705792 0.105997644 0.025191221
0.016817221 -0.09900891 -0.018724106 -0.06909739 0.05519655 0.14956154 -0.20390972 -0.08959337
0.07975322 0.045635886 -0.06485579 0.04004454 -0.021050455 -0.09423801 0.22589083 -0.14318098
-0.006860091 -0.16533256 -0.0023602808 -0.049411613 -0.09893907 0.13557567 -0.00950275 -0.012434493
0.022273889 -0.10008104 -0.14454985 -0.04738876 0.09629568 -0.07102004 -0.2294035 -0.04349237
-0.1067122 -0.17334014 0.13555709 0.17792462 -0.26514867 -0.07936802 0.0025097586 -0.04284166
0.11749808 -0.0848603 0.09332816 0.08842931 0.14483468 0.10754131 -0.036800895 -0.25303984
-0.09070238 -0.1404091 -0.23120455 0.10046985 -0.2814486 0.083472125 0.19800909 0.19017245
0.055364016 -0.080172814 -0.12486674 0.27047142 -0.20621273 -0.21635304 -0.061613224 0.0975614
0.27589038 -0.24026069 -0.18019237 -0.19414432 0.27829337 0.023606185 -0.24817717 0.077119775
-0.28990477 0.083379135 0.10163851 0.06411995 0.20166361 0.07026897 -0.050444297 -0.13802497
-0.2218196 -0.081339024 -0.06293323 -0.23346528 0.23720081 -0.11410983 -0.0071921526 0.20177166
-0.05364876 0.19265737 -0.10453194 0.22372548 -0.069059275 0.22171518 -0.06638389 -0.12752666
0.24377273 0.074524626 -0.047559664 -0.026006503 0.02536557 -0.24274372 -0.047705304 -0.058973216
-0.09226327 -0.12940238 0.24046971 -0.14281958 -0.23600985 -0.1294239 0.14811817 0.18704237
0.118415594 -0.20829272 0.23352231 -0.049816467 -0.16234124 0.15405084 0.0022270824 0.030764991

functional_11_1/dense_22_1/Add/ReadVariableOp:0 f4 [32]
00000000: 640c ba3d 8f20 91bd 302f c93c e8d5 8abd
00000010: 9efe 3dbd 9e64 0ebe bfc4 663d 140b 273e
00000020: c2c8 d83d 5f29 39bd 7f0f 3fbd fc38 37bd
00000030: 54ca 32bd dc8d 04bd d469 4a3d 6cbc 8f3d
00000040: b7a2 02be de7a 3ebd 296d 333d ce24 3c3e
00000050: 86d8 f33d 30b4 923c 8487 20be 5908 1cbc
00000060: 699c 173d 32e6 dc3d f692 f93c 6072 5d3e
00000070: b894 ef3b 32f1 693e fc38 693d 8617 efbc
0.090843946 -0.07086288 0.024558634 -0.06779081 -0.0463854 -0.1390557 0.056339975 0.1631282
0.105851665 -0.04520547 -0.046645638 -0.04473208 -0.043649986 -0.03236185 0.04941733 0.070183605
-0.12757383 -0.046503894 0.043805275 0.18373415 0.11906533 0.017908186 -0.15676695 -0.009523475
0.0370144 0.10786094 0.030465584 0.21625662 0.00731143 0.22845915 0.05693911 -0.029186022

functional_11_1/dense_21_1/Cast/ReadVariableOp:0 f4 [128, 64]
00000000: 472b 22bd 7b52 fd3d 92b3 e53d 240c 333d
00000010: fc2a a03d 6aba be3c 90da 883d 8164 3d3d
00000020: 0c4b 84be cfe1 1f3e 93be dbbd b143 eb3b
00000030: 7229 07be e1cd 353e 65e0 4d3e c9be ffbc
00000040: cc88 17be f468 37be 41bc 5e39 f01a 50bd
00000050: 9750 083e c367 113e 8987 7f3e 5c65 0ebe
00000060: 13b7 f53c 55d0 bbbb 8276 22bd 6c6e ee3d
00000070: b23a a13d afac 233e 940a 2b3d 025d dd3b
00000080: 23e8 df3d 5b87 48bd 32ac 0abe 9f0e a73d
00000090: 7a56 233e 080d 593d 4ca7 1dbe 7563 13bc
000000a0: 638a a23c b122 443e f4de 0a3e 95db 4b3d
000000b0: 9d51 a2bd aa15 073d d5fc e1bc 52ac 1b3e
000000c0: 705c 8cbb b2ad 59bd a7e2 503d 8453 afbd
000000d0: e225 a13d 8a10 0b3e 654a 22bd 895f 83bd
000000e0: fcf9 343e f571 2c3e fa5e 1e3d e944 9bba
000000f0: 406c 383b 9456 c2bd bd0c 863c b5ff 41bd
00000100: fe4a 853d aa53 383e 6cc8 a9bc 2380 093d
00000110: 3ea5 b23d 0963 d6bd 5168 89bd a6e8 173d
00000120: 6c3c 4b3d c11c dd3d 09e4 67bd f444 f43d
00000130: 07f5 863d fe45 25be cd52 a4bc 1509 803d
00000140: 443f d73d eb2a 22be 9eed 34bd d2f3 663e
00000150: 350f acbd 6f33 df3d 7e72 ccbd 14d3 3c3e
00000160: 7226 273e ab80 e83d d76d 273e 2383 613c
00000170: 19cb a83c 48f7 16be 1db7 96bd fa9d 8abe
00000180: 50cb b3bc 6889 19bc be77 c83c 589e 963d
00000190: bb7a 62bd 845d b2bd 846f 0abd 4efc 313e
000001a0: b455 0f3d 7c63 453e 5161 73bc 5afc 89bd
000001b0: 5b86 8ebd b1f0 adbd 36a5 733d fdde d939
000001c0: 755e 9e3d 2713 1c3e 81a2 89bd 0e43 fa3c
000001d0: 07ff 773e bdf5 e33d 4bd3 2ebe 1b99 943d
000001e0: 049f 1ebe e1fd d93d 72ca df3c f49f 343e
000001f0: 4ab5 073d 39d5 843d d33f 2bbe c101 b6bd
00000200: 2fe2 783d fd96 b9bd c216 3abe 7997 5a3e
00000210: b6d2 0fbe a438 f03d a3cc 55bd aeab 5d3d
00000220: 2725 c4bd b563 96bd 40fe 1fbe a0bf b33c
00000230: fcfa cd3d bae8 1e3e 98a1 3fbe bddf 66be
00000240: 1bb0 313c b8e0 5b3c 0992 cd3d d43d a53d
00000250: 4933 75be ae3b ef3d 42dd ae3d 8276 c13d
00000260: 9ef1 57bd 390f 913d 7044 a23d 6706 7abd
00000270: 770a fcbd b4c0 a5bd e81c 1b3e b71c ffbb
00000280: 8b7d 0fbe 69cc 593e 448a c8bc fa16 45bd
00000290: 7fa3 683d 0292 95bd 5ccd a3bd 09b5 5a3e
000002a0: a85f 27bd 7ed7 5fbe bd90 43bd 8685 a13c
000002b0: 1372 24bc 14c4 dabd 6308 43be 9983 12be
000002c0: 8f14 4d3e 95ab 233d 3c85 8dbe 1ecd 133e
000002d0: 3f74 a03d bf20 a83c 3568 df3d 0772 efbc
000002e0: 794b eb3c c2ef a53d 5c1e 653e d4ef d1bd
000002f0: b42e 70bd 6b52 0bbe 9d56 b9bd 3209 61bc
00000300: 9712 ee3d f4f0 94bc bced 663b d5f4 16be
00000310: d9f8 38bc de10 9ebd 05d4 3f3d b975 3abe
00000320: 2079 e1bd 7230 ea3c c9f6 6c3d f2fe 99bd
00000330: 9885 ec3c 5711 5fbc 90ca 7e3e 8c9a 3abd
00000340: 9188 523e 036f 20bc a570 9bbc cf81 ab3a
00000350: 62c2 83bd 18c8 033c e76d d0bc a0e8 553e
00000360: 0867 463d 3a77 8dbc 6a92 0a3e 2410 05be
00000370: fb07 1fbe 72ef 28be 3e00 ba3d fe9d 1ebe
00000380: e276 5c3d 9a10 ac3b 7801 98bd 0dfd 89bd
00000390: a218 30bd 1dfb 933d 07e5 d63d 8fb5 ce3d
000003a0: 8afa 28bd 1177 eb3d e6aa 98bd f52c 67bd
000003b0: 9fa0 01bd a038 283d 0824 18be 826c 13be
000003c0: e8b0 293e aa4c 1d3e 6732 ddbd a417 da3c
000003d0: 8b90 023e c7a8 f7bc 9cfd c8bb ddcf a23d
000003e0: 7018 b6bd 82e6 963d 6b7f be3c 86e1 323e
000003f0: d71d 313e 990b 8b3e 2710 34bd 8a38 df3d
-0.039592054 0.123692475 0.11215891 0.04371275 0.078206986 0.023282249 0.066823125 0.046238426
-0.25838506 0.15613483 -0.107297085 0.0071797003 -0.13199404 0.17754318 0.20105131 -0.031218903
-0.14798278 -0.1791113 0.000212417 -0.05080694 0.13311993 0.14199738 0.24954046 -0.13905853
0.029994523 -0.005731622 -0.0396638 0.11642155 0.07872523 0.15983842 0.041758135 0.006755472
0.109329484 -0.04895721 -0.1354225 0.081570856 0.15950957 0.052990943 -0.1539585 -0.00899588
0.019841379 0.19153859 0.13561612 0.049769957 -0.07925723 0.032979645 -0.02758638 0.15202454
-0.0042834803 -0.053144164 0.050997403 -0.08560851 0.07868554 0.13580528 -0.03962173 -0.06414706
0.17673486 0.16840346 0.038664795 -0.0011846098 0.0028140694 -0.0948917 0.016363496 -0.047363
0.06508444 0.18000665 -0.020725451 0.033569466 0.08722924 -0.10468108 -0.0670935 0.037087105
0.04961817 0.107965 -0.056613956 0.11927214 0.06589704 -0.16139981 -0.020059014 0.06251732
0.10510114 -0.15836684 -0.044171922 0.22553948 -0.08401338 0.10898482 -0.09982775 0.18439895
0.1632326 0.113526665 0.16350494 0.013764176 0.020604657 -0.14742768 -0.07359145 -0.27073652
-0.021947533 -0.009371139 0.02447116 0.073544204 -0.055292826 -0.08709243 -0.033797756 0.17381403
0.034993842 0.19276232 -0.014854745 -0.06737585 -0.0695922 -0.08493174 0.05948373 0.00041555605
0.0773286 0.15241681 -0.06720448 0.030549552 0.24218379 0.11130855 -0.1707279 0.07255765
-0.15490347 0.10644127 0.027318213 0.17639142 0.033131875 0.064859815 -0.16723566 -0.08887053
0.06076258 -0.09062002 -0.18172744 0.21346845 -0.14045224 0.11729553 -0.05219711 0.054118805
-0.09577399 -0.07343236 -0.15624332 0.02194196 0.10057637 0.15518466 -0.18713987 -0.22546287
0.0108452095 0.013420276 0.100376196 0.080684334 -0.23945345 0.11681305 0.08538295 0.09446432
-0.05272066 0.070829816 0.0792321 -0.061041262 -0.123066835 -0.08093396 0.15147746 -0.0077854055
-0.14012735 0.21269383 -0.024479993 -0.048117615 0.056796547 -0.073032394 -0.079981536 0.21358122
-0.04086271 -0.21859547 -0.047745455 0.01971699 -0.010036963 -0.1068193 -0.19046168 -0.14308013
0.20027374 0.039958555 -0.27640712 0.14433715 0.07834672 0.020523427 0.10908548 -0.029229177
0.028722512 0.08102371 0.22374862 -0.10250822 -0.05863829 -0.13605659 -0.09049723 -0.0137351025
0.116246395 -0.018181302 0.0035236916 -0.14741834 -0.011289799 -0.07718061 0.046833057 -0.1820897
-0.11009431 0.028587554 0.05785254 -0.0751933 0.028872296 -0.013614974 0.24881959 -0.045557544
0.20559908 -0.009792092 -0.018974612 0.0013084951 -0.0643356 0.008043312 -0.02544303 0.2088952
0.048438102 -0.017268766 0.13532415 -0.12994438 -0.15530388 -0.16497591 0.090820774 -0.15489957
0.053824313 0.0052510025 -0.07422155 -0.06737719 -0.04299224 0.072256304 0.10492902 0.10093223
-0.041254558 0.114973195 -0.07454471 -0.05643936 -0.03164732 0.041069627 -0.14857495 -0.14396861
0.1657139 0.15361276 -0.10800629 0.0266226 0.12750451 -0.030231846 -0.006133748 0.07949803
-0.0889138 0.073681846 0.023254117 0.17468843 0.17296539 0.27157286 -0.043960717 0.10899456

functional_11_1/dense_21_1/Add/ReadVariableOp:0 f4 [64]
00000000: 4728 6cbe e972 da3d 53a4 82bd 8e36 2fbd
00000010: 081d 0cbd 6569 a63d 09cb babc 705b 46bd
00000020: ccef 703c 0ca3 6c3d 178a 953c 12e3 c3bd
00000030: c96d 183e 798f 0cbc f1ba 873c fb09 efbc
00000040: 8b82 5abd 9a1a 543c 54f3 e3bc e1be 63bd
00000050: 1399 e43c c15e 00be b74f 00bc f829 f83c
00000060: a621 53bb 49c6 2d3d 8842 3b3d a1f9 d7bc
00000070: 616f bebd 53f5 1f3e 7ef3 eebd ffa7 013d
00000080: e530 953d 79ff 6bbd 5935 2ebd ec9f 703c
00000090: b186 e13d 7730 7ebd 2889 8abc 8c60 cd3d
000000a0: 7a2d 083d 0fac 493c 4210 27bd ad46 e0bd
000000b0: 66ce 4ebd 3193 abbd 7466 b5bb 25fb 99bc
000000c0: 3801 e83d 0750 79bd e1da 923d 5cc4 7e3d
000000d0: aa98 553c b393 89bc 70f0 f73d c22c 303d
000000e0: 7dc8 b7ba 57c3 d13d 5620 a2bb c7f2 e7bd
000000f0: 5016 ee3c 4846 fa3c b9d1 923c 2b1a bfbc
-0.2306224 0.106664486 -0.063789986 -0.042776637 -0.034207374 0.08125571 -0.022801893 -0.048427045
0.0147056095 0.05777268 0.018254323 -0.095647946 0.1488563 -0.008579128 0.016568633 -0.029179564
-0.05334715 0.012945795 -0.027825989 -0.05560196 0.027905023 -0.12536146 -0.0078315055 0.03029345
-0.00322161 0.042425428 0.045717746 -0.02636415 -0.092985876 0.15620928 -0.11667536 0.031654354
0.072847165 -0.057616685 -0.042531345 0.014686566 0.110120185 -0.06205794 -0.016911104 0.100281805
0.033246495 0.012309088 -0.04078699 -0.1095098 -0.050489806 -0.08377684 -0.005535895 -0.018796513
0.113283575 -0.060867336 0.07170654 0.06219898 0.013036886 -0.016794061 0.12106407 0.043011434
-0.0014021542 0.10242336 -0.0049477024 -0.11325603 0.029063374 0.03055109 0.01792227 -0.023327908

functional_11_1/dense_20_1/Cast/ReadVariableOp:0 f4 [26, 128]
00000000: d66b d2bd f965 143e 0a28 9f3d 8047 85ba
00000010: 8f49 1d3e 6499 53bd 904e 9bbc b0ba ed3c
00000020: 10a3 333c f5e3 313e 78f8 78bd 66b2 b93d
00000030: 5095 5abd 9ccf 56bd e09d 20bd 8072 d13c
00000040: 1cba 01bd 5df7 093e 8318 403e c97f 043e
00000050: a2fa ce3d 9628 23be 1d2e a7bd 8a04 3dbe
00000060: 015d f8bd 80e5 753b 98a4 fb3c b62b 80bd
00000070: bfc1 383e 581c b03c 5455 87bd c5bd c9bd
00000080: 23fb 393e da09 dc3d d151 b2bd 782f a5bc
00000090: ca69 2dbe 46d1 d23d 2a39 803d 001d 9c3a
000000a0: c0d6 86bd 5aea 37be 1f74 3b3e 5d44 07be
000000b0: dccc 583d 3408 583d ee60 2abe 1e3a 26be
000000c0: f09a 43be 5ded 3a3e 0b29 9bbd a2d0 c73d
000000d0: 80cb 31bc 62bb 10be 2ea3 9e3d f4e4 32be
000000e0: ab7f 483e 0c9e 31be cccc 0dbe fe4f fd3d
000000f0: f6f4 cb3d 54d6 103d 2641 b6bd 8050 383b
00000100: 7fb4 0dbe c388 d0bd fb3a 1f3e 8113 183e
00000110: de8b 00be c0e4 28be 168e c53d 86d2 1fbe
00000120: 71b3 0bbe d01e 58bd 176d 393e 31c4 103e
00000130: fd67 3b3e 687f 1abe 99b4 2c3e 7200 f13d
00000140: 75ff 373e 60b9 dfbb 2079 12bd 1b5d 093e
00000150: 822a 1dbe db6a cdbd 9595 103e ac72 5abd
00000160: ba35 b63d de3d 23be ead9 893d 839d 283e
00000170: b140 493e 9c56 413d 5ee3 30be 32e0 ba3d
00000180: 6829 7cbd 9684 993d 9d13 02be db96 97bd
00000190: 860d b63d 64ac 0bbd 2d37 fdbd 924a 33be
000001a0: 76ef e83d 3793 043e 1932 aebd 88fe 83bc
000001b0: a039 d8bb 5017 87bc dd7e 21be cf4b 173e
000001c0: c3dd 0d3e b408 04be 26ef ddbd 2cf9 593d
000001d0: 93df f8bd 8695 01be 64ed 1ebd 387f 4b3d
000001e0: a0da e73c e0f9 2d3d cada 18be 89a7 efbd
000001f0: 4079 753b 5841 46bd 18b9 99bd 9cdd 343d
00000200: 3b04 7abe 2a1f 84be 2bd9 be3d 879f 7bbe
00000210: 9cac 38be 4d91 4f3d 7809 cfbd 0c84 55be
00000220: 617b 063e 2eaf 5e3c 2e72 41be bd28 04bc
00000230: b40f 793d 6101 883d 5218 36be 0aa8 2ebe
00000240: c1dc 2f3e dfce a93c a1d8 68be 7518 23be
00000250: 5351 e2bd de16 cd3d 0c26 273d 6095 2dbc
00000260: 83fd 65be 7161 a03c e96c adbd 5034 363d
00000270: 5d5d cb3d f472 8fbe 62b3 f83d 3889 51bd
00000280: fdd5 4cbd 7f63 98bc 2b1d 73be 8f67 973d
00000290: 3bb6 07be 3a7f 64be 1391 a3bc 384d 03be
000002a0: 660f 15be bdb5 2bbd af0b 8fbd 17ce 44be
000002b0: 0572 ac3d 8cba 0fbd 28b0 033e 1197 3d3e
000002c0: 7a8a 8e3c f74a a1bc e5fb 993d f1fd 7abd
000002d0: cae5 5ebe 417d 6a3b ccfe fbbd 9795 543e
000002e0: b0c4 14bd aa35 073e 5e96 35bd a1ff 083e
000002f0: 2492 e73d 43f0 89bd bedb e93d 1e19 0cbe
00000300: cb03 66bd fd59 afbd eb35 613e 0337 d4bd
00000310: 71ce 01be ff48 1b3e adeb 973e 9417 c2bd
00000320: 0e92 24be 7009 b63d bccd 583e c4b7 b13d
00000330: 0181 a23d 6e8e 793d 102c 39be a10d 12be
00000340: e0db 90bd 9b12 89bd d266 afbc 19a4 8bbd
00000350: 413f 7abe 93a9 6dbc 5069 7ebc 11c7 28be
00000360: c38a 57be 93e8 07bd 0661 af3d 70a9 e3bd
00000370: 9bf6 983c 2f16 b4bd 028e 053e 4e75 fa3d
00000380: eb0d b5bd 8c85 2b3d 123d 133d db71 353e
00000390: e391 c0bd 483c 8ebd 5ee9 813d 07da a9bb
000003a0: b58d c13d ef3a b53d 01bd 16be aaac e43d
000003b0: 5a1f ae3d 22fe d2bd 3d1c ce3b 3517 ebbc
000003c0: 1414 83bd 0ed1 19be 83a3 3dbe fd3c 1bbe
000003d0: c7a4 55bc dc37 7ebd 652c efbd 485c 5c3e
000003e0: 9598 a2bd a3ad 3a3e 2a55 9dbd d881 fcbc
000003f0: 6920 3e3e 3d88 9ebd d5fc 5f3d 6ebe 7f3e
-0.10274474 0.14492024 0.07771309 -0.0010168403 0.15360092 -0.051659957 -0.01895836 0.029019684
0.01096417 0.17372115 -0.060783833 0.0906723 -0.05336505 -0.052444085 -0.03921306 0.025567293
-0.03167163 0.13473268 0.1875935 0.12939371 0.10106398 -0.15933451 -0.08163092 -0.18458763
-0.12127114 0.0037520826 0.030718133 -0.06258337 0.18042658 0.02149789 -0.06608072 -0.09850649
0.18162207 0.107440665 -0.087070115 -0.020164236 -0.16934887 0.10293822 0.06260903 0.0011910498
-0.06583929 -0.17960492 0.18306015 -0.13209672 0.052929744 0.052742198 -0.16638538 -0.16233107
-0.19102073 0.1825461 -0.07576188 0.097565904 -0.010851741 -0.14133981 0.07745968 -0.17470151
0.19579951 -0.17345446 -0.13847655 0.12368773 0.09958832 0.03536065 -0.08899145 0.0028124154
-0.13838385 -0.10182335 0.15549843 0.1485119 -0.12553355 -0.16493511 0.09646241 -0.15607652
-0.1364267 -0.05276376 0.1810802 0.14137341 0.18301387 -0.15087664 0.16865768 0.11767663
0.17968543 -0.0068275183 -0.035760045 0.13414423 -0.15348247 -0.10030147 0.14119561 -0.053332016
0.08896966 -0.15941569 0.06731017 0.16466336 0.19653584 0.047201738 -0.17274234 0.09124793
-0.061562926 0.07495992 -0.12702794 -0.0740182 0.08889298 -0.03409995 -0.123640396 -0.17508915
0.113737985 0.12946783 -0.08505649 -0.01611258 -0.0065986663 -0.016490608 -0.15771051 0.14775012
0.13854127 -0.12893945 -0.108366296 0.053216144 -0.121520184 -0.12654695 -0.038800612 0.049681872
0.02830249 0.042474627 -0.14927211 -0.11701877 0.0037456304 -0.04840216 -0.07506007 0.044156656
-0.24415676 -0.25805026 0.09318765 -0.24572574 -0.18034595 0.05067568 -0.10109228 -0.20851153
0.13133003 0.013591571 -0.18891212 -0.008066353 0.06080599 0.06640888 -0.17782715 -0.1705629
0.17174055 0.020728527 -0.22738887 -0.15927298 -0.110506676 0.10014127 0.04080777 -0.010594696
-0.22459988 0.019577714 -0.084680386 0.044483483 0.09929917 -0.2801739 0.121435896 -0.051156253
-0.050008763 -0.018602131 -0.23741595 0.07392799 -0.13253109 -0.22314158 -0.019966638 -0.12822425
-0.14556655 -0.041921366 -0.0698465 -0.19219242 0.08420185 -0.035090014 0.12860167 0.18514659
0.017400015 -0.019689066 0.07518748 -0.061277334 -0.21767345 0.0035780224 -0.12304458 0.20760189
-0.03632039 0.13204065 -0.044332854 0.13378765 0.11307171 -0.067352794 0.114188656 -0.13681456
-0.05615596 -0.08562086 0.21993224 -0.10362055 -0.12676407 0.15164565 0.29671994 -0.094771534
-0.1607134 0.08888519 0.21172231 0.08677629 0.07934762 0.060926847 -0.18083215 -0.14263012
-0.07073188 -0.06693002 -0.021411333 -0.068184085 -0.24438192 -0.014505762 -0.015528038 -0.16482188
-0.21049027 -0.033180784 0.085634276 -0.11116302 0.018672278 -0.08793294 0.13042453 0.12229405
-0.08840545 0.041875407 0.035946913 0.17719214 -0.09402826 -0.069450915 0.063433394 -0.0051834616
0.094508566 0.08849131 -0.14720537 0.111657456 0.085020736 -0.10302378 0.0062899874 -0.02869759
-0.06400314 -0.15021154 -0.18519406 -0.15159984 -0.013039774 -0.06206499 -0.116783895 0.21519578
-0.07939259 0.182303 -0.076822594 -0.030823633 0.18567051 -0.07740829 0.05468448 0.24974987

functional_11_1/dense_20_1/Add/ReadVariableOp:0 f4 [128]
00000000: e6b0 683d 8310 91bd 649e 933d f652 9f3d
00000010: 54fc 01bd 1e7b a0bd 69e5 75bd f18c e0bd
00000020: b57c aa3c 669e bc3d 93e5 75bd 8120 a5bd
00000030: a997 b63d 2d01 fd3c e810 20bc 8e46 21bd
00000040: d17e a83d d95f 153b 7aff e93d b624 d1bd
00000050: 4374 253d 5480 bbbb 8e80 6bbd 0000 0000
00000060: 1ee5 75bd 359e 533c 72e5 75bd 0000 0000
00000070: e184 993d 4aff c1bc 0000 0000 afb4 ab3d
00000080: 3b47 0c3d 52be 013c a612 8cbd 3304 b8bd
00000090: 0000 0000 97fa ae3d 10e9 dbbd 26f4 0dbd
000000a0: cbbd 3bbd 8518 c6bd 9119 61bd 6e57 cabd
000000b0: 76d5 773d 471b b73d 1ead c33c 3022 4e3d
000000c0: 04d3 d63d f8ed 4abd c151 cd3d 7d5b 9a3d
000000d0: 3d7f d7bd 79ff b63c fb6a 623d 78cf 1f3d
000000e0: 0000 0000 9295 963d a78b fe3b a99a fb3d
000000f0: 04e2 5b3b b483 e13c 0000 0000 0000 0000
00000100: 9cff 30bc b667 933d a2d8 2e3d 1a44 653d
00000110: 74e5 75bd 1008 7139 f866 a93d 34c3 13be
00000120: 1ffa a4bd 0511 973d b54b ab3d 7bcc 053d
00000130: eef6 603d 5f6a 49bc 6ae3 d73d 06e8 a73c
00000140: 0000 0000 1845 b83d 3dc4 0cbd c902 69bd
00000150: 9a9e 7dbd fc77 bc3d 0000 0000 f7e2 d1bd
00000160: e372 b1bd fa0a dd3b 5ab0 a23d bc9b 4d3d
00000170: 3aa1 a83d 2257 a83d 3be5 75bd 611c 3dbd
00000180: 0000 0000 0000 0000 73fc 0f3d bd5e a53c
00000190: b947 6b3d 0efc 083e 0000 0000 4d81 4c3d
000001a0: 6f20 ad3c 35f3 89bd 1c06 d13c 0000 0000
000001b0: eeeb 20bd 8288 a13b bb88 e5bc 92d8 d93c
000001c0: be04 8a3d a49b 823d 9acd 44bd 6ee5 753d
000001d0: 5702 b03d 9521 d53d 070b fb3c cbf6 c13d
000001e0: e0e3 75bd 61b9 b43d 83e5 75bd 9b34 033e
000001f0: bfae a43d b2cc 2c3d 8ba3 953d 91ff 32bd
0.05680933 -0.070832275 0.07207945 0.077794954 -0.03173478 -0.07835983 -0.060033236 -0.109643824
0.020811418 0.092098996 -0.060033392 -0.0806284 0.08915646 0.03088435 -0.009769656 -0.039373927
0.08227313 0.0022792725 0.114256814 -0.1021208 0.04039408 -0.005722085 -0.057495646 0.0
-0.060032956 0.012916137 -0.06003327 0.0 0.07496048 -0.023681302 0.0 0.08384072
0.03424762 0.007918911 -0.068394944 -0.08985176 0.0 0.0854389 -0.107378125 -0.034656666
-0.045835298 -0.096726455 -0.054956023 -0.09879957 0.060506307 0.089407496 0.02388626 0.050325572
0.10489467 -0.04954335 0.10025359 0.07536981 -0.10522316 0.022338616 0.055277806 0.039016217
0.0 0.07352747 0.0077681127 0.122853585 0.0033551464 0.027528621 0.0 0.0
-0.0108031295 0.07197516 0.042687066 0.05597315 -0.060033277 0.00022986555 0.08271593 -0.14429933
-0.08055519 0.07376293 0.08364049 0.03266571 0.05492299 -0.012293427 0.10541423 0.02049638
0.0 0.089975536 -0.034366835 -0.05688742 -0.061918832 0.09202573 0.0 -0.10248368
-0.08664491 0.0067456933 0.07943793 0.050197348 0.082338765 0.08219744 -0.060033064 -0.046169642
0.0 0.0 0.035152864 0.020186776 0.057441447 0.13377401 0.0 0.049928
0.02113363 -0.06735841 0.025515608 0.0 -0.0392875 0.004929603 -0.0280193 0.026592527
0.06739186 0.06377342 -0.04804764 0.060033254 0.08594196 0.10406796 0.030644907 0.094709
-0.06003177 0.08824421 -0.060033333 0.12813036 0.08041143 0.0421874 0.07306584 -0.04370076

functional_11_1/batch_normalization_17_1/batchnorm/sub:0 f4 [32]
00000000: b880 53be 9c47 f2bd 1e78 08bf b56b 47be
00000010: 2084 e6be a96d 35be 2a8b abbd 02f3 debd
00000020: 1a4f 18be 8c1f f2be ecc1 bdbd 1437 02be
00000030: 7bbe 49be 0166 3abe 6b31 45be 806e 0abf
00000040: 6f72 05be 5a4f e8bd 8f05 0cbe dee1 2fbe
00000050: 0cba a2bd 9afc e5bd 2b46 e1be b232 d0bd
00000060: 76ee 7cbe 8b18 10bf c078 f0bc b8a1 6dbe
00000070: e44c bebd dc0d 9dbe 6e9d 79be 8d68 0dbf
-0.20654571 -0.11830065 -0.53308284 -0.1947468 -0.45022678 -0.17717613 -0.08376153 -0.10886194
-0.14873925 -0.47289693 -0.09265503 -0.12716323 -0.19701569 -0.18202974 -0.19257133 -0.5407486
-0.13031934 -0.1134326 -0.13673995 -0.17176005 -0.07945642 -0.112298205 -0.43998846 -0.10165919
-0.2470034 -0.5628745 -0.029354453 -0.23206222 -0.092920095 -0.30674636 -0.24376461 -0.55237657

functional_11_1/batch_normalization_17_1/batchnorm/mul:0 f4 [32]
00000000: cc27 713f 356b 663f ff19 583f bb3d 553f
00000010: 54cf 2a3f dca9 853f 54f4 213f 86c4 2a3f
00000020: 9277 173f a312 7e3f fc73 703f e823 493f
00000030: 8816 493f a379 3b3f aa25 443f 589c 3b3f
00000040: 1a84 3e3f 0677 273f 48b7 313f f4e5 213f
00000050: 4468 2c3f 7d5e 333f 5969 ea3e 0fac 363f
00000060: 1998 583f bbb8 213f 902a 343f a347 543f
00000070: 3281 1b3f 2dec 6c3f 8a77 653f 45a7 683f
0.9420135 0.90007335 0.84414667 0.8329732 0.6672261 1.0442462 0.6326344 0.6670612
0.59166825 0.9924719 0.9392698 0.78570414 0.78550005 0.7323248 0.7661997 0.73285437
0.7442032 0.6541599 0.6942029 0.63241506 0.67346597 0.7006605 0.457835 0.7135629
0.8460708 0.631725 0.70377445 0.8292181 0.6074401 0.92547876 0.8963553 0.90880233

functional_11_1/batch_normalization_16_1/batchnorm/sub:0 f4 [64]
00000000: 6020 acbe aed1 87be a2c6 e1be 9295 acbe
00000010: 60ab d9be 969b babe e465 b5be c90c e3be
00000020: 072c abbe 0356 c6be e322 10bf 141d 8bbe
00000030: 65b7 cebe f2dc cabe 634a aabe 6cc9 08bf
00000040: 1d68 babe 31aa 1ebf d8e3 a6be 7ad9 d8be
00000050: 8c22 b3be 7b9d 87be f5d3 bcbe 19a3 16bf
00000060: efbb d1be b62e b3be d278 9dbe 306b a2be
00000070: 40a8 d5be 8803 d5be ba91 f8be 8512 f3be
00000080: a429 b3be 1dd7 f1be cd13 a0be 1ab6 aabe
00000090: 2b8f febe 2f25 dcbe 06bb cbbe 65ae debe
000000a0: efe1 d8be 60cf d2be cb98 d5be eb78 c5be
000000b0: 06d5 adbe f574 c7be 5708 dfbe 5bb0 cebe
000000c0: 2343 24bf 97ef c5be 3aa3 babe 1bdd e9be
000000d0: 23ed b5be f56a efbe b2ec 1cbf 6355 babe
000000e0: a9e2 b6be 9d48 ffbe 1834 acbe 6d71 c5be
000000f0: 9e9f 79be 669a 02bf ea72 0bbf c543 d4be
-0.3361845 -0.2652716 -0.44096857 -0.33707863 -0.4251356 -0.36446828 -0.354293 -0.44345692
-0.33432028 -0.38737497 -0.5630323 -0.27170622 -0.40374294 -0.39621693 -0.33259878 -0.53432345
-0.36407557 -0.6197844 -0.32595706 -0.4235342 -0.34987295 -0.26487336 -0.3688046 -0.5884262
-0.40963694 -0.34996575 -0.3075624 -0.31722403 -0.41729927 -0.41604257 -0.4854868 -0.47475067
-0.34992707 -0.4723443 -0.31265107 -0.33342057 -0.49718603 -0.4299712 -0.39791125 -0.43492427
-0.42359874 -0.4117384 -0.41718134 -0.38568816 -0.33951586 -0.3895642 -0.4356105 -0.40368924
-0.6416494 -0.38659355 -0.36452657 -0.45676503 -0.35532483 -0.4676129 -0.6129867 -0.3639327
-0.35719803 -0.49860087 -0.33633494 -0.385631 -0.24377295 -0.51016843 -0.5447222 -0.41457954

functional_11_1/batch_normalization_16_1/batchnorm/mul:0 f4 [64]
00000000: 0007 933f 7732 693f 8900 583f 18d3 493f
00000010: bbb7 8b3f b928 4c3f 4e48 803f 7faa 5c3f
00000020: b2ac 593f cc6f 5a3f ccc0 613f b9ef 823f
00000030: c522 793f 495f 813f 8e70 493f cf5a 563f
00000040: 320c 7b3f cab5 513f 7c77 883f 6519 6e3f
00000050: c69c 953f 3332 673f 1ef0 403f d1a9 803f
00000060: c6e0 433f d1a0 823f 7d59 6b3f 14c9 743f
00000070: cffe 823f c354 7f3f 29f1 473f 1da7 673f
00000080: 182e 7a3f 3acf 753f 8712 603f 971f 2e3f
00000090: bcfa 893f ee0e 8f3f eb1b 413f 7c81 673f
000000a0: e26d 593f fcd1 8e3f 7a29 903f f64e 413f
000000b0: 7849 623f 1458 493f 5f6f 8b3f b0c3 653f
000000c0: a1f5 633f 6715 5a3f ddb9 333f 6f2b 7e3f
000000d0: 3a06 733f 06de 673f 6516 803f abdf 733f
000000e0: 10b2 763f df70 5b3f 011d 823f 1506 6c3f
000000f0: e6a4 623f 7924 893f a007 6e3f f6c3 433f
1.1486511 0.9109263 0.84375817 0.7883773 1.0915445 0.7974964 1.0022066 0.86197656
0.8502914 0.8532684 0.8818481 1.0229408 0.9731868 1.0107204 0.7868737 0.8373231
0.98065484 0.81918013 1.0661464 0.930075 1.1688468 0.9031097 0.7536639 1.0051824
0.7651485 1.0205327 0.91933423 0.9561932 1.0234011 0.9973871 0.78102356 0.9048937
0.97726583 0.9601933 0.8752827 0.6801695 1.0779643 1.1176431 0.75433224 0.9043195
0.8493329 1.1157832 1.1262658 0.7551111 0.88393354 0.7865002 1.0893363 0.8975172
0.89046675 0.8518891 0.7020548 0.99285024 0.94931376 0.90573156 1.0006834 0.95263165
0.9636545 0.857191 1.0165101 0.9219678 0.88532865 1.0714256 0.92980385 0.7647089

functional_11_1/batch_normalization_15_1/batchnorm/sub:0 f4 [128]
00000000: 9fe3 18be 1deb debd 7b2c 8abe 08c3 84be
00000010: eb4e 18be 278e 393c 74a0 bb3d 4f6a c33c
00000020: 582f ccbe c0ef 5abe 9f8a 5cbd c227 d13c
00000030: 9d6d 4abe 5eb0 2cbe d416 86bd 9a58 62be
00000040: be0f 73be 001f 69bb b721 70be e9b0 4a3d
00000050: 6734 17be a679 92be 67f8 bdbd 88c4 533d
00000060: 1283 3f3d 4e0b 5abe 0678 85ba 1a98 9fbd
00000070: 42d5 32be b40f 3ebe ef32 9bbc 2c2f a3be
00000080: 342d 40be 5aa1 373c 86d6 dfbc 91bb 9b3d
00000090: b582 413d 24ba 58be 2701 f73d 679b dbbd
000000a0: 520e a1bd dce0 223c ac31 2bbe 6a2b 833c
000000b0: b501 2abe a0be 91be 12b3 bebe de66 87be
000000c0: c270 aebe 26c3 18be f377 b5be 181c 01be
000000d0: 25c3 d3bb 68cb 653d 50fe bbbd 0677 8cbe
000000e0: 0d00 b0bd 50b3 47be 1371 a4be 8a1c a8be
000000f0: 23c7 51be ee2e 0abf f691 b0bd 0704 ba3c
00000100: 8ad3 a03d 0dce 22be 9f61 92be ecac 6abe
00000110: 7955 933c bd6c 3ebe cebc c4be 1a01 233c
00000120: 185d 3a3c 3606 8bbe 942d 55be 0ecc 59be
00000130: 0820 fc3d 66d3 81be 58ab 96be 1ca1 edbc
00000140: 652a 3cbd 6097 b0be c294 9fbd bca5 3bbd
00000150: a85f d1bb 727a 99be 5cb8 943d 780e b93a
00000160: a6b4 26bc fd9a 7cbd 0075 66be c1dc 5fbe
00000170: 0bcf c0be c4a3 8cbe aa44 2c3d 7bee 983d
00000180: f408 2d3d 131f 3c3d 9e26 a0bd 572c 68bd
00000190: 0cc8 aabe f331 d1be 5a41 13bd 769d 63be
000001a0: 4a24 38be 94d1 0dbe bfd9 84bd 2258 473d
000001b0: 30d1 02ba 61e4 90be f65e 1dbe 0cef 3dbe
000001c0: cbab 77be 784b 7ebe 5408 9e3d 031d 9fbe
000001d0: 6ad9 3cbe c8c1 8abe b220 52be 7fb5 84be
000001e0: 532c 2cbd 66d0 6bbe ebdd 263e 5e10 6abe
000001f0: 16b1 a0be d6da b3be d735 02be 6ef6 d8bd
-0.1493058 -0.10884688 -0.2698706 -0.25930047 -0.14873855 0.011325396 0.091614634 0.023854403
-0.3987987 -0.2138052 -0.053843137 0.025531653 -0.19768377 -0.16864154 -0.06547323 -0.22104111
-0.23736474 -0.0035571456 -0.23450361 0.04948512 -0.14766084 -0.28608435 -0.092758946 0.0517011
0.046755858 -0.21293375 -0.0010182864 -0.07792683 -0.17464164 -0.18560678 -0.018945185 -0.31871927
-0.18767244 0.011207903 -0.027323972 0.07604135 0.047243793 -0.21164757 0.12060767 -0.10723
-0.078640595 0.009941306 -0.16718167 0.016011912 -0.16602214 -0.28465748 -0.37245995 -0.2644567
-0.34070402 -0.14918193 -0.35443076 -0.12608373 -0.006462472 0.056102186 -0.09179366 -0.27434558
-0.0859376 -0.19501996 -0.3211752 -0.32834274 -0.20486121 -0.5397786 -0.0862159 0.022706999
0.07852848 -0.15898915 -0.28590104 -0.22917527 0.017985092 -0.18596168 -0.38425297 0.009948993
0.011374734 -0.27153176 -0.20818168 -0.21269247 0.12310797 -0.25356597 -0.294276 -0.029007487
-0.045938868 -0.3449049 -0.07792045 -0.045812353 -0.006389577 -0.2997623 0.07261726 0.0014118692
-0.010174906 -0.061671246 -0.2250557 -0.21861555 -0.3765796 -0.27468693 0.04205767 0.074673615
0.042244866 0.045928072 -0.07819866 -0.05668291 -0.3335575 -0.4085842 -0.035950996 -0.22228035
-0.17982593 -0.13849479 -0.06486844 0.048668034 -0.0004990278 -0.2829924 -0.15368256 -0.1854822
-0.24186628 -0.24833477 0.07716432 -0.31076822 -0.18442312 -0.27100968 -0.20520285 -0.2591972
-0.04203446 -0.23028716 0.16295592 -0.22857806 -0.31385106 -0.35127896 -0.12715851 -0.10593878

functional_11_1/batch_normalization_15_1/batchnorm/mul:0 f4 [128]
00000000: e59a a63f f93c b43f 4189 c03f 86de a93f
00000010: a8a2 c93f c1c1 ad3f 2fb4 b33f d1e8 c53f
00000020: c0d6 c23f 2f6e b83f bea6 b33f ba1b b63f
00000030: ce61 c73f aeb9 c33f 9d5b c13f cf32 c83f
00000040: 6e52 c53f 208c c83f bf61 bc3f 07a3 bb3f
00000050: a85b b63f cd53 ad3f 9d8e ce3f fb1f bf3f
00000060: 51a7 b33f 6249 b63f f9a6 b33f fb1f bf3f
00000070: 6183 b33f 8166 cc3f fb1f bf3f b9e7 c13f
00000080: ff34 bb3f 22a6 bf3f 9609 a93f 468c b23f
00000090: fb1f bf3f 10c4 ca3f 2f11 bb3f 8b3e bd3f
000000a0: a2bf bf3f 029c b73f fcdd ac3f 2675 bf3f
000000b0: 8817 bd3f 3f8d b93f ea62 b33f 9f5a c23f
000000c0: 4295 b03f 0128 bc3f 56c2 cc3f e854 b23f
000000d0: 908b bf3f 4079 c63f a975 bf3f 7bae b93f
000000e0: fb1f bf3f de4e cf3f 46be c53f e2cf c73f
000000f0: 2fb0 c13f 9872 d03f fb1f bf3f fb1f bf3f
00000100: 4694 cd3f 04a2 b73f a634 c23f 1397 be3f
00000110: 0194 ca3f 4cd5 cc3f 1765 ba3f 4bfc a93f
00000120: 8773 ca3f de43 b73f 0e3b cb3f d15e b33f
00000130: 9ca2 b33f a676 b63f 8a93 be3f b5df ae3f
00000140: fb1f bf3f 049c c23f 55cd bc3f 2a7d b13f
00000150: 0387 b33f 2ced b83f fb1f bf3f 5e2c b03f
00000160: ea96 b13f ff9b b23f cb55 c03f ea00 c03f
00000170: 8fe6 bf3f 227c c33f 35a7 b33f 45cb c73f
00000180: fb1f bf3f fb1f bf3f 083e c03f 34c3 ba3f
00000190: 5600 bd3f 515d bd3f fb1f bf3f fc6a c93f
000001a0: f41b ad3f da41 b43f 9ee8 d33f fb1f bf3f
000001b0: 0bed b33f b4f8 b33f e003 b23f d207 a73f
000001c0: ba03 c43f becf b93f 8126 af3f 4a5c b13f
000001d0: 1d51 c03f 8974 c93f a7ff ca3f ada2 c33f
000001e0: 66ad b33f 5430 c83f bba6 b33f 551d c53f
000001f0: 611d b93f 1742 ba3f b8a4 d03f 76eb c43f
1.301602 1.4081107 1.5041887 1.3271034 1.5752764 1.3574754 1.4039363 1.5461675
1.5221786 1.4408625 1.4035261 1.4227211 1.5576723 1.529104 1.5106083 1.5640506
1.541578 1.5667763 1.471733 1.4659127 1.4246721 1.3541199 1.6137272 1.4931635
1.4035436 1.4241145 1.4035331 1.4931635 1.4024469 1.5968782 1.4931635 1.5148841
1.4625548 1.4972575 1.320605 1.3949058 1.4931635 1.5841084 1.4614619 1.4784712
1.4980357 1.4344485 1.3505244 1.4957626 1.4772806 1.449623 1.4014561 1.5183905
1.379555 1.4699708 1.5996807 1.3932161 1.4964466 1.5505753 1.4957782 1.4506372
1.4931635 1.6195943 1.5448692 1.5610316 1.5131892 1.6284971 1.4931635 1.4931635
1.6060874 1.4346318 1.5172317 1.4889854 1.5826417 1.6002593 1.45621 1.3280119
1.5816506 1.4317586 1.5877397 1.4013311 1.4034 1.4254959 1.4888775 1.366202
1.4931635 1.5203862 1.4750162 1.3866322 1.4025577 1.4447379 1.4931635 1.376354
1.387418 1.3953856 1.5026182 1.5000279 1.4992236 1.5272257 1.4035403 1.5608908
1.4931635 1.4931635 1.501893 1.4590821 1.4765728 1.4794103 1.4931635 1.5735774
1.3524156 1.4082596 1.6555364 1.4931635 1.4056715 1.4060273 1.3907433 1.3049262
1.5313637 1.4516523 1.3683625 1.3856289 1.5024754 1.5738689 1.5859269 1.528402
1.4037292 1.5639749 1.4035257 1.5399576 1.4462091 1.4551419 1.6300268 1.5384357
