models/Vransko/cars/Vransko_cars_model.onnx (onnx, 60531 bytes, 13 tensors)

functional_3_1/dense_7_1/Cast/ReadVariableOp:0 f4 [32, 1]
00000000: d10a eb3d 52c0 07bc 6873 cebc 0be3 01bc
00000010: 2a91 383c a249 a2bd a498 043c 22ec 36bd
00000020: dd1b 783d 64d2 c5bc 1df5 9abd 99ae a5bb
00000030: a9fe 44bc 3c98 b23d df36 1d3c bc74 debd
00000040: 0ba8 22bd d1dd 5dbc d09e babc 587e f6bc
00000050: 4416 edbb a604 083e ae46 96bd fb02 80bc
00000060: cd28 a0bd fb62 ae3d a46c 8b3d 0132 763c
00000070: e565 333d 5af0 d4bb 498e 8fbd a332 50bc
0.114766724 -0.008285599 -0.025201514 -0.007927666 0.011265079 -0.079242006 0.008093033 -0.044658788
0.060573447 -0.024148174 -0.07566283 -0.005056214 -0.012023606 0.08720443 0.009595602 -0.10862109
-0.03971104 -0.013541655 -0.022780806 -0.030089542 -0.0072353203 0.13283023 -0.073377 -0.015626421
-0.07820282 0.08514973 0.06807831 0.01502657 0.043798346 -0.0064983787 -0.070095606 -0.012707385

functional_3_1/dense_6_1/Cast/ReadVariableOp:0 f4 [64, 32]
00000000: fb09 82be 40f2 91bd 06c9 8bbe 956c 52bc
00000010: 8062 5cbd 60ad 81be 3e43 8e3e 5d14 a9be
00000020: a9e7 13be f8e5 2d3e bbfe 0bbe 676b e2bd
00000030: 31f6 8f3e 1c32 2bbd 87c0 9b3b 747e 343e
00000040: 5d88 e3bd 0de2 533e ecde 6fbe 768c dbbd
00000050: b5a9 c5bd ebff 783d 8b3e 8d3d 03cb ef3d
00000060: d976 633e 26cc 933d 7f59 923d 89cd f43c
00000070: 0625 32bc 49d1 5e3e f3f1 76be 80f6 f8bd
00000080: 17fa 653e 3e2e e3bd faef 61be a3f6 6b3e
00000090: 0c16 08be afa7 f03c 7783 06be 2a4f 2f3e
000000a0: 3346 6d3e 1e03 a93e 9174 283e 792c 163e
000000b0: 6f4d a3bd 921e 093d 73c8 68be 1200 843e
000000c0: 6b78 e0bd 50ed 753c f4f7 4abe f5d7 67bd
000000d0: 2434 80be ce01 2bbb 10cd 333c d1b9 b93e
000000e0: 26c3 253c 05c6 aa3d e502 96bd 8b9c a63d
000000f0: 269e 053e c396 80be fbce 513d 6084 003d
00000100: 795f 9c3d 3512 39be 719c 123e 7f11 32be
00000110: e440 afbd fff1 173e 73fb 183c 634b 82be
00000120: 673c dfbd ec46 843d 215b 613e 807b e2bc
00000130: ba17 053c 14eb 6f3e 88ce 993d cb02 b4bd
00000140: 891f 39be 5d9b f53c d7ec 72bc 91c2 2fbe
00000150: 121c 05be 0a20 85be 7ca5 2cbe b409 5e3e
00000160: 8655 613d f199 07be b76f 64be 8f3e e5bd
00000170: 66d6 903c e21b 533e 493c 583d 9349 24be
00000180: bc33 2c3e b085 363d caea c73d 2c77 30be
00000190: 6b70 a33e b091 cdbd 4194 3bbe d8e6 8b3b
000001a0: 144f 2ebe b239 2cbe b785 9cbc 36d1 353e
000001b0: ba83 f4bd 32c8 3fbc c59c 203e bd6f 57be
000001c0: d73f 20be da89 4dbc faa0 bfbd 0bb0 d6bd
000001d0: e36a ef3d 05d3 2e3d c24b a13e 48de 40be
000001e0: c372 54be f207 86bd 2340 b2be e941 813c
000001f0: a63b 30be 6c9c aabd 9635 eabd 962f 4bbe
00000200: bbd1 66be a697 903d 81e5 2a3e e710 95bc
00000210: d7c6 83bd 6b0c 993d 4479 55be 1b75 323e
00000220: 56fa 0a3e cb38 76be 7434 453d 9ade 583c
00000230: 6e67 cb3b 90ad c03d b428 8dbd 47d4 8b3d
00000240: 1b3d d8bc 19e9 e93d d098 4fbd 29b6 223e
00000250: c919 913e e505 eabd db7f cabd 5816 a1be
00000260: ca32 72be 718b 7e3e 6eb9 47be 03e5 cf3d
00000270: d192 44be 288e 1f3e dda0 f83b b85d 67bd
00000280: 8762 a1bd 65d4 1b3e 54e6 6b3e 2808 213a
00000290: 68ee b8bd 7b6a 0e3e 3fba 893b a5d5 983e
000002a0: c37b b13e dbfb aabb a777 ccbe 0c90 94bd
000002b0: 2b53 f1bd c2db 34be 82e7 023e c3d6 10be
000002c0: 40df adbd 5bc3 f53d a9e1 033e c458 4b3c
000002d0: 01bc 0ebe 6d00 a2bc 929a 783d 8b88 363e
000002e0: d811 f33d acb5 35be 81b3 8b3e 2e67 4a3c
000002f0: c917 9dbd cb8f b8bd fac7 81be 4619 93be
00000300: 384c 68be ed95 913d 99aa a5bd 83f6 7d3e
00000310: dfae 733e 5018 e53c e30f 6fbe d318 cebd
00000320: 3917 9cbe 756e bbbd 6900 1abe bf3a 043d
00000330: de52 1fbe f0ac 7a3e ac78 81be c971 3bbd
00000340: 32f3 92bc 3011 5ebe 3150 5fbd b807 b2bc
00000350: 5344 523d 1189 853e 4da3 8d3d d862 f7bd
00000360: a65a 0c3e d38e 16bd 2564 43be af35 d9bd
00000370: 609e ba3d f5d8 ccbd 3e72 97bd 71c3 353e
00000380: b5a3 3c3e 5924 b9bd ddab b53d 0a82 9c3d
00000390: f97c 13be 4d17 223e e160 92bd 5cdb 663e
000003a0: cf0c 453e 9bde 0f3e 17b1 713d 6dc8 423e
000003b0: a916 55be 2e48 263e f139 dc3d c2d5 68be
000003c0: f13b 733e 9245 48be 1204 623e 0dee ca3d
000003d0: 7466 5d3e ad2f 2a3e 5224 6d3e a3e9 043d
000003e0: af3d 1bbe e619 d6bc 11a9 fbbc d625 07bd
000003f0: 612c 32be 7893 65bd 15cb f43d 7413 903e
-0.2539824 -0.07126284 -0.27301806 -0.012843271 -0.053804874 -0.25327587 0.27785677 -0.33023348
-0.1444384 0.16982257 -0.1367139 -0.110556416 0.28117517 -0.041795835 0.0047531757 0.17626363
-0.111099936 0.206917 -0.23424882 -0.1072015 -0.0965151 0.060790937 0.06896695 0.11708643
0.22213306 0.072166726 0.07145976 0.029883163 -0.010873085 0.21759523 -0.24115734 -0.12156391
0.22458683 -0.11092804 -0.220642 0.23043303 -0.1328966 0.029376833 -0.13136087 0.17120042
0.2317131 0.3301019 0.16450717 0.14665402 -0.07973754 0.03347642 -0.22732715 0.25781304
-0.10960468 0.015010193 -0.19821149 -0.056602437 -0.2503978 -0.0026093605 0.010974184 0.3627458
0.010117328 0.083385505 -0.07324771 0.08135327 0.1304861 -0.25115022 0.051222783 0.031376243
0.076353975 -0.18073352 0.1431749 -0.17389487 -0.08557299 0.14838408 0.009337294 -0.2544814
-0.10900193 0.0645884 0.22007419 -0.02764678 0.008123333 0.23429519 0.07510096 -0.08789595
-0.18078436 0.02998131 -0.014826975 -0.17164065 -0.12998989 -0.26001006 -0.16860002 0.21683389
0.055013202 -0.13242318 -0.22308241 -0.11193573 0.017680358 0.20616105 0.052791867 -0.16043691
0.1681661 0.044561088 0.09761579 -0.1723296 0.31921706 -0.10037553 -0.18318273 0.004269462
-0.17022353 -0.16818884 -0.019106729 0.17755589 -0.11939187 -0.011705445 0.15684803 -0.21038719
-0.15649353 -0.012545073 -0.09356876 -0.10482796 0.11690309 0.042681713 0.3150311 -0.18834794
-0.20746903 -0.06544484 -0.34814557 0.015778499 -0.17210254 -0.08330616 -0.11436002 -0.19842371
-0.22540943 0.07060175 0.16689111 -0.018196536 -0.0643441 0.07473072 -0.2084704 0.17427485
0.13572058 -0.24045102 0.048145726 0.013236666 0.006207398 0.094081044 -0.06892529 0.06827598
-0.026396325 0.11421413 -0.050682843 0.15889801 0.28339985 -0.114269055 -0.09887668 -0.3146236
-0.23652187 0.2485788 -0.1950433 0.101511024 -0.19196631 0.15581572 0.007587536 -0.05648586
-0.07880121 0.15217741 0.23037082 0.0006142878 -0.090298474 0.13907807 0.0042031105 0.29850498
0.34664735 -0.005218012 -0.39935037 -0.07254037 -0.11783441 -0.17661956 0.12783626 -0.14144425
-0.08489847 0.12000152 0.12879051 0.0124113 -0.13938905 -0.019775594 0.060694285 0.17825525
0.11868638 -0.17745084 0.27285388 0.0123537015 -0.07670552 -0.09011801 -0.25347883 -0.2873022
-0.22685325 0.07108674 -0.080891795 0.24801068 0.23797177 0.027965695 -0.23345904 -0.100633286
-0.30486467 -0.091519274 -0.15039219 0.032282587 -0.15558955 0.24480033 -0.25287378 -0.04576281
-0.01793823 -0.21686244 -0.054519836 -0.021732196 0.05133469 0.26081136 0.06915913 -0.120794
0.13706455 -0.0367573 -0.19081171 -0.106059425 0.09112239 -0.10002319 -0.07394837 0.17750336
0.18421824 -0.09040136 0.08870671 0.076419905 -0.14403142 0.15829201 -0.071473844 0.22544616
0.19243167 0.14049761 0.059006777 0.19021769 -0.20809425 0.16238472 0.10753239 -0.22737792
0.23753335 -0.19557789 0.22071865 0.09908686 0.21621114 0.1661975 0.23158386 0.032449376
-0.15160249 -0.026135396 -0.030720266 -0.032995068 -0.17399742 -0.05604884 0.11952797 0.28139842

functional_3_1/dense_6_1/Add/ReadVariableOp:0 f4 [32]
00000000: 8e84 c7bc 3d50 4f3d 16cf 2e3c ca0d b73c
00000010: 896d 43bd dcb2 b73d deb9 cd3d 0d8b 94bd
00000020: 8611 46bc 6f03 ac3b 8393 703b 1d7c 183d
00000030: a715 f73d c676 d7bd 5e64 963d 519d 92bd
00000040: 51f1 6b3d 0b71 7e3d cae2 2d3c c08c 8f3d
00000050: 0441 55bb b95c b33b 7488 043c 6810 903d
00000060: 7c22 83bc 41fc 0f3e f8c3 143e 80b7 b7bc
00000070: 1a8a 98bd cc19 e53c 8428 ab3d 4f2e d63d
-0.0243552 0.05061363 0.01066949 0.022345442 -0.047711883 0.089696616 0.10045217 -0.07253084
-0.012089139 0.0052494328 0.0036709018 0.03722774 0.12064677 -0.10520701 0.07343362 -0.07158912
0.057603184 0.062119525 0.010613153 0.07009268 -0.0032539973 0.0054737 0.008089174 0.07034379
-0.016007654 0.14061071 0.14527881 -0.022426367 -0.07448216 0.027966402 0.08357337 0.104580514

functional_3_1/dense_5_1/Cast/ReadVariableOp:0 f4 [128, 64]
00000000: 03cc e2bd c53a 683e fa6d 79bd a225 d73d
00000010: 897c d5bd 3f2b 403c 31de 8bbe 0b3c e83d
00000020: 8f4f 9cbd e6ab 27be 630a 51be 3a5a 08be
00000030: 0788 803d 5c44 99bc 6303 54be 707d 003c
00000040: 3ddf de3c 32a6 a23d 58c0 ee3d a0b8 60bd
00000050: 3125 83bc 4b95 e9bd 19da c83d f2c4 313e
00000060: 9588 033e f76b 9d3e 0ce9 82bd 24f4 aabb
00000070: ad9f a8bd 955e babd a139 6a3e b2fe e3bd
00000080: fb7e 80bd f7b4 89bd 2467 333e 0b87 b3bd
00000090: 78e4 933c 1580 043e 90ac ca3d 33db 393e
000000a0: 232f 34be 99b9 513d 29db c03d 3b0b 89bd
000000b0: 89ad 06be 91ed 4cbe fa05 563d 63c3 20bc
000000c0: 1ce9 e1bd a86f 1b3d 7884 68be 8f7c f93d
000000d0: 5796 043e ed8d 673e b4ba 49be 3e56 21be
000000e0: a263 86bd e98b 713e 94f7 14be bb19 103e
000000f0: 6cb0 033e 296d 0c3e 2150 963d 2c21 3f3d
00000100: f710 d73d 5339 313e 594f 653c 68a5 f9bd
00000110: 1260 2ebc 30f7 e93d eec0 68bd e9df bcbd
00000120: 54b1 083e b545 143c 48e5 2fbb c94f 27be
00000130: 1bc6 afbd b9b1 07be 7a8b 4c3e ce20 9a3d
00000140: b094 9f3d e664 e83d 7bae 803d 283c 07be
00000150: b6d9 b73c a4f8 10bd 0c5c 603d b9a6 363d
00000160: e0ee 8a3c 8c97 b1bd a134 8b3d b211 f13d
00000170: a037 463d 42fe 45be 6258 2cbd ab29 bdbd
00000180: 349d 84bd e878 e13c 40fa 0cbe e6f9 18be
00000190: 2ead 80be db26 3abe 8418 62be ec43 973d
000001a0: d097 81bd 850a aabd 599d 8e3d d603 9abd
000001b0: 6eab 29bd f51d e73d 2510 05bd 6bf2 22bc
000001c0: 5cee 1c3c f4f4 42be b262 dbbd de22 053e
000001d0: d2eb dbbd cbe3 47bd 457c 5cbe 4717 033e
000001e0: f44b 43be ee02 f8bd 15d3 223e 751d 5f3d
000001f0: 07d0 cdbc ddca ca3c 4cac a3bd 1c5c 003c
00000200: 67e0 0b3d e2de 573d 353e 6ebd 80ee 87bd
00000210: 4282 b83d 4621 00be 1492 0dbe bf94 49be
00000220: 3232 bfbc c062 8ebd 02a5 da3d e5bd b53d
00000230: 3325 6b3e f418 47be ebc5 ad3c a3b1 d6bd
00000240: 75a9 41bd 798e b4bd 4f7f 6abe 3835 8f39
00000250: 884d 67ba 8e2f 7d3d 1dcf 80bd 9454 513e
00000260: f242 c2bb c141 303d d038 113e f595 043e
00000270: 63c1 3fbd ffa6 c13d 4c66 50bd 538c 0abe
00000280: 51b3 dbbc dc83 14be 1246 c33d 923c 293d
00000290: 7933 91bd 2df5 fb3d 79f3 8ebd 4cab 1e3e
000002a0: c0b9 b53c d0c1 41be 63c5 c5bc a536 613e
000002b0: 9873 5fbd 74bd 083e 8cee 05be edd7 fb3d
000002c0: c849 e53d 0e18 e8bc 44a1 843d 0692 35bd
000002d0: ccd9 2b3e 39d4 dbbc 5f26 073e b616 2abe
000002e0: c80c 8c3d 2126 313d 20a2 df3d 8d11 eb3d
000002f0: 7d0d e7bd 4288 1fbe 5708 62bd 16f9 0d3e
00000300: e42e 263e 3bc8 993d 2b46 14be fb97 8cbd
00000310: 0e98 af3c f307 4e3e 0f4e 2c3e 8cb2 b5bd
00000320: ba26 f0bd e663 0a3e 7b29 553e 8748 7f3d
00000330: ead4 893e 84eb 07be e1b2 023e 846f 013e
00000340: 5434 54bd 6c0c 153e a95a da3d eed1 a43d
00000350: 2fa0 fe3d 04dc 7ebd 1b17 3f3d 957c 223a
00000360: 5894 0abe a2f5 2cbe aae8 20be 6ca0 063e
00000370: 037e 573e ceb2 c1bd 5530 373c 0948 f63d
00000380: f9d6 e63d 61ec 583e a834 9b3c c7ab f5bd
00000390: 32b8 0bbc a80e 78bc 1c6c 1a3d e4e0 173e
000003a0: 8562 fbbd b275 913d 7b40 70bd a1a9 84bd
000003b0: bc5b 76be 53cb 7e3d 7b9e 213c 1712 0c3e
000003c0: cf5a d3bd c3a3 073c 089e 803e 05b3 2abe
000003d0: 3ba2 ad3c 45a0 14be 6eec a5bd 59b7 7ebe
000003e0: 3636 2c3e 6ac2 00bd 5443 e6bd c914 47bd
000003f0: d6f8 eabd 6579 653d 1e5b 533d 62be ba3d
-0.110740684 0.22678669 -0.060895897 0.10505225 -0.10424144 0.011729061 -0.27317956 0.11339577
-0.07632362 -0.16374168 -0.20414118 -0.13315669 0.06275945 -0.018709354 -0.20704417 0.007842407
0.027206058 0.079418555 0.116577804 -0.054863572 -0.016008945 -0.114054285 0.09807224 0.17360285
0.1284507 0.30746433 -0.063921064 -0.005217092 -0.08233581 -0.09100071 0.22873546 -0.11132564
-0.062742196 -0.067239694 0.17519814 -0.08765992 0.018053278 0.12939484 0.09896195 0.18150024
-0.17596106 0.05120239 0.094168015 -0.06691595 -0.13152136 -0.200125 0.052251793 -0.009812209
-0.1103079 0.03794828 -0.22706783 0.12181961 0.12947975 0.22612734 -0.19700128 -0.15755555
-0.06561972 0.23588528 -0.14547569 0.14072315 0.12860268 0.13713516 0.07339502 0.046662495
0.10501283 0.17307024 0.013995969 -0.12189752 -0.010643022 0.114241004 -0.056824617 -0.09222395
0.13348895 0.009049823 -0.0026839543 -0.1633903 -0.085827075 -0.1325139 0.19975081 0.07525788
0.07792032 0.1134737 0.062832795 -0.13206542 0.02244268 -0.035393372 0.054775283 0.044592593
0.016959608 -0.086714834 0.067971475 0.11770953 0.048392892 -0.19335273 -0.042076476 -0.09236463
-0.064752966 0.027523473 -0.13767338 -0.14939079 -0.25132126 -0.18178885 -0.22079664 0.07386002
-0.06327784 -0.08302788 0.069636054 -0.07520263 -0.041423254 0.11285011 -0.0324861 -0.009945492
0.009578314 -0.19038755 -0.10712184 0.13001582 -0.107383385 -0.048801225 -0.2153178 0.12801848
-0.19071943 -0.12109934 0.15900834 0.05447145 -0.02512361 0.024754936 -0.079918474 0.007834461
0.034149554 0.052702792 -0.058164794 -0.06637287 0.0900922 -0.12512693 -0.13825256 -0.19685648
-0.023339365 -0.06952429 0.10676004 0.0887411 0.22963409 -0.19443113 0.021212539 -0.104831
-0.047280747 -0.08816237 -0.22900127 0.00027314737 -0.0008823504 0.06181293 -0.06289504 0.2044242
-0.0059283907 0.043031458 0.14181828 0.12947829 -0.046815287 0.0945568 -0.050878808 -0.13530092
-0.026818903 -0.14503425 0.09534849 0.04131753 -0.07089896 0.12302623 -0.069800325 0.15495032
0.022183299 -0.1892159 -0.024141973 0.21993501 -0.0545536 0.1335352 -0.1307928 0.12297044
0.11195713 -0.028331783 0.064760715 -0.044328712 0.16782302 -0.026834594 0.13198231 -0.16610226
0.06838375 0.043249253 0.10919595 0.11477957 -0.112818696 -0.15579322 -0.055183735 0.1386455
0.16228825 0.07508894 -0.14479892 -0.068649255 0.02143481 0.2012022 0.16826652 -0.08871946
-0.117261365 0.1351467 0.20816605 0.062325027 0.26920253 -0.13273436 0.1276355 0.12640196
-0.051807716 0.1455552 0.10661823 0.080478534 0.12432896 -0.062221542 0.046652894 0.0006198374
-0.13533151 -0.16890576 -0.15713754 0.13147134 0.21044163 -0.094579324 0.011180957 0.12025458
0.112714715 0.21183921 0.018946007 -0.119956546 -0.008527802 -0.015140213 0.037700757 0.14831883
-0.122746505 0.07102527 -0.058655243 -0.06477667 -0.24058431 0.062205624 0.009864445 0.13678776
-0.10320055 0.00827879 0.25120568 -0.16669853 0.021195522 -0.14514263 -0.08101736 -0.24874629
0.16817555 -0.031435408 -0.112433106 -0.048603807 -0.11473243 0.056023974 0.051600568 0.09118344

functional_3_1/dense_5_1/Add/ReadVariableOp:0 f4 [64]
00000000: b9c1 d2bd f881 cabc 7325 ac3d e1e0 6b3d
00000010: df80 43bd 4f0d 603d 8be9 c53d 3115 973d
00000020: 13c2 18bd 126c 1dbd 6822 1e3d fdcf 23bd
00000030: 1e39 b23c b20b 0b3d e9a1 80bd 15c6 c0bd
00000040: abdc 45bd 5ab5 aa3d 5f0c b33d c1c3 2b3c
00000050: 35b9 ac3c cf01 95bc 5c97 9bbd 7b11 e43d
00000060: 83c0 623d 4569 b73c 043a 753d 4e00 a4bd
00000070: 27a5 a0bc 96e9 d13d b16b b23c f425 d53d
00000080: d238 70bd 8497 2939 c108 083d c0ad 4abd
00000090: a951 9e3d 5a67 ae3c 7251 ac3d 72d9 78bc
000000a0: c416 36bd f48c d2bd 49da c3bc 5d28 a6bd
000000b0: 12c2 993d 5a2c c83b e5de 743d 9820 f53d
000000c0: fee8 2cbc 3a2b 18bd c942 ee3d d48f bbbd
000000d0: ab2d 75bd dd6c 0ebd 77ad 673d 0a58 753c
000000e0: bb68 37bd aed7 f1bc b841 893d 67d1 d4bd
000000f0: 6425 23bd c255 9e3d febe 9abd b828 ce3d
-0.10290856 -0.024720177 0.0840558 0.057587508 -0.047730323 0.054700192 0.096636854 0.07377089
-0.03729446 -0.038433142 0.03860703 -0.039993275 0.021755751 0.0339467 -0.06280882 -0.09412781
-0.04830615 0.08335371 0.08742594 0.010483683 0.021084407 -0.018189339 -0.07597229 0.11136147
0.055359375 0.022389064 0.05986978 -0.080078706 -0.01961 0.10249631 0.021779867 0.104076296
-0.058647938 0.0001617354 0.033211473 -0.049482107 0.07730419 0.021289516 0.08413972 -0.015188562
-0.044455305 -0.10280791 -0.023907797 -0.081131674 0.07507719 0.0061088027 0.05978288 0.119691074
-0.010553597 -0.0371506 0.11633832 -0.091582924 -0.059858005 -0.03477179 0.056561913 0.014974603
-0.044777613 -0.02952179 0.06701988 -0.10391503 -0.03983058 0.07731201 -0.0755596 0.1006636

functional_3_1/dense_4_1/Cast/ReadVariableOp:0 f4 [25, 128]
00000000: c05a 3ebd 96ac b13d fa7e 0dbe 6a8e c93d
00000010: f4a9 24bd b0c2 463d e833 afbc f86b ffbc
00000020: 7349 2e3e e23e bf3d 6711 e1bd 6c2b 5f3d
00000030: 240d 323d c988 c4bd d4dc 6dbd 24bb 60bd
00000040: 51bf 273e a637 a13d e591 493e a34f 223e
00000050: ce3a b63d a64e e33d 004b 70bb b24c 883d
00000060: 12f9 843d 244f 6f3d e7a1 463e 20ca 23bd
00000070: 9af1 06be 2c8d cfbd 52a9 883d 4b5c 03be
00000080: 577f 14be 5af7 37be 5832 28bd 8c19 01bd
00000090: d0be 57bc 87c1 033e 22f3 c5bd bad2 e23d
000000a0: 024d 8dbd 61c5 2b3e b033 73bc 4460 56bd
000000b0: 38bf c4bd a841 90bd c993 18be c1ab 37be
000000c0: 9604 f43d 1ef5 b4bd 7a36 823d 7b6a 17be
000000d0: 668e cd3d c432 56bd 8379 303e 4a4d b63d
000000e0: 8cf4 213d 6ec9 27be ec81 0b3d e103 333e
000000f0: 7511 26be 0aeb d13d f3ec 2c3e 4d14 173e
00000100: 4caf c2bd 0945 f3bd c426 ebbd 7d61 1e3e
00000110: fd74 253e 103a 4abc c1de 1f3e d39a 38be
00000120: d40e 1ebd ec28 59bd 44e1 e3bd 166b c33d
00000130: a4f2 793d 9593 29be 32a8 f83d 0a6d 813d
00000140: dc1c 3a3d de59 1fbe e035 3d3d c340 b5bd
00000150: 5e44 bd3d fb37 1c3e e248 d33d 06c8 cc3d
00000160: 704d 2fbc 5ce6 743d 8020 3ebb f01e 91bc
00000170: 9027 40bd 99f2 1b3e b38d 183e 3067 8abd
00000180: 7ab4 933d f6c0 8f3d 1dd2 253e 8594 023e
00000190: 7f30 303e 49d2 413e e03a 86bc 6eee d03d
000001a0: 561f 11be 3059 40be e400 e1bd f8f9 90bd
000001b0: 66ea fe3d 1e4f e03d 5829 283d 4982 383e
000001c0: a1f8 97bd 114b 373e 5040 93bc f8d9 03be
000001d0: 763a b63d 80f8 133c c8c6 fc3c 5aec 20be
000001e0: 4ef4 eebd ded1 30be 0ba4 043e 5852 543d
000001f0: d785 393e b408 13bd fe8b c83d 3226 863d
00000200: b642 8e3d 5bea 62be 8ae9 a4bd 3157 8cbb
00000210: 8da3 7e3d 6ec6 0abe 2e8b cc3d 58bf 823c
00000220: a254 05be 7a42 383e 30ec 36be 70ed f33d
00000230: 594e 803d 61fc e2bc c7bf 363e 9b98 6bbb
00000240: 9555 913c 0cd0 da3d 0a88 d6bd 31fc 9dbd
00000250: af6b 27bd a635 eebc cf94 96bd c29e 773d
00000260: daf3 4cbe 35c7 873e 1b26 453e 1063 0abc
00000270: 5de5 3dbd 3d41 89bb 53f5 b13d 308d 253e
00000280: b1d5 9cbd b862 41bd f5ea eabd 8c54 5d3e
00000290: 8657 3abe 45c6 0abe 6d58 ca3d 4030 18be
000002a0: 3ae6 193d 0b71 a73d 335a 50be 988c 693e
000002b0: 6bf5 13be 5c4f 1ebe 4592 203d 8fbd adbd
000002c0: ed21 853e 02a0 2a3e 334a 8dbd 2b60 9d3d
000002d0: 149f d6bd 86be 52bc 3254 1e3e a0cb 7c3d
000002e0: 201f 7d3d c351 72bd b917 babc fb7d 0bbe
000002f0: fc87 453e 9392 7abd d9af 8cbd 2248 d73d
00000300: da84 dcbd 7be5 d83c a0c1 19bd 847f 8f3e
00000310: 212b efbd 3402 babd c6c2 913d e754 1f3d
00000320: 8472 b83d b506 0fbe 479f c23c 410a 5dbe
00000330: 321c 11be 7134 aa3d 6ca2 45be 804b 82bc
00000340: 8cb6 723e af46 0bbe 045c c03c e069 febd
00000350: ea5c 993d 1f9d 64bd 318b a1bd 4d55 26bd
00000360: 4d36 02be 0897 bcbb f6c4 05be 50c6 6b3d
00000370: ee1e 5bbd e03c 3b3e 5b4d 27bd 415a cebd
00000380: f277 5a3e fc85 343e 1e7b f0bc 28f0 5a3d
00000390: 31dd db3d fb45 c5bd a542 9f3e ef86 c8bd
000003a0: 9777 243e 3b16 94bd a4da 9c3d d7bc a6bd
000003b0: fece 35be 11fc 1abe 9e66 e4bd f4c7 18be
000003c0: c91b 633e 5e00 56bb 5bb7 793d 71a0 3e3c
000003d0: 87f2 1dbe 6c4f cb3c 3fdf 6d3d c499 753e
000003e0: 5469 96bd 7ec5 35be c424 933c 5d4a 2f3e
000003f0: 8b5c 0c3e 7075 e43d 0d82 c9bd 5899 fa3d
-0.046473265 0.08675496 -0.13817969 0.098416165 -0.040201142 0.048525512 -0.021387056 -0.031179413
0.17020206 0.09338166 -0.10989647 0.05448477 0.043469563 -0.09596402 -0.058071926 -0.05486597
0.16381575 0.07871942 0.1968456 0.15850691 0.08897935 0.110989854 -0.0036665797 0.066552535
0.06492819 0.058425084 0.19397698 -0.039987683 -0.13178101 -0.10134348 0.0667292 -0.12828176
-0.14501701 -0.17965451 -0.041063637 -0.031518504 -0.013168052 0.12866794 -0.096655145 0.11075349
-0.06899454 0.16774513 -0.014843866 -0.0523379 -0.096067846 -0.07043773 -0.14900126 -0.17936613
0.11914937 -0.08835815 0.06358047 -0.14786713 0.10036926 -0.052294508 0.17233853 0.089014605
0.03953986 -0.16385433 0.03405945 0.17481948 -0.16217597 0.10249908 0.16887264 0.14753838
-0.095060915 -0.11878402 -0.11482003 0.15466876 0.16157909 -0.012342945 0.15612318 -0.18027811
-0.03858836 -0.05301754 -0.111269504 0.095419094 0.061022416 -0.16560204 0.12141456 0.06319626
0.04543768 -0.15561625 0.046193957 -0.08850243 0.09241556 0.1525573 0.10316636 0.09999089
-0.010699615 0.05979 -0.002901107 -0.017714947 -0.04691273 0.15229262 0.14897804 -0.06757963
0.072121575 0.07019226 0.16193433 0.12751968 0.17206 0.18927874 -0.016385496 0.10201727
-0.1417211 -0.18784022 -0.10986498 -0.07078928 0.12447052 0.109525904 0.041055053 0.1801845
-0.07420469 0.1789973 -0.017975003 -0.12876117 0.08897869 0.009031415 0.030856505 -0.15715161
-0.11667691 -0.17267558 0.12953202 0.05183634 0.18117462 -0.03589697 0.097923264 0.06550254
0.06946318 -0.22159712 -0.080523565 -0.004282855 0.062167693 -0.13552257 0.09987484 0.01596038
-0.13020566 0.17994109 -0.17863536 0.11910522 0.06264944 -0.027708234 0.17846595 -0.0035949114
0.017741004 0.10684213 -0.10475166 -0.07714117 -0.04087418 -0.029078316 -0.07352602 0.060454138
-0.20014897 0.2651917 0.19252817 -0.00844647 -0.046361316 -0.004188685 0.0868937 0.1616714
-0.07657946 -0.047213286 -0.11470596 0.21614283 -0.1819745 -0.13552196 0.09880147 -0.14862156
0.037573077 0.08175858 -0.20346908 0.22807539 -0.14449088 -0.1545996 0.039201993 -0.08483421
0.26002446 0.166626 -0.06898918 0.07684358 -0.104795605 -0.012862807 0.15461805 0.06171763
0.06179726 -0.059160005 -0.02271639 -0.13622276 0.19290155 -0.06117494 -0.06869478 0.10511805
-0.10767527 0.026476612 -0.03753817 0.28026974 -0.11678148 -0.090824515 0.07117228 0.03889933
0.09006217 -0.13967402 0.02375759 -0.21585943 -0.14170912 0.08310784 -0.1930024 -0.015905142
0.23702449 -0.13601182 0.023481376 -0.12422538 0.07488425 -0.055813905 -0.07887877 -0.040608693
-0.12716027 -0.005755309 -0.13063416 0.057562172 -0.053496294 0.1828494 -0.040845256 -0.10075808
0.21334818 0.17629236 -0.029355582 0.053451687 0.10735548 -0.09632488 0.31105533 -0.097913615
0.16061245 -0.072308026 0.0765889 -0.08141487 -0.17754743 -0.15135218 -0.11152385 -0.14920026
0.22178568 -0.0032654027 0.060965877 0.011634932 -0.15424548 0.024818145 0.058074232 0.23984438
-0.073443085 -0.17751119 0.017961867 0.17118211 0.13707177 0.11155212 -0.09839258 0.12236279

functional_3_1/dense_4_1/Add/ReadVariableOp:0 f4 [128]
00000000: 9b7c b03d 71d5 92bd 0000 0000 a4da 303d
00000010: 461e c23d 805f dc3d c891 063c 0000 0000
00000020: f76b 833d c66d b73d 40a6 d13c c6eb 243a
00000030: 0738 4d3d 0732 edbc 911a a03d 8a8a ab3d
00000040: f7e4 753d 5ae3 af3d 7ff6 db3d 4f66 b93c
00000050: 52a2 85bd a742 72bc 06c9 62bd 1fb5 b9bc
00000060: 4025 90bd a7fb 5d3d 2f70 593d 0000 0000
00000070: d775 823d 3adb 9abd 0677 95bc 2292 963c
00000080: 22e4 75bd 5ae3 75bd a876 863b 30c2 463d
00000090: 9658 653d 3173 5439 8cd6 aabd e2e9 38bd
000000a0: 976c 8b3d c1da 4b3d e6da 8fbd ffdd 1e3c
000000b0: ba45 3dbd 0648 b03d 529d 9dbd 45e3 75bd
000000c0: ff48 60bc 45eb 853d 1691 d53d 9185 97bd
000000d0: e22b 00b9 eb86 70bc 1264 433d 2705 f6bd
000000e0: a1f0 dcbb 3085 843d 69d1 bbbd 4d1a 0b3d
000000f0: cff7 61bd 3e81 a43d 93e5 75bd a462 cb3c
00000100: fb61 4cbd b83d 0c3c 3cb2 94bb 2119 ddba
00000110: b30a 953c 2ae4 75bd a5b0 e33b 8c03 c13d
00000120: 4cfa 58be a72e 0b3d 801d 583d 1cfe 8ebc
00000130: 47f0 b6bc 7384 79bd 1bfb e7bc 0000 0000
00000140: 4426 683d 8ef9 b23d 0ecd 9bbd 0000 0000
00000150: 5745 ab3c 4fcd 1d3d c9ae 383d 403d 9a3d
00000160: f796 3d3d 655c d1bd e38d bdbd 84be 68bb
00000170: 248e 883d 40c9 3bbb 7e04 90bd a5da 1f3d
00000180: d2cb a73c c991 30bd 0c5b 24bd 36c8 a2bd
00000190: dbd6 adba 0000 0000 5256 be3d 4de6 feb9
000001a0: 8144 033d ef89 273c 8e4c 883c 0000 0000
000001b0: bf08 663d 8005 72bd 986d 5fbd 0000 0000
000001c0: f69d 9a3d 6275 31bb 652d 50bd e7b2 493c
000001d0: 83bb 92bd 1559 aabc d19f b0bc 96b4 b93c
000001e0: 59d9 84ba 8d45 a83d ee81 0f3c 96fa 873d
000001f0: fb4e 913d 1d7f 2dbd 0120 acbc da6b c53d
0.086175166 -0.07169617 0.0 0.043177262 0.094784304 0.10760403 0.008213468 0.0
0.06417077 0.089564845 0.02559197 0.00062912365 0.05010226 -0.028954519 0.07817567 0.083760336
0.06003281 0.08588286 0.10740375 0.022631792 -0.06525101 -0.014786399 -0.055367492 -0.022669373
-0.07038355 0.054195073 0.053085502 0.0 0.063701324 -0.075613454 -0.018245231 0.018380228
-0.060032018 -0.060031272 0.0041035004 0.048525035 0.055992685 0.00020260808 -0.08341703 -0.045144923
0.06807821 0.049769167 -0.070241734 0.009696483 -0.046209075 0.086074874 -0.07696022 -0.060031194
-0.013689279 0.06539015 0.104280636 -0.07398523 -0.00012223379 -0.014680604 0.047702856 -0.120127015
-0.0067425524 0.06470716 -0.09170801 0.03396063 -0.05516797 0.080324635 -0.060033392 0.024827309
-0.04989813 0.008559637 -0.0045378488 -0.0016868451 0.018193578 -0.060032047 0.006948548 0.09424505
-0.2118923 0.033980038 0.05276251 -0.017455153 -0.02233137 -0.06091733 -0.028317979 0.0
0.056677118 0.08739005 -0.076074705 0.0 0.020907087 0.038525876 0.045088563 0.07531214
0.04628655 -0.10222701 -0.09255578 -0.0035513947 0.06667736 -0.002865389 -0.07032107 0.039026875
0.020482931 -0.04310778 -0.04012589 -0.079483435 -0.0013262884 0.0 0.09293808 -0.00048618243
0.032047752 0.010225757 0.016638067 0.0 0.056160685 -0.059087276 -0.054547876 0.0
0.0754966 -0.0027078022 -0.05082454 0.01231072 -0.07164671 -0.02079443 -0.021560581 0.022669118
-0.0010135575 0.08216391 0.008759005 0.06639592 0.070951425 -0.042357553 -0.021011354 0.09639712

functional_3_1/batch_normalization_5_1/batchnorm/sub:0 f4 [32]
00000000: 498a 88be e8de b8be b376 aabe 67a6 9dbe
00000010: 26c3 7abe a04c cdbe 3277 93be 1ec4 bcbe
00000020: 360a 7fbe a120 ddbe d9bf bdbe 77ae c9be
00000030: f9cf 80be 0b9a 09be c5f6 b4be 2068 b7be
00000040: 492c f4be fde5 8fbe b664 bbbe aacf a1be
00000050: 98e2 b2be 6f9c 66be 0328 bcbe 503d fcbe
00000060: 416f edbe 60ba a4be 1e03 a1be e325 adbe
00000070: d563 a7be baca 73be 8469 d9be 61bb ccbe
-0.26668003 -0.36107564 -0.33293685 -0.30791017 -0.24488506 -0.40097523 -0.28801876 -0.36868376
-0.24906239 -0.43188956 -0.3706043 -0.3939092 -0.2515867 -0.13437669 -0.3534452 -0.3582163
-0.47690037 -0.28105155 -0.36600274 -0.31603748 -0.34938502 -0.22520612 -0.36749277 -0.49265528
-0.46373942 -0.32173443 -0.3144769 -0.33817968 -0.32693353 -0.23807803 -0.42463315 -0.3998671

functional_3_1/batch_normalization_5_1/batchnorm/mul:0 f4 [32]
00000000: dda3 273f ba08 753f 70f8 823f aed3 633f
00000010: 474c 703f eadd 203f 2921 723f be12 403f
00000020: d2ea 283f 20aa 713f 86fd 013f 0e57 723f
00000030: 016e 553f 0797 4b3f 4f2d 563f dcac 313f
00000040: 393d 313f b4ce 4e3f 7255 543f 17ce 693f
00000050: 4c56 743f ee25 103f bcc1 0b3f 9810 423f
00000060: 5a34 4b3f 4239 373f cd31 1d3f 8e02 7d3f
00000070: 0257 193f 1cba 6d3f b831 213f 0b04 7e3f
0.6548441 0.9571644 1.0232067 0.8899487 0.9386639 0.62838614 0.9458185 0.750286
0.6598331 0.94400215 0.5077747 0.94664085 0.8337098 0.79527324 0.83662885 0.6940439
0.69234043 0.80784154 0.8294288 0.91330093 0.9544418 0.56307876 0.5459249 0.7580657
0.7937676 0.71571743 0.61404115 0.98832023 0.5989839 0.92862105 0.6296649 0.9922492

functional_3_1/batch_normalization_4_1/batchnorm/sub:0 f4 [64]
00000000: 418e b4be ab20 d5be d136 c3be 416b c9be
00000010: 9006 a1be 4eea 93be fef6 21bf 3c63 92be
00000020: 39fd 6ebe 7135 c1be da75 d5be 7216 51be
00000030: aade c8be d012 08bf 923e 4abe 081c bebe
00000040: 83d3 08bf cfd2 8fbe e0e4 bdbe 8666 b5be
00000050: c04e d7be 08bb 02bf b69d 39be 84c5 cbbe
00000060: f735 00bf 8d6e d8be 4c4c c2be f91f acbe
00000070: d095 b2be 5b3e c4be 0af9 b0be b493 c8be
00000080: 5c5d 90be e60d 0ebf 7eb9 f5be 6277 f3be
00000090: f0a1 0dbf 1243 97be 8ca3 9cbe a110 1dbf
000000a0: 9100 d6be 9ed3 d1be b70c b5be 9efc c7be
000000b0: ee77 e3be 2acb 9dbe ade0 c0be 9318 03bf
000000c0: ae21 dfbe be80 99be 0574 10bf 3f86 98be
000000d0: 7e1c b0be e5b5 16bf 1828 f1be b496 80be
000000e0: fa56 5bbe 9345 8bbe c9c7 d1be 08c4 d0be
000000f0: e855 cdbe 52ee bebe 4805 fabe 4002 20bf
-0.3526478 -0.41626486 -0.3812776 -0.3933964 -0.3145032 -0.28889698 -0.63267505 -0.28591335
-0.23338784 -0.37736085 -0.41691476 -0.20418718 -0.3923238 -0.53153706 -0.19750431 -0.3713076
-0.5344774 -0.28090522 -0.3708868 -0.35429782 -0.4205227 -0.5106664 -0.18126568 -0.3979913
-0.50082344 -0.42271844 -0.37948835 -0.33618143 -0.34879923 -0.38328823 -0.34565002 -0.3917519
-0.28196228 -0.5548996 -0.47993082 -0.4755202 -0.5532522 -0.29543358 -0.30593526 -0.613535
-0.41797307 -0.40981764 -0.35361263 -0.3905992 -0.44427437 -0.30819064 -0.37671414 -0.5120937
-0.43580383 -0.29981035 -0.5642703 -0.29789922 -0.34396738 -0.588713 -0.47100902 -0.25114977
-0.21419898 -0.27201518 -0.40972736 -0.4077456 -0.40104604 -0.372912 -0.48832154 -0.62503433

functional_3_1/batch_normalization_4_1/batchnorm/mul:0 f4 [64]
00000000: 2eea 583f 4862 903f f994 703f 7227 5e3f
00000010: 1bff 7c3f ad10 8d3f 1688 5a3f c578 7a3f
00000020: ed42 853f c16b 823f da8f 3e3f 4854 683f
00000030: e610 4a3f 45b2 673f 9929 933f 572b 523f
00000040: d99e 6b3f cc3f 2b3f 8563 5a3f 2cf9 763f
00000050: f1ae 4b3f 9e20 613f ca56 5c3f 259c 7a3f
00000060: d319 943f 5b78 4e3f 0393 7b3f 9769 413f
00000070: 5304 5b3f 335e 693f 0733 773f db60 533f
00000080: 1850 853f 2526 733f e715 883f 4265 673f
00000090: be2c 5a3f 5651 373f eb9e 713f 0779 583f
000000a0: ad70 383f e93d 423f 63a3 833f cd6e 803f
000000b0: 3a3f 933f f0ea 593f 4932 5e3f 1deb 733f
000000c0: b18f 7c3f ab44 373f 202e 713f 692a 8e3f
000000d0: 593e 863f fc8b 633f cf2f 6c3f 694b 613f
000000e0: c16c 563f 2092 4d3f cae6 6b3f 6a4c 473f
000000f0: 2cf4 623f b4f8 873f 420a 883f 58ca 783f
0.8473233 1.1279993 0.93977314 0.8677894 0.9882676 1.1020714 0.853639 0.9784053
1.0411049 1.0189134 0.7443825 0.90753603 0.78932035 0.9050639 1.149707 0.8209738
0.9203926 0.6689422 0.85308105 0.96473956 0.79563814 0.87940395 0.8606993 0.9789451
1.1570381 0.806524 0.982712 0.7555174 0.85553473 0.9115936 0.96562237 0.82569665
1.0415068 0.9498008 1.0631684 0.9038888 0.8522452 0.71608484 0.94383115 0.84559673
0.7204693 0.7587572 1.0284237 1.0033814 1.150367 0.8512411 0.8679548 0.9528063
0.98656756 0.71589154 0.94211006 1.1106693 1.0487777 0.88885474 0.9226045 0.8800569
0.83759695 0.80301094 0.9214903 0.77850974 0.88653827 1.0622773 1.062813 0.9718375

functional_3_1/batch_normalization_3_1/batchnorm/sub:0 f4 [128]
00000000: 7525 e0be 58d0 02bd 0f69 42bc 4ee4 81bd
00000010: ad63 21be f298 6dbe 83f1 a5be 8102 ddbb
00000020: 43ae fabe 3ef1 cabe 7acb 33be b517 d4bd
00000030: 6a39 c8bd a0ec d4bd 0adf 35be 72d4 a9be
00000040: 7878 71be beb8 42be e7e1 c4be 393f 3fbe
00000050: be04 ec3c 5093 ddbd 9ebb e0bc 350d b2bd
00000060: 55c3 0abe db56 d1be eb96 66be da4a ed3d
00000070: f582 9ebe 9ef6 913c 8678 3c3d 57cd bebe
00000080: bb2c 88bc add0 06bc e8c3 49be a95c 92be
00000090: 1af9 93be a567 12be a756 b6bd bd12 3ebe
000000a0: 1361 dbbd f6a0 16be f8c3 243d d04a a3be
000000b0: 7d22 5e3d 0fb2 fabe 9298 f3bd d846 0ebd
000000c0: 0eaa eebe 81c4 79be 4461 e2be cfb0 273d
000000d0: abd1 c3bc 66f3 8e3c 0a2b cfbe c81d 96bc
000000e0: 5ba8 c2be 20ec 7fbe def0 35bd 1254 aebd
000000f0: 1932 67be beac 7abe 05c4 463d 2a39 a7be
00000100: d739 c9bb b42a 76bd 965d 06be 7cba 67be
00000110: 2f0d 83be 43ad e9bc e422 17bf 58a4 babe
00000120: 2733 e43c 8c6e 92be 3cde 5cbe cbed 5fbe
00000130: a75c 1bbd eed5 b0bd 1250 45be 6c97 0d3d
00000140: 1cb2 9cbe 67a2 2fbe 3064 c2bc 1159 9bbd
00000150: fab1 31be 18c0 f6be aaa6 f4bd 190e ebbe
00000160: 1831 61be 56b3 483d 9bc7 aa3d 3ff8 a3be
00000170: 6653 0d3d ee81 d9bd 9c4d 8e3c 9a24 253d
00000180: 6bd7 47be 9e5f a8bc 65bc 8c3d 22d5 92bc
00000190: d17a 6dbe c62c 933d 8d3f b2be 88a4 e6bc
000001a0: 5057 913d 84e5 28be 12c2 74bd 6b9b 5c3d
000001b0: 830b c3be bc99 cfbd 84a5 20be 8282 e23d
000001c0: 3acd fabd 5b1f d0bd c28d cc3d 089c 15bc
000001d0: 260e 983c c0f7 8e3a b3c4 c8bc 5068 593c
000001e0: 4a11 2abd a695 93be 8b19 1abe ecdd c5be
000001f0: f550 67be 7ef6 0ebd d430 7b3d 0d4f 30be
-0.43778577 -0.031936973 -0.011865868 -0.06342374 -0.1576068 -0.23202875 -0.3241082 -0.0067446833
-0.48961076 -0.39637178 -0.17558089 -0.10356084 -0.09776576 -0.10396695 -0.17760864 -0.33169895
-0.23581111 -0.19015786 -0.384536 -0.18676461 0.028810855 -0.10819113 -0.027433213 -0.08693925
-0.13551076 -0.40886578 -0.22518508 0.115865424 -0.30959287 0.017817792 0.046013378 -0.37266037
-0.016622892 -0.008228463 -0.19703639 -0.2858632 -0.28900987 -0.1429735 -0.089032464 -0.18561836
-0.10711875 -0.14709839 0.040225953 -0.31893015 0.05423211 -0.48963973 -0.11894335 -0.03473553
-0.46614116 -0.24391367 -0.44214833 0.040940102 -0.023903688 0.017450046 -0.40462524 -0.018324748
-0.3801907 -0.24992418 -0.044419162 -0.08512129 -0.22577704 -0.24479958 0.048526783 -0.326608
-0.0061409282 -0.06009932 -0.13121638 -0.22629732 -0.25595996 -0.028525 -0.59037614 -0.3645351
0.027856423 -0.28599966 -0.2156915 -0.21868055 -0.037930157 -0.08634554 -0.19268826 0.034568235
-0.30604637 -0.17151795 -0.023729414 -0.075853474 -0.17353049 -0.4819343 -0.11945851 -0.45909193
-0.21991384 0.048999153 0.08338853 -0.32025334 0.034503363 -0.10620485 0.017370991 0.04031811
-0.19515769 -0.020553406 0.06871871 -0.017923895 -0.23191382 0.07186274 -0.3481411 -0.028154626
0.07096732 -0.16493803 -0.059755392 0.053859156 -0.3809472 -0.101367444 -0.15688139 0.11060049
-0.12246175 -0.101622306 0.09987976 -0.009131439 0.018561434 0.0010907575 -0.024507856 0.013269499
-0.041520394 -0.2882511 -0.15048806 -0.38645875 -0.22589476 -0.034903042 0.061325863 -0.17217655

functional_3_1/batch_normalization_3_1/batchnorm/mul:0 f4 [128]
00000000: 514b cc3f 835d b33f fb1f bf3f 9233 d83f
00000010: 9f6e c03f 4fb8 bc3f cad7 b63f fb1f bf3f
00000020: 701b c73f 336a b33f 727b bb3f c0b8 c43f
00000030: 7388 d13f 9a3c aa3f ebc8 b13f e4c9 c93f
00000040: d47f c23f e0e6 b73f 65b6 b23f 624e c63f
00000050: 07ad b53f 7032 bc3f f286 bb3f 5afa c03f
00000060: 8fee b13f c3ee c63f a843 c33f fb1f bf3f
00000070: 321a b53f 1dfb b83f 911b b33f d8fa ac3f
00000080: 84a7 b33f 80ad b33f 7eca c43f 331a c93f
00000090: 91f3 af3f d093 d13f 4885 bd3f 5aa5 ca3f
000000a0: 66a7 cb3f 1634 b43f 89b4 b13f 6179 bf3f
000000b0: 2321 c33f 1c6a c63f 6d15 a83f 5ca7 b33f
000000c0: c83f ad3f c8bf be3f 2554 bf3f 8427 bd3f
000000d0: f934 c73f c423 c93f c4f9 c03f 41c8 c13f
000000e0: 326b c93f 0efa b33f c24e bf3f 5ce3 c63f
000000f0: 5b0b b53f 5a9c c23f b2a6 b33f f559 bb3f
00000100: 6808 c83f 7257 b53f 0e40 b53f e151 be3f
00000110: e949 c23f f9ad b33f 92e9 be3f fe50 b23f
00000120: aeff b33f 6d00 c53f 3937 c13f 8ecf ae3f
00000130: 009e c53f 1339 ac3f 25ed ab3f fb1f bf3f
00000140: 85f3 b53f 4d86 b33f 19fe b73f fb1f bf3f
00000150: 4088 c53f 44d0 d13f e0f0 c33f 5155 bd3f
00000160: a1d0 b43f 1316 b23f 81dc ae3f 0b6c b63f
00000170: fbb0 ce3f dd65 b53f bc19 c23f 313a bf3f
00000180: 0bed c33f ec50 c63f ed92 b93f cc9c b93f
00000190: 0fe7 b53f fb1f bf3f 81dc c13f e52c b93f
000001a0: af96 bb3f ad4c be3f 5f9c be3f fb1f bf3f
000001b0: 5778 b03f e4f6 c03f e143 b13f fb1f bf3f
000001c0: b1b0 c33f 063a cf3f 7aaf c13f 6ce7 c13f
000001d0: 1ab7 c93f 27ec c03f 3499 be3f a888 c13f
000001e0: 6c90 d13f ad32 bf3f 0585 a23f 5413 c23f
000001f0: 04df c33f 2bb9 b43f 8488 ab3f 5e2e a13f
1.5960485 1.4012913 1.4931635 1.6890738 1.5033759 1.4743747 1.4284604 1.4931635
1.5555248 1.4016784 1.4647048 1.5368881 1.6369766 1.3299744 1.388944 1.5764737
1.519526 1.4367332 1.3961912 1.549267 1.4193429 1.4702892 1.4650557 1.5076401
1.3900927 1.5541614 1.5255022 1.4931635 1.4148619 1.4451634 1.3992788 1.3514051
1.4035497 1.4037323 1.5374296 1.571112 1.3746206 1.6373234 1.4806299 1.5831711
1.5910461 1.4078395 1.388322 1.4958917 1.5244488 1.5501132 1.3131539 1.4035449
1.353509 1.4902277 1.4947554 1.4777684 1.5563041 1.571404 1.5076222 1.5139238
1.5735838 1.4060686 1.494591 1.5538135 1.414409 1.5203965 1.4035246 1.4636828
1.5627565 1.4167311 1.4160173 1.4868737 1.5178806 1.4037467 1.491503 1.3930967
1.4062402 1.5390755 1.5094978 1.3657091 1.5438843 1.3454918 1.3431746 1.4931635
1.4214941 1.402536 1.437442 1.4931635 1.5432205 1.6391683 1.5307884 1.4791662
1.4126168 1.3912987 1.3661042 1.4251722 1.614776 1.4171711 1.5164104 1.4939634
1.5306715 1.5493445 1.4497963 1.4500976 1.4211138 1.4931635 1.5145417 1.4466826
1.465536 1.486715 1.4891471 1.4931635 1.3786725 1.5075345 1.384884 1.4931635
1.5288297 1.6189582 1.5131676 1.5148749 1.5759003 1.5072068 1.4890504 1.5119829
1.6372199 1.493734 1.2696844 1.5162148 1.5302434 1.4119009 1.3401036 1.2592275
