models/Vransko/cars/Vransko_cars_model.onnx (onnx, 60531 bytes, 13 tensors)

functional_3_1/dense_7_1/Cast/ReadVariableOp:0 f4 [32, 1]
-0.04412712 0.018980019 0.044825878 0.1276674 -0.053225353 -0.03031635 -0.02449083 0.011095422
0.0015464404 0.018292226 -0.08551619 0.091054 0.0012773692 0.041935362 0.069822684 -0.029260945
-0.011397572 0.08870012 -0.08493845 0.001765735 0.115718536 0.012101201 -0.007959291 -0.08091328
0.04923653 0.0047579072 0.01934702 0.04337226 -0.035391413 -0.1391047 0.028685024 -0.07364794
00000000: a4be 34bd fc7b 9b3c 579b 373d 3ebb 023e
00000010: d402 5abd fe59 f8bc fea0 c8bc 93c9 353c
00000020: eeb1 ca3a 94d9 953c 1d23 afbd 857a ba3d
00000030: 666d a73a 6ac4 2b3d 32ff 8e3d a6b4 efbc
00000040: e2bc 3abc 69a8 b53d 36f4 adbd 3c70 e73a
00000050: d7fd ec3d 1e44 463c b067 02bc ddb5 a5bd
00000060: 3eac 493d 38e8 9b3b a47d 9e3c 1ca7 313d
00000070: 96f6 10bd 7671 0ebe dbfc ea3c bbd4 96bd

functional_3_1/dense_6_1/Cast/ReadVariableOp:0 f4 [64, 32]
-0.11398242 -0.0631877 0.05512741 0.17960472 0.21301892 -0.20352489 0.13686132 0.106208414
0.04492818 0.03604048 0.14815445 0.07532889 0.077773094 0.15418428 -0.076140314 0.050952964
-0.08775333 0.032827426 0.25696033 0.2214017 0.17551266 0.061808452 0.16317143 -0.016717032
-0.17258207 0.021145193 0.20437436 -0.23940928 0.16851337 0.047106873 -0.17920405 -0.0030063686
-0.085114986 0.28592563 -0.022319485 -0.08705926 -0.051320303 -0.017008215 -0.2012415 -0.28551102
0.14894904 -0.25553358 -0.03942775 0.03489204 -0.10502927 -0.022234555 0.14317393 -0.2937229
0.14046378 -0.22624645 0.18210112 0.1003483 -0.12244194 0.1410765 0.04708998 0.24891016
0.24512145 -0.055895872 0.01932043 -0.1431297 -0.013094545 -0.09900826 -0.21694757 -0.024510954
0.00025467674 -0.015403183 -0.18960246 -0.07593444 0.12646231 0.20463935 0.044538777 0.10052325
-0.14015168 -0.015973417 -0.04218286 -0.16928163 0.06667589 -0.042363815 -0.06099143 -0.14893255
0.21969847 -0.046450127 -0.20770805 -0.16674347 -0.0019463806 0.10061206 0.07697068 0.04256175
0.209872 0.28878808 0.09135229 -0.14081225 0.064379215 -0.19831638 0.15004943 0.1391163
-0.2079969 0.022119299 -0.13093036 -0.04755916 -0.24379507 -0.2363849 0.10713022 -0.09501104
-0.10524821 -0.05158859 -0.099608935 -0.318951 -0.19898483 -0.12105794 0.18935162 0.17008477
-0.34282163 -0.17772862 -0.13913299 -0.2827159 -0.09441875 0.2136485 -0.009318351 0.23812202
0.09980839 0.14901353 -0.06429865 -0.15601866 0.12836727 -0.29951957 0.35020864 0.07940608
-0.06542304 0.12121245 0.26717547 0.03151131 0.023539884 0.00031536765 0.040217534 -0.0018156377
0.16395365 0.22476184 0.03628906 -0.094252765 0.07138597 0.3069835 -0.027962454 -0.23130469
-0.015057321 -0.21110015 0.21889177 -0.16566032 0.14231 -0.11435666 0.030061513 -0.20541012
-0.13218494 0.104875565 0.11167553 -0.07545024 -0.020848524 0.039932046 -0.1030194 -0.0714283
-0.19345187 -0.25847748 0.28906837 0.19214965 -0.01874781 0.004668174 -0.19369496 0.003356938
-0.02116654 0.12089257 0.35906532 0.05748395 -0.0589939 -0.15049535 0.16668269 0.10384373
0.022143489 -0.0050830734 -0.018823635 0.1803764 0.25065678 -0.15778808 -0.2320185 0.2249326
-0.029326942 0.18045628 -0.00053277257 -0.32902342 0.27019852 0.13097622 0.10018251 -0.076280214
-0.059270058 0.20989864 0.11485357 0.13778819 0.006663859 0.23665792 0.017233284 0.26851684
0.15985955 -0.050233513 -0.07332299 -0.10126102 -0.30066705 0.17925964 0.060014628 0.2080321
-0.005361304 -0.1274809 -0.09089751 -0.21639943 -0.13669008 -0.02524977 0.09454946 0.31363174
-0.24832237 0.20267099 0.13988818 -0.041234422 -0.11562744 -0.20767765 -0.12009804 0.041542146
-0.02078756 0.24079911 0.28095093 -0.2297672 0.12144072 0.11548133 -0.28099972 -0.22139686
0.26724052 0.010804893 0.18074994 -0.2024695 0.124929644 -0.1472993 0.018421693 0.017361645
-0.19969684 -0.06307519 0.27856 0.09151421 0.29429147 -0.23738933 0.117686994 -0.24827927
-0.011287329 0.1520613 -0.30219412 -0.0211397 0.15130179 -0.23742121 0.16630043 -0.04055824
00000000: 9d6f e9bd 8e68 81bd 47cd 613d 4dea 373e
00000010: a221 5a3e d468 50be 6025 0c3e cc83 d93d
00000020: 9c06 383d 2f9f 133d cdb5 173e 0846 9a3d
00000030: 8047 9f3d 7ce2 1d3e 74ef 9bbd 0eb4 503d
00000040: 05b8 b3bd 0d76 063d 4e90 833e 21b7 623e
00000050: 97b9 333e dc2a 7d3d 6916 273e 28f2 88bc
00000060: 5bb9 30be af38 ad3c 8347 513e b527 75be
00000070: c58e 2c3e 23f3 403d 4481 37be 7f06 45bb
00000080: c450 aebd d864 923e 5ad7 b6bc 204c b2bd
00000090: 3d35 52bd d054 8bbc 4012 4ebe 802e 92be
000000a0: 1986 183e 4cd5 82be fe7e 21bd f5ea 0e3d
000000b0: 9619 d7bd 3e25 b6bc 309c 123e d962 96be
000000c0: bdd5 0f3e 26ad 67be b778 3a3e 6983 cd3d
000000d0: d7c2 fabd 5c76 103e 6ce1 403d 4ee2 7e3e
000000e0: 1e01 7b3e 12f3 64bd e145 9e3c 9890 12be
000000f0: 818a 56bc d8c4 cabd 8127 5ebe 32cb c8bc
00000100: 2286 8539 a25d 7cbc 2627 42be 8483 9bbd
00000110: 567f 013e fa8c 513e 4b6e 363d 22df cd3d
00000120: ec83 0fbe afda 82bc efc7 2cbd 2a58 2dbe
00000130: 5e8d 883d ae85 2dbd 26d2 79bd c681 18be
00000140: a3f8 603e 7d42 3ebd 6bb1 54be cdbe 2abe
00000150: b21d ffba b20d ce3d cea2 9d3d 3b55 2e3d
00000160: b0e8 563e 08dc 933e e916 bb3d 1631 10be
00000170: 40d9 833d 7313 4bbe 8fa6 193e 8174 0e3e
00000180: 24fd 54be 8833 b53c 9c12 06be 65cd 42bd
00000190: 6aa5 79be e20e 72be 1767 db3d 2695 c2bd
000001a0: 608c d7bd 8f4e 53bd c5ff cbbd 8c4d a3be
000001b0: aec2 4bbe 3aed f7bd 64e5 413e b42a 2e3e
000001c0: 5186 afbe 7efe 35be e178 0ebe 23c0 90be
000001d0: 9e5e c1bd acc6 5a3e ffab 18bc 42d6 733e
000001e0: 5768 cc3d 0197 183e 03af 83bd 5bc3 1fbe
000001f0: b672 033e a15a 99be 8c4e b33e a89f a23d
00000200: 84fc 85bd 3c3e f83d 39cb 883e 0112 013d
00000210: b7d6 c03c ee57 a539 24bb 243d b1fa edba
00000220: 77e3 273e f827 663e d6a3 143d 9807 c1bd
00000230: cf32 923d f12c 9d3e 8411 e5bc 23db 6cbe
00000240: fbb2 76bc a32a 58be 2a25 603e dca2 29be
00000250: b6b9 113e d333 eabd 9043 f63c 0857 52be
00000260: 7d5b 07be 00c9 d63d 24b6 e43d a885 9abd
00000270: 86ca aabc c98f 233d d6fb d2bd 0049 92bd
00000280: 3f18 46be 2957 84be c500 943e e1c2 443e
00000290: 0295 99bc 7bf7 983b f957 46be 1300 5c3b
000002a0: 7465 adbc 8696 f73d 69d7 b73e 4a74 6b3d
000002b0: 96a3 71bd 741b 1abe deae 2a3e 06ac d43d
000002c0: 4366 b53c e98f a6bb 0634 9abc 97b4 383e
000002d0: 1656 803e 3393 21be 4296 6dbe bb54 663e
000002e0: 0e3f f0bc 88c9 383e c3a9 0bba c275 a8be
000002f0: 7657 8a3e a11e 063e 7d2c cd3d cd38 9cbd
00000300: 29c5 72bd abef 563e 5938 eb3d 5918 0d3e
00000310: 805c da3b 7456 723e d12c 8d3c 0a7b 893e
00000320: 39b2 233e a8c1 4dbd 5d2a 96bd f061 cfbd
00000330: 08f1 99be d78f 373e e6d1 753d 5e06 553e
00000340: e1ad afbb 5a8a 02be 7928 babd d097 5dbe
00000350: 7cf8 0bbe 9bd8 cebc 26a3 c13d 5794 a03e
00000360: 3848 7ebe fc88 4f3e d93e 0f3e 6de5 28bd
00000370: 14ce ecbd 73a9 54be f6f5 f5bd 1928 2a3d
00000380: ac4a aabc 0b94 763e cdd8 8f3e 1848 6bbe
00000390: eab5 f83d 7a81 ec3d 32df 8fbe dcb5 62be
000003a0: c0d3 883e 0207 313c 8316 393e 2a54 4fbe
000003b0: 1ddb ff3d a1d5 16be 17e9 963c 023a 8e3c
000003c0: 547d 4cbe 912d 81bd 6b9f 8e3e cd6b bb3d
000003d0: 5fad 963e 3016 73be e105 f13d ec3c 7ebe
000003e0: 7dee 38bc f5b5 1b3e 30b9 9abe 2a2d adbc
000003f0: dbee 1a3e 8c1e 73be a94a 2a3e 6620 26bd

functional_3_1/dense_6_1/Add/ReadVariableOp:0 f4 [32]
-0.06115876 0.095086925 0.053612527 -0.0012583802 0.04533766 -0.031761825 -0.050046265 -0.0197864
0.07396911 -0.042178225 -0.056225438 0.012577404 0.0020828783 0.039406367 0.09019731 0.028862495
-0.0056772735 0.07042067 -0.09240507 0.07015001 0.041408412 -0.03086466 0.09604835 0.0039577014
0.03216623 0.007595591 0.05143126 0.16615115 -0.047464818 0.06884503 0.03804285 0.07192957
00000000: 9c81 7abd efbc c23d cf98 5b3d 3cf0 a4ba
00000010: fbb3 393d b018 02bd 50fd 4cbd 1717 a2bc
00000020: 1e7d 973d 13c3 2cbd a54c 66bd 7511 4e3c
00000030: e680 083b 9268 213d 5eb9 b83d 0a71 ec3c
00000040: 6c08 babb b638 903d df3e bdbd cfaa 8f3d
00000050: de9b 293d e2d7 fcbc ffb4 c43d 9baf 813b
00000060: bdc0 033d 6fe4 f83b 96a9 523d 8723 2a3e
00000070: 786a 42bd a0fe 8c3d d2d2 1b3d cf4f 933d

functional_3_1/dense_5_1/Cast/ReadVariableOp:0 f4 [128, 64]
0.030029314 0.044266388 0.13135363 -0.07082169 0.08062567 -0.23153232 0.08574282 -0.29303014
0.032346535 0.14820316 -0.03877453 0.07792823 0.2448341 0.11782276 0.0324851 0.16723008
0.057871077 -0.045104627 0.10821384 0.018847782 -0.1308203 -0.26818538 0.039043855 0.1771246
0.21228217 0.17087573 0.058390066 -0.018441334 -0.16483381 -0.11020964 0.030192649 0.09426193
-0.18077363 0.18449342 0.25874487 0.1646596 0.06783035 0.056844193 -0.17408031 -0.054614834
0.1747076 -0.057353366 -0.045805734 0.08060384 0.12669338 0.03963109 0.19317771 0.018413182
-0.077566296 -0.052480444 -0.03506064 0.15522005 -0.08327767 0.078469954 -0.12273685 -0.0043337876
-0.18051131 0.10841361 -0.1804265 -0.005595605 -0.0253637 -0.044683464 -0.06590054 -0.10746227
-0.023159645 -0.06381028 0.14484099 0.12389818 0.022040756 0.21579498 0.03654702 -0.08988401
-0.05683242 -0.17283763 -0.041053735 -0.14866844 -0.21088505 -0.04098095 -0.21367389 0.025030373
0.13945164 -0.019544855 -0.014226869 0.024623016 0.12305927 0.06501407 0.014912352 -0.043303613
0.10263671 -0.084859155 0.032371808 0.16210455 0.004454179 -0.079778 -0.033065002 -0.0757385
0.18528259 -0.0046110856 -0.14839108 -0.18739428 -0.0039577754 0.11297852 0.15803131 0.15644188
-0.059308395 0.024946818 -0.030519038 0.08068992 0.07384859 0.11126528 0.072801374 -0.07851756
-0.18288949 0.044514623 -0.11299361 -0.06573563 -0.09961541 -0.086711146 0.26664823 0.08523925
-0.15051691 0.26432246 -0.10720513 0.056251425 -0.08184085 0.09992392 0.003868366 0.13874182
0.22484799 0.19887823 0.0023306925 0.044356063 -0.11195852 0.08937531 -0.13804495 0.11736097
-0.21710253 -0.103771135 0.018629724 0.018215468 -0.14177871 -0.16326423 0.1349327 -0.04878648
0.03441582 0.12444935 0.27106932 -0.1378261 -0.029348087 -0.069041446 0.054161493 0.114910364
0.1622024 -0.042600114 0.096732154 0.10777245 -0.048444856 0.21088687 0.14291754 -0.2031466
-0.058681764 0.103321075 -0.06641862 -0.03376085 -0.08243729 -0.07076023 0.057532195 0.1061056
-0.11018108 0.20109126 0.22964257 0.0143773705 0.16360728 -0.08875121 0.086941265 0.12439015
-0.14490259 0.17854296 0.12766056 0.17319737 -0.10598236 0.011227446 -0.07581451 -0.054007366
0.13516952 -0.047776077 0.0094603095 -0.02158839 -0.1843046 0.17428935 0.06528255 0.14870253
0.115855776 -0.20856899 -0.023932805 -0.08941319 -0.039966512 0.06824099 0.16906689 0.027846279
0.18999358 -0.024014978 -0.0528759 0.15485922 0.009005264 -0.08564593 0.17430316 -0.048847873
-0.0007724293 0.18887387 0.011123744 -0.0053266776 -0.17067587 -0.2566443 0.14478944 0.13117896
-0.1345253 -0.07101544 -0.003022079 0.04312337 0.23847039 0.025240371 0.13413377 -0.105101965
-0.03487298 0.08557652 0.07046986 0.038651034 -0.015335956 0.02733905 0.1773819 0.0908413
-0.046512697 -0.12605914 0.005108609 0.05067787 -0.078375705 -0.098503634 -0.09746793 -0.004074039
0.21762739 0.1204065 0.10389181 -0.008435148 -0.10148066 -0.05252838 -0.16360328 0.09250832
0.19073759 0.066009045 0.13764378 -0.27663937 -0.17790414 -0.06534518 0.20063631 -0.21901186
00000000: 0900 f63c ac50 353d 9181 063e f60a 91bd
00000010: 121f a53d cf16 6dbe ee99 af3d 0c08 96be
00000020: cd7d 043d 92c2 173e 0bd2 1ebd d698 9f3d
00000030: cab5 7a3e 0f4d f13d 190f 053d 5d3e 2b3e
00000040: 390a 6d3d a1bf 38bd 389f dd3d aa66 9a3c
00000050: c2f5 05be 984f 89be 73ec 1f3d 2760 353e
00000060: 7f60 593e 0cfa 2e3e 6c2a 6f3d 4812 97bc
00000070: 32ca 28be 97b5 e1bd 9356 f73c 660c c13d
00000080: b91c 39be d8eb 3c3e 357a 843e 879c 283e
00000090: a3ea 8a3d 75d5 683d 1c42 32be ceb3 5fbd
000000a0: 8de6 323e 5deb 6abd cb9e 3bbd a013 a53d
000000b0: e9bb 013e 3654 223d 61d0 453e 3ed7 963c
000000c0: 14db 9ebd bcf5 56bd bf9b 0fbd 01f2 1e3e
000000d0: 7c8d aabd dbb4 a03d 755d fbbd 7202 8ebb
000000e0: f5d7 38be f407 de3d b9c1 38be 565b b7bb
000000f0: 89c7 cfbc 0206 37bd ddf6 86bd 2e15 dcbd
00000100: 4cb9 bdbc f7ae 82bd 3251 143e 54be fd3d
00000110: d18e b43c 5cf9 5c3e 54b2 153d 1c15 b8bd
00000120: 1dc9 68bd 59fc 30be f627 28bd 8a3c 18be
00000130: 40f2 57be a4db 27bd 54cd 5abe 7f0c cd3c
00000140: 69cc 0e3e 881c a0bc d017 69bc 35b6 c93c
00000150: 8006 fc3d 1926 853d f052 743c 215f 31bd
00000160: 3233 d23d a3ca adbd 4d98 043d bcfe 253e
00000170: 5df4 913b a662 a3bd 2b6f 07bd c91c 9bbd
00000180: b8ba 3d3e 9718 97bb d5f3 17be 49e4 3fbe
00000190: 3ab0 81bb 4861 e73d f6d2 213e 4d32 203e
000001a0: 5ced 72bd 455d cc3c 1003 fabc c240 a53d
000001b0: ee3d 973d 0ddf e33d e318 953d d1cd a0bd
000001c0: 6247 3bbe f754 363d 3269 e7bd 67a0 86bd
000001d0: 2a03 ccbd 9d95 b1bd 1e86 883e ea91 ae3d
000001e0: 1b21 1abe 4655 873e 5d8e dbbd e567 663d
000001f0: 2d9c a7bd eaa4 cc3d 6984 7d3b 5612 0e3e
00000200: 8d3e 663e bca6 4b3e 88be 183b b4ae 353d
00000210: 824a e5bd 670a b73d a85b 0dbe f35a f03d
00000220: 2050 5ebe f685 d4bd 5d9d 983c 9b38 953c
00000230: 702e 11be bd2e 27be cc2b 0a3e 55d4 47bd
00000240: 9af7 0c3d 4ddf fe3d 99c9 8a3e 4922 0dbe
00000250: 666b f0bc 9a65 8dbd 71d8 5d3d 2056 eb3d
00000260: 6318 263e 757d 2ebd 821b c63d cdb7 dc3d
00000270: 1d6e 46bd baf2 573e fa58 123e aa05 50be
00000280: 4a5c 70bd 009a d33d 7c06 88bd d148 0abd
00000290: e2d4 a8bd bdea 90bd e1a6 6b3d e54d d93d
000002a0: 9ea6 e1bd deea 4d3e 6c27 6b3e 108f 6b3c
000002b0: ab88 273e 32c3 b5bd 430e b23d 43c0 fe3d
000002c0: 5861 14be f7d3 363e 73b9 023e a75a 313e
000002d0: 480d d9bd 52f3 373c a344 9bbd d436 5dbd
000002e0: e169 0a3e d9b0 43bd 6aff 1a3c 23da b0bc
000002f0: 58ba 3cbe e878 323e dcb2 853d 7a45 183e
00000300: cb45 ed3d 1c93 55be bb0e c4bc 431e b7bd
00000310: edb3 23bd efc1 8b3d df1f 2d3e e11d e43c
00000320: ad8d 423e 0fbb c4bc 6694 58bd 6a93 1e3e
00000330: d18a 133c 2267 afbd 877c 323e b514 48bd
00000340: da7c 4aba 2768 413e 5d40 363c 698b aebb
00000350: a8c5 2ebe e266 83be af43 143e c753 063e
00000360: 00c1 09be 8b70 91bd 120e 46bb 21a2 303d
00000370: 9531 743e e5c4 ce3c 5d5a 093e b33f d7bd
00000380: f8d6 0ebd be42 af3d 8152 903d 8c50 1e3d
00000390: a943 7bbc 25f6 df3c 9aa3 353e 010b ba3d
000003a0: 1984 3ebd a615 01be 1e66 a73b 9993 4f3d
000003b0: 7183 a0bd 46bc c9bd 449d c7bd 847f 85bb
000003c0: b7d9 5e3e af97 f63d 3bc5 d43d 9333 0abc
000003d0: 18d5 cfbd 0028 57bd 9e87 27be 0175 bd3d
000003e0: b750 433e c02f 873d 7ef2 0c3e ada3 8dbe
000003f0: 812c 36be b2d3 85bd 9b73 4d3e a544 60be

functional_3_1/dense_5_1/Add/ReadVariableOp:0 f4 [64]
-0.05891449 -0.0008805061 -0.015546519 0.08275443 -0.02511701 -0.042627968 0.096945226 -0.05020141
-0.072422154 -0.047640663 -0.10253521 0.09534113 -0.06602207 0.06017148 -0.015111835 -0.03134915
0.01187577 -0.018913612 0.017565297 -0.015424212 0.049800757 0.026741711 0.053920828 -0.0033825585
0.08850683 0.046858527 0.08218069 0.09559382 -0.020169517 0.1240641 0.044451933 0.011519672
-0.10884628 0.09282288 0.023063889 0.04706171 -0.0014887705 -0.05867937 -0.097165294 0.0013744392
-0.092884056 -0.041847873 0.06611965 -0.05027703 -0.0008035116 -0.06497074 0.020576594 -0.001025175
0.10616238 -0.0060583837 0.03862617 0.08658173 0.14556403 -0.08573052 0.023528017 -0.08862195
-0.14488815 -0.0039210925 0.022072146 -0.101326436 -0.11316838 -0.056253195 -0.10315532 0.071045406
00000000: 5250 71bd c4d1 66ba d4b6 7ebc 287b a93d
00000010: 30c2 cdbc aa9a 2ebd 388b c63d fe9f 4dbd
00000020: 1152 94bd db22 43bd fbfd d1bd 3642 c33d
00000030: 9436 87bd 5f76 763d a197 77bc f767 00bd
00000040: 9792 423c b8f0 9abc 19e5 8f3c d6b5 7cbc
00000050: e1fb 4b3d 6f11 db3c 16dc 5c3d eaad 5dbb
00000060: 1243 b53d baee 3f3d 594e a83d b1c6 c33d
00000070: 8b3a a5bc 5215 fe3d 3b13 363d 02bd 3c3c
00000080: ccea debd ec19 be3d 7bf0 bc3c c8c3 403d
00000090: d922 c3ba c759 70bd 99fe c6bd 8726 b43a
000000a0: ff39 bebd ad68 2bbd bd69 873d 49ef 4dbd
000000b0: c0a2 52ba 610f 85bd 3f90 a83c 2a5f 86ba
000000c0: a96b d93d 6885 c6bb 7a36 1e3d c351 b13d
000000d0: bd0e 153e 7c93 afbd d4bd c03c 6d7f b5bd
000000e0: 8f5d 14be 827c 80bb a5d0 b43c 3c84 cfbd
000000f0: d3c4 e7bd c069 66bd 1943 d3bd 4180 913d

functional_3_1/dense_4_1/Cast/ReadVariableOp:0 f4 [25, 128]
0.11047728 0.15140204 0.06677742 -0.096824355 -0.07594334 0.10218336 0.020069972 0.07013987
0.14538707 0.10745002 0.087495044 0.05263062 0.0069832206 -0.006819904 -0.06453608 0.115221694
0.17621945 -0.118067876 -0.04148072 0.071758494 0.18016432 0.06728475 0.061845556 -0.089492604
0.04423514 0.17592193 -0.1253578 0.1640218 -0.03923741 0.12703256 -0.1813206 -0.025302127
-0.15451905 0.13129513 0.0836608 0.09020387 0.17773105 0.10880087 0.19138958 0.14031266
-0.15318775 -0.021267042 0.087897584 -0.09137979 0.1249222 -0.0953518 0.090849295 -0.002864182
-0.10571743 0.012079865 -0.08026129 -0.13797766 0.06628777 0.13329403 0.046987996 -0.18076149
-0.018322155 0.06789516 0.08648361 -0.036443904 0.09592138 0.027949736 0.11206122 -0.17771888
-0.051010385 0.039169505 0.09548102 -0.19653231 -0.0154937655 -0.0007431954 -0.09739928 -0.07607162
-0.04123701 0.16855885 0.003767714 -0.14286883 0.062145606 0.15048327 -0.078976646 0.13382487
-0.02159527 -0.110285796 -0.17862138 0.111466095 -0.10997862 -0.11468958 -0.013697937 -0.018459126
0.063547745 -0.017530292 0.19544001 0.03808397 -0.113999076 0.050305426 -0.11592715 0.13577662
0.029882297 0.072646305 -0.06797953 0.07489674 0.004155159 -0.08460757 0.12814535 -0.19754192
-0.12886268 -0.034232974 -0.092200555 -0.17578146 0.18436207 -0.10047395 0.017584443 -0.10837666
-0.08473995 0.043770596 -0.15491268 0.17911963 -0.101137444 -0.029195756 0.14419992 0.16936995
-0.13363042 0.070428535 -0.07766915 -0.07179928 -0.17241426 0.032265514 -0.18515526 0.03504537
0.11409212 -0.24773525 -0.10690908 0.09833056 -0.05902183 -0.14175631 0.019512856 -0.05261272
-0.071245134 0.22904171 -0.22643621 -0.14901055 0.04572744 -0.21210171 -0.07120093 -0.20244278
0.05315325 0.048197478 -0.015480853 0.11678866 0.03955127 0.037061244 -0.10673281 0.036510237
0.12547149 -0.13268755 -0.064813614 0.06883358 0.16083841 -0.13667129 -0.021020053 0.13187113
-0.121146746 0.03956667 -0.030062983 -0.082190104 0.19606386 0.0099955825 0.034642663 -0.15277249
-0.1058862 0.1855661 0.117498316 -0.09797425 0.15408096 -0.19598037 -0.15338194 -0.1303781
0.06920166 -0.1268124 0.0011348077 0.11513186 0.011386507 0.26935253 0.119356394 -0.22763944
-0.09662688 0.25256386 -0.19802502 0.024616525 -0.030541847 -0.07960882 0.018741757 -0.044697702
-0.010857684 -0.011236292 -0.11943348 0.21804316 0.043911293 -0.06690255 0.21972477 -0.106976196
-0.09768951 0.033925883 -0.16731246 -0.05479883 -0.0614351 0.00055662944 -0.00016343173 -0.019598946
0.18982755 -0.11403175 -0.0055158664 -0.084514394 -0.010525167 -0.073718846 0.0010420559 0.2011806
0.06539776 -0.19785443 0.22927213 0.021365104 -0.009376968 0.110827774 -0.11561355 0.123776354
-0.081283145 -0.04702875 0.15129724 0.15635224 0.16766056 0.08479555 0.25380176 -0.06371102
-0.081047095 -0.086485505 0.010666767 -0.12621406 -0.14277482 -0.109408185 0.03522255 -0.06629726
-0.097785875 0.2138783 -0.13356443 0.077269986 0.17964064 -0.1907007 0.04051782 0.0702501
0.20186305 0.24194738 -0.039749533 -0.036353245 -0.14376625 0.008146561 0.0927055 0.01892048
00000000: ea41 e23d 2309 1b3e 9ac2 883d d94b c6bd
00000010: 2f88 9bbd 8245 d13d c869 a43c 7ea5 8f3d
00000020: 59e0 143e c20e dc3d 9a30 b33d 3493 573d
00000030: 80d3 e43b 8079 dfbb 7e2b 84bd 5af9 eb3d
00000040: df72 343e 92cd f1bd b0e7 29bd 1ef6 923d
00000050: ff7c 383e 96cc 893d c451 7d3d e647 b7bd
00000060: e82f 353d e124 343e cc5d 00be 55f5 273e
00000070: 68b7 20bd d314 023e 1bac 39be 6846 cfbc
00000080: 3e3a 1ebe 3b72 063e 5a56 ab3d cebc b83d
00000090: 21ff 353e fed2 de3d a1fb 433e 1fae 0f3e
000000a0: 40dd 1cbe 3838 aebc a603 b43d 5425 bbbd
000000b0: 36d7 ff3d ce47 c3bd 320f ba3d 00b5 3bbb
000000c0: 6182 d8bd a0ea 453c 0860 a4bd 044a 0dbe
000000d0: e2c1 873d 3b7e 083e 7c76 403d 8a19 39be
000000e0: 5818 96bc 9e0c 8b3d 521e b13d 3446 15bd
000000f0: 6e72 c43d d8f6 e43c 5a80 e53d f0fb 35be
00000100: 44f0 50bd 3470 203d 8e8b c33d c43f 49be
00000110: 90d9 7dbc 00d3 42ba 4679 c7bd 70cb 9bbd
00000120: 24e8 28bd b19a 2c3e c0eb 763b 354c 12be
00000130: 648c 7e3d 4918 1a3e 82be a1bd 6309 093e
00000140: 90e8 b0bc 85dd e1bd 86e8 36be 5648 e43d
00000150: 793c e1bd 5fe2 eabd 506d 60bc 9837 97bc
00000160: 5225 823d b09b 8fbc 6d21 483e f0fd 1b3d
00000170: 5978 e9bd 100d 4e3d 376b edbd 0709 0b3e
00000180: b8cb f43c 96c7 943d da38 8bbd 7663 993d
00000190: 0028 883b bc46 adbd 8938 033e 6e48 4abe
000001a0: 94f4 03be e037 0cbd a5d3 bcbd 0e00 34be
000001b0: 69c9 3c3e 49c5 cdbd 400d 903c 95f4 ddbd
000001c0: 248c adbd cc48 333d 6ea1 1ebe 236b 373e
000001d0: 2621 cfbd f02b efbc 25a9 133e 516f 2d3e
000001e0: 6ad6 08be d63c 903d 0111 9fbd 800b 93bd
000001f0: 5d8d 30be d828 043d 5799 3dbe bc8b 0f3d
00000200: 21a9 e93d 4fae 7dbe 26f3 dabd 8861 c93d
00000210: e0c0 71bd 9128 11be 6dd9 9f3c 6f80 57bd
00000220: f8e8 91bd e989 6a3e e5de 67be 3996 18be
00000230: b24c 3b3d 3131 59be cbd1 91bd 294d 4fbe
00000240: 39b7 593d b86a 453d 67a3 7dbc e52e ef3d
00000250: 8300 223d 88cd 173d bb96 dabd c28b 153d
00000260: 997b 003e 3fdf 07be 00bd 84bd 9ff8 8c3d
00000270: d3b2 243e 8ff3 0bbe 3f32 acbc 3a09 073e
00000280: c91b f8bd a910 223d a546 f6bc 4953 a8bd
00000290: f7c4 483e 83c4 233c 77e5 0d3d 6470 1cbe
000002a0: ddda d8bd 0a05 3e3e f5a2 f03d b9a6 c8bd
000002b0: 66c7 1d3e 14af 48be 2810 1dbe d681 05be
000002c0: 9ab9 8d3d 1cdb 01be d4bd 943a 41ca eb3d
000002d0: 798e 3a3c 93e8 893e 2071 f43d 501a 69be
000002e0: 50e4 c5bd 0d50 813e 12c7 4abe 98a8 c93c
000002f0: e532 fabc f309 a3bd 5088 993c f014 37bd
00000300: 6de4 31bc 6d18 38bc 8a99 f4bd b546 5f3e
00000310: 54dc 333d 3404 89bd 88ff 603e 5616 dbbd
00000320: 7011 c8bd def5 0a3d f553 2bbe bd74 60bd
00000330: 5fa3 7bbd c5ea 113a df5e 2bb9 f88d a0bc
00000340: 2762 423e 7a89 e9bd 71be b4bb e215 adbd
00000350: c071 2cbc e8f9 96bd 9895 883a 4a02 4e3e
00000360: 43ef 853d 5a9a 4abe 50c6 6a3e df05 af3c
00000370: dba1 19bc acf9 e23d ccc6 ecbd 757e fd3d
00000380: c777 a6bd 38a1 40bd aaed 1a3e cd1a 203e
00000390: 36af 2b3e 4aa9 ad3d 4ef2 813e ec7a 82bd
000003a0: 05fc a5bd 501f b1bd aac3 2e3c 423e 01be
000003b0: 9033 12be 6611 e0bd 8545 103d dcc6 87bd
000003c0: f643 c8bd ea02 5b3e 1dc5 08be ba3f 9e3d
000003d0: b7f3 373e 0b47 43be 03f6 253d 49df 8f3d
000003e0: 30b5 4e3e 0ec1 773e 68d0 22bd 24e7 14bd
000003f0: 7637 13be 2779 053c 62dc bd3d 1fff 9a3c

functional_3_1/dense_4_1/Add/ReadVariableOp:0 f4 [128]
0.01617304 -0.07112611 0.04892214 -0.03253847 0.0 -0.0063657453 0.029233515 -0.051202837
-0.053167347 0.04816564 -0.05556485 -0.019691473 -0.060032938 -0.101557225 0.042432286 0.05635678
0.046699397 -0.0029487095 0.08866537 -0.06077075 0.08965995 0.008491973 -0.051477797 0.0946567
0.0 0.01960521 0.0 0.06003328 0.0 0.0 -0.03262294 0.078975886
0.0 -0.11079423 0.03853528 0.080962904 0.021071026 0.049308047 0.051788647 0.06497583
-0.00027818128 0.09857979 0.04427306 0.06481303 -0.0653379 0.11575583 0.0 0.0
0.0 -0.0012593031 0.009101941 0.060776442 0.059011098 0.026407328 0.016862767 -0.043388877
0.08522071 0.042580627 0.0 0.0 -0.051779483 -0.019520793 0.0 -0.10599037
0.08438542 0.04225148 -0.06822463 -0.025797332 0.0 0.015346912 0.0064006974 0.04326142
0.040725894 -0.04954266 0.0 0.038890395 -0.0443994 -0.060033355 0.046990626 -0.12607962
-0.053557683 0.03267215 0.032951258 -0.03715215 0.0 0.067651816 -0.050870873 0.14067306
0.00025279587 0.035083205 -0.12876071 0.027433414 0.06688335 0.107937686 -0.06003326 0.072174445
0.0 -0.042230513 -0.025228944 0.004562619 0.004855619 0.052612927 0.12211261 0.0
0.10177328 -0.14637232 0.00818542 -0.04310335 -0.09446568 0.0728947 -0.07782975 0.02076852
-0.06753642 0.06003176 -0.07025163 -0.0029270265 0.013949782 -0.060032744 -0.09791596 0.018889884
0.06521529 0.094755426 0.0 0.0 0.073532015 0.055200912 0.07606385 -0.0044320947
00000000: 537d 843c 91aa 91bd 9562 483d 0f47 05bd
00000010: 0000 0000 be97 d0bb 207b ef3c 11ba 51bd
00000020: 01c6 59bd 5649 453d f897 63bd 0350 a1bc
00000030: 19e5 75bd 3cfd cfbd 7acd 2d3d 5ed6 663d
00000040: de47 3f3d 233f 41bb 3196 b53d c0ea 78bd
00000050: a39f b73d eb21 0b3c 62da 52bd 5fdb c13d
00000060: 0000 0000 1b9b a03c 0000 0000 75e5 753d
00000070: 0000 0000 0000 0000 a29f 05bd 1cbe a13d
00000080: 0000 0000 16e8 e2bd 2bd7 1d3d e1cf a53d
00000090: 259d ac3c 3cf7 493d 5520 543d 0c12 853d
000000a0: dcd8 91b9 33e4 c93d ab57 353d b2bc 843d
000000b0: e0cf 85bd 6511 ed3d 0000 0000 0000 0000
000000c0: 0000 0000 330f a5ba 4f20 153c b8f0 783d
000000d0: 9fb5 713d 2e54 d83c c923 8a3c 89b8 31bd
000000e0: 3288 ae3d 0669 2e3d 0000 0000 0000 0000
000000f0: b916 54bd 12ea 9fbc 0000 0000 7b11 d9bd
00000100: 43d2 ac3d e30f 2d3d 5bb9 8bbd ed54 d3bc
00000110: 0000 0000 9d71 7b3c f1bc d13b e332 313d
00000120: 32d0 263d 3fed 4abd 0000 0000 894b 1f3d
00000130: 25dc 35bd 89e5 75bd 3e79 403d 041b 01be
00000140: 4d5f 5bbd 3bd3 053d e6f7 063d da2c 18bd
00000150: 0000 0000 098d 8a3d fa5d 50bd 990c 103e
00000160: b089 8439 68b3 0f3d d9d9 03be 0abc e03c
00000170: 23fa 883d 6f0e dd3d 70e5 75bd 32d0 933d
00000180: 0000 0000 e7f9 2cbd eeac cebc 0682 953b
00000190: e21b 9f3b a780 573d 2d16 fa3d 0000 0000
000001a0: 826e d03d a0e2 15be 241c 063c 238d 30bd
000001b0: 3977 c1bd d149 953d 3465 9fbd be22 aa3c
000001c0: 8950 8abd dde3 753d 16e0 8fbd 5bd3 3fbb
000001d0: a08d 643c e5e4 75bd 2a88 c8bd f5be 9a3c
000001e0: 988f 853d 220f c23d 0000 0000 0000 0000
000001f0: f497 963d 5a1a 623d 5dc7 9b3d 1b3b 91bb

functional_3_1/batch_normalization_5_1/batchnorm/sub:0 f4 [32]
-0.4352774 -0.27365214 -0.24818084 -0.20896584 -0.3808937 -0.37222192 -0.23161519 -0.32954934
-0.2879735 -0.20478696 -0.332165 -0.20892316 -0.31986088 -0.21830828 -0.26860696 -0.46938667
-0.3149601 -0.4105733 -0.35727757 -0.4650472 -0.2436955 -0.17198016 -0.43862507 -0.3879135
-0.23179606 -0.32955232 -0.31733885 -0.42789772 -0.35869837 -0.47308284 -0.23965386 -0.33306772
00000000: aedc debe 221c 8cbe 1e23 7ebe 24fb 55be
00000010: 8004 c3be df93 bebe 882c 6dbe b1ba a8be
00000020: 4371 93be acb3 51be 8811 aabe f4ef 55be
00000030: cec4 a3be 358c 5fbe da86 89be 7353 f0be
00000040: 7342 a1be aa36 d2be 16ed b6be ab1a eebe
00000050: 508b 79be 911b 30be 7793 e0be 999c c6be
00000060: f25b 6dbe 15bb a8be 3d7a a2be 6915 dbbe
00000070: 50a7 b7be ea37 f2be d267 75be da87 aabe

functional_3_1/batch_normalization_5_1/batchnorm/mul:0 f4 [32]
0.7801796 0.713131 0.701729 0.50593585 0.92125285 0.9761146 1.0125422 0.6758106
0.84946275 1.0026815 0.70825785 0.52789587 0.65944105 0.809628 0.70303327 0.79316014
0.673132 0.57563984 0.5603249 0.9230663 0.6649253 0.7998898 0.69966674 0.6887232
0.6348208 0.7430181 0.9851681 0.64403874 0.828423 0.5630939 0.8703742 0.5308946
00000000: dab9 473f c18f 363f 83a4 333f 0385 013f
00000010: 3ad7 6b3f a5e2 793f fc9a 813f ec01 2d3f
00000020: 6476 593f de57 803f 6350 353f 2f24 073f
00000030: 21d1 283f c843 4f3f fdf9 333f 8b0c 4b3f
00000040: 6152 2c3f 225d 133f 7471 0f3f 134e 6c3f
00000050: 8b38 2a3f 94c5 4c3f 5c1d 333f 2a50 303f
00000060: 9e83 223f 6f36 3e3f fa33 7c3f b9df 243f
00000070: 8813 543f ec26 103f d8d0 5e3f b5e8 073f

functional_3_1/batch_normalization_4_1/batchnorm/sub:0 f4 [64]
-0.36657107 -0.4265815 -0.3943948 -0.41779882 -0.45789003 -0.37372094 -0.41589543 -0.36011466
-0.37078482 -0.25697914 -0.38393807 -0.49834883 -0.39150095 -0.46699125 -0.33589947 -0.40559784
-0.50027674 -0.47391284 -0.13367778 -0.38248265 -0.40842417 -0.46583405 -0.40907285 -0.25212473
-0.39781183 -0.429359 -0.5734942 -0.5095869 -0.6017918 -0.42442197 -0.3503417 -0.46198153
-0.21226603 -0.39071426 -0.32356375 -0.39415354 -0.35073167 -0.4954658 -0.3621781 -0.44014376
-0.3259365 -0.28398407 -0.4106115 -0.3245895 -0.3729554 -0.2582238 -0.3941244 -0.4477053
-0.70694476 -0.44395107 -0.36686885 -0.3362805 -0.59055364 -0.5317265 -0.40443212 -0.21690477
-0.38769725 -0.32973933 -0.36484218 -0.45716578 -0.21965767 -0.32498637 -0.44902292 -0.3474169
00000000: 34af bbbe e468 dabe 1dee c9be bae9 d5be
00000010: 9070 eabe 5a58 bfbe 3ff0 d4be f360 b8be
00000020: 82d7 bdbe c592 83be 8893 c4be 9427 ffbe
00000030: d072 c8be 7a19 efbe 04fb abbe 85aa cfbe
00000040: 2312 00bf b4a4 f2be d4e2 08be c4d4 c3be
00000050: f91c d1be cd81 eebe ff71 d1be 7e16 81be
00000060: fead cbbe f1d4 dbbe 84d0 12bf 4974 02bf
00000070: 070f 1abf d64d d9be fd5f b3be d888 ecbe
00000080: 445c 59be b30b c8be 26aa a5be 7ece c9be
00000090: 1a93 b3be b1ad fdbe 686f b9be 865a e1be
000000a0: 26e1 a6be 5c66 91be ac3b d2be 9830 a6be
000000b0: 03f4 bebe e935 84be acca c9be a139 e5be
000000c0: 55fa 34bf 8e4d e3be 3cd6 bbbe f52c acbe
000000d0: 862e 17bf 3a1f 08bf ba11 cfbe 491c 5ebe
000000e0: 4180 c6be 98d3 a8be 98cc babe a211 eabe
000000f0: f1ed 60be 9d64 a6be 55e6 e5be a1e0 b1be

functional_3_1/batch_normalization_4_1/batchnorm/mul:0 f4 [64]
0.50413084 0.80104434 0.87419593 0.8471316 1.0226362 0.8016647 0.7887843 0.80634296
1.0511928 0.9866783 0.7533335 0.9845632 0.888959 0.9701514 1.0324308 0.932432
0.8060004 0.7107632 0.7447031 0.9257293 0.8798003 0.75915945 0.7515623 0.8694423
0.74577403 1.0405291 0.5464816 0.8566553 0.950978 0.91939336 0.8498674 0.83563924
0.8552655 0.95770204 0.7042583 0.69654715 0.8417681 1.0965954 0.8527167 0.92845035
0.8450532 0.5803494 0.995504 0.8579647 0.9363354 1.077543 0.57707924 0.9769831
0.8546109 0.9897692 1.0091808 0.80059093 1.0789411 0.98598754 0.8783533 1.0140307
0.7723791 0.83541834 0.90893686 0.695449 1.043771 0.91724795 0.99106246 0.8225577
00000000: b80e 013f 3e11 4d3f 4ecb 5f3f 9edd 583f
00000010: bee5 823f e639 4d3f c5ed 493f 7e6c 4e3f
00000020: 7c8d 863f f396 7c3f 77da 403f 550c 7c3f
00000030: d192 633f d85b 783f b126 843f ddb3 6e3f
00000040: 0b56 4e3f 94f4 353f dda4 3e3f 98fc 6c3f
00000050: 983a 613f 4658 423f 6366 403f c593 5e3f
00000060: 0ceb 3e3f 0f30 853f 38e6 0b3f c34d 5b3f
00000070: 4b73 733f 5d5d 6b3f e990 593f 74ec 553f
00000080: aef2 5a3f f62b 753f 464a 343f ea50 323f
00000090: 1d7e 573f 3d5d 8c3f a44b 5a3f ecae 6d3f
000000a0: 6855 583f c791 143f 5ad9 7e3f 93a3 5b3f
000000b0: adb3 6f3f eeec 893f 77bb 133f 901b 7a3f
000000c0: c8c7 5a3f 8461 7d3f d62c 813f 87f3 4c3f
000000d0: be1a 8a3f ae69 7c3f c3db 603f c2cb 813f
000000e0: a3ba 453f fadd 553f 16b0 683f f208 323f
000000f0: 4a9a 853f c3d0 6a3f 45b6 7d3f 2493 523f

functional_3_1/batch_normalization_3_1/batchnorm/sub:0 f4 [128]
-0.2177622 -0.073122196 -0.11719942 -0.179152 0.0574312 -0.30065975 -0.2681758 -0.06398241
-0.08326453 -0.26962182 -0.029887963 0.03679848 -0.025447015 0.029561013 -0.122959636 -0.18271618
-0.47729778 -0.013421848 -0.23662955 -0.19730791 -0.31361586 -0.09578333 -0.015958346 -0.3743569
-0.0687852 -0.31321704 0.08688648 -0.31448805 0.040463634 -0.10010037 -0.23524864 -0.35309252
-0.023504537 -0.036914464 -0.055833682 -0.39068577 -0.15689701 -0.2241356 -0.2711994 -0.22958742
-0.60250574 -0.31072664 -0.26287565 -0.4013326 -0.13757215 -0.27471823 -0.024596702 0.10190712
0.023919957 -0.17262127 -0.21531934 -0.0024221689 -0.40183294 -0.15767433 -0.21166372 0.019138983
-0.34752926 -0.27991554 0.047129482 -0.042955384 -0.33733943 0.075640306 0.029512769 0.007178264
-0.21911639 -0.16394499 -0.05015241 -0.12312084 -0.0291266 -0.41401085 -0.49377874 -0.059532747
-0.33119214 -0.07340284 0.06905315 -0.17466873 -0.06938514 -0.104734406 -0.0437095 0.06939319
0.018142715 -0.35534817 -0.07392732 -0.14733985 -0.011224886 -0.19877471 0.04061184 -0.6437058
-0.38316846 -0.21486986 -0.03598702 -0.104037955 -0.3057571 -0.4420067 0.076361746 -0.2414603
0.07476914 -0.08239647 -0.11015288 -0.18242535 -0.17442757 -0.23805366 -0.38579845 -0.017555006
-0.2629799 -0.08777313 -0.26553652 -0.06992177 -0.086584315 -0.26382312 0.12624033 -0.16442497
-0.056385793 -0.2877706 0.06542101 -0.25185716 -0.18787791 0.054845132 -0.11829162 -0.21904117
-0.27629498 -0.5737963 -0.017374165 -0.065966114 -0.21807912 -0.20316012 -0.44243672 -0.0903126
00000000: 0efd 5ebe 17c1 95bd 4006 f0bd 9f73 37be
00000010: fa3c 6b3d 13f0 99be 574e 89be 3609 83bd
00000020: 9886 aabd df0b 8abe 9ad7 f4bc 01ba 163d
00000030: 4276 d0bc f029 f23c 43d2 fbbd f319 3bbe
00000040: 6060 f4be 50e7 5bbc 044f 72be 160b 4abe
00000050: 4292 a0be 0d2a c4bd 14bb 82bc b5ab bfbe
00000060: 41df 8cbd fc5d a0be 8af1 b13d 9404 a1be
00000070: 32bd 253d 6c01 cdbd 05e5 70be 8bc8 b4be
00000080: 968c c0bc 9f33 17bd dcb1 64bd f707 c8be
00000090: 9ca9 20be cd83 65be a6da 8abe f718 6bbe
000000a0: d13d 1abf 9017 9fbe a397 86be 777b cdbe
000000b0: b7df 0cbe dea7 8cbe 067f c9bc aeb4 d03d
000000c0: c9f3 c33c a1c3 30be ac7c 5cbe 40bd 1ebb
000000d0: 0cbd cdbe 6175 21be 60be 58be 5bc9 9c3c
000000e0: 5bef b1be 1751 8fbe d80a 413d fcf1 2fbd
000000f0: c1b7 acbe 4ee9 9a3d c3c4 f13c a537 eb3b
00000100: 0c60 60be 32e1 27be 9d6c 4dbd c726 fcbd
00000110: e89a eebc 3bf9 d3be 91d0 fcbe 9cd8 73bd
00000120: 0492 a9be 3a54 96bd bd6b 8d3d 5cdc 32be
00000130: cc19 8ebd fe7e d6bd bc08 33bd 041e 8e3d
00000140: 08a0 943c 32f0 b5be 3567 97bd 42e0 16be
00000150: 96e8 37bc 998b 4bbe 9a58 263d e7c9 24bf
00000160: a82e c4be d806 5cbe 2067 13bd da11 d5bd
00000170: 328c 9cbe b44e e2be 8c63 9c3d 5e41 77be
00000180: 9020 993d 7bbf a8bd d597 e1bd b6cd 3abe
00000190: 249d 32be 57c4 73be 6087 c5be 84cf 8fbc
000001a0: 4da5 86be 66c2 b3bd 67f4 87be 2533 8fbd
000001b0: 1e53 b1bd d313 87be 2545 013e 055f 28be
000001c0: caf4 66bd ab56 93be 73fb 853d 6cf3 80be
000001d0: 1163 40be 4aa5 603d e042 f2bd 544c 60be
000001e0: 8976 8dbe 50e4 12bf 4454 8ebc 3e19 87bd
000001f0: 2250 5fbe 3509 50be 1187 e2be d0f5 b8bd

functional_3_1/batch_normalization_3_1/batchnorm/mul:0 f4 [128]
1.4394988 1.3575896 1.4531876 1.4307207 1.4931635 1.4586382 1.5356863 1.4974915
1.6052796 1.4152013 1.4102002 1.4142371 1.4036846 1.3554962 1.4021114 1.44193
1.5359808 1.356997 1.4396439 1.4311637 1.6291077 1.5448785 1.4113492 1.591368
1.4931635 1.5704186 1.4931635 1.5631074 1.4931635 1.4931635 1.6181579 1.3598049
1.4931635 1.333941 1.5665594 1.4622792 1.6081188 1.4747804 1.599735 1.5181693
1.5586628 1.6263005 1.3692795 1.4461929 1.5584073 1.497198 1.4931635 1.4931635
1.4931635 1.5822841 1.3752226 1.5084431 1.5186077 1.421691 1.4445919 1.4067279
1.4693792 1.4685352 1.4931635 1.4931635 1.5128462 1.3186342 1.4931635 1.4605368
1.6039677 1.434202 1.394661 1.5752329 1.4931635 1.4654717 1.5432199 1.3044147
1.6115829 1.4011015 1.4931635 1.3805811 1.4427605 1.4035277 1.4723727 1.5306919
1.5494428 1.3773648 1.6041404 1.5635736 1.4931635 1.4469768 1.4123725 1.4879988
1.5554655 1.472723 1.578284 1.3233435 1.5966085 1.2981647 1.4035255 1.4148121
1.4931635 1.4706738 1.3679664 1.4547477 1.4725792 1.3527926 1.500227 1.4931635
1.5862658 1.4536053 1.427098 1.4918866 1.4092513 1.5383351 1.4726789 1.5345064
1.3816539 1.4263997 1.3739789 1.4424167 1.4438032 1.4036793 1.3966017 1.3959117
1.530784 1.4102712 1.4931635 1.4931635 1.4689554 1.496955 1.4867554 1.3980964
00000000: 7f41 b83f 7fc5 ad3f 0d02 ba3f db21 b73f
00000010: fb1f bf3f a8b4 ba3f 5e91 c43f cdad bf3f
00000020: cd79 cd3f 5125 b53f 7181 b43f b905 b53f
00000030: f0ab b33f e680 ad3f 6378 b33f 2a91 b83f
00000040: 059b c43f 14b2 ad3f 4046 b83f 5f30 b73f
00000050: 9a86 d03f 94be c53f 17a7 b43f f2b1 cb3f
00000060: fb1f bf3f 7a03 c93f fb1f bf3f e713 c83f
00000070: fb1f bf3f fb1f bf3f cc1f cf3f 160e ae3f
00000080: fb1f bf3f 94be aa3f 0585 c83f f72b bb3f
00000090: d6d6 cd3f 9bc5 bc3f 1ec4 cc3f 5f53 c23f
000000a0: 4382 c73f 9d2a d03f 8d44 af3f d91c b93f
000000b0: e479 c73f 2fa4 bf3f fb1f bf3f fb1f bf3f
000000c0: fb1f bf3f 4988 ca3f 4b07 b03f aa14 c13f
000000d0: bd61 c23f f8f9 b53f 63e8 b83f a90f b43f
000000e0: 9e14 bc3f f6f8 bb3f fb1f bf3f fb1f bf3f
000000f0: f2a4 c13f 01c9 a83f fb1f bf3f dff2 ba3f
00000100: d04e cd3f ee93 b73f 4084 b23f 3ba1 c93f
00000110: fb1f bf3f 9494 bb3f 3b88 c53f 10f7 a63f
00000120: 5948 ce3f 4b57 b33f fb1f bf3f e2b6 b03f
00000130: 60ac b83f cca6 b33f b576 bc3f b6ed c33f
00000140: 2454 c63f 7d4d b03f 7954 cd3f 2e23 c83f
00000150: fb1f bf3f 8936 b93f 9fc8 b43f bf76 be3f
00000160: 7e19 c73f 3082 bc3f 3605 ca3f 5263 a93f
00000170: ab5d cc3f 432a a63f b9a6 b33f 9018 b53f
00000180: fb1f bf3f 0a3f bc3f 8619 af3f 2c35 ba3f
00000190: 7a7d bc3f 4f28 ad3f 7007 c03f fb1f bf3f
000001a0: c20a cb3f bd0f ba3f 26ab b63f 24f6 be3f
000001b0: 5962 b43f 2ae8 c43f be80 bc3f b56a c43f
000001c0: 09da b03f 4494 b63f 8ade af3f 1ca1 b83f
000001d0: 8bce b83f c3ab b33f d8c3 b23f 3cad b23f
000001e0: bbf0 c33f c483 b43f fb1f bf3f fb1f bf3f
000001f0: bb06 bc3f 399c bf3f 004e be3f d3f4 b23f
