models/Vransko/cars/Vransko_cars_model.onnx (onnx, 60695 bytes, 13 tensors)

functional_13_1/dense_27_1/Cast/ReadVariableOp:0 f4 [32, 1]
0	0x3ced3d72	0.028959963
1	0x3d142a05	0.036172885
2	0xbddd673d	-0.10810707
3	0xbdd9fe9f	-0.10644268
4	0xbddce8ba	-0.107865766
5	0xbcbb0df7	-0.022833807
6	0xbc25f737	-0.010129741
7	0xbc268486	-0.010163432
8	0x3ccdfce8	0.02514501
9	0xbd460a8b	-0.0483499
10	0xbdc1dfcf	-0.09466516
11	0x3cdfa547	0.02730049
12	0x3e04a745	0.12954433
13	0x3e26cdc8	0.16289437
14	0x3c465e7d	0.012107489
15	0x3e10c331	0.1413696
16	0x34458000	1.8393621e-07
17	0x3c6ed501	0.014577151
18	0xbcdc5482	-0.026895765
19	0x3cb4f873	0.022091126
20	0x3e00153e	0.12508103
21	0xbdb0207b	-0.08599945
22	0xbdd16eac	-0.10226187
23	0xbda990c7	-0.08279567
24	0xbcf17cea	-0.029478509
25	0x3c10031a	0.008789802
26	0x3cc4899e	0.023991402
27	0x3d4c5596	0.04988631
28	0xbd79204c	-0.060821816
29	0x3d57e7e5	0.052711386
30	0xbd8aec35	-0.06783334
31	0xbddeb025	-0.10873441

functional_13_1/dense_26_1/Cast/ReadVariableOp:0 f4 [64, 32]
0	0xbe4a2430	-0.19740367
1	0xbe05c7f1	-0.13064553
2	0xbe80b9b4	-0.2514168
3	0x3e5c7787	0.21529971
4	0xbe1ead6a	-0.1549584
5	0xbdb28f10	-0.08718693
6	0x3e2177a2	0.15768293
7	0xbe3a0551	-0.1816609
8	0xbe09a273	-0.13440876
9	0xbcada782	-0.021198038
10	0x3e379e4d	0.1793148
11	0x3e136749	0.14394869
12	0xbd6d419d	-0.0579239
13	0xbe38d7ac	-0.18051022
14	0xbdd35f7f	-0.10320949
15	0x3dabd31a	0.08389874
16	0xbe3c84a2	-0.1840997
17	0x3cfe6f38	0.031058893
18	0x3e2e3691	0.17013003
19	0x3df8ee93	0.121548794
20	0x3e936f1c	0.28795707
21	0x3e1f08ff	0.15530775
22	0xbe86ffe7	-0.26367113
23	0x3df9a2d3	0.121892594
24	0x3e35add0	0.17742085
25	0xbdad8372	-0.08472337
26	0x3e281652	0.16414765
27	0xbcf724a7	-0.030168844
28	0xbdef0a49	-0.116718836
29	0xbe8b913a	-0.27259237
30	0x3dc19d09	0.0945378
31	0xbe9c28a7	-0.30499765
32	0x3e9851cf	0.29749915
33	0x3d0fe758	0.035132736
34	0xbe209371	-0.15681244
35	0x3e06e074	0.1317156
36	0x3e72f75d	0.23727174
37	0xbe0bfdda	-0.13671055
38	0x3e0bed30	0.13664699
39	0xbdb90ae8	-0.09035283
40	0x3d12fc67	0.03588524
41	0x3cf53618	0.02993302
42	0xbe708a16	-0.23490176
43	0x3dcf936a	0.10135539
44	0x3dc716e8	0.09721166
45	0xbdbf3c2a	-0.09337647
46	0xbc55cd81	-0.013049484
47	0x3d8aaf78	0.06771749
48	0x3e9bb638	0.3041246
49	0x3e42014d	0.18945809
50	0x3e0e1dbd	0.13878532
51	0x3e241651	0.16024138
52	0xbd8c33ed	-0.068458416
53	0xbe33411f	-0.1750531
54	0xbe6dac98	-0.2321037
55	0xbe02a830	-0.12759471
56	0xbe56246c	-0.20912331
57	0xbe9557b3	-0.29168472
58	0xbd967686	-0.07346825
59	0xbe9bd6aa	-0.30437213
60	0xbddee1f5	-0.10882942
61	0xbe5c522a	-0.21515718
62	0x3e95aa61	0.2923155
63	0xbe2fafe4	-0.1715694
64	0xbe10dca5	-0.14146669
65	0xbed87af4	-0.42281306
66	0x3c8ecb3f	0.0174309
67	0x3e083724	0.13302284
68	0x3e3338bb	0.1750211
69	0xbe70b12b	-0.23505084
70	0x3e492506	0.1964303
71	0xbcca02bc	-0.024659507
72	0xbe52f36a	-0.20600668
73	0x3e662031	0.22473218
74	0x3b4770ed	0.00304323
75	0x3c6d66fd	0.014489886
76	0xbc8a57b6	-0.016887527
77	0x3df5f6dc	0.12009975
78	0x3d622895	0.055214483
79	0x3e105de1	0.14098312
80	0xbe53392a	-0.20627275
81	0xbe80fc03	-0.2519227
82	0xbe75454d	-0.23952217
83	0xbc3b3800	-0.011426926
84	0x3e30a827	0.17251645
85	0x3c0cde40	0.00859791
86	0xbe0377cc	-0.12838668
87	0xbe432611	-0.1905749
88	0x3d84ff2f	0.06493985
89	0x3da7f3bf	0.08200788
90	0xbcb7fd8d	-0.02245977
91	0x3dd15c7f	0.1022272
92	0x3e9538e1	0.29144958
93	0xbe0b2806	-0.13589486
94	0xbd884460	-0.066536665
95	0xbe02a2c9	-0.1275741
96	0xbe15113d	-0.14557357
97	0x3da88646	0.082287356
98	0x3d53e65a	0.051733352
99	0x3dde50d2	0.10855259
100	0x3d8cdee1	0.06878448
101	0xbe816c13	-0.25277767
102	0x3e73c5d0	0.23805928
103	0x3d390598	0.04517135
104	0xbdeb5dd0	-0.11492503
105	0xbb7257f6	-0.0036978698
106	0x3c243e66	0.010024643
107	0x3e90bbf4	0.28268397
108	0x3e7ae564	0.24501568
109	0xbea71aaa	-0.3263753
110	0xbe1b06f8	-0.15139377
111	0x3d84ea2b	0.064899765
112	0x3e9d5b48	0.30733705
113	0x3e8b3188	0.27186227
114	0xbdb54f21	-0.08852983
115	0xbd417039	-0.047226164
116	0xbcfbaa2e	-0.030720796
117	0xbe8416b2	-0.25798565
118	0xbd4b4e30	-0.049635112
119	0xbe367f20	-0.17821932
120	0x3d5c6771	0.053809587
121	0xbd7c5d88	-0.061612636
122	0xbdf45068	-0.11929399
123	0xbe0ff02f	-0.14056467
124	0xbd7dac4f	-0.061931904
125	0xbcc3f588	-0.02392079
126	0xbeac45e5	-0.33647075
127	0xbdb9c69e	-0.09071086
128	0xbe7d2b30	-0.24723506
129	0xbdc857d3	-0.09782376
130	0x3df5f81d	0.120102145
131	0x3de09c54	0.10967317
132	0xbe39dd57	-0.1815084
133	0xbe95da1f	-0.29267976
134	0x3c798727	0.015229977
135	0x3e146ee7	0.14495431
136	0xbc878998	-0.016545102
137	0xbe1a7a45	-0.15085705
138	0x3e8c108c	0.27356374
139	0xbdf9f840	-0.12205553
140	0x3e47cb35	0.19511111
141	0xbd9ee462	-0.07758404
142	0xbe02284a	-0.12710682
143	0x3e51ef57	0.20501457
144	0x3dfa9ea1	0.12237287
145	0x3e19afc5	0.15008457
146	0xbe2ae7ba	-0.16689959
147	0x3e92e684	0.28691494
148	0x3c23c5a0	0.009995848
149	0x3e0a61eb	0.13513915
150	0xbe039e80	-0.12853432
151	0xbcf69afa	-0.030103195
152	0x3e5aaa38	0.21353996
153	0x3e0585a2	0.13039258
154	0xbe448fb4	-0.19195443
155	0x3e7adeed	0.24499102
156	0x3d9dc029	0.07702667
157	0xbe2e9ecd	-0.17052765
158	0xbe328c32	-0.17436293
159	0xbd3b57a6	-0.045737885
160	0x3e9a6a0b	0.3015903
161	0xbda68c5a	-0.08132239
162	0x3e129b27	0.14316998
163	0xbe929e57	-0.2863643
164	0xbdc1eb08	-0.09468657
165	0x3e4a22bb	0.19739811
166	0xbd097b8e	-0.033565097
167	0x3e83e3aa	0.2575963
168	0xbe71c0a7	-0.23608647
169	0x3e2c9af2	0.16855982
170	0x3e792e3a	0.2433404
171	0xbda044d4	-0.07825628
172	0xbe336919	-0.1752056
173	0x3e8b6ff4	0.2723385
174	0x3d85b3ad	0.06528411
175	0xbd8da962	-0.06917073
176	0x3d9cba91	0.07652772
177	0x3d759ef7	0.059966054
178	0x3e8298e6	0.25507277
179	0x3e9b4dcb	0.3033279
180	0xbb7ecd7f	-0.003887981
181	0x3dd5eb2b	0.10445245
182	0xbe9862a2	-0.2976275
183	0x3e344e7c	0.17608064
184	0x3de54677	0.11195081
185	0x3da54f20	0.080717325
186	0x3e517106	0.20453271
187	0xbd733ec5	-0.059386034
188	0x3e3a2e2c	0.18181676
189	0xbeac2a45	-0.33626
190	0xbe4f1118	-0.20221364
191	0xbe6c3b00	-0.23069382
192	0xbdfc0933	-0.12306442
193	0x3dc4185e	0.0957496
194	0x3e367b4f	0.17820476
195	0xbe6f4685	-0.23366745
196	0xbdc84482	-0.09778692
197	0xbe0cdac5	-0.13755329
198	0x3d3f6bca	0.046733655
199	0x3b438b52	0.002983768
200	0xbe1a9037	-0.15094076
201	0x3e3f1345	0.18659694
202	0xbc922070	-0.017837733
203	0x3e9bb822	0.3041392
204	0x3da9db86	0.08293824
205	0xbd0c304f	-0.03422576
206	0x3e8b8454	0.27249396
207	0xbe24ddb6	-0.16100201
208	0xbd9af01e	-0.0756533
209	0xbc395fd4	-0.011314351
210	0xbe58fae2	-0.21189454
211	0x3e512e7a	0.20427886
212	0x3d29fccd	0.041500855
213	0x3dbe7a7a	0.09300704
214	0xbe3ff596	-0.18746027
215	0x3e89cbbf	0.26913258
216	0x3ccb227e	0.02479672
217	0xbd8dd787	-0.06925874
218	0xbd89054b	-0.06690463
219	0x3d576745	0.05258872
220	0xbe785dd4	-0.24254543
221	0xbce77dbf	-0.028258203
222	0xbe3bec78	-0.18351924
223	0x3df72e2f	0.12069356
224	0xbe0591d0	-0.13043904
225	0xbd0abebf	-0.033873316
226	0x3dd9401a	0.106079295
227	0xbe0a429a	-0.13501969
228	0x3ca532de	0.020165857
229	0x3ea394e8	0.31949544
230	0xbda51f6d	-0.080626346
231	0xbe5020e8	-0.20325053
232	0x39e32169	0.00043321706
233	0xbe08959f	-0.13338326
234	0xbe1422c4	-0.14466387
235	0x3c6b7ccb	0.014373015
236	0xbe8a9ece	-0.27074283
237	0x3e84eacd	0.2596039
238	0xbd2f26d2	-0.04276163
239	0x3d585123	0.052811753
240	0x3cfac4e5	0.030611465
241	0xbe4b0190	-0.19824815
242	0xbdf4e0f2	-0.119569674
243	0xbe1e8b9e	-0.15482947
244	0xbe93cb36	-0.28865975
245	0xbdae6513	-0.08515372
246	0x3e1ff641	0.15621282
247	0xbe293e09	-0.16527571
248	0x3de8aa9c	0.11360666
249	0xbd09eb5f	-0.033671733
250	0xbd765f23	-0.060149323
251	0xbd89fb96	-0.06737439
252	0xbe019dec	-0.12657899
253	0x3cc29ad8	0.023755476
254	0x3cce8853	0.025211489
255	0x3eaae4f1	0.33377793

functional_13_1/dense_26_1/Add/ReadVariableOp:0 f4 [32]
0	0x3de2309e	0.11044429
1	0x3dac8cb2	0.08425273
2	0x3e1a11ed	0.150459
3	0x3dc1f0fa	0.09469791
4	0x3d86e15c	0.06585953
5	0x3d976d9f	0.073939554
6	0xbd88977c	-0.06669518
7	0x3d765e07	0.060148265
8	0xbe303dac	-0.17211026
9	0x3c9c2549	0.019060748
10	0xbc705789	-0.0146693075
11	0xbdd014d5	-0.101602234
12	0x3c9a8ee2	0.01886696
13	0x3da27dde	0.079341635
14	0xbdae176d	-0.08500562
15	0x3e1e103d	0.15435882
16	0x3c936be2	0.017995778
17	0xbe0e8413	-0.1391757
18	0xbd4eeef6	-0.05052086
19	0xbd87b7d2	-0.06626858
20	0xbe155337	-0.14582525
21	0xbdab4ae7	-0.08363896
22	0x3df96eae	0.121793136
23	0x3af125c8	0.00183981
24	0x3bb3ec5d	0.005490823
25	0x3bfaeb26	0.0076574264
26	0xbdc6102e	-0.09671055
27	0x3c48b976	0.012251249
28	0x3e2746fa	0.16335669
29	0x3db90013	0.09033217
30	0xbd5322b4	-0.051546767
31	0xbd7bc360	-0.06146562

functional_13_1/dense_25_1/Cast/ReadVariableOp:0 f4 [128, 64]
0	0xbdc7d498	-0.09757346
1	0xbda2a34c	-0.07941303
2	0x3c625180	0.013813376
3	0xbb6b5e36	-0.0035914308
4	0xbe1b4ef4	-0.15166837
5	0x3d98ef95	0.07467572
6	0x3d4199fb	0.047265988
7	0xbd08c211	-0.0333882
8	0x3c99aa89	0.018758075
9	0xbdd25906	-0.10270886
10	0xbd2367f7	-0.03989407
11	0x3dea01af	0.11426102
12	0x3d4f2213	0.050569605
13	0x3d33d1b3	0.043901157
14	0x3e141da4	0.14464432
15	0x3df02a0f	0.11726772
16	0x3c8a47f3	0.016880011
17	0x3d8cd6c4	0.06876901
18	0xbd2206d9	-0.03955731
19	0x3e1487f0	0.14504981
20	0xbddaf0a1	-0.106904276
21	0x3d150910	0.036385596
22	0xbe64ebf4	-0.22355634
23	0x3c4d6c1f	0.012537985
24	0xbde20d60	-0.11037707
25	0x3cf0fb3d	0.029416675
26	0xbdab9a3e	-0.08379029
27	0xbd10efd7	-0.03538498
28	0x3e1d3507	0.1535226
29	0x3e9916a3	0.29900083
30	0xbe02bc2f	-0.12767099
31	0x3d357202	0.04429818
32	0xbde10b0f	-0.109884374
33	0x3e1aacd8	0.15104997
34	0x3e580ef3	0.21099453
35	0x3d674c89	0.056469474
36	0xbd61ac1f	-0.055095788
37	0x3d0d54ce	0.034504704
38	0xbdd599ea	-0.104297474
39	0xbe6f7b2f	-0.23386835
40	0x3d03fc84	0.03222324
41	0x3df23837	0.118271284
42	0x3e457c30	0.19285655
43	0xbd54c2b0	-0.05194348
44	0xbd445ff2	-0.047943063
45	0x3dccab95	0.09993664
46	0x3d981e0d	0.07427607
47	0xbd2d09fc	-0.04224585
48	0x37d76270	2.5675836e-05
49	0x3ddabe65	0.10680846
50	0x3c7e0437	0.015503935
51	0x3d99318a	0.07480152
52	0xbadf881c	-0.0017054114
53	0x3d9149ee	0.07094179
54	0xbce1c148	-0.027557984
55	0xbe12f294	-0.14350349
56	0x3d9144b0	0.07093179
57	0xbe69b6eb	-0.22823684
58	0xbdb31ddb	-0.08745929
59	0xbb5326a3	-0.0032219074
60	0x3d54c541	0.05194593
61	0xbe168334	-0.14698488
62	0xbe05baee	-0.1305959
63	0xbe090a53	-0.13382845
64	0x3e217de5	0.15770681
65	0xbd810239	-0.06299252
66	0xbcf0a2d6	-0.029374521
67	0xbca5ef2d	-0.02025565
68	0xbdbd3c3c	-0.092400044
69	0xbdd4ca98	-0.10390204
70	0x3e505308	0.20344174
71	0xbdb596b1	-0.08866633
72	0x3e360f0b	0.17779176
73	0xbda4e7af	-0.08052003
74	0x3d7b416d	0.06134169
75	0x3e0bfd6a	0.13670889
76	0x3dea2066	0.11431961
77	0xbd3c79c8	-0.046014577
78	0xbe7c7589	-0.24654211
79	0x3d57da87	0.05269864
80	0x3e2d53ac	0.1692645
81	0x3d958cfe	0.07302283
82	0x3df9048a	0.12159069
83	0x3de41aa0	0.11137891
84	0xbd879159	-0.0661952
85	0x3e3a55f6	0.18196854
86	0x3d72ffcc	0.05932598
87	0xbe1efa14	-0.15525085
88	0x3d404b53	0.046946835
89	0x3d8ee5b6	0.06977408
90	0x3e2a93c7	0.16657935
91	0x3cc074a2	0.023493115
92	0x3d91d547	0.071207576
93	0x3c89b0b5	0.016807893
94	0xbd3615d0	-0.044454396
95	0x3cbd7e38	0.023131475
96	0x3dc11cf6	0.09429352
97	0x3dbab3e9	0.091163464
98	0x3d63687c	0.055519566
99	0xbe11c7ec	-0.1423642
100	0xbb8f513c	-0.0043736976
101	0xbdf39a58	-0.11894673
102	0xbdd1f075	-0.10250942
103	0x3db91f06	0.090391204
104	0x3d857ac8	0.06517559
105	0x3dabb2bc	0.083837
106	0xbda641ab	-0.08117994
107	0xbdafca20	-0.08583474
108	0x3db81d9d	0.08990023
109	0x3e492192	0.19641712
110	0x3dd4d345	0.10391859
111	0xbd56d27e	-0.052446835
112	0xbd0f8409	-0.035038028
113	0xbe4283b2	-0.1899555
114	0x3dc54a22	0.0963328
115	0x3d5cbe06	0.053892158
116	0xbcd6b37e	-0.026208635
117	0xbe53a1be	-0.20667168
118	0x3db747d6	0.089492485
119	0xbe3d28ca	-0.18472591
120	0xbd3f39fa	-0.04668615
121	0xbdb4f27a	-0.08835311
122	0x3d32730f	0.04356676
123	0x3d290e39	0.04127333
124	0x3ce81e5e	0.028334793
125	0xbde5aee8	-0.11215001
126	0x3e886d36	0.2664582
127	0xbddc6c02	-0.10762788
128	0x3cf09a0f	0.029370336
129	0xbe05d183	-0.13068204
130	0x3e215488	0.15754902
131	0x3d3f8881	0.04676104
132	0x3e196d52	0.14983109
133	0x3dc82f21	0.09774614
134	0x3e04c4ea	0.12965742
135	0xbdd87f20	-0.10571122
136	0x3d24e3ec	0.040256426
137	0x3e88b078	0.26697135
138	0xbe515c39	-0.20445336
139	0x3e1172d0	0.14203954
140	0xbdd5956c	-0.104288906
141	0x3e704b43	0.2346621
142	0x3cb999d7	0.022656364
143	0x3e71cac0	0.23612499
144	0x3d83ad31	0.06429518
145	0x3da2ab8a	0.07942875
146	0x3d828934	0.06373826
147	0x3ca690c1	0.020332696
148	0x3e8f5702	0.2799607
149	0xbdcb0627	-0.09913283
150	0xbe18ee7d	-0.14934726
151	0x3dd95326	0.106115624
152	0xbba14b63	-0.004922317
153	0x3b9824fb	0.0046430803
154	0xbe89dceb	-0.2692636
155	0xbdddec56	-0.10836093
156	0xbc75a054	-0.0149918385
157	0x3d281e88	0.041044742
158	0x3d67e906	0.056618713
159	0x3d232009	0.039825473
160	0xbd77c716	-0.060492598
161	0x3dcc07f4	0.099624544
162	0x3e11f1f9	0.14252461
163	0xbdaf1e17	-0.08550661
164	0x3ce349b4	0.027745105
165	0x3e0e4da5	0.13896807
166	0xbd762c32	-0.06010074
167	0xbe3ae0f2	-0.18249872
168	0xbcf5c1ff	-0.029999731
169	0xbc964ded	-0.018347705
170	0x3e499628	0.19686186
171	0x3c6bb6e4	0.014386866
172	0x3ca16f7c	0.01970648
173	0x3c04a051	0.008094863
174	0x3d822080	0.06353855
175	0x3dfa4006	0.12219243
176	0xbe2b4be5	-0.1672817
177	0xbcc81255	-0.024422804
178	0xbd2d28b4	-0.042275146
179	0xbe22dcee	-0.1590459
180	0xbd9fad3f	-0.07796716
181	0xbca6f4c6	-0.020380389
182	0x3e1c64b9	0.15272798
183	0xbdd234b6	-0.1026396
184	0x3e829708	0.25505853
185	0xbe116a0f	-0.14200614
186	0x3d8abe58	0.067745864
187	0x3a364b4c	0.0006953969
188	0xbdb664f3	-0.08905973
189	0xbd06a0ab	-0.03286807
190	0xbd8e458d	-0.069468595
191	0x3cbd9374	0.0231416
192	0x3e8f84d3	0.28031024
193	0x3dc817a3	0.09770133
194	0xbc866eb8	-0.016410217
195	0x3d4f4555	0.05060323
196	0x3d892bce	0.06697808
197	0xbda34c4d	-0.079735376
198	0x3e26c5e2	0.16286424
199	0xbe01571c	-0.12630886
200	0x3e3d31d6	0.18476042
201	0xbd478f22	-0.048720486
202	0xbdb5e348	-0.08881241
203	0xbd24d250	-0.040239632
204	0x3d219223	0.039446007
205	0x3d7b80c1	0.061402086
206	0xbe105265	-0.14093931
207	0x3d311987	0.043237235
208	0x3e691228	0.22760832
209	0x3daa0bfc	0.08303067
210	0xbcca6240	-0.024705052
211	0x3d947cc3	0.07250359
212	0xbe886a66	-0.26643676
213	0x3e466481	0.19374277
214	0xbe115a71	-0.14194657
215	0xbdd05d2d	-0.10174022
216	0x3c523d63	0.012832019
217	0x3ce6ffea	0.028198201
218	0xbe855556	-0.2604167
219	0x3daea8d7	0.085282974
220	0xbde875f7	-0.11350625
221	0x3c19dd08	0.009391077
222	0xbe0aba13	-0.13547544
223	0xbdc0407a	-0.09387298
224	0x3e17f25c	0.14838547
225	0x3df4d11c	0.11953947
226	0xbe29d757	-0.16586052
227	0xbb711601	-0.0036786797
228	0xbe599e66	-0.2125183
229	0xbe71f75b	-0.23629515
230	0x3d5c76f7	0.05382439
231	0x3d9cbbfd	0.076530434
232	0xbd210471	-0.039310876
233	0xbcfc008a	-0.030761976
234	0x3d859623	0.06522777
235	0x3dd753ab	0.10514005
236	0xbdfb6c81	-0.12276555
237	0xbe4a910e	-0.19781896
238	0xbe20f646	-0.15718946
239	0x3db1ed47	0.08687835
240	0x3d8c10f9	0.06839175
241	0x3db64de8	0.08901578
242	0xbe1a9bb2	-0.15098456
243	0x3d337fe6	0.043823145
244	0xbe3e4d36	-0.18584141
245	0xbe02f2d0	-0.12787938
246	0xbd07ea77	-0.033182587
247	0xbceac015	-0.028656045
248	0x3e51ad6f	0.20476316
249	0xbd4f26b2	-0.050574012
250	0xbe99ffe2	-0.30078036
251	0x3e38cc09	0.18046583
252	0xbd907a77	-0.07054608
253	0x3d218483	0.039433014
254	0xbd9e495a	-0.077288345
255	0xbe21eb41	-0.15812398

functional_13_1/dense_25_1/Add/ReadVariableOp:0 f4 [64]
0	0x3cee22b8	0.02906929
1	0xbc2e7e79	-0.010650271
2	0xbd496b10	-0.04917437
3	0x3d851fde	0.06500219
4	0x3bc770bc	0.006086437
5	0xbdfdfb3f	-0.12401437
6	0xbc623e70	-0.013808832
7	0xbd9de465	-0.077095784
8	0xbd551015	-0.05201729
9	0x3d36e281	0.044649605
10	0xbdb06fff	-0.086151116
11	0x3db2212f	0.086977355
12	0xbd0f2ea5	-0.034956593
13	0xbe228f29	-0.15874924
14	0xbd4c0f31	-0.049819175
15	0x3da8e8ec	0.08247551
16	0xbdb2a965	-0.08723716
17	0x3d52c31f	0.051455613
18	0xbd4e42df	-0.050356742
19	0xbd820694	-0.06348911
20	0x3e19096d	0.14945002
21	0x3c023248	0.007946558
22	0xbd8b7863	-0.06810071
23	0xbde12f38	-0.109953344
24	0x3d61eaf5	0.055155713
25	0x3b917ab6	0.004439677
26	0xbde45be7	-0.111503415
27	0xbdf6807f	-0.120362274
28	0xbdcf0c29	-0.10109741
29	0xbbefc30c	-0.0073169526
30	0xbac13d84	-0.0014743065
31	0x3dc1db42	0.09465648
32	0x3defde0f	0.11712276
33	0xbdbb01d8	-0.09131211
34	0x3d6dce1d	0.058057893
35	0x3e1643d4	0.14674312
36	0x3dcf9f50	0.10137808
37	0xbbc01a6e	-0.0058625257
38	0xbdbd2f49	-0.092375346
39	0x3e057a10	0.13034844
40	0xbd3c4d9a	-0.045972444
41	0x3a21ca1e	0.00061717804
42	0xbbccc2e6	-0.0062488196
43	0x3ceba479	0.02876495
44	0xbdbe5561	-0.092936285
45	0xbc92134d	-0.017831469
46	0x3cd247a2	0.025668923
47	0x3d1d112e	0.038346462
48	0x3d284273	0.041078996
49	0xbdc6a9ea	-0.09700377
50	0x3c16b8be	0.009199319
51	0x3c3d11f6	0.011539927
52	0x3cce7820	0.025203764
53	0x3d9b603b	0.07586714
54	0xbd6b3eae	-0.057432823
55	0xbc5168e6	-0.012781357
56	0xbde93560	-0.113871336
57	0x3d927748	0.07151657
58	0x3aa599a6	0.0012634292
59	0x3c8ae309	0.016953962
60	0xbe141230	-0.14460063
61	0xbd3a11a3	-0.045426976
62	0x3ca403bf	0.020021318
63	0xbcffe6fd	-0.031238073

functional_13_1/dense_24_1/Cast/ReadVariableOp:0 f4 [25, 128]
0	0x3df9fd3e	0.12206505
1	0x3dcac4f6	0.099008486
2	0xbc1d5f20	-0.009605199
3	0xbd83b026	-0.06430082
4	0xbdfb1bb2	-0.12261142
5	0xbe1be584	-0.15224272
6	0x3c86f780	0.01647544
7	0x3d541624	0.051778927
8	0xbe0e294e	-0.13882944
9	0xbe496d6f	-0.19670652
10	0xbe460de1	-0.19341232
11	0x3e2e3b8f	0.17014907
12	0x3dcba806	0.09944157
13	0xbdd61eea	-0.10455115
14	0xbd4a3bf0	-0.049373567
15	0x3e15e4e1	0.14638092
16	0x3e1e7061	0.15472557
17	0x3e299ad9	0.16562976
18	0x3c75fe00	0.015014172
19	0xbd2a829c	-0.041628465
20	0xbc61e2a0	-0.013786942
21	0x3d32fd74	0.043698743
22	0xbdd390d9	-0.10330362
23	0x3dc75f4a	0.09734972
24	0xbe3411dd	-0.1758494
25	0x3c402720	0.011728078
26	0x3e22f8db	0.15915243
27	0x3dad3c1e	0.08458732
28	0xbc56f830	-0.013120696
29	0xbe46f5c5	-0.19429691
30	0x3df04012	0.117309704
31	0xbcc3cac0	-0.02390039
32	0x3c34a640	0.011025965
33	0xbc4de4f0	-0.01256679
34	0x3e226aff	0.15861128
35	0xbd769408	-0.060199767
36	0xbd185134	-0.037186816
37	0x3de92ade	0.113851294
38	0xbe358c46	-0.17729291
39	0x3e49010d	0.19629307
40	0x3db89e06	0.090145156
41	0xbe3a9bb9	-0.18223466
42	0xbe4487e5	-0.19192465
43	0xbd0305a4	-0.0319878
44	0xbdd99c40	-0.106255054
45	0x3da43cba	0.08019395
46	0x3d25fb30	0.040522754
47	0xbda0fa69	-0.07860262
48	0x3e25af25	0.16180094
49	0x3c88b640	0.016688466
50	0xbda361aa	-0.07977612
51	0xbc80eb00	-0.015737057
52	0x3ccc1fb8	0.024917468
53	0xbd5f9490	-0.05458504
54	0xbdbb13f3	-0.091346644
55	0x3c113ed0	0.008865073
56	0xbd4bcaa0	-0.049753785
57	0x3de64a6e	0.11244665
58	0x3e3ed607	0.18636332
59	0x3e23ce95	0.15996774
60	0xbdaee659	-0.08540029
61	0xbdfde2b2	-0.12396754
62	0xbdb47d75	-0.088129915
63	0x3e3e38bb	0.18576328
64	0xbd15b58c	-0.03655009
65	0xbe213cba	-0.15745822
66	0xbd420a44	-0.04737307
67	0x3e3b5153	0.18292741
68	0xbe406c2c	-0.18791264
69	0xbe1daed8	-0.15398729
70	0x3dd38876	0.10328762
71	0xbddce165	-0.10785178
72	0x3d78db3c	0.060755953
73	0x3d316c70	0.043316305
74	0x3c4ce4b0	0.012505695
75	0x3e2086fb	0.15676491
76	0xbdb455e0	-0.08805442
77	0x3e1878b5	0.14889796
78	0xbb2fba00	-0.0026813745
79	0x3e1e9613	0.15486936
80	0xbcb176c0	-0.02166307
81	0x3e356793	0.17715292
82	0xbe231d58	-0.15929163
83	0x3e06efcb	0.13177411
84	0xbd92ae68	-0.071621716
85	0xbe0c19c4	-0.13681704
86	0xbe163f36	-0.1467255
87	0xbe03920f	-0.12848686
88	0xbdb942ed	-0.09045968
89	0x3e14908b	0.14508264
90	0xbe3d2ad4	-0.18473369
91	0xbe01e118	-0.12683523
92	0xbd90d458	-0.07071751
93	0x3ce4fb80	0.027951956
94	0xbdfd8b76	-0.12380116
95	0x3e32ae0b	0.17449205
96	0xbe3f9495	-0.18709023
97	0x3dc3f11a	0.09567471
98	0x3e3ffb33	0.18748169
99	0x3dae3a02	0.08507158
100	0xbdcbee52	-0.09957565
101	0xbd9cbadb	-0.07652827
102	0xbe395c4d	-0.18101616
103	0x3e21664d	0.15761681
104	0xbe1e4bd8	-0.1545862
105	0x3d42ba9c	0.047541246
106	0x3dfb9256	0.12283771
107	0xbe11d1b6	-0.14240155
108	0xbd9a5e98	-0.075375736
109	0x3c10c010	0.008834854
110	0x3e429619	0.1900257
111	0xbe423985	-0.18967254
112	0xbd9d3ede	-0.076780066
113	0x3cf78630	0.030215353
114	0xbdc2c49c	-0.095101565
115	0xbdfa4d6c	-0.12221798
116	0x3d87dab6	0.06633513
117	0xbdb7f8aa	-0.08982976
118	0x3df0c592	0.117564335
119	0x3d8ffa1e	0.07030128
120	0x3ca00740	0.019534707
121	0xbd97c40d	-0.074104406
122	0xbd000244	-0.03125216
123	0xbd41ef48	-0.047347337
124	0x3dc02576	0.09382145
125	0x3e33e25f	0.17566822
126	0xbe0b13a0	-0.13581705
127	0xbe0b2985	-0.13590057
128	0x3dd2ccb2	0.10292949
129	0xbde411b4	-0.11136189
130	0x3daf1e19	0.085506625
131	0xbd27cf3c	-0.04096912
132	0xbe4e1aea	-0.20127454
133	0x3dc473a1	0.09592367
134	0x3e0d0ca0	0.13774347
135	0x3e173e19	0.14769782
136	0xbe41ee64	-0.18938595
137	0x3e034f54	0.1282323
138	0xbe1f43ce	-0.15553209
139	0xbe111590	-0.14168382
140	0xbd710f58	-0.058852524
141	0xbe488273	-0.19581012
142	0x3b08ea2d	0.0020891533
143	0xbdac6d1f	-0.08419251
144	0xbd80ab48	-0.06282669
145	0x3e0facfa	0.14030829
146	0x3d6e2b7a	0.05814693
147	0x3d0b58d0	0.034020245
148	0xbcdf7902	-0.02727938
149	0x3e336e05	0.17522438
150	0x3e045736	0.12923893
151	0xbb0f598d	-0.0021873445
152	0x3e06a64b	0.13149373
153	0xbe003a3c	-0.12522215
154	0x3e33ea63	0.1756988
155	0xbda56588	-0.08076006
156	0x3b561f4e	0.0032672468
157	0xbd8a6df6	-0.06759255
158	0xbdcc5a0e	-0.09978114
159	0xbe3a3283	-0.18183331
160	0x3e217b9d	0.15769811
161	0x3d2fd89c	0.042931184
162	0xbe118bfa	-0.14213553
163	0x3d32489e	0.043526284
164	0x3cb11d9a	0.02162056
165	0x3e0fdad6	0.14048323
166	0xbe895a50	-0.26826715
167	0xbd057236	-0.032579623
168	0xbd3b724f	-0.04576331
169	0x3df8d022	0.12149073
170	0xbde191f9	-0.1101417
171	0x3df4b21d	0.11948035
172	0xbca4a831	-0.020099731
173	0x3df8af7b	0.12142845
174	0xbd81d5b4	-0.06339589
175	0x3d3b058b	0.045659583
176	0x3d4f5491	0.05061776
177	0x3d7531ab	0.05986182
178	0xbdb549bd	-0.08851955
179	0xbe91650c	-0.28397405
180	0x3e71a70c	0.2359888
181	0xbe05cf55	-0.13067372
182	0xbe02b93e	-0.12765977
183	0x3d22cba6	0.039744996
184	0x3e00c286	0.12574205
185	0xbd90c924	-0.070696145
186	0x3d91ab01	0.071126945
187	0xbd961862	-0.073288694
188	0x3c058b2f	0.00815086
189	0x3da714fd	0.081583
190	0x3d981e58	0.074276626
191	0x3e9f3d5a	0.31101495
192	0xbd9009cf	-0.07033121
193	0xbe0921eb	-0.13391845
194	0x3e2ce51a	0.1688427
195	0x3d1c9336	0.03822633
196	0xbdac5b30	-0.0841583
197	0xbcb558d8	-0.02213709
198	0x3da2783e	0.079330906
199	0x3dc9cf7d	0.098540284
200	0x3c833daf	0.016020624
201	0xbd1abb9a	-0.037776567
202	0x3cdfe34a	0.02733006
203	0xbe449114	-0.19195968
204	0x3c445e94	0.01198544
205	0x3e43fc14	0.19139129
206	0xbb3ec6be	-0.0029110159
207	0x3c37f3fb	0.011227603
208	0xbe319f21	-0.17345859
209	0xbe79f705	-0.24410637
210	0x3d83f91e	0.06444
211	0x3c9a3b63	0.018827146
212	0x3ccf7ed7	0.025329037
213	0x3d6455c5	0.05574586
214	0xbe8a9bda	-0.2707203
215	0xbd587bc0	-0.052852392
216	0xbdfacb18	-0.12245768
217	0x3da54c67	0.08071213
218	0x3d91cd17	0.07119196
219	0xbca8f939	-0.020626651
220	0xbe82521d	-0.25453272
221	0xbd8eaf1d	-0.06966994
222	0xbdaf7b1b	-0.085684024
223	0xbe3cb8fd	-0.18429942
224	0xbdc65094	-0.09683338
225	0xbd8892a8	-0.066685975
226	0x3de02313	0.1094419
227	0x3e88c10e	0.2670979
228	0x3d0a571d	0.033774484
229	0x3d88a47e	0.066719994
230	0x3dfd9104	0.12381175
231	0x3dd901a0	0.10596013
232	0xbd4067a0	-0.046973825
233	0xbdd5a5a0	-0.10431981
234	0x3df6aa1a	0.12044163
235	0x3dbda5e0	0.09260154
236	0xbdebaa35	-0.11507074
237	0x3e41c5cd	0.18923111
238	0x3e57b489	0.21064962
239	0x3cea4331	0.028596492
240	0x3d25b4b6	0.040455543
241	0x3e85d3cd	0.26138154
242	0x3e57c565	0.21071394
243	0xbe5225d7	-0.20522247
244	0x3c894b76	0.016759615
245	0xbe47ef30	-0.19524837
246	0xbde070bc	-0.109590024
247	0xbced33b8	-0.028955325
248	0x3e1a68b4	0.15079004
249	0xbe8b2377	-0.27175495
250	0x3e29cc3d	0.16581817
251	0xbdd1f107	-0.102510504
252	0x3b85800e	0.004074103
253	0xbbccc520	-0.006249085
254	0x3c1a4410	0.009415641
255	0xbe27cd0a	-0.1638681

functional_13_1/dense_24_1/Add/ReadVariableOp:0 f4 [128]
0	0x00000000	0.0
1	0xbd2c8ddc	-0.042127475
2	0xbc3c7152	-0.011501627
3	0x3d8d76f7	0.06907456
4	0xbd75e587	-0.060033347
5	0xbdb1fb62	-0.086905256
6	0xbc0476b0	-0.008084938
7	0x3dc9a7eb	0.09846481
8	0x3d5ab502	0.05339528
9	0x3c6c90ab	0.014438788
10	0xbd9aa853	-0.075516365
11	0xbce429d3	-0.027851975
12	0x3d9c3148	0.07626587
13	0x00000000	0.0
14	0xbd7afd6d	-0.061276842
15	0x00000000	0.0
16	0x3d8fdc62	0.070244566
17	0xbd0bc4df	-0.034123298
18	0xbde543ff	-0.1119461
19	0xbd8251fe	-0.06363295
20	0x3cf4163b	0.029795757
21	0xbcce07d5	-0.025150219
22	0xbd25f186	-0.040513538
23	0xbd75e57d	-0.06003331
24	0x3bc0cbc3	0.0058836653
25	0x00000000	0.0
26	0x3cf11957	0.029431028
27	0x00000000	0.0
28	0x3d75d757	0.060019817
29	0xbd75e558	-0.060033172
30	0x3b2771f3	0.0025550097
31	0xbdb7f252	-0.08981766
32	0x3cf75604	0.030192383
33	0xbd32190e	-0.043480925
34	0x3cbd3a91	0.023099216
35	0xbdae1094	-0.08499256
36	0x3d282a0d	0.041055728
37	0x3dd59364	0.10428503
38	0x3d094f64	0.03352298
39	0xbd921542	-0.07132961
40	0x3e008215	0.12549622
41	0x3d75e4ee	0.060032777
42	0x00000000	0.0
43	0x3ddcc494	0.10779682
44	0x3dbd5328	0.092443764
45	0x3dbec354	0.093146
46	0xbdca3f45	-0.09875349
47	0x3dd90d1b	0.10598203
48	0x3d88df70	0.06683242
49	0x3d45d41c	0.048297986
50	0x3d9496ca	0.07255323
51	0xbd58bc76	-0.052914105
52	0x3d79c7b7	0.06098148
53	0xbd95960b	-0.07304009
54	0x00000000	0.0
55	0xbdb6ef0f	-0.089323156
56	0x3d7d557f	0.061849114
57	0xbd5c5d67	-0.053800013
58	0x3d370bb1	0.044688884
59	0x00000000	0.0
60	0x3c03c55d	0.008042661
61	0x3d2310df	0.03981101
62	0x3d75e46d	0.060032297
63	0x3db6b9e9	0.08922178
64	0xbdb1470d	-0.0865613
65	0x3d75e4e9	0.06003276
66	0x3d89538f	0.06705391
67	0xbdab8b55	-0.08376185
68	0xbd2e3f85	-0.042541046
69	0x00000000	0.0
70	0xbd36c173	-0.04461808
71	0xbcd7a3bc	-0.026323192
72	0x3d595bb4	0.05306597
73	0xbd75e52f	-0.06003302
74	0x3c7826c1	0.015145958
75	0x3d14e02e	0.036346607
76	0x3ca3052c	0.019899927
77	0x3d329c6a	0.0436062
78	0x3b16c92f	0.0023008098
79	0x3cd3abcf	0.02583876
80	0xbd0b5e50	-0.03402549
81	0xbd75e57c	-0.060033306
82	0x3d4be7ab	0.049781483
83	0xbd004250	-0.03131324
84	0xbd3e7721	-0.04650033
85	0x3dc0a8b1	0.09407175
86	0xbd919de9	-0.07110197
87	0xbcc23d5c	-0.023710899
88	0x3c38c4a1	0.011277349
89	0x3d8ccb92	0.068747655
90	0xbbb62b1a	-0.0055593373
91	0x3d7f5825	0.06233992
92	0xbde2b124	-0.11068943
93	0x3c722920	0.014780313
94	0x3ddce39e	0.10785602
95	0xbd7cbcac	-0.06170337
96	0x00000000	0.0
97	0x3db6b70c	0.08921632
98	0x3aaf762f	0.0013386662
99	0xbdc6fa4f	-0.09715711
100	0x3c06540f	0.008198752
101	0x3d944a2d	0.072407104
102	0x3d6bd949	0.057580266
103	0x3c960493	0.018312728
104	0x3dc112e7	0.094274335
105	0x3d71e05c	0.059051856
106	0x3dae9d9c	0.08526155
107	0xbd85fc02	-0.06542207
108	0xbd75e553	-0.060033154
109	0x3cb8548c	0.022501253
110	0x3dc9d033	0.09854164
111	0xbd996fee	-0.07492052
112	0xbc91682f	-0.017749874
113	0xbca1acd6	-0.019735735
114	0x3d90adf1	0.07064427
115	0xbd432788	-0.04764512
116	0x3ddfd271	0.109288104
117	0x00000000	0.0
118	0xbd75e57d	-0.06003331
119	0xbc0e1e85	-0.008674269
120	0x3d303693	0.043020796
121	0x3dae47d0	0.08509791
122	0x3d291d88	0.04128793
123	0xbd75e573	-0.060033273
124	0xbde8196c	-0.11332974
125	0x00000000	0.0
126	0xbd75e3e2	-0.06003178
127	0xbdd93b35	-0.10606996

functional_13_1/batch_normalization_20_1/batchnorm/sub:0 f4 [32]
0	0xbebc8ac2	-0.36824614
1	0xbea72442	-0.3264485
2	0xbed45e53	-0.41478214
3	0xbeee9b31	-0.46602777
4	0xbec2399d	-0.3793458
5	0xbef74193	-0.48292217
6	0xbeede698	-0.46464992
7	0xbec2144b	-0.37906107
8	0xbe8ef24b	-0.2791923
9	0xbecbd17c	-0.3980826
10	0xbec7f344	-0.39052784
11	0xbee6f7b7	-0.45110866
12	0xbea2e91e	-0.3181848
13	0xbe75b4b2	-0.23994711
14	0xbe7f5696	-0.24935374
15	0xbeb52fc4	-0.35388005
16	0xbe9a7b8d	-0.30172387
17	0xbe7020c6	-0.23450002
18	0xbe8ea29c	-0.27858436
19	0xbe572820	-0.210114
20	0xbe6ffe06	-0.23436746
21	0xbee28067	-0.44238588
22	0xbec8cc20	-0.39218235
23	0xbeda786c	-0.4267
24	0xbea39b39	-0.31954363
25	0xbec61751	-0.38689664
26	0xbe0b6984	-0.1361447
27	0xbe2ef738	-0.17086494
28	0xbed82ee7	-0.42223284
29	0xbea6173e	-0.32439607
30	0xbecf4ca4	-0.4048816
31	0xbec1db68	-0.37862706

functional_13_1/batch_normalization_20_1/batchnorm/mul:0 f4 [32]
0	0x3f683d98	0.90718985
1	0x3f687240	0.9079933
2	0x3f2f323f	0.68436044
3	0x3f7022da	0.9380318
4	0x3f3f3a88	0.74698687
5	0x3f387d87	0.7206654
6	0x3f2ada4a	0.6673933
7	0x3f67ee05	0.90597564
8	0x3f5c87a8	0.86144495
9	0x3f4e14e1	0.8050061
10	0x3f705f3f	0.93895334
11	0x3f6107ee	0.87902725
12	0x3f3b6c5b	0.7321221
13	0x3f51e6c0	0.8199272
14	0x3f8373f9	1.0269767
15	0x3f487810	0.783082
16	0x3f6462ff	0.89213556
17	0x3f6ea7d7	0.93224853
18	0x3f82e40b	1.0225843
19	0x3f776277	0.9663462
20	0x3f2f7b83	0.6854784
21	0x3f33690d	0.7008217
22	0x3f70553e	0.9388007
23	0x3f7ca3d0	0.9868746
24	0x3f339f16	0.7016462
25	0x3f41dc0f	0.7572641
26	0x3f5785be	0.8418845
27	0x3f679ad1	0.90470606
28	0x3f5308a4	0.8243506
29	0x3f7e2e0c	0.9928901
30	0x3f2f79e0	0.6854534
31	0x3f352724	0.7076285

functional_13_1/batch_normalization_19_1/batchnorm/sub:0 f4 [64]
0	0xbf048be6	-0.5177597
1	0xbeb19459	-0.34683493
2	0xbec2fa4c	-0.38081586
3	0xbed5ebec	-0.41781557
4	0xbe9cf248	-0.30653596
5	0xbe29a1cc	-0.16565627
6	0xbea93974	-0.33051646
7	0xbe79a3ac	-0.24378842
8	0xbef7c9f4	-0.48396266
9	0xbf07b6c8	-0.5301328
10	0xbe9e7171	-0.30945924
11	0xbf076579	-0.5288921
12	0xbee97e15	-0.45604005
13	0xbeadbc48	-0.3393271
14	0xbe9be077	-0.3044469
15	0xbeec5a66	-0.4616272
16	0xbee579d8	-0.44819522
17	0xbf19355f	-0.5984706
18	0xbeace2e3	-0.3376685
19	0xbea908a7	-0.33014414
20	0xbf1a4150	-0.6025591
21	0xbf0c882a	-0.5489527
22	0xbeb99831	-0.36248925
23	0xbf011834	-0.50427556
24	0xbea64034	-0.32470858
25	0xbef87c74	-0.4853245
26	0xbe66b3c5	-0.22529514
27	0xbe9019f2	-0.28144795
28	0xbec76282	-0.38942343
29	0xbef75c59	-0.48312643
30	0xbe9c2550	-0.30497217
31	0xbe97715b	-0.2957867
32	0xbef60db0	-0.48057318
33	0xbe91ad2d	-0.28452435
34	0xbeda5c58	-0.42648578
35	0xbf2aca49	-0.6671491
36	0xbecefeaa	-0.40428668
37	0xbefc95a9	-0.49332932
38	0xbef03098	-0.46912074
39	0xbef210bc	-0.47278392
40	0xbe898fb9	-0.26867464
41	0xbe8367ba	-0.25665075
42	0xbe9e4d22	-0.30918223
43	0xbec7960e	-0.3898167
44	0xbeffe6f6	-0.49980897
45	0xbed08fba	-0.40734655
46	0xbf04021d	-0.51565725
47	0xbeb917f0	-0.36151075
48	0xbeccf955	-0.40033975
49	0xbe883991	-0.2660642
50	0xbf12e3c5	-0.573788
51	0xbea02671	-0.31279328
52	0xbe32ae76	-0.17449364
53	0xbee7d47f	-0.4527931
54	0xbefa1456	-0.4884364
55	0xbeb62ba9	-0.35580185
56	0xbee2a43f	-0.44265935
57	0xbf03fce1	-0.5155774
58	0xbe80262f	-0.25029132
59	0xbf11aa45	-0.56900436
60	0xbed3ea87	-0.41389868
61	0xbeb25ef0	-0.34838057
62	0xbee17676	-0.4403569
63	0xbeacd96a	-0.33759624

functional_13_1/batch_normalization_19_1/batchnorm/mul:0 f4 [64]
0	0x3f8a6165	1.0810972
1	0x3f816415	1.0108668
2	0x3f5d436c	0.86431
3	0x3f833044	1.0249104
4	0x3f5ff70b	0.8748633
5	0x3fa08392	1.2540152
6	0x3f73ee6d	0.95285684
7	0x3f596fa3	0.8493597
8	0x3f76d74e	0.9642228
9	0x3f944324	1.158299
10	0x3f804be1	1.0023156
11	0x3f750317	0.9570784
12	0x3f706389	0.9390188
13	0x3f6c3b62	0.9227811
14	0x3f807119	1.0034515
15	0x3f87e686	1.0617225
16	0x3f8ac614	1.0841699
17	0x3f78a3ed	0.9712513
18	0x3f598d2d	0.8498104
19	0x3f8f1b50	1.118021
20	0x3f89e486	1.0772865
21	0x3f6c1bc6	0.9222988
22	0x3f8aeeb7	1.08541
23	0x3f5fde32	0.8744842
24	0x3f7f7c9f	0.9979953
25	0x3f431b38	0.7621341
26	0x3f674fac	0.90355945
27	0x3f95b7fd	1.1696774
28	0x3f4eace5	0.80732566
29	0x3f8ad3a5	1.0845839
30	0x3f7d97a7	0.9905953
31	0x3f5e6ab2	0.86881554
32	0x3f83fe48	1.0311975
33	0x3f90cf11	1.1313192
34	0x3f726558	0.9468589
35	0x3f6d58b7	0.92713493
36	0x3f67e9ce	0.9059113
37	0x3f465c97	0.7748503
38	0x3f53e7cf	0.82775587
39	0x3f6540d9	0.89552075
40	0x3f49afa5	0.7878364
41	0x3f5db8c6	0.86610067
42	0x3f6f4da8	0.9347787
43	0x3f8089ef	1.0042094
44	0x3f80eb47	1.0071801
45	0x3f877609	1.0582896
46	0x3f963221	1.1734048
47	0x3f59f427	0.8513817
48	0x3f7b8c2d	0.98260766
49	0x3f42f222	0.76150715
50	0x3f6307e3	0.8868391
51	0x3f798a72	0.97476876
52	0x3f3a2019	0.7270523
53	0x3f92f38b	1.1480573
54	0x3f425dac	0.7592418
55	0x3f83390f	1.0251788
56	0x3f6c6557	0.9234213
57	0x3f7972dd	0.9744089
58	0x3f84e6c2	1.0382922
59	0x3f7ee333	0.9956543
60	0x3f8486d7	1.035365
61	0x3f3facce	0.74873054
62	0x3f93ce45	1.1547323
63	0x3f3917ce	0.7230195

functional_13_1/batch_normalization_18_1/batchnorm/sub:0 f4 [128]
0	0xbcd12f2e	-0.025535192
1	0x3b9a12e3	0.0047019585
2	0xbdcfa55e	-0.10138963
3	0xbe296cb6	-0.16545376
4	0xbd357ce8	-0.044308573
5	0x3dcd3090	0.10019028
6	0xbd962120	-0.07330537
7	0xbe9038cc	-0.28168333
8	0xbe95ed5f	-0.29282662
9	0xbf206777	-0.62657875
10	0xbe95886e	-0.2920565
11	0xbe69f83b	-0.22848599
12	0xbe753c1e	-0.23948714
13	0x3d2e6d38	0.042584628
14	0x3e311a7f	0.17295264
15	0xbbbca661	-0.0057571386
16	0xbeb1a66d	-0.34697285
17	0x3dabe226	0.08392744
18	0xbd872da3	-0.066005014
19	0xbd56d32c	-0.052447483
20	0xbcf27a0e	-0.029599216
21	0xbe9d21d9	-0.30689886
22	0xbd4686bc	-0.048468336
23	0x3d8afaf7	0.06786149
24	0xbe36478e	-0.17800733
25	0x3b91fe13	0.004455337
26	0xbe980ae8	-0.2969582
27	0xbd2b0051	-0.04174835
28	0xbeab39b2	-0.33442456
29	0xbda7df24	-0.081968576
30	0x3d0eabfe	0.034831993
31	0x3dcf1cc4	0.101129085
32	0xbdf09033	-0.11746254
33	0xbe95d8ec	-0.2926706
34	0xbe5ac4ee	-0.21364185
35	0xbd4247db	-0.047431808
36	0xbe6233f4	-0.22090131
37	0xbe311688	-0.17293751
38	0xbeb99b40	-0.3625126
39	0xbdfec992	-0.1244079
40	0xbe134e6b	-0.14385383
41	0xbe8bdf34	-0.27318728
42	0xbe01f4d7	-0.12691055
43	0xbec34ef0	-0.38146162
44	0xbe1698b4	-0.14706689
45	0xbe94d20c	-0.29066503
46	0xbd5d9132	-0.054093547
47	0xbeb4e4a7	-0.35330698
48	0xbe5df644	-0.21675974
49	0xbe9bcc67	-0.30429384
50	0xbea871f9	-0.32899454
51	0x3cf6ad35	0.030111888
52	0xbe99aa30	-0.30012655
53	0xbd68d430	-0.056842983
54	0x3d38d1ae	0.04512184
55	0x3d69e679	0.05710456
56	0xbe27504d	-0.16339226
57	0xbcccfba6	-0.02502234
58	0xbeb92c34	-0.36166537
59	0xbdd52a9b	-0.10408517
60	0x3dac6333	0.08417358
61	0xbe82d05b	-0.25549588
62	0xbef8feed	-0.48631993
63	0xbe07637b	-0.13221543
64	0x3d6edeef	0.058318075
65	0xbe68be84	-0.22728926
66	0xbede1111	-0.43372396
67	0xbbcc8c30	-0.0062422976
68	0x3c0856ef	0.008321508
69	0x3d7de750	0.061988175
70	0xbe27fd5d	-0.16405244
71	0x3ddf2fb0	0.108977675
72	0xbe85cf77	-0.26134846
73	0x3da32704	0.07966426
74	0xbe5c3dc3	-0.21507935
75	0x3da139ee	0.07872377
76	0xbde0cc1a	-0.10976429
77	0xbe3fe15c	-0.18738312
78	0xbcef34f2	-0.029200051
79	0xbf10bac4	-0.5653498
80	0xbc17f544	-0.0092747845
81	0xbd829961	-0.06376911
82	0xbe1df136	-0.15424046
83	0xbd8b4b96	-0.06801526
84	0xbc3a2e04	-0.01136351
85	0xbe1a6c1b	-0.15080301
86	0xbe20c9e4	-0.15702015
87	0xbe3f2990	-0.18668199
88	0xbe1fc3be	-0.15602013
89	0xbebc45f8	-0.36772132
90	0xbdacb52b	-0.084329925
91	0xbe49d0d8	-0.19708574
92	0x3d1a7906	0.037713073
93	0xbd534f46	-0.051589273
94	0xbeb24b16	-0.3482291
95	0x3ccd4890	0.025059015
96	0xbd491f68	-0.049102217
97	0xbe6e2563	-0.2325645
98	0xbe07d9dc	-0.132667
99	0xbdc1bbc6	-0.09459643
100	0xbe352a20	-0.1769185
101	0xbe8b8941	-0.27253154
102	0xbe8fe7b4	-0.28106463
103	0xbe5e928d	-0.21735592
104	0xbea3dc1c	-0.32003868
105	0xbe93a88d	-0.28839532
106	0xbe919b15	-0.2843863
107	0xbcff47e8	-0.031162217
108	0x3de04b73	0.10951891
109	0xbe2e1174	-0.16998845
110	0xbe599b6e	-0.21250698
111	0xbe04dbc0	-0.12974453
112	0x3cd67216	0.026177447
113	0xbda91eb8	-0.08257812
114	0xbdfe5698	-0.1241886
115	0xbde83ed9	-0.11340112
116	0xbe903e62	-0.28172594
117	0x3e2ca2b6	0.16858944
118	0x3ced0ac1	0.028935792
119	0xbdd83a30	-0.105579734
120	0xbea1e58b	-0.3162044
121	0xbe691199	-0.22760619
122	0xbe9bf29f	-0.30458543
123	0x3ba38339	0.004990008
124	0xbe430513	-0.19044904
125	0xbd520956	-0.051278435
126	0x3d5ad9a8	0.05343023
127	0x3d38ffe6	0.04516592

functional_13_1/batch_normalization_18_1/batchnorm/mul:0 f4 [128]
0	0x3fbf1ffb	1.4931635
1	0x3fafbbb2	1.3729155
2	0x3fbc5b25	1.4715315
3	0x3fb68392	1.4258902
4	0x3fb3a6ac	1.4035239
5	0x3fc05a28	1.5027514
6	0x3fd18177	1.6367635
7	0x3fbbe3ba	1.4678872
8	0x3fc8d690	1.5690479
9	0x3fb72193	1.4307121
10	0x3fc7e429	1.5616504
11	0x3fbb3d38	1.4628057
12	0x3fdb31b6	1.7124546
13	0x3fbf1ffb	1.4931635
14	0x3fa8c3c3	1.3184742
15	0x3fbf1ffb	1.4931635
16	0x3fcbdfca	1.592767
17	0x3fb54821	1.4162637
18	0x3fbbbc5b	1.4666857
19	0x3fb350c4	1.4009023
20	0x3fced31e	1.6158178
21	0x3fbe694c	1.4875884
22	0x3fa62377	1.2979573
23	0x3fb3a6e6	1.4035308
24	0x3fc80dd7	1.5629224
25	0x3fbf1ffb	1.4931635
26	0x3fc0588f	1.5027026
27	0x3fbf1ffb	1.4931635
28	0x3fbe46c8	1.4865351
29	0x3fb3a707	1.4035348
30	0x3fcd9220	1.6060219
31	0x3fbb2f10	1.4623737
32	0x3fb5d8fa	1.4206841
33	0x3fc144ba	1.5099099
34	0x3fbad5c3	1.4596485
35	0x3fb1d3fa	1.3892815
36	0x3fcafe88	1.5858927
37	0x3fae21a3	1.3604015
38	0x3fba27f2	1.454344
39	0x3fada9ce	1.3567445
40	0x3fd489f0	1.6604595
41	0x3fce5a99	1.6121398
42	0x3fbf1ffb	1.4931635
43	0x3fc5a8c3	1.5442127
44	0x3fbbb7b8	1.4665442
45	0x3fc96f35	1.5737063
46	0x3fc7e6fc	1.5617366
47	0x3fb4456a	1.4083683
48	0x3fce755b	1.6129564
49	0x3fc3da9d	1.530109
50	0x3fcfee5a	1.6244614
51	0x3fab0173	1.3359817
52	0x3fabab79	1.3411704
53	0x3fba8b76	1.457381
54	0x3fbf1ffb	1.4931635
55	0x3fa913fc	1.3209224
56	0x3fc00ba1	1.5003549
57	0x3fb3c839	1.4045478
58	0x3fa8eb5a	1.3196824
59	0x3fbf1ffb	1.4931635
60	0x3fbd55a8	1.4791765
61	0x3fc00e6a	1.5004399
62	0x3fba2d8d	1.4545151
63	0x3fcb0a20	1.5862465
64	0x3fad0697	1.3517636
65	0x3fa89e7b	1.3173364
66	0x3fc8e925	1.569615
67	0x3fcee0db	1.616237
68	0x3fbc1400	1.4693604
69	0x3fbf1ffb	1.4931635
70	0x3fb48efe	1.4106138
71	0x3fabb3ed	1.3414284
72	0x3fabb704	1.3415227
73	0x3fb3a880	1.4035797
74	0x3fb8cecf	1.4438113
75	0x3fc478ae	1.5349329
76	0x3fb6cabc	1.428062
77	0x3fc0b86a	1.5056279
78	0x3fc714c3	1.5553211
79	0x3fb72350	1.4307652
80	0x3fbbe531	1.4679319
81	0x3fb3a72a	1.403539
82	0x3fc1292f	1.5090693
83	0x3fa9c6a9	1.3263751
84	0x3fc28f63	1.5200008
85	0x3fb6adf5	1.4271837
86	0x3fbe09a9	1.4846698
87	0x3fbfdf8f	1.49901
88	0x3fbeff5b	1.4921678
89	0x3fba1d07	1.4540108
90	0x3fd146aa	1.634969
91	0x3fb66209	1.4248668
92	0x3fbad1dd	1.4595295
93	0x3fa3bc05	1.2791754
94	0x3fc903b9	1.5704261
95	0x3fc026a0	1.5011787
96	0x3fbf1ffb	1.4931635
97	0x3fd9cdbc	1.701591
98	0x3fb7f825	1.4372603
99	0x3fa92ce7	1.3216828
100	0x3fc80b70	1.562849
101	0x3fb36790	1.401598
102	0x3f9f7e6c	1.2460456
103	0x3fc051de	1.5024984
104	0x3fbd2149	1.4775783
105	0x3fb9280b	1.4465345
106	0x3fd00072	1.6250136
107	0x3fb25c9f	1.3934516
108	0x3fb3a6ae	1.4035242
109	0x3fbd940b	1.4810804
110	0x3fbd3338	1.4781256
111	0x3fb982dd	1.4493061
112	0x3fbb0e05	1.4613653
113	0x3fb5a693	1.419146
114	0x3fb5515c	1.4165454
115	0x3fb62c8d	1.4232346
116	0x3fc7b1c0	1.560112
117	0x3fbf1ffb	1.4931635
118	0x3fb3a6e8	1.4035311
119	0x3fdaf759	1.7106735
120	0x3fcbb176	1.5913532
121	0x3fb92376	1.4463947
122	0x3fb7fccc	1.4374022
123	0x3fb3a67f	1.4035186
124	0x3fb3043d	1.3985668
125	0x3fbf1ffb	1.4931635
126	0x3fb3af54	1.4037881
127	0x3fc0fe93	1.507769
