models/Postojna/cars/Postojna_cars_model.onnx (onnx, 60611 bytes, 13 tensors)

functional_9_1/dense_19_1/Cast/ReadVariableOp:0 f4 [32, 1]
0	0xbb4b2da3	-0.0031002543
1	0x3d1f1e26	0.03884711
2	0xbd75bb11	-0.059992854
3	0xbd38458e	-0.044988208
4	0xbc771353	-0.015080291
5	0x3e093226	0.13398036
6	0xbd0bc47b	-0.034122925
7	0x3d0652d3	0.03279383
8	0xbcb78fb5	-0.022407392
9	0x3ca0e2d8	0.019639418
10	0x3ccceb2c	0.025014482
11	0x3c5b007c	0.013366815
12	0xbe050072	-0.12988451
13	0x3d11249b	0.0354353
14	0x3da01a9c	0.07817575
15	0xbc0e7954	-0.008695919
16	0x3d7ffad6	0.062495075
17	0x3bd7eb68	0.006589342
18	0x3dd26d39	0.10274739
19	0x3d29e18a	0.041474856
20	0x3d8cb456	0.06870334
21	0x3cc36ad8	0.023854658
22	0x3cb0b594	0.021570958
23	0xbd3fa2e1	-0.046786193
24	0x3ddb9333	0.107214354
25	0xbcf27e43	-0.029601222
26	0x3c876293	0.016526496
27	0xbbefd9c0	-0.007319659
28	0x3c83232d	0.016007984
29	0xbdbe922b	-0.09305223
30	0x3cc39a97	0.023877425
31	0xbd94354f	-0.0723673

functional_9_1/dense_18_1/Cast/ReadVariableOp:0 f4 [64, 32]
0	0x3e43bf71	0.19115998
1	0xbd342157	-0.043977108
2	0xbdd3d32e	-0.10343014
3	0x3e8cca9d	0.27498332
4	0x3e109238	0.14118278
5	0xbe9a43a0	-0.3012972
6	0xbdb1c504	-0.08680156
7	0x3e8b732a	0.272363
8	0x3dd5b97b	0.10435768
9	0xbd756d83	-0.05991889
10	0x3e858801	0.26080325
11	0x3e5fce88	0.21856129
12	0x3b8502b1	0.0040591587
13	0x3d88a2d8	0.06671685
14	0xbe4fe8ec	-0.20303696
15	0xbe525b78	-0.20542705
16	0xbe21ca12	-0.1579974
17	0xbd417b95	-0.047236998
18	0x3e8aef55	0.2713572
19	0xbcce3196	-0.025170129
20	0x3e2e1ac6	0.17002401
21	0xbe95df6d	-0.29272023
22	0xbdcc53c4	-0.099769145
23	0x3ea1e99e	0.31623548
24	0x3de6e2bd	0.11273716
25	0x3e2db32a	0.16962877
26	0xbea3b476	-0.31973618
27	0xbe6741d6	-0.22583708
28	0xbe2bd596	-0.16780695
29	0x3d241b26	0.040064953
30	0x3e0d90d7	0.13824783
31	0xbcb0fffb	-0.021606436
32	0x3e11df6a	0.14245382
33	0x3e2d77a3	0.16940169
34	0xbbbdeefd	-0.005796312
35	0xbe71b5e2	-0.23604539
36	0xbddb956e	-0.10721861
37	0x3e9aa19d	0.30201426
38	0xbcb5e869	-0.022205548
39	0x3e2ecd16	0.17070422
40	0xbde91f96	-0.11382978
41	0xbd8e26b8	-0.06940979
42	0x3e8ab6fa	0.27092725
43	0xbd6f908d	-0.058487464
44	0x3daa30fb	0.083101235
45	0x3c865063	0.016395753
46	0xbe20ea2a	-0.15714327
47	0x3de07b05	0.10960964
48	0xbd34ea6c	-0.044168875
49	0x3dec56ad	0.115399696
50	0xbe834b1f	-0.2564325
51	0xbd593bcf	-0.053035554
52	0xbe81dbb3	-0.2536293
53	0x3d9ac51a	0.075571254
54	0x3d82f198	0.063937366
55	0x3e11f18b	0.14252298
56	0xbdc8f776	-0.098128244
57	0xbd5245ef	-0.051336225
58	0xbe3c3276	-0.18378624
59	0x3e7a4766	0.24441299
60	0xbe693665	-0.22774656
61	0xbe98d85b	-0.29852566
62	0x3e72ce45	0.23711498
63	0xbe97a661	-0.29619125
64	0x3e61e1c7	0.22058783
65	0x3c95d7e0	0.018291414
66	0x3e6aa291	0.22913577
67	0xbe217dd1	-0.15770651
68	0x3cd13f60	0.025542915
69	0xbded41bd	-0.11584804
70	0xbe578311	-0.21046092
71	0xbe0867d2	-0.13320854
72	0x3e3ff724	0.1874662
73	0xbebd29b8	-0.3694589
74	0x3e01d1f1	0.12677743
75	0x3d79b851	0.060966793
76	0xbd724de8	-0.05915633
77	0xbc8af5ec	-0.016962968
78	0x3e1c3b03	0.15256886
79	0x3deda780	0.11604214
80	0xbe16b81d	-0.14718671
81	0xbe7e8148	-0.24854004
82	0x3e1d11d5	0.15338834
83	0xbdced588	-0.100993216
84	0xbdc48174	-0.09595004
85	0xbe3e800e	-0.18603536
86	0x3e860e49	0.26182774
87	0xbdb1f0b7	-0.08688491
88	0x3d825da6	0.06365518
89	0xbe8a144c	-0.2696861
90	0x3de97b4f	0.114004724
91	0xbddc22b4	-0.107488066
92	0xbe43ab0e	-0.19108221
93	0x3e457366	0.19282302
94	0xbdae8112	-0.08520712
95	0xbca8400e	-0.020538356
96	0xbde5d122	-0.112215295
97	0x3dfa64be	0.12226246
98	0x3ca9280c	0.020648979
99	0x3e85d1f2	0.26136738
100	0x3da2078e	0.07911597
101	0x3b9c2d04	0.0047661085
102	0x3ce690e4	0.028145261
103	0xbe8d57c6	-0.27606028
104	0x3daed5e7	0.085368924
105	0x3e91947b	0.28433594
106	0xbdef02fc	-0.11670491
107	0xbdb34d64	-0.087549955
108	0xbe1284d8	-0.14308488
109	0xbd3d68d1	-0.04624254
110	0xbd8d8567	-0.0691021
111	0x3d286586	0.041112445
112	0xbe4ecb54	-0.20194751
113	0xbdd0c261	-0.10193325
114	0xbb541e93	-0.0032366856
115	0x3e303d1d	0.17210813
116	0xbe4d4e99	-0.20049514
117	0x3cc837ea	0.024440724
118	0x3e8fef2c	0.2811216
119	0xbcf44c13	-0.029821431
120	0xbe57693a	-0.21036234
121	0x3e446244	0.1917811
122	0xbd84d2b8	-0.06485504
123	0x3d8d491f	0.06898712
124	0x3e35bd02	0.17747882
125	0xbe82e0e3	-0.255622
126	0xbceec8bb	-0.02914845
127	0xbe2e9d60	-0.17052221
128	0x3d780094	0.060547426
129	0xbe4c9c7b	-0.19981568
130	0xbe069b76	-0.13145241
131	0xbe23f001	-0.16009523
132	0x3c9d0b9b	0.019170573
133	0xbe4c4458	-0.19947946
134	0xbe961b50	-0.29317713
135	0xbd60a3a3	-0.054843556
136	0xbe172ae3	-0.14762454
137	0xbe0cf01d	-0.13763471
138	0xbe525173	-0.20538883
139	0x3e51b9c5	0.20481022
140	0x3cc15f05	0.02360488
141	0x3d3cd788	0.046103984
142	0x3dbe4f74	0.09292498
143	0x3d14d878	0.036339253
144	0x3da43eda	0.080198005
145	0xbe76faa2	-0.24119046
146	0x3baabee0	0.0052107424
147	0x3e30699f	0.17227791
148	0x3d9043d8	0.0704419
149	0x3cd84348	0.02639927
150	0x3dfbf8dc	0.123033255
151	0xbe2a7d73	-0.16649418
152	0xbe68ef3b	-0.22747509
153	0x3c5a7861	0.013334365
154	0x3e174f78	0.14776409
155	0xbd5d8dde	-0.054090373
156	0xbe81dd79	-0.25364283
157	0x3e0be5c6	0.1366187
158	0xbdcd7697	-0.10032385
159	0x3eb0752e	0.344644
160	0xbe43e4b2	-0.19130209
161	0xbe4d16d5	-0.20028241
162	0x3e89fe72	0.2695194
163	0x3e8e3e2f	0.27781817
164	0xbadef18b	-0.0017009241
165	0xbc3f5c8a	-0.011679778
166	0x3e252d5d	0.16130586
167	0xbd38d5ee	-0.045125894
168	0x3d6e18db	0.058129173
169	0x3cf67f2e	0.03008994
170	0x3d7c46b4	0.061590865
171	0xbe060e92	-0.13091496
172	0x3e2e788c	0.17038172
173	0xbd8ca3c2	-0.06867172
174	0xbd4ea76d	-0.05045264
175	0x3e04f8c0	0.12985516
176	0x3e4fefd9	0.20306338
177	0xbd4faa0f	-0.05069929
178	0xbdf38db7	-0.11892264
179	0x3c8b9082	0.01703668
180	0x3d093e51	0.033506695
181	0xbe7e6083	-0.24841504
182	0x3e0218a3	0.1270471
183	0xbe0754af	-0.13215898
184	0x3e76f2c0	0.2411604
185	0x3e574f64	0.21026379
186	0xbdd4997c	-0.10380837
187	0xbe39079c	-0.18069309
188	0x3d80d093	0.062897824
189	0xbdaa4751	-0.08314384
190	0xbe5d7e7a	-0.21630278
191	0x3e094a42	0.13407233
192	0xbe9d7dac	-0.30759943
193	0x3df0347e	0.11728762
194	0xbe877c95	-0.26462236
195	0xbb81657b	-0.003948865
196	0x3e292ce8	0.16521037
197	0xbe2bd0fd	-0.16778941
198	0x3d419af6	0.047266923
199	0x3e929f99	0.28637388
200	0xbdfb20a3	-0.12262084
201	0x3e930061	0.28711227
202	0xbe9a3d40	-0.30124855
203	0x3d8cd0b0	0.068757415
204	0x3e580f31	0.21099545
205	0xbe01d7e9	-0.1268002
206	0x3e27021c	0.16309398
207	0x3de9160f	0.113811605
208	0xbe4869b2	-0.1957157
209	0x3de4c72d	0.11170802
210	0x3d4c88b2	0.04993505
211	0xbe725de1	-0.23668624
212	0x3de53369	0.11191446
213	0x3deef976	0.11668675
214	0xbe59892b	-0.21243732
215	0xbeaaad3b	-0.3333529
216	0xbe7a0a1d	-0.2441792
217	0xbea2ac59	-0.31772116
218	0x3d287b3e	0.041133158
219	0xbe499d89	-0.19689001
220	0xbde65577	-0.1124677
221	0xbe8d48a0	-0.2759447
222	0xbe70f73f	-0.23531817
223	0x3e80a8bf	0.25128743
224	0x3e37727c	0.17914766
225	0xbe07df07	-0.13268672
226	0x3d75c826	0.06000533
227	0x3e1f1502	0.15535358
228	0xbe16325e	-0.14667651
229	0xbc3f1064	-0.011661623
230	0x3e8873d4	0.2665087
231	0xba83c14a	-0.0010052111
232	0xbe154663	-0.14577632
233	0x3cccaeba	0.02498566
234	0xbdf68ef0	-0.12038982
235	0x3d9e8814	0.077407986
236	0xbe21befc	-0.15795511
237	0x3b1ff55c	0.002440772
238	0xbea694ea	-0.32535487
239	0xbe57f99a	-0.21091309
240	0xbdfe48f7	-0.12416261
241	0xbe2284d7	-0.15870987
242	0x3eb43b5d	0.3520154
243	0x3e014c82	0.12626842
244	0xbe092306	-0.13392267
245	0xbe1d877a	-0.15383711
246	0xbe19ee78	-0.15032375
247	0x3db9480d	0.09046946
248	0x3e3ad515	0.18245347
249	0x3d7f8202	0.062379844
250	0xbdee85f3	-0.116466425
251	0xbe91a40f	-0.2844548
252	0x3dc616dc	0.09672329
253	0x3cd6d235	0.026223281
254	0x3e2d9d28	0.16954482
255	0x3d5856e1	0.05281723

functional_9_1/dense_18_1/Add/ReadVariableOp:0 f4 [32]
0	0xbd9aaa5d	-0.075520255
1	0x3d8eb0b6	0.06967299
2	0x3dc1784d	0.09446774
3	0x3d935388	0.07193667
4	0x3e0f73ba	0.1400899
5	0xbcd201ce	-0.025635626
6	0x3d26cf96	0.040725313
7	0xbd930484	-0.07178596
8	0x3d5459a9	0.05184332
9	0x3d8e0666	0.06934814
10	0xbd5b0908	-0.05347541
11	0x3dae8f82	0.08523466
12	0x3d871a7d	0.06596849
13	0xbc9d9830	-0.019237608
14	0xbc8de1c6	-0.017319571
15	0xbda776be	-0.08176945
16	0xbdec4adc	-0.11537716
17	0xbd7fec5d	-0.062481273
18	0x3c9686fb	0.01837491
19	0xbd89e67f	-0.06733417
20	0x3d3cf4bd	0.046131838
21	0xbe21e06a	-0.15808263
22	0xbd181d47	-0.037137296
23	0x3dd6f209	0.10495383
24	0x3d027540	0.0318501
25	0xbd6bc255	-0.057558376
26	0xbd81819a	-0.06323548
27	0xbdee840f	-0.11646282
28	0xbc8b18ae	-0.016979542
29	0x3c44ec48	0.012019224
30	0x3d99e131	0.07513655
31	0x3d16cd15	0.036816675

functional_9_1/dense_17_1/Cast/ReadVariableOp:0 f4 [128, 64]
0	0xbdec2cd3	-0.11531987
1	0x3e13ed86	0.14446077
2	0xbd921d1c	-0.071344584
3	0xbe10c720	-0.1413846
4	0x3cd109fa	0.025517453
5	0xbe0a259c	-0.1349091
6	0xbdf639c9	-0.120227404
7	0xbdaff308	-0.085912764
8	0x3e141599	0.14461364
9	0xbc34884c	-0.011018824
10	0xbbc6654a	-0.006054555
11	0xbe08475b	-0.1330847
12	0xbe2cbe63	-0.16869502
13	0xbe0e8500	-0.13917923
14	0xbdd7200f	-0.105041616
15	0xbe275d04	-0.16344076
16	0x3e47d7cf	0.19515918
17	0xbdd9390f	-0.10606586
18	0x3e5e3335	0.21699221
19	0x3c677288	0.0141264275
20	0xbe8175ea	-0.25285274
21	0xbd4ffc8a	-0.05077795
22	0xbd3b3525	-0.04570498
23	0xbd25db06	-0.04049208
24	0x3e8b1b08	0.2716906
25	0x3d37c3bd	0.044864405
26	0xbcc89cf2	-0.0244889
27	0xbdf06709	-0.117384024
28	0xba99fcd5	-0.0011748323
29	0x3dd170ec	0.10226616
30	0x3e11663f	0.1419916
31	0xbc19cf49	-0.0093878
32	0x3d45522a	0.04817406
33	0x3c5f5aad	0.013632459
34	0x3e0eaf65	0.13934095
35	0x3d5dddaa	0.054166473
36	0x3e25d848	0.16195786
37	0xbdb44dee	-0.088039264
38	0x3c5d50e5	0.013508056
39	0x3d341acf	0.04397088
40	0xbdfb2b33	-0.12264099
41	0xbe28a834	-0.16470414
42	0xbde69ee2	-0.11260773
43	0x3b97310d	0.0046140016
44	0xbe31ed8f	-0.17375778
45	0xbdaa4909	-0.083147116
46	0xbdeae250	-0.11468947
47	0x3d9482bc	0.07251498
48	0x3d5ab3e2	0.053394206
49	0xbbee19a9	-0.0072662425
50	0xbde95ec3	-0.113950275
51	0x3e02402a	0.12719789
52	0x3dad88ac	0.08473334
53	0xbd810ff3	-0.0630187
54	0xbe63176c	-0.22176903
55	0xbe2ade48	-0.16686356
56	0x3c6f77ad	0.014615935
57	0x3dcc3a4e	0.09972058
58	0xbb7dcc20	-0.0038726404
59	0xbdb03d0a	-0.08605392
60	0x3d285f75	0.04110666
61	0x3df118f3	0.11772337
62	0x3d987eb5	0.074460424
63	0xbdfececf	-0.12441789
64	0x3d71d945	0.059045095
65	0x3b5e439d	0.0033914812
66	0x3d5f05c9	0.054448877
67	0x3d555519	0.05208311
68	0xbe195098	-0.1497215
69	0xbd6c621c	-0.057710752
70	0x3e144202	0.14478305
71	0x3d13a9ae	0.03605049
72	0x3e17e1de	0.14832255
73	0x3e1e3eb3	0.15453605
74	0xbde38450	-0.11109221
75	0x3df39a3e	0.11894654
76	0x3d8aa267	0.06769257
77	0x3d28149f	0.04103529
78	0x3daf671d	0.08564589
79	0xbd781d3c	-0.060574755
80	0xba78602a	-0.0009474779
81	0x3e1891bc	0.14899343
82	0x3d46251b	0.04837523
83	0xbdaa7991	-0.08323968
84	0x3e3e533c	0.18586439
85	0xbdf40792	-0.119155064
86	0x3d3b2c07	0.045696285
87	0xbe1b025b	-0.15137617
88	0xbe521cff	-0.20518874
89	0x3dadb38d	0.08481512
90	0x3cc0d7e8	0.023540452
91	0xbe433889	-0.19064535
92	0x3d994903	0.07484629
93	0x3e52efee	0.20599338
94	0xbddebd1b	-0.10875913
95	0xbe50f020	-0.204041
96	0xbe153068	-0.14569247
97	0x3bcff7a7	0.006346661
98	0x3ce995fc	0.028513901
99	0xbce1b6a0	-0.027552903
100	0x3abfa166	0.0014620244
101	0x3d1d2b71	0.038371507
102	0xbdd6cf44	-0.104887515
103	0xbe15c825	-0.1462713
104	0xbe01dd66	-0.12682113
105	0xbcc83fe9	-0.024444537
106	0xbe0a1b9d	-0.13487096
107	0x3b8a4882	0.0042200694
108	0xbd47af7b	-0.048751336
109	0xbd821c02	-0.06352998
110	0xbe9b9d28	-0.30393338
111	0x3d129579	0.03578708
112	0xbd8e0cc4	-0.069360286
113	0xbbb4ac0d	-0.005513674
114	0x3c2852ec	0.010273676
115	0x3e855451	0.2604089
116	0xbd415b03	-0.047205936
117	0xbd6d192e	-0.05788534
118	0x3d8cdf38	0.06878513
119	0x3d2ce129	0.042206917
120	0x3dbdd5bf	0.092692845
121	0xbbb38246	-0.0054781763
122	0xbb277ab5	-0.0025555317
123	0x3dd66941	0.10469294
124	0xbe06d66f	-0.13167737
125	0xbd885c36	-0.06658213
126	0x3d472095	0.048615057
127	0xbd414adb	-0.04719053
128	0xbcbff08f	-0.023430137
129	0xbe19e523	-0.15028815
130	0xbe3cda5a	-0.1844267
131	0xbd82664b	-0.06367167
132	0x3d09d3d2	0.033649273
133	0x3b6e7d3b	0.003639056
134	0x3da0e13e	0.078554615
135	0x3c0c8d7d	0.008578655
136	0x3ce4d0f2	0.027931664
137	0x3dc9ba21	0.098499544
138	0x3dcf6393	0.10126414
139	0x3e7d1fa4	0.24719101
140	0xbe5ae712	-0.21377209
141	0x3dd27cda	0.1027772
142	0x3e6fa009	0.23400892
143	0x3de74965	0.11293296
144	0xbdaf1dd9	-0.08550615
145	0x3dbfb03c	0.09359786
146	0x3e5c5682	0.21517375
147	0x3e08881a	0.13333169
148	0x3e0d0b30	0.13773799
149	0xbe0e69e5	-0.13907583
150	0x3e2042cb	0.1565048
151	0x3e6e0d6d	0.23247309
152	0xbe26cb82	-0.1628857
153	0x3d980b48	0.07424027
154	0x3dbf0a7b	0.09328171
155	0xbda845c3	-0.08216431
156	0x3d9778aa	0.07396062
157	0x3e57cd4d	0.2107441
158	0xbd33f87a	-0.043938138
159	0xbd4cf3a2	-0.050037034
160	0x3e852b84	0.26009762
161	0xbe4f4e56	-0.20244727
162	0x3dd72b2d	0.10506282
163	0xbe35944f	-0.17732356
164	0xbc58cb6b	-0.013232092
165	0x3d363dd6	0.044492565
166	0xbdc441ae	-0.0958284
167	0xbe30c0c4	-0.17261034
168	0xbe40b954	-0.18820697
169	0xbdaa3e99	-0.08312721
170	0x3c8e6cf9	0.017385947
171	0xbcbf0aaf	-0.023320524
172	0xbde13dc0	-0.10998106
173	0xba5c0166	-0.00083925424
174	0x3e0b6fb9	0.13616838
175	0x3caf4920	0.021397173
176	0xbe1f5c06	-0.15562448
177	0x3e5eaa35	0.21744616
178	0xbd6c397f	-0.05767202
179	0xbd3437d0	-0.04399854
180	0x3ec6b5d3	0.38810596
181	0x3e092f53	0.13396959
182	0x3e182aa7	0.1486002
183	0xbe43634a	-0.19080845
184	0xbddb754c	-0.10715732
185	0xbd9fbad7	-0.07799309
186	0xbcbf1bac	-0.023328625
187	0xbd48cdc8	-0.049024373
188	0x3cc1497f	0.023594616
189	0xbe63446b	-0.22194068
190	0xbcd227b2	-0.025653694
191	0x3d7552a9	0.059893284
192	0x3dd13756	0.102156326
193	0xbd008f24	-0.03138651
194	0x3e3fee5a	0.18743268
195	0xbe453da9	-0.19261803
196	0x3d4ffc59	0.050777767
197	0x3da6e776	0.081496164
198	0x3e851cc7	0.25998518
199	0xbd31c1a2	-0.043397553
200	0xbe0e24be	-0.13881204
201	0xbe03088d	-0.1279623
202	0x3e611a92	0.21982792
203	0x3df93a64	0.1216934
204	0x3dcb4ced	0.09926782
205	0xbd357150	-0.044297516
206	0x3d812d49	0.063074656
207	0xbde92366	-0.11383705
208	0x3d638b61	0.055552844
209	0x3dcc211e	0.09967254
210	0xbd26f821	-0.040763978
211	0x3cafd569	0.021464067
212	0xbdbf66ec	-0.09345803
213	0x3dfa2e5e	0.12215875
214	0x3e2d5358	0.16926324
215	0x3e249b16	0.16074786
216	0xbd524abb	-0.0513408
217	0x3d151086	0.03639271
218	0x3ca43800	0.020046234
219	0x3e14f275	0.14545615
220	0xbe16cdce	-0.14726946
221	0x3d23c93d	0.039986838
222	0xbde0ff0f	-0.109861486
223	0xbe10897c	-0.14114946
224	0x3e410cc0	0.1885252
225	0xbe3845df	-0.17995404
226	0xbca7a24a	-0.020463128
227	0xbd2d3bb9	-0.042293284
228	0x3da1571e	0.078779444
229	0x3e0742c9	0.1320907
230	0x3da05cea	0.07830222
231	0x3e0d5d8e	0.1380522
232	0x3d5faef7	0.05461022
233	0x3d85abbe	0.06526898
234	0xbdd1fa18	-0.1025278
235	0xbdc3abf6	-0.09554283
236	0xbd5dac26	-0.05411925
237	0x3d17775a	0.036979057
238	0x3dbeec6a	0.09322436
239	0xbdc300bc	-0.095216244
240	0xbe3bbb8d	-0.18333264
241	0xbd762e85	-0.06010296
242	0xbb83606b	-0.0040092967
243	0xbd82795b	-0.06370803
244	0x3e388434	0.18019181
245	0xbe29d8a8	-0.16586554
246	0xbe4875bd	-0.19576164
247	0x3b452448	0.003008144
248	0xbe0816f7	-0.1329001
249	0xbe35f626	-0.1776968
250	0x3dbfa841	0.09358264
251	0xbd3cf19c	-0.046128854
252	0xbdf5e17d	-0.12005899
253	0xbe07c270	-0.13257766
254	0x3e0d5992	0.138037
255	0xbe3d00fa	-0.18457404

functional_9_1/dense_17_1/Add/ReadVariableOp:0 f4 [64]
0	0x3d1925b1	0.03738946
1	0x3d82c675	0.06385509
2	0xbb4f91a3	-0.00316725
3	0x3d6c0fbc	0.057632193
4	0x3d10bb16	0.03533467
5	0xba69a5fd	-0.0008912979
6	0xbd49b88b	-0.04924826
7	0x3d2c2a9a	0.042032816
8	0x3da0fd3e	0.07860802
9	0x3c092c2a	0.008372346
10	0x3e22b48d	0.15889187
11	0x3ddd2f9a	0.10800095
12	0xbd794c42	-0.06086374
13	0x3e237aba	0.15964785
14	0x3d0d14c0	0.034443617
15	0xbc936c3e	-0.01799595
16	0x3d0c345d	0.034229625
17	0x3d1694f2	0.03676314
18	0x3e2ced58	0.16887414
19	0xbcf99824	-0.030468054
20	0x3dd231f0	0.10263431
21	0x3ca99569	0.020701127
22	0x3d00e219	0.031465624
23	0x3b349c1d	0.002755887
24	0x3cd453d4	0.025918879
25	0xbc0e82ed	-0.008698207
26	0x3c518f90	0.012790576
27	0x3cf663be	0.030076858
28	0xbd809b68	-0.062796414
29	0x3c9917b2	0.018688057
30	0x3dba0699	0.0908329
31	0xbe059170	-0.13043761
32	0x3d5959ab	0.05306403
33	0x3cd64bf9	0.026159273
34	0xbc9fd3c4	-0.019510157
35	0xbdca8a4f	-0.098896615
36	0x3d54dd45	0.05196883
37	0x3d4559ac	0.04818122
38	0x3cbab814	0.022792853
39	0xbd72a167	-0.059235957
40	0x3d260cba	0.04053948
41	0xbde1d757	-0.11027401
42	0x3ccceb6c	0.025014602
43	0xbdd10871	-0.10206688
44	0xbd6f2eb7	-0.05839416
45	0xbd7175f7	-0.05895039
46	0xbda561e5	-0.080753125
47	0xbdab52ca	-0.083654
48	0xbbfa4b43	-0.0076383664
49	0xbd8b31ae	-0.06796585
50	0xbdd4a366	-0.10382728
51	0x3d5a1fb4	0.05325289
52	0x3e38212a	0.17981401
53	0xbca93adb	-0.020657947
54	0xbb03c22a	-0.0020104744
55	0x3c1738e5	0.009229873
56	0x3cf6458a	0.030062456
57	0xbc291b87	-0.010321504
58	0xbdc43192	-0.09579767
59	0xbc794aac	-0.015215557
60	0x3d4c9dbc	0.049955115
61	0x3d56697a	0.052346684
62	0x3df47f2f	0.11938321
63	0xbd0e12f8	-0.03468606

functional_9_1/dense_16_1/Cast/ReadVariableOp:0 f4 [25, 128]
0	0x3e1527d7	0.14565979
1	0xbd9dda00	-0.07707596
2	0xbe3f5267	-0.18683778
3	0x3b0fa200	0.0021916628
4	0xbd91d20c	-0.071201414
5	0xbe3b4315	-0.18287309
6	0xbd73e6b4	-0.059546188
7	0xbdcd6d7b	-0.10030647
8	0x3b8d0340	0.004303366
9	0xbcc8c4e0	-0.02450794
10	0xbdcd1efd	-0.10015676
11	0x3da46c1e	0.08028434
12	0x3e014281	0.12623025
13	0x3e09b271	0.13446976
14	0xbe410fbf	-0.18853663
15	0xb8acf800	-8.247793e-05
16	0x3e015e75	0.12633689
17	0x3e17dcf1	0.14830376
18	0x3d20a94c	0.039223954
19	0xbd3735f4	-0.044729188
20	0xbe1ad45c	-0.15120071
21	0x3e203a9b	0.15647356
22	0x3dba1446	0.09085898
23	0x3e095d53	0.13414507
24	0xbde099f1	-0.10966862
25	0xbd3ead54	-0.046552017
26	0x3d0be064	0.034149542
27	0xbd297380	-0.041369915
28	0xbd103ca0	-0.035214067
29	0x3d74c9f4	0.05976291
30	0x3e0a06c7	0.13479148
31	0x3de2d002	0.110748306
32	0xbdedde3f	-0.11614656
33	0x3e2d9323	0.1695066
34	0x3e44ce55	0.19219334
35	0xbe304b85	-0.17216308
36	0xbd804658	-0.06263417
37	0xbe170530	-0.14748073
38	0xbcddc578	-0.0270717
39	0xbcdcc048	-0.026947156
40	0x3e2649d3	0.16239099
41	0xbdc0b8a6	-0.09410219
42	0xbe0ab2fc	-0.1354484
43	0x3e192271	0.14954545
44	0x3d958fd6	0.07302825
45	0x3df996b6	0.12186949
46	0x3ca34730	0.019931406
47	0xbe058fba	-0.13043109
48	0x3e1a85c5	0.15090092
49	0xbc30ae20	-0.010783702
50	0x3e4363b3	0.19081001
51	0xbd5c1ea0	-0.053740144
52	0x3cc6d1d8	0.024269983
53	0xbda82d00	-0.08211708
54	0xbd901a7e	-0.07036303
55	0xbc11a0d0	-0.008888438
56	0xbe2de88f	-0.16983245
57	0xbdaaadc0	-0.083339214
58	0xbd7ae31c	-0.061251745
59	0xbe47a693	-0.19497137
60	0x3d70c614	0.058782652
61	0xbbb44ec0	-0.005502552
62	0x3db8f696	0.090314075
63	0x3e134c9d	0.14384694
64	0xbcf71e18	-0.030165717
65	0xbe4771e3	-0.19477038
66	0x3d057070	0.032577932
67	0xbc4a3fd0	-0.012344316
68	0x3c78a440	0.015175879
69	0xbe01353a	-0.1261796
70	0xbe10bc46	-0.1413432
71	0x3dd43c6a	0.103630856
72	0xbd9ea2cd	-0.077458955
73	0xbc5b7590	-0.013394728
74	0xbdb57232	-0.08859672
75	0xbd8f8a94	-0.070088536
76	0x3e282099	0.16418685
77	0x3d607ce4	0.054806605
78	0x3d9a5016	0.075348064
79	0x3e477d89	0.19481482
80	0xbd50099c	-0.050790414
81	0x3df2bc66	0.118523404
82	0xbd038924	-0.03211321
83	0xbe2e7822	-0.17038015
84	0x3dc1e41e	0.09467338
85	0x3dcc92da	0.09988947
86	0x3e4a922b	0.19782321
87	0x3dbd8152	0.092531815
88	0x3d41d2a0	0.04732001
89	0xbd782c20	-0.060588956
90	0xbdf2ec8b	-0.11861523
91	0xbde6f6c2	-0.11277534
92	0xbc97ed60	-0.018545806
93	0xbe411047	-0.18853866
94	0x3dfb004a	0.122559145
95	0xbdd5babc	-0.104360074
96	0xbe40d5d2	-0.18831566
97	0x3d7212cc	0.059099957
98	0x3d80e23e	0.06293152
99	0xbe466fca	-0.19378582
100	0xbe09e290	-0.13465333
101	0x3dd8e922	0.105913416
102	0x3d94fd3a	0.07274862
103	0xbc0405b0	-0.008057997
104	0xbe1bcebb	-0.1521558
105	0xbb84cbc0	-0.004052609
106	0x3de5dcb6	0.11223738
107	0xbe15a0d9	-0.1461214
108	0x3e25d11f	0.16193055
109	0x3e3c32f1	0.18378808
110	0x3c870688	0.016482607
111	0xbe115651	-0.14193083
112	0xbb41ec80	-0.0029590428
113	0xbdbc08aa	-0.0918134
114	0xbe1efcd2	-0.15526131
115	0xbe09fb5a	-0.1347479
116	0xbdb83a3c	-0.08995482
117	0x3da44396	0.080207035
118	0xbd42b584	-0.047536388
119	0xbca55ed8	-0.020186827
120	0x3e1649cd	0.1467659
121	0x3d27fe68	0.041014105
122	0xbe30baa0	-0.17258692
123	0x3dca2e6e	0.09872137
124	0x3e3f9f31	0.1871307
125	0x3cdb38f8	0.026760563
126	0xbd8d7438	-0.069069326
127	0xbd18ae78	-0.03727576
128	0x3e299252	0.16559723
129	0x3dc44aba	0.095845655
130	0x3ce78b16	0.028264564
131	0xbe7a3e10	-0.24437737
132	0xbc5bface	-0.013426496
133	0xbcc9fd31	-0.024656864
134	0xbd4d82d6	-0.050173603
135	0xba842f88	-0.0010084966
136	0xbe19f465	-0.15034635
137	0x3e1fc86b	0.15603797
138	0xbcb21186	-0.021736871
139	0x3e01da3e	0.12680909
140	0xbe72a734	-0.23696595
141	0xbe4fbb11	-0.20286204
142	0x3e3a5223	0.18195395
143	0xbd1210e4	-0.03566064
144	0xbd5033bf	-0.0508306
145	0x3d109658	0.03529963
146	0x3d610c7b	0.054943543
147	0x3cd151b2	0.02555165
148	0xbe453c01	-0.19261171
149	0x3d491bc9	0.049098764
150	0xbe7f3ce8	-0.24925578
151	0xbe8f042c	-0.2793287
152	0xbdb98df0	-0.090602756
153	0x3c336570	0.010949478
154	0xbe079b6a	-0.1324288
155	0x3dd2ee87	0.10299402
156	0x3b11d053	0.0022249415
157	0x3e281912	0.16415814
158	0xbe8df487	-0.27725622
159	0xbe17b7f9	-0.14816274
160	0xbe7828eb	-0.24234359
161	0xbe1526dc	-0.14565605
162	0x3e35fc07	0.17771922
163	0xbe7e87ae	-0.24856445
164	0xbe6a6115	-0.22888596
165	0xbe08691e	-0.13321349
166	0xbe8a7200	-0.270401
167	0x3d2e0c51	0.042492215
168	0xbdf1f949	-0.118151255
169	0x3da0ff8b	0.07861241
170	0x3dbe987e	0.09306429
171	0xbe337c46	-0.17527875
172	0xbe47afc6	-0.19500646
173	0x3e563a96	0.20920786
174	0xbe3b0aa5	-0.1826578
175	0xbe491520	-0.19636965
176	0xbd4cd8b0	-0.050011337
177	0x3d5c2e71	0.053755227
178	0xbdb8d441	-0.09024859
179	0x3c99e94f	0.018788008
180	0x3da2ef72	0.07955827
181	0xbce78361	-0.028260889
182	0x3da5908d	0.080842115
183	0xbe570e87	-0.21001635
184	0xbdc9f2df	-0.09860777
185	0x3e29314e	0.16522714
186	0x3b46a194	0.003030871
187	0xbdf01d8c	-0.117243856
188	0x3dfb52d4	0.122716576
189	0xbe3f9244	-0.1870814
190	0x3cbcd80f	0.023052244
191	0x3e49fefa	0.19726172
192	0xbe55e586	-0.20888337
193	0x3e1199e9	0.14218868
194	0xbe124ee9	-0.14287914
195	0x3db25ee9	0.08709509
196	0xbe2d904f	-0.1694958
197	0x3db36c93	0.08760943
198	0xbd996657	-0.07490223
199	0x3d5d621d	0.054048646
200	0xbd96ed0a	-0.0736943
201	0xbe847cc9	-0.25876454
202	0x3e06c7d5	0.13162167
203	0x3e08bee1	0.13354065
204	0xbe148c76	-0.14506707
205	0x3d818b3d	0.06325386
206	0xbca4f763	-0.020137494
207	0x3e15513d	0.14581771
208	0x3e17629f	0.14783715
209	0xbc8bda09	-0.01707174
210	0xbdac0ba0	-0.08400655
211	0xbde1e538	-0.11030048
212	0xbc5eee9e	-0.013606695
213	0xbe4f9aa2	-0.20273831
214	0x3d1c2aeb	0.038126867
215	0xbdbc9cf1	-0.09209622
216	0x3e9ca164	0.3059188
217	0xbdfd2c2f	-0.12361943
218	0xbe5dcfd3	-0.2166131
219	0xbe364dd5	-0.17803128
220	0x3dc7f932	0.09764327
221	0xbdd669d6	-0.10469405
222	0x3d61a751	0.055091206
223	0x3d6faced	0.058514524
224	0xbd4c33e3	-0.04985417
225	0xbe2cde10	-0.16881585
226	0xbcc7d8d0	-0.024395376
227	0xbe21a6fd	-0.15786357
228	0x3e544a6a	0.20731512
229	0x3bf473b5	0.0074600824
230	0xbd37ebf1	-0.044902746
231	0x3d35915a	0.04432807
232	0x3d325a5b	0.0435432
233	0x3ea94406	0.3305971
234	0x3e42ffd0	0.19042897
235	0x3d4f5ca3	0.050625455
236	0x3e0c0e80	0.13677406
237	0x3d9fbe56	0.077999756
238	0xbc439b97	-0.011938951
239	0x3e130d12	0.14360455
240	0xbe4b6b12	-0.19865063
241	0x3e1c850c	0.15285128
242	0xbe2feb62	-0.17179635
243	0x3e4493a4	0.19196945
244	0x3c8d72c2	0.017266635
245	0xbd93cc7e	-0.07216738
246	0xbddd7a75	-0.108143725
247	0x3ccfaf36	0.025352102
248	0xbda888b8	-0.08229202
249	0x3ccf45c7	0.025301827
250	0x3de99a3d	0.11406372
251	0xbda60f0b	-0.08108338
252	0x3d9e858a	0.07740314
253	0x3db55a11	0.088550694
254	0x3e0e617f	0.1390438
255	0x3e48c9dd	0.19608255

functional_9_1/dense_16_1/Add/ReadVariableOp:0 f4 [128]
0	0x3d89f74d	0.06736622
1	0x00000000	0.0
2	0xbd75deaa	-0.060026802
3	0xbdd84025	-0.105591096
4	0xbc0dbee1	-0.008651466
5	0xbdbcfc7f	-0.09227847
6	0xbdf97e01	-0.121822365
7	0x3d3cb77b	0.046073418
8	0x3c742b21	0.014902861
9	0x3dd4a390	0.103827596
10	0x3dc855eb	0.097820126
11	0x3d3ddc34	0.04635258
12	0xbd956d1d	-0.07296202
13	0xbd75e509	-0.060032878
14	0x3d88c01a	0.066772655
15	0xbdd1f429	-0.10251648
16	0xbd61307d	-0.054977883
17	0x3dbcdd0e	0.0922185
18	0x3db886aa	0.0901006
19	0xbdb05108	-0.086092055
20	0x3cc4cec9	0.024024384
21	0xbdf1e4cc	-0.11811218
22	0x3c0a9a98	0.00845971
23	0xbd965029	-0.07339508
24	0x3d88746a	0.06662829
25	0x00000000	0.0
26	0x3dccfe87	0.10009485
27	0xbbfa7dd8	-0.0076443963
28	0xbcd8e66b	-0.02647706
29	0x3d942b34	0.07234803
30	0xbd1e924f	-0.03871375
31	0x3da39cd3	0.07988896
32	0xbdc97c65	-0.098381795
33	0x00000000	0.0
34	0x3dc57492	0.09641375
35	0xbdadd3a6	-0.08487634
36	0x3d94a865	0.07258681
37	0x00000000	0.0
38	0xbdc3823b	-0.09546324
39	0x3cbc452d	0.022982204
40	0xbc9848e0	-0.018589437
41	0xbd5069bf	-0.050882097
42	0x3d95a028	0.07305938
43	0xbd661d74	-0.056180432
44	0xbd9272ef	-0.07150828
45	0x3c5b56dd	0.013387409
46	0x00000000	0.0
47	0xbd956d57	-0.072962455
48	0x00000000	0.0
49	0xbdd63b86	-0.10460572
50	0x00000000	0.0
51	0x3d5efc44	0.054439798
52	0x00000000	0.0
53	0x3d75e534	0.06003304
54	0x3c3ad3fc	0.01140308
55	0xbd75e590	-0.06003338
56	0x00000000	0.0
57	0x3db0f86a	0.08641131
58	0x3d87b558	0.066263855
59	0xbd0d3675	-0.034475762
60	0xbdcf2530	-0.10114515
61	0xbd4f2e3e	-0.05058121
62	0xbcb1cc96	-0.021704
63	0x3d7ede06	0.062223457
64	0xbda42e67	-0.08016663
65	0xbd36d930	-0.04464072
66	0xbc0ce310	-0.008599058
67	0x3d7e2628	0.062048107
68	0xbdb921fa	-0.09039684
69	0x3dbde891	0.09272874
70	0x00000000	0.0
71	0x3db70875	0.0893716
72	0xbda3b5f0	-0.07993686
73	0xbd3b8aca	-0.045786656
74	0x3d75e476	0.06003233
75	0xbd1b28ae	-0.037880592
76	0xbdd2e8a9	-0.10298283
77	0x3ce460c0	0.027878165
78	0xbdeca312	-0.11554541
79	0x3d02eaa1	0.03196204
80	0x3dbe5155	0.092928566
81	0xbcb2f714	-0.021846332
82	0x3b83de6f	0.004024319
83	0x00000000	0.0
84	0x3db9f5c3	0.090800785
85	0xbd008840	-0.031379938
86	0xbdc5231b	-0.096258365
87	0x00000000	0.0
88	0x3d51d8c5	0.05123212
89	0x3cc2e85c	0.023792438
90	0xbd05f30b	-0.032702487
91	0xbd80698c	-0.062701315
92	0x00000000	0.0
93	0x3db03ca9	0.0860532
94	0xbda14e9b	-0.07876321
95	0x3da334e9	0.07969076
96	0xbd1d993d	-0.038476218
97	0xbd3346fc	-0.043768868
98	0x00000000	0.0
99	0xbd0e75dd	-0.034780372
100	0x3da37bf9	0.0798263
101	0xbceb90da	-0.028755594
102	0x3db3a13d	0.08770988
103	0xbe210888	-0.1572591
104	0x3d5d1957	0.053979244
105	0x3dd448bf	0.10365438
106	0x3ca0c3d2	0.019624624
107	0xbc57db5a	-0.013174856
108	0x3b31a8e4	0.0027108723
109	0x00000000	0.0
110	0x3db016dc	0.0859811
111	0xbc8b2fbb	-0.016990533
112	0xbd0ea95f	-0.034829494
113	0x3af8c03f	0.0018978192
114	0xbd1b5cf8	-0.03793046
115	0x3bf554fd	0.007486938
116	0x3b45ad72	0.0030163196
117	0xbd9dcb28	-0.077047646
118	0x3c231102	0.009952785
119	0xbd06f81b	-0.032951456
120	0xbc1fda54	-0.009756643
121	0xbd56a44c	-0.05240278
122	0x3dd2769a	0.10276528
123	0x00000000	0.0
124	0x00000000	0.0
125	0x3d5e4028	0.054260403
126	0x3ce2c1a5	0.027680228
127	0xbde10a43	-0.109882854

functional_9_1/batch_normalization_14_1/batchnorm/sub:0 f4 [32]
0	0xbe3ae13c	-0.18249983
1	0xbe61b078	-0.22039974
2	0xbecf7cfc	-0.40525043
3	0xbef11941	-0.4708958
4	0xbe9e9d51	-0.30979398
5	0xbe2ab4dd	-0.16670556
6	0xbef4e8fd	-0.47834006
7	0xbe632698	-0.22182691
8	0xbee7bbf2	-0.45260578
9	0xbe688fa1	-0.2271104
10	0xbe54813a	-0.20752421
11	0xbe98e373	-0.2986103
12	0xbee2aa7e	-0.442707
13	0xbe32ff4f	-0.17480205
14	0xbe3cdb32	-0.18442991
15	0xbec2f0b8	-0.3807428
16	0xbddeed24	-0.10885075
17	0xbecca095	-0.39966264
18	0xbe3cb5b9	-0.18428697
19	0xbe412a46	-0.18863782
20	0xbe3bc90a	-0.18338409
21	0xbed70dfe	-0.42002863
22	0xbe1eb017	-0.1549686
23	0xbee4468c	-0.44585073
24	0xbe208ac8	-0.15677941
25	0xbeb7af4a	-0.35875922
26	0xbe679ed8	-0.22619188
27	0xbee4b336	-0.44667977
28	0xbe4ddfac	-0.20104855
29	0xbeed6ba0	-0.46371174
30	0xbed56e05	-0.416855
31	0xbeec78b7	-0.46185848

functional_9_1/batch_normalization_14_1/batchnorm/mul:0 f4 [32]
0	0x3f629d38	0.88521147
1	0x3f3d2217	0.7388014
2	0x3f1ce16b	0.6128146
3	0x3f297e4a	0.66208327
4	0x3f772305	0.9653781
5	0x3f0a44a0	0.54010963
6	0x3f66ef70	0.902091
7	0x3f737d29	0.95112854
8	0x3f7aeb81	0.980156
9	0x3f43cc67	0.7648377
10	0x3f65c93c	0.89760184
11	0x3f3a84f8	0.72859144
12	0x3f1f472e	0.62217987
13	0x3f01eb38	0.5074954
14	0x3f4685ce	0.7754792
15	0x3f682381	0.90679175
16	0x3f388cbe	0.72089756
17	0x3f5c3f57	0.8603415
18	0x3f1c590e	0.61073387
19	0x3f37bd0e	0.7177285
20	0x3f1b749a	0.60724795
21	0x3f71b5fd	0.9441832
22	0x3f0f7e1b	0.56051797
23	0x3f55fd1b	0.83589333
24	0x3f08533c	0.53252006
25	0x3f3f0b8d	0.74627
26	0x3f55cd78	0.83516645
27	0x3f173d2d	0.5907772
28	0x3f4c1329	0.79716736
29	0x3f3e002d	0.7421902
30	0x3f47654d	0.7788895
31	0x3f2a127a	0.66434443

functional_9_1/batch_normalization_13_1/batchnorm/sub:0 f4 [64]
0	0xbeb53e44	-0.35399067
1	0xbecc4f44	-0.39904225
2	0xbe9bce12	-0.30430657
3	0xbea8f5c0	-0.32999992
4	0xbedc3fde	-0.43017477
5	0xbeab5670	-0.33464384
6	0xbe9465d3	-0.28983936
7	0xbeb99ccc	-0.3625244
8	0xbed00d68	-0.40635228
9	0xbec86554	-0.39139807
10	0xbf01de1e	-0.5072955
11	0xbecc566e	-0.3990969
12	0xbe9e6c19	-0.30941847
13	0xbf05c2ff	-0.52250665
14	0xbec0ef5a	-0.3768261
15	0xbebe884e	-0.37213367
16	0xbedbb1b0	-0.42909002
17	0xbef27034	-0.4735123
18	0xbf06b587	-0.5262074
19	0xbe7c3d2e	-0.24632713
20	0xbecc99f6	-0.39961213
21	0xbe9d9039	-0.30774096
22	0xbe966d0e	-0.29380077
23	0xbec87ca3	-0.3915759
24	0xbeaa1d8d	-0.3322567
25	0xbec1977d	-0.3781089
26	0xbf09b82c	-0.5379665
27	0xbeca3d95	-0.39500108
28	0xbe9e385a	-0.30902368
29	0xbef2c562	-0.47416216
30	0xbf15275d	-0.5826319
31	0xbe7baa50	-0.24576688
32	0xbeae15c4	-0.3400098
33	0xbea7f113	-0.32801113
34	0xbea4f161	-0.32215407
35	0xbe89e91a	-0.26935655
36	0xbe88249a	-0.26590425
37	0xbee30670	-0.4434085
38	0xbee076b8	-0.43840575
39	0xbe81db9e	-0.25362867
40	0xbee1f518	-0.44132304
41	0xbe312eb2	-0.17302969
42	0xbea5ee69	-0.32408455
43	0xbe8bfd46	-0.2734167
44	0xbea71af4	-0.3263775
45	0xbeb8fed6	-0.36131924
46	0xbebb7013	-0.36608943
47	0xbe8f1248	-0.27943635
48	0xbe9ca449	-0.3059409
49	0xbe9bb69c	-0.30412757
50	0xbe7dcd20	-0.2478528
51	0xbf019189	-0.50612694
52	0xbef3afa4	-0.4759494
53	0xbe8e6ce6	-0.27817458
54	0xbe844dce	-0.2584061
55	0xbeb30f20	-0.34972477
56	0xbec9fba2	-0.39449793
57	0xbeddb91e	-0.43305296
58	0xbed889d2	-0.4229265
59	0xbeca08b6	-0.3945977
60	0xbe85c038	-0.26123214
61	0xbeb0ccfd	-0.34531394
62	0xbf14ccd7	-0.5812506
63	0xbed5d020	-0.4176035

functional_9_1/batch_normalization_13_1/batchnorm/mul:0 f4 [64]
0	0x3f6c28d4	0.922498
1	0x3f934753	1.1506141
2	0x3f7fa867	0.99866337
3	0x3f658443	0.8965494
4	0x3f7dd375	0.9915078
5	0x3f17e989	0.5934072
6	0x3f5f17f5	0.8714593
7	0x3f6d027c	0.92581916
8	0x3f8caab0	1.098959
9	0x3f631020	0.8869648
10	0x3f4e7045	0.8064006
11	0x3f872ef1	1.05612
12	0x3f3e9320	0.74443245
13	0x3f1d0f7f	0.6135177
14	0x3f7d0ba6	0.988459
15	0x3f864b24	1.0491681
16	0x3f55c32b	0.8350093
17	0x3f5daeee	0.86595047
18	0x3f745b36	0.95451677
19	0x3f1cd95c	0.61269164
20	0x3f8c4741	1.0959245
21	0x3f9e04f6	1.2345264
22	0x3f1c2f06	0.6100925
23	0x3f8baed9	1.0912734
24	0x3fa6d6cf	1.3034304
25	0x3f2e89ec	0.681792
26	0x3f5b0cfc	0.8556669
27	0x3f4abe7d	0.7919691
28	0x3f94315d	1.1577564
29	0x3f6d698b	0.9273917
30	0x3f8511d4	1.0396066
31	0x3f868017	1.050784
32	0x3f66246b	0.8989932
33	0x3f5460ea	0.8296038
34	0x3f6d012f	0.9257993
35	0x3f664873	0.899543
36	0x3f5f5af1	0.8724814
37	0x3f63440d	0.8877571
38	0x3f89c95f	1.0764579
39	0x3f85b2b2	1.0445158
40	0x3f2709c4	0.65249276
41	0x3f9318e4	1.1491971
42	0x3f49ef09	0.78880364
43	0x3f3e33d7	0.7429785
44	0x3f6de858	0.92932653
45	0x3f280c01	0.65643317
46	0x3f7e31be	0.9929465
47	0x3f51e3e9	0.8198839
48	0x3f8dc1d9	1.1074783
49	0x3f712acd	0.94205934
50	0x3f635010	0.8879404
51	0x3f6c0a00	0.9220276
52	0x3f535c0b	0.8256232
53	0x3f6ca850	0.92444324
54	0x3f9c91fc	1.2232051
55	0x3f2173f3	0.6306755
56	0x3f6c0a4b	0.92203206
57	0x3f5d6af7	0.8649134
58	0x3f577373	0.84160537
59	0x3f56e4ba	0.8394276
60	0x3f3ea336	0.7446779
61	0x3f8e0f02	1.109833
62	0x3f92960e	1.1452043
63	0x3f6f79b0	0.93545055

functional_9_1/batch_normalization_12_1/batchnorm/sub:0 f4 [128]
0	0xbe2b7c51	-0.16746642
1	0x3c294989	0.010332474
2	0x3e046556	0.12929282
3	0xbded417e	-0.11584757
4	0xbe522202	-0.20520785
5	0x3cba3239	0.022729026
6	0xbdc4a718	-0.09602183
7	0xbdfc4cdc	-0.12319347
8	0x3b303cf0	0.002689179
9	0xbeb47d77	-0.35251972
10	0xbea17627	-0.31535456
11	0xbeb7366c	-0.35783708
12	0x3d86482f	0.06556737
13	0xbdd06405	-0.10175327
14	0xbeba245d	-0.36355868
15	0xbd8aa2d2	-0.06769337
16	0xbcceff3a	-0.025268186
17	0xbe97f725	-0.29680744
18	0xbeb809bf	-0.35944936
19	0x3de69ebd	0.11260746
20	0xbe01c51a	-0.12672845
21	0x3c6d15b6	0.014470508
22	0xbe2ee555	-0.1707967
23	0x3cb67fa4	0.02227766
24	0xbe627706	-0.22115716
25	0x3d4dd768	0.050254256
26	0xbe908543	-0.2822667
27	0xbdf8a457	-0.1214072
28	0xbd2244b0	-0.039616287
29	0xbe8b7700	-0.27239227
30	0xbd9c675c	-0.07636902
31	0xbe87784c	-0.26458967
32	0x3e1bc03b	0.15210049
33	0x3c7743f4	0.015091885
34	0xbe95a50b	-0.2922748
35	0x3cf0e9f8	0.02940844
36	0xbe98b459	-0.29825094
37	0xbcfe5443	-0.031046038
38	0x3d5160fc	0.051117882
39	0xbe966adb	-0.293784
40	0xbc542328	-0.012947835
41	0xbd7c1689	-0.06154493
42	0xbe9670f3	-0.29383048
43	0xbd629d86	-0.055326007
44	0xbd57b929	-0.052666817
45	0xbe3dee29	-0.18547882
46	0x3ded07b9	0.115737386
47	0xbd2d9983	-0.04238273
48	0xbd844953	-0.06459298
49	0x3ce34616	0.02774338
50	0x3c330955	0.010927518
51	0xbeb2e74a	-0.34942085
52	0xbddbd8fe	-0.10734747
53	0xbeccf628	-0.40031552
54	0xbf2e2686	-0.6802753
55	0xbd94c463	-0.0726402
56	0xbaca32a6	-0.0015426471
57	0xbe936196	-0.2878539
58	0xbe88d1df	-0.2672262
59	0xbe27ba83	-0.16379742
60	0x3db47072	0.0881051
61	0xbd13f415	-0.036121447
62	0xbdf89bd1	-0.121390946
63	0xbdd47c3a	-0.10375257
64	0xbcd2d65f	-0.025736986
65	0xbda4bc25	-0.08043698
66	0xbda7aa33	-0.0818676
67	0xbece2d13	-0.40268764
68	0x3db32583	0.08747389
69	0xbe90fc76	-0.28317612
70	0xbd51fb07	-0.05126479
71	0xbebe2dac	-0.3714422
72	0xbdc446cf	-0.09583818
73	0xbcd8c1dc	-0.026459627
74	0xbe95ef9c	-0.2928437
75	0xbde8eaa1	-0.11372877
76	0xbe1bfe1c	-0.15233654
77	0xbebf2d4d	-0.3733925
78	0x3d772163	0.060334574
79	0xbe875975	-0.26435438
80	0xbe6d7612	-0.23189571
81	0xbe0c350e	-0.13692114
82	0xbeb570c8	-0.35437608
83	0x3c2549d0	0.010088399
84	0xbeb47931	-0.35248712
85	0xbdfdd456	-0.123940155
86	0xbd34a72f	-0.04410475
87	0xbc0a4a58	-0.0084405765
88	0xbd194520	-0.03741944
89	0xbe1033e8	-0.140823
90	0x3d0baf1b	0.03410254
91	0xbd2bb7cf	-0.04192334
92	0x3cb1fd33	0.02172718
93	0xbeb09d3f	-0.3449497
94	0xbe18fa06	-0.14939126
95	0xbea37fe4	-0.3193351
96	0xbdb55810	-0.08854687
97	0x3cf88d54	0.030340828
98	0x3cb2c631	0.02182302
99	0x3d78766c	0.06065981
100	0xbeecd2be	-0.46254534
101	0xbe7ccbe5	-0.24687155
102	0xbea0a60a	-0.31376678
103	0xbe1b34de	-0.15156886
104	0xbd702d09	-0.0586367
105	0xbf03308a	-0.5124594
106	0xbe010ddb	-0.12602942
107	0xbeed1cbf	-0.46310994
108	0xbd8feb6e	-0.070273265
109	0xbdd069ce	-0.10176431
110	0xbe984e94	-0.2974745
111	0xbd50a765	-0.05094089
112	0xbd71fb39	-0.059077475
113	0xbd9f0d93	-0.07766261
114	0xbd31932c	-0.043353245
115	0xbe55f670	-0.2089479
116	0xbe8f3451	-0.27969602
117	0xbd66ba61	-0.05633009
118	0xbe9c6937	-0.30549023
119	0x3c0deb5e	0.008662073
120	0xbea35739	-0.31902483
121	0xbd7c3146	-0.06157043
122	0xbec4587d	-0.3834876
123	0xbcce6b96	-0.025197785
124	0xbd122bbe	-0.035686247
125	0x3d048a79	0.03235862
126	0xbe5e3534	-0.21699983
127	0xbe7836d8	-0.24239671

functional_9_1/batch_normalization_12_1/batchnorm/mul:0 f4 [128]
0	0x3fae294b	1.3606352
1	0x3fbf1ffb	1.4931635
2	0x3fb3b8e8	1.4040804
3	0x3fb659b5	1.4246126
4	0x3fc45a96	1.5340145
5	0x3facac6d	1.349012
6	0x3fcc8b3d	1.5979992
7	0x3fc3e67d	1.5304714
8	0x3fe023ea	1.751096
9	0x3faff720	1.3747292
10	0x3fb7eb9d	1.4368778
11	0x3fb9f8c3	1.4529041
12	0x3faefcd1	1.3670903
13	0x3fb3a6e6	1.4035308
14	0x3fd365ba	1.651542
15	0x3fb0e3bb	1.3819498
16	0x3fb48115	1.4101893
17	0x3fc03474	1.5016007
18	0x3fb3a191	1.4033681
19	0x3fbb1686	1.4616249
20	0x3fcb53b5	1.588492
21	0x3fb5b738	1.4196539
22	0x3fb67016	1.4252956
23	0x3faf9fde	1.3720663
24	0x3fb8f108	1.4448557
25	0x3fbf1ffb	1.4931635
26	0x3fad1fe5	1.3525358
27	0x3fc3bf6f	1.5292796
28	0x3faf2b79	1.3685142
29	0x3fb7d8d7	1.4363049
30	0x3fcf6b5f	1.6204642
31	0x3fb7aef3	1.4350265
32	0x3fc8deb9	1.569297
33	0x3fbf1ffb	1.4931635
34	0x3fb149be	1.3850629
35	0x3fae50fa	1.3618462
36	0x3fc0d660	1.5065422
37	0x3fbf1ffb	1.4931635
38	0x3fac01f8	1.3438101
39	0x3faec7f1	1.3654767
40	0x3fcb2fcb	1.587396
41	0x3fb07ebb	1.3788675
42	0x3f9e11cd	1.2349182
43	0x3fb790b7	1.4341038
44	0x3fb05f70	1.3779125
45	0x3fb769e0	1.4329185
46	0x3fbf1ffb	1.4931635
47	0x3fb08954	1.3791909
48	0x3fbf1ffb	1.4931635
49	0x3fafaade	1.372402
50	0x3fbf1ffb	1.4931635
51	0x3faba707	1.3410348
52	0x3fbf1ffb	1.4931635
53	0x3fb3e00a	1.4052746
54	0x3fc203fe	1.5157468
55	0x3fb3a6c2	1.4035265
56	0x3fbf1ffb	1.4931635
57	0x3fb84313	1.439547
58	0x3fb2c129	1.3965198
59	0x3fddeccd	1.7337891
60	0x3fb6d724	1.4284406
61	0x3fbb1205	1.4614874
62	0x3fb2faed	1.3982826
63	0x3fc2ba86	1.5213172
64	0x3fac704a	1.3471768
65	0x3fc86c5e	1.5658071
66	0x3fbaa4a2	1.4581492
67	0x3fb2334f	1.3921908
68	0x3fb00650	1.3751926
69	0x3fd52567	1.6652039
70	0x3fbf1ffb	1.4931635
71	0x3fbec436	1.4903629
72	0x3fb2c74a	1.3967068
73	0x3fb31ddf	1.3993491
74	0x3fc9b079	1.575698
75	0x3fba8d63	1.4574398
76	0x3f9ecdef	1.2406596
77	0x3fd3e061	1.655285
78	0x3fb544e9	1.4161655
79	0x3fb9b76c	1.4509101
80	0x3fb70eb0	1.4301357
81	0x3fbc9af8	1.4734793
82	0x3fad78fe	1.3552549
83	0x3fbf1ffb	1.4931635
84	0x3fbc23d8	1.4698439
85	0x3fb3ada5	1.4037367
86	0x3fc78cd9	1.5589858
87	0x3fbf1ffb	1.4931635
88	0x3fc18ece	1.5121706
89	0x3fba99f0	1.4578228
90	0x3fba275d	1.4543263
91	0x3faa62e0	1.3311424
92	0x3fbf1ffb	1.4931635
93	0x3fc09fde	1.5048788
94	0x3fba4741	1.4552995
95	0x3fc9650a	1.573396
96	0x3fc4862e	1.5353448
97	0x3fcb4578	1.5880575
98	0x3fbf1ffb	1.4931635
99	0x3fb11b74	1.3836503
100	0x3fa79284	1.3091588
101	0x3fc319b1	1.5242215
102	0x3fbf2f69	1.4936343
103	0x3fd01f92	1.6259634
104	0x3fb98e74	1.4496598
105	0x3fb3b80a	1.4040539
106	0x3fc2f3ed	1.523069
107	0x3fbef950	1.4919834
108	0x3fc2424c	1.5176482
109	0x3fbf1ffb	1.4931635
110	0x3fce8f65	1.613751
111	0x3fccc874	1.5998673
112	0x3fbffcf0	1.4999065
113	0x3fbb5e87	1.4638222
114	0x3fb62e2b	1.4232839
115	0x3fced595	1.615893
116	0x3fb9e04c	1.4521575
117	0x3fb1ed6c	1.390058
118	0x3fcd9017	1.6059598
119	0x3fbd27e6	1.4777801
120	0x3fbbebf3	1.4681381
121	0x3fca5be7	1.5809296
122	0x3fcf9932	1.6218626
123	0x3fbf1ffb	1.4931635
124	0x3fbf1ffb	1.4931635
125	0x3fc3b14f	1.5288485
126	0x3fbd1247	1.4771203
127	0x3fc710a5	1.5551955
