models/Postojna/cars/Postojna_cars_model.onnx (onnx, 60611 bytes, 13 tensors)

functional_9_1/dense_19_1/Cast/ReadVariableOp:0 f4 [32, 1]
0	0xbcb89544	-0.022532113
1	0xbd2ce8ed	-0.042214323
2	0x3cc071cd	0.023491764
3	0x3d05d7c1	0.032676462
4	0x3ddb66a1	0.10712934
5	0x3dfd33aa	0.1236337
6	0x3c94e32b	0.018174728
7	0xbdad8ea8	-0.08474475
8	0x3e16ef3b	0.14739697
9	0x3ce1555c	0.027506523
10	0x3a9089d9	0.001102741
11	0x3dba7859	0.09104986
12	0xbc6abfbd	-0.0143279405
13	0x3cd224db	0.02565234
14	0xbc47212c	-0.012153905
15	0x3ddc9f5d	0.10772584
16	0xbc5f022c	-0.013611358
17	0xbe15fa63	-0.14646296
18	0xbadd633e	-0.0016890538
19	0xbcf4aa38	-0.029866323
20	0x3d1de425	0.038547654
21	0x3bc9d4cd	0.006159401
22	0x3c845ae3	0.01615662
23	0x3c075cb7	0.008261851
24	0x3d59c7f5	0.05316921
25	0xbd28face	-0.04125481
26	0x3d45ee5d	0.048323024
27	0xbd13f27e	-0.03611993
28	0x3d1fd984	0.0390258
29	0xbc376551	-0.011193589
30	0x3d9923de	0.07477544
31	0xbd242c24	-0.04008116

functional_9_1/dense_18_1/Cast/ReadVariableOp:0 f4 [64, 32]
0	0x3e949a72	0.29024082
1	0x3e46c218	0.19409978
2	0xbdefab98	-0.11702651
3	0x3e3d32ef	0.18476461
4	0xbe936331	-0.28786615
5	0x3ea84541	0.32865337
6	0xbdb0b110	-0.08627522
7	0xbe38f003	-0.18060307
8	0x3da60b16	0.08107583
9	0xbe4f242d	-0.20228644
10	0xbe435156	-0.19073996
11	0xbd99226b	-0.07477268
12	0x3da41b3f	0.08013009
13	0x3d859730	0.06522977
14	0x3e82ce76	0.25548142
15	0xbe59bb6c	-0.21262902
16	0xbdeb231f	-0.11481308
17	0xbdc9dadc	-0.09856197
18	0xbe33df1a	-0.17565575
19	0xbd2a25fe	-0.04154014
20	0xbe15100a	-0.145569
21	0x3e251003	0.16119389
22	0x3e32b3e5	0.17451437
23	0x3e26d710	0.16292977
24	0xbe0b2441	-0.13588049
25	0xbe14cdde	-0.14531657
26	0xbcad8858	-0.021183178
27	0x3ea97f82	0.33105093
28	0x3e0daca8	0.13835394
29	0xbd0531dc	-0.032518253
30	0x3d4db296	0.05021914
31	0x3e800bda	0.25009042
32	0x3e277d7b	0.16356461
33	0x3c2fe46c	0.010735612
34	0xbdbfd37f	-0.093665116
35	0x3d3e7565	0.046498675
36	0x3e3e26f9	0.18569554
37	0xbdd82dab	-0.105555855
38	0x3d038507	0.032109287
39	0x3e9cbcc6	0.30612773
40	0x3e65b297	0.22431408
41	0x3d91c291	0.07117189
42	0x3b1e47bc	0.0024151644
43	0x3e61d9d3	0.2205575
44	0x3e042e88	0.12908375
45	0xbe2581d1	-0.16162802
46	0xbd7e887d	-0.062141884
47	0xbdb66eb0	-0.08907831
48	0xbe05c0af	-0.13061784
49	0xbdb2e5f4	-0.08735266
50	0xbc87f493	-0.016596114
51	0xbea23b3e	-0.31685823
52	0xbe21a781	-0.15786554
53	0x3ca67bf0	0.02032277
54	0xbe82ad62	-0.25522906
55	0xbd853a6f	-0.06505286
56	0x3da38644	0.079845935
57	0xbe25be19	-0.16185798
58	0x3d2d1cf7	0.04226395
59	0x3b124b44	0.0022322694
60	0x3c1bf5b3	0.0095190285
61	0xbe937e5b	-0.2880734
62	0x3c092a49	0.008371898
63	0x3e8ce0d3	0.27515277
64	0xbe3aeb0e	-0.18253729
65	0x3ddcf534	0.10788956
66	0xbdb0441a	-0.08606739
67	0x3e0a793f	0.13522814
68	0xbd2d8610	-0.04236418
69	0xbe9732d9	-0.2953098
70	0xbd0d717b	-0.03453205
71	0x3d12f14a	0.035874642
72	0xbe400e00	-0.1875534
73	0xbe9d92d2	-0.30776078
74	0xbd819af7	-0.06328385
75	0x3e0ead41	0.13933279
76	0x3d33397d	0.043755997
77	0x3dec8b02	0.11549951
78	0x3e98da7f	0.298542
79	0xbdc766fa	-0.09736438
80	0x3e233723	0.15939002
81	0x3dd52dbe	0.10409115
82	0x3e17a07b	0.14807312
83	0x3c06ba05	0.008223061
84	0x3df54845	0.11976675
85	0x3e2457f9	0.16049184
86	0x3e179ac2	0.14805129
87	0x3dafacf7	0.08577912
88	0x3e86c979	0.26325586
89	0x3da57f44	0.080809146
90	0xbdd0c22a	-0.10193284
91	0x3b6afd78	0.0035856646
92	0x3d90ca8a	0.07069881
93	0x3e8b7a6c	0.27241838
94	0x3b1368b2	0.0022492823
95	0xbe68a684	-0.2271977
96	0xbe06f629	-0.1317984
97	0xbe742e68	-0.23845828
98	0x3d5964e4	0.053074732
99	0x3a85a5ac	0.0010196469
100	0x3e952f7e	0.29137796
101	0xbd8da30e	-0.06915866
102	0x3e161148	0.1465503
103	0xbde43e2b	-0.1114467
104	0x3cadb8d8	0.021206304
105	0x3d6811ea	0.05665771
106	0xbdb78952	-0.08961739
107	0x3e29f28d	0.16596432
108	0x3e1ba08d	0.15197964
109	0xbe3a0a17	-0.18167911
110	0xbe20992c	-0.1568343
111	0xbe6802c6	-0.22657308
112	0x3e1c7642	0.15279487
113	0x3de82836	0.11335795
114	0xbc01e466	-0.00792799
115	0xbe5cd5ed	-0.21565981
116	0x3b34efb4	0.0027608695
117	0xbdab6009	-0.083679266
118	0xbe1305ad	-0.14357634
119	0xbe52f0ec	-0.20599717
120	0xbe6c2fef	-0.2306516
121	0xbdf26c93	-0.11837115
122	0xbe8371ba	-0.25672704
123	0x3d318026	0.043335102
124	0x3cc82466	0.024431419
125	0x3db8f732	0.09031524
126	0xbe3193d0	-0.17341542
127	0xbd86ea86	-0.065877005
128	0x3e889914	0.2667929
129	0x3e335922	0.1751447
130	0x3e391249	0.18073381
131	0xbe847d1a	-0.25876695
132	0xbccc920d	-0.024971986
133	0xbdbecb3a	-0.09316106
134	0x3dcc3185	0.099703826
135	0xbd5f4a1e	-0.054514043
136	0x3d3ee68e	0.046606593
137	0x3da173df	0.07883429
138	0xbd9209df	-0.07130789
139	0xbe77dbf0	-0.24204993
140	0x3e80e5ab	0.25175223
141	0x3e369afc	0.1783256
142	0x3df79786	0.12089448
143	0x3e077ed8	0.13231981
144	0xbe454e59	-0.19268169
145	0x3e2fa3b9	0.17152299
146	0x3e7547bc	0.23953146
147	0x3e8e4b54	0.27791846
148	0xbe8d0e60	-0.2755003
149	0x3d2d18c3	0.042259943
150	0xbdd3cb0e	-0.10341464
151	0xbdc010ea	-0.09378226
152	0x3e3af719	0.18258323
153	0xbe438add	-0.19095941
154	0xbd81cba1	-0.06337667
155	0xbe2cec2e	-0.1688697
156	0x3d001cac	0.031277344
157	0xbe8b6ea3	-0.27232847
158	0x3e2b2db2	0.1671665
159	0xbe17b225	-0.1481405
160	0x3e2aa199	0.16663207
161	0xbd9013ab	-0.07035001
162	0x3d9ffda3	0.07812049
163	0x3dbe76fb	0.093000375
164	0x3dcbe2c9	0.09955365
165	0xbe3a1136	-0.18170628
166	0xbe5f5c2b	-0.21812503
167	0x3e5f4e82	0.21807292
168	0x3d9744bf	0.07386159
169	0x3e1db24e	0.15400049
170	0x3dc96561	0.098337896
171	0x3dafcf2c	0.08584437
172	0xbdcbd325	-0.09952382
173	0x3de3ddd0	0.11126292
174	0xbd73543e	-0.05940651
175	0xbd849491	-0.06473649
176	0x3e8d39f3	0.27583274
177	0xbe2e3061	-0.17010643
178	0x3d36af15	0.044600565
179	0x3e3027b2	0.17202643
180	0x3d02f2ca	0.031969823
181	0xbdb14233	-0.086552046
182	0x3e1c67de	0.15273997
183	0xbe681e22	-0.22667745
184	0x3e679124	0.2261396
185	0xbdcd8ffc	-0.100372285
186	0x3d00d248	0.03145054
187	0xbd87aae0	-0.06624389
188	0xbd5ef027	-0.054428246
189	0xbe1ac450	-0.1511395
190	0xbd2758af	-0.04085606
191	0x3e26ed56	0.16301474
192	0x3c7f3033	0.015575456
193	0xbe2cfa90	-0.16892457
194	0xbe91f5ad	-0.28507748
195	0xbd44955a	-0.047993995
196	0xbcd74254	-0.026276745
197	0x3dec5241	0.11539126
198	0x3e29166f	0.16512464
199	0xbd88b206	-0.0667458
200	0xba51fb56	-0.0008010169
201	0xbbd8b9dc	-0.006613953
202	0x3d8f0627	0.06983595
203	0xbe082cdd	-0.13298364
204	0xbe17bbaa	-0.14817682
205	0x3e323c94	0.17405921
206	0x3df60f9e	0.120146975
207	0xb989143e	-0.00026145758
208	0xbc6527a7	-0.013986505
209	0x3e0eaf16	0.13933977
210	0x3ddedd00	0.10881996
211	0x3e058474	0.13038808
212	0xbe72b52e	-0.23701927
213	0xbe2f2251	-0.17102934
214	0x3e271afb	0.16318886
215	0x3e0b0eba	0.13579836
216	0x3c35346a	0.01105986
217	0xbd6eb21f	-0.05827534
218	0x3e13f93d	0.14450546
219	0xbbd6e28f	-0.0065577696
220	0xbda3a8c4	-0.07991174
221	0xbe3e5636	-0.18587574
222	0x3d2884d1	0.04114229
223	0xbdb61a42	-0.08891727
224	0x3e15b1c1	0.14618589
225	0xbc0ab4fd	-0.0084660025
226	0x3e6f6f7b	0.2338237
227	0x3d8e1d01	0.06939126
228	0x3ce567d3	0.028003609
229	0xbda639f6	-0.08116524
230	0x3d03293b	0.032021742
231	0x3e99ee89	0.300648
232	0x3e3845bb	0.1799535
233	0xbd9886ee	-0.07447611
234	0xbe924fe8	-0.2857659
235	0x3e2d4927	0.16922437
236	0x3d500f16	0.050795637
237	0xbe879556	-0.26481122
238	0x3e00bdd1	0.12572409
239	0x3dcf6623	0.10126903
240	0xbea5178e	-0.32244533
241	0xbe252a8e	-0.16129515
242	0xbdc8346a	-0.09775622
243	0x3d4412f0	0.047869623
244	0xbb61ce74	-0.003445533
245	0x3d669810	0.05629736
246	0x3dc56137	0.09637683
247	0x3d960626	0.073253915
248	0x3e2231e3	0.15839343
249	0x3e04002f	0.12890695
250	0x3d959614	0.07304016
251	0xbd78e7af	-0.060767826
252	0x3d0952c8	0.033526212
253	0xbdfcf1b8	-0.12350792
254	0x3dd21887	0.102585845
255	0x3dd081ac	0.10180983

functional_9_1/dense_18_1/Add/ReadVariableOp:0 f4 [32]
0	0x3d4ff4cc	0.050770566
1	0xbd31044c	-0.04321699
2	0x3cd4ffd6	0.026000898
3	0x3d6d7a08	0.057977706
4	0x3d8f82f1	0.07007397
5	0x3d821f64	0.063536435
6	0xbc96ce07	-0.018408788
7	0xbcc1ca84	-0.023656137
8	0x3de97607	0.11399465
9	0x3d8d16f7	0.06889146
10	0x3cd285ab	0.025698503
11	0x3da6a959	0.08137769
12	0x3d41827a	0.047243573
13	0x3cf3698f	0.02971342
14	0x3d22883c	0.039680704
15	0x3d92a6f8	0.07160753
16	0xbdaff3b5	-0.08591405
17	0x3ddbc1d4	0.10730329
18	0xbd15a29b	-0.036532026
19	0xbd92d11f	-0.07168793
20	0x3cb75644	0.022380002
21	0x3df11e68	0.11773378
22	0x3d8486f6	0.06471054
23	0x3d95788a	0.072983816
24	0xbd1d9393	-0.038470816
25	0xbd986c4f	-0.07442533
26	0x3c87e5a8	0.016589
27	0xbbbc04c2	-0.005737872
28	0xbc37d730	-0.011220738
29	0x3da4da7f	0.08049487
30	0x3d805aa3	0.062672876
31	0xbc89b30a	-0.016809005

functional_9_1/dense_17_1/Cast/ReadVariableOp:0 f4 [128, 64]
0	0xbe00bbc7	-0.12571631
1	0x3dd40ec8	0.10354382
2	0x3e303bff	0.17210387
3	0x3d98b698	0.07456702
4	0x3c66618d	0.014061344
5	0x3d9c08dd	0.07618878
6	0xbd706750	-0.058692276
7	0xbe12a7ac	-0.14321774
8	0xbc83e1ff	-0.016098974
9	0xbc1def50	-0.009639576
10	0xbdc9295b	-0.09822341
11	0xbdbb9482	-0.09159185
12	0xbd7391fb	-0.05946539
13	0xbe083ff0	-0.1330564
14	0xbd9e3ed6	-0.07726829
15	0x3e12b5cb	0.14327161
16	0x3cde0278	0.027100787
17	0xbe70c0d4	-0.23511058
18	0x3e307c71	0.1723497
19	0x3d94bfd8	0.07263154
20	0xbdf3bea3	-0.119015954
21	0x3d17f79c	0.037101373
22	0x3e17537d	0.14777942
23	0xbe606666	-0.21914062
24	0x3d640641	0.055670027
25	0x3e34742e	0.17622444
26	0xbe148974	-0.14505559
27	0x3cd264b6	0.025682788
28	0x3e291103	0.16510396
29	0xbd8254e3	-0.06363847
30	0xbdc835b0	-0.09775865
31	0xbd92e3b1	-0.07172335
32	0xbe35c227	-0.17749844
33	0xbb8651da	-0.004099113
34	0xbd8da551	-0.06916297
35	0xbd326c8e	-0.043560557
36	0x3e33ff67	0.17577897
37	0xbe38a8cb	-0.1803314
38	0x3d96ab10	0.07356846
39	0x3d8f8b5a	0.07009001
40	0x3cd2905c	0.025703602
41	0xbd672061	-0.056427363
42	0xbe5087ed	-0.20364352
43	0xbdf517ff	-0.119674675
44	0x3de5d400	0.112220764
45	0xbe803039	-0.2503679
46	0xbe088c59	-0.13334788
47	0xbd81d764	-0.063399106
48	0x3e570ac2	0.21000198
49	0x3dc830fd	0.09774969
50	0xbdd15f13	-0.10223212
51	0xbe625b2f	-0.22105096
52	0xbce4a21c	-0.027909331
53	0x3d7c5ebc	0.061613783
54	0x3e07f9dd	0.13278909
55	0x3cd424f4	0.025896527
56	0x3c2c1ef9	0.010505431
57	0xbe4b89ca	-0.19876781
58	0xbc907fbe	-0.017639037
59	0x3e4df41f	0.20112656
60	0xbe376719	-0.17910422
61	0x3dedbe80	0.116086006
62	0x3d63c1ca	0.055604734
63	0x3c4b2f93	0.012401479
64	0xbe3ebf3c	-0.18627638
65	0xbd508a2e	-0.05091303
66	0xbd432475	-0.04764219
67	0xbe5bca2b	-0.2146384
68	0xbe1ecf89	-0.15508856
69	0xbe31e078	-0.17370784
70	0xbcb57932	-0.022152517
71	0xbd4d885b	-0.050178867
72	0x3e086db1	0.13323094
73	0xbe44a66c	-0.1920411
74	0xbdbff0ed	-0.09372125
75	0x3e466666	0.19375
76	0x3c285d30	0.010276124
77	0x3ce296a0	0.027659714
78	0xbd9b1fa5	-0.07574395
79	0xbe01a010	-0.12658715
80	0x3d3b73c5	0.045764703
81	0xbe235192	-0.15949085
82	0x3e72f71d	0.23727079
83	0x3def7310	0.11691868
84	0xbdc96b43	-0.09834912
85	0x3d032273	0.032015275
86	0xbdc88c51	-0.09792388
87	0xbd239706	-0.03993895
88	0x3ccd36fd	0.025050635
89	0x3e3d3122	0.18475774
90	0xbe772e4d	-0.24138756
91	0xbe15f53d	-0.14644332
92	0x3dde48dd	0.10853741
93	0x3df1caf0	0.118062854
94	0xbd24d610	-0.04024321
95	0xbc831b15	-0.016004125
96	0x3d930a5b	0.071797095
97	0xbdb93921	-0.090440996
98	0xbdce6710	-0.10078251
99	0x3e3fe74c	0.18740577
100	0xbe2560b8	-0.16150177
101	0xbe902a6c	-0.28157365
102	0xbab4c2c4	-0.0013790955
103	0x3e0fac1b	0.14030497
104	0x3d6b4870	0.05744213
105	0xbc7495b8	-0.014928274
106	0xbe6b4f13	-0.22979383
107	0x3e03150a	0.12800995
108	0x3d776e22	0.060407765
109	0x3d747710	0.05968386
110	0x3e33591b	0.1751446
111	0xb9a7a9a8	-0.00031979126
112	0xbdde16f5	-0.108442225
113	0x3e4cf495	0.20015176
114	0xbdbb4f33	-0.091459654
115	0xbe2b070e	-0.1670191
116	0xbcb88464	-0.022524066
117	0x3d9178f2	0.071031466
118	0xbdc44949	-0.095842905
119	0x3c6d4806	0.014482504
120	0xbc262425	-0.010140453
121	0xbd687962	-0.056756385
122	0xbd5ac480	-0.053410053
123	0x3e20709b	0.15667956
124	0x3d2f97fe	0.04286956
125	0x3e2c5f3c	0.16833204
126	0x3e59dbfe	0.21275327
127	0x3dd262aa	0.10272725
128	0x3e7fb8d8	0.24972856
129	0xbe0a361a	-0.134972
130	0xbc8c126e	-0.017098632
131	0x3e9997c4	0.299986
132	0xbd179798	-0.037009805
133	0xbd822aee	-0.063558444
134	0x3e62c15f	0.22144078
135	0xbdc2e35a	-0.0951602
136	0xbddffea7	-0.10937243
137	0x3df34331	0.1187805
138	0xbdde678c	-0.10859594
139	0x3d7462b7	0.059664454
140	0x3ba02a58	0.0048878603
141	0xbd1822f5	-0.037142713
142	0x3cf6a43f	0.030107616
143	0x3d7a7f5c	0.061156616
144	0xbd2583c7	-0.040408876
145	0x3e3f1360	0.18659735
146	0xbcb7a58c	-0.022417806
147	0x3d59f417	0.053211298
148	0x3dc5fbc0	0.09667158
149	0xbddceb16	-0.107870266
150	0xbdeb8f66	-0.115019605
151	0x3e6e965f	0.2329955
152	0xbb96742f	-0.004591487
153	0xba45b90c	-0.0007542528
154	0x3e1a504c	0.15069693
155	0x3e4f1d17	0.2022594
156	0xbd279984	-0.04091789
157	0x3da13c57	0.07872837
158	0x3dfd0289	0.12353999
159	0x3d8fe120	0.07025361
160	0xbcd56453	-0.026048815
161	0xbb95be38	-0.004569795
162	0xbd89fc8b	-0.06737622
163	0x3c981c84	0.018568285
164	0x3d755de0	0.05990398
165	0x3d80a604	0.06281665
166	0xbe4ade70	-0.19811416
167	0xbd8146d5	-0.06312338
168	0xbe0bb293	-0.1364234
169	0x3deb433a	0.11487432
170	0x3e4ff3b9	0.20307817
171	0x3dba35c1	0.09092284
172	0xbe32ace5	-0.17448767
173	0xbe0f669b	-0.14003985
174	0x3db3f827	0.08787566
175	0xbe77ee6e	-0.24212047
176	0x3da2d0be	0.07949971
177	0x3e42ebc2	0.19035247
178	0x3e118300	0.14210129
179	0x3cd3ecff	0.025869844
180	0x3e37307f	0.17889594
181	0xbd48a8a5	-0.048988957
182	0xbe1ac5fd	-0.15114589
183	0x3ddf2c39	0.10897107
184	0xbe0abb61	-0.13548042
185	0x3e159a64	0.14609677
186	0x3dd18213	0.10229888
187	0x3e10ac78	0.14128292
188	0xbe40c960	-0.18826818
189	0x3e501251	0.20319487
190	0xbe2d8714	-0.1694606
191	0x3dd3b581	0.103373535
192	0x3d0741f8	0.033021897
193	0x3d4ea0fe	0.050446503
194	0xbd151ae2	-0.03640259
195	0x3e7c5b93	0.24644308
196	0x3ce57669	0.028010564
197	0xbdad0f4f	-0.084501855
198	0x3e57870a	0.21047607
199	0x3ce371ec	0.027764283
200	0xbd067ed9	-0.032835815
201	0xbe41d84f	-0.18930171
202	0x3e924496	0.28567952
203	0x3d9b81bc	0.07593104
204	0xbe1a12c9	-0.15046228
205	0xbe393bc2	-0.18089202
206	0x3e1f0890	0.1553061
207	0x3e10c43c	0.14137357
208	0x3d9fa554	0.07795206
209	0x3e2c11c1	0.16803648
210	0xbe5fa953	-0.21841936
211	0xbe0b7cb4	-0.13621789
212	0x3e451fbd	0.19250388
213	0x3e11dc80	0.1424427
214	0xbdab47de	-0.08363317
215	0xbd4f79bb	-0.0506532
216	0x3d968c92	0.073510304
217	0xbe82bd32	-0.2553497
218	0x3d8c6eef	0.068570964
219	0x3e60d040	0.21954441
220	0xbe073a16	-0.13205752
221	0x3de725a6	0.11286478
222	0x3dd23757	0.102644615
223	0xbd12f66b	-0.035879534
224	0x3da6a051	0.08136047
225	0x3e0f4774	0.13992101
226	0x3be0840b	0.0068516782
227	0x3dc8ca63	0.09804227
228	0xbd13e886	-0.036110424
229	0x3d69b771	0.05705971
230	0xbd9227ed	-0.071365215
231	0xbd75e093	-0.060028624
232	0xbb1b1d7a	-0.0023668692
233	0xbda908a0	-0.08253598
234	0xbe2cb236	-0.16864857
235	0x3d951bba	0.07280679
236	0xbdc08784	-0.094008476
237	0xbdcda7bd	-0.10041759
238	0xbc62d962	-0.013845773
239	0xbe875dc0	-0.26438713
240	0x3cdf8a3e	0.027287599
241	0xbe7795c5	-0.24178226
242	0xbc9e4f75	-0.019324997
243	0x3d7b33fb	0.06132887
244	0xbe44d043	-0.1922007
245	0xbd43f155	-0.047837574
246	0xbd9a58a6	-0.075364396
247	0xbe15aa1c	-0.14615673
248	0x3da1138e	0.07865058
249	0xbe7b1f36	-0.24523625
250	0x3b93ced1	0.0045107384
251	0x3c57c8be	0.013170419
252	0x3c8a1c98	0.016859338
253	0xbdb5a9e4	-0.08870295
254	0xbe1bdfcb	-0.15222089
255	0xbdb3d9ec	-0.087818

functional_9_1/dense_17_1/Add/ReadVariableOp:0 f4 [64]
0	0x3da6d0be	0.08145283
1	0xbc820eaa	-0.015876133
2	0xbd5c4ed9	-0.053786132
3	0x3cc08fc2	0.023506049
4	0x3d85053a	0.064951375
5	0xbd35fcdd	-0.044430602
6	0xbcafe489	-0.021471279
7	0x3d1f5a2b	0.03890435
8	0xbd30eb6b	-0.043193262
9	0x3d1f7e06	0.038938545
10	0xbd06ff95	-0.032958586
11	0x3cfb8046	0.030700814
12	0x3de5b73f	0.11216592
13	0xbdcc7ca6	-0.09984712
14	0xbc8916db	-0.016734531
15	0xbd91da28	-0.07121688
16	0xbdb321db	-0.08746692
17	0x3d119288	0.035540134
18	0x3cabdf49	0.020980494
19	0x3c4e2393	0.012581724
20	0x3d67a156	0.056550346
21	0x3e00fddc	0.1259684
22	0xbd79033a	-0.060794093
23	0x3d41cd1d	0.047314752
24	0xbdc9d4dc	-0.09855053
25	0x3d3f4ca3	0.046703946
26	0x3dd4d55c	0.103922576
27	0xbc3b3607	-0.011426455
28	0xbdaf7242	-0.08566715
29	0x3dce6f6c	0.10079846
30	0x3cf7149e	0.030161198
31	0x3d46b69e	0.048514
32	0x3d7efa27	0.062250283
33	0xbd988387	-0.07446962
34	0x3d38eeaf	0.0451495
35	0x3cfec960	0.031101882
36	0x3d056aa9	0.032572422
37	0x3db9d921	0.09074617
38	0x3db40c48	0.08791405
39	0xbd6c4f92	-0.05769307
40	0xbe026779	-0.12734784
41	0x3dfb309b	0.1226513
42	0x3cf7b710	0.030238658
43	0xbc6df2ef	-0.014523252
44	0xbdb42a16	-0.0879709
45	0x3d023b77	0.03179499
46	0xbda2ff73	-0.07958879
47	0xbbba1a42	-0.0056793997
48	0x3cce2adb	0.02516692
49	0xbd907b0c	-0.07054719
50	0x3cb1e2ea	0.021714646
51	0x3cdd365c	0.02700346
52	0xbd7ac75e	-0.061225288
53	0xbc3291dd	-0.010899034
54	0x3cf08a34	0.029362775
55	0xbd100f6c	-0.035170957
56	0x3d7421d8	0.05960259
57	0x3cea7e7a	0.028624762
58	0x3a7e108c	0.0009691797
59	0x3bc5f59c	0.006041242
60	0x3ce8bf08	0.028411403
61	0xbc9f2109	-0.019424932
62	0xbd229fcd	-0.03970318
63	0x3cc735b4	0.0243176

functional_9_1/dense_16_1/Cast/ReadVariableOp:0 f4 [25, 128]
0	0xbe0c8978	-0.13724315
1	0xbdef641e	-0.11689018
2	0x3dee271e	0.11628555
3	0xbd5019cc	-0.05080585
4	0xbc67f850	-0.014158323
5	0x3d43ff6c	0.04785101
6	0xbd20ebbc	-0.039287314
7	0xbe142ac2	-0.14469436
8	0x3d9261d2	0.07147564
9	0x3e2e6927	0.170323
10	0x3e171131	0.14752652
11	0xbdb7aef9	-0.0896892
12	0x3d22991c	0.039696798
13	0xbe387dae	-0.18016693
14	0x3e44c41f	0.1921544
15	0xbdb5ed4c	-0.088831514
16	0xbdcd074d	-0.10011158
17	0xbdee54b1	-0.11637247
18	0xbd3f885c	-0.0467609
19	0xbe3121e2	-0.17298082
20	0x3df20186	0.11816697
21	0xbda4a434	-0.08039132
22	0x3de616a2	0.112347856
23	0xbdb98a9d	-0.090596415
24	0xbe344213	-0.1760333
25	0x3c91e330	0.017808527
26	0x3e43d751	0.19125105
27	0x3e04b1f1	0.12958504
28	0xbdc5ea45	-0.09663824
29	0xbe349dcc	-0.1763832
30	0xbc8a4970	-0.01688072
31	0x3d91234a	0.07086809
32	0x3e342d1b	0.17595331
33	0xbe0b0198	-0.13574827
34	0x3d90cd8a	0.070704535
35	0xbd968f01	-0.073514946
36	0xbe3006da	-0.17190114
37	0x3dcb1e76	0.09917919
38	0xbde95650	-0.11393416
39	0xbdfc93cd	-0.12332878
40	0x3da6923e	0.08133362
41	0x3d29bbd4	0.041438892
42	0xbe123b3a	-0.14280406
43	0xbc29aa30	-0.010355517
44	0xbe031842	-0.12802222
45	0xbdf78eb0	-0.12087762
46	0x3e1798c9	0.14804377
47	0x3cd7c510	0.026339084
48	0x3e033fc7	0.12817298
49	0xbe152194	-0.1456359
50	0x3d51a394	0.05118139
51	0x3db4bf7a	0.08825584
52	0xbdd96364	-0.106146604
53	0xbd970c22	-0.07375361
54	0x3daf8bda	0.085715964
55	0x3d40c074	0.047058538
56	0xbca8e808	-0.020618454
57	0xbd06ca64	-0.03290786
58	0x3e420323	0.18946509
59	0xbe053992	-0.13010243
60	0xbd84252e	-0.06452404
61	0xbd935f2c	-0.07195887
62	0x3e0f0323	0.1396604
63	0x3d39efd0	0.04539472
64	0xbd5f361c	-0.054494962
65	0x3e101d77	0.1407374
66	0xbe129889	-0.14316
67	0xbcfbdb58	-0.03074424
68	0xbd8efd74	-0.06981936
69	0xbaa21b00	-0.0012367666
70	0xbe3041c4	-0.17212588
71	0xbdb6c34b	-0.08923968
72	0x3dceab06	0.10091214
73	0x3df94e02	0.12173082
74	0x3e30fe67	0.17284547
75	0xbd775808	-0.060386688
76	0x3d775bbc	0.06039022
77	0x3db256de	0.08707975
78	0x3e0b0cf1	0.13579156
79	0xbd75be04	-0.059995666
80	0xbe2385d1	-0.15969016
81	0xbd644a2c	-0.0557348
82	0x3db821fa	0.089908555
83	0xbd3167cc	-0.04331188
84	0x3de1e24e	0.11029492
85	0xbe2807f8	-0.1640929
86	0x3dd8dd7e	0.10589121
87	0x3df76cce	0.120813
88	0xbd63691c	-0.055520162
89	0xbe0bb389	-0.13642706
90	0x3e304f15	0.17217667
91	0x3d2540f0	0.040345132
92	0xbdfeaf09	-0.12435729
93	0xbe280d4a	-0.1641132
94	0xbc656840	-0.014001906
95	0xbda63e9f	-0.08117413
96	0xbde50b00	-0.11183739
97	0x3c8350b0	0.016029686
98	0x3e015543	0.12630181
99	0xbe27231f	-0.16321991
100	0xbd37f580	-0.04491186
101	0x3e01b60b	0.126671
102	0x3bbfefe0	0.0058574528
103	0x3d150acc	0.03638725
104	0x3d007014	0.031356886
105	0x3d66a314	0.056307867
106	0x3ce20428	0.027589872
107	0xbdb756cd	-0.08952103
108	0x3e3b9cbb	0.18321507
109	0xbd8cff6e	-0.06884657
110	0xbe045282	-0.12922099
111	0xbddafb1c	-0.106924266
112	0xbccca188	-0.024979368
113	0x3e47cc63	0.19511561
114	0xbde43755	-0.11143366
115	0xbd7a7a34	-0.0611517
116	0xbe26c119	-0.16284598
117	0xbe02f9f6	-0.12790665
118	0x3e01932d	0.126538
119	0x3e167ee7	0.14696847
120	0x3c998c78	0.018743739
121	0x3d6de784	0.05808212
122	0xbdf499f8	-0.1194343
123	0xbdb7a0dd	-0.08966229
124	0xbe1ea4b2	-0.15492514
125	0xbd5890bc	-0.052872404
126	0x3e06ce7b	0.13164704
127	0x3e442473	0.1915453
128	0xbe097db5	-0.1342686
129	0x3c18b070	0.00931941
130	0x3c05b290	0.008160248
131	0x3daaa336	0.08331911
132	0xbd708232	-0.058717914
133	0x3d2b6a94	0.041849688
134	0x3e5debe8	0.21672022
135	0xbdfe189f	-0.1240704
136	0xbddba3d4	-0.10724607
137	0x3b8efb62	0.0043634633
138	0xbd2ecc30	-0.042675197
139	0xbd252b26	-0.040324353
140	0x3de69e83	0.112607025
141	0x3dd6e409	0.10492713
142	0x3e3c4148	0.18384278
143	0xbbd6612d	-0.006542346
144	0x3d864e1d	0.06557868
145	0x3d84dab4	0.06487027
146	0xbc74abda	-0.014933551
147	0x3e21e1b6	0.15808758
148	0x3ad8addb	0.0016531305
149	0xbe0ab928	-0.13547194
150	0xbd0ddc72	-0.03463406
151	0x3e1be563	0.15224223
152	0x3dae665b	0.085156165
153	0xbb06c11c	-0.002056188
154	0xbd717704	-0.058951393
155	0xbdc12551	-0.09430946
156	0x3e023728	0.12716353
157	0x3e3d926e	0.1851289
158	0x3d76b207	0.060228374
159	0x3e452757	0.19253288
160	0x3e716d33	0.23576812
161	0xbde55a65	-0.11198882
162	0x3db60b94	0.08888927
163	0x3e191646	0.14949903
164	0xbdbaf88e	-0.09129439
165	0x3e120a80	0.14261818
166	0x3dc09cf8	0.094049394
167	0x3dd78bb0	0.1052469
168	0x3db28fa2	0.08718802
169	0x3e3a7395	0.18208154
170	0xbe1942b8	-0.14966857
171	0x3de53f2e	0.11193691
172	0xbd5c624e	-0.05380469
173	0x3e0220ba	0.12707797
174	0x3d2b5076	0.04182478
175	0xbb8f4d97	-0.004373263
176	0x3e5aaab0	0.21354175
177	0xbba6023a	-0.0050661834
178	0xbe071630	-0.13192058
179	0xbcbbd3ab	-0.02292808
180	0x3d787c7b	0.06066559
181	0x3cefe8d8	0.029285833
182	0x3d6e76c2	0.058218725
183	0x3d892434	0.06696358
184	0xbe35cfa4	-0.1775499
185	0x3cad9370	0.021188468
186	0x3adffdbe	0.0017089171
187	0x3ce4ac35	0.027914146
188	0x3ddc81d5	0.10766951
189	0x3d134f03	0.035964023
190	0x3d7ad441	0.061237577
191	0xbe32c31c	-0.17457241
192	0xbce339a5	-0.027737448
193	0xbdfed466	-0.124428555
194	0xbde788ad	-0.11305366
195	0xbdb1e569	-0.08686335
196	0xbdf82747	-0.121168666
197	0x3e4f9b5a	0.20274106
198	0x3e0e88df	0.139194
199	0xbc94808c	-0.018127702
200	0xbdcb35a2	-0.09922339
201	0x3d9aac6b	0.07552417
202	0x3c308fc9	0.010776469
203	0xbe4b0307	-0.19825374
204	0x3e27ba3b	0.16379635
205	0xbe5b49ed	-0.21414919
206	0xbe283ac0	-0.16428661
207	0x3d476f1e	0.048689954
208	0x3e4f30cc	0.20233458
209	0x3df3f15d	0.11911271
210	0xbcd30fe3	-0.025764411
211	0x3dab767b	0.08372208
212	0x3dc6447f	0.09681033
213	0x3cbc5d84	0.02299381
214	0x3d63eb32	0.05564422
215	0xbe1031f0	-0.1408155
216	0x3e636d64	0.22209698
217	0xbd828512	-0.063730374
218	0x3e250c4c	0.16117972
219	0x3dda481c	0.10658285
220	0xbe337d08	-0.17528164
221	0xbda3e0f9	-0.080018945
222	0x3deb613c	0.11493155
223	0x3e02d6ab	0.12777202
224	0xbe586315	-0.21131547
225	0x3e474ea5	0.19463594
226	0x3d898beb	0.0671614
227	0xbe0ee334	-0.13953859
228	0xbe07b342	-0.13251975
229	0xbe2756fb	-0.16341774
230	0x3dbfda62	0.09367825
231	0x3e07c813	0.13259916
232	0x3dbb00f3	0.091310404
233	0x3b930120	0.004486218
234	0x3df5325f	0.11972498
235	0xbdd858e2	-0.10563828
236	0xbd68e6b7	-0.05686065
237	0x3dc6eb0a	0.09712799
238	0x3e9565e0	0.29179287
239	0xbbc8e313	-0.006130585
240	0xbe14ecc3	-0.14543442
241	0x3db6279c	0.08894274
242	0xbe2e928b	-0.17048089
243	0x3d154c9f	0.036450025
244	0x3e3ed480	0.1863575
245	0x3d6523e3	0.055942427
246	0x3d1311dc	0.035905704
247	0xbe03f89c	-0.12887806
248	0x3e1b5a9e	0.15171286
249	0x3d5514d1	0.052021805
250	0x3d905d61	0.070490606
251	0x3d025a0a	0.03182415
252	0x3d468413	0.0484658
253	0xbdc48644	-0.09595922
254	0x3d72c6fb	0.059271794
255	0xbde969ef	-0.11397158

functional_9_1/dense_16_1/Add/ReadVariableOp:0 f4 [128]
0	0x3d1e17b7	0.038596835
1	0x3de79ce3	0.11309221
2	0x3d8aab27	0.06770926
3	0xbd215a48	-0.03939274
4	0xbd6396d4	-0.055563763
5	0x3cfddfd8	0.030990526
6	0x3b83e9e6	0.0040256856
7	0x3ca85ba8	0.020551518
8	0xbd6397fa	-0.055564858
9	0xbcc788cb	-0.02435722
10	0x3dad9432	0.08475532
11	0x3d45c7b1	0.048286144
12	0x3cbb3817	0.022853894
13	0x3d64f068	0.05589333
14	0x3d8dcc79	0.06923766
15	0xbd0f55a8	-0.034993798
16	0x3d33ba75	0.04387899
17	0x3d039b73	0.03213067
18	0x3d9585fe	0.073009476
19	0xbca68376	-0.020326357
20	0x3ccd7ae2	0.02508301
21	0x3cc7979f	0.02436429
22	0xbce06e83	-0.027396446
23	0xbdbdcf52	-0.09268059
24	0xbd56e13c	-0.052460894
25	0x3d850ef4	0.06496993
26	0x3ce90b74	0.028447844
27	0x00000000	0.0
28	0x3d4bab8a	0.04972414
29	0x3d0a5b67	0.033778574
30	0xbca4598e	-0.020062234
31	0xbb813417	-0.003942977
32	0xbd3fb1d6	-0.046800457
33	0x3dc67cfa	0.09691806
34	0xbcaf4fd1	-0.021400364
35	0x3c9a8e01	0.01886654
36	0xbaf7870a	-0.0018884849
37	0xbd827a05	-0.0637093
38	0x3def163b	0.11674162
39	0xbb2a9466	-0.0026028394
40	0xbd6bd870	-0.057579458
41	0x3d454e66	0.04817047
42	0x3d05254c	0.032506272
43	0x391ec766	0.00015142336
44	0x3cffcdbf	0.031226037
45	0x3dc806fb	0.097669564
46	0xbd9ca559	-0.07648725
47	0x3c3df139	0.0115931565
48	0x3d9b1cc4	0.07573846
49	0xbe183d24	-0.14867073
50	0x3d76a580	0.060216427
51	0xbd9ba824	-0.0760043
52	0xbd24d05e	-0.040237777
53	0xbd9d7ad8	-0.07689446
54	0x3d09d608	0.03365138
55	0x3db4c6a7	0.088269524
56	0xbd75e424	-0.060032025
57	0x00000000	0.0
58	0xbb4bcacc	-0.0031096218
59	0x3d438a11	0.047739092
60	0xbd9fe0ed	-0.07806573
61	0x3d84dcb8	0.06487411
62	0xbd4bb7e5	-0.049735922
63	0x00000000	0.0
64	0xbd05c59f	-0.03265917
65	0x3d582f10	0.052779257
66	0x3d2d4f3b	0.04231189
67	0xbd75549c	-0.059895143
68	0x3d674a79	0.056467507
69	0x3d0ba706	0.034094833
70	0x3d556b66	0.052104376
71	0x3d9fd3fe	0.07804106
72	0x00000000	0.0
73	0x3dde14e4	0.10843828
74	0x3dcd90e1	0.10037399
75	0xbc8e1611	-0.017344506
76	0x3bdc2a1f	0.0067188884
77	0x3d86b848	0.065781176
78	0x00000000	0.0
79	0x3cd4d1cb	0.025978943
80	0xbc43a31c	-0.011940744
81	0x3d994d7d	0.07485483
82	0x3c542ce6	0.012950158
83	0xbcc4a63d	-0.02400505
84	0xbd9a3f9a	-0.07531662
85	0x3da1e1d8	0.079044044
86	0xbd5ad2e7	-0.05342379
87	0xbd6a28f2	-0.057167955
88	0x3a3932ee	0.0007064779
89	0x00000000	0.0
90	0x3d76588e	0.060143046
91	0x3c08682b	0.008325617
92	0x00000000	0.0
93	0x00000000	0.0
94	0x3d2de8de	0.042458408
95	0x3cefb55e	0.029261287
96	0x3d68673f	0.05673909
97	0x3d639a04	0.055566803
98	0x3dcda40b	0.10041054
99	0x00000000	0.0
100	0x3b8b4aa6	0.004250842
101	0x00000000	0.0
102	0x3dba7d9a	0.09105988
103	0xbd92b486	-0.07163338
104	0xbdc2e8a0	-0.09517026
105	0x00000000	0.0
106	0xbce78eae	-0.028266277
107	0xbd560e19	-0.05225954
108	0x3cf8ac3b	0.030355563
109	0x00000000	0.0
110	0x3d7a2ad3	0.061075997
111	0xbd116bf0	-0.035503328
112	0xbd75e548	-0.060033113
113	0xbccd6cd7	-0.025076313
114	0x00000000	0.0
115	0x3d866605	0.065624274
116	0xbd835ff7	-0.06414788
117	0xbd75e58b	-0.060033362
118	0x3d3f861e	0.046758763
119	0xbd3345a7	-0.043767598
120	0x3d4e8369	0.05041829
121	0xbddd9678	-0.10819715
122	0xbdf78924	-0.120867044
123	0xbd83bf4a	-0.0643297
124	0x3d0b372f	0.033988174
125	0x3d8898c2	0.06669761
126	0xbda1b216	-0.07895295
127	0xbd221eb9	-0.03958008

functional_9_1/batch_normalization_14_1/batchnorm/sub:0 f4 [32]
0	0xbeec4c3d	-0.46151915
1	0xbee4ebfe	-0.44711298
2	0xbe600aa6	-0.21879062
3	0xbe810a75	-0.2520329
4	0xbe1a8d3f	-0.15092944
5	0xbe70bd54	-0.23509723
6	0xbe64c2e8	-0.22339976
7	0xbecd327b	-0.40077576
8	0xbe8daf82	-0.27672964
9	0xbe931ee0	-0.28734493
10	0xbe286c4d	-0.16447563
11	0xbe349517	-0.17634998
12	0xbefebfc0	-0.4975567
13	0xbe5a5878	-0.2132281
14	0xbec54128	-0.38526273
15	0xbe10ea66	-0.14151916
16	0xbebf16ca	-0.37322074
17	0xbeecc0cd	-0.46240845
18	0xbecc1bf3	-0.39865074
19	0xbee013a3	-0.43764982
20	0xbe4e3f3a	-0.20141307
21	0xbe559336	-0.20856938
22	0xbe9c5f45	-0.30541435
23	0xbe92b6dc	-0.28655136
24	0xbe8af6b0	-0.27141333
25	0xbed2d9a3	-0.4118167
26	0xbe832463	-0.25613698
27	0xbee91df7	-0.45530674
28	0xbe50477b	-0.20339768
29	0xbe845c62	-0.25851732
30	0xbe0a761b	-0.13521616
31	0xbeebc092	-0.46045357

functional_9_1/batch_normalization_14_1/batchnorm/mul:0 f4 [32]
0	0x3f7389a2	0.95131886
1	0x3f027297	0.509561
2	0x3f27868f	0.65439695
3	0x3f5c3370	0.8601599
4	0x3f1c957a	0.61165583
5	0x3f3646cb	0.7120177
6	0x3f5324d3	0.82478064
7	0x3f4262fe	0.759323
8	0x3f187f9e	0.5956973
9	0x3f4bd3f0	0.79620266
10	0x3f5ea932	0.8697692
11	0x3f2d725e	0.67752635
12	0x3f7cf154	0.9880574
13	0x3f15e3a2	0.58550465
14	0x3f647fe4	0.89257646
15	0x3f0cdc28	0.5502343
16	0x3f54f585	0.83187133
17	0x3f22570f	0.6341409
18	0x3f873c28	1.0565233
19	0x3f6adaec	0.917403
20	0x3f34e986	0.7066883
21	0x3f4c6f2e	0.79857147
22	0x3f35c664	0.71005845
23	0x3f4e59ed	0.80605966
24	0x3f2be087	0.67139477
25	0x3f42d088	0.76099443
26	0x3f3a9d22	0.72896016
27	0x3f57854a	0.8418776
28	0x3f557bd6	0.83392084
29	0x3f808afa	1.0042412
30	0x3f15ad9e	0.58468044
31	0x3f5bdfff	0.85888666

functional_9_1/batch_normalization_13_1/batchnorm/sub:0 f4 [64]
0	0xbf11647e	-0.56793964
1	0xbead7b54	-0.33883154
2	0xbe9cde58	-0.30638385
3	0xbedc4f4c	-0.4302925
4	0xbea5a2e4	-0.32350838
5	0xbea69db6	-0.325422
6	0xbeea68a6	-0.45782965
7	0xbf0eb35a	-0.5574242
8	0xbe9abd2d	-0.30222455
9	0xbe79167b	-0.24324982
10	0xbecb309c	-0.39685524
11	0xbefb3b42	-0.49068648
12	0xbeb6d104	-0.3570634
13	0xbea4043e	-0.32034487
14	0xbf0b8657	-0.5450186
15	0xbebcb980	-0.36860275
16	0xbeb3be96	-0.35106343
17	0xbf274cff	-0.6535186
18	0xbeb7756e	-0.3583178
19	0xbe6d4372	-0.2317026
20	0xbf10fe08	-0.5663762
21	0xbec8299e	-0.3909425
22	0xbf037636	-0.5135225
23	0xbf171f39	-0.59032017
24	0xbe9b39f0	-0.3031764
25	0xbebb66e7	-0.36601946
26	0xbf2ee26f	-0.6831426
27	0xbefbb2a9	-0.49159744
28	0xbec1b73c	-0.3783511
29	0xbed8e784	-0.42364132
30	0xbecbd72a	-0.39812595
31	0xbe97a3a3	-0.29617032
32	0xbe96a5e3	-0.29423437
33	0xbede9da9	-0.4347966
34	0xbedf72c8	-0.4364226
35	0xbebee79d	-0.37286082
36	0xbf1dfe9d	-0.61716634
37	0xbeae37df	-0.34027
38	0xbebd83db	-0.3701466
39	0xbeadacd3	-0.33920917
40	0xbeebc181	-0.4604607
41	0xbf01de4a	-0.5072981
42	0xbef8e023	-0.48608503
43	0xbee5d3a3	-0.44888029
44	0xbefb6faa	-0.4910863
45	0xbea2d969	-0.31806496
46	0xbef03888	-0.4691813
47	0xbe886eff	-0.26647183
48	0xbe828da4	-0.25498688
49	0xbf08f122	-0.5349294
50	0xbec8027e	-0.390644
51	0xbeb61a5a	-0.3556698
52	0xbec60b61	-0.38680556
53	0xbf0293cc	-0.5100677
54	0xbec89b40	-0.39180946
55	0xbec034fa	-0.37540418
56	0xbea40465	-0.32034603
57	0xbee81582	-0.4532891
58	0xbf0fb341	-0.56132895
59	0xbe93c40e	-0.28860515
60	0xbed60364	-0.41799462
61	0xbeada8bb	-0.33917794
62	0xbf018ce6	-0.5060562
63	0xbe8db742	-0.27678877

functional_9_1/batch_normalization_13_1/batchnorm/mul:0 f4 [64]
0	0x3f4cc072	0.7998115
1	0x3f59d919	0.8509689
2	0x3f928d96	1.1449459
3	0x3f4fb71c	0.8113878
4	0x3f432609	0.7622991
5	0x3f5270cf	0.8220338
6	0x3f5dd03e	0.8664588
7	0x3f7d6263	0.9897825
8	0x3f560500	0.8360138
9	0x3f87881b	1.0588411
10	0x3f50da0e	0.81582725
11	0x3f7b9d94	0.9828732
12	0x3f624b09	0.88395745
13	0x3f9564c8	1.1671381
14	0x3f69586a	0.91150534
15	0x3f6d390e	0.92665184
16	0x3f638c4f	0.8888597
17	0x3f7773af	0.96660894
18	0x3f356a79	0.7086559
19	0x3f3f1aa5	0.7465003
20	0x3f839c00	1.0281982
21	0x3f84147c	1.0318751
22	0x3f840671	1.0314466
23	0x3f3912f2	0.72294533
24	0x3f7566d3	0.9586002
25	0x3f22f9cc	0.6366241
26	0x3f6eae9e	0.93235195
27	0x3f595ac2	0.8490411
28	0x3f76e94b	0.96449727
29	0x3f639b4d	0.88908845
30	0x3f95d0c7	1.1704339
31	0x3f42f52c	0.7615535
32	0x3f8e11d9	1.1099197
33	0x3f7ce175	0.9878152
34	0x3f67dfc8	0.9057584
35	0x3f5aff33	0.85545653
36	0x3f7195cc	0.94369197
37	0x3f2ca35a	0.67436755
38	0x3f581dd1	0.84420496
39	0x3f96c37d	1.1778408
40	0x3f6c4428	0.922915
41	0x3f59dcad	0.8510235
42	0x3f6cb66a	0.9246584
43	0x3f0f2a67	0.55924076
44	0x3f30f6ca	0.6912657
45	0x3f73e9d5	0.95278674
46	0x3f81cfac	1.0141501
47	0x3f4bc887	0.79602855
48	0x3f4966c0	0.7867241
49	0x3f30fa0e	0.69131553
50	0x3f6ee147	0.93312496
51	0x3f811f07	1.0087594
52	0x3f8abedc	1.0839496
53	0x3f5cb89f	0.8621921
54	0x3f882911	1.0637532
55	0x3f5e5683	0.86850756
56	0x3f32729b	0.69706124
57	0x3f4af542	0.79280484
58	0x3f814b6e	1.0101144
59	0x3f7b7db9	0.9823871
60	0x3f54961f	0.83041567
61	0x3f2e3195	0.68044406
62	0x3f296ba8	0.66179895
63	0x3f4823b7	0.78179497

functional_9_1/batch_normalization_12_1/batchnorm/sub:0 f4 [128]
0	0xbe48f25e	-0.19623706
1	0xbe29e323	-0.16590552
2	0xbe815b50	-0.25264978
3	0xbe11ecdc	-0.14250511
4	0x3dff0635	0.12452356
5	0xbec78770	-0.38970518
6	0xbe1a1466	-0.15046844
7	0xbeb23fa7	-0.34814188
8	0x3d044e65	0.032301325
9	0xbd32b0fc	-0.043625817
10	0xbea7680a	-0.32696563
11	0xbe2f8f59	-0.17144527
12	0xbd53692b	-0.051613968
13	0xbe23e018	-0.16003454
14	0x3d265a51	0.040613476
15	0xbdd088c5	-0.10182337
16	0xbdb29140	-0.087191105
17	0x3b327be0	0.002723448
18	0xbe35abd0	-0.17741323
19	0x3d712836	0.05887624
20	0xbe249cb3	-0.16075401
21	0xbe3455c0	-0.17610836
22	0x3d0a3f8c	0.03375201
23	0x3d659203	0.05604745
24	0x3d35f76f	0.044425424
25	0xbd9af948	-0.07567078
26	0xbe1ec256	-0.15503821
27	0xbd9d5257	-0.07681721
28	0xbdddb49d	-0.10825465
29	0xbcc3a5be	-0.023882743
30	0x3c787818	0.015165351
31	0xbeb353e7	-0.3502495
32	0xbca4e41e	-0.020128306
33	0xbeab669e	-0.33476728
34	0xbd887b76	-0.06664173
35	0xbf03173a	-0.51207316
36	0xbdec6816	-0.1154329
37	0x3d8c930f	0.06863987
38	0xbe2ee641	-0.17080022
39	0x3c0e3e5c	0.00868186
40	0xbbb7d5e8	-0.0056102164
41	0xbe81f969	-0.25385597
42	0xbdbab55a	-0.09116621
43	0x3d3c1828	0.045921475
44	0xbe1fc9fb	-0.15604393
45	0xbeae929c	-0.3409623
46	0xbbb0f352	-0.0054001
47	0xbdd401d8	-0.10351914
48	0xbe82da51	-0.25557187
49	0xbc9b1232	-0.018929575
50	0xbe745359	-0.2385992
51	0xbd83fd38	-0.06444782
52	0xbd18bb51	-0.037288014
53	0xbd6470cf	-0.055771645
54	0xbe110397	-0.14161526
55	0xbedc7c5f	-0.43063638
56	0xbc9aeab7	-0.018910749
57	0x3c336b62	0.010950895
58	0xbdd703be	-0.10498761
59	0xbe3a9842	-0.18222144
60	0x3c372789	0.0111788595
61	0xbe254c2d	-0.1614234
62	0xbd358822	-0.04431928
63	0xbd9f5bd4	-0.07781187
64	0xbdabb16a	-0.083834484
65	0xbe76dcc3	-0.24107651
66	0xbe849ad2	-0.2589937
67	0x3d8857f5	0.066574015
68	0xbd6f2959	-0.05838904
69	0x3d899d8f	0.06719505
70	0xbe07e948	-0.13272583
71	0xbe32df64	-0.1746803
72	0x3c5e94dd	0.013585296
73	0xbed38935	-0.41315618
74	0xbea97d6c	-0.33103502
75	0xbd1c2cce	-0.038128667
76	0xbe415f3c	-0.18883985
77	0xbe026d0a	-0.12736908
78	0x39dd961e	0.0004226425
79	0xbdb2fe0e	-0.08739863
80	0xbd5b1e88	-0.053495914
81	0xbe851492	-0.25992256
82	0xbe54c7da	-0.20779362
83	0xbc868568	-0.016421035
84	0xbd8648dc	-0.065568656
85	0xbe959bb6	-0.2922036
86	0xbc7b5cec	-0.0153419785
87	0x3c90bca8	0.017668083
88	0xbe5cbabe	-0.21555611
89	0xbd84b277	-0.06479352
90	0xbe2e7d61	-0.17040016
91	0xbc32f3b6	-0.010922363
92	0xbd7202a6	-0.059084557
93	0xbd1e69d5	-0.038675148
94	0xbea0ff8c	-0.31444967
95	0xbcd3995a	-0.02582996
96	0xbed3ff61	-0.41405776
97	0xbe27db5f	-0.16392277
98	0xbe70f48f	-0.23530792
99	0x3c538f51	0.012912587
100	0xbef34b50	-0.47518396
101	0x3cda55c3	0.026652222
102	0xbe5044bc	-0.2033872
103	0xbdbc6f0d	-0.09200869
104	0xbca74bb6	-0.020421844
105	0x3d7af2ed	0.06126683
106	0xbd2c80d9	-0.042115066
107	0x3db24fad	0.08706603
108	0xbda26479	-0.0792932
109	0xbd625fd3	-0.055267166
110	0xbed0c85a	-0.40777856
111	0xbda423ce	-0.08014642
112	0xbd92e1e3	-0.07171991
113	0xbe73d09c	-0.23810047
114	0x3da6b1c8	0.08139378
115	0xbe2aa95f	-0.16666172
116	0xbd7c114d	-0.061539937
117	0xbd21732a	-0.03941647
118	0xbd19f9e4	-0.03759183
119	0xbeb57b42	-0.354456
120	0xbe6aae82	-0.22918132
121	0x3e0a19e7	0.13486443
122	0xbdc3d0d7	-0.095613174
123	0xbc6618a4	-0.014043961
124	0x3ced5d90	0.028975278
125	0xbe5d98d6	-0.21640334
126	0xbdb8c908	-0.09022719
127	0xbd2c21ac	-0.0420243

functional_9_1/batch_normalization_12_1/batchnorm/mul:0 f4 [128]
0	0x3fcda76f	1.6066722
1	0x3fc66256	1.549876
2	0x3fbc7efc	1.4726253
3	0x3fc4aa3a	1.5364449
4	0x3fb485f9	1.4103385
5	0x3fb27338	1.3941412
6	0x3fb3055c	1.398601
7	0x3fb05bf2	1.377806
8	0x3fb481df	1.4102134
9	0x3fb89d26	1.4422958
10	0x3fc9cac8	1.5765009
11	0x3fba2345	1.4542013
12	0x3fcb780c	1.589601
13	0x3fbb792f	1.4646357
14	0x3fc3f2f0	1.5308514
15	0x3fa7cd16	1.3109462
16	0x3fbb516c	1.4634223
17	0x3fc8b011	1.5678731
18	0x3fb96479	1.4483787
19	0x3fcb1532	1.5865843
20	0x3fd0400c	1.6269546
21	0x3fc0e3cb	1.5069517
22	0x3fb68f74	1.4262528
23	0x3fb186c9	1.3869258
24	0x3fc4395f	1.5330008
25	0x3fcacd2a	1.5843861
26	0x3fb38f62	1.4028132
27	0x3fbf1ffb	1.4931635
28	0x3fc630cf	1.5483645
29	0x3fb2d850	1.3972263
30	0x3fc0b530	1.5055294
31	0x3faecfc4	1.3657155
32	0x3fbfcf46	1.498513
33	0x3fbb868e	1.4650438
34	0x3fc315e3	1.5241054
35	0x3fac1358	1.3443403
36	0x3fc36b32	1.5267088
37	0x3fc88fe3	1.5668911
38	0x3f9e6930	1.2375851
39	0x3fcba6ee	1.5910318
40	0x3fb5a536	1.4191043
41	0x3fb50678	1.4142599
42	0x3fb20fe4	1.39111
43	0x3fc40136	1.531287
44	0x3fc35da2	1.526295
45	0x3fbb9234	1.4653993
46	0x3fb12617	1.3839749
47	0x3fbe9756	1.4889934
48	0x3fc89da6	1.567311
49	0x3fbc3f53	1.4706825
50	0x3fba9468	1.457654
51	0x3fb67830	1.4255428
52	0x3fb96d10	1.4486408
53	0x3fb5c2a3	1.4200023
54	0x3fbb8771	1.4650708
55	0x3fb0640d	1.3780533
56	0x3fb3a73c	1.4035411
57	0x3fbf1ffb	1.4931635
58	0x3fc1ae0e	1.5131242
59	0x3fb02c7b	1.3763574
60	0x3fafe434	1.3741517
61	0x3fc8cf2b	1.5688223
62	0x3fbb2204	1.4619756
63	0x3fbf1ffb	1.4931635
64	0x3fbfcbc9	1.4984065
65	0x3fb169dc	1.3860431
66	0x3fb49e74	1.4110856
67	0x3fb62b89	1.4232036
68	0x3fd632f3	1.6734298
69	0x3fb68233	1.4258484
70	0x3fb9e6f9	1.4523612
71	0x3fc9df42	1.5771258
72	0x3fbf1ffb	1.4931635
73	0x3fb4c8ab	1.4123739
74	0x3fcc9747	1.5983666
75	0x3fbe5220	1.4868813
76	0x3fc80e7d	1.5629421
77	0x3fc83df2	1.5643904
78	0x3fbf1ffb	1.4931635
79	0x3fc0bfba	1.505851
80	0x3fc20f80	1.516098
81	0x3faa2e65	1.3295408
82	0x3fc6cffd	1.5532223
83	0x3fc4a549	1.5362941
84	0x3fb53472	1.415663
85	0x3fa92ee4	1.3217435
86	0x3fbe5d82	1.4872286
87	0x3fce531c	1.6119113
88	0x3fb323c6	1.3995292
89	0x3fbf1ffb	1.4931635
90	0x3fbb8790	1.4650745
91	0x3fbe6a5f	1.4876212
92	0x3fbf1ffb	1.4931635
93	0x3fbf1ffb	1.4931635
94	0x3fca4eb8	1.5805273
95	0x3fbd091a	1.4768403
96	0x3fbdd3b6	1.4830234
97	0x3fc6bf63	1.5527157
98	0x3fbfa6a2	1.4972727
99	0x3fbf1ffb	1.4931635
100	0x3fad882b	1.355718
101	0x3fbf1ffb	1.4931635
102	0x3fb7fe26	1.4374435
103	0x3fbb3301	1.462494
104	0x3fc23671	1.5172864
105	0x3fbf1ffb	1.4931635
106	0x3fa3a0fd	1.2783505
107	0x3fb59db5	1.4188753
108	0x3fcc27b5	1.5949618
109	0x3fbf1ffb	1.4931635
110	0x3fb7cbb2	1.4359038
111	0x3fb3904c	1.4028411
112	0x3fca991d	1.5827976
113	0x3fbd0639	1.4767524
114	0x3fbf1ffb	1.4931635
115	0x3fb6c3ce	1.4278505
116	0x3fb37361	1.4019586
117	0x3fb3a6a4	1.403523
118	0x3fcdf2c4	1.6089711
119	0x3fc36e60	1.5268059
120	0x3fc39ef1	1.528288
121	0x3fc19e8a	1.5126507
122	0x3fc7dee5	1.5614897
123	0x3fbb1040	1.4614334
124	0x3fc2b960	1.5212822
125	0x3fc992a4	1.5747876
126	0x3fcf4c2f	1.6195124
127	0x3fbd120e	1.4771135
