models/Sl_Konjice/speed/Sl_Konjice_speed_model.onnx (onnx, 61201 bytes, 13 tensors)

functional_13_1/dense_27_1/Cast/ReadVariableOp:0 f4 [32, 1]
00000000: f240 5e3d 7e67 c83d 56e0 c53c 8aa2 98bd
00000010: 4c2f 303d a718 8abc d545 363d 2a82 bbbd
00000020: 103f 96bc 180b 91bb 2d4f 233d 7f19 a23d
00000030: 09b0 e3bb 0e4b 8c3d beae f03b 9710 343c
00000040: b1db 843d 3520 c2bc fde6 09be 4be8 7cbd
00000050: ee11 71bc ae1d d2bc 5674 0f3e ef75 983c
00000060: 5cdd 5b3d 98ad 48bd 4b1a c43d 891a e33c
00000070: c8ac b6bb e339 23bd e830 98bc daf4 96bd
0.054261155 0.097853646 0.024154823 -0.07452877 0.043013856 -0.016857458 0.04450019 -0.09155686
-0.018340617 -0.0044263713 0.03987043 0.07915019 -0.0069484753 0.06850253 0.0073450496 0.010990283
0.06487215 -0.023696998 -0.13467021 -0.06174497 -0.014713747 -0.025648918 0.14009222 0.018610923
0.0536779 -0.048993677 0.095753275 0.027722614 -0.0055747963 -0.039850127 -0.018578008 -0.073709205

functional_13_1/dense_26_1/Cast/ReadVariableOp:0 f4 [64, 32]
00000000: 3e44 543d 950f a6bd c38e 513e d48d 9fbe
00000010: f2cf 16be cc33 82be 3c5a 333e e0e3 7f3e
00000020: b744 4cbe a38a 4b3e 5978 4bbe afc7 abbe
00000030: ed54 553a a748 fbbc 7b80 46be e587 093d
00000040: 3a6c 713e 33eb 8a3e 26cd 92bd 4cf8 f63c
00000050: 22ec 383e abf8 debc 1f59 d53d 97a8 6a3d
00000060: ed83 57bd c806 933e d904 7c3e ede2 f8bd
00000070: 63b6 273e e211 183e 3721 323d 7558 d2bd
00000080: 1bf7 50be d20e 893e da1a 833e 105f ff3d
00000090: 66b2 0d3e 348d 74be 5b6e 993d f572 25be
000000a0: 7adf 6fbe 17af 1fbe 1438 5f3d ee5f 9ebd
000000b0: 9ffe 043c 8c73 1cbe 9bf9 5d3e dedc 013e
000000c0: 4c4d 29be 8411 743d 0c74 813d 8b76 4a3e
000000d0: c4ca 10be cead 1abd 22a9 d23b 9a19 e5bc
000000e0: fe63 dabd d5f6 513e 0d74 473e b457 0fbe
000000f0: e9f6 fdbd 14e9 ef3d 62f6 3e3e 3898 6f3d
00000100: c7b5 0cbe f059 823d ce6b 253e 515d 433b
00000110: 3287 f6bc e207 bc3e 24f6 d7bd 569f 533d
00000120: 0ad4 9ebd c63d 2fbe 68ca 133e a700 35bc
00000130: 7f6d 42bc 4e73 503e 720b 9dbd deba debd
00000140: 3115 3dbe dd5a c9bd bfc6 0abe 802f f63d
00000150: 6ad7 3fbd 43f5 d13d d13a 8fbe e0fc 0b3e
00000160: 1750 0abe 9384 73bd 5484 9cbe 2760 383e
00000170: a8a9 f43c 1c7c 39be 63a9 3ebe 2048 053e
00000180: 987f cf3d 4d2a 523e 81b8 603c 1b09 123e
00000190: 665d fe3d 67bf 113e 4fc8 c4bd 444c ceb9
000001a0: e824 17be 4128 533c efc7 0f3e 2c02 1a3d
000001b0: 6684 553e 7a44 71be 5aed 263e 25e2 3ebd
000001c0: d73b 61be 6bd8 1d3e 543a 763e 1a27 28be
000001d0: 5be9 d5bd 7e4f 9abc 93ff 3f3e 64af 46bd
000001e0: d2e7 053e 1bb6 1fbd 14d3 453e f5a3 c73d
000001f0: e8dd f13d 3517 55bd f79d b33d 960c 903e
00000200: 51c4 30bd 2a25 f1bd 5db3 5f3e d814 373e
00000210: e144 35bd 45a2 07be a7cd 2b3d a1df 163e
00000220: 1fea d8be d351 9ebd 058c a9be 57b0 26be
00000230: 993b 13be aa10 c93d 25c1 1b3e 4c21 113e
00000240: d79c 493e d7da 83bd 33b7 5b3e d1a4 5dbe
00000250: e6c0 47be ec7f 83bd 0b90 403e fd81 813e
00000260: 9aae b93d 182e a8bd ac74 433e e651 653e
00000270: 1492 7abe 8b14 533d 6a57 95be 1701 883c
00000280: dfe7 d73d 03b9 92be 16fe 34be 2807 773d
00000290: 213e e53d f02c 88bd 6c60 8e3d e90c cdbd
000002a0: 09cd bf3e 5b2c 20be 6887 8a3e 4146 5fbd
000002b0: e562 01be 9fd3 a6be 4b1f 8abd e86a 2abd
000002c0: 58bd 8bbe 17bf 493e f6bf c9bd 6d88 2a3d
000002d0: 290b 46bd fc12 8cbe c166 5fbe df68 13be
000002e0: 8d84 cc3d 41a7 513e 86e5 533e c34c 613d
000002f0: a49f 8e3c f149 0dbe d718 6f3e 90e7 dc3d
00000300: d75d e2bb c72d 9d3d 1451 8bbe 004f e4bd
00000310: f633 75be de0b d539 417f 4f3d f20c 2fbb
00000320: 1c8e 77bd a298 3d3e 24d4 2e3d f83c 4f3e
00000330: f9e6 6b3e 55e1 f53d 02fb c7bd 3e05 86bd
00000340: 908c 4e3d 85f7 b4bc fbcf 303e ed64 103e
00000350: 1ada 993e c1a0 913d 01ba d7bd 8e07 423e
00000360: 3eb1 71be 2ee9 45bd 885e 3c3e 314f 12be
00000370: 2c9c 0b3e fe6f 0ebe 7450 12be fba5 033d
00000380: 2088 4e3d 4ea8 393e bb9d 1b3e 989c 7b3d
00000390: 56d3 83be 18b0 0b3e 725a 883e 4a6d 983d
000003a0: 35f2 2dbe 3b9c 1cbe c5f4 813e 9d93 16be
000003b0: e371 2ebe f494 36be dc4a de3d 9d8b 6d3d
000003c0: 7191 c83d da34 bbbb d7fd d23d ceee 363e
000003d0: 3f51 72be ef3a 7c3d c579 123d cfbf c53d
000003e0: c305 1dbd a7f2 20be d0f4 b5bd 137f 7a3e
000003f0: e27d e63c c578 2abe b0bf ecba 92c3 2a3e
0.051822893 -0.08108441 0.20464616 -0.31162894 -0.14727762 -0.25430143 0.1751489 0.24989271
-0.19948088 0.19877104 -0.19870128 -0.33550784 0.000813796 -0.030674292 -0.19384949 0.033576865
0.23576441 0.27132568 -0.07168035 0.030147694 0.18058828 -0.027218184 0.10417389 0.057289686
-0.05261605 0.2871611 0.24611224 -0.12152658 0.16378169 0.14850572 0.043488707 -0.10270778
-0.20406763 0.2676912 0.25606424 0.124693036 0.13837585 -0.2388199 0.07491752 -0.16157134
-0.23425093 -0.15594135 0.05449684 -0.07733141 0.008117347 -0.15278453 0.21677248 0.1268191
-0.16533393 0.059587017 0.06320962 0.19771783 -0.14139849 -0.03776341 0.0064288536 -0.02796631
-0.10663603 0.20504315 0.19477864 -0.139983 -0.1240061 0.11714378 0.18648675 0.058494776
-0.13741218 0.063648105 0.16154405 0.002981026 -0.030093763 0.36724764 -0.105449945 0.051665626
-0.07755287 -0.17113408 0.1443268 -0.011047519 -0.011866926 0.20356485 -0.07668199 -0.10875486
-0.18465115 -0.09831784 -0.13552378 0.12020779 -0.046836294 0.10251858 -0.2797456 0.13670683
-0.13507114 -0.059452605 -0.30569708 0.18005429 0.029866055 -0.1811375 -0.18619303 0.13015795
0.101317585 0.20523949 0.013715864 0.14261286 0.12420158 0.1423317 -0.09608518 -0.00039348204
-0.14760172 0.012888015 0.14041112 0.037599728 0.20851287 -0.23561278 0.1630148 -0.046602387
-0.21995483 0.15414588 0.24045688 -0.16421166 -0.104449 -0.018836733 0.18749838 -0.04850711
0.13076714 -0.03899203 0.19318801 0.09748069 0.118099034 -0.052024085 0.08770364 0.28134602
-0.043155972 -0.117746666 0.21845765 0.17879045 -0.04425514 -0.13245495 0.041944172 0.14733745
-0.4236612 -0.077304505 -0.3311464 -0.16278206 -0.14378203 0.098176315 0.15210398 0.14172858
0.19688736 -0.06438225 0.21456604 -0.21644904 -0.19507179 -0.064208835 0.18804948 0.25294486
0.09066506 -0.08211917 0.19087476 0.22394523 -0.24469787 0.051533263 -0.29168254 0.016602082
0.10542273 -0.28656778 -0.17675051 0.06030956 0.11193491 -0.06649196 0.06951985 -0.10012228
0.37461117 -0.1564192 0.27056432 -0.05451036 -0.12635382 -0.3258333 -0.0674425 -0.04160586
-0.27292895 0.19701801 -0.09851067 0.041634012 -0.048350487 -0.27358234 -0.21816541 -0.14395474
0.099862196 0.20473959 0.20693025 0.055004846 0.017410107 -0.13797738 0.2334932 0.107863545
-0.0069081592 0.07674747 -0.27210295 -0.111478806 -0.23945603 0.00040635368 0.05065847 -0.0026710597
-0.06043826 0.18515256 0.04268278 0.20238101 0.23037328 0.12005869 -0.09764673 -0.065439686
0.05042702 -0.022090683 0.17266838 0.14101 0.3004921 0.071107395 -0.10533524 0.18948194
-0.23602769 -0.04831808 0.18395436 -0.14288022 0.13633794 -0.13909909 -0.14288503 0.032140713
0.050422788 0.1813061 0.15196888 0.061428636 -0.25747174 0.13641393 0.26631504 0.0744272
-0.16986926 -0.15293972 0.25382057 -0.14704747 -0.17035632 -0.17830259 0.10854122 0.057994474
0.09793366 -0.0057130875 0.10302322 0.17864534 -0.23663805 0.06157964 0.03576066 0.09655725
-0.038335573 -0.15717565 -0.08884585 0.24462537 0.028136197 -0.16647632 -0.0018062498 0.16676167

functional_13_1/dense_26_1/Add/ReadVariableOp:0 f4 [32]
00000000: 23d3 6cbd 15ff 8a3d b307 233d 62ab 4d3d
00000010: bf06 563d d1f7 233e 735e cd3c 55df 28bd
00000020: 9bed 3c3e fb02 98bc 1b46 d33d 5533 e03d
00000030: bdfa 83bd 3ebe d13d 03d7 b13d 618d 203d
00000040: 5e04 a1bd e547 97bd 8e8b 743d b67c 9d3d
00000050: 903e d43d 8ac0 f43c 65bd 93bc e8dd c2bc
00000060: 45ca 3d3d 0fb6 56bc 89fb 89bc 0065 d73b
00000070: 7837 ea3b 5f34 6fbd bc23 01bd df68 79bc
-0.057818543 0.06786934 0.039802264 0.05021227 0.052252527 0.16012503 0.025069451 -0.04122861
0.18450014 -0.018556109 0.10316106 0.10947291 -0.06444309 0.10241364 0.08683588 0.03919733
-0.07862161 -0.0738676 0.059703402 0.07689802 0.10363495 0.029876966 -0.018034646 -0.023787454
0.046335477 -0.01310493 -0.016843574 0.0065733194 0.0071477257 -0.058399554 -0.03152822 -0.015222757

functional_13_1/dense_25_1/Cast/ReadVariableOp:0 f4 [128, 64]
00000000: 3c2b a4bd 03da 0f3e 0cb5 323e a605 463e
00000010: 222c 933e 9e30 65bc e56e 5c3d d58e e8bc
00000020: f238 123e 6557 1abe 0bc8 2cbe 5a01 dfbd
00000030: 2cb4 263d be24 d03d c885 b73c ded7 2a3e
00000040: 872f 563e e166 11be 3542 9b3d a48b 523d
00000050: ee62 3e3e 0a35 0f3e 3eed c63d 4ab3 4d3e
00000060: 048c c93d 4a60 a93d b686 983c 5c42 9f3c
00000070: 14f4 96bd 0a0a 50be 78c3 1cbe 3590 49bd
00000080: 74a2 52bd 25b2 d1bd 335c e4bd 59e6 d83c
00000090: 1c5e ddbd b9ef e13d 6a8a 593d 261f bdbd
000000a0: d4a2 d0bd 74e8 a4be 7d15 7b3e 1fb2 cc3d
000000b0: c7d2 163e fb9d b53d 581e 583b 5629 27be
000000c0: e273 cdbc 0cf6 e5bd 4a03 b33c 75ec 1e3d
000000d0: 932d dc3c 1443 23be 62cf ac3d 1df7 1bbe
000000e0: 699b ae3d 8c46 623d b50a f83d 5cbb 0a3e
000000f0: 26d7 c13d 47f1 443b 6662 c73d 05b4 1ebd
00000100: b736 07be 1dcb fe3c 2ac4 44be 9d8b 593e
00000110: ba06 ad3d bf82 debd 07a1 27be be94 86bd
00000120: 6c46 1e3d 9957 33bd 7c07 2e3d 76c2 f63d
00000130: 9487 863e 2a3a a3bc eea1 65bd ad87 7dbe
00000140: 38aa e23c 4ffe 62be 34c6 fa3b e9c1 973a
00000150: d14e c33d c666 39bd 863e e73d 3e8f 193e
00000160: b009 ce3d c305 6d3d c8f1 603d b511 4bbd
00000170: d75c 98bd a3cc 243d ac57 5c3d bcf5 37be
00000180: 0c3c 00be 5ba3 87be 49c1 033e 5502 08bd
00000190: 456b 533e b14d 7d3d 35e3 9aba 0967 29be
000001a0: 5c69 e63d 68e8 b0bd 7b05 46be 06d8 ee39
000001b0: 66dc 283e fcea 09be 6135 92be 3228 1cbe
000001c0: 2354 cfbd 6638 bcbd 5b3f edbd d8c2 433e
000001d0: 4dc6 143e 4410 38bc 3a1a 07bd ead0 cb3d
000001e0: 3f74 e83d 8591 72bd 68b4 92bc 0b19 71bc
000001f0: 73af 3abe 9c24 f23d 7853 e8bd 7044 b23b
00000200: 5663 603d f4ca 033e 587d 813a 19ad 54bd
00000210: a661 35bd 4e3a 323e 81aa 5bbd 483c efbd
00000220: 7514 39bc 9a78 de3d 5264 323d feef a1bc
00000230: 593d 683e 5970 06be 62e3 cf3d 00e1 dc3d
00000240: 0ccd 0e3e d431 283e 84df 043c e8ec 0c3e
00000250: dd9f 35be 8e1f d03d b011 4f3e f991 acbd
00000260: b036 853c 8efc d8bc 8b6e 603d 0df0 0cbe
00000270: e960 453d 912e 333e c5dc c13d 62e4 22be
00000280: f57a 163d 97ae 673d b5d0 ba3d c62b ca3c
00000290: 27e4 163e 9833 3abd 33b2 22bd 8599 8a3d
000002a0: bdcf 07bd 772f 1abd 9bc6 d23d 5f0a 9f3d
000002b0: 86ec 323e 464a 16be f083 d43c 793f 16be
000002c0: 3084 9bbb 2665 03be d497 063e dede d2bd
000002d0: aee8 8fbd 6fa7 263d 4781 a2bd d954 8b3d
000002e0: 351d 82bd d210 113d b3fb 393d 454a d93c
000002f0: a69a 68bc 0945 b43d 5f2c debd 1f64 a3bd
00000300: 72b7 0e3d 3073 c63d ec17 ba3d 200d e1bd
00000310: f649 d0bb 6097 72bd d4a4 8f3d e7b5 f4bc
00000320: d83e 283e 03b0 febc 8768 df3d ec3c cabd
00000330: e22f 12bd 8d06 353d 9bf3 e6bd 6326 933d
00000340: 6fb7 093e e28e 99bd 87a6 56bd 4de9 2fbe
00000350: 079f ac3b f441 90bd 0ce7 4fbd cfdc 1dbd
00000360: 5f1b 89bd e4c2 013d c4e6 f0bd d0df 6c3b
00000370: 944d 3fbe 3fb9 36be e51b 393e 2988 c13d
00000380: a68d 233e 995b 62be b288 053e 1ec8 1c3d
00000390: f51b a9bd 7226 663d 7087 2ebe 96fd 5f3d
000003a0: 7fcc 18be 9d3b 30be b955 46be ef4e f7bb
000003b0: 8209 9fbd c6b9 09be 8ac0 873d 299a 40be
000003c0: 3470 cbbd aab8 b13d c4c9 9cbd 4017 223e
000003d0: 79c3 2e3e 4989 2f3e dcc8 593e 62a4 b23c
000003e0: b409 63be b496 443d 782a 073d 07ec a2bb
000003f0: 7e7a 813d 522c e83c 7966 ad3d 7b06 c33d
-0.08016059 0.14048009 0.17451876 0.19338092 0.28744608 -0.013988642 0.053816695 -0.02838842
0.14279535 -0.15072401 -0.16873185 -0.1088893 0.04069917 0.10163258 0.022402659 0.1668391
0.20916568 -0.14199401 0.07580987 0.051402703 0.18592426 0.13985077 0.09713219 0.20087925
0.09841159 0.08270319 0.018618923 0.019440822 -0.07370773 -0.2031633 -0.1530894 -0.049209792
-0.05142446 -0.102390565 -0.11150398 0.026477026 -0.108089656 0.110320516 0.053110518 -0.09234457
-0.10187307 -0.32208598 0.24519916 0.099949114 0.14728843 0.08868023 0.003297707 -0.16324362
-0.025079671 -0.1122857 0.021852154 0.03879972 0.0268772 -0.15943557 0.08437993 -0.15230985
0.08525736 0.05524306 0.12111417 0.13548034 0.094648644 0.003005104 0.09735565 -0.0387459
-0.13204466 0.031102711 -0.19215456 0.21244664 0.084485486 -0.108647816 -0.16370021 -0.06571339
0.03864138 -0.04378471 0.042487606 0.12048809 0.26275313 -0.019925196 -0.05606263 -0.24758787
0.027669057 -0.22167324 0.007653022 0.0011578175 0.095365174 -0.045264028 0.11291222 0.14996049
0.100604415 0.057866823 0.05491808 -0.049577434 -0.07439583 0.04023422 0.053794548 -0.17964834
-0.12522906 -0.26491818 0.12866701 -0.03320535 0.20646389 0.06184167 -0.001181698 -0.16543211
0.112505645 -0.08638078 -0.19338028 0.00045555847 0.16490325 -0.13468546 -0.2855635 -0.15249708
-0.1012347 -0.09190445 -0.1158435 0.19117296 0.1452877 -0.011234347 -0.032983996 0.099519566
0.11350297 -0.05922081 -0.01790829 -0.014715443 -0.18230991 0.11823389 -0.113440454 0.0054402873
0.054782234 0.12870389 0.0009879274 -0.05192289 -0.044282578 0.17405054 -0.053629402 -0.116814196
-0.011296381 0.10862847 0.043552704 -0.019767758 0.22679652 -0.13128795 0.10150792 0.10785103
0.13945407 0.16425258 0.008109931 0.13762248 -0.17736764 0.101622686 0.20221591 -0.084262796
0.016261429 -0.026487615 0.054792922 -0.13763447 0.048188124 0.17498232 0.094659366 -0.15907434
0.036738355 0.056562986 0.09121839 0.024679076 0.1473547 -0.04545936 -0.039720725 0.06767563
-0.0331571 -0.037642922 0.10291787 0.0776565 0.17473039 -0.1467677 0.025941819 -0.1467265
-0.0047459826 -0.12831554 0.13143855 -0.10296415 -0.07026802 0.04068702 -0.07934814 0.06803293
-0.06353227 0.03541643 0.045406055 0.026524672 -0.014197027 0.0880223 -0.10848307 -0.07978081
0.034842916 0.09689939 0.09086594 -0.109888315 -0.006356473 -0.059226394 0.0701386 -0.029871894
0.16430223 -0.031089788 0.10908609 -0.09874901 -0.035690196 0.0441957 -0.11276933 0.07185056
0.1344888 -0.07497956 -0.052404907 -0.17178841 0.005267981 -0.070438296 -0.050757453 -0.038540658
-0.06694674 0.031680003 -0.11762765 0.0036144145 -0.18681937 -0.17844103 0.18077047 0.094497986
0.15972003 -0.22105254 0.13040426 0.038276784 -0.082572855 0.056189008 -0.17043853 0.054685198
-0.14921759 -0.1721024 -0.19368638 -0.0075472514 -0.07765485 -0.13449773 0.06628521 -0.18808807
-0.099335104 0.086778 -0.07655671 0.15829182 0.17066754 0.17142214 0.21268028 0.0218069
-0.2217167 0.047995284 0.032999486 -0.0049719843 0.06322192 0.028341446 0.08466811 0.095227204

functional_13_1/dense_25_1/Add/ReadVariableOp:0 f4 [64]
00000000: a412 e3bd d967 78bd 5cab 193b 0e5d 833d
00000010: 2ccc 193d 9871 75bd b8f4 f2bd 5c74 82bd
00000020: a125 30bc b461 283c 3dcc 4fbd 56ad de3d
00000030: 84cf 483d 97b7 febb 1bef f8bc ba24 8bbc
00000040: 246b d8bd 1f3d e0bc 9b4e 0cbd 8d8b 863d
00000050: efb7 af3d b3b8 8a3d e93b f83d fc51 08bd
00000060: efcf b9bd b638 433d ab33 01bd 059b a4bd
00000070: 42b1 ccbc 74ab 6dbc c3e3 b53d 49da 0fb9
00000080: 7690 543d d245 8ebc eeaa b23c 03c8 81bc
00000090: df6d ed3c 1170 fa3c e56e 023e 7141 a7bc
000000a0: 8f0c 8ebc 4f7d c03d 98cd 863d 3ebf 193d
000000b0: e5ee 193d 66aa e639 5b47 b4bd 554a 1c3d
000000c0: 749d 37bd ed80 16bd 9acb 043d 7172 1f3d
000000d0: 7523 833c 61af c03d 6c05 e93d deaa e23d
000000e0: 0c9d 223c 3aef 9f3d b897 b53c 1c18 84bc
000000f0: 48f2 eebd 0b38 91bb e601 a13d 2c92 82bd
-0.1108754 -0.06064591 0.0023448085 0.06414233 0.03754823 -0.059922785 -0.11863083 -0.0636985
-0.010751159 0.0102772005 -0.050731886 0.10872905 0.049026027 -0.0077733505 -0.030387452 -0.016985286
-0.105673105 -0.027372895 -0.03425465 0.06569586 0.085800044 0.0677351 0.12120802 -0.03328131
-0.09072863 0.047661506 -0.031543415 -0.0803738 -0.024986867 -0.01450621 0.08881333 -0.0001371886
0.05189558 -0.017367277 0.021810021 -0.015842443 0.028983055 0.030571016 0.12737615 -0.020416947
-0.017339973 0.09398901 0.06582183 0.0375359 0.037581343 0.00043995975 -0.088026725 0.038156826
-0.044827893 -0.036744047 0.032420732 0.0389275 0.016008118 0.09408451 0.11377987 0.110677466
0.009925138 0.07809301 0.022167072 -0.016124777 -0.11667305 -0.0044317297 0.0786169 -0.06375536

functional_13_1/dense_24_1/Cast/ReadVariableOp:0 f4 [26, 128]
00000000: d65d 29be dd50 3a3e d0e2 323c 64a3 713d
00000010: acde 533d 352f 24be d0d2 12be b06a b9bc
00000020: 7060 573d c0e0 0f3c e79a 1abe d6f8 853d
00000030: 6ad3 d43d deed d5bd 260e dc3d 541d 423d
00000040: 072a 213e 1748 0b3e a087 0abe 9b37 473e
00000050: 25e5 efbd 9930 1a3e 0205 8b3d a888 08be
00000060: ac44 233d 53e9 133e c718 343e 2985 113e
00000070: 08a0 91bd 7925 2c3e f16b 0e3e 3c97 6abd
00000080: 676c 39be ec6b 26be ee0c b53d f944 063e
00000090: 66f9 a53d a064 8b3c 3f3c 213e 99e7 423e
000000a0: 7a45 b43d 8a3b 10be 366b cb3d 54fa 563d
000000b0: c068 be3c 00f5 e03c dd4b 003e be18 903d
000000c0: 956c 0abe 386e 28bd 8fa6 0f3e d448 1abe
000000d0: ba87 40be 60e6 923c 5aab 8b3d d3ea 0a3e
000000e0: f04e abbd 2140 133e 6034 613c 3a15 a0bd
000000f0: 907d ffbd d059 febc c0f0 d33c 574a ffbd
00000100: a053 aabb 3e94 9b3d aeb3 82bd a927 323e
00000110: f6ae cebd fcfc 07bd b748 adbd 405e 473b
00000120: 9460 413d 2564 15be 6691 d83d c05a 7c3b
00000130: 88f3 563d f0d5 d93c 3014 4c3c 0054 7bbc
00000140: 6a1b d93d 6655 22be b0d4 09bd 068b af3d
00000150: 617c 393e e211 d03d 6015 ab3c 5f24 123e
00000160: 687d 523d f874 90bc 90cb f8bc 4e48 02be
00000170: 001a 6cbc 0034 e63c a8df 3bbe 4f62 453e
00000180: 5af2 bb3d 3ec2 35be 7041 0ebc e873 cbbc
00000190: bd2d f6bd 78bd e33c 4c09 27bd 9a88 c1bd
000001a0: 0aa8 823d ac99 d4bd e9e3 403e a0b8 24be
000001b0: d363 d0bd 2146 253e 2a73 01be 4ccc 31be
000001c0: b4a6 053d 8066 14bb e2b8 f2bd 04a4 bcbd
000001d0: fe45 e93d d147 96bd 31c7 333e 56a4 873d
000001e0: 33ac 9dbd c0ae 89bc 02b7 f43d f87a a53c
000001f0: 7297 d13d 1ed1 1fbe dd4d 0ebe 982f 12bd
00000200: a49d 373c 37be 24be b817 43be 1482 1ebc
00000210: 54ad 54be 9dee 043e ad40 13be 7d61 d53d
00000220: 74b9 933b a91e 723e e71b 1bbe 3309 223e
00000230: acd7 8d3c 52b8 82bd f0ed 7a3e b9a0 053e
00000240: ee50 053e 2597 413e 26bd 72be c89c 2abe
00000250: 86bd 993d 3da2 bb3d d8a6 bbbd 6e6c da3d
00000260: 0282 0b3e 9bc8 903c 3c48 94bc 9bbe 3c3e
00000270: b244 a2bd 65b5 813d 5ffd 01be 31fc f2bd
00000280: 4b28 273d d839 a53d 6eb2 2dbd fe76 0abe
00000290: 8649 47be 4544 24be 475e 2a3c ca17 febc
000002a0: baa5 d33d b830 143e 1201 0a3e 1922 fe3d
000002b0: 6ed8 36be 545c 11be 0937 c03d 7514 b8bd
000002c0: 6855 b83d 0dec 0d3e 7e1a 3abe 6a7e 733e
000002d0: 7f75 d83c 78b9 de3c ec8f 1dbd bf89 073e
000002e0: bb93 1c3e 73eb 1d3d fbd8 21bd 8658 453d
000002f0: 626b 12be 1224 9bbd b918 60be ffee 0dbe
00000300: 1e55 2b3d 307f 36bd 686b 3e3e b9b1 1a3e
00000310: 4ead 813e a267 333d 602a a53b b3d1 7abe
00000320: 9bcc 13be 8f48 ac3d fb13 3d3e 0ffc b2bd
00000330: cd0e bdbd fa28 8d3e 6536 5d3e 8e74 04bc
00000340: bc99 0f3e ad15 143e fbf4 06be 4d7b 2c3e
00000350: 9b00 8cbd 8ed1 7dbe 42de 643e a99b b13d
00000360: b45f debd 62eb 473d 2131 a5bd 944f 14be
00000370: a3bf 06be 9b2e 80bc 8ef3 193e 23b2 b03d
00000380: 2197 4c3e 0f58 2b3e 2c30 973d 8378 d9bc
00000390: 9703 d4bd 58cc 1dbe 9830 343d 5676 2cbe
000003a0: 5e3e bc3d f04a 99bd 35b5 87bd 93a5 a7bd
000003b0: 7997 133e d491 063d 7d86 9c3d 8a65 a6bc
000003c0: 5daf cabb c84c 36be cd6a 523e 7d2d 13be
000003d0: f64d 813e 99d8 b23d 31f6 8e3c 2eae fb3d
000003e0: 08cd 0dbe 821f ccbb 6277 0fbd 4eea aabc
000003f0: 1292 50be 5afe eebc 5a7b 92bd 7283 123e
-0.16539702 0.1819491 0.010918334 0.058993712 0.05172603 -0.16033633 -0.14338231 -0.02263388
0.052582204 0.008781612 -0.15098153 0.06541602 0.103918865 -0.1044576 0.10744886 0.04739125
0.15738688 0.13601719 -0.135283 0.19454806 -0.11713628 0.15057601 0.067880645 -0.1333338
0.039860412 0.14444475 0.17587577 0.14210953 -0.07110602 0.1681117 0.13908364 -0.057273135
-0.18107758 -0.16252106 0.08840357 0.13112248 0.081042096 0.017015755 0.15745638 0.1903366
0.08802314 -0.14085212 0.09932558 0.052484825 0.023243308 0.027460575 0.1252894 0.07035969
-0.13517983 -0.041120738 0.14028381 -0.15066844 -0.18801776 0.017932117 0.06819792 0.13566141
-0.083646655 0.14379932 0.013745397 -0.07816549 -0.12475121 -0.031048685 0.025871634 -0.12465351
-0.005197957 0.07596634 -0.063819274 0.17397942 -0.10091965 -0.03320025 -0.08461135 0.0030421168
0.047211245 -0.14588983 0.105746076 0.003850624 0.052478343 0.026591271 0.012455985 -0.015339851
0.10600932 -0.1585289 -0.0336501 0.085714385 0.18113853 0.10159661 0.020884216 0.14271687
0.051389128 -0.0176339 -0.030370504 -0.12722895 -0.014410496 0.028100967 -0.18347037 0.19275783
0.09177084 -0.17749879 -0.008682594 -0.024835542 -0.12020443 0.027800307 -0.04078035 -0.09449883
0.06379707 -0.10380873 0.18836941 -0.16086054 -0.1017529 0.16140033 -0.12641588 -0.1736309
0.032629684 -0.0022644103 -0.1185167 -0.09210971 0.11390303 -0.07337917 0.17556454 0.066231415
-0.0769886 -0.01680696 0.119489685 0.020200238 0.10233964 -0.15607116 -0.1389689 -0.03568992
0.011207018 -0.16088186 -0.19052017 -0.009674568 -0.20769244 0.12981649 -0.1438014 0.10418985
0.0045081917 0.23644508 -0.15147363 0.15823822 0.017314754 -0.063828126 0.24504828 0.13049592
0.13019153 0.18905313 -0.23704967 -0.1666137 0.07506852 0.09161804 -0.09162682 0.106652126
0.13623813 0.017673781 -0.01810085 0.18432085 -0.07923259 0.063334264 -0.1269431 -0.11864508
0.04080991 0.080676734 -0.042406492 -0.13521954 -0.1946164 -0.16041668 0.010398454 -0.031017203
0.10334344 0.1447171 0.13476971 0.12408847 -0.17855999 -0.14195377 0.09385497 -0.08988277
0.09000665 0.13859577 -0.18174168 0.23778692 0.026423214 0.027188048 -0.038467333 0.1323614
0.1529073 0.03855462 -0.03951357 0.048180126 -0.14298776 -0.07575239 -0.21884431 -0.13860701
0.04182922 -0.04455489 0.1859566 0.15106858 0.25327533 0.043800004 0.005040452 -0.24494056
-0.1443352 0.08412277 0.18464653 -0.087394826 -0.09231339 0.27570325 0.21602781 -0.008084429
0.14023489 0.14461394 -0.1317939 0.1684391 -0.06836053 -0.2478697 0.2235041 0.08672268
-0.10858098 0.048808463 -0.08066011 -0.14483482 -0.13159041 -0.015647223 0.15034315 0.08627727
0.19979526 0.1673281 0.07382235 -0.026546722 -0.10352247 -0.15409982 0.043991655 -0.16842017
0.09191583 -0.07484996 -0.066263594 -0.08185878 0.14413251 0.032853916 0.07642839 -0.02031209
-0.0061854557 -0.17802727 0.20548554 -0.14372821 0.25254792 0.08732719 0.017451378 0.122890815
-0.13847744 -0.006229342 -0.03502596 -0.020863678 -0.20368221 -0.029174019 -0.07152434 0.14307955

functional_13_1/dense_24_1/Add/ReadVariableOp:0 f4 [128]
00000000: fd60 5c3d f187 77bd 28e4 753d f85f 5b3c
00000010: 3193 28bd dee1 493d 36e5 75bd bb56 95bd
00000020: 6842 e6bc 30fd 85bc 9e86 e23c 91ba 02bc
00000030: d575 063c 0000 0000 dede c7bb cae2 75bd
00000040: 32ee e8bc c339 78bc 3509 43bd e4b2 173d
00000050: 21e9 843d f580 d13a d429 bc3d 0000 0000
00000060: 4c52 843d 460f 963b 52ca a33d 0000 0000
00000070: 15af 96bd 3ab5 abbc c9e5 4f3d 9948 0abc
00000080: 09ec e1bb a38b d2bc 3566 9a3c 6a1f 2f3d
00000090: e6f4 89bd 378f 133d 351f 113d 9a92 80bc
000000a0: 07cf 003e 4750 b93b 0d51 2c3d b3fa cb3c
000000b0: 0000 0000 a5ca 5abd 7bc6 003c 0000 0000
000000c0: 3bd1 0bbc 1514 97bd e6ee cd3d e56e 56bd
000000d0: ecd7 903d 5686 bd3c dc97 63bd e0e6 3c3d
000000e0: beb8 c7bd c644 69bb 191a de3d e451 0f3d
000000f0: 0000 0000 506e 323d 129d 893d 4768 a0bd
00000100: 587b 2bbd 1503 62bd 5bd2 b83d 9897 633d
00000110: b24a ae3d 9954 d3bd 0000 0000 b8e3 75bd
00000120: 0000 0000 acb1 fb3b 4a74 1b3d d0aa 8e3b
00000130: 69e5 75bd 1c89 88bc f492 713d 1d39 893d
00000140: 8abe 283c bfd7 3fbd edb9 c6bd fa22 60bb
00000150: 95f3 373d d825 1bbc fbe1 8a3d 1e23 4a3b
00000160: ab75 ae3d 47e7 eabd 0000 0000 0421 873b
00000170: e7d5 623d be4f da3b 2d45 f43b dbe5 1dbe
00000180: e1c4 e93d 8891 023d 389c a63c 2b12 d5bd
00000190: 4158 ac3d f27c 133d 0000 0000 9cdf fc3d
000001a0: 6675 6d3d 3030 5d3d 4e34 44bd 1f77 62bc
000001b0: 2809 25bb 0712 6cbd f494 fd3c 245e 723d
000001c0: 123e b23c 0000 0000 0ea4 b83c 0000 0000
000001d0: f4bf dd3d a2ba 813a 88f0 813c 653b bb3d
000001e0: f8fe da3d e8e5 eb3c 0438 e1bd 366e 04be
000001f0: e292 a83c f11e aa3d 582f 8dbd ba4c 3ebd
0.053803433 -0.06043238 0.06003204 0.01338958 -0.041155998 0.04928767 -0.060033046 -0.07291933
-0.028107837 -0.01635608 0.027652081 -0.007979051 0.008206804 0.0 -0.006099566 -0.060030736
-0.028433893 -0.01515049 -0.047616202 0.037035838 0.06489778 0.0015983867 0.091876656 0.0
0.064610094 0.0045794575 0.07997574 0.0 -0.07357613 -0.020960439 0.05075625 -0.00844016
-0.0068945927 -0.02570135 0.018847564 0.04275457 -0.06736164 0.036025252 0.035430152 -0.015694905
0.12578975 0.0056553218 0.042069484 0.024899816 0.0 -0.053415913 0.007859821 0.0
-0.008533771 -0.07376877 0.10055332 -0.05235185 0.07072434 0.023135345 -0.055564746 0.046118617
-0.09752034 -0.003559397 0.108448215 0.034990206 0.0 0.043562233 0.06719412 -0.07832389
-0.041865677 -0.05517872 0.09024497 0.055564493 0.08510341 -0.1031887 0.0 -0.060031623
0.0 0.0076810922 0.0379527 0.0043538585 -0.060033236 -0.016666941 0.058978036 0.067003466
0.010299334 -0.04683661 -0.09703431 -0.0034200535 0.044910032 -0.009469472 0.067813836 0.0030843685
0.08518537 -0.11469894 0.0 0.004123809 0.055379774 0.006662338 0.0074545355 -0.15419714
0.11414505 0.03187707 0.020338163 -0.10403856 0.084152706 0.03600783 0.0 0.123473376
0.057973288 0.054001033 -0.047901444 -0.013822346 -0.002518246 -0.05763438 0.030954815 0.05917181
0.021758113 0.0 0.022539165 0.0 0.10827628 0.000989754 0.015861765 0.09142188
0.10693163 0.028796151 -0.10997012 -0.12932667 0.020577852 0.08306683 -0.06893796 -0.04645989

functional_13_1/batch_normalization_20_1/batchnorm/sub:0 f4 [32]
00000000: d3ab 12be d0dc 27be 6b9c 3cbe 2c40 ebbe
00000010: a29b f7bd d804 09bf b2b2 25be 7adc f9be
00000020: ab36 fdbe b404 6fbe 11eb 2bbe 8471 06be
00000030: 2efc e0be 6824 febd 9d86 69be f4b6 39be
00000040: 7d27 3cbe ff72 d6be 0c7b fabe ea2d 07bf
00000050: 6b92 12bf bd5f 03bf 90fe 1ebe 6916 13be
00000060: c659 abbd 7203 02bf fdba 20be 0562 26be
00000070: 7e36 0bbf 5c1e 19bf 374b fabe e91e 09bf
-0.14323358 -0.16392827 -0.18419044 -0.45947397 -0.120902315 -0.53523016 -0.16181448 -0.48801023
-0.4945577 -0.23341638 -0.1678889 -0.1312924 -0.43942398 -0.12409288 -0.22805257 -0.18136197
-0.18374439 -0.4188461 -0.48922002 -0.52804434 -0.57254666 -0.5131796 -0.15526795 -0.14364018
-0.08366732 -0.5078651 -0.1569633 -0.16248329 -0.54380023 -0.5981195 -0.4888551 -0.5356279

functional_13_1/batch_normalization_20_1/batchnorm/mul:0 f4 [32]
00000000: 9dc5 2a3f 9fde e03e 7250 0b3f 60a4 543f
00000010: 1a5b 413f bc72 603f 9ed7 403f 9cb8 163f
00000020: 3f5d 643f 4807 3e3f 9224 443f 80d0 5a3f
00000030: 196d 523f b854 343f 841d 2b3f 850c 3c3f
00000040: 3be3 3b3f 95ba 6d3f 46a1 fa3e ba5d 163f
00000050: 3a61 673f 58fb 373f 8e5c da3e 19ad 383f
00000060: 4389 513f e62a 4b3f dd9b 073f bfd0 493f
00000070: 2ccb 6a3f 3202 843f e820 4e3f 2028 203f
0.66707784 0.43919846 0.54419625 0.83063316 0.75529635 0.8767507 0.75329006 0.5887544
0.8920478 0.7422986 0.766183 0.85474396 0.8219772 0.7044177 0.6684191 0.73456603
0.733936 0.92862827 0.48951167 0.58736765 0.9038273 0.71867895 0.4264874 0.72139126
0.8185007 0.7936233 0.52972203 0.78834146 0.91716266 1.031317 0.8051896 0.62561226

functional_13_1/batch_normalization_19_1/batchnorm/sub:0 f4 [64]
00000000: 0e77 06bf 90b2 8cbe ed10 cfbe 358b d9be
00000010: 435e cdbe ea18 12bf 440c 65be 88e3 d5be
00000020: abc4 e8be 0f94 e1be c1cc a6be 5050 07bf
00000030: 7445 edbe f1b0 b6be 6a4c b5be 6cf9 d4be
00000040: a0e0 07bf f263 b2be 4284 0bbf 2576 9ebe
00000050: 6870 bcbe 2cb2 13bf 4e32 c5be 2a59 babe
00000060: ae84 1dbf c077 e0be 248a d4be c2e0 f9be
00000070: 2827 d0be e05d abbe a0d8 ccbe 9557 bdbe
00000080: d352 d7be f4d8 02bf d434 4fbf 7fbf c8be
00000090: b48a 17bf 4c9d b8be e42e 07bf 6c8a bdbe
000000a0: 192d c5be 106b d0be fe96 cabe e6a1 c8be
000000b0: 0003 1cbf fd76 e9be f2e0 71be ead4 17bf
000000c0: 8ce0 d7be 1f97 dbbe 137e 08bf dc43 b9be
000000d0: adf7 f3be e487 20bf 55d9 10bf a9f0 16bf
000000e0: 1799 d3be 2145 d6be d834 03bf 4506 05bf
000000f0: cbcb c5be 7d91 a8be 2ead b9be 6be2 cbbe
-0.52525413 -0.27479982 -0.404426 -0.4248902 -0.40110978 -0.57069266 -0.2236796 -0.41775155
-0.45462546 -0.44058272 -0.3257809 -0.5285692 -0.4634205 -0.3568187 -0.35409862 -0.41596544
-0.53077126 -0.34841877 -0.54498684 -0.30949512 -0.3680451 -0.57693744 -0.38514942 -0.36396152
-0.6153058 -0.43841362 -0.41511643 -0.4880429 -0.40654874 -0.33470058 -0.40009022 -0.36980882
-0.42055377 -0.51112294 -0.80939984 -0.392086 -0.5919602 -0.36057508 -0.52805924 -0.3701967
-0.3851097 -0.40706682 -0.39568323 -0.3918602 -0.6094208 -0.45598593 -0.23620966 -0.59309256
-0.42163503 -0.42888734 -0.53317374 -0.36184585 -0.476499 -0.6270735 -0.5658162 -0.5896097
-0.41327736 -0.41849616 -0.5125251 -0.5196269 -0.38632044 -0.329235 -0.36264938 -0.3982118

functional_13_1/batch_normalization_19_1/batchnorm/mul:0 f4 [64]
00000000: f227 753f 3aaa 423f b138 7d3f 8866 4b3f
00000010: 853e 693f 828e 4a3f 80a1 173f e5f6 463f
00000020: 0ec9 623f fc88 8d3f c668 403f 32f6 6e3f
00000030: 4496 523f 1472 803f f3c9 8b3f 8f7e 6f3f
00000040: d24c 793f 5cce 263f d423 833f 623d 123f
00000050: afec 293f 5bb6 6d3f 330d 4e3f 7144 493f
00000060: a0e4 593f d78b 4e3f c361 843f 955d 5a3f
00000070: 730d 2e3f 42e9 543f 0cc7 5e3f 0604 443f
00000080: f477 753f b076 473f a888 593f 9635 7b3f
00000090: ffe3 703f c678 313f 77f9 463f a6d4 513f
000000a0: 4c4a 773f ac8c 023f 1c39 663f 1b47 353f
000000b0: 7d54 553f 76b5 333f 891c 8e3f 94eb 383f
000000c0: 0bfe 043f 2e89 233f 5169 583f b070 623f
000000d0: 3270 823f 0698 3e3f 1f97 533f c85e 713f
000000e0: d7d1 493f 6d92 893f b5ab 3c3f 24d5 553f
000000f0: aa47 773f d6d6 1e3f 4689 113f becb 7c3f
0.95764077 0.76040995 0.9891463 0.79453325 0.9111102 0.791237 0.59230804 0.7772048
0.88588035 1.1057429 0.7515987 0.93344414 0.8226054 1.0034814 1.0921005 0.9355249
0.97382843 0.6515863 1.0245309 0.5712491 0.66376776 0.9285638 0.8048889 0.7862006
0.8511448 0.8068213 1.0342335 0.85299045 0.6798927 0.83168423 0.8702247 0.7656864
0.9588616 0.7791548 0.84974146 0.9812864 0.94097894 0.6932491 0.77724403 0.819651
0.96597743 0.509959 0.8993089 0.70811623 0.83332044 0.7019876 1.1102458 0.72234464
0.5195014 0.63881195 0.845357 0.884532 1.0190489 0.7445072 0.8265247 0.9428525
0.78835815 1.0747811 0.73699504 0.8352835 0.96593726 0.62046564 0.5685009 0.98748386

functional_13_1/batch_normalization_18_1/batchnorm/sub:0 f4 [128]
00000000: d841 953c 743f 783d c015 1fbe 9886 cebd
00000010: cb1d 6abd f4fd 79be 3ff1 68bd ca73 7ebe
00000020: 1ea1 2a3d dcc0 fbbd 4026 aa3b de62 10be
00000030: 50cd e6be 03e1 81bd a369 3ebe df3e 9f3c
00000040: 5469 82bd fa1e 52bd 1393 093d 0097 0abe
00000050: ebed 91be bc93 713d e7cb b1be 293b 273d
00000060: 920c 59be 59d1 cdbd 5c4f d8be e111 7e3d
00000070: f80e 3f3d 2f44 32bd d8e4 a7be 8640 dcbe
00000080: adc3 f5be 2471 57bd c6a1 17be aa66 12be
00000090: c262 483d a87d 1f3c 6356 61be 905c 2dbe
000000a0: 6e29 90be 9268 dfbd db60 5dbe ded5 71bd
000000b0: 6f1a 16be 6e66 d8bc 9206 04bc 9f41 5abc
000000c0: d843 17be 2e07 61bd 54ba 91be 3813 67be
000000d0: 97e7 9fbe d1d3 3ebe 8c30 8bbc 3355 a4be
000000e0: db61 303d 9027 27bc 5604 58be d4d8 94be
000000f0: cc10 a9bd a45e d43c ed09 23be 01d8 61bd
00000100: ce3f f8bd bbe8 9abc f202 bcbe 341e adbe
00000110: 9c37 a4be 74d1 fb3c 3d2a 19bd bb7c b53d
00000120: 9e70 2c3c 6a27 33be d8c1 3fbe 8f6d 16be
00000130: 87c8 823c ca28 37bf c2fa 26be ec5d abbe
00000140: c0ed b0be 2246 c9bd 7863 893d 0b7c 0bbe
00000150: 87a4 27be 4452 40be 0889 67be a578 96bd
00000160: 6450 e2be 0338 59bb 07dd 6e3c ea41 aabd
00000170: 595a 92be a8f7 21be 7b92 3bbf 797c 6dbe
00000180: c09d cebe c10d 2fbe c835 48be 8c8f fbbd
00000190: 586c abbe 311c b9be 90e4 c0bd 5f28 68be
000001a0: 893b 31be c45e 2fbe 1740 973d b833 0abe
000001b0: 471c 0fbd 5970 5fbd 1f2c 86be 6dde 31be
000001c0: cf69 bfbe 6137 a03c 2a58 28be c782 68bc
000001d0: a2d3 1ebf 88a2 debc 9698 45be 68e5 cdbe
000001e0: c4bc 46be 1435 cdbe 886b 853b fcf7 e23d
000001f0: 057b 9ebd 2af0 88be 8502 b2bd 304d 46bc
0.018219873 0.06060739 -0.1553564 -0.100842655 -0.05715732 -0.24413282 -0.056870695 -0.24848858
0.04165756 -0.122926444 0.005192548 -0.14100215 -0.45078516 -0.06341746 -0.18594985 0.019439159
-0.06367746 -0.051299073 0.033587527 -0.13534164 -0.2850183 0.05897878 -0.34725878 0.040827904
-0.21196201 -0.100496955 -0.42248046 0.06202877 0.046645135 -0.043522056 -0.3279178 -0.43017977
-0.4800085 -0.052598134 -0.14807805 -0.14296976 0.048922308 0.009734549 -0.2200561 -0.16929841
-0.28156608 -0.10908617 -0.21618979 -0.05904185 -0.14658521 -0.02641603 -0.008058207 -0.013321309
-0.14771974 -0.054938488 -0.2846247 -0.22565925 -0.31231377 -0.18635489 -0.016990922 -0.32096252
0.043062072 -0.0102023035 -0.21095404 -0.29071677 -0.08255157 0.025924034 -0.15921755 -0.055137638
-0.12121545 -0.018909803 -0.36720997 -0.33812106 -0.32073677 0.030739523 -0.037393797 0.08861681
0.010524897 -0.17495504 -0.1872629 -0.14690231 0.01596476 -0.71546614 -0.16306594 -0.33470094
-0.3455639 -0.0982783 0.06708425 -0.13621537 -0.16371356 -0.18781382 -0.22610867 -0.0734723
-0.44201958 -0.0033144958 0.014579064 -0.08313353 -0.28584555 -0.1581713 -0.73270386 -0.23192014
-0.4035473 -0.1709509 -0.19551766 -0.12283239 -0.33481097 -0.3615432 -0.09418595 -0.2267165
-0.17307867 -0.17125994 0.07385271 -0.13496292 -0.034939077 -0.054550502 -0.26205537 -0.17370005
-0.37385413 0.019557657 -0.16439882 -0.014191336 -0.62041676 -0.02717711 -0.19296488 -0.40214086
-0.19407946 -0.40079558 0.0040716566 0.110824555 -0.07738308 -0.2674573 -0.08691887 -0.012103364

functional_13_1/batch_normalization_18_1/batchnorm/mul:0 f4 [128]
00000000: e56f bf3f 50e2 b83f b04c b13f b50f be3f
00000010: c268 d63f 038c cb3f f0a6 b33f 8707 c73f
00000020: 123b ba3f 5836 b23f 0aef c33f 9466 d13f
00000030: 344c b43f fb1f bf3f 390f aa3f 83ac b33f
00000040: 3e37 bd3f 9dbd c93f a179 c33f 197b c73f
00000050: 8e46 b63f 31e4 ab3f 27c0 ae3f fb1f bf3f
00000060: 2266 ad3f 3007 c73f 18c2 bf3f fb1f bf3f
00000070: d738 b73f efec bf3f 2836 c43f d92c c03f
00000080: ff35 bd3f 162d bf3f 4158 be3f 5fb9 ac3f
00000090: 38be ce3f 09c7 bb3f be6f b23f 6ac6 c53f
000000a0: 7d6d b03f cc45 c93f 8f6a b93f 96cb bb3f
000000b0: fb1f bf3f 5a05 b03f 447a a33f fb1f bf3f
000000c0: 578a d03f 3f0c ba3f 848a b33f f2a5 b53f
000000d0: b397 be3f 5950 c13f 168a b43f b6d1 b23f
000000e0: bd0a b83f 1583 b23f 50e4 b93f f290 cc3f
000000f0: fb1f bf3f c814 b33f 079c c03f e0b2 b03f
00000100: eb05 bf3f 7492 ad3f c44c aa3f 3c85 ba3f
00000110: 7bd8 ca3f 299d aa3f fb1f bf3f 76a7 b33f
00000120: fb1f bf3f cc3b c33f c147 b43f 9588 c73f
00000130: b1a6 b33f c5f9 cc3f 53c2 ae3f 2dbb ba3f
00000140: 9781 ce3f fc8e c13f d91e ad3f 4699 b53f
00000150: c140 c33f d1d5 b23f 4048 b53f 8b1a ca3f
00000160: 824c ac3f 51e4 ae3f fb1f bf3f dc12 bf3f
00000170: 77fe c33f fe75 a63f d5ac cc3f 11bd b63f
00000180: 4322 d33f 07ac be3f c44b d43f ecc9 bb3f
00000190: b9f7 c33f bba2 bc3f fb1f bf3f 4550 cb3f
000001a0: 5007 d23f 453b b33f 6672 b53f 4179 c13f
000001b0: dfba cf3f db8f c23f c3d6 b23f feb9 c03f
000001c0: f448 c63f fb1f bf3f f059 b53f fb1f bf3f
000001d0: 955a bf3f 302e a53f 72da cd3f 603c a23f
000001e0: 5ba4 b23f 0543 cf3f 1a61 c43f 5003 c13f
000001f0: c27b b63f fba0 c53f dde6 b73f 00b9 c73f
1.4956023 1.4444065 1.3851528 1.4848543 1.675072 1.5902103 1.403532 1.5549172
1.4549277 1.3922834 1.5307324 1.6359429 1.4085755 1.4931635 1.3285896 1.4037021
1.4782484 1.576099 1.5271493 1.5584441 1.4240282 1.3429013 1.365239 1.4931635
1.3546793 1.5549068 1.4981108 1.4931635 1.4314221 1.4994181 1.5329027 1.5013686
1.4782103 1.4935634 1.4870683 1.3494071 1.61518 1.4670116 1.3940351 1.5451176
1.3783413 1.5724425 1.4485644 1.4671504 1.4931635 1.3751633 1.2771688 1.4931635
1.6292218 1.4534987 1.4026647 1.4191267 1.4890045 1.5102645 1.410464 1.3970249
1.4378277 1.3946253 1.45228 1.5981734 1.4931635 1.3990717 1.5047616 1.3804588
1.4923681 1.3560319 1.3304677 1.457191 1.5847315 1.3329211 1.4931635 1.403548
1.4931635 1.5252624 1.4084398 1.5588557 1.4035245 1.6013724 1.3653053 1.4588372
1.6133298 1.512176 1.3525039 1.41874 1.5254136 1.3971502 1.4162674 1.578935
1.3460848 1.3663427 1.4931635 1.492763 1.5312032 1.3004758 1.5990244 1.4276448
1.6494831 1.4896249 1.6585622 1.4670997 1.5309974 1.4737161 1.4931635 1.5883871
1.6408482 1.4002463 1.4175537 1.5115129 1.6228904 1.5200151 1.397179 1.505676
1.5491014 1.4931635 1.4168072 1.4931635 1.4949518 1.290472 1.6082289 1.2674675
1.3956407 1.6192328 1.5342133 1.5079136 1.4256518 1.5439752 1.4367329 1.5603333
