models/Sl_Konjice/speed/Sl_Konjice_speed_model.onnx (onnx, 61201 bytes, 13 tensors)

functional_13_1/dense_27_1/Cast/ReadVariableOp:0 f4 [32, 1]
000000 94 f9 d8 bc 2b 81 2a 3e 2b 63 f5 bc e9 22 fb bc
       -0.026486196 0.16650836 -0.029954514 -0.030656295
000010 b3 6d 92 bd 8e 68 9f bc 9f d9 c8 bc 1f eb 8f bd
       -0.0714983 -0.019459035 -0.024517832 -0.07027268
000020 35 c2 33 3d 39 d9 bc bd 42 9b 87 bd 81 46 35 bc
       0.043886382 -0.092211194 -0.0662141 -0.011064173
000030 bd ad bf bd 74 bb 14 3e 2f 6d b5 3d 6b de d1 3c
       -0.0935931 0.14524633 0.08858716 0.025618752
000040 5c 2e 5b 3d 0e 64 bd bd 18 61 b5 3c 67 98 85 bc
       0.05351101 -0.092475995 0.022141024 -0.016308023
000050 d0 82 97 bd dc 44 72 3b 5a 09 39 3e 19 57 17 be
       -0.073979974 0.0036967313 0.18069974 -0.14779319
000060 d7 e7 4b 3c f4 d3 7d bd e2 19 86 3c bb f7 42 bc
       0.012445412 -0.061969712 0.016369764 -0.011899884
000070 6a e4 a0 bc 2e 40 d4 bc 32 a1 46 3c f5 5c a5 bd
       -0.019640166 -0.02590951 0.012123393 -0.08074371

functional_13_1/dense_26_1/Cast/ReadVariableOp:0 f4 [64, 32]
000000 29 51 59 3e d5 42 6d be c7 2a 58 be e6 1f 68 3e
       0.21222366 -0.23170026 -0.21110068 0.22668418
000010 b7 6c 6b be d9 0b 59 3d ce d0 21 3d b7 10 9a be
       -0.2299069 0.052989814 0.039505772 -0.30090877
000020 61 52 12 3d f8 89 f2 3b ae 65 31 be 19 22 7a be
       0.035723094 0.007401701 -0.17323944 -0.2442707
000030 6c 28 18 be 26 f6 38 be f6 3e 67 3d 6e f8 cd bd
       -0.1485917 -0.18062648 0.05645653 -0.1005715
000040 87 c3 1d 3e 6d cd 5a be bd 41 a5 3d 76 a5 7e ba
       0.15406619 -0.21367426 0.08069179 -0.00097139867
000050 32 4f 6d bc 31 03 5d 3e f4 c6 a2 bd c8 3f 39 3e
       -0.014484214 0.21583249 -0.079481035 0.18090737
000060 97 d6 ff bc ef d0 96 be 22 d6 1f bd ef db c7 3d
       -0.031230254 -0.2945628 -0.039022572 0.09758746
000070 82 29 0a 3e 80 8f 92 3e c9 71 13 3e c3 e1 af 3c
       0.13492396 0.28625107 0.14398874 0.021469956
000080 3f ce 62 3d ec 61 c5 bd d7 9d 52 be ea 2c f8 bc
       0.055372473 -0.09637818 -0.20568024 -0.030294854
000090 36 b6 e3 3d 69 0b 66 3d 8e f3 3b be 4f 94 1e be
       0.11118738 0.056163225 -0.18354627 -0.15486263
0000a0 2e fb c0 bd 20 d3 04 3e 51 45 9a bd 85 40 9d 3e
       -0.09422909 0.12971163 -0.07532752 0.30713287
0000b0 d1 d4 0a 3e b9 ed 8f 3e a7 2c 14 3e 5a 98 58 3e
       0.13557746 0.28111055 0.14470159 0.21151868
0000c0 68 dd ad bd 29 b1 26 3d 09 6c 86 bd 89 4a f0 bd
       -0.084894955 0.040696297 -0.06563575 -0.117329665
0000d0 9c 51 44 3e 62 39 39 bd 65 1d 3c bc b4 db 57 3d
       0.19171757 -0.04522074 -0.011481618 0.05269976
0000e0 7d 90 d9 3d 0b aa 53 be 85 e2 7d 3e c6 fb 75 3d
       0.10623262 -0.20670335 0.24793442 0.060054563
0000f0 5e 65 d2 3d 44 99 81 3c 9f 4b 9b 3c 65 ae 95 3d
       0.102732405 0.015820153 0.018956957 0.07308654
000100 22 f4 df bd a0 ce a4 3c 8b ea 6e 3e af 6d 89 bd
       -0.109352365 0.020118058 0.23331659 -0.067103736
000110 e7 62 7c be 73 58 4d 3e 57 37 2d 3e 88 cb 2f bd
       -0.24647103 0.20053272 0.16915642 -0.042918712
000120 ef e4 8d be 42 b6 a9 3d 40 54 0e be f3 38 2f be
       -0.27713725 0.08286716 -0.13899326 -0.17111568
000130 d3 22 4c 3e 28 dd 35 3c ff 55 03 be f3 8f a9 bd
       0.1993516 0.011100091 -0.12825774 -0.08279409
000140 bc 78 33 3e 2a f2 13 3e 35 4a 9d 3e 5f 35 5d be
       0.17526525 0.14447847 0.30720678 -0.2160239
000150 4b de 48 bd 31 05 6e 3e 09 a4 16 3e d1 5c 66 3e
       -0.04904012 0.23244168 0.14711012 0.22496344
000160 42 3f 31 be e4 6e 8f be e9 4b 0b 3d 1e 85 8a 3d
       -0.17309287 -0.2801429 0.03400794 0.06763671
000170 cf 75 02 bc f0 39 56 bd 94 58 f1 bd e1 d8 8f bd
       -0.007962658 -0.052301347 -0.11784473 -0.07023788
000180 5f 4a bf 3e 29 4d 34 be c9 f0 36 3e 92 2c 1c 3e
       0.37361428 -0.1760756 0.1786529 0.15251377
000190 dc 10 33 3e b6 b7 3d be 24 d8 48 be 93 5f 45 3a
       0.174869 -0.18527111 -0.19613701 0.0007529195
0001a0 93 d2 8f 3e 57 b9 be bc 84 6d 66 be 81 3e cb 3d
       0.28090343 -0.023281736 -0.22502714 0.09924031
0001b0 a6 07 4f 3e 3b 45 cf 3d d6 0a 89 be 61 03 b0 bd
       0.20217761 0.101206265 -0.2676608 -0.085943945
0001c0 6b d6 2f be c9 80 31 be f1 67 32 bd 35 93 02 3b
       -0.17171638 -0.17334284 -0.043556157 0.0019924168
0001d0 24 ac 57 3d 99 a3 8a 3c 6e 10 da bd f1 da e2 bd
       0.0526544 0.016923713 -0.10647665 -0.11076916
0001e0 71 bc 0c be 58 51 47 3d c1 9d ff 3c 5d 3f 16 be
       -0.1374376 0.04866156 0.031203153 -0.14672609
0001f0 52 0b 80 3c f0 36 4d 3e 95 93 63 3d ab 96 98 be
       0.015630398 0.20040488 0.055560667 -0.2980245
000200 32 f0 f9 3d 5f 7c 45 be 8b 8a 4c 3e 7f 74 99 3e
       0.12204017 -0.19285725 0.19974725 0.29971692
000210 64 2b dd 3d 1b 45 76 be b8 d3 5b be 99 bc 2a 3e
       0.10799292 -0.24049799 -0.21467483 0.16673507
000220 3a 17 00 be 23 d5 a3 3b 2d fb 93 bd 6b 01 95 bd
       -0.1250886 0.004999773 -0.07225642 -0.07275661
000230 24 4a f4 bd 0e b2 6c 3e bb c9 9d bd af 69 a7 be
       -0.11928204 0.23114797 -0.07704493 -0.32697818
000240 e0 11 95 3e fe c2 f5 bd de 61 2f be 9a f0 27 bd
       0.291152 -0.120000824 -0.17127177 -0.04100094
000250 c3 8d 90 3d 73 f8 ab bb db b3 e7 3d 50 97 ec bd
       0.07058289 -0.0052481233 0.113136016 -0.11552298
000260 d9 7d 05 3e 46 40 89 3d 1d 54 1f be e7 e6 d8 bd
       0.13036288 0.06701712 -0.1555943 -0.10590916
000270 ea a0 e0 bc b9 84 57 3d 49 df 75 be 71 e8 ac be
       -0.02742048 0.05261681 -0.24010958 -0.3377109
000280 f4 0c 1f 3e a1 bf cc bd 0f cd 04 3e ce 61 69 3e
       0.15532285 -0.09997488 0.12968849 0.22791216
000290 b8 a5 81 be c5 b0 0b 3c 03 fa 15 be d7 62 f1 3d
       -0.25321746 0.008526032 -0.14646153 0.1178643
0002a0 3e cf 32 3d 7c 88 9c 3d ea 44 4b be 05 19 53 be
       0.043654673 0.0764322 -0.19850507 -0.20615013
0002b0 51 46 8f 3d ee e5 c1 bd 04 1b 97 be ec 8c 8e bd
       0.06995834 -0.09467684 -0.295128 -0.069604725
0002c0 f5 0f 46 be 91 93 e3 3d d5 e0 52 3e 4f ff d7 bd
       -0.19342025 0.111121304 0.20593579 -0.10546743
0002d0 13 25 67 be dc 54 11 3c 21 f2 f0 bd 8e 3c 03 be
       -0.22572736 0.00887033 -0.117649324 -0.12816069
0002e0 f9 4b 4c be 01 99 ca 3d 7a 4c 98 3d f3 bd ef 3d
       -0.19950856 0.098924644 0.07436462 0.11706152
0002f0 cd bf 9a 3d fb 1a 6b 3d 7b c1 45 be 48 69 d3 bd
       0.07556114 0.057398777 -0.19312088 -0.10322815
000300 eb c9 0a be e4 c2 b0 3d 7f 73 e3 bd ea 6d 7c bd
       -0.13553588 0.086309224 -0.111060135 -0.06162826
000310 f0 3d 76 bd 8e 97 a7 3b 35 3a 4d 3e 08 a7 3b 3d
       -0.060117662 0.0051145023 0.20041735 0.04581359
000320 d2 39 3c be 23 8f 97 3c df 7c 26 be 94 cb 5b be
       -0.18381432 0.01850087 -0.16258572 -0.21464378
000330 96 87 0b 3d 9e 4c 43 3e d9 bc 1c be 6f 2c 86 be
       0.03406485 0.19072196 -0.15306415 -0.26205775
000340 ff f7 15 bd 6c 01 c7 bd 78 33 24 3e 69 86 68 3d
       -0.03661346 -0.09717068 0.16035259 0.05676881
000350 dc c9 c5 bc 9e 45 23 be 81 91 81 bd 5e 76 6f be
       -0.024144106 -0.15944526 -0.06326581 -0.23384997
000360 d1 d5 8d 3e 35 2b 5b be b7 ba 3e 3e d9 d9 74 bd
       0.2770219 -0.21403201 0.18625914 -0.05977807
000370 41 ad a2 3e 3c b8 ba bc 0d 51 41 3c 9d 31 f9 bb
       0.31772807 -0.022792928 0.011799109 -0.0076047913
000380 66 2c 91 3e d7 8c 85 3c 8b 6e 8e 3d 58 4f 8f 3b
       0.28354186 0.01630251 0.06954678 0.004373472
000390 f0 22 21 be 63 ff 61 3e 5f 76 84 3e 54 fc 2e be
       -0.15735984 0.22070079 0.2587156 -0.17088443
0003a0 0d c9 11 3c e5 20 0c 3d 59 b2 4e be 62 26 98 bd
       0.008898032 0.03421106 -0.20185222 -0.07429196
0003b0 5e 30 52 3d 1f 73 17 3e e6 8b 4a be 24 9a 5d 3e
       0.051315658 0.14790009 -0.1977993 0.21640831
0003c0 5b 43 c4 3c be 42 66 3e 88 df 7d be ec e2 60 3e
       0.023957899 0.22486398 -0.24792302 0.21961564
0003d0 0b 24 1a be 6b dc af 3d e0 b1 74 bd 76 43 70 3d
       -0.15052812 0.08586963 -0.059739947 0.058658086
0003e0 c5 99 4c 3d d7 9b 11 3e 30 b1 b7 3d 98 b2 56 bd
       0.049951334 0.14219604 0.08969343 -0.052416414
0003f0 cc 57 dc 3d e4 b5 d4 3c 11 8f 1d 3c 20 67 ff bd
       0.107589334 0.025965638 0.009616629 -0.124708414

functional_13_1/dense_26_1/Add/ReadVariableOp:0 f4 [32]
000000 86 7e 5f 3c ff ee 01 bd 94 b5 d0 bd e8 9c f7 bd
       0.013641005 -0.031722065 -0.10190883 -0.12090474
000010 95 dd d1 bd 74 ae 83 bb ad 38 12 3e 7b 02 2b 3d
       -0.102473415 -0.004018599 0.14279433 0.041750412
000020 90 5d d8 3c 4f 52 2b bd d8 98 a5 bb 85 f6 3d bd
       0.026411802 -0.041826542 -0.005053621 -0.046377677
000030 9e 73 c6 3d 4c 44 e4 3a 6e 5e fb 3c 73 f3 9e bd
       0.09690021 0.0017415374 0.030684676 -0.07761278
000040 3b 0c a9 3d b6 ce 88 3d 1f 3f 7b bd 62 35 f6 bc
       0.08254286 0.06680052 -0.061339494 -0.030054752
000050 bd 82 73 3d 9c 2b 51 3d b0 50 9d bd 54 77 45 bd
       0.059450854 0.05106698 -0.076814055 -0.048209503
000060 c3 e0 81 3d 79 70 3f bd 79 d5 b5 bc 6f a3 44 bd
       0.06341698 -0.04673812 -0.022196518 -0.048007425
000070 80 bc f2 bd 5a 3e b9 3d ff 7c 04 ba e5 de 50 3d
       -0.1185236 0.09045096 -0.0005054026 0.05099382

functional_13_1/dense_25_1/Cast/ReadVariableOp:0 f4 [128, 64]
000000 b2 e1 a3 bd 16 17 d0 3d 35 e4 f1 bd cd ce 43 bd
       -0.08002032 0.10160653 -0.11811105 -0.047804642
000010 96 8b 27 be fd 1b 8f 3c 36 9f fd bd 1a e5 8e bc
       -0.16361842 0.0174694 -0.12383883 -0.017443229
000020 f6 c2 26 bd 59 e8 04 3e b9 af fb 3d 37 9a 30 3e
       -0.040713273 0.12979259 0.12289376 0.17246328
000030 2f ae 12 be 4d 6f 66 be e1 db ca bc d0 4c c7 bd
       -0.14324258 -0.22503395 -0.02476305 -0.09731448
000040 b2 c3 b3 3c bc 45 21 3e 49 15 e3 bc 51 0a 02 3e
       0.0219439 0.15749258 -0.02772011 0.12699248
000050 ad bf c2 3c be 21 8c 3d 8a 55 52 be 2f c8 15 3e
       0.023773039 0.06842373 -0.20540443 0.14627145
000060 53 ee f9 3d 53 2f af 3d 94 01 ce 3d 2e 4d df bd
       0.1220366 0.08553948 0.10058895 -0.10903393
000070 ad 8d c0 bd df e0 4c be 7c 59 9d 3d 61 6b 03 3e
       -0.094020225 -0.20007657 0.076830834 0.1283393
000080 0c 61 0c bc 20 aa af bc 4b 49 66 3e 66 75 b0 3d
       -0.00856806 -0.021443427 0.22488897 0.08616142
000090 60 7a 03 3d f7 75 d1 bd 34 69 5a be 7c 28 30 3e
       0.032099128 -0.10227578 -0.21329194 0.17202944
0000a0 e7 09 6e bd f3 c8 86 bb 8d 5f 27 be 13 6c 46 be
       -0.058114912 -0.0041133105 -0.16345043 -0.19377165
0000b0 9f 9e 2a 3e 3e 6c 94 3d 10 80 6e be c6 0a 1b 3e
       0.16662072 0.07247208 -0.2329104 0.15140828
0000c0 42 40 af 3c 7d 42 c2 3d 59 e2 5a 3e 29 73 85 bd
       0.021392945 0.09485338 0.21375407 -0.06516106
0000d0 a1 b1 8f 3d a4 51 ab bd fd 05 08 bb b6 7d 3e 3e
       0.07016302 -0.08365181 -0.0020755522 0.18602642
0000e0 a5 96 36 3e 20 34 fe 3d 2e 17 16 bd e7 32 3e be
       0.17830904 0.12412286 -0.0366432 -0.18574105
0000f0 45 cd 7a 3d 5a 07 56 3d a9 23 2c 3e 43 c1 e5 bd
       0.061230917 0.052253105 0.16810478 -0.11218502
000100 15 d2 fc 3c 99 ec ee 3d 39 c7 7b be 17 aa 90 3c
       0.030861894 0.11666221 -0.24587716 0.01765923
000110 6f 77 7f 3d a8 26 76 3d f0 88 1d be 4f e8 f3 bd
       0.06236976 0.06009546 -0.15384269 -0.11909544
000120 ba 43 b7 3d 85 fe 6b be 81 4b 56 3d ae 57 e4 3d
       0.08948465 -0.2304631 0.0523181 0.11149536
000130 98 35 7a 3c 9d bd 52 3e 29 9e 31 be 33 d3 00 3d
       0.015271567 0.20580144 -0.1734549 0.031451415
000140 c0 6a 8f 3d ab 97 12 be 66 08 37 be 56 ed 38 be
       0.07002783 -0.14315669 -0.17874297 -0.18059286
000150 6d 5c 31 be 83 4c 48 3e 74 78 0f 3e 46 89 5a 3e
       -0.17320414 0.19560437 0.14010793 0.21341428
000160 3f 9a 76 3d e6 a9 36 be 0c 7f ce 3d e9 05 f1 3d
       0.060205694 -0.17838249 0.10082826 0.117687054
000170 9e 16 29 3d fd f6 80 3d b4 d6 69 3c 36 06 42 bd
       0.041281335 0.06297109 0.014272381 -0.047369204
000180 d6 99 01 bd 4a 09 13 be 56 42 b5 3d 9d 5d 03 3c
       -0.03164085 -0.14359012 0.08850543 0.008017925
000190 64 d8 c1 bd 18 da 0f 3e 85 fd 79 3e 99 e3 f8 bd
       -0.09465101 0.1404804 0.24413116 -0.12152786
0001a0 76 81 f3 bc 4b 39 74 bd 01 58 ae 3d 43 af 05 3e
       -0.029724818 -0.05962495 0.08512879 0.13055138
0001b0 ea 21 5d 3d 42 2f f5 3d d8 14 5a 3c 24 a1 d5 bd
       0.05398742 0.11971904 0.013310634 -0.10431126
0001c0 f4 74 57 bc b2 46 91 3d 4c 36 28 be b2 78 1e bd
       -0.013150442 0.07093562 -0.16426963 -0.038689323
0001d0 7d af 0f 3e 41 9c 32 be d1 5e 04 be 75 10 f1 3d
       0.14031787 -0.17442419 -0.12926795 0.11770717
0001e0 07 08 a0 bd b7 2e 25 bd b8 b7 70 3e e3 c8 25 3d
       -0.07814031 -0.040327754 0.23507583 0.040474784
0001f0 da 3c 98 bd 60 27 74 3a 88 71 8e bd 3e 9a 39 be
       -0.074334815 0.00093137287 -0.06955248 -0.18125245
000200 cb b5 40 be 2e e5 48 3e 61 23 e9 3d 8a 33 02 3c
       -0.18819349 0.19618675 0.11383701 0.007946858
000210 59 6c 45 3e 42 9e 1f 3d 36 8f 2f 3d 3e f2 5b be
       0.19279613 0.038969286 0.042861186 -0.21479127
000220 79 1c 6f 3e e5 a6 ad bd e6 ed 21 3d 01 38 a3 3d
       0.23350705 -0.08479098 0.03953352 0.07969666
000230 57 55 66 bd 4e c7 b4 bd 7e fe 3a bd e9 a9 fd 3c
       -0.05623373 -0.08827077 -0.04565286 0.030964809
000240 8d 7d 21 bd 26 36 54 be 12 78 be bd f0 51 19 3d
       -0.039426375 -0.20723781 -0.09300245 0.037431657
000250 c1 96 18 3e 49 6d 0e 3e e4 91 0b 3e 3f cf 5b bc
       0.14901258 0.13908876 0.13629872 -0.013416111
000260 7b da 73 3e 47 d0 33 be 7e e6 bd 3d b9 6d 4c bd
       0.23813812 -0.1755992 0.092724785 -0.049909327
000270 94 53 ba b9 a4 8c 1e 3d 22 82 f6 3d 51 31 84 bd
       -0.00035538955 0.038708344 0.120365396 -0.06454719
000280 06 8b de 3c 11 43 78 be 96 cf 8e 3d 5f fa b6 bc
       0.0271659 -0.24244334 0.069731876 -0.022336183
000290 72 62 96 bd cb e2 e5 3c ed 8e e5 3d 0a fd 37 3e
       -0.07342996 0.028062245 0.112089016 0.1796762
0002a0 e4 33 9c 3c c4 f7 42 3e aa 67 79 be db 23 1e be
       0.019067712 0.19039828 -0.24355951 -0.15443365
0002b0 d8 b5 51 3e 7d d7 38 be 11 12 d9 3d 67 be 24 be
       0.20479524 -0.18050952 0.10599149 -0.16088258
0002c0 f2 4b d2 3d 9f 48 77 be 17 52 a3 bc 3a 0f 2f 3e
       0.10268392 -0.24148796 -0.019936604 0.17095652
0002d0 1e 4c 45 3e 1d f5 40 3d 23 d9 3b be 35 bc eb 3d
       0.19267318 0.04710876 -0.1834455 0.11510507
0002e0 e3 82 6a bd bc 45 eb bd f2 80 43 3d e2 5c bb bd
       -0.05725373 -0.1148791 0.047730394 -0.09148575
0002f0 15 45 d2 3c 2a 54 52 3d eb d2 12 3d 3f 6d d2 bd
       0.025667707 0.051349796 0.03584568 -0.10274743
000300 74 7e 82 3d b6 d0 f1 3d 04 2e c1 3b bd 60 0e 3e
       0.06371775 0.118073866 0.005895378 0.1390409
000310 26 8f cc bc 9c 7b 29 3e b2 ea 50 3e aa 63 1b be
       -0.024970602 0.1655106 0.20402029 -0.15174738
000320 46 55 10 be 50 fb 7f bd 08 0c b4 bd cd d1 b2 bd
       -0.14095029 -0.06249553 -0.08791357 -0.087314226
000330 a7 ac 13 3e ec 31 88 3c 4e 65 2b 3e 62 2d 36 3c
       0.1442133 0.016625367 0.16737863 0.011119219
000340 94 2d 1f be 31 c4 86 bc 89 04 82 3d 7f f5 4c be
       -0.1554473 -0.016450973 0.06348521 -0.20015524
000350 ae 01 9c bd ad 8c 83 3b 66 8a 42 3d ea 2a cc 3c
       -0.07617508 0.0040145726 0.04749527 0.024922807
000360 f3 cf fe bd b9 b4 91 bd 64 5b 34 3e 77 93 9f 3c
       -0.12442007 -0.07114548 0.17612988 0.019479496
000370 47 a5 9b 3c e0 d1 00 3e 83 23 30 3d 19 ff b4 bd
       0.018999709 0.12580061 0.043002617 -0.088377185
000380 48 ad 34 3e 6a 92 1f 3c 9d 39 1d be cf 29 13 be
       0.17644227 0.009739498 -0.15354009 -0.14371417
000390 f1 79 ea 3d 1e 47 cb bc 4d 73 8b bc 8a 51 32 bd
       0.1144904 -0.024814185 -0.017022753 -0.043534793
0003a0 db 70 35 bd ac 04 0a be 1a 8a ba 3d 61 1c be 3c
       -0.04429708 -0.13478345 0.09108372 0.023206891
0003b0 89 d8 7b 3b f6 64 0b be 2d be 33 3d 53 8b 96 3d
       0.0038428626 -0.13612732 0.043882538 0.07350793
0003c0 f5 3c 3e 3e 10 96 96 bc 4f 4a 43 3c dc 02 1a 3c
       0.18577941 -0.018382102 0.011919572 0.009400096
0003d0 c3 b5 92 be cf 81 a7 bd fd 5a 5c bd fb f4 8a bd
       -0.28654298 -0.08179056 -0.05379771 -0.067850076
0003e0 16 07 4d be 4a b5 a2 3c ca 10 37 3d 12 7a 81 be
       -0.20022234 0.019861836 0.044693746 -0.25288445
0003f0 59 60 6e 3d 2f 75 bc 3a 36 4c e3 bd 2a 0b 1e bd
       0.058197353 0.0014378185 -0.110985205 -0.038584866

functional_13_1/dense_25_1/Add/ReadVariableOp:0 f4 [64]
000000 dd a2 ed 3c de be 91 bd 00 b3 e0 bd d3 39 6b bd
       0.029008323 -0.07116483 -0.109716415 -0.057428192
000010 79 f4 2e 3e d9 9b 2f 3e 7b 77 6d 3c 25 f9 c1 bd
       0.17085446 0.17149295 0.014493818 -0.09471349
000020 d1 60 b3 3d ac 52 c1 3d 65 96 10 3e 18 ed a5 3d
       0.08758701 0.094395965 0.14119871 0.08101863
000030 3e f6 b4 3d c7 b9 9a 3d 8f 5c 24 3d 85 55 89 bd
       0.088360295 0.075549655 0.040127333 -0.06705765
000040 da 25 f9 bc 2d 54 c8 bc 56 ef 91 bd 02 bf 19 bd
       -0.030413557 -0.0244542 -0.07125728 -0.037535675
000050 98 e5 ad 3d 20 85 ee bc fe 1b 4e bb 0a 36 fe 3d
       0.08491057 -0.029116213 -0.003144979 0.12412651
000060 71 45 21 bd e4 6a e8 bb 59 c3 ab 3d cc 99 4d 3d
       -0.039372865 -0.0070928205 0.08386869 0.0501955
000070 9d ee 9f bc a2 32 dd bd 42 64 77 3d 35 51 e6 bb
       -0.01952296 -0.10800673 0.060398348 -0.0070287236
000080 3b 27 e8 3c c9 ca 33 bd da 88 22 3e 62 cc a9 3d
       0.028339019 -0.043894563 0.15872517 0.08290936
000090 b4 91 aa bd c4 ed 2d 3d 7a 54 b0 3d 07 71 1d be
       -0.08328572 0.04246308 0.086098626 -0.15375148
0000a0 f9 e2 d4 3d 67 14 b8 3d ef ed 8c bd 0e f7 df 3d
       0.10394854 0.089882664 -0.0688132 0.10935794
0000b0 81 da e3 bc b5 a6 d9 bd 35 0b 18 bd e1 4f 7f bd
       -0.027814152 -0.106275 -0.037120063 -0.062332038
0000c0 16 5e f8 3b 31 0b 95 3c f2 4d 37 bd 90 ce ca bd
       0.0075795753 0.018193813 -0.04475207 -0.0990268
0000d0 eb 3a 69 3d 7f aa 9c bd 25 42 f4 3c d5 a7 cc 3c
       0.056940954 -0.07649707 0.029816696 0.024982372
0000e0 0d 16 8f 3d 48 5c 7c bd 08 55 bc 3d 5c f7 16 bd
       0.06986628 -0.061611444 0.09195906 -0.036856994
0000f0 ae 43 9f 3c 87 c2 b9 3d 29 3a 61 bc 6a 02 fb 3d
       0.019441452 0.09070306 -0.013746777 0.1225632

functional_13_1/dense_24_1/Cast/ReadVariableOp:0 f4 [26, 128]
000000 a0 fe 41 be 9a 93 28 be 2c 72 02 3d 79 ff a5 bd
       -0.18944788 -0.16462556 0.031847164 -0.08105368
000010 b4 12 76 bd e6 38 8f bd 54 f6 6a 3d 26 f1 b2 3d
       -0.06007643 -0.069932744 0.057363823 0.08737402
000020 26 f1 d5 3d c0 e3 6b bc 58 c6 2b be 5c 29 0f 3d
       0.10446386 -0.014397562 -0.16774881 0.034951553
000030 38 81 ea 3c 50 de 49 be 2c 25 5e 3d 7a bb d7 bd
       0.02862607 -0.19713712 0.05423467 -0.10533805
000040 51 0b 38 be 98 39 a1 3c 72 4f ce 3d 4f eb d3 bd
       -0.17973067 0.019680783 0.10073747 -0.10347616
000050 64 16 0e 3d a6 8d 99 3d 62 54 18 be 47 c8 04 3e
       0.034689322 0.074977204 -0.1487594 0.12967025
000060 d8 80 60 bd bf 61 3f be 7c df 77 3d c0 f4 ef 3c
       -0.054810375 -0.18689631 0.060515866 0.02929151
000070 0c 21 58 3d 54 67 3a bd 6c f1 21 bd 02 4a e8 3d
       0.05276589 -0.045508698 -0.03953688 0.11342241
000080 3a c7 13 be 1a d6 b7 3d 3b e8 03 3e a8 c2 12 3d
       -0.14431468 0.089763835 0.12881558 0.03583017
000090 74 ba 27 3d d6 f0 ac 3d 14 79 39 bd 12 eb 98 3d
       0.0409493 0.08444373 -0.045281485 0.07466711
0000a0 74 6d 77 3d 76 11 eb bd 80 b7 91 bb 21 ce 11 3e
       0.060407117 -0.1147794 -0.0044469237 0.14238788
0000b0 63 3e 3c 3e 3f 11 9f bd e0 8a d6 3b bc 96 9a bd
       0.18383174 -0.07766961 0.006547317 -0.075482816
0000c0 56 e3 ba 3d 9e 65 3c be 59 ae 19 3e f7 0f 01 be
       0.09125392 -0.18398139 0.15007915 -0.12603746
0000d0 e0 0c 98 3b ee 80 e7 3d 6d 9e 2d 3e a1 56 38 3e
       0.0046402067 0.11303888 0.16954966 0.18001796
0000e0 00 bc f5 bb 0c 85 5d bd e4 7b 07 bd 7f ec 34 3e
       -0.007499218 -0.05408196 -0.033077136 0.17668341
0000f0 7b 5e ea bd 48 db 90 bd 1d b9 2a 3e 54 43 47 3d
       -0.11443802 -0.070730746 0.16672178 0.048648193
000100 62 aa ee 3d 88 26 12 be 70 05 0a be 6a 51 90 3d
       0.11653592 -0.14272511 -0.13478637 0.070467785
000110 2e a3 07 be 9a 74 97 3d 27 bd 1d be 64 6f d2 bd
       -0.13245842 0.07395287 -0.15404187 -0.10275152
000120 03 0b c9 bd ca 3a e0 3d 74 ce 17 be d6 84 37 be
       -0.098165534 0.10948713 -0.1482485 -0.17921767
000130 b1 d8 40 be 05 84 34 3e 08 ac cc bd 90 11 84 3c
       -0.18832661 0.17628486 -0.0999375 0.016121656
000140 06 6a d3 3d cc 7c 76 3d 86 da e3 3d bc 83 54 3d
       0.10322957 0.06017761 0.111256644 0.051883444
000150 b5 bc 2f 3e 0f a9 09 3e 22 5c e4 3d 72 04 08 be
       0.1716183 0.13443397 0.111503854 -0.13282946
000160 5c 28 46 be 66 f3 ff 3d 46 2f aa 3d bf b5 25 be
       -0.19351333 0.124975964 0.08309798 -0.16182612
000170 c4 0e 0a be 8f e8 2d 3e e0 73 e1 3b c0 bd bd 3b
       -0.13482195 0.16983245 0.0068802685 0.005790442
000180 38 f5 ef bc e1 94 3c 3e 30 91 de 3c 6c cb 05 3d
       -0.029291734 0.18416168 0.02716884 0.0326647
000190 06 e9 dc 3d 86 3e c2 3d 16 e2 a5 bd 70 ed 4e 3d
       0.10786633 0.09484582 -0.08099763 0.050519407
0001a0 09 12 26 3e 4d 17 b6 bd 42 b4 fe 3d 5e 39 b5 3d
       0.16217817 -0.08891163 0.12436725 0.088488325
0001b0 70 65 33 be b4 df 78 3d e0 cb 0b 3d ec e2 64 bd
       -0.17519164 0.060760215 0.034129977 -0.055880472
0001c0 5f d5 2f be f0 0f 89 bc 48 63 50 bd 10 17 3d 3d
       -0.17171238 -0.016731232 -0.050875932 0.046164572
0001d0 00 58 cc b9 ab 3b 0e be 00 c5 dd 3a aa a4 36 be
       -0.00038975477 -0.13889949 0.0016919672 -0.17836252
0001e0 b5 fb 26 3e 3e 7d 05 be 7c fe 77 bd d0 6f 34 3d
       0.16306956 -0.13036057 -0.06054543 0.044051945
0001f0 c4 73 02 be 1f c6 c5 bd 2c b2 d4 bd 28 45 52 bd
       -0.12739474 -0.09656929 -0.10385546 -0.051335484
000200 ad f6 3c 3d fb 08 7c 3e cc 3d 6d be 87 ce 75 3d
       0.046133686 0.24612801 -0.23168105 0.060011413
000210 01 d9 01 be ad 6c 80 3b af 55 e0 bd b6 d5 f5 3d
       -0.12680437 0.003919205 -0.10953843 0.12003653
000220 07 14 06 be a7 b2 5c be d7 d7 8a bd 27 8e 48 3d
       -0.13093577 -0.21552525 -0.067794494 0.048963692
000230 c5 57 0b be 35 ea c8 bd da 71 51 3d 55 3b fe 3c
       -0.136077 -0.098102964 0.051133968 0.031034151
000240 ef 40 d1 bc 38 cb 3a 3e 94 5c a6 3d 68 8c 2c bd
       -0.025543658 0.18241584 0.081231266 -0.04212609
000250 e8 14 0e 3e 02 b8 af 3d 37 f0 f1 bd d1 89 34 3e
       0.13875163 0.085800186 -0.118133955 0.17630698
000260 a9 cc 5d 3d e0 3b b8 3d 40 ce c8 bd d8 5e 49 bd
       0.054150257 0.08995795 -0.09804964 -0.049162716
000270 45 35 44 be 00 9d 59 bd 56 5e 2c 3e fe 48 f5 bd
       -0.19160946 -0.053128242 0.16832861 -0.11976813
000280 82 70 07 3e 41 2a 05 be 99 98 aa bd 93 dc 1f bc
       0.13226512 -0.130044 -0.08329887 -0.009757179
000290 db 70 86 3e 98 04 16 3e 19 f7 2f be 73 53 ad bd
       0.26257977 0.1465019 -0.17184104 -0.08463182
0002a0 40 19 8e be fc 30 2f be 87 33 77 3e c3 50 fd bd
       -0.2775364 -0.1710853 0.2414075 -0.1236892
0002b0 bd 9d 21 be 6c 36 01 3c ee df ff 3d 9b 93 bc 3d
       -0.15782829 0.00788651 0.12493883 0.09207841
0002c0 4a a3 1e 3c b5 1c 20 3e c7 f3 03 be cc 31 b9 3b
       0.009682486 0.15635951 -0.12885962 0.005651688
0002d0 97 5b 33 bd e2 b1 9f 3d 67 af 14 3d c6 8f a2 3e
       -0.04378852 0.077976 0.03630009 0.31750315
0002e0 58 8d 9d bb ab af 0a 3e 85 cb da 3d 46 2a 68 bd
       -0.0048081093 0.13543575 0.106833495 -0.05668094
0002f0 85 2b da bc b7 c9 c7 bb fc 21 64 3e 71 7e ef bd
       -0.02663208 -0.0060970443 0.22278589 -0.11694039
000300 64 3e ac bd 78 15 e4 bd 0d ce d5 3d 0b 10 1c 3e
       -0.084103376 -0.11136907 0.10439692 0.15240495
000310 15 e8 0a bd cf 1b 0a be 7b e0 37 3c 2f 5b 84 3d
       -0.033912737 -0.1348717 0.011222954 0.064627044
000320 81 08 3d be 26 f1 70 bd da fa 6b bd 7d 9c 32 be
       -0.18460275 -0.058823727 -0.057612278 -0.17442508
000330 28 38 7b 3e e4 89 9f 3d f8 13 b4 3d 6f 55 e1 ba
       0.2453314 0.077899724 0.08792871 -0.0017191599
000340 c9 82 9b 3d f7 56 ec 3c 3d 9e f6 3d 40 49 9d bd
       0.07593305 0.028850062 0.120419 -0.07679987
000350 d7 3d 6e bd 9b cc 0a 3e 28 d8 77 be 6b fd 4c 3d
       -0.058164444 0.13554613 -0.24203551 0.050046366
000360 32 06 a5 3c f6 f5 18 3d c8 e3 fc bc c8 88 55 be
       0.020144556 0.03734394 -0.030870333 -0.20852959
000370 29 a0 20 3d 85 01 17 be 7f f5 77 be e0 19 f2 bb
       0.03921524 -0.14746673 -0.24214743 -0.0073883384
000380 1a 9a d9 3c 0d b3 05 3e c1 74 38 be 79 60 3a 3e
       0.02656274 0.13056584 -0.18013288 0.18200864
000390 4a 2d ab bd e9 d0 ef 3d 7b c7 93 3c 0d b3 c5 3d
       -0.083582476 0.11709768 0.018039456 0.09653292
0003a0 10 b9 10 3d db 6a 64 3e 5d 77 27 3e 49 c4 5a be
       0.03533274 0.22306387 0.16354127 -0.2136394
0003b0 2c fa 79 bd 08 3e ef 3d e1 79 88 be 01 1b 7b be
       -0.061029598 0.116817534 -0.26655486 -0.2452202
0003c0 5e f1 04 be cf a3 0f be 4b 17 83 be 9d b5 4e bc
       -0.129827 -0.14027332 -0.2560371 -0.012616542
0003d0 d3 6d cd 3c a0 a4 75 3c 4c c8 35 3d 2e f9 7c 3e
       0.025076782 0.014992863 0.04438047 0.2470443
0003e0 7a 75 0a 3e af f2 57 3d 44 91 1f 3d 74 b3 2e bd
       0.13521376 0.052721675 0.038956895 -0.04265161
0003f0 e6 a8 97 bc f2 71 67 bd 8f 84 3d 3e 7c c3 ca bc
       -0.018513154 -0.05650515 0.18507598 -0.024751417

functional_13_1/dense_24_1/Add/ReadVariableOp:0 f4 [128]
000000 e7 a9 f7 3d cd 9c d9 ba 60 e4 de 3d cb 99 d2 bd
       0.12092953 -0.0016602516 0.10883403 -0.1028324
000010 4c e5 75 bd 7e 3c 41 bb 00 00 00 00 f6 12 48 bd
       -0.060033128 -0.002948552 0.0 -0.048846208
000020 01 c0 61 3d fa c3 3f 3c a4 d7 ae 3c d9 03 ab bd
       0.05511475 0.011704439 0.02134306 -0.08350343
000030 54 e5 75 bd d1 45 9f 3d 1a e5 75 bd 73 10 91 3d
       -0.060033157 0.07776988 -0.06003294 0.070832156
000040 d6 67 7b 3b c7 98 ab 3d 84 14 c1 3d a6 1b 9c bd
       0.0038361452 0.08378749 0.09427741 -0.07622461
000050 d9 39 38 3d 00 00 00 00 56 ac a6 bd fe a3 49 bd
       0.044977043 0.0 -0.08138339 -0.04922866
000060 2e 52 93 3d df e2 75 bd 21 26 c1 bd 86 74 9f 3c
       0.07193409 -0.060030814 -0.09431101 0.019464742
000070 e8 d5 ac bd 00 00 00 00 d3 cf 4f bd 46 f9 8f 3d
       -0.08439237 0.0 -0.050735306 0.07029967
000080 f7 f1 7e bb 00 00 00 00 fd 28 f5 bd 8f 39 cd 3d
       -0.0038901547 0.0 -0.119707085 0.10020744
000090 58 1b be 3a b0 5d e4 3c 00 00 00 00 20 df 6e 3d
       0.0014503999 0.027876705 0.0 0.058318257
0000a0 e2 71 80 bd 00 00 00 00 8c 25 48 bd 00 00 00 00
       -0.062717214 0.0 -0.048863932 0.0
0000b0 f2 35 3a be 08 05 bd ba 00 00 00 00 e6 80 a4 bd
       -0.18184641 -0.0014421055 0.0 -0.08032398
0000c0 d9 b0 c5 3d e8 c0 36 3b 4a 06 ca 3c 4c 5d dc 3b
       0.09652872 0.0027885977 0.024661202 0.006724989
0000d0 13 e5 75 3d 9a 93 71 3c 81 a2 2c 3c 62 d4 94 3d
       0.060032915 0.014744664 0.010536791 0.07267071
0000e0 40 87 0f 3d b3 76 53 3d 9d b6 52 3c 4c 66 27 3d
       0.035041094 0.051626872 0.012860921 0.040869042
0000f0 c6 f4 ca bd 97 cb b2 bd c5 a6 00 be 52 57 2b bd
       -0.09909968 -0.08730238 -0.12563618 -0.041831322
000100 0f 68 b9 3d 00 00 00 00 60 74 46 bd 81 2b b9 bc
       0.09053051 0.0 -0.048450828 -0.022603752
000110 22 d4 c2 3d 63 b3 5b 3d 89 fa c7 3d 84 75 15 bd
       0.095131174 0.053637873 0.09764583 -0.036489025
000120 5c 39 67 3d 5b 4c a9 3b 6d 63 1d 3d 00 00 00 00
       0.056451187 0.005166573 0.038424898 0.0
000130 29 95 2c 3d a7 4f 28 3c 3c e0 be 3c e6 22 90 bd
       0.042134438 0.010272897 0.023300283 -0.07037906
000140 f1 0e ab 3d f7 c6 00 3d 83 1a b1 3d 82 83 78 bd
       0.08352459 0.031439748 0.08647635 -0.06067229
000150 11 aa b9 3d de 8f 5a 3d 1d d8 7f bd 2e 21 fb bc
       0.09065641 0.05335986 -0.06246196 -0.03065547
000160 a5 41 98 3d d5 05 d0 3c 00 00 00 00 1b bd eb bd
       0.07434396 0.025393406 0.0 -0.115106784
000170 cd e3 9e 3d 00 00 00 00 01 30 9f bd 00 00 00 00
       0.07758293 0.0 -0.07772828 0.0
000180 b7 a1 9a 3c 00 00 00 00 89 a4 4b 3d cf cb 47 bd
       0.01887594 0.0 0.04971746 -0.04877835
000190 1b 1e 20 3d 77 e4 75 bd 5d e3 d5 bc 7b e4 75 3d
       0.03909121 -0.060032334 -0.026109392 0.06003235
0001a0 00 00 00 00 e3 53 a5 3d 46 ff 49 3d 74 e5 75 bd
       0.0 0.08072641 0.049315713 -0.060033277
0001b0 30 55 c0 bd ab f0 78 3d a6 b7 36 3d 40 37 e9 bd
       -0.09391248 0.060776394 0.044608735 -0.11387491
0001c0 00 00 00 00 e3 3e 2b bc c8 84 26 3d 22 a4 58 3d
       0.0 -0.010452005 0.040653974 0.052890904
0001d0 91 bc b3 bc 00 00 00 00 00 00 00 00 0e 63 15 bd
       -0.021940501 0.0 0.0 -0.03647142
0001e0 a0 72 11 bb fc 79 fd bd 85 c6 69 3d 00 00 00 00
       -0.0022193566 -0.12376782 0.05707409 0.0
0001f0 67 fc e2 3d df f6 bf 3c bb 25 67 3d 0b 30 dc 3a
       0.11083298 0.023433147 0.056432467 0.0016798986

functional_13_1/batch_normalization_20_1/batchnorm/sub:0 f4 [32]
000000 c0 d4 00 bf 97 26 04 be a8 63 f1 be 81 8c e1 be
       -0.5032463 -0.12905346 -0.47146344 -0.44052508
000010 df 6d db be 82 29 bd be 05 52 01 bf 50 cd f1 be
       -0.42857262 -0.3694573 -0.50515777 -0.47226954
000020 8c 88 90 be 16 28 e7 be 23 75 db be 84 27 1f be
       -0.28229177 -0.4514777 -0.42862806 -0.15542418
000030 8e 52 da be 63 5c 03 be 86 a2 33 be a7 3f ba be
       -0.4264111 -0.12828211 -0.17542467 -0.36376688
000040 d0 1e 37 be da 60 e4 be 1a 4d 4f be 1c 49 f0 be
       -0.17882848 -0.44605142 -0.20244256 -0.46930778
000050 40 41 0a bf de 55 33 be 46 0b e3 bd 05 0b c4 be
       -0.54005814 -0.17513224 -0.110861346 -0.38289657
000060 d1 fc 41 be a5 2b 04 bf ca 3f 19 be 12 ac dc be
       -0.18944098 -0.51629096 -0.1496574 -0.4310003
000070 6c 36 ba bd e3 11 d9 be 99 e2 f2 be 26 91 0a bf
       -0.090924114 -0.4239646 -0.47438505 -0.5412773

functional_13_1/batch_normalization_20_1/batchnorm/mul:0 f4 [32]
000000 50 43 5c 3f ff ce 07 3f ac a1 73 3f a8 a4 32 3f
       0.8604021 0.53050226 0.95168567 0.69782495
000010 f5 3e 39 3f a7 c1 2e 3f b0 2e 4e 3f e8 12 4b 3f
       0.7236169 0.6826424 0.8053999 0.79325724
000020 96 ad 37 3f 35 87 2c 3f 72 65 1a 3f af f7 72 3f
       0.71749246 0.6739381 0.60311043 0.94909185
000030 6b cb 19 3f 9a 79 17 3f 51 97 25 3f ed c5 58 3f
       0.60076016 0.59169924 0.64684016 0.8467701
000040 38 ff 41 3f b3 e0 23 3f 09 91 4e 3f fd 9e 4d 3f
       0.7578006 0.6401474 0.80690056 0.8032072
000050 62 ae 53 3f b2 87 5d 3f 4c 21 ed 3e b1 16 02 3f
       0.8268796 0.8653518 0.46314466 0.50815874
000060 41 30 5d 3f 7e 13 48 3f 29 a5 8f 3f 28 7e 62 3f
       0.86401755 0.7815474 1.1222278 0.8847375
000070 bf ab 88 3f 6b 83 5b 3f ac 15 6b 3f 47 7c 13 3f
       1.0677413 0.857474 0.91829944 0.5761151

functional_13_1/batch_normalization_19_1/batchnorm/sub:0 f4 [64]
000000 dc bd a5 be f2 16 c2 be 6c 1b 3d be 11 ca 09 bf
       -0.32371414 -0.3790813 -0.18467492 -0.53823954
000010 d7 50 15 bf 4c 92 00 bf 48 0a a4 be b8 44 64 be
       -0.58326477 -0.5022323 -0.32039094 -0.22291839
000020 a6 d8 e6 be f1 0a a4 be 82 06 8c be c7 aa 05 bf
       -0.45087165 -0.32039598 -0.27348715 -0.5221371
000030 79 a6 d6 be ce be fa be e9 a7 fc be bc 5a e1 be
       -0.41923884 -0.48973697 -0.49346855 -0.44014537
000040 6b b4 49 be 19 39 87 be ff bf aa be 15 ac bc be
       -0.1969773 -0.2641075 -0.33349606 -0.36850038
000050 b6 4c 0a bf 4a 08 c1 be 75 5e c8 be c3 fc 56 be
       -0.540233 -0.37701637 -0.39134565 -0.20994858
000060 6f 32 8f be 0e 4c 04 bf a3 2f b7 be 5c f5 db be
       -0.27968165 -0.5167855 -0.3577853 -0.42960632
000070 6c 2e ad be 4b af 94 be 0b a6 02 bf f3 be a5 be
       -0.3382448 -0.29039988 -0.5103461 -0.32372245
000080 96 54 b7 be e1 25 6e be cc 4a f7 be 8b 1c cb be
       -0.3580672 -0.23256637 -0.48299253 -0.39670214
000090 dc 67 cc be 63 be d1 be 12 3d 0f bf 3e f2 f9 be
       -0.39922988 -0.40965566 -0.5595256 -0.4881763
0000a0 cc 6c a0 be 28 55 11 bf a7 77 c3 be 7c f6 02 bf
       -0.31333005 -0.56770563 -0.38177225 -0.51157355
0000b0 57 1a 9e be b4 64 4f be 36 01 fe be af ba ef be
       -0.3087947 -0.20253259 -0.496103 -0.46822116
0000c0 bc 4c 7b be 4c 54 c9 be ab 8f 09 bf 22 41 94 be
       -0.2454099 -0.39322126 -0.53734845 -0.28955942
0000d0 a1 82 aa be c1 65 9e be 52 a0 c0 be 02 34 ea be
       -0.33302787 -0.30937007 -0.37622315 -0.45742804
0000e0 e4 f0 af be a2 c3 f7 be 64 0e 00 bf 48 25 b8 be
       -0.34363472 -0.48391443 -0.5002196 -0.35965943
0000f0 26 06 ea be 09 0f 24 bf 38 66 81 be 8b 17 dc be
       -0.45707816 -0.6408544 -0.252733 -0.42986712

functional_13_1/batch_normalization_19_1/batchnorm/mul:0 f4 [64]
000000 77 69 42 3f 4d ed 81 3f a2 ab 65 3f cb b6 6a 3f
       0.75942177 1.0150543 0.89715016 0.9168517
000010 72 dc 7a 3f ac 22 68 3f 75 97 80 3f ea 1c 8c 3f
       0.9799262 0.90677905 1.0046221 1.0946324
000020 ab d9 58 3f 57 e8 3e 3f c3 6f 6e 3f b5 ba 6f 3f
       0.84707135 0.7457327 0.93139285 0.9364427
000030 13 62 60 3f fe ec 81 3f 59 86 68 3f e1 4d 82 3f
       0.8764965 1.0150449 0.9083 1.0180017
000040 9b 92 64 3f a9 08 7b 3f 36 c1 5b 3f 5f 3d 89 3f
       0.892862 0.9806009 0.8584169 1.0721854
000050 f7 5e 54 3f ee 17 6c 3f 5f 2b 35 3f 45 cc 6e 3f
       0.82957405 0.92224014 0.70769304 0.9328044
000060 0b b4 32 3f e3 c2 73 3f 85 10 59 3f 75 19 65 3f
       0.69805974 0.9521925 0.8479083 0.8949197
000070 e0 a6 86 3f 47 04 6d 3f dd f1 83 3f 6c 3e 7e 3f
       1.0519676 0.9258465 1.0308186 0.99314
000080 1c 48 72 3f a1 a1 51 3f cf f5 52 3f 14 c5 74 3f
       0.9464128 0.8188725 0.82406324 0.9561322
000090 40 e2 51 3f 91 cc 4b 3f c3 a2 54 3f 0f a4 6e 3f
       0.81985855 0.7960902 0.83060855 0.93219084
0000a0 e9 db 65 3f 50 8c 42 3f ce 83 70 3f 43 9a 72 3f
       0.8978868 0.7599535 0.9395112 0.94766635
0000b0 27 f2 74 3f a1 0a 41 3f 32 e4 63 3f f0 2f 72 3f
       0.95681995 0.75406843 0.89020073 0.94604397
0000c0 3b 84 5a 3f 2a a5 7e 3f f4 22 8d 3f 26 92 5e 3f
       0.8535802 0.9947077 1.1026292 0.86941755
0000d0 bb 14 4a 3f 66 75 89 3f 86 3d 3b 3f 69 b9 85 3f
       0.7893788 1.0738952 0.7314075 1.0447208
0000e0 eb b0 6a 3f 52 f9 6f 3f 66 89 5f 3f f4 93 52 3f
       0.91676205 0.9373981 0.8731903 0.8225701
0000f0 03 a5 65 3f 88 9d 86 3f 66 4a 6c 3f d2 85 57 3f
       0.8970491 1.0516825 0.92301023 0.8418857

functional_13_1/batch_normalization_18_1/batchnorm/sub:0 f4 [128]
000000 ca 1f f6 be 6f 3a 9a be 60 f3 a1 be ef 5b 24 bd
       -0.48071128 -0.30122706 -0.31630993 -0.040126737
000010 ad 9a c3 3d db 6c 4d be bc 43 33 bd 26 c8 6e 3c
       0.095509864 -0.20061056 -0.04376577 0.014574086
000020 57 f6 91 be 62 3e 0d 3d b8 00 47 be 11 bc 18 3d
       -0.28508255 0.03448332 -0.19433868 0.03728873
000030 24 44 02 3d 7d 66 a9 be d3 8f 8a bc 38 1e eb be
       0.031803265 -0.33086005 -0.016914284 -0.45921493
000040 80 ef ee bd fe be dc be c5 97 3d be 27 e4 82 bb
       -0.11666775 -0.43114465 -0.18514927 -0.003994483
000050 af 27 57 be a4 45 af 3c d8 fe 87 bd 4f 5e 7a 3c
       -0.21011232 0.021395512 -0.066404045 0.015281274
000060 25 df d5 be ff 64 e6 3c 72 3f 3f 3d 4f 3d 68 be
       -0.41771808 0.02812433 0.046691366 -0.22679637
000070 bc a2 f7 3d 41 92 14 3d 1a b5 1a be b6 07 e9 be
       0.12091586 0.03627229 -0.15108147 -0.45513695
000080 ba 07 4f be 2c 67 c6 3c d4 8a 7c bd 34 fd 84 be
       -0.20217791 0.024219118 -0.061655834 -0.2597443
000090 3a e6 9c bd d3 08 9f be 54 3d 81 3d c9 2c d5 be
       -0.076611 -0.3106142 0.063105255 -0.4163573
0000a0 61 9e d1 3d 57 c7 9d 3b 22 db ae bd 5b 8b b7 3c
       0.102352865 0.004815023 -0.0853789 0.022405317
0000b0 71 9e 0e bd 83 a1 8e be 96 80 0e bd fa f4 31 bd
       -0.03481907 -0.278576 -0.034790598 -0.04344652
0000c0 f9 d2 5f be 8f be c4 bd 68 de 12 be 42 ae cc be
       -0.21857823 -0.09606659 -0.14342654 -0.39976698
0000d0 6a 46 dd be 88 cb 29 be ee f1 09 be e6 8c da be
       -0.43217784 -0.16581547 -0.13471195 -0.42685622
0000e0 18 00 cb be 04 1d b4 be 04 d3 00 3c 5b 62 8c be
       -0.3964851 -0.35178387 0.00786281 -0.2741879
0000f0 3b af a2 bd 5c a6 1b 3e a8 55 92 be d8 d4 9c bd
       -0.07943579 0.1520018 -0.28580976 -0.07657784
000100 4e 02 b9 be 07 2e 90 bc 93 4f 0c be a6 fe 2a 3d
       -0.3613457 -0.017600073 -0.1370223 0.041746758
000110 11 9b 11 bf fc 52 ed bd 1e 2a 74 be 29 7d b4 3d
       -0.5687724 -0.11588094 -0.23844191 0.08812935
000120 29 60 92 be b8 25 3e be 0e 1e 2b be 4c 0a 92 bd
       -0.2858899 -0.18569076 -0.16710684 -0.0713087
000130 c5 7f 87 bd 40 e3 63 3b ab ab 56 be 5d 5a c5 3b
       -0.06616167 0.0034772903 -0.20963924 0.006022735
000140 ec a9 7a be 06 04 af be 80 93 1b bf 1c d9 fe bd
       -0.24478883 -0.34182757 -0.6077194 -0.12443754
000150 2a 23 12 bf 28 e8 f7 bd f0 3e 94 ba 2a 19 a7 3d
       -0.57084906 -0.12104827 -0.0011310261 0.081590965
000160 a6 cb 95 be ab 48 bb bd b5 11 ac 3c fd fe be 3d
       -0.29256934 -0.0914472 0.021004537 0.09325979
000170 e6 d9 89 be ab eb 89 3d 02 67 70 3d 4f 07 0d 3d
       -0.26924056 0.06734403 0.058691986 0.0344308
000180 ae bd 45 be 34 02 ae 3d e1 94 7c be 92 fa 56 be
       -0.19310638 0.08496514 -0.24666168 -0.20994022
000190 49 0b 9e bd 97 8e 8d bc 16 6a a0 bd 3d e3 de be
       -0.07716996 -0.017279906 -0.07832734 -0.43532744
0001a0 21 c1 d2 3d 85 de a8 be 51 b4 84 be 66 3b 98 3c
       0.10290743 -0.3298227 -0.2591882 0.01858301
0001b0 0f 73 81 3d 3e 35 a4 be 26 87 59 be c6 c1 87 3d
       0.06320774 -0.3207187 -0.21242961 0.06628756
0001c0 38 6d 3c bd fc ef 8e be de fa 0b be 87 f4 1e bf
       -0.046002597 -0.2791747 -0.13669917 -0.6209187
0001d0 7a 5a 4d bb 10 14 8a 3d 49 b0 1f bd 38 7e 00 3e
       -0.0031334446 0.06742108 -0.038986478 0.12548149
0001e0 38 a1 63 be 2e 50 e9 3d f2 35 97 be fd 1a c6 bd
       -0.22229469 0.11392246 -0.29533345 -0.09673116
0001f0 e5 3a db be d6 7d b9 bc 20 9f 6f be 56 b9 08 bc
       -0.4281837 -0.022643011 -0.23400545 -0.008344969

functional_13_1/batch_normalization_18_1/batchnorm/mul:0 f4 [128]
000000 62 c8 c7 3f 27 ca cd 3f 16 95 c4 3f d2 1a af 3f
       1.5608027 1.6077317 1.5357997 1.368006
000010 ca a6 b3 3f ce f2 ca 3f fb 1f bf 3f 29 d1 b3 3f
       1.4035275 1.5855348 1.4931635 1.4048206
000020 7e 82 c7 3f 5e 95 b7 3f d9 7a c7 3f ac de b4 3f
       1.5586698 1.4342458 1.5584365 1.4130454
000030 cf a6 b3 3f aa 2a a3 3f 28 a9 b3 3f 6f 34 b8 3f
       1.4035281 1.2747395 1.4035997 1.4391001
000040 5d 08 ce 3f 2c b3 cc 3f fe 54 be 3f f2 2a b1 3f
       1.6096302 1.5992179 1.4869688 1.3841231
000050 63 f4 b3 3f fb 1f bf 3f 86 5b b3 3f 82 8b b1 3f
       1.4058956 1.4931635 1.4012306 1.38707
000060 7e cb a8 3f cd a7 b3 3f 6c c4 aa 3f 2c fd c5 3f
       1.3187101 1.4035584 1.3341193 1.5467887
000070 22 9d b2 3f fb 1f bf 3f 77 4e cc 3f bb 7c c9 3f
       1.3954203 1.4931635 1.5961446 1.574119
000080 44 42 b2 3f fb 1f bf 3f 7d 98 b8 3f cd 86 c3 3f
       1.3926473 1.4931635 1.4421536 1.5275513
000090 68 99 b7 3f ed 0c ce 3f fb 1f bf 3f ef 23 d0 3f
       1.4343691 1.6097695 1.4931635 1.6260966
0000a0 43 79 c5 3f fb 1f bf 3f 42 97 ca 3f fb 1f bf 3f
       1.5427631 1.4931635 1.582741 1.4931635
0000b0 58 5a bf 3f 17 68 ba 3f fb 1f bf 3f 9b 87 b3 3f
       1.4949446 1.4563016 1.4931635 1.4025759
0000c0 02 0b c3 3f dc 97 b5 3f c5 47 a2 3f 53 61 ce 3f
       1.5237734 1.4186969 1.2678152 1.6123451
0000d0 58 d4 ce 3f 96 0e ca 3f 33 2a b3 3f ed 83 c3 3f
       1.6158552 1.5785701 1.3997253 1.5274636
0000e0 30 48 be 3f 8a 0a b2 3f ff 12 b8 3f d5 9b cd 3f
       1.486578 1.3909466 1.4380797 1.6063181
0000f0 75 37 ad 3f ac 94 ad 3f e1 2a b1 3f d0 05 ba 3f
       1.3532549 1.3560996 1.3841211 1.4533024
000100 d0 69 b5 3f fb 1f bf 3f 7e 33 c4 3f 27 38 a5 3f
       1.4172916 1.4931635 1.5328214 1.2907761
000110 08 97 cc 3f e0 04 c0 3f 35 8b c3 3f d2 a9 ab 3f
       1.5983591 1.5001488 1.5276858 1.34112
000120 fb 45 b2 3f 3e e4 c4 3f 33 fa bd 3f fb 1f bf 3f
       1.3927606 1.5382154 1.484198 1.4931635
000130 e2 57 bf 3f f4 f1 95 3f 86 eb c3 3f ef 92 af 3f
       1.4948695 1.1714463 1.5306251 1.3716716
000140 10 78 c2 3f 68 7a ad 3f 85 0f c5 3f cc 9e b3 3f
       1.519289 1.355298 1.5395361 1.4032836
000150 60 8e c3 3f d8 24 bd 3f c1 a5 ae 3f 8e d2 cb 3f
       1.5277824 1.4776869 1.3644334 1.5923631
000160 7b 8a ab 3f 51 d9 bb 3f fb 1f bf 3f 93 80 b7 3f
       1.3401636 1.4675695 1.4931635 1.4336113
000170 b2 78 aa 3f fb 1f bf 3f cb 88 b2 3f fb 1f bf 3f
       1.3318083 1.4931635 1.3947996 1.4931635
000180 18 09 c2 3f fb 1f bf 3f e9 2a c0 3f 32 f6 bf 3f
       1.5159025 1.4931635 1.5013095 1.4997008
000190 bc 1e cf 3f ce a7 b3 3f 90 11 c8 3f f8 00 b2 3f
       1.6181254 1.4035585 1.563036 1.3906546
0001a0 fb 1f bf 3f dd 86 cb 3f e3 8a bb 3f f4 a6 b3 3f
       1.4931635 1.5900532 1.465176 1.4035325
0001b0 f0 82 bb 3f af 94 c2 3f 74 bf ca 3f 54 df b4 3f
       1.4649334 1.5201625 1.5839677 1.4130654
0001c0 fb 1f bf 3f 68 dd bc 3f 79 90 ac 3f bf ad c1 3f
       1.4931635 1.4755068 1.348159 1.5131148
0001d0 9c 37 bb 3f fb 1f bf 3f fb 1f bf 3f ff 1e af 3f
       1.4626346 1.4931635 1.4931635 1.3681334
0001e0 4c a2 b4 3f a2 ee cb 3f 85 12 bd 3f fb 1f bf 3f
       1.4112029 1.59322 1.4771277 1.4931635
0001f0 64 d0 ad 3f 48 87 b8 3f ef 7a c8 3f 2d 07 c6 3f
       1.3579221 1.4416285 1.5662516 1.547094
