models/Sl_Konjice/speed/Sl_Konjice_speed_model.onnx (onnx, 61201 bytes, 13 tensors)

functional_13_1/dense_27_1/Cast/ReadVariableOp:0 f4 [32, 1]
00000000: 6152 703d 02df e63d 47cd 423d 0b8e acbd
00000010: 0325 0a3e ad8a 803d 8bb7 373d d0cd 153c
00000020: 1412 003e d643 9fbc 9217 823c 1c18 873d
00000030: 0ddc 07be 09f0 02bd 61ff ccbb e4ab 22be
00000040: 2887 45bc 8de1 25be e699 973d 369d 493d
00000050: 9a99 b03d f56b d7bd cbbc 783c daf2 3a3b
00000060: 2d26 69bd 7081 ccbb 1663 b7bd 60b0 6fbc
00000070: 01e1 3a3d 19b8 b8bd d248 a9bd c7dd 1fbe
0.058672313 0.11273004 0.04755905 -0.0842553 0.13490681 0.0627645 0.044852775 0.009143308
0.12506896 -0.019441526 0.01588038 0.065963954 -0.13267536 -0.031967197 -0.0062560295 -0.15885884
-0.01205615 -0.16199322 0.07402401 0.049222194 0.08623047 -0.10518638 0.0151817305 0.0028526098
-0.056921173 -0.006241016 -0.08954446 -0.014629453 0.045624737 -0.09019489 -0.082658425 -0.15611945

functional_13_1/dense_26_1/Cast/ReadVariableOp:0 f4 [64, 32]
00000000: df18 1d3e 24f2 98be b4a5 e03d ff18 7c3c
00000010: 3a76 433e 1843 1ebd 91a6 76be ebc9 463e
00000020: 80f6 96bd 8933 293e 8fe3 6fbe ee61 583e
00000030: b51e 5fbd 2993 1f3e b19c 8d3d 9c31 563d
00000040: 5ffb 903e 78b9 77bd 1383 3bbe 73d6 643e
00000050: ff97 c53d 1680 f93d bd66 6b3e fb5d 90bd
00000060: 958f 85be 3202 2bbe bcc8 f8bd 2576 6bbd
00000070: e3bf fe3d f5c9 7abe 7fe9 cf3c 55e2 19be
00000080: ec0b 1fbe c589 bdbd d324 5d3e c33e 4ebe
00000090: 5c61 3239 c244 0abd e187 b3bd 6e09 2d3e
000000a0: 8cf9 ccbd fdfa 4d3e ba9a 76be a3b3 4d3e
000000b0: a3fd 0a3e 046b 99bd 35f5 0cbd aa2e 783e
000000c0: eacf f1bd 9989 1ebe cd7a 96bc b622 263d
000000d0: 79e3 313e 9a40 973c d6d3 4f3e feb1 2abe
000000e0: 7036 41be 05ce 543b 5caf 4fbe 957c 973e
000000f0: ff1a 59be 9c95 ecbd c3bf 013e 78a4 b13d
00000100: c55c fe3c f18d 933c 933d 6abe 93e6 31be
00000110: 8e56 19be 6def af3d 588f fd3d 17fc a9bd
00000120: 5d11 343d 26e5 253e b2fe 573e 9c4c e0ba
00000130: 0304 d43d 9b36 47be 0de2 88be 2637 d6bd
00000140: bc12 993e fae1 9fbd 467b 46be 92ed 87be
00000150: b1fe 623e b507 fbbd 8f85 b83d 7198 263e
00000160: 833e 713e 7a7f 88bc 05df 523e d402 a53b
00000170: eaa2 db3d 6f84 6bbe 3aec 923e ebe2 45be
00000180: f0f0 ad3e 251d 7fbe 1f15 bcbb acae 2dbe
00000190: 08ee 8fbc f8be 26be 92c6 633e 0688 0fbc
000001a0: 8c63 52bd f272 1e38 1ef9 e2bc 02a1 513d
000001b0: 1177 1f3e a043 26be 9644 dcb9 7322 dd3d
000001c0: da63 6d3e 2ce6 283e 4478 183e 9cb9 1cbc
000001d0: 44fa 0b3e ebc6 003e dc97 23be b7d5 97bd
000001e0: 119d 323e 2db5 693e 4b6b 53be b571 88be
000001f0: 4302 b5bc a714 21be 407f 0c39 2573 853e
00000200: 18c4 16be 0254 d23d 0914 343e 89dc 2d3e
00000210: 0dfa f73d e317 76be 7e26 153c 120a 3cbe
00000220: c4a5 cebd 3836 473c 40b8 253e 8486 5f3e
00000230: 8681 9f3e 4338 903e ce69 3abd 0397 2f3e
00000240: 8f51 dc3d 08d2 99be a2c3 e6bd 696a cebd
00000250: dd7e 41be 35fe 2abd cb99 d13d b53d 7c3e
00000260: 1f59 efbd 08dc 993d 545a 08be c0b8 313e
00000270: cb32 d23d fe92 133c 1908 f03d c5a7 0cbe
00000280: b2ad 37bd 811b cebd 4a8a 313e 1e7b 5b3e
00000290: 5cf1 9ebc 69c4 fe3d 3a91 3abe f53c 4d3e
000002a0: 4ce8 8ebd f089 9abd 3d1b 9bbc c0a9 afbd
000002b0: f399 f53d a852 11be a8c4 603e 66d9 353d
000002c0: 66eb 0b3e 8424 2cbd 1477 67bc f97e 093e
000002d0: 6de5 833e 42a4 85bd 699a f3bd 32bb 0a3d
000002e0: e031 28bd 6439 8d3e 7169 4e3e efef 363e
000002f0: 067d 8abd c76e f73d 5777 a2be f1b9 483e
00000300: 104d b6bd 37ba 8fbd 8588 32be 21c8 87bd
00000310: 2a6e e0bd 43d0 0d3e 3b7e 6b3e 5843 e73d
00000320: 3997 e5bd d4ed 13be c75a 683e 9894 f4bd
00000330: 4a5e bd3b 6bc9 62be b6b8 1e3d 18c2 abbd
00000340: e77f 303e 20f2 74bd b59a 563d a5c5 7e3c
00000350: 3992 19be e980 d2bb 64c9 113d 5f22 003e
00000360: 820a a3bc 51a5 5e3e e758 1dbd 99a5 003e
00000370: 6b07 01be 9b75 343d f321 863e 3751 9b3e
00000380: bb11 5f3d e167 573d 5901 c5bc 3d2d 7fbd
00000390: e7f9 a93d 1760 883c 47cf 533d 214b 4a3e
000003a0: 4602 52be c27c d83d 3814 133e 9ee1 cd3d
000003b0: 25d1 a0be a3b2 46be 641f 7cbe 3fef 25be
000003c0: 6ca3 f13d d09a 723e 4718 483e ea6c 8bbe
000003d0: 290f 26be d307 7f3d 3368 37be 4cec 46be
000003e0: 01d3 bf3c 8269 933e e20d 52bd 15be 5f3e
000003f0: 69d1 18be 5afb 923d efa6 89bd c417 9c3e
0.15341519 -0.2987224 0.10969105 0.015386819 0.19088069 -0.038638204 -0.24086978 0.19412963
-0.07371235 0.16523565 -0.2342665 0.21131107 -0.054472644 0.15583481 0.06914652 0.052293405
0.2831678 -0.06047961 -0.1831172 0.22347431 0.096481316 0.121826336 0.2298841 -0.07049175
-0.26086107 -0.16700056 -0.12147662 -0.05748572 0.12438943 -0.24491103 0.025379894 -0.15027745
-0.15531892 -0.09254793 0.21596079 -0.20141129 0.00017011672 -0.03375698 -0.08766151 0.16898128
-0.10008535 0.20115276 -0.24082461 0.20088057 0.13573317 -0.07491115 -0.034413535 0.24236551
-0.118072346 -0.15482177 -0.018369103 0.040560447 0.1737193 0.018463422 0.20295653 -0.16669461
-0.18868423 0.003247143 -0.20281738 0.29587236 -0.21201704 -0.11551973 0.12670808 0.08673948
0.031050095 0.018012019 -0.22875051 -0.17373113 -0.14974424 0.08590589 0.12380856 -0.083000354
0.04396187 0.16200694 0.21093252 -0.0017112675 0.10352328 -0.19454424 -0.26734963 -0.104597375
0.29897106 -0.078067735 -0.19382963 -0.2654844 0.2216747 -0.122573294 0.09009849 0.1626909
0.23559003 -0.016662348 0.20592888 0.0050357375 0.10724433 -0.22999738 0.28695852 -0.19324844
0.33972883 -0.24913462 -0.0057398225 -0.16961163 -0.017569557 -0.16283786 0.22243717 -0.008760458
-0.051364467 3.7777187e-05 -0.027706679 0.05117894 0.15572764 -0.16236734 -0.0004201277 0.10797586
0.23182622 0.16494054 0.14889628 -0.009565737 0.13669688 0.12575881 -0.15975899 -0.0741381
0.17442729 0.2282302 -0.20646398 -0.26649252 -0.022095805 -0.15730534 0.00013398845 0.2606441
-0.14723241 0.102699295 0.17585768 0.16978659 0.1210824 -0.2403255 0.0091034155 -0.18363217
-0.10090211 0.012158923 0.16183567 0.21828657 0.31153506 0.28167924 -0.04551106 0.1714745
0.107577436 -0.30043054 -0.11267783 -0.1007889 -0.18896051 -0.041746337 0.10234412 0.24632914
-0.116869204 0.07512671 -0.13315707 0.17355633 0.10263594 0.009007214 0.117202945 -0.13735874
-0.044843383 -0.1006384 0.1733791 0.21433684 -0.019402198 0.12439806 -0.18219462 0.20042785
-0.06977901 -0.07545841 -0.018933887 -0.08577299 0.11992254 -0.14191687 0.21950018 0.04439678
0.13664016 -0.04202701 -0.0141275115 0.13427342 0.25760975 -0.0652547 -0.11894686 0.03386993
-0.04106319 0.27582848 0.2015741 0.17864965 -0.067621276 0.12081676 -0.31731674 0.19602181
-0.08901417 -0.070179395 -0.1743489 -0.066299684 -0.10958512 0.13848977 0.22997372 0.11292142
-0.11210484 -0.14446193 0.22690879 -0.119424045 0.0057790624 -0.22147147 0.038750373 -0.0838663
0.17236291 -0.05980122 0.052393634 0.015550052 -0.14997186 -0.0064240587 0.03559245 0.12513112
-0.019902471 0.2174275 -0.038414862 0.1256317 -0.12600486 0.04405747 0.26197776 0.303354
0.05446027 0.0525893 -0.024048494 -0.062299002 0.08299618 0.016647382 0.051711347 0.19755222
-0.2050868 0.10570671 0.14363182 0.10052799 -0.31409565 -0.19404082 -0.2462135 -0.16204546
0.117987484 0.23691869 0.19540511 -0.27231532 -0.1621672 0.06226332 -0.17910843 -0.19426078
0.023416044 0.28791434 -0.05128277 0.21849854 -0.14923634 0.07176848 -0.06721293 0.30486882

functional_13_1/dense_26_1/Add/ReadVariableOp:0 f4 [32]
00000000: 9ed1 223d 8ea9 ceba 535b 403d 5017 1e3e
00000010: 8732 0bbe db87 d2bd 526e d7bb 160d bfbc
00000020: 05b7 b93c ab77 e53d 7bf5 8b3d cac9 88bd
00000030: ed23 83bd 3d67 2a3d 4c63 ebbd daba d2bc
00000040: 45d2 2abb bd4d bc3d cf4f db3d df7a 8b3c
00000050: 536e 96bd 1fc7 a5bd 719c 5f3d b08c 20bc
00000060: c925 a2bd b6b2 363d 276d 99bd b553 1e3e
00000070: 1593 b8bc 4066 ae3d efd5 6d3d 0d8c 463d
0.039750688 -0.0015767084 0.046962094 0.1543858 -0.13593493 -0.102798186 -0.0065744305 -0.02332167
0.022670278 0.112044655 0.06833931 -0.06679113 -0.06403337 0.041602362 -0.11493549 -0.025723863
-0.0026065272 0.09194515 0.10708582 0.017026363 -0.073452614 -0.0809462 0.054592554 -0.0097991675
-0.07917363 0.044604026 -0.07491522 0.15461619 -0.022531072 0.085155964 0.05806535 0.048473407

functional_13_1/dense_25_1/Cast/ReadVariableOp:0 f4 [128, 64]
00000000: c2fc 71bc abe4 56bd 0995 493e dbd0 be3d
00000010: cfb1 81bd 922c 113e 786e 5a3d dd17 c33d
00000020: 5374 c2bd 8a94 a6bc d4c2 8fbd 6c36 263c
00000030: a7c2 273e 8567 083e 3e3f ad3d de29 98bd
00000040: 53b6 60be 6233 84bd 6982 ebbd a47f 793d
00000050: ebe0 0fbe 19bd 00be d56a c4bd f48e 143e
00000060: 04e8 da3c 3993 4dbd 9384 56be 110b 7b3d
00000070: 0c5d eabc 26b4 743d ef13 a8bd 3122 58bd
00000080: 6ed7 ee3d 2422 92bc 1322 063d 7b57 a7bd
00000090: e3d3 7b3d 87cb c4bc 4635 633d fe0b 33be
000000a0: 6336 2fbe 7a91 873e 948c 8338 d674 cdbd
000000b0: d1da 123d f569 90bc 1c4e 653d 1c73 943e
000000c0: 12ea 8e3e 9761 9e3d 4ed2 c3bd c672 e93d
000000d0: 4048 633d dcbd afbc 5551 14be 92c2 9d3d
000000e0: 1c8e 60bd fa1c ec3d db0e 5d3e 3831 443c
000000f0: 38c7 913c a662 73be 06d2 86bc 2d06 c2bd
00000100: 32ca b7bd 2629 20be eb03 02be 3650 20be
00000110: 7cd1 513e f54d ed3c afb5 31be 30ca 12bd
00000120: 3ebf dd3d cd53 183e 4d42 633d 00c6 af35
00000130: 7dfe 8d3d 656e 063e 73d7 f33d 1778 b0bd
00000140: 40f8 fc3d 7e82 343e 2672 52bc 01d4 19bd
00000150: 55dc 123e 2f8b 733e 5f52 29be c7ca 703e
00000160: 495a 903e 09cf 8c3d c16b f9bc f16d 0ebe
00000170: cbf6 87bd 2693 acbd 98e8 213e a7e1 71bd
00000180: ff50 c5bd 4b3b 3bbe fc23 eb3d 8905 853c
00000190: 8f6c 8dbb 7e59 ae3d e3b6 293d f488 1eba
000001a0: fb7e 87bd 8fad 803d e601 283e ae3a 393d
000001b0: 9eb0 ee3c ccfd 853d bc1d 583e 0e2b 06be
000001c0: d890 bf3d fc2e f6bd 8c05 54bc c826 3d3d
000001d0: f164 133d e6b9 383e 7d2f 89bd 688b 033d
000001e0: ac43 083e 6fa8 5fbe 64f5 24be c2ef 143e
000001f0: db86 403d af60 f6bd d3b1 e23d 20d8 713d
00000200: c3fd bd3d d59b 943d 77fc c6bc 1a34 05be
00000210: 83e1 4fbe efb9 933e 86b4 a73d 3dcb ae3d
00000220: 576f d0bd f185 23be 606c e93d 435e 85bc
00000230: 7c0c da3d 3bfc fab9 6557 2d3e bbdf 24be
00000240: d7ae 1b3e 78ce 863e c20f 30be 9d6a 5cbe
00000250: 4981 e8bd fb4c 17bd 29ce 35be 0d1e 9abd
00000260: 7e47 453e b6be fabd cdd1 d4bc ece3 e03c
00000270: 9b23 023e 8667 a13d a650 74be cf64 c0bd
00000280: 9b98 e63d 7e90 953d 10f7 59be dffd 1fbe
00000290: 4f14 4d3d 22b6 0d3c 684a 1b3e 9cf7 083d
000002a0: 6966 1bbe 8df4 dabd de67 893b 85bb 163e
000002b0: 5fcf 2abd ae29 553d 5cb8 fb3d 5bbb 04be
000002c0: f8e5 a63d f6c3 a43d 140b 6cbe 2949 ddbd
000002d0: 00c0 113e 2bcf 3cbb 694a b03d 6e0f 0a3e
000002e0: b5eb 503e 2c16 17bd f813 74be 63ff 52be
000002f0: 9d1e 0fbd 605b f03d 5e98 3d3d 2c08 3fbe
00000300: 4cb0 3bbe 7281 d9bd 5db5 983d 5d5f 5f3b
00000310: 498e 52bd aa34 5d3e 5434 ad3d 09fd bd39
00000320: bb7b 60bd 9760 c53c 534c 29bb 0bd1 d63d
00000330: 5e88 c63d dba0 993d b59e 373d daa7 15be
00000340: a972 17bb 3043 6f3e 6f7d 773d e6f2 3bbd
00000350: 62e7 253b 71f2 fcbd 92be 3d3e a27e 993d
00000360: cc0c 44bd 57ac 1bbe 0a2c 9ebd d7a4 723d
00000370: ae66 7b3c fec2 083c 5638 ed3d 0ee6 853d
00000380: 5c19 a83d 397d a53d fec2 8ebd 1495 2f3d
00000390: 0186 e93d 09b2 f5bd 3a0a 9b3b 210f 923d
000003a0: f8f5 b3bd 6206 58bb 2b56 033d 4540 393e
000003b0: c5b9 74bc 1565 39bc f09f d03d 0e32 2cbe
000003c0: b90d 2d3e be09 17be 3bc8 5b3c 777c 1ebe
000003d0: 9263 613e e34b 8abd 4db1 6d3d ecb9 e43d
000003e0: 2efa 1dbe d77d 153e 4a48 9d39 8df9 cd3d
000003f0: d630 babd 25e4 34be 3a25 4a3e 528c d8bd
-0.014769735 -0.05246417 0.19685759 0.0931718 -0.063327424 0.14177158 0.053328007 0.09526036
-0.09494843 -0.0203345 -0.070195824 0.010144811 0.16382848 0.1332074 0.08459328 -0.074298605
-0.21944551 -0.06455113 -0.11499483 0.060912743 -0.14050643 -0.12572135 -0.09590689 0.14507657
0.026721962 -0.05018923 -0.2094901 0.06128985 -0.028608821 0.059742115 -0.08206927 -0.052766982
0.11662184 -0.017838545 0.03274734 -0.081709825 0.061481368 -0.02402283 0.055470727 -0.17485043
-0.1711059 0.26478177 6.2727515e-05 -0.1003205 0.03585321 -0.01762865 0.055982694 0.2899407
0.27912956 0.077334575 -0.09561597 0.113988444 0.055488825 -0.021452837 -0.1448415 0.07703127
-0.054823026 0.11528964 0.21587698 0.011974625 0.01779519 -0.237681 -0.016457569 -0.09473834
-0.089741126 -0.15640697 -0.12696807 -0.15655598 0.20490068 0.028967837 -0.17354463 -0.035837352
0.10827492 0.14875717 0.05548315 1.3096142e-06 0.069333054 0.1312805 0.11906328 -0.08616655
0.123520374 0.17627904 -0.012844598 -0.0375557 0.14341862 0.23783563 -0.16535328 0.23514853
0.28193882 0.06875426 -0.030446889 -0.13909127 -0.06638869 -0.08426504 0.15811384 -0.05905309
-0.096345894 -0.18284337 0.11481473 0.01623799 -0.0043159197 0.08513163 0.04143418 -0.0006047629
-0.066160165 0.06283104 0.16406974 0.045221977 0.029136952 0.065425485 0.21105093 -0.13102362
0.09353799 -0.1202068 -0.012940776 0.046179563 0.035984937 0.18039665 -0.06698511 0.03211537
0.13307065 -0.21841596 -0.16109234 0.14544585 0.04700361 -0.1203016 0.110690735 0.059044003
0.09276917 0.07256285 -0.024290306 -0.13008156 -0.2030087 0.28852794 0.08188729 0.085348584
-0.101774864 -0.15969063 0.11397624 -0.016280299 0.106469125 -0.00047871642 0.1692787 -0.16100971
0.15203415 0.26329398 -0.17193511 -0.21525045 -0.11352784 -0.03693865 -0.17754425 -0.07525263
0.19265553 -0.122434065 -0.025978947 0.027452432 0.12708895 0.07881074 -0.2385889 -0.09394228
0.11259576 0.0730295 -0.21285653 -0.15624188 0.050068196 0.008649381 0.15165102 0.033439264
-0.15175785 -0.106911756 0.00419329 0.1471997 -0.04170167 0.052041702 0.12291023 -0.12962095
0.08149332 0.08045189 -0.23051101 -0.1080497 0.14233398 -0.0028810005 0.086079426 0.13482448
0.20402415 -0.03688638 -0.23835742 -0.20605235 -0.034941304 0.117361784 0.046287887 -0.18655461
-0.1832897 -0.10620393 0.07456467 0.003408394 -0.051405225 0.21602121 0.084572464 0.00036237415
-0.0548055 0.02409391 -0.0025832846 0.104890905 0.09693979 0.07501384 0.04482909 -0.14614812
-0.0023109114 0.23365474 0.060422357 -0.045885943 0.0025314917 -0.123509295 0.18529728 0.074948564
-0.047863767 -0.15202461 -0.077232435 0.059239235 0.015344305 0.008347271 0.11583011 0.0653802
0.08207962 0.08080525 -0.069707856 0.04286678 0.11402512 -0.11996848 0.0047314437 0.07131792
-0.08787149 -0.0032962789 0.032064598 0.18090923 -0.014936869 -0.011315604 0.10186756 -0.1681597
0.16899766 -0.1474981 0.013414438 -0.15477167 0.2201064 -0.067527555 0.058030415 0.11168274
-0.15427467 0.14598785 0.00029999233 0.10057364 -0.09091346 -0.17665155 0.19740763 -0.10573639

functional_13_1/dense_25_1/Add/ReadVariableOp:0 f4 [64]
00000000: fad2 ce3c 89c5 cebc a2a3 6ebd 5faa 82bc
00000010: f272 3fbd 0709 a1bd b3ec 0a3b 6831 383d
00000020: 3208 263e 98f3 683d d612 4a3d 3361 6b3d
00000030: 8fe3 55bd 2878 11be 2327 fe3d bbfa 51bc
00000040: c1e8 5dbc 79ad 0e3c 62a8 d83d 1079 b1bd
00000050: 3267 c1bd e040 42bc 6abf a93d 3df2 7e3d
00000060: d278 de3d abb3 b23c c16b 1abc 051a 0cbd
00000070: 199c 07bb e220 d53d b8eb 79bd 43ae d4bc
00000080: fa63 93bd cd3b 163d b596 2ebe ab4a 39bd
00000090: f011 a0bd 0828 803d 7d45 7cbd 14b3 2abe
000000a0: e980 243d d798 10bd 221d a73d b6ee 38bd
000000b0: 0530 87bd 6bd9 bbbd f454 07be a37b 7cbd
000000c0: 8eb7 243a 96d2 2a3d 1d97 913d 3fc1 54bd
000000d0: ccd6 e0bc 0e25 4b3b 3d92 99bd 2caa 7bbd
000000e0: 3c65 b8ba 388d aebd 5dad d8ba 3971 8f3a
000000f0: 5a43 09bd faa0 173a 873e adbd 26dc c63d
0.025247086 -0.025240676 -0.05826152 -0.01595038 -0.04674048 -0.0786305 0.0021198213 0.044968992
0.16214064 0.056872934 0.04933437 0.057465743 -0.05221897 -0.14205992 0.124098085 -0.012816126
-0.013544262 0.008708351 0.105789915 -0.08665669 -0.09443511 -0.011856288 0.082884625 0.062242735
0.108628884 0.021814188 -0.009425105 -0.0342045 -0.0020692407 0.104066625 -0.061015815 -0.025962
-0.071968034 0.036678124 -0.17049678 -0.045237225 -0.07815921 0.06257635 -0.061589707 -0.16669875
0.040162 -0.03530201 0.081598535 -0.045149527 -0.06600956 -0.091723286 -0.13216001 -0.061641347
0.00062834553 0.041704737 0.07108901 -0.051942106 -0.027446173 0.0030997428 -0.07498596 -0.061441585
-0.0014068256 -0.08523029 -0.0016531158 0.0010943777 -0.033511497 0.000578418 -0.08459192 0.09709959

functional_13_1/dense_24_1/Cast/ReadVariableOp:0 f4 [26, 128]
00000000: 45d3 d8bd f727 f9bd 90f6 713c 9b97 0f3e
00000010: 2b0e 9abd f290 ae3d 2eb0 fd3d 158d 263e
00000020: 7593 0dbe 6c60 463d 6b07 3e3e 189e a6bd
00000030: b6c7 9dbd 5184 46be 2cee 29be bd0c 123e
00000040: f819 3bbd 4695 e63d 087c b9bc e643 933d
00000050: 7baf 223e b01d a43c d424 063d 5450 553d
00000060: b429 78bd 6016 37bd 9419 46be a7ba 293e
00000070: f65a 8d3d daf1 a8bd 6be9 3abe 0a26 13be
00000080: 5484 643d bf3e aabd ad03 f4bd 9271 05be
00000090: 00fa b2bc aa4b 38be d174 003e 369a 81bd
000000a0: 6b67 273e 6ced 4cbd 4302 313e 409f b63c
000000b0: be66 c03d 8b91 3b3e d31c 413e 38c7 a0bc
000000c0: 902a 10bc aafa 85bd 94ad 2d3d 985c 01bd
000000d0: 1e8a fe3d f60f 89bd fe68 ad3d 0006 0bbe
000000e0: a2bf a4bd 4c31 71bd b892 163d bf6f 2d3e
000000f0: c89f fdbc 3437 383d fe3a 94bd aa84 3ebe
00000100: 00e3 2abb 3836 60bd f27a e33d 4a6b 0abe
00000110: 604b efbb 92d2 f33d cb30 a9bd 42b6 23be
00000120: 4017 4c3d 7cb0 683d a1d7 1b3e 5026 1b3d
00000130: b01f 72bd 5618 bebd c615 bc3d 24bf 21bd
00000140: 2728 41be ac45 603d 525d c33d ee41 b0bd
00000150: ddb9 273e e86a c8bc d4d2 dbbd 3e05 dd3d
00000160: 30d4 a53c 2f5f 07be 1e44 f13d 14de 06bd
00000170: c788 c7bd 9d9e 2d3e a4d6 3abe 9063 773c
00000180: 18ad b83c 9e97 913d ebc8 13be 19c7 203e
00000190: 60f0 023c 84a8 783d 80f8 943a 49ec 213e
000001a0: 9377 20be 7c93 243d 7265 803d b127 3c3e
000001b0: 6ac9 b93d 0043 f93a 6272 86bd 7ca7 7e3d
000001c0: 5069 7b3c 23ed 0c3e 9700 1d3e a316 edbd
000001d0: fb4f fbbd 3cee 193d c068 60bb 9d2b 433e
000001e0: d682 a93d 9f21 38be 58f5 0e3d 6ec1 833d
000001f0: b31e 1dbe 2e81 8e3d 40e2 4fbb 66a0 32be
00000200: 7462 fb3d b852 013e bfe6 e9bd c86b b1bb
00000210: 31bb 603e e357 07be 9a06 05be dc20 1abd
00000220: 31ae d63d f1bd 053e c4f5 cc3d c002 54be
00000230: 30c5 093d dcad 693e 47b9 893d b476 07be
00000240: efca f5bd e548 56be b769 59be c202 893d
00000250: edca 3b3d bac9 663e 5d38 74bd 9389 1f3e
00000260: 2536 9a3d 665b 31be efca 0d3e 26d8 aebd
00000270: 8a0a bd3d a2e9 adbc a02d dfbc c75c dc3d
00000280: 1d11 aebd 7e52 1a3e 3f3b 1fbe 259e 3dbe
00000290: e6d8 4f3e eac3 3dbe d5b4 86bd 7da2 be3d
000002a0: 3094 11bb d93f 593e 49de af3d 3f69 5abe
000002b0: 9984 01be ba5a b4bd a0b6 2abd 48ba a63d
000002c0: ea69 783e 4728 45be 8cc5 35bd 7a2a 97bc
000002d0: 4e8b 073e 4dce e23c c48f f6bd 9133 9f3d
000002e0: f926 43bd 6b86 0dbe 9273 303e e4ff 913d
000002f0: 60e8 08be 4f3d 683d c0d1 2cbe d595 f23d
00000300: fc71 c13d 6590 c33d 659c 0cbc fb8d 523d
00000310: 4d1a 0a3e d58f 5cbd 8f56 0d3e ef11 84bd
00000320: ab9b 43be d204 bdbd 88da 0f3d 5fb0 98bd
00000330: f66c e1bd 8428 7f3e c5b2 4e3c 56d2 23bc
00000340: b227 c93d e4a3 0e3e 3df9 e13d ac54 b9bd
00000350: c816 a3bc 12b7 7ebe 6a8a d93d f80a 09be
00000360: 1f04 6e3d f477 173e 1016 6d3c bdca 483d
00000370: 8401 5f3e 6601 303e 90b5 933d 4c44 86be
00000380: 2e9a 1ebe 1dc9 31be e008 163e 3310 afbd
00000390: 28f4 c73d 1b9d 493e e8f5 d3bc 9887 95bd
000003a0: 3ffd 8cbd dc79 c3bb d868 1d3e e0e9 60bd
000003b0: eff2 2b3d bb18 e53d 337f f0bd c92c 32be
000003c0: 0c19 13be f6df 953d 046b 5e3d 82b4 b4bd
000003d0: 3361 b03c bd2b e73d d401 a3bd bdf5 8cbb
000003e0: 1d89 23be dccb cd3d 55f4 243e d8a8 0fbe
000003f0: 766b 003e 77c9 68be 2f8e 893d 82e9 f53c
-0.105871715 -0.12165826 0.014768258 0.14022677 -0.075222336 0.0852374 0.12387119 0.16264756
-0.13825782 0.0484318 0.18557517 -0.08135623 -0.077041075 -0.19386412 -0.16594762 0.14262672
-0.045679063 0.112589404 -0.02264215 0.07190685 0.15887253 0.020033687 0.032749966 0.05207856
-0.060586646 -0.044699073 -0.19345695 0.16575108 0.06902115 -0.082492545 -0.18253104 -0.1436998
0.05579026 -0.08312749 -0.119147636 -0.13031605 -0.021847725 -0.17997614 0.12544562 -0.063282415
0.16348045 -0.05003111 0.17286019 0.022292733 0.093945965 0.18317239 0.18858652 -0.019626245
-0.00879921 -0.06541951 0.042401865 -0.031582445 0.124286875 -0.066924974 0.08467291 -0.13576508
-0.080443636 -0.058884904 0.036761016 0.16937159 -0.030959979 0.04497452 -0.07237814 -0.18605295
-0.0026075244 -0.054739207 0.11107434 -0.1351749 -0.0073026866 0.119053975 -0.0826126 -0.15987495
0.04982686 0.056808934 0.15218975 0.037878335 -0.05911225 -0.092819855 0.091838405 -0.039488927
-0.18862973 0.054753944 0.09539284 -0.08606325 0.16379495 -0.02446504 -0.10733572 0.107920155
0.02024278 -0.13219903 0.117805704 -0.032926634 -0.09742885 0.16955037 -0.18245941 0.015099421
0.022543475 0.07108997 -0.14432113 0.1570095 0.00799188 0.060707584 0.0011365563 0.15812792
-0.15670614 0.040179715 0.06269349 0.18374516 0.0907162 0.001901716 -0.065647855 0.062171444
0.015344933 0.13762335 0.15332256 -0.11576583 -0.122711144 0.037580714 -0.0034242123 0.19059606
0.08276908 -0.17981575 0.034901947 0.06433378 -0.15343742 0.06958233 -0.003172055 -0.17444
0.12274638 0.12629211 -0.114209644 -0.00541446 0.21946408 -0.1321712 -0.129908 -0.037628993
0.10482443 0.13060738 0.100078136 -0.20704174 0.03363532 0.22820228 0.06724792 -0.13228875
-0.12001597 -0.20926245 -0.21231733 0.06689979 0.045847822 0.2253789 -0.059624065 0.15579824
0.075298585 -0.17320022 0.13846944 -0.08537321 0.09230526 -0.021229569 -0.027243435 0.107598834
-0.08499358 0.15070531 -0.15549944 -0.18517359 0.20297584 -0.18531767 -0.0657746 0.09308336
-0.002221357 0.21215762 0.085873194 -0.2132921 -0.12648238 -0.08806367 -0.04167807 0.08140999
0.24259153 -0.19253646 -0.04437785 -0.018452872 0.13236734 0.027686263 -0.1203914 0.077735074
-0.04764459 -0.13820808 0.17231587 0.071288854 -0.13369894 0.056699093 -0.16876888 0.118449844
0.09445569 0.095490254 -0.008582209 0.051404934 0.13486595 -0.053848106 0.1380255 -0.06448733
-0.19102351 -0.09229435 0.035120517 -0.07455515 -0.11007111 0.24917799 0.012615864 -0.009998878
0.098220244 0.13929707 0.110338666 -0.09049353 -0.019908324 -0.24874523 0.106221035 -0.1338309
0.0581094 0.14791852 0.014470592 0.04902147 0.21777922 0.17188033 0.07212365 -0.2622398
-0.15488502 -0.17361875 0.14651823 -0.08548012 0.09763366 0.19688837 -0.025874093 -0.07301253
-0.0688424 -0.0059654545 0.15372026 -0.05491054 0.041979726 0.111863576 -0.11743011 -0.17399897
-0.14365023 0.07318108 0.054301277 -0.08823492 0.021530723 0.11287639 -0.07959333 -0.004301755
-0.15970273 0.10048649 0.1610883 -0.14029253 0.12540993 -0.22733103 0.067165725 0.030018572

functional_13_1/dense_24_1/Add/ReadVariableOp:0 f4 [128]
00000000: 85e5 75bd 5aa5 5e3c b903 a3bd ca6e bdbc
00000010: d163 56bc ede4 75bd 0000 0000 d827 a9bd
00000020: e744 0a3d 4fc3 89bc 8164 883d 9b42 05be
00000030: 0000 0000 28e8 00be 544b f6bd 2e57 89bd
00000040: 1ee5 75bd 3cd0 4cbc 8057 a5bd 0000 0000
00000050: 9ce5 75bd d015 ec3d 9843 af3d 0000 0000
00000060: d068 77bd e68d 823c 1788 833c 0000 0000
00000070: 0000 0000 e830 c1bd 0000 0000 cda1 9f3d
00000080: d8c0 95bd 1508 123c ea66 c73d 39fe f7bd
00000090: 1c6c 493d 5678 513d 3640 043c a770 0dbd
000000a0: a949 aabb 2e6d 623d 651e de3d 05b7 45bc
000000b0: 51e5 75bd 8f66 28bd 0000 0000 594c b13d
000000c0: 3d7c a6bc 0000 0000 7bcf 5e3d 5ed2 9c3d
000000d0: 13f1 fc3d 0c0c 4abd 0000 0000 ed8b 08bd
000000e0: 32b9 423d 0000 0000 75db 4fbc d166 2e3b
000000f0: 0000 0000 2ff2 cf3d 96d7 203d 8011 243c
00000100: 2aae e93d c5af e63d 93e5 75bd a2bc 20bc
00000110: abbb e93d c8c2 1a3d 9698 a8bd 71cc 743d
00000120: 0000 0000 4b8d 3fbd ee38 56bd 5ff8 673d
00000130: 451f cebd 3c35 d03d bdd2 bcbd 35b3 8b3d
00000140: 2635 ec3d c6e4 753d 34cd 753d 0088 203d
00000150: fafe 1cbd 90e5 75bd 0000 0000 8845 c7bd
00000160: 7f67 823d 7c3a c83b 0000 0000 ca04 cdbc
00000170: 00b0 f23d cb72 c83c 9c5e 0cbd 1ab4 40bd
00000180: 8a7a 9bbd 0000 0000 11a0 a03d ec43 1abd
00000190: 756a aabd 0000 0000 758b b23c 205c 9abb
000001a0: 007c 163d 8acb 4d3d 1d23 b4bb df47 81bd
000001b0: fc2d 803d 8e52 353b c312 7d3c 1a55 aebd
000001c0: 0000 0000 44c2 f2bb c5bc d83d 68f1 a73b
000001d0: 3fa0 933d c4d7 e1bc 5629 b33d 7ae5 75bd
000001e0: 0f46 003d 5172 08bd 0000 0000 8827 b13d
000001f0: 8329 4c3d 42df 11bd 02a0 6c3c 668c 323d
-0.06003334 0.013589228 -0.079596944 -0.023124117 -0.0130853215 -0.060032774 0.0 -0.08259553
0.033757117 -0.016816763 0.066597946 -0.13013689 0.0 -0.1258856 -0.120260864 -0.06706081
-0.060032956 -0.012500819 -0.0807333 0.0 -0.060033426 0.11527598 0.08557814 0.0
-0.06040269 0.015936803 0.016056104 0.0 0.0 -0.09433156 0.0 0.07794533
-0.07312173 0.00891306 0.09736426 -0.12109036 0.049175367 0.051140152 0.00807195 -0.03453126
-0.0051967693 0.055279903 0.10845641 -0.012067561 -0.060033146 -0.041113432 0.0 0.0865714
-0.020322913 0.0 0.054397088 0.07657312 0.12350669 -0.049327895 0.0 -0.03333657
0.047539897 0.0 -0.0126866 0.0026611576 0.0 0.10153615 0.0392681 0.010013938
0.11410172 0.11263994 -0.060033392 -0.009810599 0.11412748 0.037783414 -0.082322285 0.059765283
0.0 -0.046765607 -0.052300386 0.05663335 -0.10064558 0.10166404 -0.09219883 0.068212904
0.11533575 0.06003263 0.06001015 0.0391922 -0.038329102 -0.06003338 0.0 -0.09730059
0.063673966 0.0061104875 0.0 -0.025026698 0.118499756 0.0244688 -0.034269914 -0.04704676
-0.07591732 0.0 0.0784303 -0.03766243 -0.08321086 0.0 0.021795014 -0.004710689
0.03673935 0.050242938 -0.00549735 -0.063125364 0.06258771 0.0027667615 0.015446368 -0.085123256
0.0 -0.007408412 0.1058288 0.0051252134 0.07208299 -0.027568705 0.087481186 -0.0600333
0.031316813 -0.033312146 0.0 0.08650118 0.049844276 -0.035613306 0.014442446 0.043590926

functional_13_1/batch_normalization_20_1/batchnorm/sub:0 f4 [32]
00000000: cc2d 21be 4211 4bbe cfda a7be e614 e6be
00000010: 0e01 2dbe 8c20 5bbe 9452 41be 2ed9 afbe
00000020: 7992 8ebe fd3f dabe 0459 72be 7491 2abe
00000030: efaa cebe b46e 03bf 0965 c8be b0ba bcbe
00000040: 2419 79be 9f91 c9be 0826 81be f28d 37be
00000050: 0a72 08be b240 bebe cd4c 82be 3ccc b9be
00000060: c621 ddbe c4b4 8fbe 1aa4 c2be 6523 f1be
00000070: 6636 3dbe 5952 d4be 6905 cfbe 60bd d7be
-0.15740126 -0.19830802 -0.32784125 -0.4493782 -0.16894934 -0.21399134 -0.18879157 -0.34345382
-0.27846125 -0.42626944 -0.2366677 -0.16657048 -0.40364787 -0.51340795 -0.39139584 -0.3686118
-0.24325997 -0.39368913 -0.25224328 -0.17925242 -0.13324752 -0.37158734 -0.2544922 -0.3628863
-0.4318983 -0.280676 -0.38015825 -0.47097316 -0.18477783 -0.41469076 -0.40433815 -0.4213667

functional_13_1/batch_normalization_20_1/batchnorm/mul:0 f4 [32]
00000000: ca07 503f e870 3b3f b2e4 4b3f 6ed5 3a3f
00000010: a60c 0b3f 2e9d 573f 3836 513f 9a6a 723f
00000020: 3bb5 263f 19be 4d3f 9cea 4c3f 5bf4 3b3f
00000030: 48e3 153f f2c6 4a3f 1377 313f 362e 3f3f
00000040: 6834 783f c3b1 273f 254a 203f c46c 533f
00000050: 298f 383f 3578 073f 42af 703f 21ae 6a3f
00000060: e9a1 603f 0177 0e3f c54c 343f 7354 473f
00000070: 20ab 373f 766d 143f 8756 1c3f a4cd 093f
0.81261885 0.73219156 0.79645836 0.7298192 0.54316175 0.8422421 0.81723356 0.9469391
0.65120286 0.8036819 0.80045485 0.7341973 0.5854993 0.79209816 0.6932232 0.7467989
0.96954966 0.6550562 0.62613136 0.8258784 0.72093445 0.52917796 0.9401742 0.9167195
0.87747055 0.55650336 0.7042964 0.77863234 0.7174549 0.57979524 0.6106953 0.5382941

functional_13_1/batch_normalization_19_1/batchnorm/sub:0 f4 [64]
00000000: 2d8c 12bf 9eda e1be 7ecb f4be 57ac cdbe
00000010: 7fe2 9fbe 9d6e b8be b259 acbe 4a81 97be
00000020: 3c74 0dbf 87f7 bcbe c5a9 a7be 3fcf 00bf
00000030: 92b4 2bbe 83b3 cebe e27b e7be 06f9 d5be
00000040: ba14 a5be 268e 8cbe 0b83 15bf dcb1 f2be
00000050: ba9a e4be b282 e2be d6ab bfbe 24a4 bebe
00000060: 3fbb b3be 60da a2be 9272 acbe 457f b4be
00000070: db55 c4be 6ac8 efbe 7404 a5be 5d89 06bf
00000080: 42e0 a2be ca8f 91be 0cb6 b2be 9ed8 c0be
00000090: 72da b9be 8a37 fcbe 21a7 abbe 8084 55be
000000a0: 44c5 e4be 7236 94be 93f8 05bf ad3f b3be
000000b0: 1be9 c2be 2109 d6be f69f 5cbe 4e08 f1be
000000c0: 0b9f b1be 6cff c8be 4071 edbe 0681 adbe
000000d0: 01cf c2be 03eb 04bf c476 a9be 1e77 9bbe
000000e0: e9f9 c7be 23fd 8ebe 18ce d4be 2619 cdbe
000000f0: 219c c9be 1f82 8abe 452e a6be f845 8dbe
-0.5724514 -0.44112104 -0.47811502 -0.40170547 -0.3122749 -0.3602189 -0.33662182 -0.29590827
-0.55255485 -0.36907598 -0.3274671 -0.5031623 -0.16768101 -0.40371332 -0.45211703 -0.41791552
-0.32242376 -0.274522 -0.5840308 -0.4740132 -0.44649297 -0.44240338 -0.37435788 -0.37234604
-0.35103795 -0.31807232 -0.3368116 -0.3525335 -0.38346753 -0.4683259 -0.3222996 -0.5255335
-0.3181172 -0.28430015 -0.34904516 -0.37665266 -0.36299473 -0.49261123 -0.33525947 -0.20851326
-0.44681752 -0.28947788 -0.5233242 -0.35009518 -0.3806847 -0.4180384 -0.21545395 -0.47076648
-0.34691653 -0.3925737 -0.46375465 -0.338875 -0.38048556 -0.519211 -0.33098423 -0.30364317
-0.39057854 -0.27927503 -0.41563487 -0.4005825 -0.3937693 -0.270524 -0.32457176 -0.27592444

functional_13_1/batch_normalization_19_1/batchnorm/mul:0 f4 [64]
00000000: 4e92 723f ca2a 793f d6b4 583f be93 953f
00000010: 718d 6f3f d645 4b3f 20ea 563f f174 4e3f
00000020: 1687 803f 89a9 463f 48e0 643f 5b4f 683f
00000030: 6cde 1e3f f62f 843f 38e1 433f 4590 773f
00000040: 820b 473f 5661 323f 5c8e 833f 74a3 573f
00000050: 517d 5b3f 881f 5f3f 7d88 613f 1b62 583f
00000060: 9483 383f 4c5e 4f3f f025 743f a495 423f
00000070: 9429 253f 6e06 443f 2fad 793f fd99 433f
00000080: ecd1 863f e8ab 283f e848 9e3f ff4d 573f
00000090: 70f9 853f c622 733f 933c 893f 1c9f 8f3f
000000a0: 2d45 613f 12f8 253f 3b4c 603f c1c9 8b3f
000000b0: c637 6d3f 821d 853f b502 353f 0763 733f
000000c0: 11c8 653f c041 863f f114 573f 77ca 7f3f
000000d0: c79a 573f cd10 783f 3e5c 5d3f 854d 2f3f
000000e0: 3203 513f 55ae 4b3f 1c99 453f e3b4 7a3f
000000f0: 2ad7 793f da5a 6e3f ff04 703f 9e8f 583f
0.94754493 0.97330916 0.84650934 1.1685712 0.935752 0.79403436 0.83950996 0.8064719
1.0041225 0.7760244 0.89404726 0.90746087 0.6205814 1.0327137 0.7651553 0.9670451
0.77751935 0.6967977 1.027782 0.84233785 0.8573809 0.8715749 0.8809889 0.845247
0.7207577 0.8100326 0.9537039 0.76009583 0.6451657 0.7657231 0.9752988 0.7640684
1.0532813 0.6588731 1.2365999 0.8410339 1.0466747 0.94974935 1.0721611 1.1220431
0.8799618 0.6483165 0.8761632 1.0920945 0.9266323 1.039963 0.70707256 0.9507298
0.897584 1.0488815 0.8401633 0.9991831 0.84220546 0.96900636 0.86468875 0.6847766
0.816455 0.79562885 0.7718675 0.9793226 0.9759394 0.9310738 0.93757623 0.8459414

functional_13_1/batch_normalization_18_1/batchnorm/sub:0 f4 [128]
00000000: e440 04be 847c 123d c299 05be cc32 42bd
00000010: 8e5e 0a3d 9f63 a83c 6051 05be 6325 143e
00000020: ebea f5bd 3637 b6be 3e2c 07be de6c 243b
00000030: 3a50 0abd 68c5 85bd 036a cd3d 05a2 c93c
00000040: 4a89 0e3d 103a 68bb 605b bebd c08c 00be
00000050: 4293 a6bd d8b4 e4be 6366 a9be ed3b 4bbc
00000060: d8e9 a3bd d06d 353d de5c 97be bda3 353d
00000070: cecc f8bc 6b6a 75bd 7242 803d dcf8 8cbe
00000080: e848 c9bd e643 9cbd b7ad 3dbe 172e 9dbd
00000090: 3bee 9abe 72b8 88bd 06e9 80bd 96bc 1e3d
000000a0: 7165 59be f6d7 8dbe d01d a4be 3086 033b
000000b0: 11af dfbd 2e1f abbd aa79 13bd 35b1 f1be
000000c0: 021c a4be 430c 733d 1a3d b0be c2e9 09bf
000000d0: c480 e2be ed91 8bbd 0bbc 61bc 9e05 94be
000000e0: ef99 a3be 9d92 f93b 7ea6 c3bd e68d 84be
000000f0: d576 26bd e418 debe 6ee2 3abe 7470 4dbe
00000100: d3d8 87be d20b 6ebe e211 c3bd 002a 38bd
00000110: e25a 8fbe 00d4 ceb8 2a1e e3bc 01ab 98be
00000120: 9c8c 053d a38d 9dbe 787d dabd 98e5 91be
00000130: 79b6 a4bd 5ded 62be 4290 00bd 349b e5bd
00000140: bc4e dabe 178c 14bf 9880 c3be 3bdc eebe
00000150: f4bd d7bd 0bbf 38bd f196 473d a8aa 093c
00000160: 14ad 9abd 3083 f1bd 2178 723c 022f cbbe
00000170: 47be e8be ffcb 39bf bdcf f2bd 5aaa 39be
00000180: 81cf 00bd d50d f33c 6d26 f8be fc6b a8bd
00000190: 3629 9dbd 569f 8c3d a2b9 58be 4310 59bd
000001a0: e386 a0be 6064 1ebd 61a7 89bd 82ba be3c
000001b0: aca1 0ebf 80d8 0cbb 5e1c 6a3d 9d99 e63d
000001c0: 6501 bbbd 8fa8 15bf 7eb5 8dbe 34ba 3cbd
000001d0: 0500 a0be b684 0bbe bee5 75be 7553 a83d
000001e0: a2ce e43c c401 cabd 30d0 733d c6b2 ebbe
000001f0: 5668 b3bd 050c 1bbd 5303 b1be a059 d6bd
-0.12915379 0.03576328 -0.13046935 -0.047411725 0.03378158 0.020555316 -0.13019323 0.14467387
-0.12007698 -0.35588998 -0.13200471 0.0025089304 -0.033767916 -0.06531793 0.10029986 0.02461339
0.034798898 -0.0035434999 -0.09294772 -0.12553692 -0.08133556 -0.44669223 -0.33085927 -0.012404424
-0.080035865 0.04429418 -0.2956304 0.044345606 -0.030371096 -0.05991594 0.062626734 -0.27533615
-0.09828359 -0.07630138 -0.18523298 -0.076748066 -0.3025988 -0.06675805 -0.06294446 0.03875407
-0.21230103 -0.27703828 -0.32053995 0.0020068996 -0.10922063 -0.083555564 -0.0360047 -0.4720551
-0.32052618 0.059337866 -0.34421617 -0.5387231 -0.44238865 -0.068149425 -0.013777743 -0.28910536
-0.3195338 0.0076163546 -0.0955324 -0.2588951 -0.04064067 -0.43378365 -0.18250439 -0.20062429
-0.2653261 -0.23246697 -0.09524895 -0.04496193 -0.27999026 -9.8623335e-05 -0.027724344 -0.29817966
0.0326048 -0.30772123 -0.106684625 -0.2849548 -0.080426164 -0.2216086 -0.031387575 -0.11211243
-0.42638195 -0.5802626 -0.38184047 -0.46652398 -0.105342776 -0.045104068 0.048727933 0.008402504
-0.07552543 -0.117926 0.014799149 -0.39684302 -0.4545767 -0.725769 -0.11856029 -0.1813139
-0.03144789 0.029669682 -0.48466817 -0.082237214 -0.07673876 0.068663284 -0.21164563 -0.052994024
-0.3135291 -0.038669944 -0.06721378 0.023282293 -0.5571544 -0.0021491349 0.05715596 0.11259768
-0.09131125 -0.58460325 -0.2767753 -0.046076015 -0.31250015 -0.13624844 -0.24013421 0.08219043
0.027930561 -0.09863618 0.059524715 -0.4603483 -0.08760135 -0.03785326 -0.3457285 -0.10466313

functional_13_1/batch_normalization_18_1/batchnorm/mul:0 f4 [128]
00000000: c9a6 b33f 50b2 b23f 700f bc3f c639 b63f
00000010: 4a3a c43f 61a7 b33f fb1f bf3f 7f9b af3f
00000020: 0708 a53f 97ef ae3f 7835 b93f 276e ad3f
00000030: fb1f bf3f df8d c63f a13c be3f a653 b83f
00000040: caa6 b33f 9e24 c63f f711 c13f fb1f bf3f
00000050: a9a6 b33f 7525 ce3f 6e29 a83f fb1f bf3f
00000060: be81 b23f 5ab2 cd3f cb97 cf3f fb1f bf3f
00000070: fb1f bf3f 8bc4 c83f fb1f bf3f cfa0 b83f
00000080: c41d ca3f 6f04 cb3f a18b c03f eb56 a63f
00000090: 2f8d b93f 5925 ba3f 3683 c93f d144 a93f
000000a0: 98f9 b23f e536 ce3f f8b6 b73f 9985 b73f
000000b0: 41a7 b33f 0953 b93f fb1f bf3f 2114 ce3f
000000c0: 8f99 cc3f fb1f bf3f cd35 b63f ec3b b93f
000000d0: 8157 cc3f 92f3 ac3f fb1f bf3f 18ba c63f
000000e0: b3dc bf3f fb1f bf3f e7da b23f 75b0 b23f
000000f0: fb1f bf3f 45c3 b43f 6a7a c03f e37d c53f
00000100: 21ce c83f 604c c13f b3a6 b33f c29b bf3f
00000110: 7405 ad3f 18c5 c13f e6ad af3f 3120 c13f
00000120: fb1f bf3f a61c b13f dc63 b73f 9e10 af3f
00000130: c04b c03f 9fca a93f 055c b03f c1d1 cd3f
00000140: bfe3 bb3f 947b ab3f 6bf6 ad3f 0a49 bd3f
00000150: b656 bd3f d3a6 b33f fb1f bf3f 95b7 c23f
00000160: 4502 bf3f 97ff d33f fb1f bf3f a9a5 bd3f
00000170: ac41 d63f 4064 bc3f 6849 ba3f 31d4 c93f
00000180: 158d b23f fb1f bf3f d09a c03f 3a6c c63f
00000190: c783 b83f fb1f bf3f 1872 bc3f 2dc2 bb3f
000001a0: 2fdc b33f 25b9 ba3f 7e7f ba3f 6308 b13f
000001b0: d274 b63f a63a d63f d126 b33f 4081 c23f
000001c0: fb1f bf3f 411f c63f a818 b83f 657b c63f
000001d0: c8a9 b33f 674a ac3f 4e06 bf3f dda6 b33f
000001e0: a690 bd3f d852 b13f fb1f bf3f d813 d73f
000001f0: 6c49 d03f 508f bd3f 06fe cd3f a7c0 be3f
1.4035274 1.3960667 1.4692211 1.4236381 1.5330288 1.4035455 1.4931635 1.3719329
1.2893075 1.3666867 1.4469442 1.3549241 1.4931635 1.5512046 1.4862252 1.4400527
1.4035275 1.5479925 1.5083607 1.4931635 1.4035236 1.6105181 1.3137643 1.4931635
1.3945844 1.6070054 1.6218199 1.4931635 1.4931635 1.568498 1.4931635 1.4424075
1.5790334 1.5860728 1.5042611 1.2995275 1.4496211 1.4542648 1.5743167 1.3224126
1.398242 1.6110502 1.4352713 1.4337646 1.4035417 1.4478465 1.4931635 1.6099893
1.5984362 1.4931635 1.4235169 1.4471412 1.5964204 1.3511832 1.4931635 1.5525541
1.4989227 1.4931635 1.3973054 1.39601 1.4931635 1.4122092 1.5037358 1.5429043
1.5687906 1.5101433 1.4035248 1.4969409 1.3517289 1.5138273 1.3724945 1.5087949
1.4931635 1.3836868 1.432735 1.3676946 1.5023117 1.326496 1.3778082 1.6079637
1.4678878 1.3397088 1.3590826 1.4787915 1.4792087 1.4035286 1.4931635 1.5212275
1.4922568 1.6562375 1.4931635 1.481618 1.6738791 1.4718094 1.4553652 1.5767881
1.3949305 1.4931635 1.5047245 1.5501778 1.4415215 1.4931635 1.4722319 1.4668633
1.405157 1.4587752 1.4570158 1.3830684 1.4254401 1.6736648 1.3996221 1.5195694
1.4931635 1.5478288 1.4382524 1.5506407 1.4036188 1.3460206 1.4923799 1.4035298
1.4809768 1.3853407 1.4931635 1.6802931 1.6272407 1.480936 1.6093147 1.4902543
