models/Sl_Konjice/speed/Sl_Konjice_speed_model.onnx (onnx, 61201 bytes, 13 tensors)

functional_13_1/dense_27_1/Cast/ReadVariableOp:0 f4 [32, 1]
00000000: ac0f dfbc 185c a3bb a5be 863d 9fca 58bd
00000010: 3a0f 8cbc 040d 3c3d 0731 1ebd 84eb 8b3d
00000020: 3cac 03bd 3d3e 973d 6ddc 19bd 13ff c5bd
00000030: 25e8 7fbd 153f 173d ca73 463d 7518 febc
00000040: acdb 5ebc f440 3bbd 62b9 96bc f3b1 b53d
00000050: be2b 2dbd 5a95 2c3c fd51 863c f92b f6bc
00000060: b487 f13d e461 c83c 7ad2 5c3c af39 a1bc
00000070: 3a94 c0bd 32c6 4bbd 35de abbd 75cb 65bd
-0.027229153 -0.0049853437 0.06579331 -0.05292761 -0.017097104 0.04591085 -0.038620975 0.068320304
-0.032146677 0.07384918 -0.03756373 -0.09667792 -0.06247725 0.036925394 0.04845027 -0.031017521
-0.013602179 -0.04571624 -0.018398944 0.08871832 -0.042278044 0.010533655 0.016396517 -0.030050265
0.117934614 0.02446074 0.013477916 -0.019680826 -0.09403272 -0.04974956 -0.08391992 -0.056102235

functional_13_1/dense_26_1/Cast/ReadVariableOp:0 f4 [64, 32]
00000000: ed18 2bbe 9253 16be 9c24 42be 55c5 053e
00000010: cb8a 6bbd 01ef 5f3e b8fd cb3c de6c 34bd
00000020: 7913 4a3e dfc6 723e 1ee7 6cbe 4379 b1bd
00000030: 4cc0 a43e 3b4c 4b3d dd49 9abe 14e9 02be
00000040: cc2b 58be 9d44 4f3e 447d 863e 53be 0d3e
00000050: fdc1 f9bd 07a9 cc3d 8d5f 963d eab5 4d3a
00000060: 4823 613e 0e37 073e 2817 9d3d c481 bebd
00000070: 0725 b83d 21e4 133c 39b7 debd c5d2 163e
00000080: b034 7dbe e518 2d3b c194 0fbc b354 ddbd
00000090: 3c72 0f3e c89c 4cbd 43e7 3abe 05c0 95bd
000000a0: 2f47 693e 2cec 0abe 336c 78be 7682 22be
000000b0: db29 683d d37d 70be 74f7 143e 96f7 99bd
000000c0: adff 873d 9f5a 803e ddeb 8b3e 0a44 4ebd
000000d0: d031 463d f224 c5bd 19d6 9d3e 5cd6 cb3d
000000e0: ffcc ce3d ef09 8f3d 921a 92bd be49 363e
000000f0: e1fe 883e bd70 a3be 61e4 eabc 9c31 60be
00000100: 0a62 773d 53ad 3e3e 9150 ebbd fcad 6c3e
00000110: ab88 113e 269c 4a3d c811 60be 8dde 23be
00000120: 7706 1bbd ec57 ccbd 15f7 45be d93a b03b
00000130: f78c 81bc 061d 813e 5465 95bc 6e36 563b
00000140: eec2 20be 2d38 7a3e 103a 68bd 63be 133e
00000150: f6b0 a73d fdba 973e 1df6 e7bd e052 263e
00000160: 6da6 94bd 6e4b ebbb 1354 8fbd ddf0 f33c
00000170: 9782 acbe 81d9 8ebd 54b5 8a3d b1e6 443e
00000180: 2ca1 debc 7120 1c3e 8566 393c d67b 203e
00000190: 5636 363d 8129 833e 0d7c 1b3d 7f6c fcbd
000001a0: 915d fabd fdc3 343e c569 8c3d 2fac 343e
000001b0: 9127 6dbd 9ae2 263e ae86 2c3e 4dcf 503e
000001c0: 2667 32bd ab28 5abe 7653 303e 3f19 8f3e
000001d0: a196 bdbd 5eaa 12be f72b 1cbe ea70 4a3d
000001e0: c2f8 193e 9e12 45be 4de9 17be b005 9b3e
000001f0: 7a8b 5b3e 499a 713d 0f63 cf3d df34 9e3e
00000200: 01ee 05be df07 5dbe f6ee 22be 4deb ab3c
00000210: 097d 523e 5e76 4ebe 2538 3a3e 58e5 a63c
00000220: 1787 d13d e565 133e 6d38 5d3e 8045 563e
00000230: e6cb ddbd d74a 96be 7137 b9bc de72 b73d
00000240: 54a7 dfbd c6dc 9fbd cd6f b73d c43e eabb
00000250: 2eeb 95bd b361 13be 0fe4 23bd a243 bb3d
00000260: cd28 8b3e 6541 73be 0d96 593d 7f94 a5bd
00000270: 5a2d fabd 1b64 83bd a3fe b6bd 49fe 293e
00000280: 37ba 153d 274c a53c 1848 483d b72f bdbc
00000290: 589c 163e ffa2 6f3e cfb2 373d fea4 b0be
000002a0: de6f 46be de4e 953e ff75 6e3e c5b8 4a3e
000002b0: dcae 2a3e 0644 f8bd 4619 093e 2ae8 17be
000002c0: 5e73 343e c8c3 183e 989d 4b3d 2237 20be
000002d0: e568 a53e 91f8 73be 47f8 00bd 130e 17bc
000002e0: 3704 93be 90c7 9c3e 2c96 863d 4a9b 6ebe
000002f0: 7aa4 ea3d cffb 3ebe 05ae cdbd 9a6c 02be
00000300: d880 b33d 91c8 40be d210 aa3d 6958 e63d
00000310: 2ed4 b03d 2247 7abe 4a41 6fbe 4fee 37be
00000320: 16bd 3dbe 7da3 2a3e aa2d 73be 9cd9 98bd
00000330: 6825 343c 30f7 4f3e 93db 32be a88c 47be
00000340: 9cc2 eebd 5897 f43d e0b3 39be aafa c03d
00000350: 6b02 233e 895f 9bbc 4212 50bd cf55 333e
00000360: 38f0 cebd 9cde 2c3d f1a0 37bd 4be3 48be
00000370: 497a c53d 8bf6 6a3c 96a8 93bc 782b 4c3d
00000380: 300b 9e3d e37b 0bbc e338 0ebe af2f 85bd
00000390: f36d 9b3d 5845 61be 4adc 7bbe 7561 1d3e
000003a0: 98ff 803e 9c37 05be 6969 f03d 868f 653e
000003b0: 6eb1 ff3d 0975 d43b 58db 943d 33a9 56be
000003c0: dba7 98bd f40d 2e3d e871 8a3d 5439 823e
000003d0: 7979 96be 5dd3 9abe 75ba 513e 5044 f4bd
000003e0: d341 403e 426e 933e 7587 983e de16 da3c
000003f0: d3e6 0b3e 17a4 b3bd d79c 08be e29f d93d
-0.16708727 -0.14680317 -0.18959278 0.13063557 -0.05750541 0.21868517 0.024901256 -0.044049136
0.1973399 0.23708676 -0.23135039 -0.08665707 0.3217796 0.049633246 -0.30134478 -0.12784225
-0.21110457 0.20241018 0.26267445 0.13842134 -0.121952035 0.09993177 0.073424436 0.00078472367
0.21986115 0.13204595 0.07670432 -0.093020946 0.089914374 0.009026558 -0.10874791 0.1472884
-0.2472713 0.0026412543 -0.008763493 -0.10807171 0.1400842 -0.049954206 -0.18252282 -0.073120154
0.2278106 -0.13566655 -0.24260025 -0.1587008 0.05668054 -0.23485498 0.14547521 -0.075179264
0.06640563 0.25069138 0.27328387 -0.050357856 0.04838735 -0.096261874 0.30827406 0.09952995
0.10097694 0.069843166 -0.07133974 0.17801568 0.26756957 -0.3192195 -0.028673353 -0.21893924
0.06039623 0.18620805 -0.11489976 0.23113245 0.14212291 0.04946532 -0.21881783 -0.16002865
-0.037847962 -0.09977707 -0.19332536 0.005378109 -0.015814288 0.25217456 -0.018236794 0.0032686251
-0.1569936 0.24435492 -0.056695998 0.14428096 0.081880495 0.29634848 -0.11326239 0.16242552
-0.07258306 -0.007180623 -0.06998458 0.029777939 -0.33693382 -0.06975079 0.06772867 0.19228627
-0.027176462 0.1524675 0.0113159465 0.1567224 0.044485413 0.25617602 0.0379601 -0.123253815
-0.122248776 0.17652889 0.068561114 0.17643808 -0.05789906 0.16297379 0.16848251 0.20391579
-0.0435554 -0.21304576 0.17219338 0.2794895 -0.09257246 -0.14322802 -0.15251146 0.04942409
0.150363 -0.19245383 -0.14835091 0.30277777 0.21439925 0.05898503 0.10126316 0.30899712
-0.13079073 -0.21585034 -0.15911469 0.020986224 0.2055551 -0.20162341 0.1818548 0.020373031
0.102308445 0.14394338 0.21603556 0.2092495 -0.10829906 -0.29353973 -0.022609444 0.08957456
-0.10920587 -0.07805781 0.08956871 -0.0071485955 -0.073202476 -0.14392738 -0.040012415 0.09143759
0.27179566 -0.23755415 0.053121615 -0.08084964 -0.122156814 -0.06415578 -0.08935287 0.16600908
0.03655454 0.020177914 0.04889688 -0.023094041 0.14708078 0.23402022 0.04484826 -0.3450088
-0.19378611 0.29161733 0.232872 0.19797046 0.16668266 -0.121223494 0.13388547 -0.14834657
0.17622134 0.14918435 0.04971084 -0.15646031 0.3230659 -0.2382529 -0.031486776 -0.009219664
-0.28714153 0.30621004 0.06571612 -0.23301426 0.11457153 -0.18650745 -0.10042957 -0.1273674
0.08764809 -0.1882651 0.083039895 0.11247332 0.0863422 -0.24441198 -0.2336475 -0.17962001
-0.18529162 0.16663928 -0.23747888 -0.07463381 0.0109952465 0.20309138 -0.17466573 -0.1948725
-0.116582125 0.11942929 -0.18135023 0.094228104 0.15918891 -0.018966453 -0.050798662 0.17513202
-0.10104412 0.042204484 -0.04483122 -0.19617955 0.09642465 0.014341007 -0.018024724 0.049846143
0.077169776 -0.008513424 -0.13888888 -0.065032355 0.075893305 -0.21999109 -0.24595752 0.15369208
0.25195003 -0.13009495 0.117388554 0.22418031 0.12485014 0.0064836782 0.07268399 -0.20962982
-0.07453891 0.042493775 0.06760007 0.25434363 -0.2938955 -0.30239382 0.20481284 -0.11927092
0.1877511 0.28795058 0.29790846 0.026622232 0.13662271 -0.08771532 -0.1334108 0.10626198

functional_13_1/dense_26_1/Add/ReadVariableOp:0 f4 [32]
00000000: fdb7 9d3c 1156 043e 65ca 723d 684c e73d
00000010: 2ba7 693c 0404 1a3d 5b4d 23bc 505b a93d
00000020: 126f f63b 7577 be3d 6357 3c3d 5c39 bf3d
00000030: cdc5 50bc 37a4 a03c 718d ffbb 3d5d 563b
00000040: 1258 1cbe c4f5 73bd 6b80 e6bd 1e17 b7bc
00000050: 52a3 e9bc c1ec 01be 328f c5bd 6764 2cbe
00000060: f4b4 af3d 22f2 8abd da69 5dbd bae6 313d
00000070: c9d8 9f3d 169a 1b3e db0f b63d 7d9e e13d
0.019252772 0.12923457 0.05927505 0.1129387 0.014261047 0.037601486 -0.009967173 0.082693696
0.007520565 0.09300128 0.045981776 0.09337112 -0.012742472 0.019609554 -0.0077988436 0.0032709383
-0.15267971 -0.059560552 -0.112549625 -0.02234989 -0.02852026 -0.1268797 -0.09646453 -0.16835175
0.08579436 -0.067844644 -0.054056026 0.04343293 0.0780502 0.15195498 0.08889743 0.11016557

functional_13_1/dense_25_1/Cast/ReadVariableOp:0 f4 [128, 64]
00000000: 8dee 3d3e 0187 92bd cc75 f3bd 8568 643d
00000010: fecd 523d ea53 8bbd 7aa0 5dbd 7aa5 453b
00000020: 0a2b 2b3e eaa6 e2bd 0809 d8bd 0ad4 2cbe
00000030: 035a 6bbd c600 173e 23dc a53d 8023 b13d
00000040: 0099 b03d a5a8 21bd 4b7b 34bc cfec 6dbe
00000050: ed9b 603d 3092 a13d b9a1 42bd b876 2b37
00000060: 1b99 bebd 03c9 26be 46a8 dfbd 3693 3dbd
00000070: c26b 023c 7a64 793d baf4 18be cd28 223e
00000080: 2361 423e 62e9 4abd 3230 ec3d ef51 b5bd
00000090: 92d1 d9bd f819 a43d 3672 84bd 56c6 90bd
000000a0: dbf1 343e aae3 8d3d 915c 163e 1f93 b43d
000000b0: 8f7a dfbd 0336 8a3d 4172 133e 0f2e 66bd
000000c0: fc60 613d bba5 063e 53c2 64bb 560f 8b3d
000000d0: 5d47 143d 075a f7bd ac8e 25bd 5e85 4abd
000000e0: 673e 513c 61e3 153e aede 82bd 2071 1c3d
000000f0: 119f f7bd c5d5 3fbe d269 c1bd 7054 9f3c
00000100: 6c0a 62bd f0dd f13b d9ae cebd 6320 b7bd
00000110: ded0 76be 87f0 c03d 54f4 2ebe a723 5b3e
00000120: 825d 19be d42b 3cbd 90b3 60bd 04a1 703d
00000130: ae38 a1bd 3fed 18bd 807f 5a3d 3aaf 8dbd
00000140: e0d5 f437 4b6a 283e 23be d23d ffd4 df3d
00000150: ea75 163e 9ba3 30bd 0836 e0bc d7a4 5fbe
00000160: 0264 1a3d 9ef8 0fbe d221 003e 8776 fbbd
00000170: 8b1f e93c 0b67 0fbe 0130 b03d a373 c3bb
00000180: 1d6f f73d 46a4 b5bd 3a1f 03bd 9729 ccbd
00000190: 34a7 efbd b323 143e 6473 4c3d 1fe7 16bd
000001a0: e19b 8b3d 1889 ebbd 248c 59be d7e5 20bd
000001b0: d64a 1e3e 08ce 103e 02de 2c3e 7fef a7bd
000001c0: e3c0 b1bc 2847 efbd dd6e 77be 06f1 d73d
000001d0: f30a 8dbd d225 9dbb 7f6b 343d 41ca 503b
000001e0: e218 763e 1c2b 8ebc 6e07 2b3d 8758 e1bd
000001f0: 7a88 a2bd 2c7b 103c 9afe 5f3d 4947 953d
00000200: c06b fa3c 3a0f 913c 9f80 4b38 e480 3cbe
00000210: e8ce ebbb ea8d f6bb 97f1 bfbd e2e5 9e3d
00000220: f804 c53c a709 09be e2ca 26be 9c3d 853d
00000230: 21f8 0cbe bd74 47be d6a0 2a3e b91b 593c
00000240: dc63 7e3c bfd5 383e e75a 05be a97e 8fbe
00000250: ec7f 84bb 0c4e 61bd 75c1 12bd f511 923d
00000260: 8105 afbb 5589 133e ad3e 66bd 3c16 2dbe
00000270: 073d e63d 376d 003e 005e 83bd 8161 063c
00000280: 821a a33d c94c 13bd 9937 6fbe 3a8e 20be
00000290: 0834 e13d 80b9 d63d ec6a abbb 4285 ebbb
000002a0: 17bf 38bd 1748 8a3d e3a0 4dbe bb21 3a3c
000002b0: 96eb 3fbd b8e7 383e d52f 513c 3f5f eebd
000002c0: abd2 2f3d d290 d4bc b94b 81bd 01e8 28be
000002d0: d727 983c 1866 49be 89fc 713e 8d60 da3c
000002e0: bff2 41bd 8514 623c 1d05 4e3e a79d 4fbc
000002f0: 1c30 593e cf42 d93d ea5e a53d 752a 3f3b
00000300: ec75 5e3c bc65 d73d 7506 eebd 98cf 103e
00000310: 1335 4b3c 63ad 373d 6194 80bc 9ea5 493d
00000320: 0318 593e 2308 13be 1fe8 6b3d 99ca 0f3d
00000330: f1cf ab3c 3489 683e 537e 5c3d 73db c6b9
00000340: d356 a9bb 1b29 d03d 31dd 96bd 5464 09be
00000350: f95c 20be b62a fd3b 6f07 b0bb 65d5 3f3d
00000360: bb98 62bb 4871 51bd cfc8 3cbe d463 8fbd
00000370: f3da 843d 7ba3 fabd 03ea 313e 2490 443e
00000380: f1e1 2d3b d143 bfbd ef2a 163e 4c86 2abe
00000390: 51af 5a3e 6439 6fbe 2fdf 1f3d 1d48 6cbd
000003a0: 847a 7ebb ec41 043e b78c 313d 1a1c 4f3e
000003b0: 4784 703d 3872 e53d a4b6 c43d dcbb 96bd
000003c0: 59e7 dbbd cf44 533e 9a61 aabd 8d16 33bd
000003d0: d07c 85bd 8201 16bd 62fc 8f3d 85e0 b1bd
000003e0: 5b30 9d3d 9daa 7b3c 8d16 6dbd b2a9 3dbe
000003f0: bde6 73bc 4039 0f3e f083 fb3d 3c4a e23d
0.18548031 -0.07154656 -0.11887702 0.05576374 0.05146598 -0.06803115 -0.05410812 0.0030158446
0.16715637 -0.110669926 -0.105485976 -0.16877761 -0.05745889 0.14746389 0.08098628 0.08649349
0.086229324 -0.039467473 -0.011015723 -0.23234867 0.054836202 0.07889211 -0.047517512 1.0220036e-05
-0.09306546 -0.16287617 -0.109207675 -0.04628297 0.007960262 0.060886838 -0.14937106 0.15835877
0.18982367 -0.049538977 0.1153263 -0.08853518 -0.106356755 0.08012766 -0.064670965 -0.070690796
0.17670386 0.06928189 0.14683749 0.088171236 -0.10912048 0.06748583 0.14399053 -0.05619627
0.055024132 0.13149159 -0.0034905865 0.067900345 0.03620087 -0.12077718 -0.040419266 -0.049443595
0.012771226 0.1463752 -0.06390129 0.038193822 -0.120908864 -0.1873389 -0.09444012 0.019449443
-0.05518572 0.0073811933 -0.10091943 -0.08941724 -0.24103114 0.09420877 -0.17085391 0.21400319
-0.14977077 -0.045940235 -0.054858744 0.058747306 -0.07872139 -0.03733563 0.05334425 -0.069181874
2.918666e-05 0.16446798 0.10290172 0.10929298 0.14693418 -0.043124776 -0.027369514 -0.21840225
0.03769303 -0.14059684 0.12512901 -0.12278467 0.028457424 -0.14004152 0.08602906 -0.0059647127
0.1208174 -0.08869223 -0.0320122 -0.0996887 -0.11701813 0.14466743 0.049914733 -0.036841508
0.06816841 -0.11500758 -0.21244866 -0.039281692 0.15458235 0.14141095 0.16881564 -0.08199977
-0.02169842 -0.11683494 -0.24163385 0.105440184 -0.06886854 -0.0047957683 0.04404783 0.0031858834
0.2403293 -0.01735454 0.041755132 -0.110032134 -0.07936187 0.008818429 0.054686166 0.07288987
0.030568957 0.017707456 4.851876e-05 -0.18408543 -0.007196296 -0.0075242417 -0.093722515 0.077586904
0.02405022 -0.13382588 -0.16288331 0.06505892 -0.13766529 -0.19478126 0.16662917 0.0132512385
0.015526738 0.18050288 -0.13022958 -0.28026322 -0.00404357 -0.055006072 -0.035829026 0.07132331
-0.0053412323 0.14407857 -0.056212116 -0.16903013 0.11242109 0.12541662 -0.064144135 0.008201958
0.0796404 -0.0359619 -0.23361053 -0.15679255 0.10996252 0.104846 -0.005231252 -0.0071875164
-0.045104112 0.06752031 -0.20080905 0.011360581 -0.04685553 0.18057144 0.012767752 -0.116392605
0.042925518 -0.025947962 -0.06313271 -0.16494752 0.018573685 -0.19667852 0.23631491 0.026657367
-0.04735064 0.013798838 0.20119138 -0.012671865 0.21209759 0.10608446 0.08074744 0.0029169593
0.013577919 0.10517451 -0.11622325 0.1414169 0.012402791 0.04484309 -0.015695753 0.04923021
0.21200566 -0.14358573 0.057594415 0.03510532 0.020973178 0.22708589 0.05383141 -0.00037929005
-0.005167821 0.1016409 -0.07366408 -0.13417178 -0.15660466 0.007726039 -0.00537198 0.04683437
-0.0034575898 -0.051133424 -0.18435977 -0.070014626 0.06487074 -0.12238213 0.17374425 0.1919561
0.0026532377 -0.09339107 0.14664815 -0.16652793 0.2135594 -0.23361737 0.039031204 -0.05768596
-0.003883035 0.12915772 0.043347087 0.20225564 0.0587199 0.11203426 0.096051484 -0.0736005
-0.107374854 0.20631717 -0.08319397 -0.043722678 -0.06517947 -0.03662253 0.0703056 -0.08685402
0.07675239 0.015360502 -0.057882834 -0.18521765 -0.014886555 0.13986683 0.122810245 0.11049315

functional_13_1/dense_25_1/Add/ReadVariableOp:0 f4 [64]
00000000: 1345 f0bd 1415 893d 5fbc 7ebd 35e8 363d
00000010: 61ea dabc c4b0 b73a 17e2 a23d ecc1 853c
00000020: bbf4 7dbb a2f8 d5bc 1d19 d83d df86 58bd
00000030: 5196 26bc 589e 49bd e15d d63c d779 0c3d
00000040: fd79 253d 8fd6 c4bc ef3d d2bd 7bd6 dc3c
00000050: 652b 193c 0f56 24bc 7bd2 94bd 0b15 c83c
00000060: 79a8 72bd 16a9 443d e11b 84bc 236e 743d
00000070: 16e7 08bd 5edb dd3d cc26 00be 10ae c23d
00000080: dc7a 1f3d 9287 863c 4eea b2bd f0f6 5cbc
00000090: b9c7 773d 7ce3 9ebc aac8 603a 37b7 ab3d
000000a0: 8a43 8fbb d523 af3c fba8 973c ec0c 6cbd
000000b0: 7fe1 03bd fa9a 6cbd 7ff6 c73d d492 15bd
000000c0: b016 44bd cbfa fabc 5fb8 be3c 9a85 0dbe
000000d0: 21e4 10be e862 ecbb f706 d93c b047 b1bc
000000e0: 4e2f c6bd d47d 313c de1e c1bc 95b2 6abc
000000f0: 7a66 28bc 679c a7bd d903 17bd ab05 923d
-0.11731925 0.066934735 -0.062191363 0.044655044 -0.026723089 0.0014014472 0.079532795 0.01632782
-0.0038750607 -0.026119534 0.10551665 -0.052862998 -0.010167674 -0.049223274 0.026167812 0.034295883
0.04039954 -0.02402809 -0.10265719 0.026957741 0.009348725 -0.010030284 -0.072667085 0.024424097
-0.0592427 0.048012815 -0.016126575 0.059675347 -0.033423506 0.108328566 -0.125148 0.09505856
0.038935527 0.016422067 -0.08736096 -0.013486609 0.060493205 -0.019395582 0.0008574823 0.08384555
-0.004372065 0.02137939 0.018513193 -0.05762951 -0.03219747 -0.057764985 0.09763812 -0.03651698
-0.0478732 -0.030637166 0.023281274 -0.13820496 -0.14149524 -0.007213939 0.026492579 -0.021640629
-0.096769914 0.010833222 -0.023574289 -0.014324804 -0.010278339 -0.08184128 -0.036868904 0.07129987

functional_13_1/dense_24_1/Cast/ReadVariableOp:0 f4 [26, 128]
00000000: c806 06bd d0c4 72bc 200c 203c 4c57 6d3d
00000010: ecf6 1e3d ad81 0bbe 7457 21bd 1023 3d3d
00000020: ea6d 0bbe e58e 083e a3c1 053e ce91 df3d
00000030: 90ee 693c 00b7 27bd 9397 133e a1a5 0a3e
00000040: 7150 d1bd 095d 3e3e 308d 4ebc 4e90 b73d
00000050: 2002 123c 4899 fd3c 4488 673d f8fa 98bc
00000060: 1ae9 803d fe45 15be 60a4 3cbe 351f 2c3e
00000070: 3a77 efbd 2b6c 31be b8d3 f3bc e004 403c
00000080: 3a7d bf3d 26dc e23d c9a8 073e 0213 fd3d
00000090: 0e81 fbbd 1de9 0c3e 4101 203e 063a e53d
000000a0: 16d5 a33d bc63 1a3d 488c 893c 0098 9838
000000b0: 5572 e6bd 333b 373e c813 3a3d 5063 a63c
000000c0: 5bd7 213e 70e4 1bbd 999a 20be 0246 09be
000000d0: 8c1c 003d d487 11bd 81ea 233e e8c7 eb3c
000000e0: ca63 27be 0285 eb3d 0656 d53d 6610 88bd
000000f0: 989d afbc 44c3 6c3d 4ae8 863d 09aa 023e
00000100: 1a99 8d3d 611e 2c3e e024 423d f64d 933d
00000110: bf3e 223e f148 eabd dcd0 0c3d c4a3 92bd
00000120: adea 353e 5fee 333e 3057 df3c 8191 0a3e
00000130: 1523 e3bd 46f5 d3bd e043 c1bb 1e5b 10be
00000140: 8e0e 14be 0776 373e 8ef1 30be 78af 4fbd
00000150: 9da4 0a3e 3da3 343e 32bb 8e3d b348 363e
00000160: 91ee 173e 80d0 863b ee01 9abd 1d86 a6bd
00000170: a9e0 193e 62ea 8a3d 4fda d6bd 58b3 47bd
00000180: 98bd 16be b031 52bc bb15 4abe 4cf2 efbd
00000190: 0e31 fd3d 85c1 283e 8be3 123e 7738 39be
000001a0: e035 87bb db04 37be 9573 263e 2f17 a6bd
000001b0: 2245 f4bd 53f3 203e 0427 4f3d b6c7 b0bd
000001c0: ea2e ea3d ea94 09be 41d2 1c3e e813 68bd
000001d0: 7473 663d 889d 2c3d ee69 983d f696 c33d
000001e0: 4adb fc3d 1006 0fbe f0a5 07bd e6bb 18be
000001f0: 98cc 30be 845b 25be a3cd 27be bd7f 0bbe
00000200: 2cfd 80bd 3438 07bd 48a1 a2bd 09f8 0dbe
00000210: 752f 88bd 96fb b13c 4832 b63d 5dc1 813d
00000220: 954e dfbd 4898 19be 10d7 7d3e ae71 cabd
00000230: c7c5 2dbe 4c1a 433b d379 1c3e 604e c83b
00000240: 2885 86be e049 97bd d7d3 4e3b 3115 c53d
00000250: c63a 47bc 5194 5a3d d818 23be fef9 cebc
00000260: d125 913d 725d cd3d 5097 47be de23 e43d
00000270: 407a 58bd 0b66 3cbc 15e8 703d 7861 263e
00000280: 5c4a b63d b08a 063d fc2d 1dbe 93e6 f8bd
00000290: 7011 0b3e e598 443e fb23 063e a192 d43c
000002a0: 37a9 45be 43c8 0bbe 4331 2b3e 409f 673e
000002b0: 95e1 6b3d 4e4e 783e 7b82 a4bd b50f c0bd
000002c0: fa05 eebd 78d7 55be 4a74 9d3d 02ba 1bbe
000002d0: 641e 35bd eb03 3d3e 42b1 9f3d 99d7 6d3e
000002e0: 3e1f 0d3e cc99 22bd 409d 6cbc e898 063a
000002f0: 9630 81bd b222 a7bc 32d4 94bd 2a13 db3d
00000300: d919 283e c238 803e 450f 1dbe 4b14 f23c
00000310: 4ce6 9b3d 7261 353d 6124 01be 6182 41be
00000320: 6415 703c 9692 efbd 7fcf 78be 3fc0 5f3e
00000330: 8c4e 52be ca69 81be 1d73 023d 9f45 e5bd
00000340: e01f e73d 40d3 2ebc 2bf8 0cbe 4274 913c
00000350: afff cebd 0714 82bd cfad a6bd b592 41be
00000360: 49da 3b3d 96c6 a5bd 0711 5c3e 6cb9 633d
00000370: b936 223e 8f2a 97bd 2ad5 0bbe f191 9e3d
00000380: b96b fdbd e078 57be fde5 8a3c 3af5 bc3d
00000390: 64d3 06bd 80b8 7abe baeb 35be 1c59 b9bd
000003a0: a4d8 ac3d 6412 143e 6b02 063e fdfa ad3c
000003b0: 3aab 513e f0e9 f9bd c66f a3bd 6d17 0f3e
000003c0: 7041 45be 9e88 013e 6626 383d 3701 883e
000003d0: 09e3 14be e77a 12bd 9a09 f33d 84b6 59bc
000003e0: 4812 543d 2788 243e e0a4 25be 5398 fe3a
000003f0: 3634 5abe 3d25 c4bd 9e8a 99bc 4289 bdbd
-0.03272131 -0.014817432 0.009768516 0.05794458 0.0388097 -0.13623686 -0.039390042 0.046176016
-0.13616148 0.1333576 0.13062148 0.10916482 0.014278069 -0.040946007 0.1441329 0.13539745
-0.10220421 0.18590178 -0.012606904 0.08963071 0.008911639 0.03095688 0.056526437 -0.018674359
0.062944606 -0.14577481 -0.18422079 0.1680878 -0.116926625 -0.17326419 -0.029764041 0.011719912
0.09350057 0.11077146 0.1324798 0.12357141 -0.122804746 0.137608 0.15625478 0.11192708
0.07999627 0.03769277 0.016790524 7.276237e-05 -0.11252276 0.17893676 0.04542902 0.020311028
0.15804808 -0.03805965 -0.15683974 -0.13405612 0.031277224 -0.035529926 0.16007425 0.028781846
-0.1634666 0.114999786 0.10416798 -0.06643753 -0.021437451 0.057803407 0.065872744 0.12760176
0.069139674 0.16808464 0.047398448 0.07192604 0.15844248 -0.11439694 0.03437887 -0.07160142
0.17765303 0.175714 0.027263254 0.13532068 -0.11090676 -0.103495166 -0.005897984 -0.14097258
-0.14458677 0.17916118 -0.17279646 -0.05070445 0.13539357 0.17640395 0.069692984 0.1780117
0.148371 0.0041142106 -0.07519899 -0.08131049 0.15027107 0.06782986 -0.10490858 -0.04875502
-0.14720762 -0.012829229 -0.19734852 -0.11716136 0.12362872 0.16480072 0.14344613 -0.18087946
-0.0041262954 -0.17872946 0.16255029 -0.08109891 -0.119272485 0.15717821 0.050574318 -0.08631842
0.114347294 -0.13435712 0.1531458 -0.05665961 0.05626245 0.04214242 0.074420795 0.09550278
0.123465136 -0.13967156 -0.033117235 -0.14915428 -0.17265546 -0.16148192 -0.16387038 -0.13622947
-0.06298289 -0.033012584 -0.07940918 -0.13864149 -0.06649677 0.02172641 0.08896309 0.06335709
-0.1090366 -0.14999497 0.24789071 -0.09884964 -0.16969977 0.0029770313 0.15280847 0.0061128587
-0.26273465 -0.073871374 0.0031559372 0.096231826 -0.012160009 0.0533641 -0.15927446 -0.02526569
0.07087291 0.10027589 -0.19491315 0.111396536 -0.05285096 -0.011498938 0.05881508 0.16248119
0.08900902 0.032847106 -0.15349573 -0.121533535 0.1358087 0.1919895 0.13099663 0.025948824
-0.19302832 -0.13650613 0.1671801 0.22619343 0.05758818 0.24248621 -0.080327 -0.09377996
-0.11622234 -0.20882976 0.07688196 -0.15207675 -0.044218436 0.18458526 0.07797481 0.23226775
0.13781449 -0.039697453 -0.014441788 0.0005134479 -0.06308095 -0.020402286 -0.072670355 0.10697015
0.1641611 0.25043303 -0.15337856 0.029550692 0.07612285 0.044282384 -0.12611534 -0.18897392
0.014653537 -0.11697881 -0.24297903 0.2185068 -0.20537776 -0.25276023 0.03184806 -0.1119492
0.112853765 -0.010670483 -0.13766544 0.017755631 -0.101073615 -0.06351476 -0.0813862 -0.1890362
0.04586247 -0.08094518 0.2149087 0.055596754 0.15841188 -0.07381164 -0.13655534 0.0774268
-0.12374062 -0.21042204 0.01695537 0.09226461 -0.03291644 -0.24484444 -0.17765704 -0.090501994
0.084397584 0.1446014 0.1308686 0.021237845 0.20475474 -0.12202823 -0.079803035 0.1397378
-0.19263244 0.12649772 0.044958495 0.26563427 -0.14539732 -0.03576174 0.11867066 -0.013288144
0.051775247 0.16067563 -0.16176176 0.0019424058 -0.2130898 -0.09577415 -0.018742856 -0.092546955

functional_13_1/dense_24_1/Add/ReadVariableOp:0 f4 [128]
00000000: e0a6 c9bd 2845 f0bc 75bf ffbc 138f c7bd
00000010: 7028 963d 4061 d83d 539f c13d 0f24 25bd
00000020: becc a13d 13d8 b3bd a2af a7bb b19b 063e
00000030: 6d53 afbd e0c7 c4bd 0000 0000 0000 0000
00000040: 8044 8dbd 5d37 533d 0d1e d73b ccdf 41bd
00000050: 4d70 913d c774 d0bd 0000 0000 0118 723d
00000060: 91a3 5d3d c013 dbbc 5ee5 75bd 0265 693d
00000070: 46b5 e1bd 24ee df3d 0a25 5f3d 5e04 8a3d
00000080: 6d17 1bbd dd4d 163a ea96 63bd 53eb 883d
00000090: f22f aa3d 1c16 70bd 824b 243c 5924 b23b
000000a0: e6f1 dd3d fa7d 903c 2115 31bd 2ea7 c53d
000000b0: f28c 8f3d f4ac 2abd 89aa 9f3d 8c12 cc3d
000000c0: 3681 563c 5a91 563d 2673 88bd a876 50bd
000000d0: 0000 0000 8802 013d a280 863d 3b5b 8d3c
000000e0: 430f ddbb 0000 0000 0dfc 653d 5e16 043d
000000f0: f6ec d93b 3521 de3c f072 afbc bf84 21bc
00000100: 5a25 103e bdcb 083d 1636 7d3d b543 68bd
00000110: e820 acbd a460 80bd 3639 a8bd 91e1 75bd
00000120: 29bb 56bd 0000 0000 8468 7abd 6d31 163d
00000130: c941 91bd 57ee 263c dce9 623d 741e f0bc
00000140: 5a0b 64bd 7aba 1d3d 9961 3dbd 8645 a93d
00000150: 2115 8abd 81ef f7bc 9abc 60bc 0eac a53d
00000160: b10a c8bd 09fb ec3c 5a76 9a3d 02ea bfbd
00000170: e8fb cd3c 8a03 0e3c 4587 8a3c 4e56 883c
00000180: ff2c a3bd 4d96 21bd 11b0 0abe c123 bdbd
00000190: 9b22 35bd e9a0 e3bc f37e 91bd 64dc 75bd
000001a0: 1e24 d83c 2686 f6bc 4677 eebd c83a 993d
000001b0: 215f 893d 0eff 4b3d de32 ccbc 0367 2abd
000001c0: a18e 46bd 8be5 75bd 1082 66bd 3cef 2f3d
000001d0: b69b 0b3d eeba debc c4da a1bc e694 853d
000001e0: 7818 c83c 23e1 78bd 134c 7ebd 52c6 523c
000001f0: 66e6 6fbc f900 bd3c f81f cabc 8928 723c
-0.09846282 -0.029329851 -0.031219224 -0.09744086 0.073319316 0.10565424 0.09454217 -0.04031759
0.079003796 -0.08781447 -0.0051173726 0.13145329 -0.08560834 -0.09608436 0.0 0.0
-0.06897831 0.05156647 0.0065648616 -0.04733257 0.07101498 -0.101785235 0.0 0.059104923
0.054111067 -0.026742816 -0.060033195 0.056981094 -0.11020903 0.109340936 0.054478683 0.06739114
-0.037864137 0.00057336484 -0.055563845 0.066855095 0.08309926 -0.058614835 0.010027768 0.005436462
0.10837154 0.017638195 -0.04323304 0.096510276 0.07009305 -0.041668847 0.07796199 0.09964475
0.01309233 0.05238471 -0.06662588 -0.05089441 0.0 0.031496555 0.065675035 0.017255416
-0.006746204 0.0 0.056148577 0.032247894 0.0066505624 0.027115444 -0.021417111 -0.009858309
0.14076748 0.033397425 0.06181916 -0.056705195 -0.08404714 -0.06268433 -0.08214037 -0.06002957
-0.052424584 0.0 -0.06113483 0.03666823 -0.07092626 0.010188661 0.055398807 -0.029311396
-0.05567489 0.038507916 -0.046235655 0.08265214 -0.06742311 -0.030265572 -0.013716841 0.080894575
-0.09767664 0.028928297 0.07542105 -0.09370805 0.025144532 0.008667836 0.016910205 0.016642716
-0.07967567 -0.03944998 -0.13543727 -0.09235335 -0.044222455 -0.027786689 -0.07104292 -0.060024634
0.02638441 -0.030093264 -0.11643843 0.07481915 0.067075975 0.049803786 -0.0249266 -0.041602146
-0.048475865 -0.060033362 -0.05627638 0.04295276 0.034084044 -0.027188744 -0.019757636 0.06522541
0.02442573 -0.060761582 -0.06208427 0.012864666 -0.014642334 0.023071753 -0.024673447 0.014780172

functional_13_1/batch_normalization_20_1/batchnorm/sub:0 f4 [32]
00000000: 9860 1abf 69cd 07bf 70e5 05be 8f94 00bf
00000010: 0ef9 cdbe 7e96 c4bd b359 17bf 6782 6abe
00000020: fe6b d9be 0f30 13be ee9e 0bbf 070c e8be
00000030: b119 01bf 31cc 02be 8034 17be de3f fcbe
00000040: 4c6e 83be c2a6 d6be b38e 8cbe c83c 12be
00000050: 462b eabe 0e83 a9be ed9e c1be 1a95 13bf
00000060: 0ed4 0ebe 589f 26be 1ccf 3abe 7035 24be
00000070: e8a8 03bf ddd5 e4be eb30 f4be 8ec2 11bf
-0.6030364 -0.53047806 -0.13075805 -0.5022668 -0.40229076 -0.095990166 -0.59121245 -0.22901307
-0.42465204 -0.14373802 -0.5453938 -0.45321676 -0.50429827 -0.12773205 -0.14766121 -0.49267477
-0.25670087 -0.419241 -0.2745262 -0.14280999 -0.4573614 -0.331078 -0.37816563 -0.57649386
-0.1394808 -0.16271722 -0.18243068 -0.1603601 -0.51429605 -0.44694415 -0.4769357 -0.5693749

functional_13_1/batch_normalization_20_1/batchnorm/mul:0 f4 [32]
00000000: 538a 5b3f 15ca 4d3f 2544 383f 33b8 2b3f
00000010: 9b2e 843f 7e25 483f 5a93 283f 2f1b 1f3f
00000020: 8a47 213f 26db 273f 0ef6 4b3f 5cef 153f
00000030: 3d9b 003f 7d85 733f 212d 3c3f 75d7 713f
00000040: 0419 673f 5a5e 183f 04ca 5e3f 6a38 013f
00000050: 1df5 523f fcc2 693f 0b31 4e3f 500e 523f
00000060: c892 2e3f c512 0d3f 419a 483f 97a3 6c3f
00000070: 0a91 1d3f da35 2a3f 5abe 333f 3cae 493f
0.8575794 0.8038648 0.7197898 0.6707794 1.0326723 0.7818221 0.6584984 0.62150854
0.62999785 0.6556877 0.79672325 0.5856836 0.50236875 0.9512556 0.7350636 0.94469386
0.90272546 0.5951897 0.87027 0.50476706 0.82405263 0.9131315 0.80543584 0.8205309
0.6819272 0.55106765 0.7836037 0.9243712 0.6154944 0.6648842 0.7021233 0.78781486

functional_13_1/batch_normalization_19_1/batchnorm/sub:0 f4 [64]
00000000: 1483 87be 5d5d fbbe 9c83 e2be 1b0c 8bbe
00000010: 563c 82be 8a8e c0be 30c0 e6be 22ff ccbe
00000020: 820a 9fbe 7ca7 e1be f92a c2be 31c8 9cbe
00000030: e4c3 e4be b637 e0be f857 e7be f7f1 b6be
00000040: 685d d3be 7a17 aabe 2d06 06bf 5a9f abbe
00000050: 6939 16bf a8de e4be 32ac afbe 86ba 89be
00000060: aa03 b2be 2430 efbe 2f95 0bbf 5a93 d2be
00000070: ce01 f9be b598 f2be 3433 96be cc76 09bf
00000080: bfff c2be a47b debe 5f07 b8be 7b96 1dbf
00000090: 526a c0be 66fc 03bf c5df 10bf f2d5 e6be
000000a0: c3f6 93be 477e 87be e079 babe 90a5 a9be
000000b0: ec54 b3be b570 eebe b27f 0ebf 74e1 b5be
000000c0: 0063 cabe 0f8d ccbe 4f73 debe d74d bbbe
000000d0: 1a3d 6bbe b04f 0ebf 1386 c7be 1c3a e7be
000000e0: d4fc d9be b0a3 06bf c274 ffbe 81ea d5be
000000f0: ce41 d4be 14e8 80be e89c acbe f374 71be
-0.26467192 -0.49094668 -0.44241035 -0.27157673 -0.25436658 -0.3760875 -0.45068502 -0.400384
-0.31062704 -0.44073093 -0.3792341 -0.30621484 -0.44680703 -0.43792504 -0.45184302 -0.3573148
-0.412822 -0.33221036 -0.52353173 -0.33520013 -0.5868135 -0.44701123 -0.34311062 -0.2690012
-0.3476842 -0.46716416 -0.5452451 -0.41128045 -0.4863419 -0.4738213 -0.2933594 -0.53696895
-0.38085744 -0.43453705 -0.35943124 -0.6155774 -0.37581116 -0.51557004 -0.56591445 -0.45085102
-0.28899202 -0.2646353 -0.36421108 -0.33134127 -0.35025728 -0.46570364 -0.556636 -0.3552357
-0.39528656 -0.3995137 -0.43447348 -0.36582825 -0.22972527 -0.55590343 -0.38969478 -0.4516152
-0.42575705 -0.5259352 -0.49893767 -0.41780475 -0.41456455 -0.25177062 -0.3371346 -0.23579769

functional_13_1/batch_normalization_19_1/batchnorm/mul:0 f4 [64]
00000000: a7d9 373f 40d1 8c3f 2bf5 4c3f 4286 9b3f
00000010: e6a5 743f 2a7e 8f3f 9d18 523f dc52 823f
00000020: a154 643f 0fee 8d3f a526 7c3f 1e24 803f
00000030: 14e1 5d3f 7207 863f 9024 413f 7daa 1a3f
00000040: cdb7 263f f60f 4e3f f43a 913f 9cba 673f
00000050: 3abc 853f 7416 553f d1da 573f e968 563f
00000060: da7b 563f 3650 4d3f acd9 833f 3f52 4f3f
00000070: 8e88 3b3f 0af9 5e3f 0b07 5e3f 5812 2f3f
00000080: 881b 2a3f 29be 623f 71b6 653f 399e 7e3f
00000090: 5a51 653f 2285 823f 54b5 513f 38ad 223f
000000a0: 4f19 6b3f 92d8 803f 0d41 413f 349f 8e3f
000000b0: bbba 643f c6cd 2b3f 0b0b 843f 7179 373f
000000c0: afb0 543f 6705 133f 5d90 3c3f 6a72 943f
000000d0: ceac 893f 3082 713f 544b 903f 8aee 5d3f
000000e0: 047b 4e3f 051c 243f 102c 723f 7a52 833f
000000f0: 1fb0 663f 5295 763f bece 5a3f 3d8f 633f
0.71816486 1.1001358 0.80061597 1.2150347 0.9556564 1.1210377 0.82068807 1.0181537
0.89191633 1.1088275 0.98496467 1.0011022 0.86671567 1.0471022 0.75446415 0.60416394
0.6512421 0.80493104 1.1346116 0.9051912 1.0448067 0.83237386 0.8431826 0.8375383
0.8378273 0.8020052 1.0300803 0.8098487 0.7325524 0.87098753 0.86729497 0.68387365
0.6644826 0.8857141 0.8973151 0.9946018 0.8957726 1.0196879 0.8191731 0.6354556
0.9183549 1.0066092 0.75489885 1.1142335 0.8934743 0.6711086 1.031587 0.7166968
0.830821 0.5743012 0.7365778 1.1597416 1.0755861 0.94339275 1.1272988 0.86692107
0.80656457 0.64105254 0.94598484 1.0259545 0.9011249 0.96321595 0.85471714 0.8889044

functional_13_1/batch_normalization_18_1/batchnorm/sub:0 f4 [128]
00000000: 3310 523d 89d6 78bd 028e 743d a7d7 98bd
00000010: 7c00 bebd b84d ebbe 94ed a6be f6b2 82be
00000020: 69b4 f0be 354d bd3d b31e aebe b960 90be
00000030: 8468 78bd 5d10 343d 62a2 653d 0fb5 783d
00000040: 0533 283c b346 62be 7c30 c3be 9df0 88bd
00000050: fe23 8dbe 4a83 96bc 90dd 463c 71fb 99be
00000060: 229f edbe 9012 153c a764 bb3c e6d6 7ebe
00000070: 2552 87bc 9f16 19be 96fa 83be 1db3 18be
00000080: 9496 bdbe ecbb f2bc fc27 a33d ab2e a6be
00000090: d2b0 dfbe 3caa d9bd e5d1 b1be a1e9 0ebe
000000a0: 5e50 34be b2ea fbbc a0e6 e2ba 5416 94be
000000b0: e90f 03bf c83e 12be e4fd 8bbe 6aab 1dbe
000000c0: 9ff0 95bd 1a41 54be 8eb6 8abd fccf 96be
000000d0: f0d0 83bc 305c 52be d717 72be e8c4 503d
000000e0: 6b6e 39be dc33 003d b8e3 c6be 5f41 2ebe
000000f0: 3f64 75be 1204 54be 8e6d 13bd e8a9 3e3d
00000100: ca5f f7be 0963 9fbe 6a5a 58be 1861 0c3d
00000110: cebc 80bd ecb9 47bc 857d 7fbd 528a 72bd
00000120: 99c7 ed3c 67bd 01bd c47a 23bd 3245 07be
00000130: e786 0ebd 3077 d5bc 13fe f4be 84ca b7bd
00000140: 4b0c 3abe 9c54 ccbe 46a7 16bd b62e 04be
00000150: 461c 9abd 2e82 e1bd 56ae 543c 80bc 3bbe
00000160: 7a27 293c a636 56be 4e8d b8bd 1024 a83d
00000170: 721c 9fbc 6f17 bebd 862e 0fbe fc2d 8dbe
00000180: 24ff c83d a915 afbd 408e eb3c 7bb2 f5bd
00000190: 2894 87bb 7a94 453d 13a1 863d b5a4 503c
000001a0: 2074 713b f0c5 71bd c021 aabb c1a9 61be
000001b0: 35e7 91be 54db 7cbe 6456 803d 61d4 86be
000001c0: 1d10 4fbe b42c 8ebc efde 68bd 4adb 7bbe
000001d0: 0999 b0be 36d7 7d3d 8e41 fabd d5fb f6be
000001e0: 3e73 c8be b6fd d7bd ab5f 98bd f83c 5ebe
000001f0: ada0 4b3d 5401 18be 4216 473d 138c 8ebe
0.05128498 -0.06075147 0.05970574 -0.074630074 -0.09277436 -0.45957732 -0.32603133 -0.2552716
-0.47012642 0.09243242 -0.34007797 -0.28198794 -0.06064655 0.043960918 0.056063063 0.060719546
0.01026607 -0.22097282 -0.38122928 -0.06686518 -0.27566522 -0.01837315 0.012137786 -0.30074647
-0.4641047 0.009098664 0.022875143 -0.24886665 -0.016518662 -0.14950036 -0.2577712 -0.14912076
-0.37028944 -0.029630624 0.07966611 -0.3245748 -0.4368959 -0.10628173 -0.3473045 -0.1395631
-0.17608783 -0.03075156 -0.0017311163 -0.28923285 -0.5119615 -0.14281762 -0.2734214 -0.1539742
-0.073212855 -0.2072796 -0.06773101 -0.29455554 -0.01609084 -0.20542979 -0.23641907 0.050969034
-0.18108527 0.031299457 -0.3884561 -0.17017125 -0.23964022 -0.20704678 -0.03599315 0.046548754
-0.4831527 -0.31130245 -0.2112824 0.034272283 -0.06286012 -0.012190323 -0.062375564 -0.059213944
0.02902584 -0.03167477 -0.039912 -0.1320999 -0.03479662 -0.02605781 -0.47850093 -0.08974174
-0.18168752 -0.39908302 -0.036780618 -0.12908444 -0.07524924 -0.11011158 0.012981018 -0.18333626
0.010324353 -0.20919284 -0.09011327 0.082100034 -0.019422743 -0.09281813 -0.13982591 -0.27574146
0.09814289 -0.08549053 0.028754354 -0.11996933 -0.0041375346 0.0482373 0.06573691 0.012734582
0.0036842898 -0.05902666 -0.0051920116 -0.22037412 -0.2849671 -0.24693042 0.06266478 -0.26333907
-0.2022099 -0.0173553 -0.05685323 -0.24595371 -0.34491757 0.06197282 -0.12219535 -0.48239008
-0.39150423 -0.105464384 -0.07440122 -0.21702945 0.04971378 -0.14844257 0.04860521 -0.27841243

functional_13_1/batch_normalization_18_1/batchnorm/mul:0 f4 [128]
00000000: 3834 b73f 77fd b63f 75a4 be3f 6c12 aa3f
00000010: 967b cc3f 5791 c73f 0297 ae3f 62b2 a93f
00000020: 2f82 c63f cf7e c73f 346c ae3f 27e5 c03f
00000030: 402f b63f ad93 b03f fb1f bf3f fb1f bf3f
00000040: 72f1 ae3f 1718 b93f 49ad c03f c856 b23f
00000050: d070 b63f 246c c03f fb1f bf3f 7671 b53f
00000060: 15d4 ac3f 8da1 b63f 6ba7 b33f 63a6 c23f
00000070: 6521 af3f 0f5b af3f 6e7f cd3f 2754 ad3f
00000080: c085 b43f 2e13 b93f 8d83 b43f bcb0 b43f
00000090: 37b8 b53f c58e c03f 5465 ca3f f36b ce3f
000000a0: 8405 cd3f 9bf5 b83f 7ec2 c93f a120 c43f
000000b0: 5fbd b63f d356 be3f 0612 bc3f c67b ce3f
000000c0: 5a4a c23f 1892 d13f 4a98 cf3f 5d53 b33f
000000d0: fb1f bf3f 1e28 c23f 29a1 c93f 6597 ba3f
000000e0: c94e c13f fb1f bf3f f1f0 b33f 1084 b63f
000000f0: 63b9 c13f 0e74 9c3f c700 c33f f474 bb3f
00000100: 416d bf3f d293 b73f 8e62 bc3f f8e4 cd3f
00000110: e4af bc3f 0858 c93f ad62 c13f fbaa b33f
00000120: 3bd1 bb3f fb1f bf3f 7b48 af3f 180d b53f
00000130: be52 b13f 4e26 be3f b781 c43f 1251 c23f
00000140: a20f b83f e778 c03f 9074 c03f 23bf a03f
00000150: 29f6 b43f ee33 c13f f6e7 9e3f 4e22 c03f
00000160: 19d3 c13f a94b cf3f ed6a c53f 96b3 c23f
00000170: f09a b83f 4525 be3f bb4c cb3f f26c b83f
00000180: da31 b03f 781b bc3f 362f ca3f b089 b63f
00000190: 22cd b13f cac8 b33f 3eb5 b03f afa8 b33f
000001a0: 6f47 a93f bba4 c33f 4bf7 b43f 7370 ba3f
000001b0: 4bd3 c93f 3688 ad3f 2475 ad3f b7ee c63f
000001c0: f9be c43f 84a6 b33f 55ef d33f 9dad b93f
000001d0: 83b7 b73f d9db c63f 1d0f c13f 7e7d b33f
000001e0: e324 b73f bb45 b93f ccd1 c03f aaa6 ba3f
000001f0: a89b ac3f e04d db3f c0f5 c83f 1c78 cc3f
1.4312811 1.4296101 1.4893938 1.3286872 1.5975215 1.5591229 1.3639834 1.3257563
1.5508479 1.5585574 1.3626771 1.5069932 1.423317 1.3795067 1.4931635 1.4931635
1.3667433 1.4460477 1.5052882 1.3932734 1.4253178 1.5033002 1.4931635 1.417525
1.3502222 1.4268051 1.4035467 1.5207027 1.3682066 1.3699664 1.6054513 1.3541306
1.4103317 1.4458978 1.4102646 1.4116435 1.4196843 1.504357 1.5812173 1.6126693
1.6017308 1.4449953 1.5762479 1.5322458 1.4276541 1.4870247 1.4693 1.6131523
1.517894 1.6372709 1.621835 1.4009815 1.4931635 1.5168493 1.5752307 1.4577452
1.5102168 1.4931635 1.4057904 1.4259052 1.51347 1.2222917 1.5234612 1.4645066
1.4955217 1.4341986 1.4717577 1.6085501 1.4741178 1.572999 1.5108238 1.4036554
1.4673227 1.4931635 1.3693994 1.4144621 1.3853376 1.485544 1.5352086 1.5180991
1.4379771 1.5036896 1.5035572 1.255833 1.4137622 1.5093973 1.2414539 1.5010469
1.5142547 1.6194965 1.5423256 1.5211055 1.4422283 1.4855124 1.5882791 1.4408247
1.3765213 1.4695883 1.5795658 1.4260769 1.3890727 1.4045651 1.3805311 1.4035853
1.3224925 1.5284647 1.4137968 1.4565567 1.5767606 1.3557193 1.3551373 1.55416
1.537078 1.4035192 1.6557413 1.4506108 1.4352878 1.5535842 1.5082737 1.4022672
1.4308132 1.4474405 1.5064025 1.4582112 1.3485003 1.713314 1.5699997 1.5974154
